bike_sharing/AutogluonModels/ag-20220403_215705/models/NeuralNetTorch_BAG_L2/S1F7/net.params (torch, 215879 bytes, 9 tensors)

weight f4 [128, 22]
00000000: 05ce 15be 3711 4f3e 3aa0 1abe f77e c4bd
00000010: 942c c5bd 0262 f63d 284f 9b3d 0342 393e
00000020: 7b80 1b3d 8782 123d 240d 60bd 4d67 0f3d
00000030: 806a 49be 61d6 11be 7b40 dcbd a6c0 903b
00000040: 1275 053e fb2f 033e be7a dfbd 3fb0 ccbd
00000050: 1bf4 c73d 9e0d 253e 2a7b 2dbe 64ed 963e
00000060: 4854 b23b 0678 3b3d 329d 153e d19d 33be
00000070: 1e34 f5bd 6a8a 27bd 94c7 e3bd b25d 393e
00000080: b30a 15be 3d3f 1abe 42ec 2fbe e63a 02be
00000090: c3b9 fabd 945d 713e 4062 1c3e bf82 f83c
000000a0: 4183 c53d 37b8 85bd e2e8 c83c 57f0 08be
000000b0: 462f 18be d99e ddbe 1ac8 633d 4d99 023e
000000c0: 20c4 aebd 63a3 60bc 974d 043e df4a b53d
000000d0: 93a6 373d df34 1f3d d4f5 073e 78a9 05bd
000000e0: 3470 223d 46eb 13be 5d64 f7bd ab84 b7bd
000000f0: e11f 223e 0b39 003c 0c14 11be 2912 973d
00000100: 6c6f ac3d 60d2 723c 4c6a a6bd fa43 533e
00000110: 4761 023e c989 ec3d 533d a1bd 2c7a fdbd
00000120: 1b16 4d3d 260b 463e 31c5 c83d ec2a 343e
00000130: 4c5e df3d 0b26 00be d5a8 b63a 5467 00be
00000140: 13ce 78be 36b2 1d3e ac8b 053e 93e8 d8bd
00000150: 8779 0e3d d530 d6bd bf4c a33c 92a4 3cbe
00000160: 9c3f d43d ad93 bfbe e91b 2e3d be7d 733d
00000170: 9ad0 5a3e d156 c43d 4b02 51be 9651 c3bd
00000180: 963a e03c 61f9 e23c 73e2 f9bd 889f bbbd
00000190: ef26 223e ba57 243e ac00 8abd 8176 c6bd
000001a0: 8506 5dbe e366 6f3d 212f ccbd e79b 34be
000001b0: c1bb 3fbc a37b b33d 6aa9 8abe 5aa9 723e
000001c0: c0e9 0abe 5e45 213e 43ed 643d 851c a9bd
000001d0: 147f 013d a0ec aebc b020 fd3c 0fc9 ee3c
000001e0: 5aed c03c 28b0 99bc 23e2 cdbd c09e 9b3d
000001f0: e433 56be 2569 9bbd 208d 15bd c57e 35bd
00000200: 7e29 a6bd cc88 2abe 0a31 12be 14db c03d
00000210: 9762 28be 8050 04be 765d cd3d 8678 61bd
00000220: a1e6 7abd 3161 21bd c40e b63c f2af 143e
00000230: 38b7 6e3e 0f81 b03d d315 1c3e ed2f b5bc
00000240: f82e 1dbe 3348 fdbd 552a 113e fb17 40bc
00000250: 6f6f fabd a0bd f6bd 7bd3 52be 1591 5bbe
00000260: 59a7 1abe ad96 103e 9da2 993e 3d55 c1be
00000270: 6112 ef3d 9125 0abe ee2e a7bb 7f66 b2bd
00000280: 2338 38bd 7d05 d739 9324 b6bd 330f c5bd
00000290: fcd6 653c d364 01bb 0b64 88bd 3489 b23d
000002a0: defb 0fbe d03a 403c 1c68 303e bd97 a4bc
000002b0: fd57 fb3d 7c7a d23d b567 04be 04ba c23d
000002c0: 1b0e 3d3e f825 a4be 3ecd e43d 6f3e 11be
000002d0: b2d3 f43c 8955 acbd 46ac c83d ea8b 813c
000002e0: d213 2c3d a559 243d b4a3 59bd 6e5d dcbb
000002f0: 2ec8 acbd 8911 b53d 2a36 363e 2c05 ad3d
00000300: 6b0b 42be a148 a23b 854e 09be 4205 18be
00000310: 2f8d 6fbe dceb c03d 23fa 83be 00fb babe
00000320: 45df 46bd d332 523e 98e0 01be 7710 1ebd
00000330: 2c3b f5bc 38a3 1d3d be02 96bc 1827 593d
00000340: 8605 843d cb8d 533d 1e5e 9dbc 3bf0 bebc
00000350: 32e1 633d a39d 90bc e506 6d3c d087 25ba
00000360: 713d acbd 17f5 87be e3b7 0c3e db87 d0bd
00000370: 2ca7 49be baa4 a63e 2cdf 003d 13bc 94bd
00000380: 3dc3 09be 6d2a ec3d df2a 0ebe 4058 ef3b
00000390: 29d2 8abd c5fd 89bc 7f38 803d 2607 ff3d
000003a0: f32c 933c 6a81 0b3e d5d5 343d 9f55 1cbe
000003b0: 6e8e b33d be85 47bd 1eff 01be f684 ac3c
000003c0: b4d9 e03c 25de f23d 4f03 8cbe 0a24 91bd
000003d0: 7847 8b3d 8f73 53be e64f 073e 8f07 01be
000003e0: 2e07 323d 55de 9ebc 0553 efbc 7fe8 31bc
000003f0: fdb8 273e 7117 84bd 4d6a 17be 1e79 4abd
-0.14629371 0.2022141 -0.15100184 -0.09594529 -0.09627643 0.12030412 0.07583457 0.18091588
0.037964325 0.03576901 -0.054700032 0.035010625 -0.19669533 -0.14241935 -0.10754486 0.0044174967
0.1303294 0.12811272 -0.10912083 -0.09994554 0.09763356 0.16118476 -0.16941515 0.2947799
0.005442176 0.04576876 0.14610747 -0.17540671 -0.11972831 -0.040903486 -0.11122051 0.18102148
-0.14554863 -0.15063186 -0.17179969 -0.1271778 -0.122424625 0.23570853 0.15271854 0.030335782
0.09644175 -0.06529277 0.02452511 -0.13372932 -0.14861783 -0.43285254 0.055610754 0.12753792
-0.085335016 -0.013710829 0.12920223 0.08852171 0.044836592 0.03886878 0.1327737 -0.03263232
0.039657786 -0.14445218 -0.1207969 -0.08960851 0.15832473 0.0078261 -0.14167804 0.07376511
0.084196895 0.014820665 -0.08125743 0.206314 0.12732421 0.11549718 -0.07873025 -0.12376818
0.05006991 0.1934019 0.09803236 0.17594498 0.109066576 -0.12514512 0.0013935814 -0.12539417
-0.24297361 0.15400013 0.13041562 -0.10591235 0.034783866 -0.10458533 0.019934056 -0.18422154
0.10363695 -0.37417355 0.042507086 0.05944609 0.21368638 0.095868714 -0.20411031 -0.09537046
0.027371686 0.027706804 -0.12201395 -0.091612875 0.15835164 0.1604909 -0.067384094 -0.096905716
-0.21584518 0.05844773 -0.099699266 -0.17637597 -0.011702479 0.08763816 -0.27082378 0.23697415
-0.13565731 0.15749118 0.055890333 -0.08257393 0.03161533 -0.021353066 0.030899376 0.029148607
0.023550678 -0.018760756 -0.10052898 0.075986385 -0.20918232 -0.07588414 -0.03651154 -0.04431035
-0.08113383 -0.16653746 -0.1427652 0.09416786 -0.16443859 -0.12921333 0.10027592 -0.05504658
-0.0612551 -0.03939933 0.022223838 0.14520243 0.2331208 0.08618366 0.152427 -0.02211758
-0.15349948 -0.123672865 0.14176305 -0.011724467 -0.122282855 -0.12047887 -0.20588486 -0.21442063
-0.151029 0.14119978 0.30006877 -0.37760344 0.116734274 -0.13490893 -0.00510203 -0.08710956
-0.04497541 0.00041012085 -0.08893695 -0.0962204 0.014028307 -0.0019743934 -0.06659707 0.08717576
-0.14060923 0.011732772 0.17227215 -0.020091886 0.12272642 0.10277268 -0.12930186 0.09508136
0.18462412 -0.32060218 0.11171959 -0.14183973 0.0298861 -0.08414752 0.097984836 0.015813787
0.04201109 0.040124554 -0.053134635 -0.006725005 -0.08436619 0.08841235 0.177941 0.08448252
-0.18949668 0.0049525057 -0.13408859 -0.14845756 -0.23393701 0.094199866 -0.25776777 -0.36519623
-0.04855277 0.205272 -0.12683332 -0.03858992 -0.029935442 0.038485736 -0.018311854 0.0530158
0.06446366 0.051648896 -0.019209918 -0.02330791 0.055634685 -0.017653292 0.014466976 -0.0006314488
-0.084101565 -0.26554176 0.13742022 -0.101821624 -0.19692677 0.3254755 0.031462833 -0.07262435
-0.13453384 0.115315296 -0.13883542 0.0073042214 -0.06778366 -0.01684464 0.06260776 0.12452535
0.01796577 0.13623586 0.04414924 -0.15267037 0.08767401 -0.04871153 -0.12694976 0.021059494
0.027447559 0.11858777 -0.27346274 -0.07086952 0.06800741 -0.20649551 0.13214073 -0.1260054
0.04346388 -0.019393126 -0.029214391 -0.010858654 0.16379161 -0.064497836 -0.14786644 -0.049431913

bias f4 [128]
00000000: a80a 3abe 5610 a0bd 780a 86bb 98d0 b8bd
00000010: 0581 93bd 06de ec3d 9feb 45bd b478 653d
00000020: 2a9b 263e 0df7 32be a3cf 21be 11d1 c7bd
00000030: d643 abbc ea99 c4bd 7259 47bd cc02 9e3c
00000040: 9da4 803d d9ea 0a3e e7f2 123e b792 883c
00000050: 0e9e 49bc 60e3 373d 8432 33bc 4047 afbd
00000060: e061 bb3d 6148 94be 1f3f 22be 2222 8fbd
00000070: a8c6 95bd 7f06 08be e612 50be 78ea 0c3e
00000080: cb58 26bd 7c75 a9bd e47a 01be 2f39 1e3d
00000090: c749 4abe 7267 cabb 2cbb 16bc 931c f43c
000000a0: d8b1 813d 5c8b 23be 7576 b13d 859b 223e
000000b0: dddd 50bd 5a37 833d 082a 1bbd 729e d33c
000000c0: 21df 51bc 81c9 c3bd c6e9 ad3d 0aa4 8abe
000000d0: 4473 0fbd 484b 2cbe 47a6 ebbd ae98 5cbe
000000e0: f43d 85be c424 8c3d 6321 c9bd 86bc 13be
000000f0: 6d96 f1bc 406f a4bd 4536 373c 922a 1abe
00000100: fd25 8ebc d602 813d effb 833d e00b de3b
00000110: 2afb 4d3d a432 2b3e 862e ffbd d0a4 0d3e
00000120: 82c9 473e b7f3 5cbe a006 613c f71a 0b3e
00000130: d750 7cbd 7eac 9d3d 4cd1 753c 013d 023e
00000140: 9433 3cbd ac6c f6bd 0548 0e3e 65bb 9b3d
00000150: 216f 073e 38ca 053d 24d8 073e 1aaf 91ba
00000160: eef1 e33c 41b9 a1bd 5998 923d fc1a 1cbe
00000170: f882 6f3c 068d c5bc e38a a2bc 8733 f7bd
00000180: dff2 3f3d 0272 3abe 04f1 a33d 1144 023e
00000190: 75b7 72be 0675 203e 76aa 36be c744 34bd
000001a0: d52d a73d 5194 f6bc 525c 203e 46e3 dbbd
000001b0: 63ea 1c3c 55cf 3abe faa9 6abd e287 6e3e
000001c0: b44b f53d 50ef 693c 7781 dcbc 3981 3cbe
000001d0: 6816 ed3d 4cf8 c93a 5cb2 50bd 2c1c 35be
000001e0: 4a86 2e3e 97c1 c33d 3c81 c53d 8dc8 153c
000001f0: fd55 2fbe 4e86 f13d cf37 8d3c 1a61 823d
-0.18168128 -0.07815616 -0.0040906034 -0.09024161 -0.07202343 0.11565785 -0.04832041 0.056023315
0.16270128 -0.17477055 -0.15801863 -0.09756673 -0.02090637 -0.09599669 -0.048669286 0.019288443
0.062813975 0.1356615 0.14350472 0.016671522 -0.01230575 0.044894576 -0.010937337 -0.08558512
0.091495275 -0.2896147 -0.15844391 -0.06988932 -0.07313281 -0.13283728 -0.20319709 0.13761318
-0.040612023 -0.082743615 -0.12644535 0.038628753 -0.19754706 -0.0061768824 -0.009199899 0.029798781
0.06332749 -0.1597113 0.08665172 0.15879638 -0.050992835 0.06407042 -0.03788188 0.025832389
-0.012809546 -0.09559918 0.08491854 -0.27078277 -0.035022035 -0.16825593 -0.11506324 -0.21542618
-0.2602383 0.0684295 -0.09820821 -0.14427385 -0.029490674 -0.08029032 0.011182372 -0.15055302
-0.017352099 0.06299369 0.06444537 0.006776318 0.050288357 0.16718537 -0.124600455 0.13832402
0.19510463 -0.21577345 0.01373449 0.13584505 -0.061600532 0.07698916 0.015003514 0.12718584
-0.045947626 -0.12032446 0.13894661 0.07604102 0.13225986 0.032663554 0.13266045 -0.0011114806
0.027825322 -0.078966625 0.07157964 -0.15244669 0.014618628 -0.024115097 -0.019841617 -0.12070375
0.04686248 -0.18207553 0.080049545 0.12721278 -0.23702796 0.15669641 -0.17838463 -0.044010904
0.08163039 -0.03010002 0.15660217 -0.10736708 0.0095773665 -0.18243153 -0.05729101 0.23294023
0.1197733 0.014278248 -0.026917202 -0.1840867 0.11576539 0.0015409081 -0.050951347 -0.17686528
0.17043415 0.09558409 0.0964379 0.009142053 -0.17122646 0.11793195 0.017238526 0.06366177

weight f4 [128, 128]
00000000: 40cc 8abc 8426 78bd 220f de3d 4f65 5c3b
00000010: 0d01 49bc dc1e 993c 1ac1 c7bc 27bc 943c
00000020: 81e7 2b3d dcb0 933c 06dd ef3c 096f 743d
00000030: ebe6 a63a 3441 61bb 5fa3 043d 0910 97bd
00000040: ca00 5e3c d73c 66bd d18e 8e3c 41fd b6bd
00000050: 8785 9d3d 9c0e fa3d 7426 b33d bc9c a4bc
00000060: dc90 ac3d afd7 2d3d bc69 9b3d 7a34 2d3d
00000070: f452 cfbd 9aa2 1b3d a401 fe3b bb70 093c
00000080: 6412 3c3d 3184 03bc 5921 943a 2db1 753d
00000090: 2f8a d43c 6b68 cd3c b450 0039 34ed 7bbd
000000a0: 683f 87bd 8d98 c1bc 493d 013d 6cb7 21bd
000000b0: 028c 1d3c 1e89 833d f8f2 b53d 20ac 2ebc
000000c0: 2f0f 83bb d48c 04be 3820 053d 4975 2cbd
000000d0: ca7a 8b3d 3ed2 d2bc aad4 3fbd 7342 36bd
000000e0: 1e18 dfbb c944 cfbc e6c8 bebd 9533 9b3d
000000f0: bdcd 6e3d 8064 85bd d3c4 03bd 6552 c439
00000100: 35b6 d13d ab75 8abc 0595 6e3d ef1a 373d
00000110: f68c ccbc 3c17 1e3d 9d64 bfbd 8d36 bc3d
00000120: 1054 033e e6d5 7eba d33a 193d 72eb f43d
00000130: 684f 7f3d 5506 423c 72c9 3b3d 593d 55bd
00000140: f095 3a3d e75c 20bc 3b0b d43d 8efc abbc
00000150: 36b6 8d3c ad0f a9bc f8ee 7a3d d170 65bc
00000160: e9e6 8d3d ba55 95bd b1d3 11bd dcea 4e3a
00000170: c506 55bd 438a 3bbd 1de0 363d 645f 1fbd
00000180: edf0 3cbd ad72 42bd e1d6 8c3c 3624 0a3d
00000190: 9efc b1bd 4a80 3fbd 2fe7 573d 9441 9839
000001a0: 6f12 0ebd 0c57 95bd 41d0 633c a306 2f3d
000001b0: 21d5 6a3d 8f63 6b3d 4726 d33d a15f 6d3d
000001c0: d939 a1bb f3d0 373d 5d4d d6bc 8144 c53c
000001d0: f86c 883d 6517 25bb 245f 4dbc 5134 203d
000001e0: 7f84 3abd 8e88 3e3d ad95 dd3d b36f 22bd
000001f0: 54d0 4f3d 5a0d 193d a861 103d 970f 283c
00000200: e70d ad3d 1b6b a23d 86ef cabd b197 74bd
00000210: 60a1 1a3d 3cc4 7fbd 9edb 3d3b d424 57bd
00000220: 49f9 e5bb ce93 ee3c 3bc5 663c e1cd 813d
00000230: 0f55 0dbd 84f8 003d 6958 c93b 583a 8cbd
00000240: 7e73 8fbd c464 523d 00ee 9ebd 9b5f 3e3d
00000250: 6f56 653c cbd3 bdbc ba0b babd 9cc4 7abc
00000260: c64e 29bd 489d 363c 3cb6 5dbd e7ae 123d
00000270: df07 d5bd 7184 69bd 68ec 4d3b 017e 5ebc
00000280: 652d 543d 9f1a 45bd 8ad6 b2bd 7c3f cf3c
00000290: 92f2 ca3c 17a5 df3c 556d a7bd 97a9 b0bd
000002a0: cd60 7bbd 321e 0cbb a039 2b3c 42af 9abd
000002b0: 9df8 b2bc d286 31bd fe48 0f3d 00e5 90bd
000002c0: bc75 463d c2f7 ccbd e7da 5cbd 86ba 9dbd
000002d0: 32a5 183d 2f4e b6bd dcb9 f23b 580c d0bc
000002e0: df72 9c3d b62e debb c20f b0bd fee2 513c
000002f0: e80f 69bc 8931 d8bd 9d52 63ba 52fb 3f3d
00000300: 2c9b a7bc d038 ab3b 3246 27bd f316 233b
00000310: 19dd 84bd c261 743d a142 763d 5d06 0c3d
00000320: 502d 46bd 7635 d1bd b8b6 39bd 32ce 833d
00000330: 360e acbd d3ed dfbd abac 60bc a331 a83b
00000340: 0009 bdbd 911e bbbd 3a1f 20bd 4ec9 35bd
00000350: 25cf 063d 77d1 3dbc 0888 d8bd 7926 cabd
00000360: 2b38 203d 76f5 fcbc 386e 92bd 64a3 943c
00000370: 0591 7ebd c18e f93c fd72 27b9 3275 30bd
00000380: eca1 b3bd a23c ca3c a329 80bd dfb8 82bc
00000390: 6204 ce3b cc3d 8fbd 4751 d63c 4095 c6bd
000003a0: ae1d ecbb 4993 58bc 1091 273c d33e 07be
000003b0: 582c d4bb 7535 383c de88 94bd 89d0 b1bb
000003c0: 17bc 85bc 33d8 b03d 503e 0ebd 5d5c ebbc
000003d0: e6c5 70bd 2b18 08bd 0d92 28bb 0d11 bcbd
000003e0: e820 dc3c 7610 1e3d 9c11 d83c cbfc 743d
000003f0: 381c 10bd 78b7 51bb e713 7f3c 92a6 87bd
-0.016943097 -0.060583606 0.1084273 0.003362972 -0.012268317 0.018691473 -0.02438407 0.018156124
0.041968826 0.018028669 0.029280197 0.059676204 0.0012733614 -0.003437114 0.032382365 -0.07376105
0.013549993 -0.056210365 0.017402085 -0.08935023 0.07691484 0.12209818 0.08747569 -0.020094268
0.08426067 0.04244202 0.075885266 0.042286374 -0.10123244 0.037996866 0.0077516604 0.008388693
0.045915976 -0.008027122 0.0011301442 0.05998342 0.025944797 0.025074204 0.00012237096 -0.06150551
-0.06603891 -0.023632312 0.031552587 -0.039481565 0.0096159 0.064226374 0.08884233 -0.010661155
-0.0039996128 -0.12944347 0.03250143 -0.04210404 0.068105295 -0.025735017 -0.04683367 -0.044496965
-0.006808295 -0.025301354 -0.09315662 0.07578198 0.058301676 -0.065133095 -0.032170128 0.00037445422
0.10239831 -0.016901812 0.058247585 0.04470342 -0.02496956 0.038596377 -0.09345362 0.09190092
0.12825036 -0.00097212044 0.037409615 0.1195897 0.062331587 0.01184233 0.04584641 -0.05206046
0.045553148 -0.009787775 0.103537045 -0.02099445 0.017298799 -0.020637358 0.061263055 -0.014003948
0.06928808 -0.07291742 -0.035602275 0.0007893273 -0.05200841 -0.045786154 0.044647325 -0.03890933
-0.046128202 -0.047472645 0.017192306 0.03372594 -0.08690761 -0.046753205 0.05271071 0.0002904056
-0.03468555 -0.072919935 0.013904632 0.04273094 0.05733216 0.057467993 0.10310035 0.057952527
-0.004920226 0.044877004 -0.026159937 0.024080517 0.06661409 -0.0025190946 -0.01253489 0.039112393
-0.045536514 0.046516947 0.10819564 -0.039657306 0.050735787 0.03736625 0.035249382 0.010257623
0.08449917 0.07930585 -0.09908967 -0.059714977 0.037751555 -0.062443003 0.0028970013 -0.052525356
-0.0070182425 0.029123213 0.014085109 0.063380964 -0.034504946 0.031487003 0.0061445725 -0.06847066
-0.0700445 0.05136563 -0.07760239 0.046477895 0.013997658 -0.02317228 -0.09084268 -0.015305664
-0.04133489 0.011145897 -0.05412887 0.03581133 -0.10401892 -0.05701107 0.0031421427 -0.013579846
0.051801104 -0.04812109 -0.08732326 0.025298826 0.02477387 0.0273004 -0.0817515 -0.08626097
-0.061371613 -0.0021380302 0.010450751 -0.07552959 -0.021847064 -0.043341465 0.03498172 -0.07074928
0.048452124 -0.100081936 -0.0539197 -0.07701592 0.037266918 -0.08901631 0.00740741 -0.025396511
0.076390974 -0.0067804707 -0.085967556 0.012810467 -0.014224984 -0.10556323 -0.0008671673 0.046870537
-0.020459734 0.0052252784 -0.040838428 0.0024885505 -0.064874835 0.05966354 0.060122136 0.034185756
-0.048383057 -0.10215275 -0.04534027 0.06435813 -0.08401148 -0.10934033 -0.013713042 0.0051328703
-0.09230232 -0.091366895 -0.03909228 -0.044381432 0.032912392 -0.011585585 -0.10572821 -0.09870619
0.039116066 -0.030878764 -0.07149929 0.018144317 -0.06215002 0.030463578 -0.00015969198 -0.043080516
-0.087711185 0.024687115 -0.062579416 -0.015957294 0.0062871436 -0.06994209 0.026161803 -0.09696436
-0.0072056865 -0.013218709 0.010227457 -0.1320756 -0.0064750127 0.011243214 -0.07252668 -0.0054264707
-0.01632504 0.08634987 -0.034727395 -0.028730566 -0.05878248 -0.033226173 -0.0025721819 -0.0918294
0.02687116 0.038589917 0.026375584 0.059811395 -0.03518316 -0.0032000225 0.01556871 -0.06623568

bias f4 [128]
00000000: 2af3 7f3b 9afa b93a 2936 a0bd 6251 cdb9
00000010: dad2 463c 8f19 5cbd 158b 91ba 2d53 59bd
00000020: 95df b1bd 39a8 9a3d d4c0 383c f664 a63d
00000030: 0730 bf3d 8771 70bd ffb1 cdbc 956a 53bd
00000040: 9fb7 173d 8966 d63c c89f 4fbc c6e1 ac3d
00000050: 82fd f1bc abcb 6e3d 4cfd a63c bd47 10bd
00000060: 1e7c 4e3d 5396 513d 19bf 59bc 2c44 9abd
00000070: cbdd 953d 6cb9 8b3d 7219 2a3d 31c3 763c
00000080: 64b8 353d aebf 513d a571 36bd 282f 89bd
00000090: ef3f 45bd c50c 8c3d be12 15bd 26c0 793d
000000a0: 0887 e1bd 0f4f 19bd 8dfc 9a3d 6dbb 28bd
000000b0: ddfa 7b3c 8324 6b3d 09cf b1bb 5e9e c23c
000000c0: de23 c7bb f69c e3bd a2df 27bd 2e43 26bd
000000d0: 0dfb 51bc e62e 97bd 9fe8 24bb 5a2d bb3d
000000e0: eff3 a73d 4c57 493d 873c 81bd 4d88 be3c
000000f0: f14e e23c a763 ae3d 8405 2abd 0e42 793d
00000100: 4cfe a83d 840b c1bb 7e82 f5bd a0bb 9c3c
00000110: 589b 503d ef52 b9bd 64ae 893d a3df c5bb
00000120: efc9 0bbe f335 2b3d e3bc f43c 8363 af3b
00000130: 3efd 5ebd 1960 19bd 56c5 853d 82dc 4b3d
00000140: 069b 923d ef93 353d 48cc 5c3d 1aca 87bc
00000150: 15c6 473d 8707 0e3d 8569 9ebb 1602 c03d
00000160: 5db5 23bd 9173 b43d dce4 f93a b91b a53d
00000170: c464 81bd ffc6 963d dd0a 8abc 095e b5bd
00000180: 901a 943d 9a2d 803c 7448 d4bc 4f14 52bd
00000190: 5606 ca3d 122f b23c 9ade 9dbc 2258 dbba
000001a0: face c23d dd24 543d 2271 8c3d 14a5 afbc
000001b0: 078b 28bd a4cb c3bd 1788 7ebd 1c62 76bc
000001c0: 3a1b f83b ab03 75bd 6607 31bd 4c30 e73b
000001d0: 2aba 233c e8b8 9abd 219f c33d 4d14 39bd
000001e0: d922 253c 04ae 9b3d 9c9a 95bd f253 d43b
000001f0: 5df3 aabd 7c9d c83d cd2f 0abd 67e3 983d
0.003905485 0.0014189065 -0.0782283 -0.00039161282 0.012135232 -0.053735312 -0.0011104072 -0.05305784
-0.08685223 0.07551617 0.011276443 0.081247255 0.09335332 -0.058702018 -0.02510929 -0.051615316
0.03704035 0.02617194 -0.012672372 0.084415 -0.029539827 0.0582997 0.020384453 -0.035224665
0.050411336 0.05116875 -0.01329019 -0.07532534 0.07317694 0.06822476 0.041528173 0.015061186
0.0443653 0.05120819 -0.044541974 -0.066984475 -0.048156675 0.06838373 -0.036394827 0.060974263
-0.11012083 -0.03742891 0.075677015 -0.04119437 0.015379635 0.057407867 -0.005426292 0.023757156
-0.0060772737 -0.11113922 -0.040984757 -0.04059141 -0.012816203 -0.07381992 -0.0025163067 0.091395095
0.082008235 0.04915552 -0.06310373 0.023258353 0.027625533 0.08515101 -0.041509166 0.06085401
0.08251628 -0.0058912653 -0.1198778 0.019132435 0.050929397 -0.090490215 0.067227155 -0.0060386225
-0.1365125 0.041799497 0.029875224 0.005352439 -0.05444073 -0.03744516 0.065317795 0.04977084
0.071584746 0.044330534 0.053905755 -0.016575862 0.04877289 0.034675147 -0.0048343563 0.09375398
-0.039967883 0.08811105 0.0019065398 0.08061928 -0.06318048 0.07362174 -0.016850883 -0.088558264
0.07231629 0.015646745 -0.025913455 -0.0512889 0.0986449 0.02175096 -0.019271184 -0.001673464
0.09512134 0.051792968 0.06857516 -0.02144102 -0.04114821 -0.09560326 -0.062141504 -0.01503804
0.007571605 -0.05981795 -0.043219946 0.007055318 0.009993115 -0.07554799 0.09551836 -0.045185376
0.010079109 0.0760155 -0.0730488 0.0064797336 -0.08347199 0.09795663 -0.033736993 0.074652486

weight f4 [128, 128]
00000000: 2b7d b73b 3a4f 48bd 76ab b5bc 3222 61bd
00000010: 47be a43c 4368 58bd 4725 d33d 9452 05be
00000020: 614e 133d 3269 023e f672 83bd f35a a7bd
00000030: 8f2b eabd 605b 8e3d f502 70bc ad60 82bd
00000040: b6e7 8b3d be92 00be e083 553c 3534 97bc
00000050: 9462 56bd ab52 6abd 14f7 d9bd 10c7 b2bd
00000060: 244d c1bd f051 58bc 07ff 9f3d 1a2a c3bd
00000070: a848 573c 6ac4 40bd e367 b43d 1203 41bd
00000080: 3dd6 c7bd 3349 5f3c e490 883d c57e 02bd
00000090: abd2 a73d e133 8e3d a98b 693c 93c5 59bd
000000a0: a409 723c fc4f 9ebd 1a4a b23c 14ff c63b
000000b0: ab85 d93d 066c 34bc 4a57 293d c006 b13c
000000c0: db3b 5bbd 20f7 b0bd 6881 273c 2adb 923d
000000d0: f857 913d 1ea8 a2bc 10c7 263d acee c4bd
000000e0: a064 c03d 035c 3bbd 8377 d3bd 5698 a73c
000000f0: 19bf 44bd 1a80 ddbc 84a2 a6bc 798c 8cbc
00000100: 3346 40bb fb88 15be 12aa 49bd b313 d9bc
00000110: a025 423d b164 e0bd 593e 9cbd 9044 bfbd
00000120: 5df1 25bc b5b6 9f3d a4d8 5b3d d63c 83bd
00000130: 1da9 58bc d7b3 79bd 16c2 4fbd 0ea2 f13c
00000140: 6bd5 f9bd dbde d7bd 4ced afbd 81f6 f1bd
00000150: f90f 02bd 0926 b03b 8858 7b3d 9b3d 473d
00000160: 0c90 da3c f5c5 a2bd 2b2a babd 7498 ab3c
00000170: 1738 9b3d cb07 80bd 80f2 0a3c fc67 45bd
00000180: 5430 b7bd a0a1 483c cfa6 cc3d 1b34 c8bb
00000190: 53e7 693d c3f7 d03c dea1 a23c 11b3 a4bc
000001a0: 7df0 14bc 157e 7bbd d19f 713c f4d8 1d3c
000001b0: 8cb2 41bd 762f 473d 32a0 45bd 004e 213d
000001c0: 91af 1abe 0e0b 64bd 6d46 bc3d a966 803c
000001d0: 08f7 653d 28dc 6dbd 31c2 013d cb37 373d
000001e0: 75f2 f8bd ff56 f5bd 17d8 963d 4127 a5bb
000001f0: 8b78 9abc 3768 8abd 59f6 d83b 052a b93d
00000200: ce73 c43c fab1 d403 9602 b203 befd 2abd
00000210: 62d2 d003 c557 783a f797 543c df66 53bc
00000220: 2fc8 0137 ad87 84bb d526 d803 5ccd 5b3a
00000230: 71c8 6c3c 1627 10bb 5213 84bb 0e9c e483
00000240: 2bc4 55bd a2ec 3f3a 2418 82bc 4c8b b983
00000250: 84a9 2b3b 6d92 e4bb fde3 59bc 31c3 08bc
00000260: a895 c4bc bbc3 263d 4305 f6bc c416 ba83
00000270: fc18 41bc ee91 f23a f7af 0fbc 1a0e 13bc
00000280: dd7e 543a c4b6 1dbc f8ae 48bc 12fa 9dbb
00000290: 4783 31bb 7e49 9a3c 974a 1d3c 6712 7d3c
000002a0: 5e0a ca83 1700 103b 1001 2ebc 6b96 51bd
000002b0: f030 86bb c85a e13b 3c4b ba03 f5ae c5bc
000002c0: 6c57 e483 d0cf 083c 6d03 93bc 90fe 9eb9
000002d0: 0683 c83b 0f38 0184 1a12 c303 9812 da03
000002e0: ce20 adbc 42e4 d23c 9f0f 7aba a040 7cbb
000002f0: 3cb1 be83 76c6 f8bb 941b a53a 01d5 aa3b
00000300: 02b4 88bc 4e41 8fbb c527 aaba 6747 82bd
00000310: 5ffa 5bbc df0b 0fbb 3c21 0abd 8f21 d403
00000320: ff73 e003 2d5c 1e3c 6023 19bc 693c 3b3b
00000330: 756e 11bb 75fd 3f3d 6891 a3ba d012 48bd
00000340: 22d1 31bc 7d72 8583 870d f8bc cb5a 783a
00000350: 5b27 50bc 083c f13c 3c3f 29bb 9cf4 3cbb
00000360: c7ab 2ebc a512 08bc e04e afbb 1b3b a83b
00000370: 29e8 ca03 e044 503b c30f 10bc 7010 a03a
00000380: 139e 5ebc 5522 45bc 1483 0dbc 5d11 d003
00000390: 2eb6 433a a5b2 66bc f609 5ebb 759d 003c
000003a0: e53c 83bb 4cf6 27bc 397d 86bb 9eeb 993a
000003b0: 1011 03bc 6468 e083 bb48 de83 56ff 2cbc
000003c0: 0bf4 12bd 49ae 4abd cab5 a639 c152 a5bc
000003d0: 1377 02bd abc1 07bb d75a 783a 18b6 8bbd
000003e0: f93d f33b 581d 0f3c d8d0 0d3b 0660 d03b
000003f0: c611 c283 6b3c 0abc a57d cfbb e698 bcb9
0.005599638 -0.04890368 -0.022176486 -0.05496425 0.020110263 -0.052833807 0.103098445 -0.13019782
0.03596342 0.12735441 -0.064184114 -0.08171644 -0.114340894 0.06951022 -0.0146491425 -0.06366096
0.06831305 -0.12555978 0.01303193 -0.018457511 -0.052340105 -0.057207745 -0.106428295 -0.087293744
-0.094385415 -0.013203129 0.078123145 -0.095295146 0.013139881 -0.047062315 0.08808877 -0.04712207
-0.097576596 0.013628292 0.06668261 -0.031859178 0.081944786 0.06943489 0.014254489 -0.053166937
0.014772806 -0.077300996 0.02176385 0.006072888 0.10621198 -0.011012083 0.04134301 0.021609664
-0.05352388 -0.08640885 0.010223724 0.071707085 0.07096857 -0.019855555 0.040717185 -0.096158355
0.09394193 -0.045742046 -0.103255294 0.020458382 -0.048033807 -0.027038623 -0.020341165 -0.017156826
-0.0029338717 -0.14603035 -0.049234457 -0.026498651 0.047399163 -0.10956705 -0.07629079 -0.09339249
-0.010128346 0.077985205 0.0536734 -0.06408088 -0.0132239135 -0.060962524 -0.050722204 0.029496219
-0.12198909 -0.10540553 -0.08590183 -0.11814595 -0.031753514 0.005375628 0.061363727 0.048642736
0.026680015 -0.079479136 -0.09090074 0.020946719 0.07579058 -0.062514864 0.008480668 -0.04819487
-0.08944765 0.012245566 0.09992754 -0.006109727 0.057105374 0.025508767 0.019852575 -0.020104917
-0.00909054 -0.061399538 0.014747576 0.009634245 -0.047289416 0.048629247 -0.048248477 0.039381027
-0.15106036 -0.055674605 0.0919312 0.015673952 0.05614379 -0.058071285 0.031679336 0.044730943
-0.1215562 -0.11979484 0.073654346 -0.00504008 -0.018856307 -0.06758159 0.006621164 0.09041218
0.023981001 1.25011015e-36 1.0462493e-36 -0.041745894 1.2273443e-36 0.0009473528 0.012975684 -0.012902944
7.735608e-06 -0.004044494 1.2704254e-36 0.0008384788 0.014452086 -0.0021995953 -0.0040306235 -1.3436464e-36
-0.052189033 0.0007321333 -0.015880652 -1.0905304e-36 0.0026193568 -0.006975463 -0.013298986 -0.0083473185
-0.023997143 0.040714007 -0.030031806 -1.0937324e-36 -0.011785742 0.0018506625 -0.008769981 -0.00897553
0.00081060623 -0.009626094 -0.012248747 -0.0048210705 -0.0027086304 0.018833872 0.009600303 0.015446282
-1.1874873e-36 0.002197271 -0.0106203705 -0.05116884 -0.0040951893 0.006877277 1.094937e-36 -0.024131278
-1.3420707e-36 0.008350328 -0.01794597 -0.00030325772 0.006119135 -1.5189618e-36 1.1465226e-36 1.2817157e-36
-0.021133807 0.025743607 -0.0009539071 -0.0038490668 -1.1207887e-36 -0.0075920178 0.001259672 0.0052133803
-0.016687397 -0.0043717986 -0.0012981823 -0.06361275 -0.013426392 -0.0021827144 -0.0337231 1.2467945e-36
1.3192168e-36 0.009665531 -0.009346813 0.0028569943 -0.0022191082 0.046872575 -0.0012479248 -0.048846066
-0.010853084 -7.843323e-37 -0.030279888 0.00094739784 -0.012704696 0.02944757 -0.0025825044 -0.0028832322
-0.010661072 -0.008305226 -0.005349979 0.005133999 1.1925794e-36 0.0031779334 -0.00879282 0.001221193
-0.0135874925 -0.012032111 -0.0086372085 1.2229128e-36 0.00074658066 -0.014080678 -0.003388045 0.007850041
-0.004005062 -0.010251593 -0.004104283 0.0011743193 -0.0079996735 -1.3189504e-36 -1.3064685e-36 -0.010558924
-0.03587727 -0.049482618 0.0003179743 -0.020181062 -0.03185184 -0.00207148 0.00094739854 -0.06821841
0.007423159 0.008735023 0.0021639373 0.006359103 -1.1406376e-36 -0.008437256 -0.0063321167 -0.00035972073

bias f4 [128]
00000000: ae79 d4bc ad41 2bbc 5836 47bd 2a86 02bd
00000010: 48f7 923c 02ad 19bd 98e6 3cbd f2eb e6bc
00000020: e2f5 8abd ce86 803d 8d5f d03c 846a 333c
00000030: 99f9 b2bb 7ea2 b13d 3d8c d7bc fbd2 c33c
00000040: 24d6 d2bb 040c fe3c f52c 75bc c842 0ebd
00000050: ced7 ca3d b97a 17be 6bb6 a6bd b51d 843d
00000060: 2b94 27bd 335e 343d 3bfc eb3d bb06 d83c
00000070: 1f1a e6bb c9be 9ebc a4c0 8b3d 5655 e23d
00000080: 411d 37bb 3535 cebc 2232 8e3d d26b 1cbd
00000090: 4ad4 f23c 7d22 333d 28d2 76bc 4d62 ad3d
000000a0: fb6f cfbd 5b9e 29bd 84a7 c33d a8e8 bd3d
000000b0: f3da 3ebc 7948 103d 45ff 473c e20a b83c
000000c0: a5e6 07bd ec5d 68bd c24a cf3d 79c4 753d
000000d0: c509 c13d 9668 dc3d d112 ac3d 8974 243d
000000e0: 6376 193c fe36 debc e90f 963d 55b2 6abd
000000f0: bfb6 b7bc 3c3c 8e3d 5821 093d e8fe 4e3d
00000100: feb4 5c3d 37d1 b43d 8463 ab3d 920e 1e3d
00000110: ef5c a43d 6a49 80bc 7dfa 44bc 4695 f03d
00000120: e708 923c 3827 fbba 9c68 d43c 8700 c43d
00000130: 4729 963c 18b6 373d d0f3 7bbc 6c74 7a3d
00000140: f806 9b3d 218c 523c 685f 22bd 1bc3 a53d
00000150: ce0b 013d 85d5 d43c cc2b edbb 76c0 d4bd
00000160: a5ae d63d f9d1 683d 4a31 963d d7bd ea3d
00000170: 0727 253d 693e b93d 03f9 9f3d 3ef2 d93d
00000180: d6d0 16bc f21e c73d eb52 ba3d 2d37 d53c
00000190: b912 ab3b d20c b83d 1685 e63c e2f6 933d
000001a0: a387 6dbc 3669 dc3c a719 44bd af7c 153e
000001b0: d73c 4c3d b8d4 b83b ee49 13bd 5c77 713d
000001c0: 3657 c63d cc62 54bd 473c 0f3d 8260 c93d
000001d0: 2722 7e3d 790b 08bd 3679 513d 5c49 163c
000001e0: 75e3 a23c 1f5c 783d cfa1 9b3d b995 3c3d
000001f0: 12b5 883d 9f7e 82bc 792b 1abd ebbd 363c
-0.025936928 -0.01045267 -0.04863581 -0.03186623 0.017940179 -0.03751851 -0.04611835 -0.02818868
-0.0678518 0.06275712 0.025436187 0.010950688 -0.0054618833 0.08673571 -0.026311988 0.023904314
-0.006434219 0.031011589 -0.014964332 -0.034731656 0.09904443 -0.14792909 -0.08140262 0.06450979
-0.04091279 0.044035148 0.115227185 0.026370397 -0.007022157 -0.019378083 0.06823853 0.11051433
-0.002794102 -0.025171855 0.06943156 -0.038188763 0.029642243 0.043734062 -0.015064754 0.08466015
-0.101287805 -0.041410785 0.095534354 0.09272891 -0.011648881 0.035225365 0.012206857 0.022466127
-0.033178944 -0.056730196 0.10121681 0.060001824 0.094256915 0.10762136 0.084020264 0.0401502
0.0093666045 -0.027125832 0.07327253 -0.057298977 -0.022426007 0.069450825 0.033479065 0.050536066
0.053883545 0.08828967 0.083685905 0.038588114 0.08025538 -0.015660007 -0.012022612 0.11747222
0.01782651 -0.0019161468 0.025928788 0.09570413 0.01833023 0.044851393 -0.015377954 0.061146185
0.075696886 0.012850792 -0.039641768 0.08093854 0.0315054 0.02598072 -0.007237887 -0.103882715
0.104825296 0.05684087 0.0733362 0.1146199 0.040320423 0.09045107 0.07811167 0.10641907
-0.009205064 0.09722699 0.090978466 0.026027286 0.005220738 0.0898682 0.028139632 0.072248235
-0.01449767 0.026905637 -0.047876026 0.14598344 0.04986271 0.0056405924 -0.035959177 0.05895172
0.09684603 -0.051852033 0.034969594 0.098328605 0.06204429 -0.033214066 0.051140986 0.009172764
0.01988385 0.06063473 0.07599222 0.046041224 0.066751614 -0.015929518 -0.037639115 0.011153678

weight f4 [128, 128]
00000000: 0410 1d3c 17a8 303d 458f babd 0008 d7bd
00000010: e403 5dbd 611c a6bd f7be 97bc cbba f7bc
00000020: 07cd 3fbd 776f e73d c138 01be 183a e43c
00000030: d097 d83d b798 133c 4b38 733c 6258 67bd
00000040: ce3a fd3d 8b10 c63d abcc 00bc c7f0 28bc
00000050: ccc1 8e3d 7799 1f3e cdc5 65bd 4d42 b63d
00000060: bf84 163d f6c9 c53d 525d 4fbd 5426 923d
00000070: b1d8 713d 396e afbd 8ea7 203d 3875 403d
00000080: ed4e fabc c7f5 b5b9 cb76 a33d 0ce1 c53d
00000090: 72f6 4d3d 8006 4abc d036 473d 2f4f d0bd
000000a0: 0f52 b7bc 00cd e1bc 6d0e c8bc 75e6 983d
000000b0: 0b67 92bd 008e 20bd 2a74 833d b571 af3d
000000c0: 5595 87bc fc59 563d 011b 47bd 7d11 99bd
000000d0: 590c 47bd 2462 f53c 9748 ee3b cdd3 c03d
000000e0: 4e4e 9c3d 92dd 1c3d 05e5 b83d 199f 3cbd
000000f0: 056e 973d 92df 073d 857c 25bc 320c 20bd
00000100: 60e6 ca3d f1ac cbbc d9c7 863d d63c 9cbc
00000110: dce3 b73d e03f 81bd f3b7 8d3d e19a 113d
00000120: 8326 76bc 553f 1e3d 9fa4 4b3d e06b 833d
00000130: 9c33 e8bc a796 363d 742f 15bc dee5 ce3d
00000140: 5322 74bd 6c8b 2fbd 8384 4dbd 98c8 443d
00000150: 23b2 b0bd 735b 51bc 1d56 6c3d aceb 243e
00000160: a542 58bc 48ab 213d 29d9 37bc 99a3 f3bc
00000170: c4c5 97bc afbb 33bc 5a6a 893c fee4 97bd
00000180: 971e 2bbc c64d 4bbd 18e4 eabb e049 703d
00000190: 8d06 19bd dc2b 753d 3a50 a33d 1313 2dbd
000001a0: c6a0 a33d fe7c 78bd 4e61 363c 32b8 58bd
000001b0: 6c12 bc3b d808 d0b9 f9f7 603d b27c 0bbd
000001c0: c93b ee3a 591e 29bd b005 85bb 4f01 fa3b
000001d0: 8ebf 83bd 3f55 b93c 933e 183d 21e1 1b3d
000001e0: 0d60 1ebd 5602 0d3a 6bf3 5fbc eb01 023d
000001f0: 5aa2 7d3d a330 e23d d315 a03c 4162 ed3d
00000200: 63bc 0e3e c9d7 7eba 9c87 c43d 0032 dd3d
00000210: ddd7 ec3c f6ee af3d 62d9 70bd a433 9d3d
00000220: 7c9e b6bd 1888 7fbd 6778 c93d f1fc e13c
00000230: 2ffb 69bd 30f9 d4bb 94b5 bbbc d387 d93b
00000240: 3997 6a3c e1ea f9bc 2063 6fbd 81c0 d43c
00000250: a6b9 7dbb 52b1 76bc df4b e0bd 9c86 473c
00000260: 62c1 cbbc 8ddb 96bc dae2 f23b 0d0b c7bc
00000270: 1e12 1dbd 6885 e13d b323 1dbd ab6b bd3d
00000280: 65ed fa3c 7fbe a3bb f004 03bc 0746 c7bb
00000290: 66c8 233d f05d 353e 2744 a6bc a353 1f3e
000002a0: 789e 21bd 2f66 203e 4d1d 313d 170e 38bd
000002b0: ed1d d83d 2278 0b3e 14b5 93bd c93d 823c
000002c0: 6b48 bcbb 33dd 89bc 5849 18bb 7311 e33d
000002d0: e5a0 13bd 0c9d 633d dd07 0dbd 98da f33d
000002e0: 41eb d93c 9e5d 71bd 0e2b 3ebd 4673 32bd
000002f0: 315f 003c dfa2 083d 742e 4dbc bf28 8ebc
00000300: 0727 883c 6e2d afbc 5e34 383c 10dd 153c
00000310: 69a3 863c 3dd7 b5bd bea8 c83c 11f1 a03d
00000320: 461e 48bd 6ce9 b4bd ac3e 44bd 304c d53c
00000330: 023a 9e3d 2db5 c93a afe3 06bd ba9a d93c
00000340: 9b72 a4ba 9870 0d3d 07b3 723c cab1 823d
00000350: b721 e23d cf62 e8bc 50b8 2c3b b681 9bbc
00000360: 0414 853d 7a30 303b 4bd4 c83c a995 fc3b
00000370: d18f 143a 1f58 1c3d c4cf f4bc ece5 f4bb
00000380: 5816 ff3d 2d7e 25bd 02de 4ebc 1fb9 933c
00000390: da62 643b 02ec 49bd dd30 873c 2df4 43bd
000003a0: a1a9 98bd b1e3 a33c 3534 203d d330 5e3d
000003b0: 154a 09bd 24b0 6fbc cb05 f03c 2039 b53d
000003c0: 6a8f 193d aa50 ec3c cd40 7a3d a4b6 e13d
000003d0: 271e 073c 8d3e 26bc 4897 913b 5264 7bbc
000003e0: bb27 43bd a2d7 903d 3646 0fbd 1c9c 3dbd
000003f0: faae 583c 12da 19bc b243 01bd a909 6cbc
0.009586338 0.043129053 -0.09109358 -0.10499573 -0.05395879 -0.081108816 -0.018523676 -0.030240437
-0.04682639 0.11300557 -0.12619306 0.027859733 0.10575831 0.009008578 0.014844964 -0.056480773
0.12364732 0.09671124 -0.007861297 -0.010311312 0.069705576 0.15585886 -0.05609684 0.088993646
0.03674769 0.096576616 -0.050626107 0.07136217 0.059044544 -0.08565945 0.039222293 0.04698679
-0.030555213 -0.0003470613 0.07981642 0.09662065 0.050283857 -0.012330651 0.048636258 -0.10171353
-0.022377996 -0.027563572 -0.024420941 0.07465831 -0.0714856 -0.03919792 0.06418641 0.0856661
-0.0165507 0.05233191 -0.048609737 -0.07474039 -0.04859576 0.029954024 0.007271837 0.09415398
0.07632123 0.038297243 0.09028057 -0.046050165 0.073940314 0.033172198 -0.010100489 -0.03907413
0.09907222 -0.024862738 0.06581087 -0.019071978 0.089790076 -0.06311011 0.06919851 0.035548095
-0.01502383 0.038634617 0.04971754 0.0641706 -0.028344922 0.044577267 -0.009105552 0.101024374
-0.059603047 -0.042857572 -0.0501752 0.048042864 -0.08627727 -0.012778151 0.05769931 0.16105527
-0.013199483 0.039469987 -0.011221209 -0.029741095 -0.01852692 -0.01097004 0.016774345 -0.07416724
-0.010444305 -0.049634717 -0.007168304 0.058664203 -0.037359763 0.05985628 0.079742864 -0.04225452
0.079896495 -0.060666077 0.011131598 -0.052910037 0.0057395007 -0.0003967944 0.054923985 -0.034054466
0.0018175776 -0.041288707 -0.004059516 0.0076295505 -0.064330205 0.022623656 0.03716905 0.038056497
-0.03866582 0.0005379071 -0.013668875 0.03174011 0.06192241 0.11044433 0.019541657 0.11591006
0.13939051 -0.00097214855 0.09596178 0.10800552 0.028911525 0.085905 -0.058801062 0.07675865
-0.08916947 -0.06238565 0.09837418 0.027586432 -0.057124313 -0.006499432 -0.022913732 0.006638506
0.014318281 -0.030507507 -0.058444142 0.0259707 -0.0038715391 -0.015056925 -0.10951971 0.0121780895
-0.024872486 -0.018415237 0.0074122967 -0.024297262 -0.038347356 0.11011773 -0.038364124 0.09249052
0.030630777 -0.004997074 -0.007996783 -0.006081346 0.039986037 0.17711616 -0.02029617 0.15559249
-0.03945777 0.1566398 0.043240834 -0.044935312 0.10552583 0.13620046 -0.07212272 0.015898602
-0.0057459376 -0.016829109 -0.0023237076 0.110873125 -0.036042113 0.055569693 -0.034431327 0.11906928
0.026601436 -0.05892717 -0.04642778 -0.043566965 0.007835195 0.03335845 -0.012523282 -0.017353414
0.016620172 -0.021383967 0.011242954 0.009146944 0.016435342 -0.08878944 0.024494525 0.0785848
-0.048856996 -0.08833584 -0.04791133 0.026037306 0.07725908 0.0015389078 -0.03293198 0.026563037
-0.0012546362 0.034531206 0.014813191 0.06381567 0.11041587 -0.028367428 0.0026354976 -0.01898275
0.06497958 0.0026884363 0.024515292 0.0077082706 0.0005667182 0.038169976 -0.029884227 -0.007473698
0.124554336 -0.040403534 -0.012626173 0.018032609 0.003484896 -0.04929734 0.016502792 -0.047840286
-0.07454229 0.020006033 0.03911229 0.05424578 -0.033517916 -0.014629398 0.029299637 0.08848786
0.037490286 0.028847057 0.061096955 0.11021164 0.008246935 -0.010146749 0.004443083 -0.015343742
-0.04764531 0.07072379 -0.034979068 -0.046291456 0.013225311 -0.009390371 -0.0315587 -0.0144066

bias f4 [128]
00000000: a02d d83d 75bc 093d 522d febc 2c9e babd
00000010: 2811 0d3e 6645 0d3d fcac 06bd 30bd c43d
00000020: 9e04 693d f548 f13d 4e0f 8dbd 2782 a63d
00000030: c945 f93d 17c2 4d3d 2ec7 5d3d 9f26 c3bb
00000040: 3279 e9bc 0b20 e53d cd1d fe3c bd60 eebc
00000050: 9a4a 033e d77b 5d3c 58e4 943d 7829 8bbd
00000060: 6bce 5c3c db0f 5a3c b4c2 cbbc 520d d2bb
00000070: c0bd b9bc ad13 94bc 29ad f63d bbd8 a7bc
00000080: ab9f f33d eecc 923d c1ef a63d dbe3 863d
00000090: 75d2 a03d 2694 eb3d ef9c d03d cb88 e83c
000000a0: 6386 f43d c90d f3ba 5af3 fbbb 1ce4 b33d
000000b0: 85b7 bc3d 541d 783d 51b0 8c3d e2f8 edbc
000000c0: 927e 3b3d 39eb 593d 0d67 8cbc c865 843d
000000d0: 89b3 a43d 4f65 d1bd 05f7 ce3d b6bf 0d3d
000000e0: 3f60 c13d bc91 b43d 6736 513d dc3d 93ba
000000f0: d0f0 6d3d 8f37 d03d 886e a53b 0bc7 a63d
00000100: fa06 263d 66f6 c93c 785c 053e e918 153d
00000110: 012f 393d 34cf ab3d 30e6 a2bd 21bd 053e
00000120: a593 0a3e bcca 68bd 87b5 9f3d 4525 d03d
00000130: bcd5 d6bc 613e 023e 6306 43bd afe6 213d
00000140: 2f75 a73d d18d a33d 87e4 983d 6916 313d
00000150: c1f1 b23d ceb1 dc3c 9023 023e e3da 78bd
00000160: ecbb 363d b8b4 ebbc 488a 073d d09a 463d
00000170: 7fdf 0d3e 86cb 793c 93b8 8d3d 5ead 4f3d
00000180: 13cf a8bd c717 50bc f04b 8dbd a541 8d3c
00000190: f828 9c3d 26ee b4bc 3e13 113e 6bed adbc
000001a0: 6da8 d83b 47fe a03d 8b82 683d ed4c 203d
000001b0: 6671 f13d 715d 3d3d c822 d03c e0a2 ea3d
000001c0: e67b ab3d fa84 043d 41ae 033d 403b b23d
000001d0: 864e 073e 9b0f 603d 2c9a d23c 3c67 c43d
000001e0: 94ac e13d 8a2d 133d 311e 51bc 1f7f eb3d
000001f0: 28c5 813d 6a69 143d cd99 99bc d888 f53d
0.10555577 0.033626992 -0.03102747 -0.091122 0.13776076 0.03449001 -0.032879815 0.09606397
0.05688917 0.117814936 -0.06887685 0.08130293 0.121715136 0.050233927 0.05414503 -0.0059555317
-0.028500173 0.11187752 0.03102007 -0.029098863 0.12821427 0.013518295 0.072701156 -0.06795019
0.013476948 0.013309444 -0.024873115 -0.0064102793 -0.022673488 -0.018075788 0.120447464 -0.020489087
0.118956886 0.071679935 0.08151198 0.06586429 0.078526415 0.115028664 0.10186183 0.02838554
0.11939695 -0.0018543537 -0.007688922 0.08783743 0.09214691 0.060574844 0.06869567 -0.02904934
0.045775004 0.05320284 -0.017138982 0.06464726 0.08042056 -0.10224401 0.10105709 0.034606658
0.094421856 0.08816859 0.051077273 -0.0011233645 0.058090985 0.10166847 0.0050485767 0.08143433
0.040533997 0.024653625 0.13023555 0.03640071 0.045210842 0.0838913 -0.07954061 0.13060428
0.13532884 -0.056833968 0.077982955 0.101633586 -0.026224963 0.12719108 -0.047613513 0.039526638
0.08176648 0.07986034 0.07465463 0.043234263 0.08737517 0.026940253 0.12708879 -0.06075562
0.04461281 -0.028772697 0.03309086 0.048487484 0.13854788 0.015246278 0.0691997 0.050702445
-0.08242621 -0.012700981 -0.068992496 0.017243216 0.07625002 -0.022086214 0.14167497 -0.021231374
0.006611875 0.078609996 0.05676512 0.039135862 0.11789207 0.04623169 0.02540721 0.11456847
0.08373241 0.03235338 0.032148603 0.08702707 0.13213548 0.054702383 0.02570828 0.09590003
0.11019245 0.0359321 -0.012763546 0.11498856 0.06336433 0.036233343 -0.018750096 0.119889915

weight f4 [1, 128]
00000000: f4cc 33bd bce3 0e3e 4683 c53d 047a 713b
00000010: e0e1 d5bd 96a9 d83d 30f5 7d3d 8d67 d0bd
00000020: 1875 6c3d 9bac cd3d 986d 953d e601 033e
00000030: 1cad 083e 602c b6bc a248 fb3d 090e ef3d
00000040: ff23 02bd 0196 71bd 2afd 50bd 13b9 163e
00000050: d0b8 17bd c844 6fbd 63b7 b73d 55fc 9a3d
00000060: d764 b3bc 3769 6b3d 5c6b 9a3d 1f1a efbd
00000070: bf2a fb3d 27df fb3d f1fe 7ebd ddac 123e
00000080: 0b1d cebd 13e6 cf3d 38d7 afbd 7543 89bd
00000090: 376d e4bc bdc1 9abd 81df d93d 92d2 2b3d
000000a0: 3452 c5bd 6cbe c3bd de5e 32bd f91c 84bd
000000b0: 0c1d cd3d 951c ae3d fcca 803d 45c0 2a3d
000000c0: ca59 16bd e87e c23d 399a 193e 2305 c8bc
000000d0: 1bea 3e3d 1a8f 3abc 715a 9bbc b6be b5bd
000000e0: e617 36bd e072 91bd 607d 54bd 8a15 babd
000000f0: edd3 113e 6e5f e23d f2a1 c5bd 39fc e23d
00000100: 890f 143e 1bb4 123e b45f f33d 954b b73d
00000110: 2fa0 0e3e 266c 44bd 668b 0abd 2bf2 fcbc
00000120: 200f 71bd ebb0 9c3b 60d9 f63d 1f1a 16bd
00000130: 5903 8737 bab3 69bd 1eb4 183e c373 a2bc
00000140: 2de8 98bd 7958 64bd 4f80 fc3d ea76 e93d
00000150: 369d a43d 1aad 37bd 8a9d c2bc c7c9 7c3d
00000160: c4df 51bd 76eb 13bd 1631 d7bc 1238 1a3e
00000170: f6e8 85bd c186 53bd f59e e33d 3ca9 1abd
00000180: df15 053d 48f4 08bd 86fa 55bd e53b 0c3e
00000190: 8c40 c9bd 1e5a 38bc fe69 31bd 1511 00bc
000001a0: ab0f 1e3d 171d 8cbd 8555 073e 87a7 9fbd
000001b0: cf75 6e3d 37fb be3d 1c03 4ebd 5533 a9bd
000001c0: 91d4 e53d 30b7 84bd cba1 c9bd 104f b13d
000001d0: 131d e7bc 77f3 543d 12f4 b1bd 1768 2cbd
000001e0: a2c7 42bd dc38 fe3d bf1c 5c3d 6665 cbbd
000001f0: aef6 e63d c261 093e 9807 d53d 7417 b6bd
-0.04389663 0.13954061 0.09644179 0.0036846409 -0.10443473 0.10579221 0.062001407 -0.10176001
0.057728857 0.100426875 0.07296294 0.12793693 0.13347286 -0.022237957 0.12269713 0.11672599
-0.03177261 -0.058980945 -0.051022686 0.14719038 -0.037041485 -0.058415204 0.08970525 0.0756766
-0.02189867 0.057473388 0.075400084 -0.11674904 0.122640125 0.12298422 -0.06225485 0.14323755
-0.10064133 0.10151305 -0.085859716 -0.067023195 -0.027884109 -0.07556484 0.10638333 0.041948862
-0.096348196 -0.095578045 -0.043547504 -0.064508386 0.10015306 0.08501545 0.06288716 0.04168727
-0.036706723 0.09496862 0.15000238 -0.024416512 0.04660998 -0.011386657 -0.018964024 -0.08874266
-0.044456385 -0.07101989 -0.05187738 -0.090861395 0.14241 0.11053358 -0.09650029 0.11083264
0.14459051 0.14326517 0.11883488 0.08949963 0.13928293 -0.0479547 -0.033824347 -0.030877193
-0.058852315 0.0047818325 0.1205318 -0.036646005 1.6094813e-05 -0.057056166 0.14912459 -0.01983059
-0.07466159 -0.055748437 0.123291604 0.11399634 0.08037798 -0.044842817 -0.023756761 0.061715867
-0.05123879 -0.036113225 -0.026268523 0.15060452 -0.065385744 -0.051642183 0.11114303 -0.03775905
0.03249156 -0.03343609 -0.05224087 0.13694723 -0.098267645 -0.011251954 -0.043313973 -0.007816573
0.03858916 -0.06841486 0.13216217 -0.07795625 0.05821782 0.09325259 -0.050295934 -0.08261744
0.112221844 -0.06480253 -0.09845313 0.08657658 -0.028212106 0.05199 -0.08689131 -0.042091455
-0.047553666 0.12413189 0.053738352 -0.099314496 0.11277519 0.13416198 0.10401839 -0.08891192
