bike_sharing/AutogluonModels/ag-20220403_213147/models/NeuralNetTorch_BAG_L2/S1F5/net.params (torch, 215879 bytes, 9 tensors)

weight f4 [128, 22]
00000000: c546 14be a928 413e a808 1abe df9e 1dbe
00000010: 2c4b cfbd 321b 003e ce9a b33d dbbc 4f3e
00000020: 9da6 053d 05d7 363d 4ea5 58bd 96e8 403a
00000030: f879 51be d4b2 09be eefd c7bd 156f 223d
00000040: 6a47 d93d 1b5e 1a3e 67bc d7bd 8859 abbd
00000050: 47ac 1d3e 014d 253e 27e4 4bbe ea2d 8d3e
00000060: 4498 4fbd 58bd 9bbc 14f6 223e e541 5ebe
00000070: 03cd 1abe efab 87bb 6eae 49bd 9cbc 4d3e
00000080: 1632 09be 78cb 0dbe a7ae 39be c3c8 29be
00000090: 33e2 19be 4bb3 313e 8af9 bb3d 6815 0d3d
000000a0: 65aa 413d 73a7 90bd f51c 8c3d 7b7b 19be
000000b0: 670b 26be 4f77 cbbe b51d 7a3d 17fb 053e
000000c0: dfba b9bd fb60 88bb fef4 073e 54ae dc3d
000000d0: 63f8 633d fdac 2a3d 6f82 0c3e ce4b 6bbd
000000e0: e8e6 963c 0d1f 1cbe 2b21 cdbd 7eea d1bd
000000f0: 4481 133e fc32 8d3b 6421 18be 6835 8b3d
00000100: 596f 483d 9692 ae3c f7ed a6bd 9966 6b3e
00000110: 06b6 f53d e147 cc3d 9a63 cbbd 480d 08be
00000120: 6704 113d d1c4 3e3e c624 0e3e 9a40 363e
00000130: ee3d c13d e49d 21be 5594 a63c 2e7b 0ebe
00000140: f827 82be b610 153e e9e6 0f3e 4612 efbd
00000150: fd74 0d3d 5a29 bdbd f8f2 783d a477 42be
00000160: 26e3 153e 5f25 b3be 4f8e ce3c deb5 9f3d
00000170: 3134 463e c28c 833d 893e 50be 3b93 d9bd
00000180: 96dd 9d3d e4d7 7a3d c385 05be ca99 d0bd
00000190: c6fd 313e 01c3 193e 23ed 8bbd d94d 85bd
000001a0: 87b1 55be 97f8 d83b d36a e0bd 0b6d 0cbe
000001b0: 18b5 5bbd 3d9b f33d 0e47 7fbe 4e06 563e
000001c0: a316 09be 97be 253e c756 853d 0ad0 b6bd
000001d0: 88e5 033d 52d5 93bc e9db 3e3d 793d cb3c
000001e0: 8e8a ba3c bf7c d0bc b571 debd 8500 7b3d
000001f0: 82b1 53be 29b1 adbd 7278 65bd 2fc5 5bbd
00000200: 4698 adbd 783f 2ebe bd82 e9bd f511 ad3d
00000210: e791 82be 7c9f 0bbe 249d 873d 10a0 a1bd
00000220: 680a 47bd 776d 0fbd 9f55 9c3c 4bb4 113e
00000230: d30e 4a3e e1eb 003e d759 263e 0aa5 64bc
00000240: c8f3 3dbe af13 10be ef36 103e 9aa0 a5bc
00000250: 8c0c 03be 5149 e5bd f8df 71be c800 47be
00000260: 871f f5bd 197a 083e c9fb 963e bd1e bdbe
00000270: 2898 f33d a7c4 0bbe 072f aebb 38e1 a5bd
00000280: 8e27 2ebd a254 423c c2d9 c8bd c53c e5bd
00000290: a0a7 d23b 6539 35bb 9ca7 9dbd ac3c b73d
000002a0: 7e5e 1abe 32e6 2039 55c1 303e 3073 c3bc
000002b0: 3cb9 063e 83e8 bf3d 0bce 07be 9f0c b73d
000002c0: e62b 473e cbd6 9cbe 16a0 d33d 1001 0cbe
000002d0: dffe 133d 14b6 bbbd b475 bc3d 8fc8 713d
000002e0: dbe2 803d 1673 2e3d 62a9 41bd 3931 31bd
000002f0: 00c2 9bbd bfef b53d 1174 293e b0c8 9b3d
00000300: d146 4abe 2a19 4b3b 170c 03be 914b 0fbe
00000310: 7a47 69be 7e2f b93d f83c 7fbe 1649 a7be
00000320: 4734 8ebd e271 1c3e fdf7 07be cdd3 84bd
00000330: f387 68bd f3df 803d 94c8 b5bc 4aac a93d
00000340: 8d3e 963d bab2 4d3d 582a 30bd 78bf 1bbd
00000350: d9b3 033d 2c84 9fbc 0156 613c e860 773c
00000360: c304 b7bd 72ea 6ebe 1593 0c3e e973 15be
00000370: b21b 42be e4d8 a23e 6fa8 293d 00f2 86bd
00000380: 8d38 febd e339 d23d 6358 15be 0c17 1abd
00000390: 58fe bebd 1c53 15bd 5524 5e3d f91e cc3d
000003a0: 609b fe3c 20ca 133e c137 453d 26e9 2dbe
000003b0: 6344 853d d43d 84bd 5474 02be 9c74 9f3b
000003c0: 1511 373d 49b9 e53d f58a 71be 9639 f0bd
000003d0: db76 523d 18e2 66be eb02 f03d 32f3 08be
000003e0: 63ce 393d 6c62 5ebd cd63 7dbd 306b 11bc
000003f0: b6f3 183e b056 6dbd 5edd f8bd e52f 72bd
-0.14480121 0.18863167 -0.15042365 -0.15392636 -0.1012176 0.12510374 0.08769761 0.20286886
0.032629598 0.044638652 -0.05289202 0.0007358877 -0.20456684 -0.13447124 -0.0976523 0.039656717
0.10609324 0.15074961 -0.10533982 -0.08366686 0.1539775 0.16142656 -0.19911252 0.27574092
-0.05068232 -0.019011185 0.15914184 -0.21704824 -0.15117268 -0.004140369 -0.049238615 0.2009148
-0.13398013 -0.13847148 -0.18133031 -0.16580491 -0.15027694 0.17353551 0.09178455 0.034444243
0.04728164 -0.070631884 0.068414606 -0.1498851 -0.16215287 -0.39739463 0.061063487 0.13084064
-0.09068846 -0.0041619516 0.13277051 0.10775438 0.055656802 0.04166888 0.13721631 -0.05744534
0.018420652 -0.1524622 -0.10016092 -0.10249804 0.1440478 0.0043090563 -0.14856488 0.06797296
0.048934314 0.021310132 -0.08150857 0.22988357 0.11997609 0.09974647 -0.09931107 -0.13286316
0.03540459 0.18629767 0.13881215 0.17798081 0.0943564 -0.15782887 0.020334402 -0.13914177
-0.2542112 0.14557156 0.14052929 -0.11673407 0.034535397 -0.09236403 0.060778588 -0.18990952
0.14637432 -0.3498945 0.025214342 0.0779836 0.19355847 0.06423332 -0.20336355 -0.10623785
0.0770828 0.061241046 -0.13039307 -0.10185583 0.17381963 0.15015794 -0.068323396 -0.06508989
-0.20868503 0.006621431 -0.10957875 -0.13713472 -0.0536395 0.11894844 -0.24929449 0.20900843
-0.13387541 0.16185986 0.06510692 -0.08926399 0.03220132 -0.018046055 0.04659644 0.024809586
0.022771146 -0.025450109 -0.10861532 0.061279792 -0.20673183 -0.08481056 -0.05602307 -0.053654846
-0.084763095 -0.17016399 -0.114018895 0.08450691 -0.2550194 -0.13635057 0.06621769 -0.078918576
-0.04859391 -0.035016503 0.019083796 0.14228933 0.19732217 0.1258998 0.16245209 -0.013955364
-0.18550026 -0.14070009 0.14083456 -0.020218182 -0.12797755 -0.111956246 -0.23620594 -0.19433892
-0.11968904 0.13327827 0.29488972 -0.36937514 0.11894256 -0.13649236 -0.0053156647 -0.08099598
-0.04251819 0.011860998 -0.09807159 -0.111932315 0.006428674 -0.0027652618 -0.076979846 0.08947119
-0.15075108 0.00015344543 0.1726125 -0.023858637 0.13156599 0.0937052 -0.13262193 0.08937954
0.1945034 -0.30632624 0.10333268 -0.1367228 0.036131736 -0.09165588 0.092021376 0.05902916
0.06293269 0.042590223 -0.047280677 -0.043259833 -0.07605362 0.088836186 0.16548182 0.076066375
-0.19753577 0.003099034 -0.1279758 -0.1399367 -0.22781172 0.090422615 -0.24925601 -0.32672948
-0.06943565 0.15277818 -0.13278194 -0.0648571 -0.056770276 0.06292715 -0.02219037 0.08284815
0.07336149 0.050219275 -0.043009132 -0.038024396 0.032153938 -0.019472204 0.013753415 0.015098788
-0.08936455 -0.23331621 0.13727982 -0.14594997 -0.18955877 0.318061 0.041420396 -0.065891266
-0.1241313 0.10264947 -0.14584498 -0.037619635 -0.09325856 -0.036456212 0.054233868 0.09966845
0.031079948 0.14432573 0.048148874 -0.1698347 0.06507184 -0.06457105 -0.12739688 0.004866196
0.044694025 0.11216981 -0.23588164 -0.11729734 0.05138288 -0.22547185 0.117193066 -0.13374022
0.04536284 -0.05429308 -0.061862756 -0.008875653 0.14936718 -0.057944 -0.121515974 -0.059127707

bias f4 [128]
00000000: 3d87 2cbe e2de d8bd 485b 38bc d789 a4bd
00000010: 2944 64bd 087b e33d ad29 5dbd cd7d 573d
00000020: 683b 323e d5e2 26be 17f9 2fbe 14a4 ccbd
00000030: f998 32bd b05b c9bd c1f9 30bd de45 56bc
00000040: be80 383d 6c63 2b3e c2ca 1e3e 69e3 d1bb
00000050: 6d9c 953c 982d 0c3d 0ba1 c2bc b45e 8cbd
00000060: 459c e03d 0611 92be 2317 20be 48b6 6cbd
00000070: 8b8f a7bd 4628 03be 8ca2 6cbe c502 153e
00000080: 9472 11bd 1597 bdbd 81b0 dfbd eb72 1c3d
00000090: 981a 3bbe 160a 91bc 8a9e 05bc bace 1b3d
000000a0: 8589 923d cddb 12be 815c bb3d 6a1c 173e
000000b0: a206 32bd ef5b 743d db76 aebc dd48 f23c
000000c0: d013 723b cbc9 d0bd 4392 f03d e3c0 7bbe
000000d0: 0fb7 debc 3314 31be ecb0 edbd b6c2 47be
000000e0: df3c 83be 60cb 8a3d aa6f acbd 208e 42be
000000f0: 671d 47bc 3912 9bbd 2ad0 623c 3db3 24be
00000100: 82af 6abc 0094 e83c 0b0f 6d3d 6794 2a3d
00000110: 6a3f 6e3d 5e98 2f3e 1a86 e2bd 33bf 023e
00000120: 87f4 453e 1268 59be 7786 ed3c dec2 fd3d
00000130: 0618 e2bc f1c8 a53d fe4f f83c 7419 e33d
00000140: f7a0 3fbd 3339 f7bd 8f2c fd3d 8064 c63d
00000150: e27e 0d3e f3ce 5f3d ddfd 083e 8a7c 453d
00000160: d0ba 473d 6884 a4bd c0b4 de3c c9dc 21be
00000170: cce5 7a3c 1a0c 91bc 95c6 553c 6ec5 18be
00000180: a817 1e3d b7ac 3abe 6be4 b33d b2bb b73d
00000190: 57ad 6abe 22bf 113e d831 2ebe ec1d 39bd
000001a0: 6790 a43d 6ad3 5abd 91cd 363e 418a d3bd
000001b0: f8e8 7d3c 01ba 37be 3c88 b2bd d405 6d3e
000001c0: ebff e23d 5ca0 8e3c 920a 3cbd 00bd 22be
000001d0: d834 0d3e cd61 cfbc a24a 5bbd 61e1 2abe
000001e0: 2bd4 263e e20b 923d 8043 d43d 21b5 473c
000001f0: c05e f7bd 42a4 d63d 9d2e e43c 95fa 893d
-0.16848464 -0.105893865 -0.011252232 -0.08034103 -0.055729065 0.11107451 -0.053994823 0.052610207
0.17405474 -0.16297467 -0.17184864 -0.09992233 -0.043602917 -0.09831941 -0.043206934 -0.013078181
0.045044653 0.16737145 0.15507033 -0.006405283 0.018263066 0.03422317 -0.023758432 -0.06854001
0.10967306 -0.28528613 -0.15633826 -0.057791024 -0.081816755 -0.12808332 -0.23108882 0.14551838
-0.03550966 -0.09257332 -0.10922337 0.03819553 -0.18271863 -0.017705005 -0.008155474 0.038038947
0.07155136 -0.1434166 0.09148503 0.14756933 -0.043463357 0.059657987 -0.02129691 0.02957576
0.0036938079 -0.10194739 0.11746647 -0.24585299 -0.027186899 -0.17292862 -0.11606011 -0.1950787
-0.25632378 0.06777072 -0.08419736 -0.18999529 -0.012153006 -0.07571835 0.0138435755 -0.16083999
-0.014324071 0.028390884 0.057875674 0.041645434 0.058165945 0.17147967 -0.11060734 0.12768249
0.19331561 -0.21231106 0.028994782 0.123906836 -0.027599346 0.08094967 0.03031158 0.11088839
-0.046784367 -0.12071457 0.123620145 0.096871376 0.13817933 0.05464072 0.13378091 0.048214473
0.048762143 -0.08033067 0.027185798 -0.15806879 0.015313577 -0.017705966 0.013047834 -0.14919063
0.03859678 -0.18229948 0.08783802 0.08971347 -0.22917686 0.14233068 -0.17011201 -0.04519455
0.08035355 -0.053424276 0.17851855 -0.10329104 0.015497439 -0.17942049 -0.08717391 0.23146755
0.11083969 0.01741045 -0.045908518 -0.1589241 0.1378969 -0.02531519 -0.053537972 -0.16687538
0.16291873 0.07131173 0.10364437 0.012189181 -0.12078619 0.104805484 0.027854258 0.06737248

weight f4 [128, 128]
00000000: c35f 183c ecb4 90bd 9a4b c93d bd44 0c3d
00000010: 8a92 bc3a dd46 a23c ba0f 1039 ad87 973c
00000020: d27d 7b3d 1d91 823c 96c0 323d 0247 8b3d
00000030: 516a 173c 448a a9bb 701f 033d d0c3 75bd
00000040: 1950 6e3d 56c6 68bd 1c42 0e3c fc78 c5bd
00000050: 238e a13d 0e7c f03d 0c3d 393d d448 a23a
00000060: c241 843d b09e 573d ace4 de3d 0178 3e3d
00000070: b893 01be 8cd5 163d 0361 d23c 414b 333b
00000080: 12c1 3c3d 0ea5 553b d9af c13b d050 9c3d
00000090: 6fc5 9c3b f094 313d 26a3 403c 7be4 eabc
000000a0: d407 7abd 9c89 4d39 85e1 003c 45f7 38bd
000000b0: 7d18 043d 7e30 9a3d 475f da3d c79f 883b
000000c0: 0bb1 f43a 5096 86bd 4009 543d 602b 3dbd
000000d0: 9723 933d b33c acbc 3356 e9bc 695c a0bc
000000e0: 1402 d9bc e8f0 40bd 45f9 89bd b2e3 ac3d
000000f0: fad9 593d bb3b b2bd 1868 f2bc 6861 093d
00000100: 3928 e53d 04fe 86bc fc46 853d d6b2 3d3d
00000110: 2ebf 29bc a8d2 423d 5620 9bbd c5e0 c63d
00000120: 7bc1 d33d 511e e0ba 4727 273d c51c b03d
00000130: 4a60 373d 2e53 d93b ae6b 663c 9f78 6bbd
00000140: dac4 753d 2e49 90bb 3b5e dd3d 7e40 13bb
00000150: 0b2b e43c fb80 b0bc b132 a53d 3434 3fbc
00000160: 175b 8e3d 133b 90bd becf 3abd 49c3 e63c
00000170: 349d 09bd f856 47bd bd9f 683d 7c9e ddbc
00000180: 03f6 3ebd c631 ccbc cc0e 083d a932 353c
00000190: 889d 78bd 1eba 8abd 6534 893d d838 41bc
000001a0: 1a2b babc 6b8b 95bd d788 4c3c b7b9 503d
000001b0: ee77 3f3d 4bf9 703d acea b23d b059 1f3d
000001c0: 6576 063b a807 5e3d 0f98 c9bc 1015 0f3d
000001d0: a08e 993d f90a 1cbc 7cc4 a0bc d0c2 18bd
000001e0: 9534 1bbd fab2 263c 5e1d b23d b1d0 4fbd
000001f0: a6d0 3e3d b7f4 de3c c5df b23c b8fb 09bd
00000200: c817 0c3e 74fc 533d dbd1 c9bd 3627 1cbd
00000210: fad7 8938 89a9 74bd 9f58 1b3c 08ed bfbd
00000220: b034 9b3c d8f5 4f3d de8c 3b3d 8593 4a3c
00000230: 0c44 80bd 6ebf 523d c038 e4bc 8eb8 97bb
00000240: d1ad 9f3c bfc4 953d 0993 2ebd bd53 c93c
00000250: 9709 813d f9a7 8ebd dc3c bcbd 494a 8c3c
00000260: f0a6 79bc 4646 5b3d 1ed2 b73c 34bd 233d
00000270: 19da d0bd 8ed7 b33b 16a1 4c3d 0681 793c
00000280: a161 983d 2de7 6ebd b2e1 86bd 0f98 a9bb
00000290: d222 e83d 6442 b43c 6cf2 83bd d6d9 8dbd
000002a0: 650c 1f3c bf47 813c b357 07bc 76c7 a3bd
000002b0: aac7 69bc 907f 60bd 95f0 d53b cd16 3abd
000002c0: af74 813d 15ee 78bd bc59 9ebd 7499 93bd
000002d0: b5dc f3bc 49e0 fdbd 22af 8f3d 9242 073c
000002e0: 2453 883d 1ffb 163d 0e6e a1bd 698d 17bd
000002f0: 4643 a5bd a6bc 2bbd 733a 1e3d 8e3f 16b7
00000300: 6be8 95bd 2274 2cbc b0d5 62bd 7fea a83c
00000310: c731 93bd 7082 c03d cbdf 803d 8ed5 f63c
00000320: 7da0 36bb 3bbe 26bd 1958 0fbc 69ba 3e3d
00000330: cdaa f6bd abc1 15be 7b33 18bc adad 283d
00000340: 0cef babd 2c48 0abe 1668 25bd 9f7c 4d3c
00000350: b61c 5c3d 0135 76bd b613 1cbe d95b a5bd
00000360: 08ce 993d a38b c23b 9a2c c9bd fc0b 8a3d
00000370: f1a3 353c cf0b 153d 7b0b 623c 20ce 81bc
00000380: 90a8 b2bd 9d30 ee3c e516 0dbd b946 89bd
00000390: bfba 4e3d 0cb3 6c3c e76e 4b3d bbac b3bd
000003a0: 9f37 c7bc f122 7abc 8520 16bb dcfb 06be
000003b0: a2f0 1ebd f885 f63c 975e d4bc 7e06 90bd
000003c0: 3a98 efbc 6dce f13d 822f 6fbd 6e40 bbbd
000003d0: c4cc 2cbd 136c f93b 4ee3 733d 068c cbbd
000003e0: 375c a43c 1cc3 be3d d13a 703d a238 513c
000003f0: 4efe 9fbd d0aa 0d3d 91bf 073d aaa1 2ebc
0.009300175 -0.07065758 0.09828873 0.03424524 0.0014386934 0.01980918 0.00013738769 0.018497312
0.06139929 0.015938336 0.043640696 0.06800653 0.009241656 -0.0051739533 0.032012403 -0.060001194
0.058181856 -0.056829773 0.008682754 -0.096422166 0.078884386 0.117424116 0.045224234 0.0012381324
0.06457855 0.05264157 0.108834594 0.046501163 -0.12654006 0.036824748 0.025681024 0.0027358087
0.046082564 0.00325996 0.0059108553 0.07632601 0.004784278 0.04335493 0.011757648 -0.028673401
-0.06104262 0.00019601587 0.007866268 -0.04515769 0.032249916 0.075287804 0.10662704 0.0041694376
0.0018668486 -0.065716386 0.051766634 -0.046183944 0.071845226 -0.021025037 -0.028483486 -0.019575315
-0.026490249 -0.047104746 -0.067369975 0.08441867 0.053186394 -0.08702799 -0.029590651 0.03354016
0.111893125 -0.016478546 0.0650768 0.04631313 -0.010360522 0.04756418 -0.07574527 0.0971084
0.10339638 -0.0017098879 0.040808942 0.08599237 0.044769563 0.0066322302 0.014063759 -0.05748808
0.060002185 -0.004403255 0.10808989 -0.002246886 0.027852556 -0.021545878 0.08066309 -0.011670161
0.06950968 -0.070425175 -0.045608275 0.028169291 -0.033597186 -0.048666924 0.056792963 -0.02705311
-0.046621334 -0.024926078 0.033217236 0.011059442 -0.06069711 -0.0677378 0.066994466 -0.011793338
-0.02272563 -0.073019825 0.012483797 0.05095836 0.046745233 0.058831494 0.08736166 0.038903892
0.0020517346 0.05420652 -0.02460864 0.034932196 0.07497907 -0.0095241 -0.019624941 -0.037295163
-0.037891943 0.010174507 0.086970076 -0.050736133 0.0465857 0.027216299 0.021835217 -0.033687323
0.13680947 0.05175443 -0.0985448 -0.038123332 6.572898e-05 -0.059731994 0.009481578 -0.09371382
0.018946022 0.050771564 0.04578864 0.012364273 -0.06262979 0.051452093 -0.027859092 -0.004630155
0.019492062 0.07312917 -0.042620692 0.024576062 0.06300657 -0.06965632 -0.091912955 0.017125266
-0.015237555 0.053533815 0.022439059 0.03997536 -0.10197849 0.0054883426 0.04995831 0.0152285155
0.07440496 -0.058325935 -0.06586017 -0.0051755975 0.113347664 0.022004314 -0.06442723 -0.069263145
0.009707545 0.015781282 -0.008260655 -0.079970285 -0.014268795 -0.054809153 0.0065289238 -0.0454319
0.06321084 -0.060773928 -0.07731959 -0.07207003 -0.029768327 -0.123962946 0.07015826 0.008255618
0.06656483 0.03686058 -0.078823194 -0.037000094 -0.08069472 -0.041927956 0.03862996 -8.955494e-06
-0.07319721 -0.010525735 -0.05537957 0.020619629 -0.07187229 0.09399879 0.06292685 0.030131128
-0.0027866655 -0.04070876 -0.008749031 0.046564493 -0.120442964 -0.1462466 -0.009289618 0.041181255
-0.09127626 -0.13504094 -0.040382467 0.012541919 0.05373832 -0.060109142 -0.15241894 -0.08074159
0.075100005 0.005937056 -0.0982296 0.06740567 0.01108645 0.036388215 0.0137966825 -0.015845358
-0.08723557 0.029075915 -0.034445662 -0.067029424 0.050471064 0.014446985 0.04966631 -0.0877318
-0.024318514 -0.01526712 -0.0022907567 -0.13182014 -0.038803704 0.030093178 -0.02592401 -0.07032488
-0.029247392 0.11806951 -0.058394916 -0.09143148 -0.042187467 0.0076117604 0.059542947 -0.09938817
0.020063503 0.09314558 0.05864984 0.01276985 -0.07812177 0.034586728 0.033141676 -0.010658661

bias f4 [128]
00000000: cee0 92bb 42cb 053d 13b4 f0bd b70c 37bc
00000010: eb5a 043c 96f7 c9bd 1cf6 2f3b a108 73bd
00000020: ad61 bebd 334a 993d 89a4 843c 2c2c 743d
00000030: 2d3f ba3d 9387 5bbd 346f a7bd 8528 c6bc
00000040: f04b 4a3d 515f b93c 6edf c4bc 3fda b73d
00000050: c950 b7bc 6832 743d 284a 593c 15b9 0dbd
00000060: 2127 5e3d b8f9 553d 3bc9 a8bc 77ac 98bd
00000070: ffd7 873d 12c2 9f3d b9b4 263d 30c9 873c
00000080: dd2f 0f3d 159b 163d 17f4 fcbc 5e2c 82bd
00000090: b14a 4cbd ded9 7b3d c90f 4bbd ffbc 833d
000000a0: 0bba 9dbd a252 4cbd 1965 af3d 789c 3abd
000000b0: 63c4 923c 3027 a13d 3213 8a3c 6eff 5f3d
000000c0: 95f4 52bc e838 c9bd 64db 06bd aa64 ffbc
000000d0: 35d8 8abd 5811 a0bd f472 29ba 6b87 b63d
000000e0: 42c3 9c3d c132 273d e332 53bd 6b00 673c
000000f0: 97a9 d93c 68f3 b23d c9d6 12bd 101d 593d
00000100: b109 ab3d 5731 96bb 0dfc f1bd 8d8d d13c
00000110: a106 6a3d dc1f cfbd 7220 843d 54da 16bc
00000120: dbfe 04be c905 c73c 5147 2c3d 341a e3bb
00000130: 7e12 86bd 6159 3fbd 1087 3a3d 93ee 5b3d
00000140: f36b 593d 7f03 203d 53bb 693d 069f 0dbd
00000150: 30dc 293d 4eba 1f3d 1aa2 9b3b e8c6 ad3d
00000160: 4d86 2cbc 5d55 bd3d 7614 f9bb d895 833d
00000170: 96b9 b7bd 5215 a53d aadc 82bc f05f c33b
00000180: 80df ad3d 8aca d03b e453 bbbc 3706 f2bc
00000190: 5899 b83d 204c 9e3c a504 b6bc b1ed 1dbc
000001a0: 7ff7 9d3d 00a1 143d b07d ad3d 0dd8 1fbd
000001b0: 41a9 10bd d486 3bbd 53de b9bd 2d57 23bc
000001c0: 82aa 103c 7190 94bd 1574 53bd cd41 333c
000001d0: e73d 98bb 9d36 81bd 1fa0 ae3d 627b 34bd
000001e0: 9cc2 a03c c4fc a63d ee13 bfbd af70 643c
000001f0: 7f87 0cbe d281 bc3d 31f6 efbc 52ca 943d
-0.004482365 0.032664545 -0.117530964 -0.011172465 0.008078317 -0.098616764 0.0026849573 -0.0593344
-0.09295974 0.074848555 0.016191738 0.059612438 0.09094081 -0.05359609 -0.08175507 -0.024189243
0.049388826 0.022628458 -0.02403232 0.08977174 -0.022377389 0.059618384 0.013262309 -0.034600336
0.054236535 0.052240103 -0.020603767 -0.0745477 0.06632995 0.07800688 0.040699694 0.016575426
0.034957755 0.03676899 -0.03087811 -0.063561186 -0.04987592 0.06148707 -0.0495756 0.064325325
-0.077015005 -0.049883492 0.08564205 -0.045559376 0.01791591 0.078688025 0.016854856 0.054686956
-0.012875696 -0.09825307 -0.03292407 -0.03117593 -0.067795195 -0.07815808 -0.0006463968 0.08912548
0.0765443 0.040819887 -0.0515622 0.014099221 0.026570125 0.08737832 -0.035849366 0.05300623
0.08351458 -0.0045835185 -0.11815653 0.025580192 0.057135228 -0.101134986 0.06451501 -0.009207327
-0.12987845 0.02429475 0.0420602 -0.006930614 -0.06546496 -0.046716098 0.045538962 0.05369432
0.053081464 0.039065834 0.057063412 -0.034575485 0.041469753 0.038996033 0.0047495486 0.08485204
-0.010530067 0.092447974 -0.007601316 0.06425065 -0.089709446 0.08060707 -0.015974361 0.0059623644
0.08489895 0.006371801 -0.02286715 -0.02954398 0.09013623 0.019323409 -0.022219012 -0.00963919
0.07713222 0.036286354 0.084712386 -0.0390244 -0.035317663 -0.04578288 -0.09075608 -0.009969515
0.008829715 -0.072541125 -0.051624376 0.010940981 -0.004646051 -0.06309245 0.085266344 -0.04406298
0.019624047 0.0815368 -0.09329973 0.0139428815 -0.13723563 0.09204449 -0.029292198 0.07265152

weight f4 [128, 128]
00000000: 3e13 47bb 61c4 a4bc 48f9 8f3c ddb5 55bd
00000010: f971 c03b f15a 80bd d6a2 e33d ba36 eebd
00000020: 3309 a53c 5b17 eb3d 52ae c8bc 2675 a5bd
00000030: 2830 babd 5d23 163d 105f 5f3d ffdb 99bd
00000040: 59f6 893d f40c d1bd 5a03 5b3d 178e 35bd
00000050: e6a7 b5bd 83f0 5dbd 4b5b b4bd 8e8c d0bd
00000060: 2324 9bbd 7466 2eba 177b 473d 2a88 09be
00000070: 9cb0 523d 71b2 1bbd 6d13 813d 4bf2 99bc
00000080: 1ec3 c2bd 6742 e73c 010a 9b3d af18 9c3c
00000090: 9cf1 bb3d 1a5e 0b3d a934 ddbb 8712 91bd
000000a0: a690 e43c 6882 b5bd f23a ee3c da44 473c
000000b0: 3d64 c73d 0732 9b3c f512 393d c0b4 863d
000000c0: f530 013d a9d0 afbc 443e 243d d9ff b73d
000000d0: ff48 903d df18 fdbc bc5e 263d 6ec6 c7bd
000000e0: e49a 983d 7b03 0bbd 66f9 0dbe a3b8 d33c
000000f0: b2e0 18bd 4527 2fbb d2eb a6bc 98fb 8cbb
00000100: cc33 5abb f2fe bfbd 8f22 80bd 2788 cbbc
00000110: 576c e9bc 4100 cebd b42a 26bd eca9 fcbd
00000120: afd5 bfbb 30c6 783d 996d 293d 5865 91bc
00000130: e6d7 4ebc b637 2dbd 6af4 2bbd fba1 823c
00000140: c739 83bd fcec 21be 8329 81bd 7852 ffbd
00000150: 8122 d7bc f6f0 f23c 89c1 623d 40bf e73b
00000160: 8b6b 6b3c 1a5d a2bd 960f cfbd 9c3d 443c
00000170: eadd 763d 8e4c a6bd 4bdf 163d 259e 123d
00000180: 14d0 f0bd dde5 0bbd 4d05 cf3d 56ac 66bb
00000190: 3fba 4d3d 4f95 b03c b846 be3c 2430 22bd
000001a0: 555c 913c fd20 f1bc 7d32 03bc 2f89 4f3c
000001b0: f57f aabc af27 8c3d bac9 9bbd 812c 3e3d
000001c0: dee2 f7bd 28a2 b3bc b579 353d d8bc 5c3c
000001d0: d41d 1c3d b265 e4bd 3c78 de3c 1c5c 2c3d
000001e0: 3438 e3bd d82c d5bd 7e4e 9a3d ea55 7cbb
000001f0: cd6c 12bd 24e3 a5bd e35e 66bb 0bf4 a03d
00000200: 3543 883d f00b c13b 2a7a 71bd c42f 94bc
00000210: f30a 99bb fb33 19bd 9722 593c bd0b 19bd
00000220: de5b 6fbb bc9c ef3d 76aa 68bd d261 7bbc
00000230: 0b12 cd3a 640e 3f3d fd5e 7dbc 7c45 abbd
00000240: 3286 abbc c484 a4bd cb9a adbd 9155 8dbd
00000250: 87c2 b5bd 1362 143d 7f54 713d e331 9ebd
00000260: 8601 873c 3f46 913d 5183 be3b b9a2 d8bc
00000270: 80a8 873c 6a90 7bbd 2e3a c13d 6164 8bbd
00000280: 272b 0e3a 3c99 543b 8b2d 31bd 89a6 e6bc
00000290: 64b7 923d 4ac4 403c d6bf 04bd 9393 463d
000002a0: 1a78 c93b 8330 fabc 77df e43c 39dd 13bd
000002b0: bca3 023e 278a ccbc d390 263d 93e2 9d3d
000002c0: e3eb edbd f588 003d 2c0e 31bd ea6f 9b3b
000002d0: 181f abbc 4844 9abc 6749 89bd 1492 91bc
000002e0: 27bb 2fbb 139c cc3c eb7e 183d 55cf 8bbc
000002f0: 3ff7 09bc 216b e73d ed68 2fba cc30 edbb
00000300: a5a6 793c 0037 40bc e5e5 40bd f7b0 64bd
00000310: 2bd8 4dbd e41e 37bd 490b 4dbb 3b2b 0e3c
00000320: 7d54 8dbd 275c ef3b 88e9 e2bb 3d8b 19bb
00000330: cc45 2ebd 7f61 d03c a374 07bc 2303 0fbe
00000340: e2de 753b b2c3 c2bd 0331 b0bd d5db 13be
00000350: 92bc 77bc dd88 26bd 8920 953d 8073 f5bc
00000360: a360 503d 2c65 79bd 6522 30bd 3168 7bbd
00000370: d5f8 40bd 19db 9ebb 19e7 80bd 61a7 fb3d
00000380: c7fa 87bc 6aee 033d 702f d33c 215c 8fbd
00000390: f1ae f33b 74c8 32bd 2a61 013d bd41 263d
000003a0: 4f5b 683d 0ab5 ccbc 852e 3a3d 5bf2 6ebd
000003b0: 378a 823c 9161 95bd 2ba6 26bc 93f3 5cba
000003c0: de5f b8bd 74fc 6bbd 928d 62bc 0599 523c
000003d0: 13b6 453c bd97 09bd 8d13 1b3d 96bf 20bd
000003e0: 9255 373a d24e 5c3d 4214 c53c 23b3 0abc
000003f0: dfbd 65bd 806d 833c 27f8 60bd ba95 5a3d
-0.003037646 -0.020113172 0.017574921 -0.05217539 0.0058729616 -0.06267346 0.11115043 -0.11631532
0.020145988 0.11479064 -0.024497185 -0.08078985 -0.09091216 0.03665482 0.054534018 -0.07512664
0.0673644 -0.10207549 0.053469993 -0.04432496 -0.08869915 -0.054184448 -0.08806475 -0.10183059
-0.07575252 -0.000665284 0.048701372 -0.13430849 0.05143796 -0.03801197 0.06302533 -0.018792292
-0.09509872 0.028229905 0.075702675 0.019054739 0.09176943 0.03402529 -0.0067506623 -0.07083612
0.027901005 -0.08862764 0.029080842 0.012162412 0.09735916 0.018944753 0.045184094 0.06577444
0.03154083 -0.021461802 0.040098444 0.08984346 0.07045173 -0.030895649 0.04061769 -0.09754644
0.07451418 -0.033938866 -0.13864669 0.025844878 -0.03732366 -0.0026726287 -0.02037612 -0.0043024532
-0.0033295033 -0.09374799 -0.062565915 -0.024845196 -0.028494043 -0.10058642 -0.04056807 -0.123370975
-0.0058543305 0.06073588 0.041364286 -0.01774852 -0.012624716 -0.04228946 -0.04198114 0.015946379
-0.064075045 -0.15813059 -0.06306746 -0.124669015 -0.02626157 0.029655915 0.05536035 0.0070723593
0.014368902 -0.07927914 -0.10110395 0.011977579 0.060270227 -0.081200704 0.036834043 0.03579535
-0.11758438 -0.03415476 0.10108433 -0.0035197935 0.050226446 0.02155557 0.02322708 -0.03959669
0.017744223 -0.029434675 -0.008007643 0.012666984 -0.020812968 0.068435065 -0.07606836 0.04642916
-0.12103818 -0.021927908 0.044305522 0.013472758 0.038114384 -0.11152209 0.027156942 0.04208003
-0.11094704 -0.10408944 0.075345024 -0.0038503357 -0.03574829 -0.08099964 -0.0035151772 0.078590475
0.06653444 0.0058913156 -0.058954395 -0.018089183 -0.0046704947 -0.037403088 0.013252876 -0.03736471
-0.0036523263 0.116998166 -0.05680319 -0.015343146 0.0015645636 0.046644583 -0.0154645415 -0.083628625
-0.020938013 -0.080331355 -0.0847679 -0.06901086 -0.08874994 0.036226343 0.058918472 -0.07724359
0.016480219 0.070934765 0.005813994 -0.02644478 0.01655984 -0.06141702 0.09434925 -0.06806255
0.00054233003 0.0032439968 -0.043256324 -0.028155582 0.07163885 0.011765549 -0.03240951 0.04848058
0.0061483504 -0.03054071 0.027938588 -0.036099646 0.12757772 -0.02496822 0.04066546 0.07709231
-0.116172574 0.031380612 -0.043226406 0.004743566 -0.02088885 -0.018831387 -0.067034535 -0.01776985
-0.0026814432 0.024976766 0.037230413 -0.017066637 -0.0084207645 0.1129973 -0.00066913554 -0.007238483
0.015237485 -0.011731863 -0.047094245 -0.05583283 -0.050254982 -0.044707194 -0.0031287244 0.008677299
-0.069008805 0.0073046866 -0.0069248118 -0.002342894 -0.042547032 0.025437115 -0.008267554 -0.1396604
0.0037516882 -0.09509982 -0.08603098 -0.14439328 -0.015120642 -0.040657867 0.07281596 -0.029962301
0.05087341 -0.0608875 -0.04300155 -0.06137866 -0.047112305 -0.004847896 -0.062940784 0.12287784
-0.016599072 0.03220979 0.025779456 -0.06999994 0.007436626 -0.0436482 0.031586803 0.040590037
0.056727704 -0.02498867 0.04545452 -0.058336597 0.015935047 -0.07294 -0.0101714535 -0.00084286294
-0.0900266 -0.057613805 -0.013827698 0.0128538655 0.012067336 -0.033591975 0.037860442 -0.03924521
0.0006993647 0.053786106 0.024057511 -0.008465561 -0.05608928 0.016043425 -0.054924157 0.053365447

bias f4 [128]
00000000: 53da b0bc 43ac 763c 67fc 8ebd 4133 1dbd
00000010: 05d2 ec3b 5063 10bd c24e 47bc 2097 aabc
00000020: 494d 74bd c25e 8c3d dd1a f03c f374 15bc
00000030: 8820 153a 21bc a53d 50ad 9ebd 5942 a23c
00000040: 6867 c53c 2e93 063d d18e 5cbc 5670 20bd
00000050: 70fc cc3d 6ebb 0dbe a944 81bd b5ce 883d
00000060: bc89 0ebd 5a57 b83c 440d df3d 8892 483c
00000070: 34b3 6fbc 582d 0cbd 4ac9 883d ffd5 c43d
00000080: 38d7 80bc 8a15 01bd ecb2 903d dbb3 1ebc
00000090: 866f bb3b 789d 363d 655a 863c 64a3 a63d
000000a0: d0d1 30bd 9c42 33bd 601d ba3d 6b30 cc3d
000000b0: c056 4dbc f04b 5a3d b517 843c ee23 be3b
000000c0: 7f41 0dbd aa37 77bd a7a9 b53d 8fd6 4b3d
000000d0: 1b1a d33d 921c bb3d 1e99 ab3d b9c3 6b3d
000000e0: 5477 1a3d 2625 49bd 734a a23d 8938 4cbd
000000f0: 2538 d1bc ca8d 933d 8530 043d b938 1b3d
00000100: 4abe 643d f1a8 a33d 29b5 8b3d f793 623d
00000110: f15f 9e3d 9397 56bc 3d3d 12bc 40bf f73d
00000120: 5f20 923c 8555 2b3c 8627 84bc 86a3 b63d
00000130: e167 7e3b e9b7 0f3d a57c 10bc 1194 403d
00000140: 76a4 9f3d b35d bd3c b87b 93bb 4ffd ab3d
00000150: e187 e33c 38ab d83c 984a b8bd 5174 9fbd
00000160: 29c3 d13d fee4 823d 0546 5f3d bfd0 db3d
00000170: 79b6 ed3c 36f3 ef3d b116 ae3d 25da c63d
00000180: d15e 4cbc f623 c03d 6ac5 cc3d 9ca6 8ebc
00000190: 1469 003c 5f55 a93d 32c1 b93c 7e20 9e3d
000001a0: a880 9bbc daa8 b73c 90d0 4ebd ec57 083e
000001b0: 72d0 703d 1306 0f3c 6f6a 61bd 2a37 6a3d
000001c0: 938a aa3d 4af6 15bd ac99 753c 3b2b de3d
000001d0: 5c2b 533d e282 9dbc 0fda 4b3d d379 cc3b
000001e0: 943e 9b3c 3974 753d 43c9 9a3d 58b2 5f3d
000001f0: 6372 763d 5541 37bd e2c7 44bd 5e25 57bb
-0.02158848 0.015055719 -0.06981736 -0.038378958 0.0072271847 -0.03525096 -0.012164773 -0.020824015
-0.059644017 0.06854011 0.029309684 -0.009122121 0.00056887465 0.08092523 -0.077479005 0.019807028
0.02409716 0.032855205 -0.013461784 -0.039169632 0.10009086 -0.1384103 -0.06311924 0.06680051
-0.034799322 0.02250259 0.10891202 0.012241967 -0.014630128 -0.03422293 0.06679018 0.09611129
-0.015727624 -0.031514682 0.07065377 -0.009686436 0.0057200817 0.044583768 0.016400525 0.08136633
-0.043168843 -0.043764696 0.09087634 0.099701725 -0.01253289 0.053295076 0.016124586 0.005802623
-0.03448629 -0.06035582 0.08870249 0.049765166 0.103077136 0.09136309 0.08378814 0.057559703
0.037711456 -0.049107693 0.07924356 -0.049858604 -0.025539467 0.072047785 0.032272834 0.03789589
0.055845536 0.079912074 0.06821663 0.05531689 0.07733143 -0.013097662 -0.008925733 0.12097025
0.017837701 0.010457401 -0.016132127 0.08917908 0.003881924 0.0350875 -0.00881878 0.047016207
0.0779504 0.023115968 -0.0045008324 0.08397924 0.027774753 0.026448831 -0.08998603 -0.077858575
0.10242302 0.06391333 0.054510135 0.107331745 0.029017674 0.11716311 0.08500422 0.097095765
-0.012473778 0.09381859 0.09998591 -0.01741343 0.007837553 0.08268236 0.02267513 0.07721041
-0.018982247 0.022419382 -0.05049187 0.1331479 0.05879254 0.008729476 -0.055033144 0.057181515
0.08327212 -0.036611833 0.0149902515 0.10848089 0.051555023 -0.019227449 0.049768504 0.0062401085
0.018950738 0.05992529 0.07557919 0.05461344 0.06016768 -0.04474004 -0.048042186 -0.003282867

weight f4 [128, 128]
00000000: af38 583d ec09 77bd 20ec 9ebd 7148 93bd
00000010: 180c 88bd 789c 3abd 4b09 28bd a7b6 36bc
00000020: b194 53bd 4473 ee3d b9d7 00be 0392 103d
00000030: cf55 da3d 9ed9 c63b 65ec 373d 3d2b 52bd
00000040: f155 b53d a364 be3d 4c80 f2bb 6774 8e3c
00000050: aa80 8d3d 6657 213e dd1e 63bd 0748 be3d
00000060: fec8 333d 1aea 7b3d 8699 5dbd e1e1 a23d
00000070: 2cce 823d 3efa aabd 9bb8 fd3c 2a78 433d
00000080: 1540 23bd 6e0b 07bb 13a0 a03d 6169 ca3d
00000090: 9023 0a3d 836b 083d 8085 233d c066 9abd
000000a0: 701c c3bd c17d 32bc 485d 16bc 3102 903d
000000b0: 0e46 15bd 211b 39bd 5c38 8d3d 2363 aa3d
000000c0: 56f0 71bc ee6b 8a3d e8b6 46bd fa3a a4bd
000000d0: 52ee 1fbd 6281 b43c 0d93 273c 17ba d93d
000000e0: f352 a53d 06e4 113d a567 b43d d237 2bbd
000000f0: 31d0 8a3d 1f2e 183d ff01 6dbc 48a5 14bd
00000100: a4b9 d03d b976 babc b636 8a3d 9c38 53bc
00000110: 0331 e23d 310d 82bd 6b1f 8d3d 2f6a 0b3d
00000120: 1481 8cbc 6c93 473d 9cb2 793d a8bb 8a3d
00000130: 34f3 c53b 0ae7 3c3d 4092 70bb c756 da3d
00000140: 40de 67bd 5bd2 31bd cc12 76bd b0f5 6d3d
00000150: 079b c0bd ec6e 49bc 1e6b b93d f71c 183e
00000160: 9439 68bb 92d6 1e3d 08e4 a0bc 847a 1abd
00000170: bea2 c5bc 45b9 a3bc dfea 653c 6a5f 95bd
00000180: 2799 5d3d cbd8 14bd 87d0 a93a 5180 a13b
00000190: 152e a5bd 5be0 5f3d 1290 9b3d 27be 1bbd
000001a0: 7e30 a23d 3787 7abd fe1f 313c 4211 61bd
000001b0: 0b45 213c 28b4 f4bb d140 fabc 038d cebb
000001c0: f944 1b3c f35e 09bd 1f09 313c 15f9 4f3c
000001d0: 4371 47bd 04c3 6ebb 58ff e83c 4c8f 203d
000001e0: dff6 1bbd 30cd 613b 497c 08bc d4c3 eb3c
000001f0: 25e6 8b3d 062f cf3d 7177 fa3c b122 e13d
00000200: 6a06 0b3e 8b14 543d a7da c33c a185 7d3d
00000210: 1397 353d cf37 9a3d e91a 0fbc 6bd1 6e3d
00000220: 682a a4bd 5eae b7bc eda5 3b3d a02a 423d
00000230: b098 d8bc eacc adbd 1732 5fbc 7885 323d
00000240: cf31 1b3c f549 a4bd 134f 10be c7b1 dcbb
00000250: 37e8 c7bd df46 ad83 759c 0dbd f1a0 abbc
00000260: b363 82bc 5b5b 2e3d 4ed9 06bd d76f bfbc
00000270: 88a1 7cbd 898a 8f3d 629e d5bd c42b f13d
00000280: 9841 213c d829 bdbb b8e5 83bd 205c 93bc
00000290: a315 323d 930c d43d 50c5 5cbd bc1d 9c3d
000002a0: a791 d33d 73ef 103e 727f fbbc 25f8 a5bd
000002b0: dad7 d73c 41a5 1e3e db94 81bd ee83 4abd
000002c0: 9a24 58bc 4067 10bb 58c3 8fbd c142 bb3d
000002d0: dc40 ffbc f711 6b3d 84da 4abd 1980 c63d
000002e0: 71a9 0bbd 023b 36bd 3484 ccbd a8f8 83bd
000002f0: bf8b d1bd 6125 c6bc 6332 fdbc e941 36bd
00000300: 2fd0 84bc c59d c2bd e294 eabc e594 20bd
00000310: c49f 53bc 7d3b f1bd d467 8c3c a190 4d3d
00000320: b46c babd 419b fabd 1e4c a937 6ef3 e1bc
00000330: 0708 d33c 9b4c 133d 07e3 5abd b335 d33c
00000340: f8fe 20bd 328b 87bc a2dc 633d 830e 2e3d
00000350: 67c7 fa3c afda e3bd 6df5 853b 88d3 ad3a
00000360: 29da 9a3d f565 4cbd 50ac 733a ddb3 1abd
00000370: f28f bebc 459d 92bc 8cd9 9abd d99a a6bd
00000380: f324 a83d 700c 61bd b8b3 7cbd f714 df3c
00000390: ce4f d13d 2327 94bd c440 3cbd 9b30 0ebe
000003a0: febb 11be 8c7c 54bd f8fb 103c 6a7d 583d
000003b0: c015 89bc 3c27 97bd 0dde f3bb 7177 243d
000003c0: ad6d 8d3c 7153 b73c 1f8a 143d 9846 b63d
000003d0: f225 cfbc be75 063d 0ca2 0bbd ae15 d4bc
000003e0: 8358 c1bd 7af6 7f3b 3aec d7bd 53dc 06be
000003f0: e2f8 b5bd 5c9e 0bbd 2ed2 8fbb 2b41 4cbd
0.052788433 -0.060312197 -0.07759881 -0.071915515 -0.06642932 -0.045559376 -0.041024487 -0.011151946
-0.051655475 0.11643079 -0.12582292 0.035295498 0.10660898 0.0060684225 0.044903178 -0.051310766
0.08854283 0.09296539 -0.007400548 0.01738949 0.06909306 0.15755996 -0.055449355 0.09291082
0.043892853 0.061502554 -0.05410149 0.07953239 0.063869804 -0.08348511 0.030971816 0.04772202
-0.039856035 -0.0020606178 0.07843032 0.09883381 0.03372532 0.033305656 0.039922237 -0.07539129
-0.095269084 -0.01089424 -0.009177513 0.07031668 -0.036443762 -0.045191888 0.06895515 0.0831969
-0.014766773 0.06758867 -0.048514277 -0.080190614 -0.03904564 0.02203435 0.010227931 0.10631197
0.08072462 0.03561785 0.08808831 -0.04180128 0.067779906 0.03715336 -0.014465808 -0.036290437
0.10191658 -0.02276169 0.067487165 -0.012891915 0.110445045 -0.06350172 0.06890758 0.03403681
-0.017151393 0.048724577 0.06096135 0.06774074 0.006040955 0.046118774 -0.0036708266 0.10661083
-0.05660844 -0.0434135 -0.06007652 0.058095634 -0.09404569 -0.012294512 0.09053634 0.14854799
-0.003543471 0.03877885 -0.019639984 -0.037714496 -0.024125453 -0.019985804 0.014033048 -0.072935894
0.054101136 -0.036339562 0.0012955823 0.0049286266 -0.0806543 0.05465732 0.075958386 -0.03802314
0.079194054 -0.061164107 0.01081085 -0.0549481 0.009843121 -0.0074677654 -0.030548485 -0.006303431
0.009476894 -0.033537816 0.010805397 0.012693663 -0.048692 -0.0036432156 0.02844207 0.03919916
-0.03807723 0.0034454577 -0.008330413 0.028779902 0.06831006 0.10116391 0.030574532 0.10992945
0.13576666 0.051777404 0.023907972 0.061895017 0.04433353 0.07530176 -0.008734443 0.058305185
-0.08015901 -0.022422012 0.045812536 0.04740393 -0.026439995 -0.0848635 -0.013622782 0.043584317
0.0094723245 -0.08021919 -0.14092664 -0.00673506 -0.09761088 -1.0184297e-36 -0.034573037 -0.020950766
-0.01591668 0.042567592 -0.03292208 -0.02336876 -0.061677486 0.07008845 -0.104306 0.11775926
0.009842299 -0.0057728104 -0.064403 -0.017988265 0.043477666 0.10353961 -0.05389911 0.07622859
0.10330515 0.14153843 -0.03070042 -0.081039704 0.026348043 0.15492727 -0.0632722 -0.049442224
-0.01319232 -0.0022034198 -0.07019681 0.09143592 -0.031158857 0.05739018 -0.0495248 0.096924014
-0.03409714 -0.044489868 -0.09986153 -0.06443912 -0.102317326 -0.024187746 -0.030907815 -0.04449645
-0.01621255 -0.095027484 -0.028635446 -0.039204497 -0.012916509 -0.117789246 0.017139353 0.050186757
-0.09102765 -0.122366436 2.0181815e-05 -0.027581897 0.025760664 0.03596173 -0.053439166 0.025782442
-0.039305657 -0.016545866 0.055630334 0.04249431 0.03061266 -0.11125695 0.004088095 0.0013261894
0.07561142 -0.04990192 0.0009295391 -0.037769187 -0.023261998 -0.017897258 -0.07561025 -0.081350036
0.082101725 -0.054943502 -0.06169483 0.027231677 0.102203 -0.07234027 -0.045960203 -0.13885729
-0.1423187 -0.05187659 0.0088491365 0.05285398 -0.016734004 -0.0738053 -0.007442242 0.04015297
0.017264212 0.022378655 0.036264535 0.089001834 -0.025286648 0.03282713 -0.034090087 -0.025889244
-0.094407104 0.0039056824 -0.105431035 -0.13169985 -0.08885361 -0.03408657 -0.004389069 -0.049866837

bias f4 [128]
00000000: b92e ca3d 1799 16bc 826f 3cbd 64be 72bd
00000010: ff5e 053e ef9a 343d 1681 0abd 5721 b03d
00000020: ec42 623c b47e 003e 32dd 87bd a601 8e3d
00000030: eaf0 e13d 3165 3d3d d169 523d b235 35bc
00000040: e8f3 78bd c9c7 d63d dc0f 253c 5696 9dbc
00000050: d7f3 fb3d de18 c83b 14c2 283d a917 8abd
00000060: 8e9c aabb adc1 c73c e03e 7dbc 5f2a b9bc
00000070: eee3 b3bc f4c5 b8bc 9e87 f53d 09da 2c3c
00000080: 784e e63d d8f9 3a3d 185e 973d def0 683d
00000090: b131 963d c9bc d03d 70b7 f43d 100c af3c
000000a0: 40ac df3d 50ab 42bc 123e acbc 027e b43d
000000b0: f5fa ec3c 8d05 a13d 20d0 b53d 2891 edbc
000000c0: d7a0 283d 93db 353d 9ba9 1cbd 18eb 6e3d
000000d0: 9b22 933d d4d1 cabd bdbe bf3d 3ea5 d63c
000000e0: 4105 b63d 42e5 a13d b629 7c3c b211 26bc
000000f0: d215 7f3d 842d bc3d 90b4 b43a d036 953d
00000100: 34d2 1d3d 739b 543d 9b91 f23d 228a 0c3d
00000110: 054d ae3d 2dee 9a3d b899 06bc fc3f 003e
00000120: 955b 033e 5a28 65bd a418 733d d53e bd3d
00000130: 7246 d5bc c5b2 f43d 06ac 43bd 7bfb 043d
00000140: 2fc8 953d 0864 923d 1e99 823d 4405 193d
00000150: cce5 b13d 5922 8e3c 62ed f43d 3110 73bd
00000160: 3442 1d3d 426d 8ebd 8167 d93c a8f7 aa3c
00000170: 3fcb 043e 6587 1d3c a3fa 933d 12d2 223d
00000180: 4ae7 fbbd ba08 91bc 18eb 96bd 4b47 1a3d
00000190: aeac 863d 2ce0 37bc e9dd 063e 6063 19bc
000001a0: cac4 9b3a ddf1 8b3d c218 433d e36d dd3c
000001b0: fdc1 d93d 21fe 3f3d 6ce6 903c 5845 df3d
000001c0: 1d9a 8a3d b2ca da3c de8e a73c 6b33 433d
000001d0: 8d1c fa3d ced1 803d 67d6 8d3c 9134 c93d
000001e0: 689c d13d a404 dc3c 1c3d a4bc 8dc1 dd3d
000001f0: b8f8 333c 9206 4d3d 9d94 c2bc d875 e43d
0.09872193 -0.009191773 -0.04600478 -0.059263602 0.1302452 0.04409307 -0.033814512 0.08600109
0.013809901 0.12548333 -0.066339865 0.06933908 0.11032279 0.04623908 0.051370446 -0.011060165
-0.060779482 0.10487325 0.010074582 -0.019236725 0.12302368 0.00610648 0.041200712 -0.06742794
-0.005206651 0.024384344 -0.015456885 -0.022603212 -0.021959271 -0.022555329 0.119887576 0.0105500305
0.112454355 0.045648426 0.07390994 0.056870334 0.07333697 0.10192258 0.119490504 0.021368057
0.10921526 -0.011881664 -0.021025691 0.088130966 0.02892826 0.07862387 0.08877587 -0.02899988
0.041169014 0.044398855 -0.038247686 0.05832967 0.07184335 -0.09903303 0.09362552 0.02620184
0.08887721 0.079050556 0.015390804 -0.010136055 0.06227667 0.09188369 0.0013786722 0.07285845
0.038530543 0.05190606 0.11844178 0.03431142 0.08510784 0.0756496 -0.00821536 0.12524408
0.12827905 -0.055946685 0.05934967 0.092405 -0.026034568 0.1194816 -0.047771476 0.032466393
0.073135726 0.07147986 0.06376861 0.037358537 0.086864084 0.017350363 0.1195934 -0.059341613
0.038393214 -0.06954433 0.026538612 0.020870045 0.12968157 0.0096148 0.072255395 0.03975112
-0.12299974 -0.017704356 -0.07369059 0.037665647 0.06575905 -0.01122288 0.1317059 -0.009362072
0.0011884209 0.06833241 0.047631033 0.027029937 0.106327035 0.046873216 0.017687999 0.10901898
0.06767676 0.02670798 0.020453867 0.047656458 0.12212477 0.06290017 0.017314149 0.09824479
0.1023491 0.026857682 -0.02004867 0.108279325 0.010984592 0.050055094 -0.023752505 0.111552894

weight f4 [1, 128]
00000000: f2b2 32bd 704a 183e 98ab cd3d a466 9e3d
00000010: 75f0 d4bd f788 083e 7447 8a3d da37 cebd
00000020: b141 963d 58e4 9a3d e187 9b3d bc24 ed3d
00000030: 4659 ed3d 3ada c1bc 7913 123e 623a e23d
00000040: 26f1 3bbd fea6 68bd 2edb 92bd 2822 0f3e
00000050: 0572 08bd 0d1e 75bd 0710 ca3d d5ef 9a3d
00000060: 12b9 d73b bed4 0f3e 9c88 9f3d 9e1d bcbd
00000070: d3ef f83d 8f28 f33d c209 7bbd a45d f63d
00000080: 79e8 cbbd 7830 dd3d 0d2d aebd 2769 87bd
00000090: 87b6 d8bc 8ce1 e2bd 1dcd ce3d 676d 8e3d
000000a0: ac8f bfbd 4246 c4bd 7100 3bbd b548 83bd
000000b0: 13c2 b13d 02af 883d 5c18 8d3d 280c 2a3d
000000c0: 28c5 1fbd d3f6 ac3d a827 093e 237d c6bc
000000d0: fae9 953c c7ae 81bc 42de d3bc a302 babd
000000e0: 61b4 32bd 1eac 8cbd eda4 3ebd dd15 c5bd
000000f0: a812 233e d133 c53d cdbd c2bd 0c10 b83d
00000100: 0c94 133e 90a0 db3d 6060 e13d 97a2 783d
00000110: 93b0 f93d 62eb 09bd 3679 4bbb 9f6a e5bc
00000120: a916 78bd bb56 bb3b cb60 ca3d 4de0 0dbd
00000130: 5ae4 ab3a bf3a 64bd a9b8 2f3e 3af4 9dbc
00000140: a6bb 9abd 1147 6dbd e8e9 fd3d 5678 ba3d
00000150: c038 963d 313f 31bd 50b1 c1bc f7b3 7d3d
00000160: eb27 62bd a41c c5bd 90e9 e7bc 3d7b 973d
00000170: 0df5 7dbd a59c 5abd 8f57 d43d ad39 1ebd
00000180: e68e 2c3d 85b6 ffbc 4b97 4fbd 1763 fe3d
00000190: 8d42 c5bd 401e 97bb 8f3c 28bd 75ff 4dba
000001a0: f624 f63c 723f 89bd b532 e03d 3ea4 9cbd
000001b0: 8d70 283d a57b 973d 6238 59bd 43be a8bd
000001c0: 5e1e df3d 37f6 86bd 0a90 c6bd ecc7 c83d
000001d0: 34aa c1bc 6ec2 553d 90ed b8bd 7c35 20bd
000001e0: f626 46bd 2b7c ef3d 88a6 3c3d 2f6b ccbd
000001f0: aabd e83d 760c ee3d 56e9 b63d b167 b7bd
-0.043627687 0.14872146 0.100424945 0.07734421 -0.10397426 0.13333498 0.0675191 -0.100692466
0.073367484 0.07563084 0.07594276 0.11579272 0.11589293 -0.023663629 0.1426524 0.11046292
-0.045884274 -0.05679988 -0.071707115 0.13977873 -0.033311862 -0.05984311 0.09866338 0.075652756
0.0065833414 0.14045998 0.07789728 -0.091853365 0.12155118 0.1187297 -0.061288603 0.12029579
-0.0995645 0.1080026 -0.085046865 -0.06611853 -0.026454223 -0.11078176 0.10097716 0.069544606
-0.09353575 -0.09583713 -0.045654718 -0.06410352 0.08679595 0.06674005 0.06889412 0.0415155
-0.039006382 0.084455155 0.13394034 -0.024229592 0.018300045 -0.01583041 -0.025862817 -0.09082534
-0.043629054 -0.06868766 -0.046544004 -0.09623311 0.15925086 0.09629024 -0.09508858 0.08987436
0.14411944 0.10723984 0.1100471 0.060701933 0.12191882 -0.033671744 -0.003104759 -0.028004942
-0.060568485 0.005717126 0.09881743 -0.034637738 0.0013114319 -0.055720087 0.17160286 -0.019281495
-0.07555322 -0.057929102 0.1239813 0.091049835 0.07335043 -0.043273155 -0.02364412 0.061939206
-0.05521385 -0.096246034 -0.028309613 0.07396553 -0.062001277 -0.053372044 0.10368263 -0.038629223
0.042128466 -0.031214962 -0.050681394 0.12421244 -0.09631834 -0.0046117604 -0.04107338 -0.00078581955
0.030046921 -0.06701554 0.109471716 -0.07648514 0.04112296 0.0739663 -0.053032286 -0.082394145
0.10894464 -0.065899305 -0.09695442 0.09803757 -0.02364073 0.052187376 -0.090296865 -0.039113507
-0.048377 0.11693605 0.046057254 -0.09981381 0.113643005 0.116234705 0.08931224 -0.089553244
