bike_sharing/AutogluonModels/ag-20220404_171935/models/NeuralNetTorch_BAG_L2/S1F2/net.params (torch, 227771 bytes, 13 tensors)

weight f4 [5, 3]
000000 e2 90 bf 3f 9c e6 8f be 3b e2 09 c0 08 a0 1f 3f
       1.496609 -0.28105628 -2.154433 0.62353563
000010 e7 ba 93 bf 2b c5 be bf b3 53 96 3e 40 33 58 3f
       -1.1541413 -1.4903921 0.29360732 0.844532
000020 6a 0a 61 bf 43 fd c6 be c7 2d 17 bf dd d7 0d 3e
       -0.87906516 -0.38865098 -0.59054226 0.13851877
000030 1c 79 76 be 58 dc e0 3e 24 fc d3 be
       -0.24069637 0.4391811 -0.41403306

weight f4 [13, 6]
000000 7b 61 1e bf 59 34 d0 3d 81 1b 08 bf 9f 1d 7d 3e
       -0.61867493 0.101662345 -0.5316697 0.24718331
000010 b4 ac 02 3f 42 b1 29 3e 2d 01 44 3f fc 74 0c 3f
       0.51044774 0.16571525 0.76564294 0.54866004
000020 7e 25 3f be 1d d0 61 3f a2 aa 37 be e9 f5 5d 3d
       -0.18666646 0.8820818 -0.17936185 0.054189596
000030 d9 7b fe 3e 6d f5 0d 40 eb e5 b6 bf 98 49 bf bf
       0.49703863 2.2181046 -1.4288915 -1.4944334
000040 1c 88 33 bf 94 18 53 3f aa 7f 8a 3f ea a1 5f 3e
       -0.7012956 0.8245938 1.082021 0.21839109
000050 c7 5c 8e be 22 b2 ad be aa d8 19 3f b4 c2 d1 be
       -0.27805158 -0.33924967 0.6009623 -0.4096886
000060 67 00 09 bf fb fd 34 3f 97 5b b7 3f 69 a7 54 40
       -0.5351624 0.70700043 1.4324826 3.322718
000070 be fe c1 bf 5e 01 95 bf 18 6d dd 3f f3 6e 0e bf
       -1.5155866 -1.1641042 1.7298918 -0.55638045
000080 cf 27 fa be e0 1c 4b 3f 11 81 82 3f 96 c1 a0 3f
       -0.48858497 0.79340935 1.0195638 1.2559078
000090 4d 37 b7 bf 33 90 21 40 20 03 fd be c6 eb ad 3e
       -1.4313751 2.5244262 -0.49416447 0.33968943
0000a0 3d cc ca bf 48 a5 05 bf 5a 19 ff be c0 bb da be
       -1.5843579 -0.52205324 -0.4982403 -0.42721367
0000b0 21 fa 8a bf 58 28 8a 3f 6a 8b ab bd a4 f7 3f 3f
       -1.0857583 1.0793562 -0.083762005 0.74987245
0000c0 b0 75 cf bd 17 39 31 3f 62 97 4f bf 4c de 0b bd
       -0.10129869 0.6922774 -0.81090367 -0.034147546
0000d0 00 74 4e 3f 6e 4d b3 be b2 34 88 3f ef 7b bb 3e
       0.8064575 -0.35020012 1.0641081 0.3661799
0000e0 0b 7f 81 be 99 77 13 40 ea 4c ed bf 64 34 4d bd
       -0.2529224 2.3041747 -1.8539097 -0.05009879
0000f0 4e 04 7f bf 75 54 70 bf 1d 6f 3a bf 7c 23 a1 bf
       -0.99615943 -0.9387887 -0.72825795 -1.2588954
000100 81 45 52 be 0a c9 17 c0 f8 ca c6 bc d5 aa f8 3c
       -0.20534326 -2.3716455 -0.024266705 0.030354897
000110 6f f4 79 3f c9 0f c6 3e 47 27 ae be 89 74 9b bf
       0.976386 0.38683918 -0.3401434 -1.2144939
000120 a8 b5 b1 bd 70 e3 b6 bc 12 59 99 3f 1b 50 1b bc
       -0.08677226 -0.022325248 1.1980307 -0.009479548
000130 aa 88 f4 2f 51 61 fd 3e
       4.4480447e-10 0.4948831

weight f4 [25, 9]
000000 02 97 19 3f dd 5d 33 bf 65 d1 62 bf f7 67 d6 be
       0.59996045 -0.700651 -0.8860076 -0.41876194
000010 56 de 55 bf 82 f7 13 3f a4 19 10 3f 98 31 00 3f
       -0.8354238 0.5779954 0.56289124 0.50075674
000020 b9 4f 44 bf 05 3c 80 3e 94 6d fa bd 4a f2 75 3d
       -0.7668415 0.2504579 -0.122279316 0.060045518
000030 4d 03 20 bf fa 2a 9d bf 0a 01 ad bc 48 c1 7e bf
       -0.62505037 -1.227874 -0.02111866 -0.99513674
000040 41 99 27 40 c6 90 80 3f a0 68 54 be 38 e2 17 3e
       2.6187289 1.0044181 -0.20743036 0.1483239
000050 59 c5 90 3e 5b 16 9f 3f 21 ab 97 3e 7d b6 a9 3e
       0.28275564 1.2428697 0.29622748 0.3314704
000060 a3 e0 00 3f bb 23 08 3f 7c 7f 1c 3e c0 34 3c bf
       0.5034277 0.5317952 0.15283006 -0.7351799
000070 4b 8a ea bf 7d c6 1a 3e 2c 53 31 bf 3c 82 a6 3e
       -1.8323454 0.1511478 -0.69267535 0.32521236
000080 8a 9d 22 be bb 6b 98 be 27 4a 71 3f 3d 40 7d bf
       -0.15880409 -0.29769692 0.9425377 -0.98926145
000090 7c d2 91 3e a6 53 64 bd 72 81 80 3f ee 38 04 bf
       0.284809 -0.055743836 1.0039504 -0.5164937
0000a0 ed 31 76 3f 16 22 53 bf 05 79 ad 3e b1 63 2d 3e
       0.9616993 -0.82473886 0.33881393 0.1693256
0000b0 39 58 33 be 05 4c b0 3e a0 5c a7 be a1 71 84 bf
       -0.17514123 0.34432998 -0.32687855 -1.0347177
0000c0 93 60 22 3e 69 bf 8f bf fb 01 37 bd 6f 6d bf be
       0.15857153 -1.1230289 -0.044679623 -0.3738818
0000d0 31 19 c3 bf 15 8c a3 be 04 1d 89 3f fe 2c f2 3d
       -1.5242063 -0.31942812 1.071198 0.11824988
0000e0 d4 dd 75 be 0d 4f b6 bf fe 9b 89 bf b8 ec 36 bf
       -0.24010402 -1.4242874 -1.075073 -0.71454954
0000f0 7c 8a b8 3f 1f c7 7f 3e 88 8d 26 3f 1f 2d 83 bf
       1.4417262 0.24978302 0.6505971 -1.0248145
000100 52 9b 33 3f 41 9f fd bf c1 e8 08 bf 67 12 11 3f
       0.70158875 -1.9814225 -0.53480154 0.56668705
000110 0d 0a bb 3e 7a 8a c8 3e 62 6a 47 3e 55 b5 5d 3f
       0.36531106 0.3916815 0.19474176 0.86604816
000120 c4 ae 01 40 22 d6 2b 3e 75 1f 8b bd 1e 21 88 bf
       2.0262918 0.16780904 -0.06793109 -1.0635107
000130 ea 51 d3 3e fd 4a 15 3f d7 21 26 3f 32 c9 9a bf
       0.41273433 0.5831755 0.64895386 -1.209265
000140 5a 8c 5e bf 67 90 02 c0 4d ba 91 3f ed 1e e8 3c
       -0.8693291 -2.0400636 1.138498 0.028335059
000150 01 88 67 3f 03 ed 54 3f 9e 6f 9e bf 5c 6b 7a 3f
       0.904419 0.8317415 -1.2377813 0.9782007
000160 e6 6f 9b 3d fd 2e 5a bf 18 4c 67 3f 60 d7 a5 3f
       0.07589702 -0.8522795 0.90350485 1.2956352
000170 3f d1 27 bf 98 72 07 3f d3 b3 95 3e 88 bb fb bc
       -0.6555366 0.5290923 0.29238757 -0.03072907
000180 fd 85 bb bf 03 84 83 3f 3a d0 b0 be 5a 49 c4 3f
       -1.4650265 1.0274662 -0.34533864 1.5334885
000190 8e 1e 52 3e fc 5d ab 3e c7 39 1d be b5 ea 1a 3f
       0.20519468 0.33470142 -0.15354072 0.60514385
0001a0 ea 61 99 bb 45 4d 14 bf 40 68 e1 bd be 0e 0e bf
       -0.0046808617 -0.57930404 -0.11006212 -0.55491245
0001b0 e6 68 d0 be f3 b3 5f 3f 10 b0 64 bf a9 53 64 3f
       -0.4070503 0.87383956 -0.8933115 0.89190155
0001c0 1a 76 ca 3e 0b 6d 95 3f 43 c6 c0 bf 1d 14 d6 bf
       0.3954323 1.1673902 -1.5060505 -1.6724888
0001d0 e1 17 02 bd cd 72 88 bf cf fd b5 3f c2 6e 01 be
       -0.031761054 -1.0660034 1.4218081 -0.12639907
0001e0 38 02 22 bf 1a c8 49 3f e8 46 b3 bd 1f 31 7f 3f
       -0.63284636 0.78820956 -0.08753759 0.9968433
0001f0 fa e0 66 3f 4d b3 d7 be d8 10 5e bf 9e c9 26 3e
       0.90187037 -0.42128983 -0.8674445 0.16287848
000200 27 fc 32 3d 63 cf 26 3f 8a 7f e5 3c 67 17 4b bf
       0.043697502 0.65160197 0.028014917 -0.79332584
000210 6b 83 03 bf a5 d2 d0 be 43 8c 10 3f 29 9b 97 bf
       -0.513724 -0.4078571 0.5646402 -1.1844226
000220 ac e8 23 bf ac 55 0d bf 27 3e a1 bd 61 3c b3 3f
       -0.64026904 -0.5520885 -0.07873183 1.4002801
000230 89 72 10 3f c6 a3 f5 be 8d ff d2 be e4 53 ab bf
       0.56424767 -0.47976512 -0.41210595 -1.3384976
000240 ca e7 33 bf 41 5d 03 bf 47 55 88 be 1b e5 33 3f
       -0.7027556 -0.5131417 -0.2662756 0.7027146
000250 d1 18 1a 3f 21 e5 81 3e 2a ce 02 c0 48 3d 03 3f
       0.60194117 0.25370124 -2.0438333 0.5126538
000260 23 b9 7e 3e 7a 13 f7 be 5d 29 b3 3d e7 da 99 3f
       0.24875312 -0.48257047 0.08748124 1.2019929
000270 4e 1f 05 3f f0 e0 9b be 52 dc a5 bf 03 61 b6 be
       0.5200089 -0.3044505 -1.2957861 -0.3562089
000280 51 f4 1e bf bb 6c c2 3e 3b ab 25 3f 62 1d 70 3f
       -0.6209155 0.3797358 0.647144 0.93794835
000290 ad 06 4d be ba 97 1c bf 05 f3 46 be 04 43 8e bf
       -0.20022078 -0.61169016 -0.19428642 -1.1114202
0002a0 cc ba 13 3f 0b 2c bc 3f 1c bf 6c bf 40 76 46 3f
       0.57706904 1.4700941 -0.9247911 0.77524185
0002b0 70 85 29 bf 9f a8 98 3f e7 1c b5 3f 4e a5 17 bf
       -0.66219234 1.1926459 1.4149445 -0.5923661
0002c0 42 e8 30 3f a6 a1 9e bf 89 f8 14 bf 29 8c 45 be
       0.691044 -1.2393081 -0.58191735 -0.19291748
0002d0 85 95 02 bf de 46 3a 3f e8 e7 5d 3d 47 ce 7b bf
       -0.510094 0.72764385 0.05417624 -0.9836163
0002e0 dd eb be 3e 5f c5 1d 3f c6 8a 9b bf 75 8b d8 3e
       0.37289324 0.6162929 -1.2151725 0.42293897
0002f0 9c cc 97 bf b3 d3 aa bf 9e af c3 3f 42 29 b9 bc
       -1.1859317 -1.3345855 1.5287969 -0.022602681
000300 6e a1 f2 3e 33 c7 8d bf 4c d3 3d be db 3c 22 bd
       0.47388786 -1.1076416 -0.18537635 -0.039608818
000310 17 cf ad 3e af a7 8e 3f 39 02 f6 3f db 3e 86 3f
       0.3394706 1.1144923 1.9219428 1.0487932
000320 3b 6c be bf cc bc 0b bf 35 14 95 bf 9f ef a6 3f
       -1.4876779 -0.54584956 -1.1646792 1.3041877
000330 b2 0a 75 3e b0 4a f3 3e 3f 86 bd bc 21 90 0a c0
       0.23929861 0.4751792 -0.023135303 -2.165047
000340 88 a6 d6 3e 10 fa c1 bf 55 7a fe 3e 13 78 b9 3f
       0.41923928 -1.5154438 0.49702707 1.4489769
000350 b4 5a 8a 3f 30 20 9c 3f 0a c1 ce 3d a0 9e c6 3f
       1.080893 1.2197323 0.10095413 1.5517159
000360 91 d3 b6 3c 79 f8 2d bf 6b ad 81 3e 0d 48 30 21
       0.02231768 -0.67957264 0.2532762 5.972648e-19
000370 df 6d 38 3e c6 e4 a8 be 5b 5d 87 be 5f 29 cb ba
       0.18010662 -0.3298704 -0.26438412 -0.00155
000380 b8 85 1b bb
       -0.0023730826

weight f4 [5, 3]
000000 8b af 68 3e b9 65 42 bf c9 59 6d 3e cb 05 8c 3d
       0.22723214 -0.75936466 0.23178782 0.068370424
000010 8f 4d 70 be 6e 93 25 be dd a6 46 bf 02 aa 12 40
       -0.23467086 -0.16169521 -0.77598363 2.2916265
000020 9d 45 b2 3f a2 4b 55 c0 cd b6 aa bf 12 f5 0d c0
       1.3927494 -3.3327413 -1.3337036 -2.218083
000030 17 1e 23 36 1e 74 67 3f e5 e9 ba 3c
       2.4306407e-06 0.90411556 0.022816608

weight f4 [128, 38]
000000 25 eb 8f 3d 2f a5 b8 3d 47 89 02 3d 1b 5a 32 bd
       0.07027272 0.09015881 0.0318692 -0.043542963
000010 25 c9 dc 3d 0b ac a9 3d 03 14 25 bc cd d4 de bd
       0.10780553 0.08284768 -0.010075572 -0.10880432
000020 dc cb 18 3e 74 7f 0f 3d b8 a8 25 be ba 81 1b 3e
       0.14921516 0.03503366 -0.16177642 0.15186206
000030 37 21 a5 3d 33 5e af bd ad 71 ab 3d 83 de d9 bd
       0.08062976 -0.08562889 0.08371291 -0.10638144
000040 2b 2d 07 bd 93 16 00 3e 76 e6 19 3d 65 73 bc bd
       -0.03300206 0.12508611 0.0375733 -0.09201697
000050 4a e8 7c bd a1 11 5b bd 4a da 57 3c 89 61 8f 3c
       -0.061744966 -0.05348361 0.013174603 0.017502563
000060 fb ea 0b 3e 15 9b 34 3c 0e 41 e8 bd 38 97 8d bc
       0.13663857 0.011023303 -0.11340533 -0.01728402
000070 81 78 d1 3d ac 18 fe 3d dc b7 18 be 86 e8 b8 bc
       0.102280624 0.124070495 -0.14913887 -0.022571813
000080 7d 53 28 be 46 83 8e bd 45 49 85 3d 27 fc c7 bd
       -0.16438098 -0.06958632 0.06508116 -0.09764891
000090 f7 fc 88 3c e9 5b cd 3d 0a e5 b1 3c 13 c8 8c bd
       0.016722186 0.10027296 0.02171566 -0.06874099
0000a0 e7 e8 73 bd e0 3f 0b 3d 87 cc 6f be bd 89 d5 bc
       -0.059548285 0.033996463 -0.23417865 -0.026066655
0000b0 a2 2d 79 be dd 3f fb bd 0e 33 f3 bd 61 ae 94 bc
       -0.24333814 -0.1226804 -0.11874972 -0.018149557
0000c0 30 25 1b 3e 6c 77 09 be 91 e3 29 3e 30 f7 ad bc
       0.15150905 -0.13424462 0.16590716 -0.021236032
0000d0 07 cf 13 3e 96 f6 2e 3c 5c 04 0a be 2d dd 0c 3e
       0.14434443 0.010678908 -0.13478225 0.13756247
0000e0 84 bb fe 3d 10 7a 18 3e 7c cb 00 3e 6d f6 76 bd
       0.124381095 0.14890313 0.12577623 -0.060293604
0000f0 8e f2 fb 3d de 87 1e 3b d1 5a 67 3d 8e 48 f6 bd
       0.12302123 0.002418987 0.056483094 -0.120255575
000100 b2 95 19 bd 20 17 f0 bd fc 47 d6 bc 4a 69 91 3d
       -0.037496276 -0.11723161 -0.026157372 0.071001604
000110 bb 23 b2 bd a0 d0 bb 3c 68 7f 86 3d d2 2c 63 3d
       -0.08698221 0.022926629 0.065672696 0.055462666
000120 25 d8 0e be 75 87 0e be 1a 77 3a bd f5 7d 93 3d
       -0.1394964 -0.1391886 -0.04552374 0.07201759
000130 6d ca 35 3e 5b 17 c6 3d 67 b2 03 bd ee 18 30 3d
       0.17753 0.096724235 -0.03215256 0.042992525
000140 fa 5e 5b be c2 7d 50 be 41 52 d6 3c 02 1a 95 bd
       -0.2142295 -0.20360473 0.026162269 -0.07280351
000150 31 88 99 3d 13 20 90 bd 96 ef ad bd fc 2d 83 bd
       0.074966796 -0.07037368 -0.08492963 -0.06405255
000160 0e 5a b2 3d 15 e6 c8 bc 2a 05 e5 3d 44 e0 ac 3d
       0.08708583 -0.024523774 0.111826256 0.08441213
000170 e4 fa aa 3d 78 fe aa 3c bd 41 47 bd 34 a3 62 bd
       0.08348635 0.020873293 -0.048646677 -0.055331424
000180 15 bd 37 3d 02 76 64 3d 8f 77 10 be 8d 76 b4 3d
       0.044858057 0.055776604 -0.14108108 0.08811674
000190 fe 78 d6 3c 7e 1e e0 bd fa f4 5c bd 60 66 f2 3d
       0.02618074 -0.10943316 -0.053944565 0.11835933
0001a0 95 16 12 3e 60 f9 35 be e4 9e cf 3d eb c9 9a 3d
       0.14266427 -0.1777091 0.10137728 0.07558044
0001b0 16 6b e2 3d 66 a9 07 3e 95 fe ce bd f3 8a 9e 3d
       0.11055581 0.13248214 -0.101071514 0.07741346
0001c0 40 53 89 3d 84 9b d8 bc 1a 63 9c bb 3f ae 9a bd
       0.06705332 -0.026441343 -0.004772556 -0.07552766
0001d0 e0 b3 e3 3d 77 c2 0b bd ab ba ac bd d0 04 8f 3c
       0.11118293 -0.034121003 -0.084340416 0.01745835
0001e0 1a 35 08 3d 4f ea d8 bd 76 b6 0b 3d 25 8d 5a 3d
       0.033253767 -0.10591566 0.034109555 0.053357262
0001f0 30 b6 5d bd c2 49 03 3d a9 4e 8b bd 57 9b 81 3c
       -0.054128826 0.032052763 -0.068021126 0.015821142
000200 70 81 b9 bd 62 8e ec bd ec 69 dd bd 5e 32 07 3e
       -0.09057891 -0.11550595 -0.108112186 0.13202807
000210 75 c6 1b 3c 25 4f e1 3c 00 41 e5 bd d5 40 05 3e
       0.009507765 0.02750356 -0.111940384 0.13013013
000220 d2 64 3c 3e d7 41 d1 bd c3 27 ec bd a7 dd f2 bd
       0.18397835 -0.10217636 -0.115310214 -0.11858683
000230 03 84 44 bc 97 80 75 bd bb c1 cc bd 15 f1 02 bd
       -0.011994365 -0.059937086 -0.09997889 -0.031968195
000240 c2 bb e3 bc fb 8e 81 bd 01 0d a0 bc 53 76 91 bc
       -0.02779949 -0.063260995 -0.01953745 -0.017756617
000250 07 97 37 bd 9c 24 f9 3c c1 3a cc 3d d8 61 14 be
       -0.044821765 0.030412965 0.09972144 -0.1449045
000260 33 b8 28 3d e5 48 60 bd 2f 03 1a 3e ad 99 26 be
       0.04119129 -0.054757018 0.15040277 -0.1626956
000270 73 51 78 be 3a 4a 8a 3d aa 10 34 be 72 8f 42 3c
       -0.2424982 0.06752439 -0.17584482 0.01187502
000280 41 ef 54 3c d6 41 60 bc fe 8b dd 3b 91 a9 c2 3d
       0.012996496 -0.0136875715 0.006761073 0.095049985
000290 94 47 84 3d 91 e1 e8 bd 6f e5 eb bd 9d 45 45 bd
       0.06458965 -0.113711484 -0.1151837 -0.04816209
0002a0 30 fa d2 3d 13 7d d6 bd b8 73 15 3e 7b 6d 4b bd
       0.10301626 -0.10473075 0.14594924 -0.049664956
0002b0 b8 3d d2 3a cc 4f 00 3e 9d 13 43 3d f7 21 eb 3d
       0.0016040122 0.1253044 0.047626127 0.11481088
0002c0 03 a7 c1 3d 77 76 43 bd 30 8a 89 bd 85 bb bd bb
       0.09455683 -0.0477204 -0.0671581 -0.0057901763
0002d0 49 f0 3e 3e 2a e9 81 bd 0f e2 11 be 8f 1c 71 3d
       0.18646349 -0.06343301 -0.14246391 0.058865126
0002e0 67 c9 29 3e 18 d4 ba bc e7 e5 d5 bd 8e fc 13 be
       0.16580735 -0.022806212 -0.10444241 -0.1445181
0002f0 40 a1 67 3d c1 ee 0e bb d8 5c 88 bd 59 34 1a 3d
       0.056550264 -0.002180979 -0.066583335 0.03764758
000300 1c 5e 02 3d bd 3e cb 3d c4 42 7e 3d dc 55 c0 bd
       0.03182803 0.09924076 0.06207539 -0.093913764
000310 d1 90 52 be e6 b1 b6 bd f3 b3 13 3e 10 17 d8 3d
       -0.20563056 -0.0892065 0.14424114 0.10551274
000320 a6 ca 93 3d 2c b8 12 be 4b 72 22 3e c3 a5 4f 3e
       0.072163865 -0.14328068 0.15863912 0.20278077
000330 61 a7 f4 3d 60 11 38 be b4 ce 9e bd 23 98 e1 bd
       0.119459875 -0.17975378 -0.07754269 -0.11015346
000340 2d 1d 6c 3e 4a 74 99 bd da 95 c7 bd 62 70 28 3d
       0.23058005 -0.074928835 -0.09745379 0.0411228
000350 3c 27 1f bd 30 85 8d bd 84 e4 c9 3c 0b 8e 02 bd
       -0.038855776 -0.06910169 0.024645098 -0.031873744
000360 49 2d a6 bd 59 8d 08 3e cc e5 b4 bd 7e 73 3b 3d
       -0.08114106 0.1333517 -0.08832893 0.04576444
000370 4c 45 04 3e 4b 44 c0 3d 5d 59 fa 3b 73 90 10 3e
       0.1291706 0.09388026 0.0076400475 0.14117603
000380 4f e7 26 bc 4c 9d 99 bd be 71 ff 3d 90 ac 94 3c
       -0.010186984 -0.07500705 0.124728665 0.01814869
000390 d3 78 0b be ab 82 73 bd 21 4e 05 be cf f9 fa 3d
       -0.1362031 -0.059450787 -0.13018085 0.122546785
0003a0 ab 3b f4 bd 97 ca 7a be 8b c9 b5 bd 67 c2 8e 3d
       -0.11925443 -0.24491344 -0.08876332 0.06970673
0003b0 cf 1c 94 3d ca e4 ec 3d 47 c9 c8 ba 08 e5 30 3d
       0.07232057 0.115670756 -0.0015318774 0.04318717
0003c0 d6 84 1e 3d 91 10 3e 3c d7 fb 0b be fe dd 05 be
       0.0387009 0.011600629 -0.13670288 -0.13072965
0003d0 ea a8 c2 3d 8f f7 b1 bd 78 d9 f2 3c b6 1e e5 3c
       0.09504874 -0.08689796 0.029644713 0.027968746
0003e0 f7 bb 80 3d ed 00 72 bd ff ba 26 3e 15 4b ae bd
       0.062858514 -0.059082914 0.16282271 -0.085104145
0003f0 b0 84 0e 3e 0d b3 e2 bd 68 d0 63 bd 39 c9 ee 3d
       0.13917804 -0.110693075 -0.055618674 0.11659474

bias f4 [128]
000000 04 cc cc b9 11 37 cc 3d 96 d1 ac bd 2c e4 ad 3d
       -0.00039061916 0.099714406 -0.08438413 0.08490786
000010 98 10 1f 3e 67 72 b0 bc bb 0e a1 3d 5c 0a b9 bb
       0.15533674 -0.021538926 0.07864138 -0.005646987
000020 9d 56 dd bb 13 56 32 be 67 1d 29 3e de 3f 04 3d
       -0.00675471 -0.17415647 0.16515122 0.03228747
000030 de 45 01 be de 8c ff bd c5 ea 40 3e 09 ce 40 bc
       -0.12624308 -0.1247804 0.18839557 -0.011767873
000040 c0 3c 2d bc a3 ca 83 3d 76 9b a6 3c f8 8c 9c 3d
       -0.010573566 0.06435134 0.020337801 0.07644075
000050 9e 2c 1e 3e 0f 1c 23 bd 0f c6 11 3e ee 30 a4 bd
       0.15446708 -0.03982168 0.1423571 -0.08017145
000060 d7 18 19 bd e3 41 80 bb 0a 60 67 bc 08 6a 9d 3d
       -0.037377205 -0.0039141043 -0.014122019 0.076862395
000070 f6 4c a1 3c b4 44 56 3d cc 19 2e bd 61 0f 0f 3e
       0.019690018 0.052311614 -0.04250507 0.1397071
000080 bc 31 75 bd 4d 74 cc bb 35 88 d9 3d 45 96 28 3e
       -0.059861884 -0.00623945 0.106216826 0.16463573
000090 da 91 f8 3d 31 ab 08 be c0 18 41 bd a5 6f 3d 3d
       0.12137194 -0.13346554 -0.047142744 0.04624905
0000a0 18 ed c4 bc 6b d6 12 3e 2b 43 a7 3d 65 93 a7 bd
       -0.024038836 0.14339606 0.08167108 -0.0818241
0000b0 3c 5a ec bc 17 b4 86 3c c4 52 2f 3e f9 79 8c 3d
       -0.02885162 0.016443295 0.17121416 0.06859202
0000c0 2e 92 19 bd 4a 7b 95 bd 16 57 ca 3d 68 a2 43 bc
       -0.037492923 -0.07298906 0.098798916 -0.011940576
0000d0 5c 97 86 bd 13 0b 13 be 17 6c 0b 3d 1b 9e 6a bc
       -0.06571838 -0.14359693 0.03403863 -0.014319922
0000e0 4b 38 8d bd ae 76 6e 3d f8 15 62 3e 65 e4 2c 3e
       -0.06895503 0.05821865 0.22078693 0.16884
0000f0 eb 7a 08 3e 77 9d a6 bd 57 65 ba 3d a2 3d 14 3e
       0.1332814 -0.08135503 0.0910136 0.14476636
000100 f0 04 9a 3b c0 4b 0d 3c 76 84 76 3d da 87 d3 bd
       0.0047002956 0.008624017 0.06018492 -0.10328646
000110 a1 4b 84 bb a8 6f 82 bd cd f8 21 bd 35 3f 47 be
       -0.004037336 -0.06368953 -0.039543916 -0.19457705
000120 31 bc a3 3c d8 0d e3 bd 59 b9 20 be c4 77 4a 3d
       0.019987198 -0.11086625 -0.15695705 0.049430624
000130 a5 75 1b be 0a d9 3d 3e 3d 1f 55 3e c7 ba c1 3c
       -0.15181597 0.18539825 0.20812698 0.023648633
000140 19 2b f5 bc fc 57 0b be 58 18 07 3d 49 73 3c bd
       -0.029927777 -0.13607782 0.0329822 -0.046008382
000150 a8 f0 92 bd 9f 6d a5 3d 7f 3c df bc a0 e0 87 bd
       -0.07174808 0.08077549 -0.027250526 -0.06634641
000160 fa 2e 53 3d b2 4d 27 be 44 88 b0 bd 90 16 f7 bc
       0.051558472 -0.16338232 -0.086197406 -0.030162126
000170 d5 1c 4a 3e 6d a9 90 bd 63 e0 33 3e 5b b0 0c bd
       0.19737561 -0.070635654 0.17566065 -0.034347873
000180 b9 9c e4 bc e1 91 50 bd d2 a8 94 3d 1d cc 27 3d
       -0.027906762 -0.05092037 0.072587624 0.040966142
000190 b8 7f 32 3e 7d 38 ca bb c2 4c 20 bd a5 3c b3 3d
       0.17431533 -0.0061712847 -0.039135702 0.087518014
0001a0 dc e7 b9 bc 37 dd 0c 3e 6d 0c 6e 3d e3 0f 80 bc
       -0.022693567 0.13756262 0.05811732 -0.015632575
0001b0 86 5e ea bd dc 65 08 be 66 66 c3 3d 14 d6 5d 3c
       -0.1144381 -0.13320106 0.09541015 0.01353981
0001c0 5d 58 0c 3e 7a 20 e0 bd 5c 99 82 3c 5b 83 28 3e
       0.13705583 -0.109436944 0.015942268 0.16456358
0001d0 dc 35 03 3e 7d a1 19 3e 24 48 f3 3d 07 8f b7 bb
       0.12813514 0.15003009 0.11878994 -0.005601767
0001e0 15 3c 55 bd 23 76 28 bd c3 56 b3 3d 18 08 ff bc
       -0.05205925 -0.04112829 0.08756783 -0.03113179
0001f0 1a 98 25 3d f8 27 1c 3d 61 83 b3 3d db 56 0d 3e
       0.04042826 0.038124055 0.08765293 0.13802664

weight f4 [128, 128]
000000 fd cc 80 3d 6d 88 0d bc bb bd f8 3b 2b c5 42 bd
       0.062890984 -0.0086384835 0.007590977 -0.047551315
000010 cc 96 d9 bc 41 8d ad bd 85 8b 60 bd b4 56 e6 3d
       -0.026561163 -0.08474208 -0.054820556 0.11247006
000020 b5 8f c6 bc 51 39 75 3d 1b 4f 1e bd 18 e7 f0 3c
       -0.024238447 0.059869114 -0.03864966 0.02940707
000030 44 48 6d bd e9 5c 5f bc 85 50 b2 bd c5 a6 a9 bc
       -0.057930246 -0.013632991 -0.08706764 -0.020709405
000040 43 af 54 3d 85 90 45 bd f7 79 dc 3c 44 68 a7 bc
       0.051924955 -0.048233528 0.026913626 -0.02043546
000050 a3 70 02 be 2b 7d 40 3d a7 62 00 3d cf e3 6c 3d
       -0.1273828 0.04699437 0.031344082 0.057834443
000060 13 f8 51 bc cf 7d cf 3d 01 7a 01 bc f5 38 5c 3d
       -0.012815493 0.10131418 -0.007902623 0.053765256
000070 86 34 ca bc 43 6f b6 bd f8 1e 11 bd 74 77 c0 bd
       -0.024683248 -0.0890794 -0.035429925 -0.09397784
000080 96 eb ad 3d 6c 62 80 3d d8 74 c2 bc 0f 33 c1 bc
       0.084922 0.062687725 -0.023737356 -0.023583917
000090 5f 24 29 3d 6d d2 ce bd ca 6f 99 bc 17 06 3e 3d
       0.04129445 -0.10098729 -0.018730063 0.046392526
0000a0 26 49 8a 3c 17 eb ef bd 62 c0 76 3d 2b a7 65 3d
       0.016880583 -0.11714762 0.060242064 0.056067627
0000b0 f1 ca 72 bd 9c d7 67 3d 57 7e 02 be 83 dd 7f 3d
       -0.05927557 0.056602105 -0.12743507 0.06246711
0000c0 46 e3 8b 3d 57 83 e9 3c 6d dd 06 bd c5 66 ae bd
       0.06830458 0.02850501 -0.03292601 -0.085156955
0000d0 83 72 01 bd b6 c7 26 bd 76 a7 c5 bc 5b 80 4e 3d
       -0.031603348 -0.040717803 -0.024127703 0.050415378
0000e0 f2 67 82 bd 93 4a 12 3b 5e f7 01 be 2a 23 f6 37
       -0.06367482 0.0022322282 -0.1269202 2.934186e-05
0000f0 f4 d7 53 3d ab 7d b4 bd 32 b2 52 bb 92 eb 52 3a
       0.05171962 -0.08813032 -0.003214967 0.0008045967
000100 70 63 a7 bd db 3a fe bc c8 cd 22 3b 4b 2f a8 3d
       -0.08173263 -0.031033924 0.0024841893 0.082121454
000110 cb 20 91 bd ed 1a ca 3b 0c 6c 81 bd 97 c9 5d bd
       -0.07086333 0.0061677606 -0.063194364 -0.05414733
000120 ce f9 c1 3d cb 58 9f 3d 58 12 7f bd 74 fd 24 bd
       0.094714746 0.07780608 -0.062273353 -0.040280774
000130 6c 63 a5 bc f7 6b ac bb 35 14 bf bd 02 20 f1 bd
       -0.02018901 -0.005261894 -0.09330026 -0.11773683
000140 2f 9b 28 bd 90 f9 d6 bc 9d b4 9f 3b 04 c7 ac 3d
       -0.04116362 -0.026242048 0.0048738257 0.08436397
000150 91 68 1a 3d 5c 7b da bd 53 02 bc 3d 3b b5 94 3d
       0.03769738 -0.1066806 0.09180131 0.072611295
000160 a9 a6 89 bb 0f 91 9f 3d d3 aa 05 3d 70 65 c8 3d
       -0.0042007756 0.077913396 0.032633614 0.09784973
000170 41 ba 16 be 28 3b 97 bd 97 bc 2c bd 67 f2 a4 3b
       -0.14719488 -0.0738433 -0.04217204 0.0050337794
000180 d8 4b af bd 1d ab 81 bd 3e 3b 8f bd 99 34 4d bc
       -0.08559388 -0.063314654 -0.069937214 -0.012524747
000190 5b b2 1a 3d 9b 3e 86 3d 4a 7a 0a bd 17 6f 2e bd
       0.03776775 0.0655491 -0.03380803 -0.042586412
0001a0 c5 96 2d bd ad 46 c3 3c 92 e0 8e bd 6f b4 90 3c
       -0.042380113 0.023837412 -0.06976427 0.017664162
0001b0 72 dd a9 3c d6 d8 2b 3d 21 93 1a bd ab b7 da 3d
       0.020735476 0.041954838 -0.03773797 0.10679563
0001c0 d6 bd 4e bd 54 9d ac bd 87 23 55 3d 45 34 38 3d
       -0.05047401 -0.084284455 0.052035835 0.044971723
0001d0 5a 8a 79 bd ac a1 8c bd c7 10 40 3d 2f 45 0d be
       -0.060922958 -0.06866774 0.046891 -0.13795923
0001e0 6b 33 0c 3b 81 50 9a bd 81 08 1a bd ac 81 77 bd
       0.0021392952 -0.07534886 -0.037605766 -0.0604264
0001f0 27 de 2a 3d db b5 2c bd 58 65 ec 3b 8b 1c 6d 3d
       0.041715767 -0.04216562 0.0072142296 0.05788855
000200 14 47 3a bd e8 ad e7 3c a1 ef 55 bd 06 bf 94 bd
       -0.04547794 0.028281167 -0.05223048 -0.07262997
000210 80 a2 2e bb 36 c8 bd 3c 5e b1 db 3d cf c5 d9 bd
       -0.002664715 0.023166757 0.107271895 -0.10633432
000220 a8 11 94 bc fe 7c f5 3c 94 2f 17 3d 5c 76 e0 3c
       -0.018074825 0.029966827 0.03691061 0.027400188
000230 a6 29 76 bd 80 aa 3a bb c2 b6 11 3d a6 16 a7 bd
       -0.060098313 -0.0028482974 0.035574682 -0.08158617
000240 c8 21 62 3d 64 f2 9c bd 42 a1 22 3d 97 5b e8 3c
       0.055207998 -0.0766342 0.03970457 0.028363986
000250 b7 a0 9a bc 75 b7 d0 3c d0 4d 9e 3d d3 6b a4 3d
       -0.018875463 0.025478104 0.07729685 0.08028378
000260 f1 8e 9f 3d 2f 98 32 bd 83 6c 10 3d 2d 03 9f 3d
       0.07790936 -0.043602165 0.035259735 0.077642776
000270 78 2e 18 3d d4 52 9e 3d fd e9 80 bd 27 14 41 3d
       0.03715369 0.07730642 -0.0629463 0.04713836
000280 b8 78 18 bc d5 6e eb bd 0d f4 e7 bc 8c 81 b6 3d
       -0.009306125 -0.11495749 -0.028314615 0.08911428
000290 e6 59 26 bd 25 9f 83 bc 6b c4 7a bc c4 d3 06 bd
       -0.040613078 -0.016067097 -0.015305619 -0.0329168
0002a0 80 f7 01 3d 73 4c b7 3d 12 64 ee 3c 45 7d 7b bb
       0.031730175 0.089501284 0.029100452 -0.0038374227
0002b0 9b 6c 57 ba 08 7c 85 bd 39 0b ab bc de 6b b9 bc
       -0.00082177826 -0.06517798 -0.020879375 -0.022634443
0002c0 35 77 8e bd 36 56 15 3d 31 73 2c 3d f2 3e 06 3d
       -0.06956331 0.03645917 0.042102043 0.032774873
0002d0 10 a0 35 3b 31 67 d7 3d 99 c8 a6 3d c6 d6 3a 3d
       0.0027713813 0.10517729 0.0814373 0.04561498
0002e0 5f 5f a5 3d 6b 3a e5 bc 2b 20 71 3d d6 71 43 bd
       0.08074831 -0.027981957 0.05886857 -0.047715984
0002f0 26 ca 27 3d 66 6f bb bc 05 b2 a3 3b 8d 2d a9 3d
       0.04096427 -0.022880267 0.004995587 0.08260641
000300 fd 78 41 3d ff a0 97 3d b8 74 76 3d f9 e2 4f bc
       0.047234524 0.074037544 0.060169905 -0.012688392
000310 7b 17 fc 3c 36 fb 7e 3d 2e da 20 3d 79 7a a6 3c
       0.030772915 0.062251292 0.039270572 0.020322071
000320 e9 be 54 bd 8f 42 d2 bc dd 4f 1b bd 56 5a 62 3c
       -0.05193988 -0.025666503 -0.03791796 0.013815483
000330 6d 75 8d bc ee ad e1 3c a3 50 c2 3d b3 fd ed 3d
       -0.017267907 0.027548756 0.094880365 0.11620655
000340 b1 b6 75 bd 41 e1 e8 ba 4f 6f 88 3d b1 cb 8e bd
       -0.05998868 -0.0017767326 0.066618554 -0.06972445
000350 a2 8e 9f 3d 35 13 07 bd 78 18 9c bd 8f a4 38 bd
       0.07790877 -0.0329773 -0.076218545 -0.04507881
000360 b4 bc c4 bc 16 cf 6c bd 70 2a 47 3d 85 52 46 3c
       -0.024015762 -0.05781468 0.048624456 0.012104635
000370 b6 6f 28 3d 56 a5 8e 3d 24 cc e5 bc 4f 9a ae bd
       0.04112216 0.06965129 -0.028051443 -0.08525526
000380 9b e1 10 bd 58 53 50 bd 5e 72 27 bd 0a db 33 3d
       -0.035371404 -0.050860733 -0.040880553 0.043910064
000390 97 3a 4e bd 79 ca 28 bd b5 2a c4 3d af c5 8a bd
       -0.050348844 -0.041208718 0.09578458 -0.067759864
0003a0 f5 1f e8 3c 97 48 56 bd 27 63 01 3d 91 6e 81 3d
       0.02833555 -0.05231532 0.0315887 0.06319917
0003b0 77 09 59 bd 70 62 1f 3d 54 58 10 bd 13 7b 4a 3d
       -0.052987542 0.038912237 -0.035240486 0.04943378
0003c0 00 6f 9b 3d c3 01 70 bd e0 6f a4 3d 1c 5b 8e 3d
       0.07589531 -0.05859543 0.08029151 0.069509715
0003d0 f3 c1 c0 3d fe dd 9a 3d c4 fa d7 3b 75 9d 84 3c
       0.09411993 0.07561873 0.006591173 0.016188363
0003e0 7b cb 08 3d 2d 66 26 bd 10 66 5a bb 80 a4 1e 3c
       0.03339718 -0.040624786 -0.0033324994 0.009682775
0003f0 46 f8 16 bd 45 62 ae ba 46 8c b4 bc 22 f5 08 bd
       -0.036857866 -0.0013304433 -0.022039544 -0.033436902

bias f4 [128]
000000 f1 97 84 bd 96 78 e4 3d af 4f c3 bd dc da d1 3d
       -0.06474293 0.111558124 -0.09536683 0.10246822
000010 28 40 7d bd ca d7 8b 3c 91 db 45 3d 6b 23 32 bd
       -0.061828762 0.01707067 0.048305098 -0.04349081
000020 52 df 11 3d e1 a6 ff 3c c0 c8 55 bd a7 42 79 bd
       0.035613365 0.031207504 -0.052193403 -0.06085458
000030 f2 5f 31 3d 5a 5a 6e bc 2e d7 71 bb ca 7e dd bc
       0.04330439 -0.014547909 -0.0036901939 -0.027037997
000040 4c 1b 97 3c a8 9a 0a bd 27 59 73 bc 26 d4 60 3d
       0.018445633 -0.033838898 -0.014852799 0.05488982
000050 fa 3b c0 bd 68 32 8a 3d 5a 1a b8 bc 3a d4 4a bb
       -0.093864396 0.067478955 -0.022473503 -0.003094925
000060 c7 b5 24 3d cc ac d1 bc 34 6a 28 3d f5 60 45 3c
       0.04021242 -0.025595091 0.04111691 0.012047042
000070 75 61 cd 3d 52 00 84 bc 3f 79 75 3d 78 3c 65 bd
       0.10028354 -0.016113434 0.059930082 -0.05596587
000080 11 38 54 3d a5 94 97 3d 20 10 2d bc 3c 17 bc 3d
       0.05181128 0.074013986 -0.0105629265 0.09184119
000090 a0 a8 ec 3d fa b4 ae bd 4c 89 49 3d 69 84 98 3d
       0.115556 -0.08530612 0.049203202 0.0744713
0000a0 4b 79 86 bd a6 d4 2d bb c0 00 dd bc e7 89 7a bd
       -0.065661035 -0.0026524453 -0.026977897 -0.06116667
0000b0 57 61 2b bd 18 e1 d9 bc e8 31 2f bc 5c da 8f 3d
       -0.041840877 -0.02659659 -0.010693051 0.070240706
0000c0 d9 60 8d 3d 54 e1 6a bc 35 b3 8f bd 3a 32 7d 3c
       0.06903238 -0.014335949 -0.07016603 0.0154538695
0000d0 66 34 be bc 57 bb 59 bb 75 93 02 3d f9 52 ba bc
       -0.023218345 -0.0033223236 0.031878907 -0.022744643
0000e0 fe 1e 69 3d 80 b7 17 3d 36 26 01 bd f4 e2 e0 bc
       0.056914322 0.037040234 -0.03153058 -0.02745197
0000f0 ab e0 15 3d 7c 5d 35 3d 10 f7 de 3d 16 17 fd 3c
       0.036591213 0.044278607 0.10886967 0.030894797
000100 1b e0 1e 3d 00 95 c5 3d bd d3 23 bc 82 95 6d bd
       0.038787942 0.0964756 -0.009999213 -0.05800391
000110 53 a1 a0 3d c0 4c e2 bc 13 65 12 3d 67 be ae 3d
       0.0784327 -0.027624488 0.035740923 0.0853241
000120 02 e2 cf bc 0f 85 94 3c 2c e3 c4 3b ec 00 62 3d
       -0.025376324 0.018129854 0.0060085263 0.05517666
000130 ca 3a ab 3d 41 32 d1 3c c9 be 3e bd 4b ff bb 3d
       0.083608225 0.025536658 -0.046568666 0.09179553
000140 a6 63 32 bc 3d 7a 8c 3b 1e 6e e9 3d be 28 56 3d
       -0.010888016 0.004287033 0.11397956 0.05228495
000150 a4 68 a7 3d 18 3b 24 3d 67 d1 4d bd 5e 82 27 bc
       0.081742555 0.04009542 -0.05024853 -0.010223953
000160 59 28 9f 3b 11 55 e2 3d 35 ff 57 bd 95 41 68 bd
       0.0048571047 0.110513814 -0.05273362 -0.05670317
000170 a8 49 46 3c 50 9b 52 bb ca bf 72 bd 22 0d 7c 3d
       0.012102522 -0.003213603 -0.059264936 0.061535962
000180 50 c1 6b 3d 42 05 05 bd 3e 37 73 bd 05 6a 19 3d
       0.057557404 -0.032475717 -0.059378855 0.037454624
000190 42 b9 db 3b 07 75 a8 3d b8 5c e6 3d 90 88 4b bd
       0.006705434 0.08225446 0.112481534 -0.049690783
0001a0 d2 3b ad bc 8e 17 01 bd 05 6d 13 bd 25 93 82 bc
       -0.021146689 -0.031516604 -0.03599264 -0.015939305
0001b0 41 f9 8d bd 9b 72 88 3d 36 30 da bd 16 59 7a 3b
       -0.06932307 0.06662484 -0.10653727 0.0038200072
0001c0 ae ae 26 3d 8f 2e 58 3c 0f af 1f bd e4 70 33 3d
       0.04069393 0.013194694 -0.03898531 0.043808833
0001d0 c5 84 4b bd f4 42 90 bc 43 f5 ac 3d 78 3d ce bc
       -0.049687166 -0.01761005 0.084452175 -0.025175795
0001e0 c1 3a 78 3c 10 9a 9b 3d 91 9e 8c 3d 0b 58 6c 3d
       0.015150727 0.075977445 0.06866182 0.05770115
0001f0 7e 65 d3 bc b5 1a 8b 3d 2c 2e dc 3d 2c da e8 bc
       -0.025805231 0.06792203 0.10750994 -0.028424345

weight f4 [128, 128]
000000 fb 8e 1d 3d e8 a8 ad 3b bd 50 66 bd 10 15 9a bb
       0.038466435 0.005299676 -0.05622934 -0.004702218
000010 30 f8 49 bd 54 f3 93 3b 30 3b fd 3c f3 87 22 bd
       -0.049308956 0.004515091 0.030912012 -0.039680433
000020 e7 a6 93 3c 5a e8 30 3d 86 71 37 bd 6c 44 4d bc
       0.018023921 0.043190338 -0.044786 -0.01252852
000030 6a e7 11 3d 4b 93 ff 3a 1b a7 0e 3c f1 99 d3 bb
       0.035621084 0.0019498853 0.008706833 -0.00645756
000040 a2 0f eb 3c c3 e0 b9 3b 98 3f 86 bc 35 62 b3 bc
       0.028693978 0.0056725456 -0.016387746 -0.021897415
000050 5a da 4a bd dc 7b 16 bd 36 61 ed ba 93 d1 79 39
       -0.049524643 -0.036739215 -0.0018110636 0.00023824563
000060 1c 84 6e bc 77 23 39 bd ba 8c 97 ba 59 c4 b1 3c
       -0.0145578645 -0.045199838 -0.0011562326 0.021700071
000070 72 fc 03 bc 1e 0b 57 bc c4 2e 1a 3d fb 14 0f 3d
       -0.008055793 -0.013125209 0.037642255 0.034932118
000080 d3 44 19 3c 74 3c bc bc 9f 5d a2 83 f3 bf a1 3c
       0.009354788 -0.022978045 -9.542999e-37 0.019744849
000090 5c 1f 15 3d 6c 0b 8d 3c e6 70 14 bd 35 91 55 bd
       0.03640686 0.01721736 -0.03624048 -0.052140433
0000a0 93 02 ba bb 8d 57 ad 39 01 ca 79 bb 45 7d 43 3d
       -0.0056765764 0.00033062362 -0.0038114788 0.04772689
0000b0 7a a7 d8 b9 d2 17 43 bd 85 6d 9d 3a 4b 3d c1 bc
       -0.0004132351 -0.04763014 0.0012010789 -0.023588797
0000c0 20 c2 fe 3b 0d 63 ea bb 5d 94 51 bb fa 29 35 bd
       0.0077746063 -0.007152921 -0.00319793 -0.044229485
0000d0 50 a5 2b 3c be 7d 62 3c ee 90 22 3d 7e c9 4d bd
       0.010476425 0.013823925 0.039688997 -0.050240986
0000e0 ef 37 a7 bb 11 0b aa 3a da e4 33 bd 8b 92 24 bd
       -0.0051031034 0.0012973269 -0.04391942 -0.040178817
0000f0 c0 1c 07 a4 47 22 c1 bb d6 1c 78 bb 12 5d 23 bc
       -2.929781e-17 -0.0058939788 -0.0037858984 -0.00997092
000100 ed fe d8 bc 2b 68 63 bd ed 76 75 3a 74 bb 2e bd
       -0.026488746 -0.055519264 0.00093637296 -0.042659238
000110 68 90 05 3d 71 68 ea bc f4 c5 e3 bc 4e 69 0d bd
       0.03260842 -0.028614255 -0.027804352 -0.034524255
000120 32 e9 3f bd 3d 39 62 3d 67 17 0c 3c 89 be 4d 3c
       -0.04685325 0.055230368 0.008550501 0.012557634
000130 41 b9 99 bb 8c 5c b9 38 b3 3c 34 3c 4b 66 49 bd
       -0.0046912734 8.8387256e-05 0.0110008 -0.04916982
000140 46 c6 ca bc ec f3 1a bc 5f 56 9d bc f4 44 c2 3b
       -0.024752747 -0.00945757 -0.019206224 0.00592863
000150 a7 5c 16 bc 3d a6 e0 3c ce 19 db bb 3f 89 48 bd
       -0.0091773635 0.027423019 -0.006686426 -0.048959013
000160 45 e1 a1 bb b5 c3 0e 3b a1 50 2d 3b 7e 08 4e bc
       -0.0049401843 0.002178413 0.0026445764 -0.012575267
000170 db ae 4e 3c 94 99 18 3b 54 de 8f 3b 63 06 cc bc
       0.012614931 0.00232849 0.0043905172 -0.02490539
000180 bb ec 0e bd 47 dc 4b bd be 91 c1 bc df 67 fb 3c
       -0.034893733 -0.04977062 -0.023629066 0.030689178
000190 f1 97 50 3d 8c 19 27 bb 95 22 02 bd 9d 3e 4a bb
       0.050926153 -0.0025497405 -0.03177126 -0.0030860074
0001a0 98 f3 52 bd 57 90 8e 3a 11 4c 16 3d de 3b e1 bc
       -0.05150184 0.0010876757 0.036693636 -0.027494367
0001b0 b5 68 78 bc e9 d4 1d bd 74 1d c3 a9 69 e9 70 3c
       -0.015161683 -0.038533125 -8.664849e-14 0.014704087
0001c0 ca 48 35 bd 0e fd 66 ba e4 16 15 3d 1f c1 3b bd
       -0.04425887 -0.0008811512 0.036398783 -0.04583847
0001d0 70 eb ea bc 6d d7 1b 3d 1a d9 42 bc df 23 87 bc
       -0.028676718 0.038047243 -0.011892581 -0.016496597
0001e0 e4 18 25 3d c7 a8 f8 bb 45 af 09 bb ff 7f 77 bb
       0.04030694 -0.007588479 -0.002100901 -0.00377655
0001f0 5a cc 13 3d 3e 0b 07 3d ca 2b 85 3a 7e e0 65 3d
       0.036083557 0.032969706 0.0010160145 0.056122296
000200 39 cd 83 bc 2f 96 67 bd f4 76 5f bd 7f 16 9f 3c
       -0.016089069 -0.05653971 -0.054556802 0.019419907
000210 f1 ec 95 3b 0f aa 6d 3d 3e 75 b2 3d 7f a0 0e 3d
       0.0045753648 0.05802351 0.087137684 0.03482103
000220 61 07 82 3c 10 4d 1f bd bd ac 46 bd 74 cc 08 bb
       0.01587266 -0.038891852 -0.04850458 -0.0020873817
000230 97 ca 1c bd db bc a1 3d 22 0a 49 3c ad a9 34 bb
       -0.038279142 0.078973494 0.012270482 -0.0027566955
000240 08 e7 81 bd 0e 58 1e bd a3 da c0 3d d8 79 7e bd
       -0.06342894 -0.038658194 0.09416702 -0.062127918
000250 3d 66 2e 3b 34 a1 80 3d d7 6b a7 3c da d4 e0 3b
       0.0026611232 0.06280747 0.020437164 0.0068613114
000260 4c 4e 91 3d 21 4b d4 3b 71 a7 9a 3d ed a3 af 3c
       0.07095012 0.0064786826 0.07551468 0.02144047
000270 cb fd 26 3c f5 64 45 bd c1 83 ce 3b 1c 91 b3 3d
       0.010192345 -0.048191983 0.0063023274 0.08767912
000280 d0 84 1c 3d 75 91 31 bd b8 23 82 bd aa b9 67 bd
       0.038212597 -0.04335161 -0.06354469 -0.056573547
000290 a9 61 84 bd 43 0e 7d 3d de 8e 33 bd 11 af 57 3d
       -0.0646394 0.06178118 -0.04383742 0.05265719
0002a0 81 32 a0 3c 92 b8 7c bd 19 21 b1 bc 21 bf 2d 3d
       0.019555332 -0.061699457 -0.021622228 0.042418603
0002b0 09 e7 6a bc b1 92 7a 3d fe 5c 76 3d c2 92 bf 3d
       -0.01433731 0.061175052 0.060147278 0.09354164
0002c0 06 f8 57 bd f1 70 9c 3d 4a 45 b5 bd bb 10 b8 3d
       -0.052726768 0.07638729 -0.088511065 0.08987566
0002d0 57 4d 2f 3c 06 f1 9c 3d ca fc e1 bc f1 7b af 3a
       0.010699592 0.07663159 -0.02758636 0.0013388378
0002e0 7d 28 27 bd 78 5e 54 bd d7 21 47 3d 2a 62 d4 3c
       -0.040810097 -0.051847905 0.048616257 0.025925715
0002f0 cd 4a 8b 3d 9f 78 33 bb 0c 8e f5 3c 77 38 16 3c
       0.068013765 -0.0027385128 0.02997496 0.009168736
000300 a6 8b df bc fb b9 a2 3d b7 58 49 bd 40 22 61 3b
       -0.02728827 0.07945629 -0.04915687 0.003435269
000310 5d 71 8e bc 36 d0 0d bc f2 80 5a bd b2 6b 88 3b
       -0.01738804 -0.008655598 -0.053345628 0.004163229
000320 65 52 b1 3b 79 c5 2d 3d 1c 89 5f 3d b6 f2 ad 3d
       0.0054114335 0.042424653 0.054574117 0.08493559
000330 fc 83 14 bc 9e 0a 5d 3d 1a e3 d5 bd b3 62 c7 bc
       -0.009064671 0.053965203 -0.10443707 -0.024339056
000340 55 c9 7d bd f9 3a 0a 3c aa 43 a5 3d 7a b7 61 bc
       -0.061959583 0.008436912 0.080695465 -0.013776654
000350 93 84 80 3d 9c f4 9c bc 51 f1 8e bd 6a d5 41 bd
       0.062752865 -0.019159608 -0.06979621 -0.047322668
000360 71 25 3f 3d 4c cf 90 3d 78 aa 3a bd 62 d8 20 3d
       0.046666566 0.07070789 -0.045572728 0.03926886
000370 d3 06 f9 3b 9e 3f 3a bd 44 ac c7 bc 1b 1d 72 3d
       0.0075996905 -0.045470826 -0.024374135 0.05910979
000380 1c d1 4a 3d 51 73 95 bd 62 e8 62 bd 3b eb 5c bd
       0.04951583 -0.072973855 -0.0553974 -0.05393527
000390 a0 c5 3e bd c7 42 bb bc 11 55 c4 3c 5c bb 0c bc
       -0.04657519 -0.02285899 0.023966344 -0.008589592
0003a0 10 aa 43 bd c4 8e b3 3d 45 8c 8a 3d 90 4e d6 bb
       -0.047769606 0.08767465 0.067650355 -0.006540127
0003b0 5c db 88 bd b4 c9 8b 3d 86 ab cb bc 9b ab ba bd
       -0.066824645 0.06825581 -0.024862062 -0.091147624
0003c0 7c f2 6f 3d 29 ca 02 be c5 9f 67 bc 62 c1 9a 3d
       0.05858086 -0.1277243 -0.014137213 0.07556416
0003d0 c5 20 ae bb d7 c9 21 bd 42 1a 58 3d 6e ee c2 bd
       -0.005313965 -0.03949913 0.052759416 -0.09518133
0003e0 2e dd 86 bc c6 97 27 3c 97 34 a9 3d ef 82 64 bc
       -0.016462889 0.010229057 0.08261984 -0.013947233
0003f0 3e 54 69 bd 01 25 c6 bd a1 4b 3f 3d 9e fa a8 bb
       -0.056965105 -0.09675027 0.046702985 -0.005156829

bias f4 [128]
000000 fa 3f 34 bd da 2b cb 3d 39 88 81 3d df 95 c6 3d
       -0.044006325 0.099204734 0.063248105 0.096965544
000010 20 1c 58 3d ad 67 4c 3d 16 2b ca 3c f1 95 f7 3d
       0.052761197 0.04990356 0.024678748 0.12089146
000020 fd 5f 9d 3d a7 a4 a8 3d 19 5a 9a 3c 62 9e 99 bd
       0.07684324 0.0823453 0.01884179 -0.07500912
000030 cf 9c 52 3d 23 bb ae bb 03 6d b0 3c 33 d8 a3 bc
       0.051419076 -0.005332367 0.021536356 -0.020000553
000040 00 46 64 3d 75 aa 8b bd b2 bd 01 3c c9 42 6c 3d
       0.05573082 -0.068196215 0.007918762 0.05768088
000050 54 7e a6 3d d0 16 a9 3d 4b 2b 8a 3d 73 9c 88 bd
       0.08129564 0.08256304 0.06746539 -0.06670465
000060 4f 45 7d 3c da 22 35 bd b6 25 8d bd 2e fb 9a 3c
       0.015458419 -0.04422269 -0.068919584 0.0189186
000070 f2 15 0e bd 89 3b c8 bc 49 43 a4 3c ed 20 bb 3d
       -0.034688897 -0.024442451 0.020051615 0.091371395
000080 ec 7e 62 bd 9b cf 09 bd 5b 2d 20 bb cf 7e 28 3c
       -0.055296823 -0.033645254 -0.0024441096 0.01028414
000090 b0 24 74 bd 29 ba c3 3d 0c dd 39 bd c1 42 38 3b
       -0.0596053 0.095569916 -0.045376822 0.002811596
0000a0 7e af b9 3d bc 34 a8 bb 9a a1 e5 3d ed 1c cb bc
       0.090666756 -0.0051332396 0.11212464 -0.024794066
0000b0 cd 9d b9 3d 84 96 57 3d cf fd 8d 3d 44 44 31 bc
       0.09063301 0.052633777 0.06933176 -0.010819498
0000c0 56 e6 8e 3c bb 52 ce 3d 8d b9 e5 3c 40 b0 9d bd
       0.017443817 0.10074373 0.02804258 -0.07699633
0000d0 cc 35 a3 bc 3f 9d 88 3d bf 91 37 bd 42 ae 0f bb
       -0.019923113 0.06670617 -0.04481673 -0.0021923934
0000e0 47 0d 11 3d 37 cc b4 3d c4 80 bc 3d 53 60 99 3d
       0.035413053 0.088280134 0.092042476 0.074890755
0000f0 e0 1e 0e 3d 52 12 c1 bd c9 12 cd 3d da 06 a1 3d
       0.034697413 -0.094273224 0.100133486 0.07862635
000100 ff 6d e0 bb 05 60 9f bc 98 d4 bd 3c 03 b5 88 bd
       -0.00684905 -0.019454965 0.023172662 -0.0667515
000110 5a ee 59 3d 68 81 80 bc 30 d1 93 bc 2b 5f 7c bd
       0.053205825 -0.015686706 -0.018044084 -0.061614197
000120 1f a0 bf 3c cb e0 81 bd 60 e7 e4 3c 64 0a df bc
       0.023391781 -0.06341704 0.02794236 -0.027226634
000130 a5 82 8f bc 61 5b 38 3d 56 f5 59 3d 5e f7 7e 3d
       -0.01751835 0.04500902 0.053212486 0.062247626
000140 a6 e0 70 bd be bc a9 3c 93 73 b8 3d 9a 95 22 bd
       -0.05880799 0.020719882 0.09006419 -0.039693452
000150 5e 1c d0 3d c1 cf a1 bd 20 d0 c2 3d 88 6c f3 bc
       0.101616606 -0.07900954 0.09512353 -0.029714838
000160 14 9d fd 3d a1 34 81 3c d5 ad 6f 3d 93 da 01 3d
       0.12383476 0.015772166 0.05851539 0.03170259
000170 06 73 f7 bc b7 84 b1 3d 6f 8d 0c 3d a4 4a c8 bc
       -0.030206215 0.086678915 0.03431457 -0.024449654
000180 56 dc f5 3c 46 f1 76 3d 8f 58 d1 3c 82 0a 02 3e
       0.03001229 0.06028869 0.025554923 0.12699321
000190 68 b3 1d bd 41 af ba 3d 03 80 cf 3b 03 8f 84 bd
       -0.038501173 0.09115458 0.006332399 -0.0647259
0001a0 b8 18 67 3d 93 e0 12 3a 31 4e 17 bd 60 cb d2 3b
       0.056420058 0.0005602922 -0.036939804 0.0064329356
0001b0 6f 90 2a bd 5a 67 de 3c be 04 21 bd 16 ab 05 3d
       -0.04164165 0.027148891 -0.039311163 0.032633863
0001c0 89 d4 1f 3d 3d a6 7f bd 32 b6 24 bd 55 85 c2 bc
       0.03902105 -0.062414397 -0.040212817 -0.023745218
0001d0 69 2a db bb 10 81 a2 3d 61 1a d3 3c 20 63 88 3d
       -0.0066884053 0.07934773 0.025769414 0.066595316
0001e0 c5 bd 01 3d 13 97 f2 3c bc b6 32 3d e8 79 ea bc
       0.03167512 0.029613053 0.0436313 -0.028622583
0001f0 a1 f2 b8 3d d2 57 4b bc 67 28 81 bd 2d 39 89 3d
       0.09030653 -0.012411075 -0.06306534 0.067003585

weight f4 [128, 128]
000000 d9 57 8c bc 99 f8 a7 3d ce 0f a1 3d 91 cb 8b 3d
       -0.017131733 0.08201713 0.07864343 0.068259366
000010 6c 6c 63 3d 7a 95 b6 3c 7b f2 26 bd 35 14 64 3d
       0.05552332 0.022288073 -0.04075859 0.055683333
000020 19 55 94 bb cb a9 4e 3c 64 d3 b1 3d 76 8d 39 3d
       -0.004526746 0.012613724 0.08682898 0.045300923
000030 e0 f0 c3 3d f5 70 66 bc 00 99 6b 3d 27 44 1f 3d
       0.09567428 -0.014065017 0.05751896 0.038883355
000040 9d 41 18 bd e7 34 2c bd 90 84 29 bc 66 6b 43 bd
       -0.03717195 -0.04204264 -0.010346547 -0.047709845
000050 7b cd 18 3d a4 a4 95 bd f8 a1 94 3d 45 30 39 3d
       0.037305336 -0.07306793 0.072574556 0.04521205
000060 d1 25 a0 bc d4 6d 4e 3d 9e 5c 02 bd b5 38 15 bd
       -0.019549282 0.05039771 -0.031826608 -0.036431033
000070 fb aa 1b 3d a6 fc 34 3c ea 03 04 3a c6 3f c1 3d
       0.038004857 0.011046564 0.00050359836 0.09435992
000080 58 ed a9 bd c1 a7 71 bb 4c b9 fc bc ed 49 b3 3d
       -0.08297223 -0.003687367 -0.030850075 0.087543346
000090 2a a5 5b bd 17 6c 2f 3d 87 49 8b bb a7 c0 8d 3d
       -0.05362431 0.042827692 -0.0042507085 0.06921511
0000a0 2a 22 be 3d c5 ba f0 bc 77 64 6e bd a1 7e c4 bc
       0.0928386 -0.029385934 -0.05820128 -0.023986163
0000b0 25 f0 26 bb 2b 1f 85 3d 06 4b 89 3c e6 6e a4 3c
       -0.0025472727 0.065000854 0.016759407 0.020072412
0000c0 d7 98 8d ba 98 36 84 bb e0 f4 4e 3d ee 6f 76 3d
       -0.0010802996 -0.0040348284 0.0505265 0.06016534
0000d0 45 00 0a bd 67 48 e8 3b 13 fd 9d bd 12 c3 84 3d
       -0.033691663 0.007088709 -0.07714286 0.06482519
0000e0 28 0d d3 ba e6 b5 c6 3d 24 14 fb bc 6c 41 b1 3d
       -0.0016101943 0.09702663 -0.030649252 0.08655056
0000f0 a2 01 58 bd 93 c9 94 bd 1e 86 80 3d 2c 69 22 bc
       -0.052735932 -0.0726501 0.06275581 -0.00991277
000100 c7 ef 90 bc 0d 62 22 bd 19 1e 0a bd bc d1 a3 3c
       -0.01769246 -0.03964429 -0.03372011 0.01999747
000110 b9 7c a0 3d 58 0c ca bc 5c 70 03 3c 18 8c 81 3d
       0.07836289 -0.02466409 0.008022394 0.06325549
000120 83 5c a6 bc fe ec 7b 3d 72 b1 4f bd d1 d7 3a bc
       -0.020307785 0.06150531 -0.050706334 -0.011403994
000130 ba 21 59 3d aa c8 4d bc ab 98 8d bd c3 6c 28 3d
       0.05301068 -0.012560049 -0.06913885 0.04111935
000140 3e e2 a2 bd b7 9a 82 bd 92 b8 c4 3d bf 4f b3 3d
       -0.079533085 -0.06377166 0.096055165 0.08755445
000150 6d 62 38 bd 6c f7 8e bd 37 ee 06 3c 87 15 a4 3c
       -0.04501574 -0.06980786 0.008235506 0.020029796
000160 db 47 b7 3d 63 47 81 bd d5 07 2e bd 30 e8 a1 3c
       0.08949252 -0.06312444 -0.042487938 0.019764036
000170 eb 8c 03 bd 67 a1 91 bd f8 f4 ab 3d 67 05 b7 3d
       -0.03211681 -0.07110863 0.083963335 0.08936577
000180 43 f6 95 3d 5e c5 2e 3d 04 01 6d 3c b7 71 1f bd
       0.07322361 0.042668693 0.014465574 -0.038926806
000190 9b 64 e6 3c 99 c1 a8 3d 32 b0 76 3d 08 7e 97 bd
       0.028124144 0.08240051 0.060226627 -0.073970854
0001a0 5e 9c 62 3d 6a ed b8 3d 40 32 93 3d 58 8c 98 39
       0.055324905 0.09029658 0.07187319 0.00029096263
0001b0 a4 7f a5 ba 15 d8 9a 3d 1c b2 51 3d 37 6e 5e bc
       -0.0012626541 0.075607456 0.05119525 -0.013576082
0001c0 96 2b 6b 3d 38 20 b1 bc aa 7c d8 bc 7a b7 d7 3b
       0.057414614 -0.021621808 -0.026426632 0.0065831514
0001d0 dc dd 16 bd a5 70 34 bc ff 52 91 3d 40 20 10 3b
       -0.036832675 -0.011013185 0.070959084 0.0021991879
0001e0 cc 2f c7 3d ff 0c b6 3c eb d2 77 bd a7 8a 37 3c
       0.097259134 0.022222994 -0.06050388 0.011202491
0001f0 22 6b 0f bc ff 5f 1e bc bf 7a 28 bc bf bb 6d bd
       -0.00875357 -0.009666442 -0.010283171 -0.058040377
000200 c9 d6 b4 16 79 09 50 b0 06 1f 80 af cd e4 e1 b1
       2.9216117e-25 -7.568342e-10 -2.3305108e-10 -6.5743735e-09
000210 f1 83 89 b2 6a 9d 6e b2 e0 69 dd b1 fa 4a 86 a9
       -1.6008899e-08 -1.3889215e-08 -6.443983e-09 -5.963802e-14
000220 96 c1 46 28 25 dd 43 10 7d 42 81 b0 69 04 59 92
       1.1033185e-14 3.8627333e-29 -9.404882e-10 -6.8478563e-28
000230 8e 48 51 2b ec ad 21 af 55 4c 68 a7 5a 1b 3e ae
       7.4352406e-13 -1.4704654e-10 -3.2237847e-15 -4.322529e-11
000240 6e 3b 1e b0 22 b4 5f 2d 95 3d 32 b1 a4 a4 ac b1
       -5.756452e-10 1.271608e-11 -2.5937414e-09 -5.0245763e-09
000250 f9 fb 63 ac 82 17 79 af ce 7e 0c ae 38 6a 86 13
       -3.2398513e-12 -2.265477e-10 -3.194494e-11 3.3931095e-27
000260 64 64 16 af ce 8d e7 05 86 af 03 a1 6b c0 32 b0
       -1.3678086e-10 2.1775226e-35 -4.461683e-19 -6.5029465e-10
000270 6e ca bc ae 9d ab e9 2c 78 ee da 23 b7 b6 2d b2
       -8.585209e-11 6.641311e-12 2.3736603e-17 -1.011147e-08
000280 0b ad 32 9c fd 08 ea 10 90 93 5d b1 e1 de f6 9f
       -5.911891e-22 9.2310575e-29 -3.2243612e-09 -1.04553775e-19
000290 a2 1e 70 a7 6c 35 99 03 3e 43 19 2d 49 d9 d4 ab
       -3.3323297e-15 9.004797e-37 8.711974e-12 -1.5123815e-12
0002a0 c3 52 53 b1 f8 49 96 83 d0 e9 8b b2 69 db 51 99
       -3.0751586e-09 -8.83319e-37 -1.6288055e-08 -1.0849356e-23
0002b0 36 24 f5 ae c8 3e 65 87 e5 93 91 18 88 9f 7a b1
       -1.11477425e-10 -1.7246495e-34 3.7630957e-24 -3.647047e-09
0002c0 d8 9e 71 2d 2d f2 b1 b1 be 57 b7 a6 46 5f 25 28
       1.3734534e-11 -5.17891e-09 -1.2721958e-15 9.179999e-15
0002d0 42 a2 fa a3 c8 6b e7 1c 00 1f 91 9d 47 93 0d 10
       -2.7173773e-17 1.5314159e-21 -3.8413234e-21 2.7920805e-29
0002e0 b2 f8 15 b1 ec 9b b9 2c c5 fb 73 83 87 fd 55 b2
       -2.182372e-09 5.275327e-12 -7.17003e-37 -1.2455877e-08
0002f0 d5 4a 8e b1 95 9d 87 03 e1 61 ec ad b0 54 9d 03
       -4.1412513e-09 7.970766e-37 -2.687356e-11 9.247074e-37
000300 4d 69 fc 2c df f1 cd 25 da 69 50 b0 83 4e 68 22
       7.1739615e-12 3.572573e-16 -7.5820383e-10 3.1483427e-18
000310 72 34 2b b2 ec 1b 3e 1d 6e d7 44 b1 76 02 84 83
       -9.965435e-09 2.5160726e-21 -2.8644211e-09 -7.758828e-37
000320 9b db 31 b0 b2 5b 0d 15 9d 74 9a 87 0c f5 68 b2
       -6.4704303e-10 2.8547058e-26 -2.3239884e-34 -1.35598945e-08
000330 3f 64 72 b2 b0 57 11 b0 35 9a a8 96 a0 49 dd b2
       -1.4109047e-08 -5.2875304e-10 -2.7239182e-25 -2.5761267e-08
000340 7f 70 6f a1 95 93 d6 af df fe b1 b0 22 3d 56 b2
       -8.1125237e-19 -3.9031237e-10 -1.2950884e-09 -1.2470339e-08
000350 46 1b b7 af 59 58 12 83 98 dc 80 9c 2b 64 a7 13
       -3.3306885e-10 -4.300696e-37 -8.527352e-22 4.22555e-27
000360 c4 96 aa b0 10 2d e9 94 1c 6f 66 ad d6 d2 28 b2
       -1.2411978e-09 -2.3544762e-26 -1.3098658e-11 -9.826826e-09
000370 b4 0f 0d b2 34 d2 1c af 0e e8 6e b0 c6 94 04 b2
       -8.210851e-09 -1.4262796e-10 -8.6913665e-10 -7.717238e-09
000380 e1 47 c6 af 34 09 74 b0 a1 0c a9 83 61 7c 18 ad
       -3.6067063e-10 -8.877976e-10 -9.935827e-37 -8.667817e-12
000390 b4 ca 0f a0 1d f3 f8 af 76 db 92 b2 9e 5a 89 ad
       -1.217964e-19 -4.528368e-10 -1.7096436e-08 -1.5615339e-11
0003a0 78 3b c1 b1 aa 9e 8f b2 22 5d 35 9d 46 44 4f 1c
       -5.6238e-09 -1.6719543e-08 -2.40033e-21 6.8578796e-22
0003b0 64 fc 7b 26 9e af e6 b1 26 98 ec b0 af 2e 02 9d
       8.742517e-16 -6.7138464e-09 -1.7214503e-09 -1.7229492e-21
0003c0 27 07 9e ae f6 4a 0e af 4d f1 48 b1 0d b5 ae 03
       -7.186279e-11 -1.2941456e-10 -2.9240994e-09 1.0268368e-36
0003d0 93 bc 1e a3 e8 b7 b8 2c 67 8f a9 b1 6e 17 12 a8
       -8.605129e-18 5.2500122e-12 -4.9348503e-09 -8.109709e-15
0003e0 ad 38 41 af fe 00 81 b0 64 00 a3 ad 2b 20 ab b1
       -1.7573383e-10 -9.386267e-10 -1.8531128e-11 -4.980412e-09
0003f0 b9 b0 9b 08 b1 95 10 2c c9 d9 34 03 ff 86 9e 83
       9.3702705e-34 2.0546726e-12 5.314725e-37 -9.317399e-37
