bike_sharing/AutogluonModels/ag-20220404_171935/models/NeuralNetTorch_BAG_L1/S1F4/net.params (torch, 224187 bytes, 13 tensors)

weight f4 [5, 3]
1.5066313 -0.29996428 -2.167731 0.59367466 -1.0808866 -1.4038352 0.35029894 0.8460597
-0.7413894 -0.36621985 -0.5803231 0.15064023 -0.7304511 0.9730195 -0.9437341
00000000: 4bd9 c03f eb94 99be 1bbc 0ac0 10fb 173f
00000010: 7e5a 8abf dfb0 b3bf 625a b33e 5e97 583f
00000020: b2cb 3dbf 2b81 bbbe 0e90 14bf 6f41 1a3e
00000030: d8fe 3abf ce17 793f 8f98 71bf

weight f4 [13, 6]
-0.6792787 -0.021220874 -0.48627126 0.29029205 0.53957677 0.20192885 0.73813975 0.46735057
-0.064637445 0.90380555 -0.20335515 0.15413877 0.50939816 2.2805421 -1.452571 -1.5539819
-0.68271875 0.83627033 1.0585381 0.16053638 -0.2540544 -0.40598097 0.5221988 -0.40680924
-0.4397078 0.7447783 1.5177877 3.4134216 -1.5393083 -1.2407994 1.7843468 -0.5532374
-0.6008457 0.89631796 1.0739927 1.2578274 -1.4719738 2.5342019 -0.47939104 0.314391
-1.6176416 -0.57211775 -0.44195643 -0.46469298 -1.0562882 1.0679809 -0.19898042 0.7326871
-0.087988146 0.6597673 -0.807 -0.012804615 0.82832587 -0.4160422 1.0033 0.3637275
-0.2781409 2.261688 -1.8446229 -0.0804651 -1.0161407 -0.91817683 -0.73686236 -1.2819662
-0.21610166 -2.4005215 -0.08105087 -0.019296806 0.8980614 0.30570716 -0.40893236 -1.2484967
-0.4987966 -0.3427569 1.7921702 -0.28333718 0.033965718 1.0369368
00000000: 35e5 2dbf 66d7 adbc 8cf8 f8be 29a1 943e
00000010: b421 0a3f 70c6 4e3e baf6 3c3f 9348 ef3e
00000020: a360 84bd cd5f 673f 553c 50be 8ed6 1d3e
00000030: eb67 023f 67f4 1140 d9ed b9bf e1e8 c6bf
00000040: a8c6 2ebf d015 563f 2d7e 873f a663 243e
00000050: 6b13 82be bddc cfbe d2ae 053f 4d49 d0be
00000060: 6121 e1be caa9 3e3f de46 c23f 8075 5a40
00000070: 0e08 c5bf 84d2 9ebf 7a65 e43f f7a0 0dbf
00000080: 06d1 19bf 1875 653f 9878 893f 7d00 a13f
00000090: a369 bcbf 5d30 2240 be72 f5be dbf7 a03e
000000a0: e10e cfbf 4f76 12bf 1d48 e2be 3dec edbe
000000b0: 7434 87bf 99b3 883f 86c1 4bbe 6291 3b3f
000000c0: 2133 b4bd 83e6 283f 8d97 4ebf 73ca 51bc
000000d0: 2a0d 543f 7c03 d5be 226c 803f 7e3a ba3e
000000e0: 7c68 8ebe 7fbf 1040 9a1c ecbf e3ca a4bd
000000f0: e610 82bf a30d 6bbf 03a3 3cbf 7817 a4bf
00000100: c149 5dbe 25a2 19c0 00fe a5bd 5614 9ebc
00000110: 5ae7 653f a685 9c3e 955f d1be bdce 9fbf
00000120: 4562 ffbe d57d afbe d565 e53f 9211 91be
00000130: a31f 0b3d 58ba 843f

weight f4 [25, 9]
0.54248106 -0.8623324 -0.7396234 -0.55057937 -0.9237727 0.68087995 0.5233204 0.60165143
-0.7806958 0.24927117 -0.13896917 0.18045878 -0.6335055 -1.2880632 -0.05915097 -1.0807399
2.7120078 1.0335902 -0.30771932 0.059222016 0.304893 1.136801 0.23786132 0.4478496
0.4989282 0.54121745 0.22940291 -0.66473854 -1.796653 0.010419859 -0.57138807 0.43725199
-0.25470942 -0.23572393 0.8333671 -1.0304263 0.30779418 -0.079664074 0.97233 -0.4773636
1.0074577 -0.79968137 0.3572682 0.18074602 -0.13328579 0.39773035 -0.26659948 -1.1295302
0.16118462 -1.1187594 -0.110682 -0.30284822 -1.517333 -0.39048818 1.1183378 0.14498244
-0.25640476 -1.3915 -1.0563035 -0.72353613 1.4637839 0.24847312 0.6768717 -1.046931
0.580445 -1.8568674 -0.6185775 0.48686862 0.45883 0.36481616 0.20934893 0.9016248
1.9918948 0.1655131 -0.1058354 -1.0881234 0.40523267 0.5710343 0.7020774 -1.1808686
-0.8499405 -1.9951832 1.2550524 0.022164444 1.0276705 0.87485915 -1.3302047 1.0650847
-0.009320643 -0.87412286 0.98589194 1.3807502 -0.7614227 0.56924963 0.35644636 -0.11450127
-1.4279112 0.9414058 -0.40514335 1.5832726 0.2696433 0.3085669 -0.13770512 0.7017857
-0.11462285 -0.55826175 -0.17926827 -0.572686 -0.61292493 0.7349257 -0.7465533 0.9636199
0.44520262 1.3525316 -1.5950803 -1.8829648 0.13771988 -1.0900147 1.443387 -0.11083194
-0.6332643 0.74730015 -0.056740828 1.0404996 0.90177095 -0.43737078 -0.8516309 0.1584041
0.04534157 0.6614309 8.2834595e-06 -0.8025918 -0.48532617 -0.3666081 0.5789089 -1.1822197
-0.698072 -0.5646876 -0.121355 1.3908337 0.62292 -0.5030934 -0.34558028 -1.315844
-0.6907739 -0.46511537 -0.27241784 0.6994772 0.63290924 0.24719165 -2.0356255 0.5644583
0.24261126 -0.695523 -0.15935805 1.3134873 0.39161423 -0.31221908 -1.0267452 -0.44371286
-0.7903947 0.62494653 0.4893128 0.64367115 -0.036309022 -0.89112025 -0.19743624 -0.8733382
0.5087326 1.5155854 -0.8779601 0.82119286 -0.70691925 1.3594644 1.5067081 -0.6825835
0.68457776 -1.289038 -0.63803303 -0.18876907 -0.5192959 0.7266895 0.15516226 -1.1143614
0.3801448 0.6978445 -1.2453483 0.51998585 -1.2241555 -1.2875937 1.6237448 -0.11767975
0.47946393 -1.0422598 -0.18797651 0.008814964 0.40881753 1.0616844 1.9718205 1.1127968
-1.6141834 -0.41463974 -1.1438997 1.2001904 0.3097231 0.43549296 0.0018349102 -2.2055855
0.52947056 -1.6414601 0.56487167 1.5577242 1.0543385 1.2850561 0.12350975 1.5827523
0.34272903 -1.2422252 0.74689025 0.0043129805 0.6476823 -0.8431958 -0.76123816 -0.20264502
-0.21791792
00000000: 0ae0 0a3f d1c1 5cbf f657 3dbf c5f2 0cbf
00000010: 5e7c 6cbf 264e 2e3f 53f8 053f d405 1a3f
00000020: aedb 47bf f140 7f3e ef4d 0ebe 30ca 383e
00000030: 6b2d 22bf 41df a4bf 4a48 72bd af55 8abf
00000040: 8991 2d40 af4c 843f 638d 9dbe c992 723d
00000050: ef1a 9c3e b282 913f eb91 733e 8b4c e53e
00000060: 8473 ff3e 3a8d 0a3f 99e8 6a3e 4e2c 2abf
00000070: baf8 e5bf 0eb8 2a3c 7d46 12bf 7edf df3e
00000080: 4669 82be 9d61 71be 8c57 553f 02e5 83bf
00000090: 3397 9d3e eb26 a3bd 9eea 783f 0069 f4be
000000a0: 60f4 803f ebb7 4cbf dceb b63e 7c15 393e
000000b0: 127c 08be 50a3 cb3e ba7f 88be 7294 90bf
000000c0: 950d 253e 8233 8fbf 3fad e2bd ec0e 9bbe
000000d0: f837 c2bf 11ee c7be b125 8f3f 4776 143e
000000e0: 7c47 83be ac1c b2bf f434 87bf aa39 39bf
000000f0: 455d bb3f bd6f 7e3e 7747 2d3f d601 86bf
00000100: 0b98 143f d5ad edbf 185b 1ebf d846 f93e
00000110: c4eb ea3e 2fc9 ba3e 915f 563e e2d0 663f
00000120: 69f6 fe3f 447c 293e 3bc0 d8bd a147 8bbf
00000130: a87a cf3e 4e2f 123f 58bb 333f b426 97bf
00000140: b395 59bf 2a62 ffbf 8fa5 a03f 3592 b53c
00000150: b58a 833f c5f6 5f3f 2644 aabf b254 883f
00000160: 9cb5 18bc 84c6 5fbf 6a63 7c3f 6cbc b03f
00000170: 99ec 42bf 58ba 113f 2380 b63e a47f eabd
00000180: cbc5 b6bf f8ff 703f f36e cfbe ada8 ca3f
00000190: b00e 8a3e 7bfc 9d3e 9202 0dbe 3aa8 333f
000001a0: 63bf eabd 3eea 0ebf 1a92 37be 8d9b 12bf
000001b0: a6e8 1cbf 1724 3c3f 1e1e 3fbf cbaf 763f
000001c0: 99f1 e33e c11f ad3f 972b ccbf fe04 f1bf
000001d0: 7106 0d3e 9a85 8bbf e8c0 b83f dbfb e2bd
000001e0: 9c1d 22bf 104f 3f3f 1269 68bd 172f 853f
000001f0: 76da 663f 10ef dfbe 7c04 5abf af34 223e
00000200: 15b8 393d 8953 293f 30f9 0a37 a876 4dbf
00000210: ac7c f8be 0fb4 bbbe 6033 143f fa52 97bf
00000220: d9b4 32bf 5e8f 10bf f888 f8bd d706 b23f
00000230: af77 1f3f bbca 00bf e6ef b0be 946d a8bf
00000240: 8fd6 30bf 9a23 eebe 5a7a 8bbe f010 333f
00000250: 5706 223f cf1f 7d3e b047 02c0 5780 103f
00000260: 166f 783e cc0d 32bf c22e 23be 5a20 a83f
00000270: a981 c83e 2edb 9fbe 636c 83bf 552e e3be
00000280: 4f57 4abf 7ffc 1f3f 3587 fa3e a2c7 243f
00000290: c5b8 14bd 7520 64bf ba2c 4abe 1893 5fbf
000002a0: 4d3c 023f b4fe c13f fec1 60bf b239 523f
000002b0: a9f8 34bf ee02 ae3f d0db c03f cbbd 2ebf
000002c0: 7d40 2f3f 32ff a4bf 2256 23bf ae4c 41be
000002d0: 93f0 04bf 5308 3a3f dbe2 1e3e 65a3 8ebf
000002e0: 57a2 c23e f0a5 323f 9367 9fbf cb1d 053f
000002f0: 21b1 9cbf dfcf a4bf dfd6 cf3f 1502 f1bd
00000300: 4c7c f53e c568 85bf ea7c 40be a46c 103c
00000310: 8850 d13e 46e5 873f 9d64 fc3f 2070 8e3f
00000320: 909d cebf a94b d4be 4e6b 92bf d79f 993f
00000330: 0794 9e3e eff8 de3e 5f81 f03a 5028 0dc0
00000340: 628b 073f 5d1b d2bf 6e9b 103f 8263 c73f
00000350: 90f4 863f b87c a43f aef2 fc3d a197 ca3f
00000360: 2e7a af3e 3c01 9fbf 3334 3f3f e753 8d3b
00000370: 82ce 253f aedb 57bf 81e0 42bf 2d82 4fbe
00000380: e025 5fbe

weight f4 [5, 3]
0.09249498 -0.8591855 0.37439987 0.07368751 -0.27024204 -0.08734359 -0.8082635 2.3075776
1.4165232 -3.3632746 -1.4193858 -2.2344341 0.08466266 1.4835482 0.34454805
00000000: 026e bd3d 95f3 5bbf 57b1 bf3e 7ae9 963d
00000010: 2a5d 8abe 32e1 b2bd 5bea 4ebf 5aaf 1340
00000020: a250 b53f e43f 57c0 6fae b5bf f800 0fc0
00000030: 9e63 ad3d e8e4 bd3f 9a68 b03e

weight f4 [128, 31]
0.087691456 0.17356987 -0.00593996 -0.09786951 0.12821591 0.16408823 0.068157844 -0.06061396
0.1876987 0.047238085 -0.108182274 0.16533063 0.10576192 -0.0813359 0.08964509 -0.103481404
0.018112343 0.16774528 -0.0005234855 -0.13656445 -0.06691219 -0.05444971 0.016573759 0.035234526
0.24397293 -0.05536508 -0.20161061 -0.013111617 0.0941626 0.105232954 -0.1530723 -0.03526072
-0.07275912 -0.058485717 0.020275688 -0.10657613 0.060621697 0.17855601 0.010903434 -0.10874973
-0.08955599 0.03926025 -0.12957874 0.08667269 -0.1616325 -0.14486046 -0.16889454 -0.013478333
0.12775669 -0.15143044 0.11134356 -0.114665836 0.1127952 0.012227787 -0.19931902 0.113470934
0.12106873 0.24281122 0.06772941 -0.14496899 0.15035051 -0.0019640357 0.06821766 -0.10796526
-0.073639415 -0.21822903 -0.05946047 0.016793221 -0.14788836 0.049023326 0.0787568 -0.0071590743
-0.1320042 -0.116553456 -0.04172007 0.08402053 0.176487 0.08965345 -0.024487978 0.085681304
-0.144256 -0.15941074 0.052385006 -0.059690908 0.08708884 -0.14773765 -0.06629563 -0.16146414
0.08528603 -0.002729961 0.1379387 0.11354074 0.10127878 -0.0038604166 0.009380176 -0.050446022
-0.051064458 0.07555325 -0.14337257 0.15868528 -0.048285827 -0.1690319 -0.15719251 0.13928373
0.18458486 -0.14833021 0.123557985 0.084661156 0.12753427 0.1449635 -0.06681376 0.0736417
0.056431696 -0.05569781 0.07533578 -0.073333226 0.04724734 -0.038297225 -0.0633264 0.10054076
0.05321792 -0.089374326 0.0032891196 0.09028733 -0.0155410385 0.018886685 -0.06412052 0.07694412
-0.14682414 -0.1091359 -0.100923926 0.17370743 -0.061536036 6.678165e-06 -0.08947599 0.17346999
0.18119848 -0.12692799 -0.14321126 -0.12986138 -0.0025673278 -0.06362961 -0.11435695 -0.064498655
0.033903006 -0.07977715 0.043944962 -0.024588473 -0.08856251 0.0035427914 0.123945214 -0.123238586
0.03373424 -0.069288254 0.17727737 -0.1603909 -0.14467205 0.1741437 -0.13306771 0.028840516
-0.0060287127 -0.04452066 -0.053579446 0.110980235 -0.012747587 -0.1810904 -0.1087789 -0.057026416
0.08761701 -0.11240482 0.16858599 -0.025371144 -0.03116319 0.15233736 0.07804188 0.10138397
0.14495197 -0.058411058 -0.13973711 -0.02576736 0.13626105 -0.028413847 -0.17524083 0.06876053
0.17628616 -0.050684314 -0.14960407 -0.17680864 0.06192262 -0.042337127 -0.059282664 0.014045504
0.06262259 0.14256877 0.149861 0.0027405699 -0.15038043 -0.1833762 0.15988404 0.10380384
0.07383227 -0.15324613 0.17685483 0.1524869 0.1689507 -0.1685932 -0.045721766 -0.12054671
0.17670664 -0.058804873 -0.10638629 0.11898783 -0.047898125 -0.089425854 -0.03121207 0.006805246
-0.13245867 0.14262737 -0.08473659 0.068544626 0.14943896 0.10665047 0.015769878 0.1407876
0.023375217 -0.07600544 0.17148542 0.042835902 -0.1745889 -0.05087997 -0.098265946 0.15077089
-0.013915384 -0.12992996 -0.03200154 0.12980442 0.060257874 0.054910216 0.015397168 0.067776494
-0.068518676 -0.07579307 -0.18021111 -0.12757497 0.092561536 -0.13136087 0.021752056 0.039125886
0.00983167 -0.07162857 0.17631885 -0.1455993 0.14608952 -0.13935263 -0.029311197 0.08816968
00000000: 9497 b33d 4dbc 313e ffa3 c2bb cf6f c8bd
00000010: 084b 033e bf06 283e 5796 8b3d 5846 78bd
00000020: 1734 403e b97c 413d ab8e ddbd 6f4c 293e
00000030: b599 d83d 7093 a6bd d897 b73d 0fee d3bd
00000040: 5660 943c 6bc5 2b3e 843a 09ba 8dd7 0bbe
00000050: 4209 89bd a906 5fbd b1c5 873c 1452 103d
00000060: 0ad4 793e 7ec6 62bd 0373 4ebe 1cd2 56bc
00000070: 52d8 c03d 6084 d73d fcbe 1cbe 8b6d 10bd
00000080: bc02 95bd b88e 6fbd 3319 a63c 9644 dabd
00000090: 754e 783d 63d7 363e 51a4 323c 2eb8 debd
000000a0: 2269 b7bd 5bcf 203d 4ab0 04be 7481 b13d
000000b0: fd82 25be 4d56 14be b1f2 2cbe 3ad4 5cbc
000000c0: a6d2 023e 9510 1bbe 1808 e43d ecd5 eabd
000000d0: 2b01 e73d 0e57 483c 491a 4cbe 7363 e83d
000000e0: e2f2 f73d 81a3 783e b8b5 8a3d c072 14be
000000f0: 7cf5 193e 0db7 00bb b3b5 8b3d e41c ddbd
00000100: 43d0 96bd 6e77 5fbe d28c 73bd f091 893c
00000110: 0c70 17be afcc 483d 3f4b a13d ab96 eabb
00000120: 1c2c 07be 94b3 eebd aae2 2abd f512 ac3d
00000130: 02b9 343e 3a9c b73d 039b c8bc ae79 af3d
00000140: d8b7 13be 923c 23be a991 563d 747e 74bd
00000150: a25b b23d 8a48 17be 01c6 87bd db56 25be
00000160: 71aa ae3d 25e9 32bb cd3f 0d3e 0c88 e83d
00000170: 406b cf3d 0bff 7cbb 4faf 193c 7da0 4ebd
00000180: f728 51bd aabb 9a3d 42d0 12be 657e 223e
00000190: 5cc7 45bd b316 2dbe 13f7 20be 65a0 0e3e
000001a0: d003 3d3e e0e3 17be f80b fd3d d462 ad3d
000001b0: 5898 023e 5071 143e a7d5 88bd 76d1 963d
000001c0: ec24 673d 6323 64bd a549 9a3d bb2f 96bd
000001d0: 6d86 413d 8ddd 1cbd 46b1 81bd 50e8 cd3d
000001e0: 09fb 593d e309 b7bd 458e 573b 90e8 b83d
000001f0: d79f 7ebc 40b8 9a3c 9f51 83bd e194 9d3d
00000200: 1159 16be a582 dfbd 34b1 cebd 5ce0 313e
00000210: 360d 7cbd 0015 e036 303f b7bd 1ea2 313e
00000220: 188c 393e 69f9 01be f9a5 12be 62fa 04be
00000230: 9d40 28bb 3e50 82bd fa33 eabd df17 84bd
00000240: e1dd 0a3d 3462 a3bd a2ff 333d c46d c9bc
00000250: 4360 b5bd 2d2e 683b fdd6 fd3d 8364 fcbd
00000260: ea2c 0a3d 00e7 8dbd 3388 353e 833d 24be
00000270: e924 14be ba52 323e e742 08be f242 ec3c
00000280: 828c c5bb 4c5b 36bd 1f76 5bbd 9b49 e33d
00000290: 41db 50bc c36f 39be 79c7 debd 8894 69bd
000002a0: 8c70 b33d 8034 e6bd cea1 2c3e 25d7 cfbc
000002b0: f249 ffbc 53fe 1b3e 6cd4 9f3d 66a2 cf3d
000002c0: 4a6e 143e 6f40 6fbd 3f17 0fbe 1216 d3bc
000002d0: 0488 0b3e 28c4 e8bc 5572 33be 52d2 8c3d
000002e0: 5c84 343e 5b9a 4fbd cf31 19be 530d 35be
000002f0: 93a2 7d3d b269 2dbd 61d2 72bd 1d1f 663c
00000300: 4640 803d 8cfd 113e 2975 193e 229b 333b
00000310: 54fd 19be f8c6 3bbe a4b8 233e 1c97 d43d
00000320: 6035 973d 8eec 1cbe 6f19 353e 8725 1c3e
00000330: 6a01 2d3e b2a3 2cbe bf46 3bbd 32e1 f6bd
00000340: 96f2 343e 61dd 70bd 0ee1 d9bd e4af f33d
00000350: d330 44bd e724 b7bd 74b0 ffbc 8bfe de3b
00000360: 3fa3 07be e90c 123e 618a adbd 2061 8c3d
00000370: 8706 193e 906b da3d d52f 813c a02a 103e
00000380: 627d bf3c bda8 9bbd e099 2f3e b374 2f3d
00000390: 6fc7 32be 8467 50bd a83f c9bd af63 1a3e
000003a0: 5afd 63bc 5c0c 05be 0c14 03bd 73eb 043e
000003b0: f6d0 763d 89e9 603d 6744 7c3c 67ce 8a3d
000003c0: 8553 8cbd 6639 9bbd 4389 38be 03a3 02be
000003d0: e790 bd3d 7783 06be 5e31 b23c 7742 203d
000003e0: 0315 213c 00b2 92bd ee8c 343e fc17 15be
000003f0: 7e98 153e 75b2 0ebe 091e f0bc 4e92 b43d

bias f4 [128]
0.07288926 0.15057504 -0.054963827 -0.03726077 0.03137427 -0.054148618 -0.060084485 -0.17832418
0.13713431 0.16578084 -0.16059293 -0.066199645 -0.14072065 -0.06414415 0.16359514 0.09637733
-0.027053867 0.10422899 0.050979767 0.11928001 -0.1311444 0.045853082 -0.16176178 -0.10579079
-0.05643173 0.010213201 -0.15254313 -0.0063647963 0.043035105 -0.10103647 0.09081129 0.15216757
-0.027548715 -0.07308082 -0.16525315 -0.14906631 -0.10685255 -0.13292994 -0.075145245 0.12515263
0.044476256 0.15900241 0.1905289 -0.06432093 -0.07568 0.03384621 -0.097661935 0.09136492
-0.030841397 -0.15987058 -0.13234453 -0.10134093 0.05233962 0.14100935 0.13821672 -0.042285077
-0.1134806 -0.0779272 -0.109430626 -0.02134516 -0.14417282 0.094630726 -0.16579074 -0.11795826
0.14584361 -0.13410981 0.04383587 0.12714033 0.17706113 0.1081738 -0.05771848 0.09745457
0.008633197 -0.028174944 -0.0022319148 0.044105 0.14070876 0.0890505 0.09216178 0.026363019
-0.009026801 0.07810505 0.062441994 -0.15356497 0.024619348 -0.0513181 -0.06912341 0.09133264
0.050392956 0.03227052 -0.08349983 0.10685895 0.16948499 0.03361252 0.047702733 -0.1457077
0.10761821 0.04776045 0.09213211 0.082733646 -0.036220156 0.017561637 0.17506596 0.14021224
-0.113082185 0.14157115 0.17552881 0.018389134 -0.1448884 0.026784632 -0.04734845 0.14012805
-0.17288473 0.068977706 0.034618095 -0.009658989 0.11452796 0.016914876 -0.12892617 -0.10501755
-0.07780981 0.041677494 0.05952329 -0.019247008 -0.07561504 0.08054469 -0.17996795 0.11694676
00000000: f746 953d 5830 1a3e c021 61bd c09e 18bd
00000010: 4e82 003d f1ca 5dbd 261b 76bd 9d9a 36be
00000020: f06c 0c3e 74c2 293e 7972 24be ae93 87bd
00000030: 1319 10be 025e 83bd 7c85 273e 7a61 c53d
00000040: 12a0 ddbc 0276 d53d 29d0 503d 1449 f43d
00000050: b84a 06be 71d0 3b3d e1a4 25be d7a8 d8bd
00000060: f524 67bd 4555 273c 4434 1cbe c88f d0bb
00000070: 9445 303d 35ec cebd 45fb b93d d1d1 1b3e
00000080: d8ad e1bc 66ab 95bd 1f38 29be d7a4 18be
00000090: 82d5 dabd c91e 08be c0e5 99bd 0328 003e
000000a0: bc2c 363d 87d1 223e 021a 433e b1ba 83bd
000000b0: 1efe 9abd 53a2 0a3d fb02 c8bd 881d bb3d
000000c0: 19a7 fcbc 1db5 23be 5385 07be d58b cfbd
000000d0: 1262 563d c164 103e af88 0d3e 1e33 2dbd
000000e0: 8468 e8bd 4c98 9fbd 2a1d e0bd 0cdc aebc
000000f0: 0aa2 13be c1cd c13d 0cc5 29be 1a94 f1bd
00000100: 0758 153e 1554 09be 3e8d 333d 1331 023e
00000110: 834f 353e 3a8a dd3d 366a 6cbd 4396 c73d
00000120: 4172 0d3c 24cf e6bc 5145 12bb 72a7 343d
00000130: f515 103e 1c60 b63d 51bf bc3d 42f7 d73c
00000140: 26e5 13bc 8af5 9f3d 2dc3 7f3d 2340 1dbe
00000150: 84ae c93c ee32 52bd 9390 8dbd 9b0c bb3d
00000160: d868 4e3d 182e 043d f501 abbd ddd8 da3d
00000170: 798d 2d3e 48ad 093d f163 433d 6634 15be
00000180: f066 dc3d 76a0 433d c2af bc3d 4270 a93d
00000190: 965b 14bd 6cdd 8f3c 7e44 333e cc93 0f3e
000001a0: a297 e7bd 07f8 103e d3bd 333e cfa4 963c
000001b0: a05d 14be 726b db3c 73f0 41bd ba7d 0f3e
000001c0: b208 31be 2f44 8d3d b4cb 0d3d bc40 1ebc
000001d0: a38d ea3d 1191 8a3c 3905 04be 7113 d7bd
000001e0: c05a 9fbd 05b6 2a3d b1ce 733d e7ab 9dbc
000001f0: 0fdc 9abd 9df4 a43d 8549 38be c881 ef3d

weight f4 [128, 128]
0.027929105 0.06580862 0.06599435 0.019608913 0.020220116 -0.05385688 0.06264998 0.04472006
-0.013237289 0.040662136 -0.008681039 0.075241566 0.036074538 0.0745936 -0.042446367 0.08585353
0.04570278 0.055921588 0.013134333 0.06333679 0.09525961 0.0011323057 -0.06451777 0.07902941
-0.019462854 -0.014328124 0.067619026 0.04538337 0.033718724 0.0014899774 0.006125958 0.075198404
0.07307756 0.0639158 0.0571453 -0.048595436 0.021611692 -0.07116389 0.04297574 -0.11611651
-0.10051975 -0.08118935 0.027775904 0.013853701 -0.0015854964 0.019102426 -0.008219512 -0.023345279
-0.05486945 -0.011411559 -0.043486055 0.0056464486 0.070203975 -0.060791627 0.038283132 -0.06968595
-0.041602585 0.02127205 0.038070224 0.09307569 0.0085656615 -0.033475675 -0.038801324 -0.015405329
-0.046679143 -0.07023995 -0.04062891 0.0019827448 -0.05891615 -0.06439846 0.059045583 0.07634905
-0.017109454 -0.051885158 -0.027465645 0.008905983 0.034884784 -0.021292506 -0.07216726 -0.017990831
-0.042060692 0.061607946 -0.03814059 0.024625676 0.005574744 -0.0051231026 -0.074685715 0.10249283
-0.011784093 0.06724923 -0.041969433 -0.063458465 -0.060720704 -0.03188636 -0.015072121 -0.02617617
0.072859116 -0.0862356 0.05424991 0.07449203 0.00544856 -0.038049925 0.009515878 0.0323298
0.05113801 -0.038938534 -0.046766832 -0.05568735 -0.078108236 0.03290331 -0.0705171 -0.024842639
0.012333573 0.088993184 0.10172423 -0.062191006 0.08284872 0.0896691 0.091556594 0.017086208
0.053369295 0.05451014 -0.06346259 -0.042843968 -0.006819626 -0.069779776 -0.034271922 0.06618993
0.021524737 0.08008605 0.016487973 -0.056892507 0.062475555 -0.0013829683 0.030319965 -0.023623286
0.019797826 -0.049805474 0.05973341 0.08948433 0.05586292 0.06355388 0.03401715 -0.03680517
-0.06529008 0.004808095 0.07539647 0.014452868 0.0069148736 0.07332315 0.052291516 0.069507405
0.025053088 0.00879242 -0.021598848 0.0027896133 -0.042552155 0.07682763 0.05278882 0.035014413
-0.0036071884 -0.055926077 -0.091430224 0.0074374476 -0.07442346 -0.07376008 0.0070025595 0.008795175
0.0414127 -0.058805965 0.053854175 -0.08489797 -0.021783106 -0.018828578 -0.008571232 0.048189204
-0.028334243 0.024028968 -0.021488957 -0.037207615 -0.0039398726 0.011068083 -0.08199651 -0.06638969
0.087204136 0.027791906 -0.0024694286 -0.008430874 0.01058872 0.042665873 -0.05768368 -0.004723257
-0.09090875 -0.08083268 -0.038345587 -0.014066696 0.06185964 0.013057301 0.00083356316 0.017177109
0.045382466 -0.04402328 0.0059410506 -0.0032851351 -0.05755922 -0.011106871 -0.051647123 -0.051618803
-0.050605886 0.06544651 -0.09143613 0.12021748 0.048372813 -0.07170418 0.10087181 -0.018518982
-0.06293142 -0.01693914 0.051575813 -0.087762386 -0.0070121107 0.0080819195 -0.037615 0.001123636
-0.025418751 -0.04445967 0.079079315 -0.050766982 0.0019917684 0.033303242 -0.040602997 0.03146252
-0.08058311 0.099859506 0.04703809 -0.0027314764 -0.065821424 0.007862492 0.053884204 -0.046708763
-0.011147786 -0.12475704 -0.09556005 -0.0029053772 0.06494959 0.011059464 0.02949631 -0.013079349
-0.004811562 -0.01201955 -0.05190322 0.043247603 0.06938737 -0.040934943 0.024518656 -0.018291041
00000000: 94cb e43c abc6 863d 0c28 873d dfa2 a03c
00000010: a8a4 a53c 0899 5cbd a24e 803d 622c 373d
00000020: 37e1 58bc 578d 263d eb3a 0ebc 4018 9a3d
00000030: e5c2 133d 88c4 983d 3edc 2dbd fad3 af3d
00000040: d732 3b3d 090e 653d 6331 573c b8b6 813d
00000050: 7817 c33d e069 943a e521 84bd 2cda a13d
00000060: 9070 9fbc 82c0 6abc d87b 8a3d eae3 393d
00000070: a51c 0a3d 584b c33a 43bc c83b 9f01 9a3d
00000080: b0a9 953d 49e6 823d 3111 6a3d 020c 47bd
00000090: 010b b13c 60be 91bd 5407 303d 7ece edbd
000000a0: 4cdd cdbd 9a46 a6bd 4b8a e33c a2fa 623c
000000b0: 6ed0 cfba b17c 9c3c 22ab 06bc 993e bfbc
000000c0: cabe 60bd 8cf7 3abc 6f1e 32bd d805 b93b
000000d0: 1ac7 8f3d a400 79bd c6ce 1c3d 82b7 8ebd
000000e0: 7967 2abd b942 ae3c 86ef 1b3d 789e be3d
000000f0: fd56 0c3c ca1d 09bd 23ee 1ebd a266 7cbc
00000100: a132 3fbd f7d9 8fbd 806a 26bd f0f0 013b
00000110: 1052 71bd 57e3 83bd c8d9 713d e45c 9c3d
00000120: 2029 8cbc 8885 54bd a2ff e0bc 66ea 113c
00000130: 59e3 0e3d 9f6d aebc 6ecc 93bd 8261 93bc
00000140: d547 2cbd 9d58 7c3d 4f39 1cbd c9bb c93c
00000150: 58ac b63b b3df a7bb d3f4 98bd c3e7 d13d
00000160: 1212 41bc f7b9 893d 24e8 2bbd 83f6 81bd
00000170: 46b6 78bd 469b 02bd 0ff1 76bc 686f d6bc
00000180: 2937 953d 4a9c b0bd 2735 5e3d 478f 983d
00000190: d689 b23b 3dda 1bbd 7ce8 1b3c 416c 043d
000001a0: 1776 513d 037e 1fbd 948e 3fbd 6b18 64bd
000001b0: 36f7 9fbd 9fc5 063d 456b 90bd ca82 cbbc
000001c0: c112 4a3c 0f42 b63d cb54 d03d ffbb 7ebd
000001d0: 97ac a93d 6fa4 b73d 0682 bb3d 60f8 8b3c
000001e0: c399 5a3d 0646 5f3d adf8 81bd 287d 2fbd
000001f0: 2b77 dfbb b3e8 8ebd b760 0cbd 968e 873d
00000200: a554 b03c 2804 a43d c911 873c 1e08 69bd
00000210: 5ee6 7f3d b744 b5ba 9361 f83c 9f85 c1bc
00000220: 0d2f a23c d300 4cbd 05ab 743d 8f43 b73d
00000230: 84d0 643d 8928 823d 9155 0b3d 05c1 16bd
00000240: ceb6 85bd 398d 9d3b 7769 9a3d b9cb 6c3c
00000250: 2a96 e23b 732a 963d a12f 563d e659 8e3d
00000260: 223c cd3c 150e 103c 11f0 b0bc f2d1 363b
00000270: 2b4b 2ebd ce57 9d3d 1739 583d 466b 0f3d
00000280: 9466 6cbb be12 65bd c53f bbbd d5b5 f33b
00000290: 546b 98bd 860f 97bd ba75 e53b a319 103c
000002a0: 5da0 293d 86de 70bd 3296 5c3d fdde adbd
000002b0: 7c72 b2bc 643e 9abc 5a6e 0cbc 0b62 453d
000002c0: 371d e8bc 66d8 c43c 9c09 b0bc 0367 18bd
000002d0: 0c1a 81bb e856 353c c9ed a7bd 51f7 87bd
000002e0: 1598 b23d daab e33c 23d6 21bb a621 0abc
000002f0: 507c 2d3c 69c2 2e3d b945 6cbd 8dc5 9abb
00000300: 5e2e babd 9b8b a5bd 4310 1dbd 0078 66bc
00000310: 8960 7d3d 4aee 553c 7a83 5a3a 02b7 8c3c
00000320: f7e2 393d c151 34bd 25ad c23b 6c4b 57bb
00000330: 37c3 6bbd 98f9 35bc ef8b 53bd 3d6e 53bd
00000340: 1e48 4fbd d208 863d de42 bbbd 9534 f63d
00000350: 9222 463d a4d9 92bd e195 ce3d 1fb5 97bc
00000360: 30e2 80bd f4c3 8abc 2941 533d c4bc b3bd
00000370: d9c5 e5bb 076a 043c 3012 1abd f846 933a
00000380: fc3a d0bc 581b 36bd 56f4 a13d 0af1 4fbd
00000390: 5488 023b fb68 083d 544f 26bd d8de 003d
000003a0: c208 a5bd 2483 cc3d 03ab 403d 9202 33bb
000003b0: 62cd 86bd afd1 003c afb5 5c3d b051 3fbd
000003c0: 34a5 36bc 9e80 ffbd fdb4 c3bd 2468 3ebb
000003d0: 4a04 853d c132 353c 3fa2 f13c c44a 56bc
000003e0: 4faa 9dbb a6ed 44bc 7998 54bd 6624 313d
000003f0: f71a 8e3d 66ab 27bd 59db c83c 18d7 95bc

bias f4 [128]
0.05582517 -0.0074499776 0.05081039 -0.019645251 0.068300895 -0.037039638 -0.016058259 0.05451746
-0.027680049 0.08018314 0.070601486 -0.066700235 0.036366712 -0.052752014 0.03128503 -0.06745451
0.021553824 0.041988056 0.063499115 -0.017798886 -0.049429353 -0.018521003 0.08129126 0.0024734999
0.07521533 0.012429642 -0.09988421 0.05558403 -0.04012845 0.044404395 -0.017339127 -0.03268155
0.05420448 0.004620884 -0.08392639 0.08435692 0.09459669 -0.078249685 0.029464124 0.005037269
-0.048881408 -0.028438287 -0.069748506 -0.071534604 0.0540138 -0.023068996 0.004401616 0.02014556
0.046133675 -0.0346927 -0.01002078 -0.03510669 0.034014177 0.0050001508 0.09091163 0.0073909466
-0.069406085 0.0595924 0.06294389 -0.011105959 -0.004633404 0.06792107 0.010763354 -0.0006441447
0.06387087 0.060610507 0.0060023163 0.05831338 0.005987607 -0.034061946 0.07311701 0.067978755
0.04434801 0.0038518603 0.026826233 -0.07171855 0.0309624 0.042049512 -0.030403908 -0.059114773
0.010657791 0.063769415 -0.048381276 0.062314466 -0.03965826 -0.033382256 0.09301412 -0.06339943
0.07505875 0.05815937 0.010574337 -0.047470897 -0.004546386 0.078081615 -0.053593263 0.08744199
0.04385071 -0.073506914 0.07850233 0.013541077 -0.007981026 -0.05333013 0.10220861 -0.061759073
-0.050192796 -1.8264403e-05 -0.008860754 -0.052707076 0.059481025 -0.020720437 0.036650144 -0.012935996
-0.028659716 -0.08824316 0.07920244 0.050617933 0.08471817 -0.06334249 0.013048287 -0.044684377
-0.052839737 0.011319394 0.039317764 0.039074298 -0.05955205 -0.055795185 0.09399453 0.046721898
00000000: efa8 643d f11e f4bb 8e1e 503d 14ef a0bc
00000010: 57e1 8b3d e0b6 17bd 9c8c 83bc b34d 5f3d
00000020: 45c1 e2bc 0f37 a43d 8397 903d 229a 88bd
00000030: 43f5 143d 7f12 58bd bb24 003d 9725 8abd
00000040: a591 b03c abfb 2b3d d30b 823d f8ce 91bc
00000050: 6f76 4abd 5cb9 97bc 087c a63d 711a 223b
00000060: 7f0a 9a3d b2a5 4b3c 1890 ccbd 14ac 633d
00000070: bb5d 24bd 62e1 353d c90a 8ebc 17dd 05bd
00000080: 8405 5e3d c96a 973b 99e1 abbd 52c3 ac3d
00000090: e9bb c13d 5f41 a0bd bf5e f13c ad0f a53b
000000a0: df37 48bd 69f7 e8bc 4ed8 8ebd bc80 92bd
000000b0: 933d 5d3d 31fb bcbc 6e3b 903b 4d08 a53c
000000c0: aaf6 3c3d ef19 0ebd 332e 24bc 08cc 0fbd
000000d0: 7352 0b3d 4ed8 a33b e02f ba3d c12f f23b
000000e0: c724 8ebd 2917 743d bae8 803d c5f5 35bc
000000f0: cfd3 97bb 341a 8b3d c758 303c d2db 28ba
00000100: bbce 823d b942 783d 14af c43b 03da 6e3d
00000110: b033 c43b 8a84 0bbd 5fbe 953d 7238 8b3d
00000120: 42a6 353d 7e6f 7c3b b0c2 db3c 2de1 92bd
00000130: dca4 fd3c 1c3c 2c3d 9e11 f9bc 5522 72bd
00000140: 049e 2e3c 8a99 823d 722b 46bd 743d 7f3d
00000150: b370 22bd d5bb 08bd 307e be3d 8fd7 81bd
00000160: 67b8 993d 8538 6e3d fc3f 2d3c d870 42bd
00000170: daf9 94bb 41e9 9f3d 9c84 5bbd c914 b33d
00000180: cd9c 333d cb8a 96bd d4c5 a03d 65db 5d3c
00000190: d9c2 02bc b270 5abd bf52 d13d 15f7 7cbd
000001a0: f696 4dbd 8236 99b7 b22c 11bc 60e3 57bd
000001b0: 60a2 733d e8bd a9bc 761e 163d 80f1 53bc
000001c0: c8c7 eabc d4b8 b4bd e434 a23d c054 4f3d
000001d0: b880 ad3d b5b9 81bd 7bc8 553c f706 37bd
000001e0: 7b6e 58bd fb74 393c aa0b 213d 5f0c 203d
000001f0: daec 73bd 7e89 64bd 3480 c03d 765f 3f3d

weight f4 [128, 128]
-0.018159192 0.05056152 -0.063394226 -0.012484648 0.033627383 -0.032344263 0.07725253 0.085586056
-0.06116134 -0.001949162 0.032421 0.025117414 -0.027145328 -0.062654525 0.015402313 0.06116968
-0.049244285 0.07932788 -0.012511794 0.08837124 0.013319806 -0.02193043 0.020102056 0.08183208
-0.0028397937 0.051505294 0.062288646 -0.07067884 0.07055233 -0.043731097 0.023277082 -0.05161477
0.042175323 -0.0074024503 0.08353364 0.09249929 0.026810365 -0.073003955 -0.014209275 0.013094823
-0.025666052 0.04975806 -0.07169338 0.053089473 -0.058655296 -0.00918471 0.027908104 0.06639464
0.007507874 -0.057848122 0.092944585 0.03915566 0.079115935 -0.053944595 -0.049723357 -0.041376937
0.067805655 -0.05618856 0.086487174 -0.00964682 0.024699694 0.01527861 -0.07581534 0.04815915
-0.070923485 -0.00095703546 0.032792702 -0.038345996 -0.03556822 -0.035978932 0.07196339 -0.02786031
-0.018286021 0.06945452 -0.09988064 0.030926106 0.04653171 -0.0015573152 0.08228712 -0.026001431
0.04539627 -0.0011468361 0.020228907 0.0045654294 -0.008582706 -0.066475295 0.017779268 0.068314955
0.066640146 0.057052378 0.02814676 0.034608994 0.02896201 -0.059123326 -0.010685305 0.06541321
0.034373324 0.06922153 0.059442747 0.02809972 -0.004585616 -0.03612433 0.033927172 -0.008759887
-0.046332598 -0.039585184 0.036529314 -0.046281543 -0.025545364 -0.0051083444 -0.049850322 0.019509863
-0.050714478 -0.028461006 -0.060317684 0.09203036 0.08387886 0.08400005 0.07662234 -0.009831226
-0.017721826 0.010843327 0.029038738 -0.026390495 -0.08506018 -0.057592086 0.08766881 0.04715945
0.06887326 0.05755725 -0.004470882 0.019617252 -0.029495245 0.022130622 -0.009860217 -0.039831758
-0.036966737 -0.021203978 0.011487665 -0.06225945 -0.0102227405 0.08054345 0.010553904 0.019130716
0.022083439 0.07257279 0.08313936 0.09649825 -0.026006393 0.05285792 0.0022225168 0.004497073
-0.024161322 -0.050068773 -0.037999153 -0.008660046 -0.013341273 0.0006671902 0.029747318 -0.010599148
0.0745369 -0.00023220366 0.08627363 0.05140519 0.03466445 -0.0019066927 -0.0044022845 0.011866064
-0.041554082 0.09106706 0.017935611 -0.04522627 -0.016430097 0.014436783 -0.069352515 -0.030820698
-0.04746811 0.10316558 0.08865054 0.05179077 0.093189865 -0.07031168 -0.05406835 0.06466253
0.06333757 0.009735944 0.05679203 -0.06069596 0.053647723 0.045851268 -0.04489926 -0.05568363
0.052789036 -0.015359782 -0.11028049 -0.0330976 0.040867064 0.041656543 0.028738165 -0.0777588
0.0719399 0.095507756 -0.07454766 0.010778473 0.0063041425 0.005702129 0.07989857 -0.10342408
0.0017747921 0.0817417 0.0658197 0.08922018 0.09619827 -0.069317505 0.027045693 0.0059754835
-0.032282494 -0.07689263 -0.04183652 -0.009613295 0.09500317 0.10168913 0.07808068 0.038312145
0.008233232 -0.04421221 -0.007814335 -0.039752673 -0.0041547115 -0.06512539 -0.05954219 -0.021196408
-0.07356914 0.046874262 -0.050775535 0.061501723 -0.041970395 0.06757099 0.06441038 0.07079551
-0.005911702 -0.05010973 -0.008225901 0.05943167 -0.0458431 0.07702439 -0.01525004 -0.07219813
0.10512875 -0.059762 0.08750613 0.09415064 0.01212094 -0.053219493 0.07802163 0.10533583
00000000: 96c2 94bc 9919 4f3d d5d4 81bd 698c 4cbc
00000010: debc 093d 6b7b 04bd 9336 9e3d be47 af3d
00000020: 5084 7abd 067b ffba e2cb 043d 09c3 cd3c
00000030: e15f debc 0451 80bd fc59 7c3c 0f8d 7a3d
00000040: 60b4 49bd a876 a23d 45fe 4cbc fbfb b43d
00000050: 513b 5a3c 72a7 b3bc 11ad a43c 9497 a73d
00000060: d51b 3abb 37f7 523d 6122 7f3d 11c0 90bd
00000070: bd7d 903d 611f 33bd 94af be3c 026a 53bd
00000080: 08c0 2c3d 4190 f2bb af13 ab3d 4570 bd3d
00000090: 69a1 db3c 1983 95bd 05ce 68bc ab8b 563c
000000a0: 9d41 d2bc 1ccf 4b3d fbd3 92bd 5974 593d
000000b0: 8940 70bd 777b 16bc 899f e43c eaf9 873d
000000c0: 9d04 f63b 27f2 6cbd bb59 be3d af61 203d
000000d0: 8907 a23d 02f5 5cbd b8aa 4bbd dd7a 29bd
000000e0: b1dd 8a3d fa25 66bd 3020 b13d b20d 1ebc
000000f0: 0357 ca3c 2353 7a3c 1345 9bbd 8742 453d
00000100: 5540 91bd 90e1 7aba a451 063d b110 1dbd
00000110: fbaf 11bd a55e 13bd 8b61 933d 4e3b e4bc
00000120: 91cc 95bc 2c3e 8e3d 398e ccbd bf58 fd3c
00000130: 0998 3e3d d41e ccba 2686 a83d f400 d5bc
00000140: 70f1 393d 6f51 96ba 18b7 a53c 9999 953b
00000150: 7a9e 0cbc 3324 88bd d4a5 913c b6e8 8b3d
00000160: a17a 883d c1af 693d 0994 e63c 29c2 0d3d
00000170: bd41 ed3c 4d2b 72bd 6b11 2fbc 5cf7 853d
00000180: 0bcb 0c3d 04c4 8d3d 3d7a 733d 6231 e63c
00000190: ef42 96bb 1bf7 13bd 38f7 0a3d a185 0fbc
000001a0: 40c7 3dbd 1324 22bd c39f 153d b791 3dbd
000001b0: 8344 d1bc e663 a7bb da2f 4cbd 26d3 9f3c
000001c0: fcb9 4fbd 0e27 e9bc ad0f 77bd 6a7a bc3d
000001d0: aec8 ab3d 3808 ac3d 2cec 9c3d 2713 21bc
000001e0: 5d2d 91bc 36a8 313c a6e2 ed3c e130 d8bc
000001f0: 0834 aebd aee5 6bbd b48b b33d 442a 413d
00000200: 6c0d 8d3d 27c1 6b3d 7a80 92bb 5cb4 a03c
00000210: 03a0 f1bc 474b b53c bf8c 21bc a026 23bd
00000220: 6f6a 17bd f7b3 adbc c236 3c3c c403 7fbd
00000230: 487d 27bc f7f3 a43d 48ea 2c3c 05b8 9c3c
00000240: 54e8 b43c 0ba1 943d f844 aa3d e0a0 c53d
00000250: 5c0b d5bc 8c81 583d a5a7 113b 2f5c 933b
00000260: f7ed c5bc ea14 4dbd 00a5 1bbd dee2 0dbc
00000270: 5b95 5abc 60e6 2e3a a6b0 f33c 0da8 2dbc
00000280: cda6 983d b27b 73b9 3bb0 b03d 408e 523d
00000290: 4ffc 0d3d fee9 f9ba 0a41 90bb e169 423c
000002a0: 9d34 2abd 5e81 ba3d b4ed 923c 2e3f 39bd
000002b0: 6998 86bc 4288 6c3c b108 8ebd b07b fcbc
000002c0: ec6d 42bd 7a48 d33d 6a8e b53d 8f22 543d
000002d0: 54da be3d 92ff 8fbd c676 5dbd ca6d 843d
000002e0: 21b7 813d 8283 1f3c c29e 683d 549c 78bd
000002f0: b7bd 5b3d 8ace 3b3d 49e8 37bd 8514 64bd
00000300: 5139 583d 98a7 7bbc bdda e1bd 5991 07bd
00000310: 3964 273d 0da0 2a3d 4d6c eb3c 0140 9fbd
00000320: 3a55 933d 9299 c33d 72ac 98bd 3198 303c
00000330: fb92 ce3b edd8 ba3b dda1 a33d 01d0 d3bd
00000340: 24a0 e83a 3168 a73d 7bcc 863d 12b9 b63d
00000350: 9903 c53d 56f6 8dbd ee8e dd3c fdcd c33b
00000360: a63a 04bd e279 9dbd c55c 2bbd 1581 1dbc
00000370: 0691 c23d 6442 d03d c3e8 9f3d 32ed 1c3d
00000380: aee4 063c dd17 35bd b207 00bc b3d3 22bd
00000390: 3f24 88bb 7660 85bd 83e2 73bd 17a4 adbc
000003a0: 6bab 96bd 3aff 3f3d 02fa 4fbd 3be9 7b3d
000003b0: 26e9 2bbd a962 8a3d 97e9 833d 3dfd 903d
000003c0: f3b6 c1bb dc3f 4dbd eec5 06bc 9f6e 733d
000003d0: f9c5 3bbd f7be 9d3d 4edb 79bc 9ddc 93bd
000003e0: be4d d73d 00c9 74bd 6a36 b33d 0dd2 c03d
000003f0: e896 463c affc 59bd cec9 9f3d 50ba d73d

bias f4 [128]
0.048535757 0.05300119 -0.076727085 -0.028172122 0.011295641 0.0041350815 -0.03460855 -0.07291557
0.029653095 0.07120462 0.032942418 0.048509646 -0.048849307 -0.07958879 -0.0612391 0.00288777
-0.07076054 0.08692302 0.0054346523 0.029176101 -0.012665689 0.08465256 -0.045410465 -0.030077871
0.043748904 0.0084534455 -0.042804785 -0.06179879 0.056921683 -0.02264999 0.07316255 -0.06408849
0.053066585 0.07949602 0.08398181 -0.07680521 -0.048200898 0.050512586 -0.008516795 0.028339593
0.012420439 -0.016148694 0.023799991 -0.016301671 0.048564848 -0.0645297 0.06721894 0.0020750673
-0.009344539 0.07232206 0.040731646 0.039341856 0.072504796 0.06084107 0.03739535 -0.016386515
0.0075034 -0.02072028 -0.009812241 0.062431764 -0.0907682 -0.06236429 -0.00561911 0.05859912
0.04684703 0.018363869 -0.011059214 -0.06859065 -0.025292635 0.07384387 0.017865986 -0.005499362
0.0023367119 0.06937054 -0.011812568 -0.028144201 0.058809362 -0.07093505 0.04909838 0.050399013
0.0666938 -0.028376238 -0.07198031 0.08489455 0.0914749 -0.08126918 0.07814321 -0.027871883
0.06047278 0.013810661 -0.015751133 0.057981327 -0.008189643 -0.050179813 -0.059986237 0.056454543
0.022991551 -0.03721624 0.05012775 -0.06894528 0.08068731 0.018840715 0.056305002 0.0086669205
0.06385325 0.053586453 0.061527357 -0.028033046 -0.087151654 0.05434795 0.019509576 0.0033654952
-0.037148368 0.048714656 0.027710145 0.05106827 -0.010184594 0.036705434 0.058811177 -0.09118748
-0.0008031651 -0.07999279 0.05992835 -0.025559625 0.027279934 0.047629114 -0.033031113 0.060249623
00000000: 6ecd 463d c717 593d 1723 9dbd 39c9 e6bc
00000010: 5a11 393c 947f 873b b2c1 0dbd c254 95bd
00000020: 0ceb f23c bad3 913d a1ee 063d 0db2 463d
00000030: 3616 48bd 73ff a2bd dad5 7abd be40 3d3b
00000040: e7ea 90bd b204 b23d 2b15 b23b b802 ef3c
00000050: c083 4fbc 525e ad3d 5300 3abd de65 f6bc
00000060: 0d32 333d 5280 0a3c 1254 2fbd ba20 7dbd
00000070: b626 693d 798c b9bc 3fd6 953d d440 83bd
00000080: 595c 593d cfce a23d a8fe ab3d 0d4c 9dbd
00000090: 4e6e 45bd 49e6 4e3d 078a 0bbc 6f28 e83c
000000a0: 197f 4b3c 444a 84bc 33f8 c23c 158b 85bc
000000b0: efeb 463d 2628 84bd 15aa 893d dafd 073b
000000c0: d619 19bc 971d 943d 3ad6 263d ed24 213d
000000d0: 657d 943d 7c34 793d de2b 193d 033d 86bc
000000e0: 15df f53b 94bd a9bc 86c3 20bc 73b8 7f3d
000000f0: aee4 b9bd b371 7fbd 8320 b8bb a105 703d
00000100: ace2 3f3d d36f 963c b531 35bc 4179 8cbd
00000110: 8032 cfbc 743b 973d b05b 923c fe33 b4bb
00000120: 8523 193b 2412 8e3d 8089 41bc ab8e e6bc
00000130: 16e2 703d 6546 91bd 621b 493d 326f 4e3d
00000140: c296 883d 4975 e8bc 6a6a 93bd 32dd ad3d
00000150: 3157 bb3d 7570 a6bd 8c09 a03d 9353 e4bc
00000160: 4eb2 773d 1c46 623c 8508 81bc d47d 6d3d
00000170: da2d 06bc 5989 4dbd 21b4 75bd e13c 673d
00000180: c758 bc3c 0e70 18bd c152 4d3d 2f33 8dbd
00000190: 633f a53d d857 9a3c 13a0 663d b3ff 0d3c
000001a0: 7ec5 823d 787d 5b3d 1c04 7c3d 8fa5 e5bc
000001b0: 917c b2bd f59b 5e3d 8cd2 9f3c a48f 5c3b
000001c0: e328 18bd 0589 473d 6300 e33c f62c 513d
000001d0: 49dd 26bc 7058 163d fde3 703d 80c0 babd
000001e0: 7f8b 52ba 43d3 a3bd 6e77 753d 6b62 d1bc
000001f0: 2b7a df3c bf16 433d a24b 07bd 4fc8 763d

weight f4 [128, 128]
-0.034964353 0.09262196 -0.01828755 0.000403538 0.066922255 -0.0342033 -0.008025279 0.04757393
-0.028964493 0.080328636 0.07220697 0.028878476 0.022986926 -0.05896047 -0.0101033095 0.037025724
-0.021371024 -0.03187742 0.0030766726 -0.06365294 0.054669548 -0.05938539 -0.043304145 0.033923905
0.0033039313 -0.043407064 0.045977805 -0.068208225 0.068298 0.09601006 0.08157814 0.11406776
0.026595764 0.0543182 -0.05833738 0.059564397 -0.043281257 -0.05297587 -0.056184296 0.017751751
0.09853269 0.01526845 0.034995034 -0.00026373434 0.029853674 0.09688556 0.012896238 0.042796154
0.025977403 -0.015571559 -0.051575594 0.015641604 0.019921599 -0.023910575 -0.027367407 0.0060748397
0.036122356 -0.009222802 -0.04296876 -0.045834087 -0.06788324 0.077279314 0.008371275 0.014397808
-0.02982156 0.08519616 -0.059256125 0.031585474 0.005644337 -0.072965235 0.058688942 0.011934647
-0.034030233 0.043148547 0.014271301 -0.04247531 0.013411941 0.025435377 -0.030167615 0.015021542
0.05831741 0.012806741 0.02944503 0.07122957 0.010840506 0.09364578 -0.0266939 0.049369637
0.06183952 0.10191555 0.021972314 0.09655136 0.016700387 0.021471117 -0.070236966 0.04508577
0.09014532 0.072532184 0.0595309 -0.061963275 0.084014796 0.05001337 -0.028409095 0.07084386
0.07401517 0.081399545 0.054503754 -0.108943954 0.079803854 -0.02408162 0.0163141 0.084367044
-0.06396405 0.10115203 0.016557086 0.06823015 -0.06777887 0.021854144 0.011829053 0.07950587
-0.016944427 0.07420637 0.055841487 -0.06637054 0.09966619 -0.009899877 0.042747717 0.033623815
0.06961131 0.0041293544 -0.028680542 0.00413764 0.029435227 -0.0058148946 -0.009815442 0.063981324
0.058086146 -0.0557904 0.06548891 0.045812525 0.009206954 0.08301159 0.043057952 0.09113474
-0.0028556068 -0.006228764 -0.017642094 0.021166567 0.037212767 -0.0047445446 0.057035837 0.10495239
0.04412067 0.010546944 -0.078555286 -0.081878245 -0.050831113 -0.008991857 -0.011658311 0.09363712
0.09005112 0.083027475 0.0058405497 -0.039984267 -0.02577168 -0.057627458 0.039629236 0.017247014
0.072250366 0.02508843 0.014211439 0.08267219 0.036226198 0.02827175 -0.06514061 -0.03226915
0.05422807 -0.024058733 0.069576316 0.006666259 0.02281927 0.078293934 -0.030764142 0.059668813
0.037948262 -0.029927995 0.08156233 0.005617174 -0.07564902 0.04902273 -0.018602034 0.006757901
0.102361634 0.050598025 -0.052576583 0.06770501 0.016017085 -0.028498815 -0.023353009 -0.00351999
0.068054594 0.04855431 0.07933955 -0.07146131 0.08291501 0.1013537 0.03469541 0.05659131
0.04377226 0.062695034 0.0736416 0.0630948 0.010489327 -0.005482204 0.0020068332 0.026918277
-0.008743604 -0.05708925 0.056469504 0.09360257 0.093437076 0.03919513 -0.046476085 0.07419472
0.07223069 -0.011740877 0.09584872 -0.050838448 -0.022614846 0.036747597 -0.027307792 0.01132184
-0.05099992 0.11193825 0.09260793 -0.0824078 0.09791689 -0.009303359 0.076715484 -0.03808598
0.090308316 -0.0022383009 -0.056171253 0.10097152 0.03591164 0.07135797 -0.04089918 -0.026662076
-0.01090391 -0.00027737173 0.026316235 0.05103497 0.048025575 -0.073910855 -0.020153234 0.05971336
00000000: c836 0fbd 95b0 bd3d c6cf 95bc f491 d339
00000010: 890e 893d c218 0cbd 767c 03bc e2dc 423d
00000020: f246 edbc 5783 a43d 3fe1 933d 8e92 ec3c
00000030: 144f bc3c 8980 71bd 5a88 25bc 49a8 173d
00000040: 4912 afbc e691 02bd 00a2 493b 795c 82bd
00000050: 2ded 5f3d 183e 73bd b05f 31bd cbf3 0a3d
00000060: c586 583b 9bcb 31bd 3953 3c3d c1b0 8bbd
00000070: d2df 8b3d eca0 c43d 7112 a73d 5c9c e93d
00000080: 5cdf d93c c37c 5e3d 2df3 6ebd ccf9 733d
00000090: b047 31bd 3afd 58bd 8121 66bd 1f6c 913c
000000a0: 82cb c93d 8528 7a3c f456 0f3d d345 8ab9
000000b0: b18f f43c f06b c63d be4a 533c 054b 2f3d
000000c0: 90ce d43c da1f 7fbc ee40 53bd d222 803c
000000d0: 9f32 a33c 1ce0 c3bc 9d31 e0bc 730f c73b
000000e0: 09f5 133d 3c1b 17bc 0300 30bd 86bc 3bbd
000000f0: 5e06 8bbd 9e44 9e3d ac27 093c c9e4 6b3c
00000100: 584c f4bc 537b ae3d 8db6 72bd c55f 013d
00000110: 21f4 b83b cc6e 95bd d163 703d 8a89 433c
00000120: 4963 0bbd 88bc 303d 2dd2 693c 97fa 2dbd
00000130: c2bd 5b3c da5d d03c 1322 f7bc ea1c 763c
00000140: 3dde 6e3d 5dd3 513c b436 f13c cfe0 913d
00000150: 619c 313c 5cc9 bf3d 2aad dabc d137 4a3d
00000160: 704b 7d3d 1ab9 d03d 48ff b33c b8bc c53d
00000170: 40cf 883c 32e4 af3c 66d8 8fbd dbab 383d
00000180: 1c9e b83d c18b 943d acd6 733d 34cd 7dbd
00000190: f30f ac3d d2da 4c3d 31ba e8bc 9616 913d
000001a0: 4495 973d ceb4 a63d 543f 5f3d 021e dfbd
000001b0: 3470 a33d d146 c5bc 26a5 853c a1c8 ac3d
000001c0: 95ff 82bd cc28 cf3d baa2 873c 40bc 8b3d
000001d0: a6cf 8abd 7607 b33c a5ce 413c f9d3 a23d
000001e0: 0acf 8abc 82f9 973d 0bba 643d 47ed 87bd
000001f0: ca1d cc3d 1833 22bc 3b18 2f3d 20b9 093d
00000200: 6090 8e3d 894f 873b 75f3 eabc 0a95 873b
00000210: 2522 f13c df8a bebb f3d0 20bc a408 833d
00000220: bdeb 6d3d 7984 64bd 0d1f 863d eaa5 3b3d
00000230: c4d8 163c fb01 aa3d 895d 303d daa4 ba3d
00000240: 2225 3bbb a91a ccbb 2786 90bc 8265 ad3c
00000250: 6a6c 183d 2078 9bbb 699e 693d 47f1 d63d
00000260: e0b7 343d 17cd 2c3c 98e1 a0bd c8af a7bd
00000270: 4934 50bd 9552 13bc 8002 3fbc d2c4 bf3d
00000280: b96c b83d 4f0a aa3d 1562 bf3b 8bc6 23bd
00000290: 211f d3bc c50a 6cbd 4452 223d 9c49 8d3c
000002a0: 00f8 933d 4086 cd3c 18d7 683c 0a50 a93d
000002b0: ec61 143d 289a e73c 7168 85bd a82c 04bd
000002c0: 411e 5e3d d216 c5bc 077e 8e3d a270 da3b
000002d0: 7aef ba3c 9258 a03d 1505 fcbc 4967 743d
000002e0: a36f 1b3d 8e2b f5bc 270a a73d 4510 b83b
000002f0: e0ed 9abd 0fcc 483d 4b63 98bc 6271 dd3b
00000300: faa2 d13d e03f 4f3d 8b5a 57bd eda8 8a3d
00000310: 4336 833c 5976 e9bc cf4e bfbc a2af 66bb
00000320: 3560 8b3d e2e0 463d c67c a23d 4f5a 92bd
00000330: 58cf a93d 8792 cf3d c61c 0e3d 4acc 673d
00000340: 8b4a 333d 4166 803d 68d1 963d d937 813d
00000350: 6ddb 2b3c 0fa4 b3bb 1385 033b b883 dc3c
00000360: 5541 0fbc 6bd6 69bd 914c 673d b4b2 bf3d
00000370: f05b bf3d 138b 203d b55d 3ebd 67f3 973d
00000380: afed 933d cf5c 40bc 554c c43d fa3b 50bd
00000390: c542 b9bc a684 163d 97b4 dfbc 3d7f 393c
000003a0: 4be5 50bd e23f e53d 3aa9 bd3d 6cc5 a8bd
000003b0: a788 c83d 1e6d 18bc 021d 9d3d 0b00 1cbd
000003c0: 91f3 b83d 75b0 12bb d413 66bd 28ca ce3d
000003d0: 1518 133d 2124 923d e685 27bd 6d6a dabc
000003e0: 50a6 32bc 346c 91b9 2595 d73c 0b0a 513d
000003f0: 77b6 443d 935e 97bd 6518 a5bc ff95 743d

bias f4 [128]
-0.051355153 -0.05340986 0.08704672 -0.07883418 0.06399338 0.0055415626 -0.024673466 0.011179486
0.050867863 0.0693693 -0.06016088 -0.058477312 -0.0049053165 -0.019499425 0.069268905 -0.012119815
-0.0076534376 0.015499745 -0.014439012 0.061456814 0.03481774 0.052552972 0.027671376 0.080949865
0.01047213 0.03747206 -0.005947387 -0.013342916 -0.0054961806 0.086130776 0.01067201 0.049724646
-0.05034419 -0.069847666 -0.0040769377 -0.007481892 -0.0059292796 -0.032252654 -0.03463909 0.03812567
0.03293811 0.043574233 0.058875147 0.07066437 -0.029719416 -0.0012284414 -0.015153006 -0.05965604
0.058905024 0.008167655 -0.06616644 0.016630433 0.019287463 -0.077605665 0.036514677 -0.044553343
-0.038782336 -0.0052290903 -0.007765716 0.004577657 -0.012539456 0.0864116 0.029437609 -0.06069369
-0.06034552 -0.021098947 -0.06488123 0.015224167 0.023949953 -0.08080474 -0.009627344 0.04051661
-0.058200672 -0.075446226 -0.0069362875 -0.034457892 0.05524928 -0.051388696 -0.06835726 -0.012323394
0.081495605 0.080584675 -0.013631601 -0.06161049 -0.054762278 0.09439514 0.0049206526 -0.05343024
0.032033388 0.08156791 0.031128364 0.006168077 0.019190418 -0.054117046 -0.05616385 0.011311073
-0.029625244 -0.023285063 0.028445557 0.06006814 0.022177195 0.020092612 -0.08682322 -0.0016303249
0.077527665 -0.065472454 -0.003349846 -0.0038259106 0.08722278 0.0055909446 0.08324676 -0.077671945
0.026000012 0.026539778 -0.053179495 0.0032063625 -0.043088034 0.0013844701 -0.055249766 0.07195972
0.042169858 -0.017259784 0.0049060304 0.0178298 -0.0016789853 0.07484854 0.08232453 -0.042772643
00000000: c859 52bd 4cc4 5abd 8d45 b23d d173 a1bd
00000010: f60e 833d ff95 b53b 0220 cabc 2a2a 373c
00000020: d25a 503d 7e11 8e3d 416b 76bd e885 6fbd
00000030: c7bc a0bb 42bd 9fbc dbdc 8d3d 3092 46bc
00000040: b0c9 fabb a4f2 7d3c 9b91 6cbc 24ba 7b3d
00000050: 0c9d 0e3d c941 573d 15af e23c 0bc9 a53d
00000060: 4c93 2b3c 4e7c 193d 4ce2 c2bb 3f9c 5abc
00000070: 4e19 b4bb 5565 b03d a7d9 2e3c 12ac 4b3d
00000080: b635 4ebd 4b0c 8fbd d597 85bb a92a f5bb
00000090: 674a c2bb 5c1b 04bd b8e1 0dbd aa29 1c3d
000000a0: 1dea 063d e57a 323d 1127 713d 7bb8 903d
000000b0: 2276 f3bc a703 a1ba 5044 78bc e459 74bd
000000c0: 6546 713d a1d1 053c 4582 87bd 8c3c 883c
000000d0: be00 9e3c b8ef 9ebd 6a90 153d 917d 36bd
000000e0: 3ada 1ebd ca58 abbb 8c77 febb 2c00 963b
000000f0: 4a72 4dbc 91f8 b03d 2427 f13c f299 78bd
00000100: dd2c 77bd b3d7 acbc 73e0 84bd c96e 793c
00000110: b132 c43c f57c a5bd 02bc 1dbc bff4 253d
00000120: d463 6ebd 8d83 9abd cc49 e3bb b823 0dbd
00000130: 124d 623d f47c 52bd e4fe 8bbd 10e8 49bc
00000140: 2be7 a63d 9409 a53d 1457 5fbc 485b 7cbd
00000150: 694e 60bd 3d52 c13d 6d3d a13b abd9 5abd
00000160: 7135 033d 140d a73d e900 ff3c 941d ca3b
00000170: 3935 9d3c d6a9 5dbd 110c 66bd 1452 393c
00000180: a4b0 f2bc 51c0 bebc a806 e93c 030a 763d
00000190: f3ac b53c 4399 a43c 5fd0 b1bd a0b0 d5ba
000001a0: d3c6 9e3d 6c16 86bd 1789 5bbb 21bc 7abb
000001b0: dba1 b23d 3e34 b73b 477d aa3d 7812 9fbd
000001c0: fafd d43c f369 d93c bed2 59bd d621 523b
000001d0: 147d 30bd 1c77 b53a 944d 62bd 9e5f 933d
000001e0: 4dba 2c3d 6464 8dbc c4c2 a03b cd0f 923c
000001f0: 6611 dcba 314a 993d c399 a83d 5e32 2fbd

weight f4 [1, 128]
-0.06334699 -0.07862554 -0.07693915 0.0679422 0.0726427 -0.013109007 -0.026214305 -0.036840595
0.07788133 -0.083687305 -0.00340005 0.0063059805 0.01783973 -0.04854144 0.065864936 0.07620391
-0.02915016 -0.09582011 -0.013405417 0.06499248 -0.05584784 -0.061843604 0.06435444 -0.09995206
0.06879402 -0.03004552 0.0051610814 -0.018306442 0.027664319 0.08052411 0.040819164 0.07547208
-0.0578688 0.01570901 -0.017375598 -0.08365867 -0.07985204 0.032536432 -0.02493874 0.029200185
-0.047889035 0.085818954 -0.045041583 0.077058986 -0.090165704 -0.04899726 0.012421004 -0.09075906
-0.072837494 0.006940664 -0.02033815 -0.05123276 -0.03754463 0.047251567 0.062248234 0.06728366
-0.07878616 0.028202621 -0.00808299 0.060477007 -0.056854777 -0.027164578 0.039395045 0.010822787
0.0038311258 -0.07149102 0.05421299 -0.0970803 -0.045965485 0.02062617 0.04308655 -0.015906533
0.04395733 -0.07412153 -0.038517725 -0.028098883 -0.0359867 -0.059684236 -0.0836258 0.037365828
-0.04495747 -0.030067563 -0.085635744 -0.033348728 -0.09661208 -0.047488403 0.061166756 -0.04806021
0.064605825 0.0047749556 -0.01794362 0.017188575 0.077488065 0.032674294 -0.07583045 -0.098094
-0.09227006 0.08469888 -0.05520313 -0.08974095 0.0135430815 -0.027976308 0.007307671 0.07790584
-0.04447379 -0.059084337 0.07922844 -0.09058764 0.084882185 -0.004915829 -0.018443292 0.0646298
0.07848577 0.05241922 0.054796617 0.03254052 0.026870372 -0.09144137 -0.110478036 -0.0889063
-0.08568892 0.09550749 -0.037039094 0.041742433 -0.053218458 -0.08460127 0.041593846 -0.006702009
00000000: 11bc 81bd 6d06 a1bd 4692 9dbd 4825 8b3d
00000010: b2c5 943d 29c7 56bc 62bf d6bc 2ae6 16bd
00000020: 3f80 9f3d 4064 abbd 60d3 5ebb 66a2 ce3b
00000030: a024 923c 64d3 46bd 32e4 863d cc10 9c3d
00000040: 51cc eebc 553d c4bd 65a2 5bbc c71a 853d
00000050: b4c0 64bd b84f 7dbd 43cc 833d aab3 ccbd
00000060: e1e3 8c3d 0622 f6bc 4a1e a93b 64f7 95bc
00000070: 48a0 e23c d3e9 a43d ff31 273d 1b91 9a3d
00000080: d607 6dbd 2fb0 803c 4557 8ebc 3d55 abbd
00000090: 7789 a3bd ec44 053d 544c ccbc 3a35 ef3c
000000a0: 4b27 44bd d9c1 af3d 867d 38bd 1ad1 9d3d
000000b0: cca8 b8bd 5ab1 48bd 7781 4b3c e3df b9bd
000000c0: d32b 95bd 826e e33b 319c a6bc 71d9 51bd
000000d0: 66c8 19bd dc8a 413d 01f8 7e3d 04cc 893d
000000e0: a35a a1bd 2f09 e73c 846e 04bc bdb6 773d
000000f0: 8ee0 68bd 4088 debc b35c 213d 0f52 313c
00000100: a013 7b3b e269 92bd 710e 5e3d 09d2 c6bd
00000110: 4e46 3cbd 37f8 a83c 867b 303d 6b4e 82bc
00000120: 9a0c 343d 07cd 97bd c3c4 1dbd a12f e6bc
00000130: ca66 13bd 7577 74bd 0144 abbd e90c 193d
00000140: 5325 38bd 4050 f6bc cb61 afbd ad98 08bd
00000150: 8edc c5bd 3383 42bd fe89 7a3d c8da 44bd
00000160: 0f50 843d 3b77 9c3b 80fe 92bc 0ecf 8c3c
00000170: 10b2 9e3d 7bd5 053d ff4c 9bbd 82e5 c8bd
00000180: 16f8 bcbd 9b76 ad3d ad1c 62bd 1aca b7bd
00000190: cde3 5d3c 922e e5bc 3075 ef3b 198d 9f3d
000001a0: 262a 36bd 6b02 72bd 8542 a23d 0386 b9bd
000001b0: b6d6 ad3d f614 a1bb 6316 97bc a15c 843d
000001c0: 26bd a03d 89b5 563d 6b72 603d 3549 053d
000001d0: 411f dc3c 9d45 bbbd 4f42 e2bd 8214 b6bd
000001e0: ac7d afbd 6e99 c33d 4eb6 17bd 1dfa 2a3d
000001f0: 99fb 59bd 6e43 adbd 4f5e 2a3d 879c dbbb
