bike_sharing/AutogluonModels/ag-20220403_213147/models/NeuralNetTorch_BAG_L2/S1F1/net.params (torch, 215879 bytes, 9 tensors)

weight f4 [128, 22]
-0.11912487 0.1852611 -0.15844248 -0.15364109 -0.08843346 0.106296405 0.06501681 0.18220618
0.047318928 0.05454752 -0.05389748 -0.013111896 -0.2183861 -0.12385477 -0.08719669 -0.0014019583
0.12355548 0.16056131 -0.11758418 -0.079697564 0.078632995 0.17801902 -0.16473089 0.25605804
-0.0026981516 0.015571623 0.15739067 -0.22232689 -0.15462399 -0.047801714 -0.07595444 0.1948253
-0.1437162 -0.1383231 -0.19753478 -0.12697561 -0.13326226 0.20988733 0.12474024 0.03310825
0.06864281 -0.063248985 0.054096207 -0.13740958 -0.16909795 -0.37718874 0.06781809 0.13551939
-0.09462838 -0.007051557 0.1314461 0.1425777 0.059422325 0.05331984 0.13449839 -0.036325447
0.025542228 -0.15785353 -0.106869265 -0.08881634 0.12564707 0.0020385294 -0.14711079 0.08515336
0.08827277 0.021861736 -0.075352326 0.21309884 0.13223177 0.12136424 -0.101136126 -0.122635916
0.04089948 0.19491816 0.14936583 0.18921065 0.09172923 -0.17240687 0.0025400938 -0.14875948
-0.25703803 0.15086624 0.12488 -0.13585973 0.028230699 -0.07570955 0.020255072 -0.1545943
0.10847515 -0.28268915 0.055443976 0.08329813 0.20068352 0.05913993 -0.21653238 -0.10751351
0.068338886 0.05894545 -0.122996345 -0.12675552 0.18565343 0.13141406 -0.07994445 -0.06559505
-0.22167572 0.0009790233 -0.1179185 -0.1516912 -0.054443378 0.100402154 -0.23020175 0.21650745
-0.12940332 0.14798546 0.08360185 -0.09897299 0.02342059 0.007913049 0.04578344 0.01900657
0.027191708 -0.03533513 -0.13031575 0.07717831 -0.21568294 -0.10221054 -0.033972293 -0.0671341
-0.07862619 -0.17838818 -0.093801305 0.07587219 -0.20998926 -0.1489741 0.066486984 -0.080284454
-0.009476609 -0.028002167 0.034463946 0.17853242 0.17942494 0.12400178 0.18463871 -0.010154614
-0.19955005 -0.16812824 0.12266271 -0.037000135 -0.14422753 -0.11341894 -0.22748737 -0.20617515
-0.12416211 0.12995997 0.28706756 -0.36720344 0.117298335 -0.1360945 -0.025942031 -0.08662058
-0.04494159 9.368278e-05 -0.11011282 -0.11527976 -0.00409889 0.00945175 -0.069457315 0.100539625
-0.14383115 0.0043602446 0.18736744 -0.025291195 0.13930762 0.100463204 -0.16619849 0.10595073
0.17772092 -0.29879642 0.10150677 -0.15337218 0.01592477 -0.097794205 0.09019088 0.0647284
0.06091053 0.030189067 -0.056577418 -0.039544053 -0.09645586 0.08342351 0.16258836 0.0765092
-0.20190227 0.0089595085 -0.10940219 -0.13724996 -0.14820752 0.09093412 -0.2334115 -0.3174742
-0.047052566 0.20615155 -0.14582026 -0.07186112 -0.057247646 0.08500227 -0.044119686 0.076666035
0.064165734 0.061352532 -0.036241125 -0.021399187 0.07059578 -0.045004643 0.010771401 0.0077739297
-0.071741015 -0.20299563 0.15698124 -0.10960564 -0.17909443 0.31017095 0.043388084 -0.06637609
-0.14485075 0.088945106 -0.16480555 -0.010165067 -0.09122877 -0.048977885 0.04358412 0.10631478
0.02831266 0.14763497 0.050526306 -0.17776299 0.059926923 -0.070885435 -0.1182833 0.00084331294
0.048793174 0.10018797 -0.24354276 -0.07051957 0.047810223 -0.24110566 0.13409384 -0.12359402
0.053046077 -0.014188027 -0.06440563 -0.0023796707 0.16185734 -0.060383454 -0.16477378 -0.0939927
00000000: bdf7 f3bd 16b5 3d3e bf3e 22be 1754 1dbe
00000010: 9a1c b5bd eeb1 d93d 8927 853d 4294 3a3e
00000020: 7ed1 413d 386d 5f3d 9bc3 5cbd 47d3 56bc
00000030: 9ba0 5fbe 92a7 fdbd 2e94 b2bd eac1 b7ba
00000040: a80a fd3d 2f6a 243e f9cf f0bd 7a38 a3bd
00000050: 560a a13d 9e4a 363e 37af 28be 0a1a 833e
00000060: 79d3 30bb 1f20 7f3c 052b 213e a9a9 63be
00000070: c055 1ebe bbcb 43bd 008e 9bbd 4980 473e
00000080: 572a 13be 92a4 0dbe 8f46 4abe e505 02be
00000090: e775 08be b4ec 563e d077 ff3d 849c 073d
000000a0: 9a94 8c3d af88 81bd fc93 5d3d 19b5 0cbe
000000b0: 0328 2dbe e21e c1be 36e4 8a3d 98c5 0a3e
000000c0: 86cc c1bd bf10 e7bb ce99 063e e3ff 113e
000000d0: d364 733d e865 5a3d f2b9 093e fec9 14bd
000000e0: ef3d d13c 5ba4 21be 46de dabd 57e5 b5bd
000000f0: a0a9 003e d998 053b 36a4 16be e364 ae3d
00000100: 5bc8 b43d 6217 b33c 5252 9abd 9536 5a3e
00000110: c467 073e d18d f83d 7520 cfbd 8a28 fbbd
00000120: 3786 273d a098 473e 5bf3 183e 70c0 413e
00000130: 89dc bb3d 6d8b 30be b477 263b 6854 18be
00000140: 7d9a 83be ae7c 1a3e 16c1 ff3d d01e 0bbe
00000150: 1144 e73c 9c0d 9bbd f7ed a53c f84d 1ebe
00000160: 3828 de3d a2bc 90be 3919 633d 3698 aa3d
00000170: fb7f 4d3e b63c 723d aaba 5dbe 0b30 dcbd
00000180: 42f5 8b3d c970 713d 82e5 fbbd 33cc 01be
00000190: ef1b 3e3e 6891 063e eab9 a3bd b356 86bd
000001a0: f6fe 62be 9252 803a 417f f1bd f054 1bbe
000001b0: 0500 5fbd a59f cd3d 02ba 6bbe 21b4 5d3e
000001c0: 4e82 04be 8089 173e 7237 ab3d 5ab2 cabd
000001d0: 8adc bf3c bca5 013c 6b87 3b3d abb3 9b3c
000001e0: 25c1 de3c 92bb 10bd 7e71 05be a90f 9e3d
000001f0: fddb 5cbe c253 d1bd 8826 0bbd 9a7d 89bd
00000200: c506 a1bd 64ab 36be e61a c0bd e162 9b3d
00000210: 6d07 57be ab8c 18be 542a 883d 2d6c a4bd
00000220: c743 1bbc cd64 e5bc 112a 0d3d 34d1 363e
00000230: 2cbb 373e a5f4 fd3d ee11 3d3e 8a5f 26bc
00000240: d956 4cbe cf29 2cbe 9636 fb3d 748d 17bd
00000250: 62b0 13be 3048 e8bd 73f2 68be 941f 53be
00000260: b448 febd 3a14 053e 85fa 923e 1702 bcbe
00000270: 1c3a f03d 5b5c 0bbe 6284 d4bc 2166 b1bd
00000280: ac14 38bd 8f77 c438 d582 e1bd cb17 ecbd
00000290: fb4f 86bb 83db 1a3c a33f 8ebd b8e7 cd3d
000002a0: 7948 13be 62e0 8e3b 40dd 3f3e 7b2f cfbc
000002b0: a8a6 0e3e a7bf cd3d f02f 2abe b2fc d83d
000002c0: 79fc 353e d8fb 98be c8e2 cf3d 990d 1dbe
000002d0: aa74 823c 5448 c8bd ffb5 b83d 5390 843d
000002e0: 527d 793d 104f f73c b9bd 67bd f2f8 21bd
000002f0: a68a c5bd f2d9 aa3d 907d 263e dbb0 9c3d
00000300: 78bf 4ebe e7ca 123c 410e e0bd 418b 0cbe
00000310: b6c3 17be ab3b ba3d 6d03 6fbe fa8b a2be
00000320: 31ba 40bd 6419 533e e851 15be ec2b 93bd
00000330: 827c 6abd ac15 ae3d d8b6 34bd 1503 9d3d
00000340: 5369 833d cb4c 7b3d 9371 14bd 594d afbc
00000350: 8594 903d ca56 38bd 887a 303c 73bc fe3b
00000360: f4ec 92bd 16de 4fbe b1bf 203e ec78 e0bd
00000370: 8864 37be bace 9e3e b4b7 313d 30f0 87bd
00000380: c153 14be da28 b63d c9c2 28be 628b 26bc
00000390: 26d6 babd 099d 48bd 4385 323d 90bb d93d
000003a0: f4ef e73c 9f2d 173e acf4 4e3d 8007 36be
000003b0: ef75 753d 622c 91bd 843e f2bd c611 5d3a
000003c0: 5adb 473d 5a2f cd3d 4663 79be 906c 90bd
000003d0: a7d4 433d 67e4 76be e54f 093e dd1e fdbd
000003e0: d846 593d e674 68bc 19e7 83bd 40f4 1bbb
000003f0: eebd 253e a454 77bd 75ba 28be 3f7f c0bd

bias f4 [128]
-0.17039882 -0.08947617 0.0018781715 -0.06906887 -0.07491511 0.10736418 -0.057603013 0.06269234
0.18562734 -0.12681574 -0.16931097 -0.102479726 -0.033893496 -0.0882295 -0.038629007 0.007401809
0.047996342 0.16081426 0.15741292 -0.0074641993 -0.009378863 0.032754958 -0.06542487 -0.06990883
0.11781332 -0.26271766 -0.1577557 -0.05461902 -0.09653508 -0.13477613 -0.20961502 0.14738868
-0.04726462 -0.08234402 -0.10880611 0.037255257 -0.17113617 -0.030465264 -0.004634001 0.057090737
0.09225563 -0.11853663 0.09276144 0.15561143 -0.040762365 0.074745566 -0.033435922 -0.0007109772
0.0018649815 -0.10064654 0.1045805 -0.24986798 -0.03303023 -0.1579059 -0.11981322 -0.17558712
-0.2552054 0.0017913585 -0.079227515 -0.16500792 -0.016537564 -0.06569745 0.038272638 -0.1633848
-0.030146653 0.025544392 0.08288051 0.032044016 0.04367777 0.18769814 -0.10801007 0.12632705
0.19840786 -0.19635831 0.037806526 0.13347834 -0.058512997 0.06916684 0.025163112 0.13797505
-0.031319436 -0.1188564 0.1263765 0.07821483 0.15881193 0.04499032 0.11813175 0.05762956
0.051203042 -0.07131603 0.034223773 -0.14592709 0.03413585 -0.01506683 0.0042591006 -0.13974363
0.06322434 -0.16682893 0.10232244 0.14260763 -0.22645341 0.16899382 -0.18025973 -0.046062715
0.08092079 -0.03295219 0.16564927 -0.11241802 -0.0032424482 -0.16111672 -0.08451543 0.22756357
0.11824834 0.012119503 -0.035776887 -0.15835789 0.13986042 -0.011466096 -0.061839156 -0.17226823
0.16599667 0.08082468 0.10576833 -0.0023957482 -0.12319803 0.107719466 0.03387989 0.08435724
00000000: 077d 2ebe 483f b7bd fa2c f63a fb73 8dbd
00000010: 186d 99bd c0e1 db3d 23f1 6bbd d764 803d
00000020: 1815 3e3e fcdb 01be db5f 2dbe e4e0 d1bd
00000030: e8d3 0abd abb1 b4bd 7339 1ebd e08a f23b
00000040: d097 443d 7eac 243e da30 213e 3e96 f4bb
00000050: cda9 19bc 102a 063d 79fd 85bd 5c2c 8fbd
00000060: 1c48 f13d ee82 86be b68a 21be 32b8 5fbd
00000070: 2fb4 c5bd c102 0abe 52a5 56be 0fed 163e
00000080: 8c98 41bd fba3 a8bd bdd5 debd f898 183d
00000090: 523e 2fbe 4a92 f9bc d1d8 97bb fad7 693d
000000a0: 85f0 bc3d 55c3 f2bd b6f9 bd3d 9a58 1f3e
000000b0: 70f6 26bd 3414 993d 1bf4 08bd df60 3aba
000000c0: 6572 f43a c61f cebd 4d2e d63d 64dd 7fbe
000000d0: b54a 07bd 16b2 21be a260 f5bd 1ccd 33be
000000e0: 48aa 82be 04cc ea3a 0942 a2bd d6f7 28be
000000f0: c979 87bc 628c 86bd c5c3 1c3d 584e 27be
00000100: 1df6 f6bc 7942 d13c 42bd a93d 9640 033d
00000110: 76e7 323d f133 403e 6234 ddbd e15b 013e
00000120: 6e2b 4b3e 2712 49be 04db 1a3d 8cae 083e
00000130: 53ab 6fbd 58a7 8d3d df22 ce3c 5549 0d3e
00000140: cf48 00bd fc6a f3bd d768 013e 192f a03d
00000150: 989f 223e c547 383d 0fef f13d f90c 6c3d
00000160: 48ba 513d 240e 92bd 3a2e 0c3d e96d 15be
00000170: 08d2 0b3d deda 76bc ed8f 8b3b f418 0fbe
00000180: c37b 813d 34d5 2abe 6d8e d13d bc07 123e
00000190: 67e3 67be b70c 2d3e 0296 38be 42ac 3cbd
000001a0: cdb9 a53d e0f8 06bd f69f 293e 6b3b e6bd
000001b0: 417f 54bb c8fb 24be 6d16 adbd 6d06 693e
000001c0: 302c f23d e190 463c c98a 12bd 9228 22be
000001d0: 9237 0f3e 4bdc 3bbc 0e4b 7dbd 1567 30be
000001e0: 08fb 293e 6987 a53d 119d d83d fc01 1dbb
000001f0: 404f fcbd 069c dc3d a4c5 0a3d 7dc3 ac3d

weight f4 [128, 128]
-0.03615583 -0.087788396 0.115473546 0.016772926 -0.021967752 0.0021985802 -0.025293775 0.01713341
0.062281933 -0.000102568454 0.04714563 0.056408834 0.003218862 -0.0051448913 0.03243261 -0.061064564
0.05975542 -0.052862927 0.019084932 -0.11216547 0.09464229 0.07149143 0.051394444 -0.0014328643
0.067910485 0.059266344 0.076560125 0.038452763 -0.09892018 0.023324164 0.01634704 -0.0017082483
0.06259524 0.015519856 0.014845653 0.05795353 0.01995856 0.0147632845 -0.0036248763 -0.015662933
-0.056321595 -0.01608573 0.018895669 -0.041951668 0.0050344514 0.058508486 0.07631174 -0.00028461454
0.008154693 -0.09603717 0.046859115 -0.046630137 0.074875824 -0.034594897 -0.033736028 -0.04035957
0.0031332034 -0.03787168 -0.065994024 0.07687147 0.043265793 -0.08688201 -0.020324573 0.026001085
0.1031854 -0.019757126 0.05831499 0.043667898 -0.01503866 0.065577656 -0.07350468 0.10138963
0.09931427 -0.023841858 0.042221665 0.1004195 0.041431654 0.020300549 0.019179767 -0.058117554
0.04069951 -0.02449099 0.11383637 -0.03327085 0.011898386 -0.03444345 0.041906297 -0.011036267
0.07883725 -0.06474351 -0.031604264 0.030477298 -0.041048363 -0.024044428 0.060042597 -0.0152879255
-0.052824207 -0.026440412 0.068745315 0.007901215 -0.044624288 -0.030248933 0.0671189 -0.025601191
-0.037540503 -0.0598634 0.023726719 0.031147828 0.04146642 0.053388022 0.09257331 0.05867034
0.021019101 0.04657311 -0.02589019 0.011505687 0.072493285 -0.005838311 -0.012479455 -0.016516179
-0.06084294 0.03658354 0.10458042 -0.06927435 0.049110215 0.022336796 0.03921766 -0.028105553
0.08494216 0.04514057 -0.07976908 -0.038559858 0.029042281 -0.031549968 0.003831236 -0.09674169
-0.05186742 -0.044406287 0.028735446 0.016601188 -0.034952845 0.07952634 0.0018131803 -0.009410101
-0.0068748235 0.07940422 -0.012558964 0.042933155 0.038257148 -0.0339129 -0.07600173 0.02015129
-0.0562426 0.052830532 -0.053288583 0.06987831 -0.114229165 -0.09360538 -0.02960127 -0.031118646
0.06981822 -0.05072757 -0.09246973 0.03770907 0.09882754 0.06409685 -0.07549074 -0.0946001
-0.06576124 0.041819092 0.011979176 -0.06538469 -0.010386095 -0.021738138 0.07964511 -0.032058585
0.091063954 -0.058698677 -0.07747199 -0.062261913 0.009602374 -0.06407867 0.0535694 0.0019482173
0.07073506 0.05432397 -0.085552 0.0058391253 -0.022780245 -0.035143904 0.019757139 0.08108604
0.013513261 -0.008509558 -0.056943007 0.01972814 -0.04787229 0.084752604 0.05807106 0.020769605
-0.029165171 -0.06535451 -0.002288632 0.10216241 -0.11728487 -0.09993628 0.008580866 0.045803983
-0.117853396 -0.13046037 -0.016909717 -0.019605387 0.050238773 -0.006979533 -0.07070926 -0.07758437
0.08476362 -0.017432606 -0.07055861 0.049384847 -0.043540582 -0.030465046 0.064711116 -0.10010723
-0.07906763 0.028151713 -0.07103022 -0.057546295 0.010371099 -0.03332796 0.05821356 -0.039972346
0.013831147 -0.030538904 0.0067821336 -0.0873445 -0.005025744 0.013253938 -0.063293174 -0.015152807
-0.015412278 0.04439313 -0.027785288 -0.079414174 -0.04506142 -0.008402643 0.047342423 -0.039138973
0.04332315 0.09613936 0.035744455 0.07029704 -0.010460019 0.01594999 0.0050618034 -0.006459741
00000000: 2318 14bd 67ca b3bd 657d ec3d 6067 893c
00000010: b7f5 b3bc 0e16 103b e434 cfbc 5d5b 8c3c
00000020: 571b 7f3d 051a d7b8 c71b 413d f30c 673d
00000030: 8bf3 523b 7a96 a8bb 0ed8 043d d61e 7abd
00000040: 19c2 743d cc86 58bd 0158 9c3c 03b7 e5bd
00000050: d1d3 c13d 196a 923d fb82 523d f3ce bbba
00000060: a714 8b3d 44c1 723d 8ecb 9c3d a580 1d3d
00000070: aa96 cabd 5112 bf3c 3aea 853c 4de7 dfba
00000080: ef31 803d fe46 7e3c 2f3b 733c ae60 6d3d
00000090: 2280 a33c b4e1 713c 558f 6dbb 8d4f 80bc
000000a0: 79b1 66bd 39c6 83bc 17cb 9a3c 83d5 2bbd
000000b0: 0af8 a43b 98a6 6f3d 5449 9c3d 5138 95b9
000000c0: 439b 053c 23af c4bd 58ef 3f3d 3eff 3ebd
000000d0: 7f58 993d 61b3 0dbd ca2e 0abd 1450 25bd
000000e0: 6e56 4d3b 561f 1bbd e027 87bd ca6e 9d3d
000000f0: 7937 313d 32ef b1bd b87f a6bc 3a00 d53c
00000100: de52 d33d b2d9 a1bc b3db 6e3d 1cdd 323d
00000110: b664 76bc 944d 863d 9f89 96bd 5ea5 cf3d
00000120: 4865 cb3d 0050 c3bc a0f0 2c3d bda8 cd3d
00000130: 3db4 293d 564d a63c e31e 9d3c ac0c 6ebd
00000140: 88b4 263d 54a1 c8bc 0b23 e93d 0447 08bd
00000150: 73f1 423c 9314 0dbd f0a5 2b3d 75d1 34bc
00000160: 6d75 a13d 3f98 84bd 7973 01bd 87ab f93c
00000170: 5422 28bd d2f8 c4bc 3aef 753d 357a 7abc
00000180: 325e 58bd 9099 d8bc 58ca 8c3d 1974 013c
00000190: f5c7 36bd 9ccc f7bc a275 893d 97b9 d1bc
000001a0: 12c4 19bd 5333 75bd 895e c23c bb29 ff3c
000001b0: b1d8 293d 66ad 5a3d 1397 bd3d 4f50 703d
000001c0: 4030 ac3c 72c3 3e3d aa17 d4bc 5982 3c3c
000001d0: 5c77 943d 4d4f bfbb a176 4cbc f04c 87bc
000001e0: 7236 79bd 9fd8 153d 422e d63d b6df 8dbd
000001f0: cb27 493d a8fb b63c b2a2 203d 9e3d e6bc
00000200: 28f6 ad3d 51e5 383d f95d a3bd f1f0 1dbd
00000210: 14ea ed3c 8a3a 01bd 7915 7b3b 8220 c6bd
00000220: ef72 54bd 5ee3 35bd 9966 eb3c 37ff 873c
00000230: b72a 0fbd b5de a23d 3ca8 ed3a d32c 1abc
00000240: 3346 e1bb ae9e a23d 1dc4 4dbc adda 2f3d
00000250: 87b3 1c3d 41e8 0abd cca6 9bbd 5114 a53c
00000260: a45e 66bd d464 583d 2145 5abd 5c1c 8f3d
00000270: fbf0 e9bd 2db4 bfbd 5d7e f2bc 88ec febc
00000280: dbfc 8e3d b6c7 4fbd c560 bdbd d374 1a3d
00000290: 1866 ca3d 3645 833d e49a 9abd b2bd c1bd
000002a0: d4ad 86bd 7f4a 2b3d 4e44 443c 69e8 85bd
000002b0: 712a 2abc 2e14 b2bc fa1c a33d dd4f 03bd
000002c0: bd7f ba3d 066e 70bd a2a9 9ebd 5906 7fbd
000002d0: 4753 1d3c ae3b 83bd 966b 5b3d 535b ff3a
000002e0: 8bdd 903d d082 5e3d e335 afbd 2256 bf3b
000002f0: a39d babc 0ef3 0fbd b9d9 a13c 7010 a63d
00000300: ba66 5d3c ac6b 0bbc 123d 69bd e99c a13c
00000310: bc15 44bd c692 ad3d ebdb 6d3d 0525 aa3c
00000320: cceb eebc 96d8 85bd e0fc 15bb 873a d13d
00000330: 0d33 f0bd 64ab ccbd c396 0c3c f59c 3b3d
00000340: 1f5d f1bd 6797 05be 3f86 8abc 7a9b a0bc
00000350: 2cc7 4d3d 91b4 e4bb 04d0 90bd 8ee4 9ebd
00000360: 8c98 ad3d d3ce 8ebc 0881 90bd c447 4a3d
00000370: 9c57 32bd d591 f9bc 4387 843d 0505 cdbd
00000380: 36ee a1bd 6c9e e63c 4b78 91bd aab5 6bbd
00000390: 8beb 293c e682 08bd 5871 6e3d 0bba 23bd
000003a0: 099c 623c b92c fabc a93c de3b ace1 b2bd
000003b0: ffae a4bb 0c27 593c da9f 81bd 7b43 78bc
000003c0: c783 7cbc 92d5 353d f99d e3bc e6a3 a2bd
000003d0: 5392 38bd 3dab 09bc 21ea 413d 3050 20bd
000003e0: 9e73 313d b6e4 c43d c768 123d e5f7 8f3d
000003f0: 8060 2bbc 8ea9 823c 7cdd a53b 3cac d3bb

bias f4 [128]
-0.0084928535 0.02750813 -0.07435235 -0.00078124314 -0.00998857 -0.071026325 0.006729195 -0.0535116
-0.087790295 0.07506238 0.010475125 0.08807093 0.09112095 -0.046708822 -0.025566258 -0.0210451
0.01470055 0.02293383 -0.021246962 0.08339993 -0.026327908 0.03455012 0.027564764 -0.029146302
0.059358682 0.04296216 -0.0117702205 -0.07203874 0.06774295 0.07794029 0.031088462 0.026943779
0.056150936 0.040360287 -0.028403435 -0.054406703 -0.049663793 0.06659467 -0.05639661 0.059427
-0.07195934 -0.04079675 0.06827485 -0.037961625 0.018129248 0.070798926 0.0155405775 0.054006524
-0.0058607687 -0.082841866 -0.040846832 -0.03658992 -0.036562737 -0.057022292 0.023274476 0.09679186
0.07774929 0.035626322 -0.05870255 0.01080443 0.024910174 0.07895524 -0.039609432 0.05248277
0.06529092 -0.01092119 -0.1167819 0.025081541 0.05493625 -0.080835536 0.072615296 -0.009256067
-0.1345206 0.034877222 0.04185082 -0.0016700466 -0.06253287 -0.04487355 0.053074192 0.05615116
0.066973306 0.022188634 0.060775388 -0.0062514963 0.045584127 0.041160855 0.0063356063 0.08814211
-0.04484141 0.09692908 -0.0016444036 0.06998775 -0.056038857 0.07737244 -0.03542441 -0.0026457491
0.07101833 0.0029566507 -0.02521604 -0.07101312 0.083279595 0.028468601 -0.017820269 -0.013467856
0.08365941 0.03669571 0.07101561 -0.025423065 -0.028617082 -0.031618595 -0.084407024 -0.011600991
0.002395924 -0.06289344 -0.035021123 0.018691596 -0.0074003213 -0.0723997 0.08845653 -0.039751146
0.01736094 0.062054135 -0.09347596 0.003528927 -0.09493868 0.09644464 -0.04209037 0.06070441
00000000: 9c25 0bbc bb58 e13c 0b46 98bd 57cc 4cba
00000010: 19a7 23bc 4076 91bd 9480 dc3b fb2e 5bbd
00000020: 66cb b3bd 4eba 993d dc9f 2b3c 885e b43d
00000030: 9f9d ba3d c051 3fbd 5470 d1bc c666 acbc
00000040: 93da 703c badf bb3c 1c0e aebc 95cd aa3d
00000050: a0ad d7bc 6d84 0d3d 80cf e13c 3ac4 eebc
00000060: 1722 733d 17f9 2f3d e2d7 40bc 0c89 93bd
00000070: d1bc 8a3d 299f 9f3d 3bad fe3c 33b9 dc3c
00000080: 86fe 653d d450 253d 52ae e8bc 90d9 5ebd
00000090: 436c 4bbd c962 883d 2200 67bd ba69 733d
000000a0: 6b5f 93bd 7e1a 27bd afd3 8b3d a67d 1bbd
000000b0: ca83 943c 07ff 903d e89d 7e3c f235 5d3d
000000c0: b10b c0bb ffa8 a9bd 024f 27bd 50df 15bd
000000d0: cfc2 15bd 3590 69bd 1daa be3c d03a c63d
000000e0: 053b 9f3d e8ec 113d 1672 70bd 1005 313c
000000f0: 6c10 cc3c 49b3 a13d 803d 22bd 2cf8 563d
00000100: 3fb7 853d caee 32bc 592b efbd ce77 cd3c
00000110: d504 613d 1a8d a5bd 54b7 943d c2a6 17bc
00000120: c5bf 09be 6bdb 0e3d c46b 2b3d 77e5 daba
00000130: 3c11 80bd 54cd 37bd 5364 593d c2fe 653d
00000140: 4d29 893d f0c4 b53c 9def 783d 5ad9 ccbb
00000150: 6cb6 3a3d 4998 283d eb9a cf3b da83 b43d
00000160: a0ab 37bd c182 c63d 0789 d7ba bd55 8f3d
00000170: 0089 65bd 7175 9e3d 3019 11bd 4e64 2dbb
00000180: 0f72 913d 5ec4 413b de91 cebc 546f 91bd
00000190: 7e8e aa3d fc36 e93c d0fb 91bc 48a8 5cbc
000001a0: a055 ab3d 3e4e 163d a270 913d 0844 d0bc
000001b0: 5f6e eabc 8082 01bd 97dd acbd 1512 3ebc
000001c0: ef04 1d3b 47ce 80bd 4f72 0fbd 1e1f 993c
000001d0: 657e f2bb 4b46 94bd b228 b53d 19d2 22bd
000001e0: 8838 8e3c 7a2c 7e3d 5370 bfbd 9245 673b
000001f0: 366f c2bd c484 c53d f466 2cbd 30a5 783d

weight f4 [128, 128]
0.004990265 0.01086203 0.016259184 -0.0432063 -0.011735826 -0.041031323 0.11739032 -0.10882748
0.031169718 0.12508252 -0.03133353 -0.029903095 -0.11649014 -0.0066230856 -0.0067164106 -0.0701358
0.08268088 -0.104755834 0.048992787 -0.011482383 -0.079046585 -0.075496465 -0.018023146 -0.112463795
-0.08243704 0.009841555 0.060673885 -0.09115191 0.05163828 -0.049230527 0.0824875 -0.04667357
-0.10676306 0.016679777 0.08312396 0.004159359 0.08683271 0.030425658 0.011594043 -0.063108884
0.06159742 -0.08569942 0.03554417 0.004849308 0.11337812 0.040441412 0.047003645 0.06801576
0.0021604784 -0.038102373 0.019995 0.07685108 0.025775928 -0.011447718 0.029919084 -0.07580905
0.07151845 -0.06165376 -0.12961087 0.011333218 -0.047683306 -0.018730735 0.02696202 -4.7183817e-06
-0.007641039 -0.10039287 -0.051414352 -0.019564155 -0.026610695 -0.10090083 -0.061107215 -0.08587015
-0.007865736 0.045257494 0.054892942 -0.0072126 0.0025240288 -0.075150095 -0.02916337 0.018815046
-0.10579945 -0.100263156 -0.012415927 -0.14696415 -0.031112956 0.00917315 0.06144489 -0.0009069096
0.04720644 -0.077749655 -0.07796544 0.031236524 0.071349464 -0.08777935 0.007077965 0.05353219
-0.11082898 0.027405662 0.08488786 0.007977476 0.04037081 -0.016011104 0.0033233531 -0.022580672
-0.0069912435 -0.044213075 0.018752085 -0.010433648 -0.0221944 0.01646021 -0.10331728 0.05442694
-0.11035173 -0.03739117 0.10454936 0.017181342 0.060448103 -0.060335442 0.016774474 0.060759902
-0.11860619 -0.10392097 0.08600194 0.009129895 -0.02888219 -0.07060901 0.010458809 0.033381134
0.021751126 0.0088982 -0.00884827 -0.04562174 1.2273443e-36 -1.1020358e-36 0.011428782 -0.0043574097
-0.006263185 0.008870087 2.976062e-32 -0.004341547 -0.008899682 0.008900227 -0.0044902544 -9.720841e-25
-0.047678716 -0.05278099 -0.023762839 -1.0905304e-36 0.006025052 -0.011572716 -0.014942676 -0.008890882
-0.056515474 0.037178505 -0.020135744 -0.0088985935 0.002176952 -0.014008204 -0.018533709 -0.0071193324
0.0075150393 -0.01292292 -0.010946827 -0.007126679 0.0020003682 0.008756143 4.1933186e-37 -0.01389231
-0.029160662 -0.009094625 -0.017744353 1.3310641e-05 -0.021290606 -0.008757374 -0.010058307 -0.0055630472
-0.009586112 -5.785975e-26 -0.04962953 -0.0017557403 -0.021068564 -1.5189618e-36 -0.008898663 2.78448e-29
-0.028874693 0.024747515 -0.0070019583 0.0042791446 -0.018258972 1.0941974e-36 -0.008906376 -0.005473145
-0.008910198 -1.184555e-36 -9.127713e-37 -0.065038644 -0.013531403 -0.008896006 -0.02145991 -0.01780489
2.8608497e-26 -0.010542232 -0.012450292 -0.012898557 -0.008890388 0.050238445 -0.027169753 -0.046206992
-0.025576092 -7.843323e-37 -0.036537457 -0.009405917 -0.017338114 -0.0007546269 -0.005156905 -0.0026392369
-0.0045506433 -0.0042480966 -0.012590371 -0.0017299204 -0.00888654 -0.01086682 0.0031559311 0.01039022
-0.007982154 -0.0040560807 9.4726776e-05 1.2229128e-36 -0.006645945 0.008898624 0.0037295779 -1.1813407e-36
-0.0063157957 -0.012654962 -0.014584145 -0.0059745056 -0.0084665585 -0.0027468712 -2.6868263e-32 -0.009364997
-0.024427569 -0.00889932 0.0058509577 -0.009768787 -0.03912661 -0.0028177456 -0.00047202158 -0.046110127
-0.011787821 -0.009923348 -0.0034047943 0.0059649455 -0.013092003 0.041777547 0.004138979 -0.018077845
00000000: 6085 a33b a8f6 313c fb31 853c 17f9 30bd
00000010: 9f47 40bc 7610 28bd 566a f03d f1e0 debd
00000020: a357 ff3c a215 003e 9657 00bd 56f7 f4bc
00000030: 6292 eebd 7806 d9bb 5615 dcbb 5ca3 8fbd
00000040: 9854 a93d 3a8a d6bd a9ac 483d 9b20 3cbc
00000050: 2de3 a1bd e49d 9abd 47a5 93bc 6b53 e6bd
00000060: c0d4 a8bd 793e 213c 2e85 783d daad babd
00000070: a982 533d f3a5 49bd 35ef a83d c92c 3fbd
00000080: 97a6 dabd 07a4 883c e53c aa3d 3b4b 883b
00000090: 59d5 b13d 3b3f f93c f1f4 3d3c 3b3f 81bd
000000a0: 944d 7c3d 2d83 afbd c396 113d f2e6 9e3b
000000b0: ca32 e83d e5a5 253d e586 403d d94b 8b3d
000000c0: d096 0d3b 3c11 1cbd 8ecc a33c 1964 9d3d
000000d0: 0a28 d33c 368f 3bbc de18 f53c c641 9bbd
000000e0: 4478 923d a788 7cbd b6b8 04be f6ae 393c
000000f0: 924f 43bd 3371 99bc 74df dc3c 9752 9eb6
00000100: ae61 fabb c79a cdbd db97 52bd 0245 a0bc
00000110: acfe d9bc 18a5 cebd 8f4b 7abd b0dc afbd
00000120: 4adf 00bc ec5f 393d 6cd7 603d ad57 ecbb
00000130: 2d6a 253b 4be8 99bd 05e8 eebc 0322 9a3c
00000140: 62ad d8bd c556 cdbd 2c6c 4bbc c57d 16be
00000150: 99e0 febc fb4a 163c a3ad 7b3d acbd 6dba
00000160: 8a5b 413d 363b 9fbd 58ac 9fbd bde3 ff3c
00000170: ab1f 923d a9c5 b3bd 46ee e73b 9244 5b3d
00000180: 4efa e2bd d781 e03c b0d9 ad3d f6b3 023c
00000190: dd5b 253d b829 83bc 9dcc 593b 1afb b8bc
000001a0: cd16 e5bb c518 35bd f99d 993c e4f1 2abc
000001b0: 08d1 b5bc 90d7 863c 0398 d3bd c8ee 5e3d
000001c0: 1600 e2bd 7c27 19bd fa1d d63d e3bf 8c3c
000001d0: 6e98 773d 4c22 77bd 9f6a 893c 60df 783d
000001e0: cde7 f2bd 84d4 d4bd c921 b03d 8e95 153c
000001f0: 589a ecbc 759b 90bd 6d5b 2b3c a8ba 083d
00000200: 6b2f b23c c1c9 113c 56f8 10bc dddd 3abd
00000210: 62d2 d003 6e80 bb83 c93f 3b3c 9ac8 8ebb
00000220: 673b cdbb d753 113c a686 1a0b 8943 8ebb
00000230: f9cf 11bc 42d2 113c fc22 93bb 386c 9697
00000240: c24a 43bd e130 58bd 49aa c2bc 4c8b b983
00000250: cd6d c53b 7d9b 3dbc 20d2 74bc 10ab 11bc
00000260: c57c 67bd 7d48 183d b7f3 a4bc 68cb 11bc
00000270: 32ab 0e3b ab82 65bc 01d4 97bc 4a49 e9bb
00000280: b840 f63b a8ba 53bc 525a 33bc eb86 e9bb
00000290: 9c18 033b ed75 0f3c f5b0 0e03 929c 63bc
000002a0: 57e2 eebc 9f01 15bc 9b5c 91bc c550 5f37
000002b0: a369 aebc 177b 0fbc 99cb 24bc 394a b6bb
000002c0: 110f 1dbc f940 8f95 5648 4bbd de20 e6ba
000002d0: fb97 acbc 0f38 0184 b3cb 11bc 9e30 0d10
000002e0: 9f8a ecbc 4dbb ca3c af70 e5bb 1138 8c3b
000002f0: d793 95bc 052b ba03 0cec 11bc 1158 b3bb
00000300: 14fc 11bc a68a c983 cc4c 9b83 fb32 85bd
00000310: d1b2 5dbc 8ec0 11bc b1cc afbc 90db 91bc
00000320: 94a9 0d15 53b9 2cbc 4ffc 4bbc 7854 53bc
00000330: fda8 11bc d4c6 4d3d 1a93 debc 8b43 3dbd
00000340: f484 d1bc 7d72 8583 4da8 15bd 461b 1abc
00000350: a908 8ebc 27d2 45ba 41fb a8bb 0cf7 2cbb
00000360: 901d 95bb 9e33 8bbb d847 4ebc 7fbe e2ba
00000370: da98 11bc bf0a 32bc bdd3 4e3b be3b 2a3c
00000380: 95c7 02bc dfe8 84bb 0da8 c638 5d11 d003
00000390: 3ac6 d9bb 89cb 113c ef6b 743b a5fe c883
000003a0: bcf4 cebb c256 4fbc 56f2 6ebc c9c5 c3bb
000003b0: 52b7 0abc da04 34bb 0c82 0b8b a56f 19bc
000003c0: 531c c8bc 74ce 11bc 64b9 bf3b 430d 20bc
000003d0: 3943 20bd eda9 38bb aa79 f7b9 f9dd 3cbd
000003e0: b421 41bc 8a95 22bc f822 5fbb 9775 c33b
000003f0: d77f 56bc ef1e 2b3d 46a0 873b fd17 94bc

bias f4 [128]
-0.02933136 -0.008494427 -0.07136512 -0.08943206 0.01588517 -0.037858907 -0.07980054 -0.018560376
-0.057887584 0.05908935 0.022847187 -0.007080754 -0.005354573 0.077087544 -0.03983128 0.013358258
0.022994356 0.028984383 -0.017166605 -0.060487796 0.09621518 -0.13635767 -0.043932706 0.06411318
-0.051293388 0.023787705 0.1045204 0.018433418 -0.009709858 -0.017667886 0.057929534 0.097168
-0.013274394 -0.028604409 0.06991761 -0.027532918 0.004451577 0.042788725 0.0014425335 0.0786736
-0.047184154 -0.09492744 0.08694044 0.09866505 -0.04156899 0.056318652 0.012239322 0.009897428
-0.027590746 -0.032321945 0.08504746 0.09927922 0.10728714 0.07626353 0.076879114 0.042317584
-0.04121822 -0.040834107 0.07745973 -0.053956978 -0.018838966 0.07369314 0.037747595 0.040389445
0.045791127 0.079424016 0.049062967 0.045708098 0.06822637 -0.012936899 -0.010186154 0.10439594
0.012005713 0.0071014785 0.014680835 0.08830554 0.030491587 0.0013708306 -0.020645991 0.03718281
0.080670886 0.014728548 -0.043547004 0.080224425 0.011730903 0.018050535 -0.007636767 -0.10536452
0.09595743 0.0660816 0.064215295 0.10231038 0.03524742 0.09336423 0.0823773 0.093182094
-0.03914489 0.0945777 0.09127893 0.016776381 0.0046349927 0.094133146 0.030694073 0.07754174
-0.013835704 0.018225454 -0.04705661 0.09691132 0.044045243 0.010406342 -0.05644561 0.052038062
0.07508363 -0.04707046 0.023988396 0.1005106 0.036609784 -0.017049536 0.05376118 0.011161635
0.023074118 0.04663506 0.067256376 0.048494376 0.05336229 -0.025614621 -0.04761234 -0.01539274
00000000: 5248 f0bc 362c 0bbc e027 92bd 2828 b7bd
00000010: 9e21 823c f111 1bbd 776e a3bd ee0b 98bc
00000020: 881b 6dbd ad07 723d 062a bb3c ab05 e8bb
00000030: 6a75 afbb 13e0 9d3d 2026 23bd 98dc 5a3c
00000040: a95e bc3c a870 ed3c fba0 8cbc 0dc2 77bd
00000050: 770c c53d 58a1 0bbe c8f2 33bd c54d 833d
00000060: 0419 52bd 6fde c23c cb0e d63d ae01 973c
00000070: 1916 1fbc 3ebc 90bc 8547 6d3d 0400 c73d
00000080: d87c 59bc cb53 eabc f730 8f3d b78c e1bc
00000090: 89de 913b 3b43 2f3d 6413 bd3a a01f a13d
000000a0: 2c44 41bd 5169 c2bd d40d b23d e710 ca3d
000000b0: 3f44 2abd 63ae 663d 7087 483c d228 223c
000000c0: fd05 e2bc 0464 04bd 5d2d ae3d e752 cb3d
000000d0: 5cb9 db3d 0e30 9c3d cc72 9d3d 3455 2d3d
000000e0: 70d4 28bd aa41 27bd 35a3 9e3d fe01 5dbd
000000f0: 2d54 9abc 6eec 963d 399d 1a3d 676f 253d
00000100: 7a8f 3b3d 0fa9 a23d 40f6 483d 6a38 3b3d
00000110: 44ba 8b3d 4af5 53bc d4e3 26bc 8acd d53d
00000120: 9cb3 443c 85b3 e83b e387 703c 89d9 b43d
00000130: 7ec9 f93c 71ad b33a c821 a9bc 014d 183d
00000140: c736 a53d 0250 713c 585e 32bd b44c a43d
00000150: f932 403c b7de 933c d83d fabb 5ac9 d7bd
00000160: 5485 c43d ca55 873d 4f83 833d 1b88 d13d
00000170: 995f 103d bf35 bf3d 6eb5 a83d 41d6 be3d
00000180: 6456 20bd f4b1 c13d 73f0 ba3d 9f6e 893c
00000190: 23e1 973b e1c8 c03d 2372 fb3c 34ce 9e3d
000001a0: 26af 62bc 8c4d 953c 6fbe 40bd 7179 c63d
000001b0: c968 343d 5d7f 2a3c 8333 67bd dd25 553d
000001c0: 72c5 993d f4cc 40bd 5083 c43c 80d8 cd3d
000001d0: 24f4 153d 78ab 8bbc af34 5c3d 4adf 363c
000001e0: ef05 bd3c 6804 3f3d b6bd 893d 0aa2 463d
000001f0: 6b92 5a3d c1d5 d1bc 2805 43bd d531 7cbc

weight f4 [128, 128]
0.050038777 0.04029006 -0.07689133 -0.019478178 -0.06154476 -0.06632509 -0.002174838 -0.012145267
-0.05615718 0.11996271 -0.10884829 0.03684077 0.10492773 0.009966471 0.022288535 -0.055817425
0.087668985 0.091501825 -0.006311984 0.023253039 0.06545324 0.15370569 -0.029675663 0.09079379
0.04205522 0.06151007 -0.056223586 0.0773989 0.059998173 -0.08745379 0.035195094 0.041910384
-0.01431632 0.000100017984 0.07859916 0.091412984 0.033628553 0.029666753 0.048499223 -0.10520684
-0.09347583 0.015760744 -0.01691952 0.07329792 0.008471837 -0.015270209 0.081851706 0.087241404
-0.012810263 0.06344293 -0.04876672 -0.029763816 -0.043285232 0.025819937 0.011142455 0.0976093
0.05023222 0.033733185 0.08656983 -0.04634635 0.06719881 0.04130857 -0.010440709 -0.037625175
0.10296775 -0.020071005 0.062084474 -0.015049852 0.08944196 -0.058966223 0.071896635 0.030499505
-0.01901787 0.04466451 0.04580302 0.06290808 -0.0367851 0.035057202 -0.0069699963 0.10861587
-0.06200657 -0.0415149 -0.055828776 0.060925443 -0.06102764 -0.014083252 0.053955372 0.16105682
-0.0129388105 0.04212914 -0.0044765957 -0.043369476 -0.020867376 -0.01310231 0.017077593 -0.07438979
0.04277545 -0.05756667 0.004161586 0.07379149 -0.06995612 0.052850593 0.075424805 -0.036763187
0.07630134 -0.06267685 0.010605792 -0.09652498 0.010089448 -0.00481625 0.057541184 -0.00449626
0.010625476 -0.04068965 0.026541544 0.005899326 -0.044812158 0.034195326 0.027708726 0.032761265
-0.028906245 0.005292369 -0.012656898 0.024315245 0.060433764 0.1132462 0.037294496 0.11501548
0.14239867 1.1143665e-36 0.027328921 -0.001175398 0.03179841 0.08222594 -0.0022002961 0.0467476
-0.04812612 -0.042017087 0.03140199 0.055901986 -0.039525826 -0.033457793 0.0021125767 0.031408098
-0.01528635 -0.07451792 -0.08799288 0.009807475 -0.05195005 -0.0131097995 -0.040866204 -0.01728046
-0.00012786977 0.060566798 -0.0144794155 -0.06792503 -0.06871793 0.09119582 -0.058465045 0.11152083
0.016179312 -0.025999425 -0.03093989 -0.059749797 -0.00551737 0.07863378 -0.024319742 0.0974679
0.061565477 0.05168253 -0.044728033 -0.041033182 -0.001850462 0.09485905 -0.037996113 -0.032201104
-0.011394209 -0.010481644 -0.04597129 0.078460194 -0.060386937 0.034381676 -0.065663524 0.09779847
0.010462506 -0.05637346 -0.08220567 -0.048846778 -0.062032636 -0.028933465 -0.040180486 -0.023537792
0.011766476 -0.066975325 -0.01437549 -0.037116908 -0.038529772 -0.09875498 0.04502613 0.061538134
-0.044941843 -0.09056624 -0.024438301 -0.023283279 0.057066668 0.030901114 -0.026650345 0.06522064
-0.024515394 0.01420638 0.012472661 0.039747834 0.07012628 -0.04823604 0.01727824 -0.001866786
0.05630121 -0.024061635 -0.026733182 -0.03969113 -0.037537653 -0.028813653 -0.058637064 -0.0626163
0.09516901 -0.043374978 -0.049124617 -0.021568613 0.07846266 -0.06740955 -0.02743402 -0.09970495
-0.1037847 -0.00026397753 0.01952339 0.06585914 -0.050152708 -0.04431306 -0.0085926205 0.062599406
0.02907604 0.009834134 0.041979887 0.071089275 -0.008942281 0.007032904 -4.475518e-06 -0.020462349
-0.04644522 -0.005580292 -0.05433162 -0.1138366 -0.050492838 -0.030265419 -0.047150493 -0.02020227
00000000: 76f5 4c3d 3107 253d 3479 9dbd b390 9fbc
00000010: 5c16 7cbd 73d5 87bd ba87 0ebb f1fc 46bc
00000020: 1205 66bd 02af f53d daeb debd 59e6 163d
00000030: 5ae4 d63d 694a 233c 7296 b63c d0a0 64bd
00000040: cc8b b33d 4f65 bb3d c2d4 cebb 287d be3c
00000050: 590c 863d 0665 1d3e 601a f3bc 18f2 b93d
00000060: 1842 2c3d fcf1 7b3d b44a 66bd 5183 9e3d
00000070: a5c0 753d f91a b3bd bb28 103d 39aa 2b3d
00000080: 008f 6abc bfc0 d138 99f8 a03d bb36 bb3d
00000090: 18be 093d b107 f33c 1fa7 463d af76 d7bd
000000a0: 4270 bfbd ad1c 813c ce9a 8abc 381d 963d
000000b0: 76cd 0a3c e62f 7abc dea1 a73d 9fab b23d
000000c0: 23e2 51bc 5eee 813d 9dbf 47bd 3fd3 f3bc
000000d0: db4b 31bd 5584 d33c d88e 363c 62e7 c73d
000000e0: 4dc0 4d3d cf2b 0a3d 864b b13d acd5 3dbd
000000f0: 889f 893d 2d33 293d 820f 2bbc db1c 1abd
00000100: c1e0 d23d f36b a4bc 4a4c 7e3d a893 76bc
00000110: 592d b73d 9186 71bd 8b3e 933d 19da f93c
00000120: 5dcb 9bbc 22f2 363d f39b 3b3d f4d5 803d
00000130: f9ab 16bd 2498 0f3d 9164 e4bb ff71 de3d
00000140: 9afa 7dbd 870b 2abd b7ac 64bd f58c 793d
00000150: 1ef8 79bd 71bd 66bc 4f00 5d3d 14ec 243e
00000160: 4efd 53bc 9b8f 2c3d 68b0 92bb 31a4 31bd
00000170: 0ff2 aabc 12ab 56bc 4fe6 8b3c ad59 98bd
00000180: 4f35 2f3d 07cb 6bbd ea5d 883b fe1f 973d
00000190: 2745 8fbd dd79 583d 5278 9a3d ff94 16bd
000001a0: e043 9c3d b85c 80bd eac3 2d3c e4ae c5bd
000001b0: 364e 253c a2d1 9dbb 4eb0 6b3d 5d55 93bb
000001c0: 7a16 2e3c 31aa 26bd a76d d93c 224f c13b
000001d0: f48c 37bd 6610 0c3d 69fd e23c ad30 063d
000001e0: cacc ecbc 9c6b ad3b e15e 4fbc c430 c73c
000001f0: 6589 773d a0ed e73d 1dc2 183d 3c8d eb3d
00000200: f5d0 113e 8299 bd03 e7e0 df3c d00f 9aba
00000210: 0d3f 023d 1366 a83d d832 10bb 697a 3f3d
00000220: e51f 45bd 1c1a 2cbd 609f 003d 7bf9 643d
00000230: d5e5 21bd 0a0b 09bd 2873 0a3b c7a5 003d
00000240: 9973 7abc da9c 98bd 9c35 b4bd 88af 203c
00000250: 93c9 54bd 7cca 56bc 5263 27bd c08f 8dbc
00000260: c814 06b9 e414 783d 123b 6dbc 471c 8bbd
00000270: fcbb 8cbd e0c4 ba3d 0b79 6fbd 0865 e43d
00000280: 7a8a 843c bffc d4bc a775 fdbc 34bc 74bd
00000290: 0ecb b4bb bf0a a13d 323a c7bc 409d c73d
000002a0: 152c 7c3d 10b1 533d be34 37bd 6912 28bd
000002b0: 348b f2ba 7645 c23d d0a1 1bbd 4ee5 03bd
000002c0: c7ae 3abc 34bb 2bbc 644c 3cbd bdaf a03d
000002d0: 4b58 77bd cdd3 0c3d 997a 86bd 904a c83d
000002e0: ee6a 2b3c dbe7 66bd 725b a8bd 8f13 48bd
000002f0: ef15 7ebd e005 edbc 4b94 24bd 54d2 c0bc
00000300: 2dc8 403c 5c2a 89bd 2d87 6bbc e607 18bd
00000310: 65d1 1dbd 0d40 cabd 526d 383d 690f 7c3d
00000320: f014 38bd cb7a b9bd d532 c8bc 93bc bebc
00000330: bdbe 693d 5524 fd3c d351 dabc 6692 853d
00000340: 82d4 c8bc e0c1 683c 225a 4c3c a0ce 223d
00000350: 5e9e 8f3d 2793 45bd 188b 8d3c f2ae f4ba
00000360: 199c 663d e81c c5bc 8cff dabc 2b93 22bd
00000370: 15c1 19bd 9c0a ecbc 6b2d 70bd fa3c 80bd
00000380: f8e7 c23d f6a9 31bd e536 49bd a9b0 b0bc
00000390: 08b1 a03d 050e 8abd 4fbd e0bc 1c32 ccbd
000003a0: 138d d4bd 7766 8ab9 84ef 9f3c 28e1 863d
000003b0: ed6c 4dbd 9c81 35bd 10c8 0cbc 1e34 803d
000003c0: e030 ee3c 591f 213c 1af3 2b3d 4197 913d
000003d0: a582 12bc 4674 e63b 682c 96b6 a8a0 a7bc
000003e0: 583d 3ebd e2da b6bb d58a 5ebd 2a23 e9bd
000003f0: 94d1 4ebd 2fef f7bc e020 41bd 3b7f a5bc

bias f4 [128]
0.088856615 -0.013821442 -0.029488323 -0.0884799 0.11679124 0.047419958 -0.03787585 0.075109035
0.03661303 0.09183106 -0.067873776 0.0628468 0.10741403 0.034665216 0.056019563 -0.008861314
-0.065546714 0.089450434 0.006450552 -0.03890603 0.112435825 -0.0076394686 0.08076746 -0.065699406
0.003883412 -0.0034376173 -0.021158306 -0.02637009 -0.022607299 -0.03130579 0.09655402 -0.02835344
0.10153261 0.06989691 0.06182008 0.044935293 0.063642144 0.08442087 0.08647017 0.044117115
0.099831544 -0.022101052 -0.029074373 0.06779115 0.076657355 0.050588965 0.07925453 -0.028278735
0.029458795 0.041861635 -0.025015611 0.05075807 0.06867152 -0.09996864 0.085633785 0.011431056
0.07655714 0.070001 0.0052211266 -0.024298942 0.068672836 0.075967915 -0.010157197 0.075039
0.031155514 0.025228897 0.109495014 0.03285635 0.074859396 0.06569028 -1.2439201e-28 0.113457166
0.11643912 -0.057396132 0.07788189 0.082472734 -0.023962243 0.10897844 -0.046098012 0.024501078
0.060248785 0.05756209 0.054638214 0.0375258 0.08409825 0.009924758 0.10955669 -0.0318918
0.029813198 -0.031549815 0.014308612 0.026423458 0.120434366 -0.008374285 0.0685006 0.02790482
-0.08269889 -0.008130956 -0.069495454 0.02739475 0.05404308 -0.036522385 0.121529035 -0.079556055
0.010515602 0.058053773 0.023037203 0.016634908 0.09478383 0.06121706 0.0062882965 0.09765394
0.09883065 0.011853136 0.009284749 0.06322138 0.10815179 0.05044687 0.007208324 0.08307047
0.09282986 0.03354476 -0.017971268 0.096586905 0.041696113 0.046166193 -0.03361009 0.09899135
00000000: 75fa b53d 5473 62bc 7f91 f1bc f334 b5bd
00000010: 3f30 ef3d 6e3b 423d b523 1bbd c4d2 993d
00000020: 8bf7 153d ec11 bc3d 6801 8bbd d3b5 803d
00000030: e3fb db3d 1dfd 0d3d c574 653d 0b2f 11bc
00000040: 5b3d 86bd ca31 b73d 275f d33b ee5b 1fbd
00000050: c144 e63d 8254 fabb 6969 a53d 698d 86bd
00000060: d880 7e3b a649 61bb 2f54 adbc 1606 d8bc
00000070: f132 b9bc 803a 00bd 1dbe c53d 7945 e8bc
00000080: 54f0 cf3d 1c26 8f3d 0d37 7d3d 120e 383d
00000090: d056 823d d9e4 ac3d 4617 b13d 26b4 343d
000000a0: 7b74 cc3d 440d b5bc 612d eebc 16d6 8a3d
000000b0: 88fe 9c3d 6036 4f3d 3350 a23d cea8 e7bc
000000c0: 9253 f13c 1b77 2b3d 8aed ccbc b2e7 4f3d
000000d0: a7a3 8c3d 5cbc ccbd c460 af3d 5349 3b3c
000000e0: fdc9 9c3d af5c 8f3d fc15 ab3b 930e c7bc
000000f0: 58a4 8c3d 1195 9b3d 5f6a 26bc 0cae 993d
00000100: d939 ff3c d5ac ce3c ec3e e03d 6194 063d
00000110: e24f 993d a088 863d 84af 1d91 3b5c e83d
00000120: a277 ee3d 3518 6bbd 8a80 9f3d 77e7 a83d
00000130: 774c c4bc 1730 df3d 45d1 3cbd 7cb6 c83c
00000140: 6ec7 763d 3ac6 6b3d 52cc 5f3d a7b4 193d
00000150: b43b ac3d 749b 223c 425f e03d faa0 02bd
00000160: cf3a f43c 613a 01bd ab6e 6a3c 0276 d83c
00000170: 4ba6 f63d 4c34 09bc 0b4a 8c3d a698 e43c
00000180: 095e a9bd b437 05bc a253 8ebd f46a e03c
00000190: 475c 5d3d 7f98 15bd 37e4 f83d 49ee a2bd
000001a0: a249 2c3c cbc9 6d3d 84b8 bc3c ee45 883c
000001b0: 061e c23d bdbe 7a3d 0e0e ce3b cafe c73d
000001c0: b967 ca3d a833 423c 0f1f 183c 367a 813d
000001d0: b07e dd3d 61a1 4e3d ce33 ec3b da20 aa3d
000001e0: 951d be3d 3b66 093d 7b38 93bc 5bcf c53d
000001f0: 8bc9 2a3d c318 3d3d bcaa 09bd fabb ca3d

weight f4 [1, 128]
-0.040754367 0.12284621 0.10564134 -0.0015810925 -0.10034766 0.11058424 0.050454378 -0.09737652
0.054543566 0.09264366 0.07140027 0.10918283 0.12669392 -0.022465784 0.13930607 0.10695327
-0.052476816 -0.054677602 -0.052326247 0.05550991 -0.028385265 -0.059725497 0.10104745 0.07374272
-0.010794022 0.05232803 0.076056235 -0.114538096 0.11551783 0.06247443 -0.022884922 0.122794665
-0.096989095 0.0957437 -0.08342568 -0.062440716 -0.024377882 -0.105886124 0.10856513 0.079743266
-0.09275585 -0.09766451 -0.04918727 -0.036725998 0.09865502 0.05617631 0.060216364 0.042283338
-0.036447633 0.08025781 0.13608095 -0.022362836 0.021831507 -0.009041168 -0.020438427 -0.087235466
-0.04111887 -0.066158116 -0.032560244 -0.09525331 0.1064717 0.084936365 -0.096101336 0.09472159
0.11702044 0.1165495 0.09807533 0.060346562 0.1170924 -0.038202625 2.7145452e-12 -0.027078094
-0.057090167 0.0027933465 0.12108184 -0.033879504 0.0039518345 -0.051038858 0.16198608 -0.018798154
-0.07268581 -0.05365683 0.12372671 0.09632496 0.062499333 -0.043637596 -0.019613625 0.086140044
-0.050235383 -0.054355096 -0.026344493 0.09931864 -0.06030339 -0.052651916 0.108407 -0.03548409
0.026932929 -0.052993413 -0.053331025 0.14090379 -0.094682455 -0.0018260969 -0.035421614 -0.08238313
0.03398887 -0.066782966 0.12603666 -0.07735429 0.031940285 0.069380015 -0.051272262 -0.07930502
0.108532146 -0.062038075 -0.09461106 0.08362077 -0.017958969 0.04335791 -0.088616155 -0.032041043
-0.046430953 0.11231896 0.04755114 -0.09477873 0.0987986 0.12416355 0.075351834 -0.08389046
00000000: 0dee 26bd cb96 fb3d 7d5a d83d a93c cfba
00000010: 1383 cdbd fd79 e23d 40a9 4e3d 576d c7bd
00000020: 1369 5f3d f6bb bd3d 4e3a 923d 3f9b df3d
00000030: 0dbc 013e 2a0a b8bc 40a6 0e3e 510a db3d
00000040: eef1 56bd 9ff5 5fbd 0c54 56bd 5c5e 633d
00000050: 3788 e8bc b9a2 74bd f7f1 ce3d 6c06 973d
00000060: 69d9 30bc eb55 563d 5fc3 9b3d f392 eabd
00000070: 9d94 ec3d 30e5 7f3d 2979 bbbc c57b fb3d
00000080: 38a2 c6bd 4615 c43d 15db aabd d6c1 7fbd
00000090: 20b4 c7bc d3da d8bd 6557 de3d 7050 a33d
000000a0: c7f6 bdbd 5504 c8bd 9778 49bd 006e 16bd
000000b0: a50b ca3d 2119 663d 6fa5 763d 4b31 2d3d
000000c0: 1d4a 15bd 355e a43d ce58 0b3e 4432 b7bc
000000d0: fdd7 b23c 6821 14bc 7d6e a7bc 82a8 b2bd
000000e0: 436c 28bd e87d 87bd e45d 05bd 2b14 c3bd
000000f0: d60d da3d 1ef3 ad3d c7d0 c4bd 65fd c13d
00000100: 6aa8 ef3d 81b1 ee3d b8db c83d f52d 773d
00000110: 24ce ef3d 5b7a 1cbd e604 3f2c e1d2 ddbc
00000120: 61d7 69bd 9410 373b c1f9 f73d 3cc5 0abd
00000130: 647e 813b 1f0e 51bd aedf 253e 96fe 99bc
00000140: 4cdc 94bd 44c7 5bbd 6e64 fd3d 0546 c53d
00000150: 4dff 7f3d 56bd 32bd c1ac a0bc 316a b03d
00000160: 9ec3 4dbd 73a3 5ebd 68d0 d7bc 9267 cb3d
00000170: b000 77bd 89a9 57bd 7d04 de3d c457 11bd
00000180: 72a2 dc3c 9f0f 59bd a271 5abd 1549 103e
00000190: e0e8 c1bd a559 efba 4116 11bd 7db8 a8bd
000001a0: ea37 0b3d 82c5 88bd c10f 013e ed6b 9ebd
000001b0: d1d3 023d 1c17 8e3d dd02 52bd ac6a a2bd
000001c0: 1a46 de3d a31b 7ebd 72c3 c1bd 5e41 ab3d
000001d0: b01e 93bc 1098 313d 637c b5bd 783d 03bd
000001e0: 622e 3ebd 7c07 e63d fcc4 423d 5a1b c2bd
000001f0: ec56 ca3d 7649 fe3d 1052 9a3d c3ce abbd
