bike_sharing/AutogluonModels/ag-20220404_171935/models/NeuralNetTorch_BAG_L2/S1F5/net.params (torch, 227771 bytes, 13 tensors)

weight f4 [5, 3]
00000000: 27f6 be3f 181b 94be 8c3d 0ac0 b692 233f
00000010: 7c16 93bf 7ce8 bdbf 2170 a63e fd64 533f
00000020: 4aeb 5bbf 2833 d8be 1b9d 0cbf 164f 033e
00000030: 0423 b2be 7dab 103f 08c9 09bf
1.491887 -0.2892692 -2.1600065 0.6389574 -1.1491237 -1.4836574 0.32507423 0.8257597
-0.859059 -0.4222653 -0.54927224 0.12823138 -0.3479234 0.5651167 -0.53822374

weight f4 [13, 6]
00000000: 0c53 1cbf 9023 f43d 325e 04bf 8ad7 773e
00000010: 4440 063f 5365 163e 1515 383f 02a3 063f
00000020: de95 27be 86b4 573f 1a08 3cbe c7e4 5f3d
00000030: 7895 013f d442 0e40 6825 b6bf c13b c2bf
00000040: 35a1 37bf c9dc 533f b8e2 8c3f 3beb 5a3e
00000050: 9cb7 89be 23ff bbbe c776 173f 00b9 bdbe
00000060: 8db9 07bf 775d 313f 2499 ba3f 0531 5440
00000070: 4bd5 c1bf 35c3 94bf 3057 de3f b072 0dbf
00000080: 55f4 ffbe 15fb 543f 1ca2 833f ed56 9e3f
00000090: 43e3 b7bf 0ace 2140 5941 f3be 5753 b03e
000000a0: bedd cfbf 928f 05bf 6bb3 02bf 7951 dabe
000000b0: e9b5 8bbf beef 8c3f 8e2f cabd 7b5b 4c3f
000000c0: 6566 04be c050 343f 1216 51bf d682 b4ba
000000d0: ecc6 503f 5996 c0be d8a6 873f 5a7b bf3e
000000e0: 6406 8fbe 89e4 1340 a996 ebbf fbcb 71bd
000000f0: ffae 82bf 7f28 73bf b68d 3bbf ebb9 a2bf
00000100: 3f8c 58be 8879 17c0 faf9 81bc 9ad3 a73c
00000110: 7188 793f 361d bf3e 2a36 a2be 0f5c 9dbf
00000120: d03b 25be 1ce4 7ebd f0a5 ac3f 3bac 0ebd
00000130: 28e4 f334 53d0 1f3f
-0.6106422 0.119208455 -0.5170623 0.24203315 0.5244181 0.1468709 0.7190717 0.5259248
-0.16365764 0.8425983 -0.18362466 0.05466154 0.50618696 2.2228289 -1.4230165 -1.5174485
-0.7173036 0.82758766 1.1006689 0.21378796 -0.26897895 -0.3671809 0.59165615 -0.37055206
-0.53017503 0.6928324 1.4577985 3.315492 -1.5143217 -1.1622072 1.7370358 -0.55253124
-0.49991098 0.8319562 1.0283847 1.2370278 -1.436623 2.5282006 -0.47510794 0.34438583
-1.6239545 -0.52172196 -0.5105502 -0.42640284 -1.091489 1.1010664 -0.098723516 0.7982709
-0.12929685 0.70435715 -0.816743 -0.0013771902 0.8155353 -0.37614706 1.0597792 0.37398797
-0.27934563 2.3108237 -1.8405353 -0.05903242 -1.0209655 -0.9498367 -0.7326311 -1.2712988
-0.2114725 -2.3667927 -0.015866268 0.020486642 0.9747382 0.37326974 -0.3168195 -1.2293719
-0.16136098 -0.06222926 1.348814 -0.03483222 4.5428283e-07 0.6242725

weight f4 [25, 9]
00000000: 6774 223f 2ac9 30bf d4cd 5bbf c447 cfbe
00000010: b52f 54bf 2107 163f 6fca 143f a00b fd3e
00000020: eb09 44bf 9185 803e dcdb d6bd 0efd 8d3d
00000030: cab5 1dbf 6bc1 9cbf bd07 04bd 7122 83bf
00000040: 2994 2740 8736 813f c223 7dbe 61af fa3d
00000050: cec0 963e d72f 9d3f fa01 993e 5e12 aa3e
00000060: b926 003f 04f5 083f 7aa2 263e 21c0 43bf
00000070: e046 ebbf 3e30 fe3d 1e55 33bf 60fc a83e
00000080: ca0a 2bbe c5bd 9abe 3b81 733f c22b 7cbf
00000090: cfef a23e 8c47 a6bd bc89 803f ba97 00bf
000000a0: ef5a 733f 9bfa 4fbf 7b8f a93e 853e 453e
000000b0: 05e5 47be ba6a c03e 62da 9ebe c403 85bf
000000c0: 576e 3d3e b940 90bf 0e5f 3cbd 8f25 bbbe
000000d0: bab6 c4bf af04 a3be f1cd 863f ae57 183e
000000e0: f761 72be 0e22 b5bf 9f85 88bf 9451 34bf
000000f0: 9f45 b83f 557d 863e 792f 233f c774 87bf
00000100: a990 3d3f 021f fdbf 94b5 0abf d64e 103f
00000110: 69d1 ba3e 385e c23e 8490 533e 9cc7 603f
00000120: 8cc5 0040 4913 163e eafd 97bd a66d 8cbf
00000130: eaf1 cf3e fb22 193f dcc9 263f 74c6 96bf
00000140: 3ba8 5abf 2f68 02c0 7485 933f 4ced 293d
00000150: 0736 6a3f 3e22 5c3f 60fe 9cbf c473 763f
00000160: f0a4 603d 24d6 55bf 4deb 683f cd30 a43f
00000170: 0b2c 25bf 85c6 023f ea79 8f3e cdcf f23a
00000180: 68d2 bbbf 93be 823f 0dc7 adbe 58e6 c83f
00000190: d25a 6c3e 23b8 ad3e 4365 0fbe efc2 1d3f
000001a0: 7fbe 38bd ab43 17bf 2f50 09be 5a1d 0fbf
000001b0: e47b dabe da17 623f c5e0 67bf 7d1c 653f
000001c0: 398b d93e 5441 963f 1229 c1bf 6e05 d8bf
000001d0: d67a d5bc 30c2 86bf de09 b63f 5343 dbbd
000001e0: 5a76 23bf fb75 3e3f 0224 bbbd 044c 813f
000001f0: 1815 693f 63b8 f3be 838b 63bf 043a 143e
00000200: 534a 9f3d 99b3 293f 3d00 aabb eef9 4abf
00000210: 1f90 fcbe 8916 d3be 1645 113f 212f 96bf
00000220: aa75 2dbf cb10 18bf 1786 0fbd 2903 b43f
00000230: 8e86 0c3f ec1f 06bf 6a02 cfbe 5998 acbf
00000240: 7783 39bf ffca fcbe 977a 8fbe b5d3 313f
00000250: 942d 123f 2494 833e 6b72 02c0 0947 033f
00000260: 7bdf 823e 6269 06bf 89dc 213d b580 963f
00000270: fe45 f63e a328 87be d230 9fbf b5db b0be
00000280: b743 29bf c7a7 da3e 7470 233f 8161 673f
00000290: 6041 59be 4376 1bbf 796d 39be d14e 8dbf
000002a0: e659 103f db69 bb3f 04a9 6cbf 613a 4a3f
000002b0: 0795 24bf c7f2 9e3f 1a10 b63f 0920 18bf
000002c0: d242 313f 9265 9dbf f777 10bf 3caf 3ebe
000002d0: c2cc f4be dedd 383f f1e0 983d 4208 84bf
000002e0: eaca cb3e d5a5 223f bdfc 98bf 9d90 ce3e
000002f0: c714 96bf 02e8 aebf d0ba c53f 8f08 2bbd
00000300: a722 ef3e 4151 8dbf b063 3abe 58f2 84bd
00000310: 941e ad3e 79b8 8f3f adc3 f83f 369c 823f
00000320: 9401 bfbf 2155 08bf fbd4 95bf 1d2d a23f
00000330: 8f81 8a3e a1bf f63e 35ce 7dbc 6bf1 08c0
00000340: 01f0 db3e 42ad c3bf 250c f93e 6817 bc3f
00000350: 9322 863f 55ba 9c3f 57a6 cf3d 62c2 c73f
00000360: fbd4 7e3d 674a 51bf 446b b93e 0c37 a12a
00000370: 2849 8e3e aced e4be 09d0 bfbe 2fdd 2abc
00000380: cd95 62bc
0.63458866 -0.6905695 -0.85860944 -0.4048444 -0.82885295 0.5860463 0.5812139 0.49422932
-0.76577634 0.25101903 -0.104911536 0.06933032 -0.61605513 -1.2246526 -0.032233942 -1.0244886
2.618418 1.0094765 -0.24720672 0.12240482 0.29443973 1.2280225 0.2988432 0.33217138
0.50059086 0.53498864 0.16272917 -0.7646504 -1.8381004 0.12411545 -0.70051754 0.33005047
-0.16703334 -0.30222908 0.95119065 -0.9850427 0.31823584 -0.08119115 1.0042033 -0.50231516
0.9506063 -0.8124177 0.3311728 0.1926213 -0.19520958 0.37581426 -0.31025988 -1.0391774
0.18499123 -1.1269752 -0.04598909 -0.36552092 -1.5368264 -0.3183951 1.0531598 0.14877197
-0.23670183 -1.4151018 -1.0665778 -0.7043698 1.4396247 0.26267496 0.6374431 -1.0582513
0.7404886 -1.9775088 -0.54183316 0.56370294 0.36487892 0.37962508 0.20660597 0.8780458
2.0120573 0.14655794 -0.07421477 -1.0970962 0.40614253 0.59819 0.6515176 -1.1779313
-0.8541295 -2.0376089 1.1525102 0.04148607 0.9148869 0.8598975 -1.2265129 0.96270394
0.054844797 -0.8352988 0.9098404 1.2827393 -0.6452033 0.51084167 0.280227 0.0018525064
-1.4673586 1.0214409 -0.33940926 1.5695295 0.2308152 0.33929548 -0.14003472 0.6162557
-0.045103546 -0.5908763 -0.13409494 -0.5590416 -0.42672646 0.88317645 -0.90577346 0.89496595
0.4248903 1.1738687 -1.5090659 -1.6876657 -0.02605955 -1.0528011 1.4221761 -0.107062005
-0.63852465 0.74398774 -0.09137727 1.0101323 0.9104781 -0.47601613 -0.88884753 0.14475256
0.07777848 0.6628967 -0.0051880167 -0.7928761 -0.49328706 -0.4122813 0.5674604 -1.1733133
-0.67757666 -0.59400624 -0.035039987 1.4063464 0.54892814 -0.5239246 -0.4043153 -1.3483993
-0.72466224 -0.49373624 -0.28023216 0.69463664 0.57100797 0.2569896 -2.0382335 0.51280266
0.25561127 -0.5250455 0.03951696 1.1758028 0.48100275 -0.2639819 -1.2436774 -0.34542623
-0.6611895 0.4270613 0.63843465 0.90383154 -0.21216345 -0.6072733 -0.18108167 -1.1039678
0.56387174 1.464168 -0.924454 0.7899533 -0.642899 1.241784 1.4223664 -0.5942388
0.69242585 -1.2296622 -0.5643305 -0.18621534 -0.47812468 0.7221354 0.07464779 -1.031502
0.3980325 0.6353429 -1.195213 0.40344706 -1.1725091 -1.3664553 1.5447636 -0.04175621
0.46706125 -1.1040422 -0.1820209 -0.06491536 0.33812392 1.1228172 1.9434716 1.0203922
-1.4922357 -0.53254896 -1.1705621 1.2670017 0.2705197 0.48193076 -0.015491058 -2.139735
0.42956546 -1.5287249 0.48642078 1.4694643 1.0479301 1.2244364 0.10139149 1.5606196
0.062214833 -0.81754154 0.3621465 2.8637542e-13 0.2779019 -0.4471258 -0.37463406 -0.010428711
-0.013829661

weight f4 [5, 3]
00000000: 07d8 2f3e 3007 48bf f7b7 8d3e 7042 883d
00000010: 34cd 6fbe 4b3b 1abe cfee 3fbf f273 1240
00000020: 60e1 b43f fa8a 55c0 5d09 acbf 4d8f 0dc0
00000030: 8c3d 1939 8144 863f b35b 813d
0.17172252 -0.7813597 0.27679417 0.06653297 -0.23418123 -0.15061681 -0.7497377 2.2883267
1.4131279 -3.3366075 -1.3440357 -2.2118714 0.00014614145 1.0489656 0.06316318

weight f4 [128, 38]
00000000: a0e9 973d def6 c43d 550b 563c a960 7fbd
00000010: a6e0 ee3d 60d1 bb3d ba57 72bb f5fb dabd
00000020: 78e6 103e 7a4a 1a3d 72a7 14be 61fb 1d3e
00000030: faf1 bf3d 3533 b8bd a3ac 923d 5212 d0bd
00000040: 6381 18bd 5e9b 023e 0200 213d b0aa c4bd
00000050: db07 a5bd 839e 4cbd 9593 3dbc c3b4 133c
00000060: e294 1a3e 34cb 313c 77ee e8bd 762b 74bc
00000070: a858 ab3d 971d cc3d d80c 11be b5da 4cbc
00000080: ce50 0dbe 119b 90bd 5afc 783d 7488 c3bd
00000090: 52b5 3e3d a449 073e eb98 c83c 21b2 83bd
000000a0: d8d0 80bd 2c0e fb3c 4541 6abe 8721 dfbc
000000b0: b61b 7bbe 47ee 27be d179 ddbd 485b ebbc
000000c0: cbe3 0e3e da41 0dbe 2cc9 2b3e 6c23 5bbd
000000d0: 6d6b e63d b5fc 38bb 8336 ffbd 3a2b 023e
000000e0: eabd dc3d ab40 213e 5824 ea3d 447a 7ebd
000000f0: d84e f73d ec90 4d3a 4eab 5b3d 86eb e2bd
00000100: f486 bbbc b5b8 1cbe 715e d7bc 5045 803d
00000110: f992 c5bd 3e18 3c3d 43bc 3a3d e778 383d
00000120: 707b 14be 863e 03be 0c1d 29bd 73b9 a53d
00000130: 4f3f 303e a05d a13d 3576 f6bc 3590 383d
00000140: 5904 5fbe 95e5 4fbe c525 da3c 9fa9 96bd
00000150: b0d3 903d 5162 89bd e742 aabd cbcc cebd
00000160: bc4d d33d 8805 8bbc 5c64 e43d 8e81 a53d
00000170: 0d3f a83d 483a f33b 1feb 89bd 31ec 45bd
00000180: f370 5e3d f1eb 7d3d b80e 05be 17e3 d43d
00000190: 1526 fd3c 4506 e4bd 8d1c 86bd db4c f43d
000001a0: d0f4 233e d35f 23be c638 cc3d 3447 753d
000001b0: fde5 de3d f779 163e f1c4 c1bd aeda 5f3d
000001c0: f15f 863d e3cc 1abd f2ec 1b3c a511 4abd
000001d0: cc84 e03d d820 12bd fc6d a1bd fba3 d13c
000001e0: 722e 113d 58e2 f5bd 6651 393d d8da 653d
000001f0: 4ac8 0cbd 3b32 c43c f936 40bd 3f53 c43c
00000200: 9b31 f9bd dcfb d0bd 21e5 c2bd 0869 153e
00000210: 89b1 12bc 4f06 543c 594b c2bd b9f0 093e
00000220: af89 2c3e 9f1b e8bd ace0 debd d7f2 eebd
00000230: ea75 d6bc e2e9 34bd 015f b9bd 626c 19bd
00000240: 331d 293c 8f20 7dbd 153b 973c 7653 cfbc
00000250: 59fe b9bc 6c69 df3c 626b c43d e87c 19be
00000260: 25c7 813c 5fe0 6dbd 2ff7 133e b8a5 2cbe
00000270: a414 6ebe eef3 9f3d 906d 2bbe 6aac 373c
00000280: 0aeb f33c ce75 6abc 5b65 13bc 07df d73d
00000290: c7e8 793d 09d4 05be 2e84 ecbd 29a9 4abd
000002a0: 2f2d cb3d 671d cabd 6033 0f3e 5cc7 5abd
000002b0: 1fab 363c 97df ee3d f6df 283d 5646 fa3d
000002c0: a105 f23d e678 acbc 9e51 90bd 8785 8abc
000002d0: 0fef 413e e376 7cbd 0d56 1cbe de00 4e3d
000002e0: 7104 1d3e 64b5 cabc 55cf e9bd 703d 0fbe
000002f0: 963f 4f3d ec75 27bb fcf5 5abd 67e1 b03c
00000300: 07bd 713c 2e47 a83d a305 4c3d 3273 dcbd
00000310: 9b84 5abe fa28 cebd 49a8 033e 35a8 b73d
00000320: 96e3 c13d 461d 22be 21b0 233e 3b67 503e
00000330: 53f3 f53d 14d7 29be 67e7 adbd 322d e8bd
00000340: 9016 723e ec0f 8ebd 1ceb aebd de52 703d
00000350: 664a 6abd 5b18 9fbd b54a 183d 511f 12bc
00000360: 1156 a2bd b3fb 043e daff 7fbd 6909 3c3d
00000370: c39f 093e 9104 743d 3a51 f93b 154d 213e
00000380: b8ee 0bbd 47c4 7cbd 1fa4 013e 0794 c53c
00000390: c19f 07be 738e 2fbd 696b f6bd 6695 073e
000003a0: d984 00be c5a7 79be 4bb4 cfbd b93b 823d
000003b0: 4c6a 9a3d 431c a73d aa90 0e3d 2f8a 333d
000003c0: 853c 453c 3a0c c43c 5ae8 fbbd 4f60 09be
000003d0: e763 ba3d 36cf bebd 7d44 9a3c 5d27 103d
000003e0: 30e1 643d 178f 78bd 63b7 403e 85fe 98bd
000003f0: 9869 dd3d 0378 f1bd 4e11 42bd 4229 c03d
0.07417607 0.09617399 0.013064225 -0.06234804 0.11663942 0.091707945 -0.0036978559 -0.10692588
0.14150417 0.037668683 -0.14517 0.15427925 0.09372325 -0.08994142 0.07161834 -0.10159744
-0.037232768 0.1275458 0.039306648 -0.096028686 -0.08058139 -0.049955856 -0.011570831 0.009015265
0.15095857 0.01085167 -0.113736086 -0.01490294 0.08366519 0.09966581 -0.14165056 -0.012503316
-0.13800356 -0.070608266 0.060787536 -0.09547511 0.04655964 0.13211685 0.02448698 -0.0643046
-0.06289834 0.030646406 -0.22876461 -0.027237667 -0.2452229 -0.1639949 -0.1081425 -0.02873005
0.13954084 -0.13794652 0.1677596 -0.053500578 0.112509586 -0.0028226797 -0.12461569 0.12711802
0.10778411 0.15747325 0.11432713 -0.06212832 0.12075585 0.00078417244 0.053630166 -0.11080079
-0.0228915 -0.15304835 -0.02629015 0.0626322 -0.096471734 0.045921557 0.045589697 0.045037176
-0.14500213 -0.1281682 -0.041287467 0.08092012 0.1721165 0.07879186 -0.030085662 0.0450594
-0.21779002 -0.20302422 0.026629338 -0.073565714 0.07071626 -0.067082055 -0.08313542 -0.10097655
0.10317561 -0.016970411 0.111519545 0.08081351 0.08215151 0.007422719 -0.06734299 -0.048320953
0.054306936 0.06199259 -0.12993896 0.103948765 0.030901948 -0.11134008 -0.065484144 0.119287215
0.16011357 -0.15954523 0.09971766 0.059882358 0.108837105 0.14694963 -0.09461392 0.05465191
0.06561268 -0.03779305 0.009516941 -0.049333233 0.10962829 -0.035675853 -0.07882306 0.025590887
0.035444684 -0.12006062 0.045243643 0.05611691 -0.034370698 0.023949733 -0.046927426 0.023965476
-0.121676646 -0.10204288 -0.09516359 0.14590847 -0.0089534605 0.012940957 -0.09487028 0.13470735
0.16849397 -0.11333393 -0.108826965 -0.11667412 -0.026179273 -0.04416836 -0.09051324 -0.037456878
0.010321903 -0.06179863 0.01846079 -0.025308352 -0.02270429 0.027271949 0.09590794 -0.14989054
0.01584203 -0.058075305 0.14449762 -0.16860092 -0.23250061 0.07810198 -0.16741014 0.01121054
0.029775161 -0.014310313 -0.008996333 0.10540586 0.06101301 -0.13069166 -0.11548649 -0.04947773
0.099207275 -0.09868889 0.13984442 -0.05341278 0.011149197 0.1166374 0.04122921 0.12220447
0.1181748 -0.021053743 -0.07046817 -0.016909374 0.1893885 -0.061636817 -0.15267201 0.050293796
0.15333726 -0.024744697 -0.114164986 -0.1398828 0.05059775 -0.0025552465 -0.053457245 0.021591855
0.01475454 0.082167014 0.049810063 -0.10764159 -0.21339647 -0.100664094 0.12857164 0.0896763
0.09467237 -0.1583148 0.15985157 0.2035188 0.12009301 -0.16585952 -0.08491402 -0.11336745
0.2364142 -0.069366306 -0.08540937 0.05867278 -0.057199858 -0.07768317 0.03718062 -0.008918599
-0.07926572 0.1298664 -0.06249986 0.04590741 0.1343985 0.059574667 0.00760856 0.1575206
-0.034163207 -0.061710622 0.12660263 0.024118437 -0.13244535 -0.04286046 -0.120322056 0.13240585
-0.12550677 -0.24380405 -0.1014181 0.063590474 0.07539806 0.08159687 0.03480593 0.043832954
0.012038355 0.023931611 -0.12300177 -0.13415645 0.09101086 -0.09316866 0.018831486 0.03519379
0.055878818 -0.060683336 0.18819956 -0.07470421 0.10811156 -0.117904685 -0.047379784 0.09382869

bias f4 [128]
00000000: 6b62 d13b 99f3 ba3d a6f4 a7bd 56b9 c83d
00000010: 74df 1e3e 4f8c edbc ea11 8a3d 1a90 eb39
00000020: 3dc3 43bc 955d 28be ad64 2e3e f983 1e3d
00000030: 0f7b 12be b32c febd 51b2 3c3e 244e 54bb
00000040: 1733 b0bc 7d36 923d b3dc 7b3c 2f9a b33d
00000050: 6f3a 253e 5d32 e8bc 4aff 073e 6bca a1bd
00000060: 24e2 69bd ecfe a43a d6a0 36bc 1836 b93d
00000070: fb4f 3d3c 8f37 833d 0bbe 09bd 4b66 0e3e
00000080: 8c1a 59bd 24f0 20bc ad9b bd3d 943f 2f3e
00000090: 97f5 fa3d 17e1 0dbe 5920 2fbd 1eb3 243d
000000a0: a5b4 1fbc f2fe 0a3e eb3c a73d 8188 98bd
000000b0: d7d2 c1bc 3b88 583c 433a 2a3e d3a4 833d
000000c0: 7838 10bd 64fc 97bd c8bd cd3d a6a4 9dbb
000000d0: 8969 8fbd ba72 0cbe a384 243d 97b8 48bc
000000e0: 72ca 8bbd 3e89 743d fbcc 623e 300a 2e3e
000000f0: c136 063e 9440 ccbd bac6 a53d 5253 193e
00000100: f0a1 d93b 265a 883c de4e 353d d550 ccbd
00000110: 1ccd d2ba a4cb 5abd 28fd 07bd eafd 35be
00000120: 5e9a f93c 8e0f ebbd fd24 1dbe 5cd4 4f3d
00000130: 591d 21be cea3 343e 1e93 513e a849 303c
00000140: e276 4cbc 83a9 f7bd 3c21 033d 0ec4 36bd
00000150: 4261 8fbd 8c05 a23d 49df c1bc 0aa6 58bd
00000160: cfa7 543d 80db 30be 5cee abbd db14 d2bc
00000170: dca6 433e a1cd 9cbd f21e 2f3e f177 0dbd
00000180: ed28 0ebd 05df 33bd c74d 913d 140d 003d
00000190: 8b2e 323e da67 41bc 18d9 17bd af61 d43d
000001a0: 8b1d e2bc 2265 003e be73 653d 5d93 94bb
000001b0: 0e4e eabd cb49 0fbe 3599 d83d b27d 983c
000001c0: 2888 093e 5559 01be 1c81 ed3b f27f 2a3e
000001d0: 3892 fe3d 92c8 1f3e 400a ff3d 2962 a1bb
000001e0: 7b93 4dbd ed3d 40bd 0b93 ad3d 89dc eabc
000001f0: 292f 163d 9216 063d c458 a13d bc5d 013e
0.006389906 0.09128494 -0.0820096 0.09800975 0.15514928 -0.028997568 0.06741698 0.00044930057
-0.011948404 -0.16441949 0.17030592 0.038700078 -0.14304756 -0.124108694 0.18427397 -0.0032395208
-0.021508737 0.07139299 0.015372443 0.087696426 0.16135572 -0.028344328 0.13280979 -0.07899936
-0.05710043 0.001258818 -0.011146745 0.09043521 0.011554713 0.06407081 -0.033628505 0.13906209
-0.053003833 -0.009822879 0.092582084 0.17114097 0.12253874 -0.13855396 -0.04275546 0.040209882
-0.009747659 0.13573816 0.08165916 -0.07447911 -0.023660107 0.013216074 0.16623788 0.06427922
-0.035210103 -0.074211866 0.100459635 -0.0048108874 -0.07002551 -0.1371564 0.040165555 -0.012251041
-0.06825723 0.059701197 0.22148506 0.16996074 0.13106824 -0.09973255 0.08094545 0.1497319
0.006641619 0.016644549 0.044264667 -0.09976355 -0.0016082856 -0.053416863 -0.033200413 -0.17772642
0.030469116 -0.11477576 -0.15346141 0.05073963 -0.15733851 0.17640612 0.20466277 0.0107597485
-0.012479516 -0.12092879 0.032014117 -0.044620566 -0.07000972 0.07911214 -0.023666041 -0.052892722
0.051917847 -0.17271233 -0.08395073 -0.02564471 0.1910662 -0.07656408 0.17101648 -0.034538213
-0.034707 -0.04391386 0.07094913 0.031262472 0.17400567 -0.011804545 -0.03707227 0.10370194
-0.027601978 0.12538579 0.056018583 -0.0045341686 -0.11440669 -0.13992994 0.10576097 0.018614624
0.13430846 -0.12631734 0.007248057 0.1665037 0.12430233 0.15603855 0.12453127 -0.0049250317
-0.050189476 -0.046934057 0.08475312 -0.028669612 0.03666607 0.03273637 0.07878259 0.12633413

weight f4 [128, 128]
00000000: 9685 8f3d 3885 a6bb 077f 9cbb b0bb 2ebd
00000010: 34b0 19bd 2729 8abd 1055 54bd fcb1 ee3d
00000020: 9b9c cfbc b4ee 5d3d 4785 29bd 5bc1 253d
00000030: f30b 8dbd 1af2 9bbc 1bd6 d4bd 36a7 7ebc
00000040: 004a 193d 0862 98bd 27e0 003d f1c1 76bc
00000050: 4da1 09be a71d 1a3d 44ba 463d 2908 1e3d
00000060: 9ad3 f539 509d b23d 239d 85bc ccf6 1c3d
00000070: 551b 17bd 627d cdbd 0ee3 28bd 98ac 8abd
00000080: adf5 733d 2968 4c3d 0c08 64bc 6ae3 0dbd
00000090: 1cd4 3e3d 4571 d5bd 113b 1ebd e0a8 163d
000000a0: d259 733c 41d2 97bd 263a 913d ec9e 3d3d
000000b0: 3679 77bd df3c 703d 6a87 dcbd dec0 7f3d
000000c0: f3dd 843d 8825 223d d485 79bd 8525 a3bd
000000d0: 6d26 17bd 750b 4ebd 50af 04bd 285c 6e3d
000000e0: e52f 8abd f2e4 603c e71f d5bd 9425 bcbc
000000f0: 7f6b 303d 4aa2 d0bd 5480 8dbc 5405 99bc
00000100: b00f 9bbd 01b6 b8bc fd02 d8bc a43d bc3d
00000110: 0cb0 55bd fca3 803c 60e1 92bd 18bb 9ebd
00000120: d108 c03d b071 863d ac19 91bd d541 ccbc
00000130: 4c01 33bd 83c8 a73c fa9a b1bd 3791 c4bd
00000140: 0990 c4bc 9d75 70bd e1b6 dd3b 4c64 8d3d
00000150: 26b7 b33c 6b00 bebd 3556 903d c05b 9a3d
00000160: 40f6 c336 950c c23d e731 053d 12da bc3d
00000170: 5d2e fbbd 7de0 a6bd 6223 44bd 4660 133b
00000180: 5d55 97bd efe2 5abd 94f5 5bbd 6392 8ebc
00000190: 5735 463d 6efe 633d a3e8 fabc 0928 33bd
000001a0: 70fb 1dbd 14e4 3d3c 9064 a4bd 9c9b da3c
000001b0: ba56 693c dd4d bb3d 160f 69bd 5ba4 de3d
000001c0: 3dfb 03bd ecdc 67bd d72c 863d 47bf 523d
000001d0: 8feb 7fbd b0fc b0bd 7eeb 633d 05f1 03be
000001e0: 81de 7e3b 7905 b2bd 32dd e0bc 7a19 69bd
000001f0: bf29 713d 2c8d a3bc 8128 d5ba 09e8 8e3d
00000200: 5722 82bd c220 9d3c 572d 4cbd 9c45 b7bd
00000210: f47b 5d3a 9a52 db3c 8ed3 ce3d 2ff1 c0bd
00000220: d910 99bc 17ae 833c 2968 e83c e38b 053d
00000230: 177e 59bd f104 0dbc 68d4 293d 8335 bdbd
00000240: 2516 6a3d 925e a5bd 915b 5f3d 6ead e03c
00000250: 6409 f7bc 7239 a03c 680a 903d 6787 aa3d
00000260: 00da 9f3d 734c 26bd b263 f53c 0df1 3e3d
00000270: 58b3 473d 537b 9a3d c87a 62bd dd1b 623d
00000280: 1c9d 58bc 2927 9bbd f7da aebc 86c9 ac3d
00000290: b43b 1abd b055 60bc 78b1 cdbb ac9a ebbc
000002a0: 0d25 d03b 0802 993d b788 0c3d 8ab4 093a
000002b0: a521 d1ba 1fdb 8fbd 918c e0bc 5c36 41bc
000002c0: 531c 7ebd df02 283d 4c62 203d fd06 183d
000002d0: c0ca 5a3c 98c7 c63d ef86 c63d dbdb 633d
000002e0: b966 8c3d 4939 0abd 85aa 523d 2c58 05bd
000002f0: b5a0 4c3d 3ef1 00bd 0af1 03bc be18 b33d
00000300: 125f 393d 69f1 943d fe44 813d 02a1 9c3c
00000310: ff64 eb3c bffd 7e3d e84f 253d 8400 803b
00000320: 5d83 3dbd 3374 b3bc b815 22bd 3d92 533c
00000330: 2f1e 5fbc 3822 023d 7dfb b83d d644 ec3d
00000340: 7e66 48bd 58ce e93b 834a 893d fb1f 68bd
00000350: 6717 883d e927 01bd 7e76 76bd 57e0 58bd
00000360: 081d 9bbc 5f4e a6bd 3620 213d 6ce0 1a3d
00000370: 7302 453d 2c1c 933d 43bc 44bc 4fe4 b0bd
00000380: c81e 04bd cc9d 37bd 6b9d 41bd 4548 263d
00000390: 7379 7abd aa63 33bd 7ce0 b23d ab5f a5bd
000003a0: dee0 bc3c b371 62bd 853c f53c b877 513d
000003b0: 64ad 45bd b15b 003d 359b 0dbd 8998 253d
000003c0: 3c9c ae3d 6881 44bd bb18 a23d a5f9 923d
000003d0: 128e c03d 450d a43d 0e35 833c 0728 ee3c
000003e0: d3cc 023d 8712 0fbd 1c68 ecbb 63c1 803b
000003f0: 24c4 19bd cf2c 313c 5ecd fdbc eaa6 eabc
0.07007901 -0.005081799 -0.004775885 -0.04265946 -0.037521556 -0.067461304 -0.051838934 0.116550416
-0.02534323 0.054182723 -0.04138687 0.0404676 -0.06887045 -0.019036341 -0.103924 -0.015542796
0.037424088 -0.07440573 0.03146377 -0.015060888 -0.13440438 0.037625935 0.04851748 0.038582
0.00046887697 0.08721411 -0.01631028 0.0383213 -0.0368913 -0.100336805 -0.04123216 -0.06771201
0.059560467 0.049904022 -0.013917934 -0.034640707 0.046589002 -0.10421995 -0.03863055 0.036782146
0.014852958 -0.074131496 0.07091169 0.046294138 -0.06041833 0.0586518 -0.10768016 0.06243979
0.06487646 0.039586574 -0.060918644 -0.07966141 -0.03690188 -0.050303895 -0.032393754 0.058193356
-0.067474164 0.01372646 -0.104064755 -0.022967137 0.043071266 -0.10187204 -0.017273106 -0.018679298
-0.075713515 -0.022547724 -0.026368612 0.091914445 -0.052169845 0.015703194 -0.07171893 -0.07750529
0.093766816 0.06564653 -0.07084975 -0.024933735 -0.04370241 0.020481354 -0.086721376 -0.0959801
-0.023994463 -0.058705915 0.0067661856 0.06903896 0.021937918 -0.092774235 0.07047693 0.07537031
5.84012e-06 0.09475056 0.032518294 0.09221281 -0.122647025 -0.081482865 -0.047885306 0.0022487803
-0.07389329 -0.053439077 -0.053701 -0.017403787 0.048390713 0.055662565 -0.030628508 -0.043739352
-0.038569868 0.011590023 -0.08026993 0.026685528 0.014241869 0.091457106 -0.056899153 0.10871192
-0.03222202 -0.056607172 0.06551521 0.051451948 -0.062480506 -0.08641946 0.055644505 -0.1288491
0.0038889947 -0.0869245 -0.027449224 -0.056909062 0.058877703 -0.019964777 -0.0016262681 0.06977851
-0.06354206 0.01918066 -0.049847927 -0.08948824 0.00084489514 0.026772786 0.100989446 -0.09421002
-0.018684791 0.016074223 0.02836998 0.03260411 -0.053098764 -0.008607135 0.041462332 -0.09238722
0.057150025 -0.080746785 0.054530684 0.027426448 -0.030155845 0.019558642 0.07033235 0.08326607
0.07805252 -0.04060025 0.029954765 0.046616603 0.04875502 0.075430535 -0.055292875 0.055202354
-0.013221052 -0.075758286 -0.021344645 0.08436875 -0.037654594 -0.0136923045 -0.0062772594 -0.028760277
0.006352073 0.074710906 0.03431007 0.00052530377 -0.0015955461 -0.07024216 -0.027410777 -0.011792745
-0.06203873 0.041018363 0.039156243 0.03711604 0.013354003 0.09706038 0.09693705 0.055629592
0.0685553 -0.033746038 0.05143215 -0.03255479 0.04995795 -0.031480066 -0.008053074 0.087449536
0.04525668 0.07272608 0.06311987 0.019119743 0.028734682 0.06225371 0.040359408 0.0039063115
-0.046267856 -0.021905994 -0.039571494 0.012913284 -0.013618036 0.031770915 0.090323426 0.11536567
-0.04892587 0.007135194 0.06703665 -0.056671124 0.06645089 -0.031532202 -0.060171597 -0.052948322
-0.018934742 -0.08120417 0.03933736 0.03781168 0.04809804 0.07183108 -0.012007776 -0.086372964
-0.032255918 -0.04482822 -0.047269266 0.040596265 -0.06115098 -0.04379622 0.08734223 -0.08074888
0.023056444 -0.055284213 0.029936085 0.051139563 -0.04826106 0.031337444 -0.034571845 0.040428672
0.08525893 -0.047974974 0.07914873 0.07176522 0.09402098 0.080103435 0.01601651 0.02907182
0.031933617 -0.03492978 -0.0072145592 0.0039293035 -0.03754057 0.010813906 -0.030981716 -0.028644044

bias f4 [128]
00000000: 234a 97bd 414f db3d ff97 c9bd 9859 d53d
00000010: 21fd 86bd da5c 983c e343 8b3d 9dde 44bd
00000020: 7f0d 243d c693 ab3c 1354 3dbd 156a 7abd
00000030: feaf 273d 5b75 99bc f08d 73ba 480a 0abd
00000040: 77b5 313d f39b 05bd 909e 72bc ffd2 5a3d
00000050: 98bc adbd 8895 8a3d 1430 b1bc 4d99 f3ba
00000060: 2b7e 233d 8284 b9bc ef22 183d 3d53 5a3c
00000070: e2a3 ca3d 9e46 86bc e3bd 773d a110 7dbd
00000080: 6115 5a3d 84ba a53d c2d1 72bc 6fe9 bf3d
00000090: 8dc0 e13d 291e c3bd 863b 3e3d 0bff 973d
000000a0: 9b31 85bd 4b83 d8bb eb68 3dbd ebf1 84bd
000000b0: 9d2f dcbc e0d9 a4bc 487c f1bb 9adf 943d
000000c0: 9335 963d 5699 64bc 6d7b 8dbd e745 a13c
000000d0: e7e2 aebc 8dfe 93bc 0371 9f3c dd80 92bc
000000e0: e6c7 603d 833d 153d db9c ddbc 7832 e0bc
000000f0: 1c42 383d ad07 3f3d f46f d73d 3a72 113d
00000100: fe95 403d b678 d33d 1ee3 a1bc ca8b 7ebd
00000110: 796b b03d ba35 03bd e972 103d d01d a43d
00000120: 6480 9ebc a893 223d bbe0 db3b 7d23 8f3d
00000130: 5714 a93d 35ee 673c b494 4cbd 7ef3 ae3d
00000140: 82c6 39ba 71d7 d33b 15e8 ea3d 4831 6f3d
00000150: 95b6 b03d 8498 343d 44d3 55bd c049 a6bc
00000160: 00d3 bcbb b584 e13d 5fc7 50bd bb57 3abd
00000170: 88bb 4a3c 31e4 a5bb d603 56bd d286 903d
00000180: eaf7 6c3d e5d5 0cbd 2a62 82bd 9ac9 5b3d
00000190: 267d 843b 9cb9 aa3d 2b77 f13d 1167 49bd
000001a0: 3c7e 68bc 6984 00bd 075e fcbc d66a 90bc
000001b0: e093 71bd f4ca 7d3d baf0 d0bd c1fe 013c
000001c0: e802 823d 27dc bf3c 29d5 38bd bf20 6c3d
000001d0: dbeb 38bd 2b12 2dbc b420 ae3d 3ab4 c6bc
000001e0: 1a40 873c d1a8 a43d 95c0 883d bc6a 893d
000001f0: fa8a e3bc 0c67 583d 008f cb3d 4855 0bbc
-0.07387187 0.10708476 -0.09843444 0.10417479 -0.06591249 0.018598963 0.06800058 -0.048063863
0.040051933 0.020944487 -0.046222758 -0.061136324 0.040939324 -0.018732717 -0.00092908647 -0.03370121
0.04338595 -0.032619428 -0.014808312 0.053423878 -0.08483237 0.06766802 -0.02162937 -0.0018585116
0.039915245 -0.022646192 0.03714269 0.01332551 0.098945394 -0.016391095 0.060483824 -0.061783437
0.053243045 0.08092216 -0.014820518 0.09370696 0.11023054 -0.09527237 0.046443485 0.074216925
-0.06503602 -0.006607448 -0.046242636 -0.06491455 -0.026878173 -0.020123422 -0.007369552 0.07269211
0.07334437 -0.013952574 -0.06908307 0.019686652 -0.02134843 -0.018065715 0.019463068 -0.017883712
0.054878138 0.036435615 -0.027052334 -0.027367815 0.04498492 0.04663818 0.105194 0.035509326
0.047018044 0.10325758 -0.019761618 -0.062145032 0.08614249 -0.03203366 0.035265837 0.08013499
-0.01934833 0.039691597 0.0067101396 0.06989191 0.08255833 0.014155914 -0.0499465 0.08542536
-0.000708677 0.0064648916 0.114700474 0.058396608 0.08628575 0.044090763 -0.05220343 -0.020298839
-0.005762458 0.1101164 -0.050971385 -0.045493823 0.0123738125 -0.005062603 -0.052249752 0.07056965
0.057853617 -0.034383673 -0.063663796 0.05365906 0.004043239 0.083361834 0.117903076 -0.049170557
-0.014190253 -0.031376276 -0.030806554 -0.017629068 -0.058978915 0.06196113 -0.10202165 0.007934273
0.063482106 0.023420407 -0.04512516 0.057648417 -0.045146804 -0.010563414 0.085023314 -0.02425586
0.016510058 0.08040012 0.06677357 0.06709811 -0.02777623 0.05283265 0.099393845 -0.008504219

weight f4 [128, 128]
00000000: 1aba 273d b0c9 b5bb 3ec7 1db0 6fa9 febb
00000010: b696 5bbd 04c1 4e3b eab9 972d 2ad6 08ab
00000020: 59cc 933c e697 2c2f 2124 42bd 9c7f cc98
00000030: fc03 213d 60e8 143c f000 123b 7110 b6bb
00000040: dc2b 013d 82dc 4a03 f446 dfbc d4b7 07bd
00000050: bf03 94bc 2190 2ea9 dd78 eabb f762 f015
00000060: a5f5 b5bb acab 98af e914 debb 9143 37bb
00000070: 21af e8bb 7db9 aebc 55a8 0c3d abc1 053d
00000080: 1e9b 823c a8dd 01bd 6f88 b68e bb96 823c
00000090: c062 3d3d faa6 3f26 7e11 4abc f8aa 9fbc
000000a0: bb09 4c3b ded7 cebb 040b 0204 2e8c 4d3d
000000b0: 0a7e d9bb 5724 74bd 72a6 63bb 9f6b d0bc
000000c0: 9631 b4bb adaf b0bb 525d a8bb a6ab 6bbd
000000d0: 974f 3cbb 0a5e 733c 3c8d 273d be2e 50bd
000000e0: f7e0 76bc 3351 4abc 1ef5 9bae 764c 31bd
000000f0: 4641 a2ac 2e3c 0fbc 80ff 16bc bd3f 7ebc
00000100: 3438 1bbd cc67 3caf 88fd 96bb 1aa7 41bc
00000110: d227 182c 6581 05bc 6b09 54a5 0cd2 65bc
00000120: 24a5 48bd 2736 c82f f69c df3b cfcd 683c
00000130: 28db a783 3d62 93bb 4489 9cbb 510f 04bd
00000140: 0b03 c0a3 5c2d 83bc 381c c6bc 8749 833b
00000150: 476f 5ebc 3ddf e93c 9881 3fbb 8e45 85bd
00000160: 898b 6cbc 1128 783b 0bea 7cbb fb91 7da3
00000170: a647 3513 8a4c a115 9bef 2fba 52e4 0fbd
00000180: de9b 19bc f782 71bc baa4 edbb ce99 f23c
00000190: 7058 4a3d c33a 40bc 97e2 1dbc 468f b6bb
000001a0: d92d 29af 1116 77ba e843 e83c 4f9d f7bb
000001b0: 0068 8dad 503c 4dbd feb4 649a 5db4 6dbb
000001c0: 656a 46bd 621c e6bb 1f0b 243d 3573 4eae
000001d0: 3a2c 9eab 4eda 672d cd47 b7bc 515a 9099
000001e0: 65cd 093d fee9 51bc 6891 89bb 6d35 1cbc
000001f0: 8d03 383d 7e42 153d 893a aab9 5a49 1330
00000200: d594 92bc ea57 74bd ecb6 22bd e466 8e3c
00000210: eacc 8839 7837 723d 9146 633d c05e f93c
00000220: 4071 b83c 36da 7bbd d976 6abd 0291 bd3b
00000230: b05d 34bd 2237 b33d d3b6 033c d775 c83b
00000240: b0c4 47bd 721f 3dbd c953 c03d c4f9 85bd
00000250: e286 26bc 301e 7b3d 0610 4a3c e058 4c3c
00000260: e4bd 963d f7a8 1b3b c342 973d c387 993c
00000270: 9609 b538 ce9d 71bd 2802 803b 7f5c 9f3d
00000280: c517 003d 396c 3bbd 97b5 13bd 6d85 68bd
00000290: 935f 67bd 9d48 bc3c c28b 30bd 6780 4a3d
000002a0: 14d9 053d 86a6 85bd f28c 80bc d57d 143d
000002b0: 91da 95bc bc2c 753d 632a 633d b141 b03d
000002c0: a846 0cbd b14c 983d c996 c3bd 1a29 b03d
000002d0: 4520 1b3c a778 9e3d 8a84 29bd 0309 edba
000002e0: bc13 30bd 115a 5abd 1f3d 5b3d 0485 6f3c
000002f0: 97b7 993d 7dcf 1cbc 15a2 1b3d f52f 393b
00000300: 011f 0dbd 46a8 a93d c0a4 64bd cd32 86bb
00000310: 504a 85bc 5f59 0bbc 7d23 4bbd 8a23 483b
00000320: b4f4 0538 4b53 623d cb6d 613d 5736 c03d
00000330: 4fa2 0bbb b281 463d 4a30 ebbd 203f cdbc
00000340: 73d7 5dbd c217 523c b5ab a33d 386a a4bc
00000350: bd12 793d ce52 a9bc 0d2c 9ebd 42a4 1fbd
00000360: 29e6 213d 8e0c 8b3d 2f54 46bd 95dd 113c
00000370: 1d9b b93b 6506 2dbd c873 9abc f13e 803d
00000380: 321a 543d 9ab8 a4bd 0b24 78bd 3f91 77bd
00000390: b020 57bd 0bd2 b8bc 0e35 dd3c 6901 3ebc
000003a0: c058 44bd dfac b13d 2a7e 9a3d 7595 8dbc
000003b0: ed00 92bd bf51 8b3d 2904 bfbc 90b0 6dbd
000003c0: eb34 5f3d fba2 01be 3254 cabb b0f8 5f3d
000003d0: fd27 d6bb 6ed2 06bd 28a6 443d c590 cdbd
000003e0: ed22 99bc 1c59 8cba 2540 923d 63a6 5abc
000003f0: 7514 77bd 161b c3bd d621 3e3d c09b 8cbb
0.040948965 -0.0055477247 -5.739941e-10 -0.007771663 -0.053610526 0.0031548152 1.7249275e-11 -4.861412e-13
0.018041776 1.5697274e-10 -0.047397736 -5.2861617e-24 0.03931044 0.009088606 0.002227839 -0.005556159
0.03153597 5.9615595e-37 -0.027255513 -0.033134297 -0.018068193 -3.8760773e-14 -0.0071555213 9.709137e-26
-0.0055529648 -2.777062e-10 -0.006777395 -0.0027963857 -0.007100955 -0.021328682 0.03434022 0.0326554
0.015943106 -0.03170553 -4.4997845e-30 0.015941015 0.046236753 6.649273e-16 -0.012333272 -0.019490704
0.003113373 -0.0063123545 1.5286485e-36 0.050182514 -0.0066373395 -0.05960497 -0.003473666 -0.025441943
-0.005499075 -0.005392036 -0.005138078 -0.057536744 -0.0028733963 0.014853964 0.040906176 -0.050825827
-0.015068284 -0.012348461 -7.0921255e-11 -0.04328581 -4.6115637e-12 -0.008742375 -0.009216189 -0.015518126
-0.037895396 -1.7135376e-10 -0.00460786 -0.011819625 2.1622604e-12 -0.008148526 -1.839126e-16 -0.01402713
-0.048985615 3.6418266e-10 0.006824131 0.014209225 -9.865694e-37 -0.004497795 -0.0047771055 -0.03224117
-2.081797e-17 -0.01601284 -0.024183378 0.004006568 -0.013576335 0.028548831 -0.002922153 -0.06507407
-0.014437565 0.0037865678 -0.003859165 -1.374607e-17 2.2880737e-27 6.514814e-26 -0.0006711424 -0.035129853
-0.009375541 -0.014740697 -0.007252303 0.029614355 0.049400747 -0.01173276 -0.009636543 -0.0055712787
-1.5386749e-10 -0.00094255904 0.028352693 -0.0075565944 -1.607603e-11 -0.050106347 -4.72955e-23 -0.0036270835
-0.04844131 -0.0070224265 0.04004967 -4.69413e-11 -1.1238851e-12 1.3179303e-11 -0.022373104 -1.492573e-23
0.033643145 -0.012812136 -0.004198242 -0.009534222 0.04492526 0.036440365 -0.0003246854 5.358253e-10
-0.017893234 -0.059654154 -0.03972523 0.017383046 0.00026092614 0.05913493 0.05548722 0.030440688
0.02251494 -0.0614874 -0.05724225 0.0057851085 -0.04403466 0.0875075 0.008039194 0.006117563
-0.04877156 -0.046172567 0.09390981 -0.0654178 -0.0101639945 0.061308086 0.012332922 0.012472361
0.073604375 0.0023751834 0.07385781 0.018741494 8.632538e-05 -0.058988385 0.003906507 0.07781314
0.03127267 -0.045757506 -0.03606185 -0.05676787 -0.05648763 0.022983843 -0.043102033 0.04943886
0.032677725 -0.065259025 -0.015692208 0.036252815 -0.018292697 0.059857115 0.055460345 0.0860628
-0.03424707 0.07436503 -0.09550244 0.086015895 0.009468143 0.07737856 -0.041386165 -0.0018084351
-0.04298757 -0.05330855 0.053525086 0.014619116 0.0750572 -0.009570953 0.03799637 0.0028257344
-0.034453396 0.08284049 -0.05582118 -0.0040954114 -0.016270787 -0.008505194 -0.04959439 0.003053876
3.193757e-05 0.055255216 0.055036347 0.093853645 -0.002130646 0.04846353 -0.1148382 -0.025054514
-0.054160547 0.012823047 0.07991735 -0.02007018 0.060808886 -0.020669367 -0.07723246 -0.038975008
0.03952614 0.06789504 -0.048420127 0.008902927 0.005664243 -0.042242426 -0.018854037 0.06262005
0.051782794 -0.080430225 -0.06058125 -0.06044125 -0.052521408 -0.022561094 0.027002838 -0.011597016
-0.0479362 0.08675551 0.07543595 -0.01728318 -0.07129083 0.06802701 -0.023317413 -0.05802971
0.054493826 -0.12659828 -0.0061745876 0.054680526 -0.0065355287 -0.032915525 0.04801002 -0.10037378
-0.018693412 -0.0010707709 0.07141141 -0.013345334 -0.060322244 -0.095266506 0.046418987 -0.004291028

bias f4 [128]
00000000: 10fc 60bd 7744 b33d 8ed6 833d c139 c63d
00000010: acd1 423d 48ad 703d 4939 ad3c e319 df3d
00000020: 6aba 903d f6dc 233d 2d0e a53c a445 a4bd
00000030: 364f 6c3d f5f8 9f3b 647d 9f3c b1f0 e6bc
00000040: a9a5 483d 1797 89bd 1a41 0bbc 8fb5 6e3d
00000050: 3ecc 933d 507c a03d 84cc 933d 659a 82bd
00000060: 4628 993a 6376 b1bc 86a6 95bd d8b8 a73c
00000070: f8f5 23bd 375b b9bc 3570 9a3b 3543 bd3d
00000080: db13 94bd 297a 12bd 2b69 bbba eeaf f43b
00000090: decc 7abd 6449 bd3d 32ad 2ebd be61 513c
000000a0: e14b 8a3d da78 21bb 689e e83d 4952 fdbc
000000b0: 6805 b73d 636e 443d 4be0 6d3d 2471 5dbc
000000c0: 833a 923c 9ebe 113d aecb 0f3d 1abd 9bbd
000000d0: 6201 c9bc e39c a13d 2f6f 34bd 2232 b7bc
000000e0: b51e 0d3d fea3 b53d 2eae bb3d 594b 983d
000000f0: be01 fb3c 1353 84bd 60fb c83d 92b6 9e3d
00000100: 3ff8 96bc fca8 92bc fa8a a83c 84df 51bd
00000110: cdeb 3c3d 6b23 95bc b5c3 bbbc a70a 74bd
00000120: 392c b23c 05f0 83bd 3330 9e3c 55d0 0ebd
00000130: 0613 efbc 0c82 453d 04d4 523d 0cde 813d
00000140: 6389 81bd 578d c93c 87a8 b63d 71ca 35bd
00000150: 6a87 d43d ebc2 85bd 9f88 b03d e716 b0bc
00000160: 24a3 c53d 506d f93c 92e1 3f3d 5868 cc3c
00000170: 343d c9bc d7b8 a03d ce96 f83c eb17 fabc
00000180: eb24 083d 2b51 7c3d 364b 0a3b a95a ea3d
00000190: 526c 18bd 206c a03d 03b6 be3b be85 8cbd
000001a0: 4a24 0e3d 8e69 4cbb af72 28bd a440 f1bb
000001b0: c775 25bd d0e7 45bb 1fe2 eabc 9de1 243d
000001c0: 7859 023d 8be5 76bd 5050 1abd 7f9a 16bd
000001d0: b029 f73a f730 a93d 775e e53c 8628 8b3d
000001e0: 9965 263d dadd 9d3c 326a 273d 52e8 d4bc
000001f0: 8b01 983d f2e6 4ebb 42b0 2dbd a2fe 713d
-0.054927886 0.08753293 0.064374074 0.096789844 0.04756324 0.058759004 0.02114548 0.108936094
0.07066806 0.040005647 0.020148361 -0.080210954 0.05769273 0.004881973 0.01946897 -0.028190942
0.04898611 -0.06718271 -0.008499408 0.058278617 0.072166905 0.07836211 0.07216743 -0.06377105
0.0011684976 -0.021662896 -0.073071525 0.020473883 -0.040029496 -0.022626502 0.004713083 0.09241334
-0.0723035 -0.035761032 -0.001429831 0.0074672615 -0.061230533 0.09242514 -0.04264564 0.012779651
0.06752754 -0.0024638684 0.113583386 -0.030923026 0.08936578 0.047956835 0.05807523 -0.013515744
0.017850166 0.035582177 0.035106353 -0.07604428 -0.024536792 0.07891252 -0.044051345 -0.022362772
0.034453113 0.0886917 0.091640815 0.074362464 0.03064048 -0.06461158 0.09813571 0.07749666
-0.01842892 -0.017902844 0.020574082 -0.05123855 0.046123315 -0.018205365 -0.022920469 -0.05958047
0.021749603 -0.064422645 0.019310093 -0.03486665 -0.029183876 0.048219725 0.051471725 0.0634118
-0.063250326 0.024603529 0.08918863 -0.044382516 0.10377391 -0.06531318 0.086198084 -0.021495296
0.09650257 0.030447632 0.04684598 0.024952099 -0.024565317 0.078477554 0.030345347 -0.030528983
0.033238333 0.061600845 0.0021101958 0.11443073 -0.037212677 0.07833123 0.0058200373 -0.06861447
0.034702577 -0.0031190845 -0.041124996 -0.007362442 -0.040395524 -0.0030197985 -0.028672276 0.040254224
0.031823605 -0.060277503 -0.03767425 -0.036768433 0.0018857028 0.082612924 0.027999146 0.067948386
0.040624235 0.019270826 0.04087276 -0.025989685 0.07422169 -0.003157076 -0.04240442 0.059080727

weight f4 [128, 128]
00000000: e440 99bc d004 a53d c4f3 a23d 84d0 853d
00000010: d902 5b3d 1ca3 e63c 36d7 1ebd 60eb 4d3d
00000020: 2afd f9bb 9e02 f9bc 0705 bc3d 08c6 143d
00000030: 075d ca3d 74f2 30bc 2ced 7c3d 4aeb 1f3d
00000040: 6f8d 29bd 65d0 24bd 1ca9 8abc 9fc4 3bbd
00000050: 4447 0d3d ef4c 90bd f7f8 8e3d 3aeb 4c3d
00000060: cb72 b5bc 782a 183d 12c9 56bd 5d00 0bbd
00000070: ad6d 2a3d 8b9b 723c a811 33ba ea65 bd3d
00000080: e282 22bd efa3 6e3c ae21 cebc 3142 ba3d
00000090: 2396 5dbd 751d 3a3d 8084 14bb eaff 913d
000000a0: c660 b23d 9c38 19bd 104f 6abd 1e8d 11bd
000000b0: 7c2a fcba 11b8 793d bf4e 713c 089b 9e3c
000000c0: 11ee 50bb 9c57 02bd 9acc 503d 0c4b a53d
000000d0: b209 09bd c435 043c 293e 9abd 74bc 8a3d
000000e0: d84c afba 1c85 c63d 44f7 2ebd dc2d b13d
000000f0: 3d73 5dbd 237b debd e66f 843d 9935 81bc
00000100: 8980 94bc 027e 20bd fae0 0cbd dfdb 38ba
00000110: 1d36 a73d 448b c6bc 89c8 ae3b 1838 7e3d
00000120: 7558 98bc c1fc 693d 7c1c 7fbd 113d 37bc
00000130: dd45 493d 9c1d dbbc a73e 9abd c6e2 233d
00000140: 41ec 96bd d4a9 81bd a8d2 c03d 1829 b63d
00000150: 0412 22bd 241f 88bd e74d a53a f49c 6c3a
00000160: e95e 953d d643 87bd 6648 42bd 3871 c43c
00000170: 2805 ebbc da21 88bd 8f9b a33d a664 b23d
00000180: 8137 9c3d e939 373d 6227 f33b 9acc 1bbd
00000190: 8d81 033d 91b4 b73d d65d 7b3d d52f 94bd
000001a0: 9cb6 a93d 67c8 bb3d ea6c 903d a445 ce3a
000001b0: 4308 59ba 9093 993d 45fa 443d e810 bfbc
000001c0: 2cdc 4a3d bcd4 e7bc 41e5 d2bc f477 823b
000001d0: cb62 6fbd 05a1 3bbc 0b5d 9b3d 2b8a d0bb
000001e0: 5e70 ca3d 9984 983c b036 82bd 4a39 563c
000001f0: 0077 1ebb c895 fabb 2d4c 39bb 1ca0 87bd
00000200: b6df 0823 fa7c 0cbc 13e1 b1ba 7fda 00bc
00000210: d548 623c e962 05bc 8997 f63a 1c7f bf3b
00000220: c8c6 05bc dfae 0fbc 5590 10bc 6fa3 c99f
00000230: 7e44 02bb 5b5f 2fbc 5b79 c7bb a5d0 08bc
00000240: a635 1bbc 8d48 24bc fea2 7cbb fd4d 0bbb
00000250: f9b1 e43b bfa1 c9bb 0a9c fabb b480 0f3c
00000260: a110 16bb daac 9a16 1c93 10bc 7722 96bb
00000270: a29b 173c 3c79 88bb 68b8 10bc ea4b 14bc
00000280: 2fb8 0ba7 ea5d 0fbc 8c54 69bb d5bc e9bb
00000290: 5c37 13bc 31e8 2dbc 2ddd 39bc ac41 20bc
000002a0: d4a4 3abc b7fb 113c 9347 39bc 0abd 11bc
000002b0: 08b5 2dbc d278 10bc b7da 0bbc 4423 da3a
000002c0: 01ba 0fbc 9a76 a12e 449c 2abc 6c5a 0ebc
000002d0: 815d 05bc aaa9 fcbb 4e52 13bc 2de7 0ebc
000002e0: e5a9 b6bb fe9d 313c aead 7f3b 4585 573c
000002f0: 2044 023c 59ec 783b e420 da3b d34f 11bc
00000300: af5b 17bc 3499 ee2d 00af 19bc 45b9 10bc
00000310: 51ba fabb b3e2 c727 89ac a73b 7602 8483
00000320: 7193 e23b b970 11bc 6ea5 59bc 7cad 29bc
00000330: 732e 5e3c 334c b93b 2e62 10bc aead 23bc
00000340: 65c8 c8aa 1e92 2bbc 5aa8 583a 627f 1cbc
00000350: c3f3 14bc ea05 25bc bbac 46bc 9853 10bc
00000360: 3334 f6bb 4b44 0f3c 5f78 203c ef1e e4ba
00000370: 68ab 04bc 4d93 a0bb c41f 38bc 6c53 3dbc
00000380: d5bf 1abc ff67 27bc 1738 11bc b7f2 f2bb
00000390: 6119 5abb a184 dd3b cb70 673c ddb7 4fbc
000003a0: 9d08 2bbc 16ba 31bc cfbc 0fbc c091 1cbc
000003b0: a34d 602e 0928 99bb 7c88 18bc 25c5 f33b
000003c0: dabf 19bc 4672 103c f34c 6d3c 6b35 17bc
000003d0: aea5 a93b 6b04 30bc cefe 663c 0041 2dbc
000003e0: bb53 1fbc c1d3 1bbb 0f0c 26bb 1613 743c
000003f0: e653 10bc 3169 7b3a 83bf b5ba a057 0f3c
-0.0187077 0.080575585 0.07956651 0.06533912 0.053469513 0.028153948 -0.03877946 0.0502733
-0.0076290565 -0.030396756 0.091806464 0.03632167 0.09881025 -0.010799993 0.061749622 0.03904275
-0.041394647 -0.040237803 -0.01692634 -0.04584181 0.034491792 -0.07045924 0.0698108 0.050029017
-0.022149464 0.037149876 -0.05243785 -0.033935893 0.0416085 0.014807592 -0.0006830939 0.09247954
-0.0396756 0.014565452 -0.025162544 0.09094656 -0.05409826 0.04543825 -0.0022661984 0.0712889
0.08709864 -0.037407503 -0.057204306 -0.03553497 -0.0019238736 0.060966555 0.014728247 0.019361034
-0.003188018 -0.031821832 0.050976373 0.08070955 -0.03345651 0.008069459 -0.07531387 0.06774226
-0.0013374342 0.09693357 -0.04271628 0.08651325 -0.054064978 -0.1086333 0.064666554 -0.015772628
-0.018127697 -0.03918267 -0.034394242 -0.00070518063 0.08164618 -0.024236329 0.0053339642 0.062065214
-0.018596867 0.05712581 -0.062283024 -0.011183993 0.049138892 -0.026747517 -0.07531481 0.04001119
-0.073692806 -0.0633122 0.094151795 0.08894557 -0.039567962 -0.066465646 0.0012611718 0.00090260734
0.07293493 -0.066047356 -0.047432326 0.023979768 -0.028688982 -0.06647082 0.07988655 0.087106034
0.07627774 0.04473296 0.0074204663 -0.03803692 0.03210597 0.08969987 0.061368786 -0.07235686
0.08286783 0.09169083 0.07052024 0.0015737307 -0.0008279124 0.074988484 0.048090238 -0.023323491
0.04952638 -0.028299682 -0.025744082 0.0039815847 -0.058443826 -0.011451964 0.07586106 -0.006364127
0.098847136 0.018617915 -0.06358087 0.013075182 -0.0024179816 -0.00764725 -0.0028274164 -0.06622335
7.419947e-18 -0.008574719 -0.0013571106 -0.0078645935 0.01381131 -0.008141258 0.0018813472 0.00584401
-0.008165069 -0.00876972 -0.008823474 -8.539719e-20 -0.001987725 -0.010703887 -0.0060874647 -0.008350526
-0.00947324 -0.010027063 -0.00385493 -0.0021256201 0.006979224 -0.006153315 -0.007647996 0.008758713
-0.0022898095 2.4989127e-25 -0.008824136 -0.0045817452 0.009253414 -0.004164843 -0.008833028 -0.009051302
-1.9389971e-15 -0.008750418 -0.0035603372 -0.0071331062 -0.008985367 -0.010614441 -0.011344236 -0.009781282
-0.011391837 0.008910111 -0.0113085685 -0.008895168 -0.010602243 -0.008817868 -0.008536032 0.001664259
-0.008772374 7.3425e-11 -0.010413233 -0.00868855 -0.008139969 -0.007710655 -0.008991791 -0.008722109
-0.005574452 0.010840891 0.0039013433 0.0131543325 0.007950813 0.003798267 0.006656753 -0.008869129
-0.009238168 2.7125503e-11 -0.009380102 -0.008833234 -0.007651605 5.5479383e-15 0.0051170033 -7.758828e-37
0.006914549 -0.008876973 -0.01328407 -0.010356303 0.013560879 0.0056548356 -0.00881247 -0.009990139
-3.5666188e-13 -0.010471849 0.00082648324 -0.009551855 -0.00909132 -0.010072211 -0.012126143 -0.008808993
-0.007513547 0.00874431 0.009794324 -0.0017404238 -0.008097507 -0.004900372 -0.011238042 -0.011555534
-0.00944515 -0.010217666 -0.0088634705 -0.007414188 -0.0033279287 0.0067601954 0.014126013 -0.012678114
-0.010439065 -0.010847589 -0.008773043 -0.009556234 5.100066e-11 -0.004673962 -0.009309884 0.007439273
-0.00938412 0.008816307 0.014483678 -0.009229044 0.0051772213 -0.010743241 0.014098836 -0.010574579
-0.009724553 -0.0023777338 -0.0025336777 0.014897129 -0.008809065 0.0009590565 -0.0013866279 0.008748919

bias f4 [128]
00000000: ca6b 263d 83bc 19bc 6728 8b3d 814b 0a3d
00000010: 50d8 4d3d f3e0 113d 8c73 b53c 2595 06bd
00000020: 6de8 8a3c d868 3cbc 128b cd3d 8c3f 9cbc
00000030: 6834 483d 5876 c7bb 7d4f 35bd 6ee5 0b3d
00000040: 96d7 8e3d b878 b13b d45b 713d 5ace 933d
00000050: ee03 9dbd 3d08 623c 0bc7 bdbd 53fc c8bc
00000060: b5e7 3b3d 0409 34bc 733f c9bc 3907 323d
00000070: d068 97bd 5de5 d83b d6d6 ef3c 0d6f 063d
00000080: b6e5 fcbc 2c3a 363d ec4f 50bd 756f 803d
00000090: 3995 8cbc 68b5 3d3c eef4 8a3d 81cd f7bb
000000a0: b3c5 5fbd 85ef cf3d 6488 2cbd db08 f03d
000000b0: d6a6 323c a79b 853d 133e ca3c 3aae 95bd
000000c0: d5ef ed3d c3ab bd3d f14a 38bd d10a 153d
000000d0: aa45 b23c b958 a5bd 3139 253d 24cd 8a3b
000000e0: 6558 bd3d 2695 09bc b01f c33d eca4 5b3c
000000f0: aae3 93bd 40d7 a9bd 9063 173d c872 ba3d
00000100: d904 153d b2b2 883d 06b9 413d b5d2 1dbd
00000110: 53eb 313c 5f54 b63c 9fc0 303d f384 24bd
00000120: aa49 343d fbfa a93d 48e2 3bbd 196d 723d
00000130: 3709 823d 1822 57ba 5021 5dbd 1169 e6bc
00000140: c89a cf3d 3c7f 7bbd 90eb 4d3d 522d 883d
00000150: 7acb fe39 24a1 e63d 799f cb3d c54f a6bd
00000160: 54e4 b63d 33c3 1fbd 4a84 923d 4bc5 3abd
00000170: b0bf b5bd a01b d73d e749 12bd 963e c43d
00000180: e9b4 713c 5f46 843c a557 3bbc 1ff7 8d3d
00000190: a828 4bbd 6c83 aa3d 771a 8b3d 85db 843c
000001a0: 91eb 863d 3664 103d 94af 88bd 8bdd 34bc
000001b0: 69a8 843d e701 c03d ad35 01bc 1693 94bd
000001c0: eaba 94bd 9bfb 223d 79ee 77bd 584e 09bb
000001d0: dd85 4cbd ef74 05bd 473f 853d 20de b4bd
000001e0: a2bb 283d 0616 49bd f889 adbc 0def 96bc
000001f0: d825 b5bc 5641 95bd bfa3 91bc 7a87 9f3d
0.04063014 -0.009383324 0.067948155 0.033763412 0.05025512 0.03561492 0.022149824 -0.03285708
0.016956532 -0.011499606 0.10036291 -0.01907327 0.048878103 -0.0060871057 -0.04426526 0.034154348
0.069747135 0.005416002 0.058925465 0.07217093 -0.07666765 0.0137959095 -0.0926648 -0.02453438
0.04587527 -0.010988478 -0.024566388 0.04346392 -0.07393038 0.006619139 0.029277246 0.03282075
-0.030871253 0.04448907 -0.05085747 0.06271259 -0.017160999 0.011578895 0.06784998 -0.00756234
-0.0546319 0.101531066 -0.04212226 0.11720439 0.010904035 0.06523829 0.024687802 -0.07308622
0.1161801 0.092612766 -0.044993345 0.03638727 0.021761734 -0.08073563 0.040337745 0.0042358804
0.092453755 -0.008397376 0.09527528 0.01340602 -0.07221158 -0.08293009 0.036960185 0.09103924
0.036381576 0.066747084 0.047295593 -0.038531024 0.010859328 0.022257028 0.043152448 -0.040165853
0.044015564 0.08299824 -0.045870095 0.059186075 0.06349414 -0.00082066795 -0.053986847 -0.028126271
0.10136944 -0.061400637 0.050273478 0.06649269 0.00048598257 0.11261204 0.09942526 -0.081206836
0.08930269 -0.039004516 0.071541384 -0.04559831 -0.08874452 0.10503316 -0.03571501 0.0958225
0.014752605 0.016146837 -0.01143447 0.069319 -0.04959932 0.08325848 0.06792157 0.016217956
0.065878995 0.03525182 -0.06674114 -0.011039148 0.06477434 0.09375363 -0.007886332 -0.07254617
-0.072622135 0.03979073 -0.06053016 -0.0020951238 -0.04993235 -0.03258222 0.0650621 -0.088314295
0.041194566 -0.04909327 -0.021183953 -0.018424535 -0.022112772 -0.072878525 -0.017778276 0.07789512

weight f4 [1, 128]
00000000: efe6 dcbc f1be bb3b 8c30 db3d 7ecf 763d
00000010: eb2a 3cbd 0f78 783c 80cb fa3d 7b2c a0bd
00000020: 310f 033e f9f8 2abc 7e4c f5bc 1931 cebd
00000030: 9405 a13c c021 92bd a3c8 9c3d 4af7 56bd
00000040: ee80 7e3d fafe a2bd 7b16 f3bc 5562 833c
00000050: c537 073e d0cd 44bd f5aa 1d3d 6318 cf3d
00000060: 33da c4bd 21e2 fcbb 9d28 783d bd75 59bd
00000070: 9863 d73d f2e7 963d 552f 883d 302f b3bd
00000080: 409e 223d c618 aabc 5290 f5bc 1d05 62bd
00000090: 5f29 47bc ee3b 803d b6de 26bd 33d5 9dba
000000a0: e7d9 d83c 727a 70bd 3341 2d3d f703 9fbc
000000b0: c974 9ebc ea03 9d3d 4e44 083e 1e87 793d
000000c0: 6e4e fcbc 67bd 823d fce8 3f3c 7986 d53d
000000d0: a763 34bd fa4e f53d 4bb1 cabc 43b6 4ebc
000000e0: 9ccb 69bd 8737 97bc ad6e d83d ee72 8cbd
000000f0: 166a 273d a923 ac3c 9298 56bd ff24 433d
00000100: bda4 8e3d 0a02 cd3d 8967 4d3d ae2a d23d
00000110: 2d78 6c3c 7e60 873d e418 dbbd f9e0 00bd
00000120: 1e20 b43d 2112 dabc 2735 263d 32a7 9cbd
00000130: c576 a1bd 2b83 26bd b244 883d c0a0 393c
00000140: 3700 51bd a099 973c e9f7 29bd ff99 743d
00000150: ec6d 0fbd e5c4 b8bd 9e22 49bd 9c35 b8bb
00000160: 6461 48bc ba6a bfbc e7f7 db3c 9fe5 82bd
00000170: 9eee 103c 6438 abbd ed68 a33d 0f49 9ebd
00000180: d05b a5bd 6b67 c73d 5949 94bb eac0 273c
00000190: e44f 88bd 09df 6bbd 95a1 a3bd c7a3 003e
000001a0: 972a a8bd 0f5e fd3c fc4a a6bb 89a3 a73d
000001b0: 304a 8cbd 9809 56bd 450d 0d3d 2c7d fc3d
000001c0: 9628 be3d 711a 1cbd 905e 983d ca09 e83c
000001d0: feab 32bc 9daf 43bd a652 fd3c 94de c33b
000001e0: 4c12 4cbd c3a8 0d3d c5f1 e43d 8f40 a1bc
000001f0: 7500 dcba cf50 8b3c bf43 7abd 7a39 f33d
-0.026965586 0.005729549 0.10702619 0.060256474 -0.045939367 0.015165343 0.12245846 -0.07820984
0.12798764 -0.010435336 -0.0299437 -0.100679584 0.01965598 -0.071353436 0.07655456 -0.052481927
0.062134676 -0.07958789 -0.029673805 0.0160381 0.13204868 -0.04804784 0.038493115 0.10112073
-0.09611931 -0.0077173864 0.060585607 -0.0530908 0.10517043 0.07368459 0.06649653 -0.08749235
0.0397017 -0.020763766 -0.029976044 -0.055180658 -0.01215586 0.06261431 -0.040739737 -0.0012041688
0.026471091 -0.058710523 0.042298507 -0.01941107 -0.019342797 0.07666762 0.13307306 0.060919873
-0.030799117 0.06383782 0.011713263 0.10426039 -0.04404035 0.11977954 -0.024742743 -0.012616697
-0.057078943 -0.018459095 0.10567985 -0.068578586 0.040872656 0.021013098 -0.052391596 0.047642704
0.06965015 0.100101545 0.050147567 0.10262047 0.014432949 0.06610201 -0.10698107 -0.03146455
0.08795188 -0.026619973 0.040578034 -0.076490775 -0.078839816 -0.040652435 0.066537276 0.01132983
-0.051025596 0.018505871 -0.04149619 0.059717175 -0.03501694 -0.0902193 -0.04910528 -0.005621625
-0.012230251 -0.02336632 0.026851607 -0.06391453 0.008845953 -0.08360365 0.079789974 -0.077287786
-0.080741525 0.09736522 -0.0045253453 0.010238865 -0.06655863 -0.05758575 -0.07989804 0.12562476
-0.08211248 0.03092864 -0.005074857 0.08185489 -0.06850088 -0.052255243 0.034436483 0.12328562
0.09285085 -0.038111154 0.07439911 0.02832498 -0.010905264 -0.0477749 0.030923199 0.005977461
-0.049822137 0.03458477 0.111789264 -0.019684104 -0.0016784804 0.017006306 -0.061099764 0.11876197
