bike_sharing/AutogluonModels/ag-20220404_171935/models/NeuralNetTorch_BAG_L1/S1F1/net.params (torch, 223614 bytes, 12 tensors)

weight f4 [13, 6]
-1.1608218 -1.225306 -0.24798691 -0.4927019 0.92278606 0.69898087 -0.34483838 -2.1238992
0.33361378 -1.2745999 0.33333662 0.33608472 0.106336914 1.234431 1.1207142 -0.24993415
-1.3684018 -1.6973995 0.5635976 0.81043094 0.5949276 -1.5422751 -0.353695 1.8523974
0.79390943 -0.6326885 -0.2002061 0.1596123 1.4263091 1.6071036 0.97193897 -0.869514
-0.62958616 0.021455292 -0.49344245 0.2623451 0.44246793 0.11722083 0.632192 0.44733477
-0.10656367 0.7898093 -0.27881163 0.05529447 0.51623815 2.2843597 -1.4568189 -1.5636436
-0.67941314 0.8598179 1.0634392 0.17183734 -0.22183393 -0.40643814 0.51026666 -0.3550954
-0.4384363 0.7533441 1.4768679 3.3803163 -1.5040036 -1.1917316 -1.0639862 -0.025188776
-0.14262535 0.694165 -0.82227474 0.02874392 0.8179308 -0.36214477 0.586136 0.64502925
-0.16819209 2.2154179 -1.7948376 -0.0058625867 -0.95921123 -0.870959
00000000: cf95 94bf d4d6 9cbf 48f0 7dbe 6c43 fcbe
00000010: b53b 6c3f 69f0 323f a88e b0be f7ed 07c0
00000020: 6dcf aa3e 1726 a3bf 19ab aa3e 4c13 ac3e
00000030: 2bc7 d93d d601 9e3f 9073 8f3f bdee 7fbe
00000040: ca27 afbf 6344 d9bf ef47 103f 6778 4f3f
00000050: 2d4d 183f 4569 c5bf 8317 b5be 5c1b ed3f
00000060: a63d 4b3f e0f7 21bf d402 4dbe 6871 233e
00000070: 4c91 b63f 92b5 cd3f fed0 783f 7898 5ebf
00000080: 8f2c 21bf 02c3 af3c 7da4 fcbe 1952 863e
00000090: 288b e23e 7911 f03d 56d7 213f 1009 e53e
000000a0: 0e3e dabd f130 4a3f 66c0 8ebe 747c 623d
000000b0: 2f28 043f f332 1240 0b79 babf 7925 c8bf
000000c0: 05ee 2dbf 071d 5c3f c71e 883f 21f6 2f3e
000000d0: 6f28 63be a918 d0be d6a0 023f 10cf b5be
000000e0: b97a e0be 29db 403f 020a bd3f 1a57 5840
000000f0: 3183 c0bf a98a 98bf b330 88bf b158 cebc
00000100: 610c 12be ccb4 313f 9980 52bf 5f78 eb3c
00000110: ea63 513f 0a6b b9be 020d 163f a320 253f
00000120: 8c3a 2cbe 68c9 0d40 3dbd e5bf f11a c0bb
00000130: de8e 75bf 2bf7 5ebf

weight f4 [25, 9]
0.031716518 -0.43822822 1.6277177 -1.4062873 0.30263022 0.49256232 -2.659682 -1.7334197
0.13492337 0.5492033 0.33154893 -0.029699693 0.27635646 0.35792485 0.38075483 -0.963835
-0.838407 -1.3095578 -0.18471047 -2.4703736 -0.105909266 -0.051956795 0.9329738 0.32074767
-0.40863287 -1.236306 -0.6262614 -0.47983125 1.9166178 -0.3980574 0.14071351 1.1707171
0.623198 -0.72540885 -0.88447356 -0.42934716 -0.77032995 0.59618396 0.5632889 0.4783286
-0.7877495 0.21675524 -0.11109312 0.07623674 -0.58871573 -1.2489312 -0.114712745 -1.0284469
2.6492665 0.9883827 -0.24020553 0.12019453 0.2424184 1.1477704 0.21476918 0.3229946
0.6243165 0.59935904 0.25666836 -0.6926498 -1.8362014 0.20174317 -0.7640361 0.28479162
-0.1714625 -0.30004683 0.9746407 -0.9668814 0.33738515 -0.0912475 0.9864799 -0.51548016
0.8980637 -0.7971264 0.41644916 0.30424973 -0.038710188 0.45087838 -0.22690949 -1.0098147
0.12513801 -1.225875 -0.113758415 -0.2859577 -1.5017942 -0.29016116 1.1179228 0.20395903
-0.18384235 -1.3952413 -1.137844 -0.7224153 1.4826487 0.32042047 0.6844151 -0.9290061
0.6941946 -1.8645408 -0.6000223 0.5048379 0.3856645 0.41350797 0.19548053 0.8814891
2.0374525 0.15924616 -0.065704435 -1.0775051 0.45953205 0.65308857 0.6378872 -1.2607907
-0.9301972 -2.1425357 1.1135765 0.048561513 1.0219065 0.84624153 -1.2384181 0.95222646
0.022319868 -0.88694715 0.946091 1.2854675 -0.6705856 0.56904227 0.32975712 0.0043302816
-1.5601379 1.031023 -0.38373038 1.5526493 0.1477186 0.3355064 -0.13744591 0.6071163
-0.07375919 -0.60983396 -0.112751804 -0.50420004 -0.47937527 0.898295 -0.86833787 0.82772005
0.5044602 1.234436 -1.4762986 -1.756313 0.11440612 -1.0609514 1.4854927 -0.09593502
-0.64571214 0.84921247 0.025258929 1.0294663 0.85589564 -0.57118493 -0.9703408 0.05155768
-0.014998531 0.7336018 0.058300704 -0.8389065 -0.5892056 -0.45173883 0.49966213 -1.2514433
-0.7618646 -0.6588765 -0.01617164 1.4381573 0.63728446 -0.52462363 -0.41003805 -1.3664384
-0.7767101 -0.5275715 -0.27159545 0.7523562 0.61613286 0.2979473 -2.0928912 0.5088086
0.23646861 -0.64285135 -0.055651758 1.1666341 0.4331151 -0.19891042 -1.160092 -0.33291236
-0.70048946 0.49796137 0.56149614 0.7851667 -0.1896763 -0.7234044 -0.13993928 -1.0046178
0.63579243 1.3633919 -0.763436 0.8792862 -0.5801979 1.332664 1.4216405 -0.62714785
0.6309794 -1.1354835 -0.122995034 -0.046703864 0.42265218 1.1369281 1.9422776 1.0011178
0.91897196 -0.42551142 -1.1564425 1.1983279 0.16605836 0.4469756 -2.3751276e-05 -2.148652
1.3795614
00000000: 2ee9 013d 735f e0be 0e59 d03f 3901 b4bf
00000010: 59f2 9a3e 2131 fc3e 3b38 2ac0 b2e0 ddbf
00000020: 5a29 0a3e 9698 0c3f c8c0 a93e c54c f3bc
00000030: 987e 8d3e ed41 b73e 4cf2 c23e e4bd 76bf
00000040: d7a1 56bf 979f a7bf be24 3dbe 9a1a 1ec0
00000050: f5e6 d8bd a6d0 54bd 5fd7 6e3f 0a39 a43e
00000060: 5438 d1be 463f 9ebf ab52 20bf 71ac f5be
00000070: bb53 f53f 2ece cbbe 3417 103e 0fda 953f
00000080: e789 1f3f 65b4 39bf dc6c 62bf 64d3 dbbe
00000090: 5834 45bf 839f 183f b433 103f 7ce7 f43e
000000a0: f4a9 49bf 16f5 5d3e ca84 e3bd 0222 9c3d
000000b0: 13b6 16bf fadc 9fbf 84ee eabd 26a4 83bf
000000c0: 958d 2940 a606 7d3f 70f8 75be 8d28 f63d
000000d0: 873c 783e 24ea 923f 74ec 5b3e 8c5f a53e
000000e0: 35d3 1f3f 986f 193f 096a 833e 7f51 31bf
000000f0: a608 ebbf c395 4e3e df97 43bf 35d0 913e
00000100: de93 2fbe bd9f 99be 0e82 793f 8a85 77bf
00000110: bfbd ac3e f8df babd f289 7c3f 82f6 03bf
00000120: 81e7 653f 7a10 4cbf d338 d53e 9fc6 9b3e
00000130: 938e 1ebd 88d9 e63e f65a 68be 9c41 81bf
00000140: 2e24 003e 79e9 9cbf 2cfa e8bd 0c69 92be
00000150: cb3a c0bf 0190 94be 1818 8f3f a3da 503e
00000160: 2b41 3cbe 4497 b2bf dfa4 91bf 36f0 38bf
00000170: 6fc7 bd3f 270e a43e d435 2f3f 58d3 6dbf
00000180: bdb6 313f 46a9 eebf 109b 19bf 0e3d 013f
00000190: d175 c53e 51b7 d33e 0c2c 483e 45a9 613f
000001a0: 9f65 0240 6d11 233e 0c90 86bd b0eb 89bf
000001b0: c947 eb3e d030 273f 934c 233f 9761 a1bf
000001c0: 6721 6ebf 4e1f 09c0 ad89 8e3f 70e8 463d
000001d0: d5cd 823f 49a3 583f 7c84 9ebf 1dc5 733f
000001e0: 28d8 b63c f80e 63bf 0533 723f 338a a43f
000001f0: 7fab 2bbf c1ac 113f edd5 a83e 09e5 8d3b
00000200: 99b2 c7bf 90f8 833f 4f78 c4be 36bd c63f
00000210: 8b43 173e 7fc7 ab3e 9fbe 0cbe f96b 1b3f
00000220: 0f0f 97bd 141e 1cbf 6bea e6bd 4113 01bf
00000230: ad70 f5be a9f6 653f 644b 5ebf 76e5 533f
00000240: 4e24 013f 0002 9e3f 5af7 bcbf ddce e0bf
00000250: c14d ea3d 41cd 87bf a024 be3f 9479 c4bd
00000260: 644d 25bf fd65 593f d0eb ce3c 8dc5 833f
00000270: fa1b 5b3f 2d39 12bf 4168 78bf 252e 533d
00000280: 66bc 75bc 54cd 3b3f b8cc 6e3d 94c2 56bf
00000290: 2ed6 16bf 504a e7be b7d3 ff3e 4b2f a0bf
000002a0: 8f09 43bf 21ac 28bf 637a 84bc 8a15 b83f
000002b0: 1325 233f bc4d 06bf 82f0 d1be 74e7 aebf
000002c0: 79d6 46bf ed0e 07bf 8f0e 8bbe 6a9a 403f
000002d0: e2ba 1d3f 8c8c 983e eef1 05c0 4841 023f
000002e0: d424 723e e891 24bf 19f3 63bd 4454 953f
000002f0: 43c1 dd3e 2caf 4bbe e57d 94bf 7d73 aabe
00000300: 4753 33bf cbf4 fe3e 36be 0f3f af00 493f
00000310: 813a 42be 0831 39bf 3e4c 0fbe 5197 80bf
00000320: 4bc3 223f a083 ae3f 8b70 43bf e718 613f
00000330: d987 14bf bc94 aa3f 51f8 b53f c38c 20bf
00000340: de87 213f 8657 91bf d2e4 fbbd 8d4c 3fbd
00000350: de65 d83e dc86 913f 8d9c f83f a124 803f
00000360: bf41 6b3f a2dc d9be 4f06 94bf cf62 993f
00000370: 340b 2a3e fcd9 e43e 7a3d c7b7 8483 09c0
00000380: 7895 b03f

weight f4 [5, 3]
-3.3318794 -1.447219 1.0997777 0.7630033 0.06655546 1.3700882 0.24322005 0.554801
0.89300644 0.9298134 -0.74237937 -2.3530586 0.19447562 -0.11499941 0.829209
00000000: 833d 55c0 793e b9bf 84c5 8c3f 2f54 433f
00000010: 3b4e 883d 0d5f af3f ad0e 793e 7007 0e3f
00000020: 129c 643f 4008 6e3f 930c 3ebf 8398 16c0
00000030: 9e24 473e d084 ebbd 0b47 543f

weight f4 [128, 31]
-0.1579892 -0.11441188 -0.024249591 -0.0799008 0.18105178 -0.12937893 -0.13029741 -0.16017863
-0.099218 0.1681392 0.15712926 0.14353804 0.09218933 0.14636853 -0.07045916 0.08107665
0.14597408 0.06952641 0.1534724 0.12363731 0.1324107 -0.10353919 0.08499268 0.017387869
-0.061464295 -0.13748725 -0.11494504 -0.14848436 0.121876016 0.13015 -0.04021081 -0.10247126
0.14294785 0.12370502 0.0073929713 -0.087855116 0.16998062 0.0784929 -0.12996492 0.1802873
0.12385311 -0.07556313 0.12558222 -0.078364335 -0.024826434 0.1458873 0.0049645263 -0.13177782
-0.06439235 -0.044773668 -0.034392297 0.026901247 0.1523191 -0.0047905673 -0.12769559 0.007969438
0.110953115 0.10449248 -0.15451577 -0.028375795 -0.13804239 -0.08118176 0.05699736 -0.13182259
0.06365615 0.16916423 0.033437718 -0.10835097 -0.10007475 0.039159145 -0.13208832 0.091127455
-0.16420016 -0.16754958 -0.1947444 -0.030490419 0.11873549 -0.16341458 0.13214892 -0.06321948
0.050092466 0.025491942 -0.16978694 0.15173091 0.07530112 0.18705766 0.07475425 -0.12971587
0.12878123 0.0057008504 0.08630839 -0.15715748 -0.06880998 -0.18939577 -0.04894572 0.040399164
-0.11598444 0.10139408 0.098926656 0.0050020977 -0.10534551 -0.1272501 -0.033912573 0.09774845
0.17230128 0.07659009 -0.024336077 0.045305606 -0.16170244 -0.15873481 0.095138796 -0.110852964
0.12963054 -0.124823466 -0.104575045 -0.16171047 0.0918095 -0.06642805 0.13656539 0.097415544
0.11642803 0.01249584 -0.0471698 -0.037050873 0.021818608 0.096165374 -0.12472816 0.18878067
0.030065864 -0.14366332 -0.12710567 0.17217976 0.16957918 -0.149303 0.14461812 0.09282889
0.076550014 0.16282421 -0.113886185 0.065072864 0.055310074 -0.050727632 0.048809737 -0.01228739
0.13523969 -0.069142595 -0.076813795 0.04874947 0.026551692 -0.12703913 -0.019748919 0.11269798
-0.017673718 0.053331938 -0.061193846 0.070962645 -0.08529829 -0.06848159 -0.059421867 0.23533088
-0.02660217 -0.028397435 -0.039165817 0.2173399 0.2054783 -0.10450269 -0.10375006 -0.1563301
-0.004896465 -0.08270968 -0.09165671 -0.08844012 0.080740556 -0.07033821 0.06797634 -0.047348253
-0.13912912 0.0021898001 0.12577954 -0.1458677 0.04403042 -0.033953886 0.1914973 -0.15068361
-0.11916595 0.21070306 -0.1261432 0.02509514 -0.010225721 -0.03506502 -0.023061499 0.11248821
-0.012339322 -0.17265455 -0.11124522 -0.06983143 0.09623679 -0.12545975 0.15867089 -0.044779003
-0.048733965 0.14038265 0.061316885 0.15954292 0.0997199 -0.02245758 -0.09235077 -0.01706173
0.12991035 -0.07392157 -0.18935366 0.06693078 0.17127742 -0.046853557 -0.15603828 -0.17618665
0.028628549 -0.014059174 -0.07346764 0.049940888 0.12594862 0.1911334 0.15661818 -0.03197132
-0.12488644 -0.14674369 0.17863314 0.07757095 0.10549626 -0.19499327 0.18216014 0.14334993
0.15644503 -0.14198928 -0.0745956 -0.12950765 0.20137632 -0.053173617 -0.13456938 0.09802354
-0.08244984 -0.119077004 -0.01631694 -0.018931163 -0.13823354 0.15487775 -0.05886104 0.044859786
0.15181617 0.08924682 0.037622437 0.17169091 0.073942445 -0.08717989 0.14457937 0.05085196
00000000: ecc7 21be c750 eabd 14a7 c6bc 08a3 a3bd
00000010: a365 393e e97b 04be af6c 05be de05 24be
00000020: cf32 cbbd af2c 2c3e 7ee6 203e a3fb 123e
00000030: c2cd bc3d a2e1 153e e44c 90bd 840b a63d
00000040: 3b7a 153e dd63 8e3d de27 1d3e 8f35 fd3d
00000050: ac96 073e 5b0c d4bd a410 ae3d 0171 8e3c
00000060: fcc1 7bbd 75c9 0cbe 4e68 ebbd 490c 18be
00000070: 229a f93d 0b46 053e 17b4 24bd 74dc d1bd
00000080: ec60 123e 0f59 fd3d bd40 f23b 62ed b3bd
00000090: 660f 2e3e e3c0 a03d 8615 05be 3c9d 383e
000000a0: b3a6 fd3d d8c0 9abd a098 003e 7b7d a0bd
000000b0: ce60 cbbc 7b63 153e 77ad a23b c4f0 06be
000000c0: 23e0 83bd 9864 37bd f0de 0cbd 0160 dc3c
000000d0: 8af9 1b3e 31fa 9cbb a2c2 02be 3f92 023c
000000e0: 633b e33d 2700 d63d 6239 1ebe 5b74 e8bc
000000f0: fc5a 0dbe 9f42 a6bd 1076 693d 80fc 06be
00000100: 285e 823d 6339 2d3e fdf5 083d 1de7 ddbd
00000110: fef3 ccbd 5765 203d 2942 07be 08a1 ba3d
00000120: 1624 28be 1e92 2bbe 136b 47be 0bc7 f9bc
00000130: 982b f33d 2756 27be 0c52 073e 3779 81bd
00000140: c22d 4d3d 7ad4 d03c a1dc 2dbe 595f 1b3e
00000150: 7937 9a3d 0b8c 3f3e c218 993d 3dd4 04be
00000160: 3adf 033e 33ce ba3b 74c2 b03d e4ed 20be
00000170: 3fec 8cbd f7f0 41be 4f7b 48bd 9879 253d
00000180: 4089 edbd b3a7 cf3d 0f9a ca3d a3e8 a33b
00000190: 63bf d7bd da4d 02be e9e7 0abd 5730 c83d
000001a0: bf6f 303e 44db 9c3d 745c c7bc 5f92 393d
000001b0: 5395 25be 618b 22be 21d8 c23d e106 e3bd
000001c0: debd 043e 72a3 ffbd 712b d6bd 6e97 25be
000001d0: 9e06 bc3d 6e0b 88bd ccd7 0b3e cd81 c73d
000001e0: d271 ee3d 5abb 4c3c 1f35 41bd a8c2 17bd
000001f0: f0bc b23c 5af2 c43d 7a71 ffbd b84f 413e
00000200: b04c f63c 7a1c 13be fd27 02be e44f 303e
00000210: 2aa6 2d3e e3e2 18be c616 143e 131d be3d
00000220: 41c6 9c3d 64bb 263e 293d e9bd ec44 853d
00000230: d18c 623d c7c7 4fbd b8ec 473d 0d51 49bc
00000240: 467c 0a3e a29a 8dbd 8d50 9dbd 86ad 473d
00000250: ef82 d93c 8c16 02be 7cc8 a1bc 33ce e63d
00000260: 79c8 90bc 9772 5a3d 66a6 7abd dd54 913d
00000270: dfb0 aebd 1340 8cbd 5864 73bd 94fa 703e
00000280: cbec d9bc bda1 e8bc 566c 20bd 5a8e 5e3e
00000290: e768 523e 8205 d6bd e97a d4bd ff14 20be
000002a0: 8772 a0bb b163 a9bd 83b6 bbbd 1820 b5bd
000002b0: 4e5b a53d 7b0d 90bd 2e37 8b3d 3ef0 41bd
000002c0: dd77 0ebe c082 0f3b 5acc 003e 585e 15be
000002d0: 3e59 343d 3b13 0bbd de17 443e ce4c 1abe
000002e0: 470d f4bd 8bc2 573e af2b 01be 5394 cd3c
000002f0: c889 27bc 57a0 0fbd 78eb bcbc 3860 e63d
00000300: de2a 4abc 5bcc 30be 89d4 e3bd c803 8fbd
00000310: cb17 c53d 8578 00be 9f7a 223e 306a 37bd
00000320: 449d 47bd 78c0 0f3e 6a27 7b3d 385f 233e
00000330: f239 cc3d f5f8 b7bc 6722 bdbd 0bc5 8bbc
00000340: 3807 053e 3164 97bd ede5 41be 0113 893d
00000350: 5963 2f3e 84e9 3fbd 80c8 1fbe 466a 34be
00000360: 6b86 ea3c 7358 66bc 3476 96bd d18e 4c3d
00000370: adf8 003e 79b8 433e 8460 203e 5cf4 02bd
00000380: 76c4 ffbd fa43 16be 9beb 363e 85dd 9e3d
00000390: 6c0e d83d 51ac 47be 3088 3a3e 53ca 123e
000003a0: 2033 203e a365 11be 94c5 98bd a79d 04be
000003b0: 9835 4e3e 94cc 59bd 8ecc 09be 91c0 c83d
000003c0: 76db a8bd a5de f3bd 1aab 85bc 8715 9bbc
000003d0: 188d 0dbe 4698 1e3e 4618 71bd e5be 373d
000003e0: b375 1b3e 09c7 b63d fc19 1a3d becf 2f3e
000003f0: 236f 973d 5f8b b2bd 9d0c 143e 254a 503d

bias f4 [128]
0.1328631 -0.13046025 0.1216617 -0.013979319 -0.14219733 0.086534634 0.07649733 0.14074168
-0.1183778 -0.110743664 -0.12293021 0.100130305 -0.15476148 0.01083611 -0.02691874 0.08992369
0.03707587 -0.07232372 0.050127067 0.16691837 0.016758729 -0.098942295 0.01772348 -0.14726014
-0.09891962 -0.032617796 -0.0766474 0.15700184 0.025303371 0.14222804 -0.04875301 -0.010864025
0.051404648 -0.027182177 -0.057758626 -0.14698243 0.1412555 0.1567942 -0.14800802 -0.056904227
-0.14024718 -0.074473724 0.11491272 0.09838999 -0.0137144085 0.08776151 0.059117775 0.0971769
-0.1410085 0.057687186 -0.17458728 -0.11461379 -0.06969689 0.0030463596 -0.17133236 0.021550393
0.02454899 -0.04422638 0.08524732 0.1647473 -0.029759485 -0.07137869 -0.11388817 -0.11970304
-0.108564585 -0.13346495 -0.07176286 0.11305433 0.056010537 0.17074916 0.17806298 -0.04025151
-0.06957583 0.029165369 -0.14215404 0.11430571 -0.03363159 -0.13624516 -0.13166845 -0.12187742
0.060647227 0.1341662 0.15232284 -0.041258253 -0.095506005 -0.08330829 -0.120325245 -0.054284967
-0.14399485 0.0965451 -0.16143309 -0.1188023 0.11941189 -0.09897379 0.046003785 0.1314086
0.18631265 0.082691595 -0.03751572 0.14099325 0.010310903 -0.02404555 0.015291519 0.045883574
0.12944633 0.078060076 0.09386341 0.044276014 -0.0059207524 0.085816875 0.037571505 -0.15827727
0.03600322 -0.07997091 -0.092715934 0.07993732 0.032657076 0.02261185 -0.076864965 0.08778099
0.18060781 0.033166897 0.07672138 -0.14262553 0.111330844 0.06496402 0.089375965 0.071200825
00000000: 440d 083e 5f97 05be c529 f93d 8309 65bc
00000010: 2d9c 11be 1239 b13d a2aa 9c3d 961e 103e
00000020: 0f70 f2bd 93cd e2bd d5c2 fbbd 1e11 cd3d
00000030: cb79 1ebe f189 313c b084 dcbc e929 b83d
00000040: dedc 173d 751e 94bd 0a52 4d3d a6ec 2a3e
00000050: 9a49 893c 42a2 cabd d530 913c 5dcb 16be
00000060: 5f96 cabd 3d9a 05bd 50f9 9cbd 17c5 203e
00000070: 0449 cf3c 3aa4 113e 3cb1 47bd 06ff 31bc
00000080: ae8d 523d 28ad debc 4f94 6cbd 9082 16be
00000090: 48a5 103e a98e 203e 6a8f 17be 6814 69bd
000000a0: f59c 0fbe ae85 98bd 5c57 eb3d b180 c93d
000000b0: 66b2 60bc 4ebc b33d 7b25 723d af04 c73d
000000c0: 8864 10be 6649 6c3d 02c7 32be a2ba eabd
000000d0: 3ebd 8ebd 6fa5 473b c071 2fbe 738a b03c
000000e0: f71a c93c b826 35bd 2696 ae3d 84b3 283e
000000f0: 2aca f3bc fe2e 92bd 333e e9bd de26 f5bd
00000100: 1c57 debd 09ab 08be 68f8 92bd 0789 e73d
00000110: 4e6b 653d ded8 2e3e 2456 363e c4de 24bd
00000120: c67d 8ebd 36ec ee3c d490 11be 1d19 ea3d
00000130: 47c1 09bd da83 0bbe 18d4 06be de9a f9bd
00000140: 3a69 783d dd62 093e 85fa 1b3e 6afe 28bd
00000150: a798 c3bd 899d aabd 156d f6bd ea59 5ebd
00000160: 6373 13be 70b9 c53d b74e 25be 9f4e f3bd
00000170: 398e f43d c5b2 cabd 776e 3c3d fa8f 063e
00000180: bec8 3e3e 365a a93d 15aa 19bd 8960 103e
00000190: 10ef 283c 2cfb c4bc 4889 7a3c 6af0 3b3d
000001a0: 948d 043e f6dd 9f3d 763b c03d c45a 353d
000001b0: df02 c2bb c2c0 af3d 94e4 193d 7013 22be
000001c0: 1d78 133d cac7 a3bd dae1 bdbd 2db6 a33d
000001d0: 6dc3 053d 7d3c b93c 616b 9dbd 85c6 b33d
000001e0: 41f1 383e 03da 073d 1920 9d3d 6d0c 12be
000001f0: 6d01 e43d db0b 853d bf0a b73d bdd1 913d

weight f4 [128, 128]
-0.015847329 -0.010083213 0.09242371 0.075980514 -0.056024235 0.1088324 0.08871979 0.03183326
-0.07280056 0.03510569 -0.024589023 0.052056946 -0.08801896 0.017548893 0.01979299 0.012029482
0.051119477 0.0017741701 -0.05597161 -0.034861304 -0.020768195 0.024644164 0.038747616 -0.0050174524
-0.034475695 0.035560958 -0.061836302 0.073646024 -0.0020826827 0.055980027 0.053791583 -0.007579654
0.028985295 -0.045319345 0.060458057 0.08114467 -0.003480661 0.024972158 0.013467836 0.066115245
0.024057463 0.051253434 -0.07503124 0.07315543 0.043641977 0.04865652 0.018525891 0.053671416
0.0881618 -0.025557153 -0.07102107 0.08517523 -0.018696781 -0.021590086 0.053429015 0.060731433
0.0010962544 0.0073346524 0.009083354 0.07357357 0.046884008 0.023225827 0.094139464 -0.0377336
0.0110024875 -0.06147637 0.067574665 -0.09300868 -0.09672452 -0.0810706 0.04414283 0.023484325
0.007241249 0.024067448 -0.033489607 -0.0073108105 -0.06663176 -0.037811015 -0.05116448 0.016278267
0.096041285 -0.07042579 0.050082013 -0.08302176 -0.019971551 0.012511593 0.010972825 0.08510001
0.0122096315 -0.05555258 -0.020192841 -0.010660403 -0.06336967 -0.045850314 -0.046883207 -0.0010563185
-0.05002131 -0.053465433 0.066886 0.105683655 -0.020053651 -0.048631698 -0.0126620345 0.03951217
0.014388321 -0.026637549 -0.07517509 -0.017435396 -0.01778378 0.0607185 -0.045157813 0.04637176
0.03455739 -0.020529179 -0.07921906 0.0825854 -0.0010816903 0.049786057 -0.02989773 -0.08995002
-0.066445425 -0.036248296 -0.04027998 -0.007838847 0.070854045 -0.07069312 0.05415301 0.085866734
0.029423987 -0.065622225 0.0054240255 0.020640569 0.052813083 0.035194285 -0.022031145 -0.0014358963
-0.07847906 0.06923984 -0.054994736 -0.056111906 -0.016029613 0.08084224 0.1203749 -0.035114136
0.06986439 0.08635026 0.10360938 0.032486904 0.09338969 0.060303587 -0.04196281 -0.0245153
-0.0006167632 -0.06423149 -0.0037535464 0.09269311 0.059698176 0.07051633 -0.012745609 -0.060178466
0.07066741 0.03527271 0.011066464 0.012979224 0.04220011 -0.074873365 0.10093944 0.07118696
0.031585276 0.05779296 0.05588028 -0.05364724 -0.05708211 0.02966048 0.06631081 -0.005172603
0.014596453 0.036929153 0.047618505 0.07736157 0.021538492 0.043118335 0.0013829401 -0.013557281
-0.057991844 0.07647384 0.124704696 0.032355897 -0.0066023595 -0.05029043 -0.03865861 -0.0030156872
-0.0630515 -0.034707095 0.00709443 -0.020802502 0.0050333347 -0.060626082 0.05174111 -0.04195204
-0.03268859 -0.016555497 0.014501822 0.08089497 -0.017408464 0.0049799685 -0.020890854 -0.01586114
0.041017964 0.032719985 -0.0669287 -0.092450276 0.09105534 0.038947716 -0.013586476 0.018281141
0.024411302 0.0042557293 -0.033735614 -0.03834075 -0.06257161 -0.026692113 -0.032944217 -0.015938075
0.078046866 0.013972816 0.0020876094 0.03624482 0.058579437 0.010111537 0.012669872 0.0004992133
-0.076379515 -0.008299626 -0.09140716 -0.0399695 -0.05242902 0.080765165 -0.069668956 0.08495308
0.07524873 -0.05523619 0.07416088 -0.0173687 -0.058545917 0.00051438017 0.06806385 -0.07439498
0.0002370399 0.060308192 -0.04471363 0.011461338 -0.018376302 -0.03272132 0.080422714 -0.02844476
00000000: 42d2 81bc 1034 25bc a448 bd3d ac9b 9b3d
00000010: ab79 65bd 85e3 de3d b9b2 b53d 9863 023d
00000020: 7618 95bd fcca 0f3d eb6e c9bc aa39 553d
00000030: 4943 b4bd b2c2 8f3c e924 a23c 4e17 453c
00000040: a862 513d 458b e83a 7d42 65bd baca 0ebd
00000050: 1022 aabc 8fe2 c93c d2b5 1e3d 7169 a4bb
00000060: 6336 0dbd 5ea8 113d 1048 7dbd bad3 963d
00000070: 9e7d 08bb 504b 653d 9054 5c3d bf5e f8bb
00000080: 9272 ed3c c7a0 39bd dea2 773d 2d2f a63d
00000090: cd1b 64bb 6992 cc3c 33a8 5c3c 6e67 873d
000000a0: 2814 c53c 1fef 513d fba9 99bd 84d2 953d
000000b0: eec1 323d 0f4c 473d 9cc3 973c 8fd6 5b3d
000000c0: 2c8e b43d 3c5d d1bc 7f73 91bd 5a70 ae3d
000000d0: fe29 99bc b1dd b0bc 62d8 5a3d 86c1 783d
000000e0: 32b0 8f3a 8657 f03b 59d2 143c bdad 963d
000000f0: 7209 403d 1744 be3c 31cc c03d 8c8e 1abd
00000100: c743 343c a5ce 7bbd 9664 8a3d 567b bebd
00000110: 8117 c6bd 5808 a6bd 1dcf 343d 3362 c03c
00000120: 0048 ed3b 1929 c53c 662c 09bd 868f efbb
00000130: 3b76 88bd b9df 1abd d991 51bd 005a 853c
00000140: 4bb1 c43d 663b 90bd cc22 4d3d 5007 aabd
00000150: 619b a3bc 6dfd 4c3c 5dc7 333c ea48 ae3d
00000160: e80a 483c 1a8b 63bd 756b a5bc f9a8 2ebc
00000170: f5c7 81bd 8acd 3bbd 9b08 40bd 2b74 8aba
00000180: 25e3 4cbd 92fe 5abd 87fb 883d ac70 d83d
00000190: 8e47 a4bc 0832 47bd 6c74 4fbc 83d7 213d
000001a0: febc 6b3c fd36 dabc 66f5 99bd add4 8ebc
000001b0: 4aaf 91bc f6b3 783d 66f7 38bd 51f0 3d3d
000001c0: 0d8c 0d3d cf2c a8bc 9a3d a2bd 8922 a93d
000001d0: 81c7 8dba 77ec 4b3d 16ec f4bc b737 b8bd
000001e0: 8a14 88bd 1879 14bd 9ffc 24bd 826e 00bc
000001f0: ed1b 913d 8ec7 90bd 8ccf 5d3d e6da af3d
00000200: 930a f13c f264 86bd 06bc b13b 6916 a93c
00000210: 8852 583d e227 103d a97a b4bc af34 bcba
00000220: a1b9 a0bd 9ecd 8d3d 2942 61bd 99d5 65bd
00000230: 8950 83bc 9e90 a53d 1e87 f63d d7d3 0fbd
00000240: 1015 8f3d 68d8 b03d 2831 d43d fd10 053d
00000250: 1843 bf3d e500 773d 32e1 2bbd 4fd4 c8bc
00000260: 47ae 21ba cd8b 83bd 0ffe 75bb e3d5 bd3d
00000270: 1386 743d de6a 903d f5d2 50bc b27d 76bd
00000280: 13ba 903d 1e7a 103d 1d50 353c d0a6 543c
00000290: 06da 2c3d 3557 99bd 56b9 ce3d 78ca 913d
000002a0: 905f 013d 50b8 6c3d b8e2 643d 35bd 5bbd
000002b0: eece 69bd 89fa f23c f6cd 873d f07e a9bb
000002c0: f625 6f3c 0643 173d 9f0b 433d be6f 9e3d
000002d0: 7e71 b03c da9c 303d c543 b53a 5c1f 5ebc
000002e0: db88 6dbd 519e 9c3d 2d65 ff3d 9e87 043d
000002f0: 9b58 d8bb 57fd 4dbd 7e58 1ebd d6a2 45bb
00000300: 2521 81bd 0729 0ebd 6478 e83b 026a aabc
00000310: acee a43b 0e53 78bd 7cee 533d e7d5 2bbd
00000320: 79e4 05bd 659f 87bc 0d99 6d3c 43ac a53d
00000330: 329c 8ebc 012f a33b 4c23 abbc 39ef 81bc
00000340: 7402 283d 6405 063d ea11 89bd 9256 bdbd
00000350: 397b ba3d a487 1f3d d099 5ebc 55c2 953c
00000360: 36fa c73c a573 8b3b 5b2e 0abd 310b 1dbd
00000370: 8b25 80bd 6ba9 dabc 84f0 06bd 9190 82bc
00000380: 09d7 9f3d 3dee 643c 46d0 083b 7375 143d
00000390: fef0 6f3d dcaa 253c 4b95 4f3c a3dd 023a
000003a0: dd6c 9cbd 28fb 07bc ad33 bbbd 0fb7 23bd
000003b0: d0bf 56bd 3568 a53d 99ae 8ebd e1fb ad3d
000003c0: 021c 9a3d 583f 62bd a9e1 973d ce48 8ebc
000003d0: d8cd 6fbd 78d7 063a 0f65 8b3d 655c 98bd
000003e0: ea8d 7839 b905 773d a425 37bd 56c8 3b3c
000003f0: e689 96bc ca06 06bd aab4 a43d fc04 e9bc

bias f4 [128]
0.0057667205 -0.033445742 0.051397152 -0.0761897 0.06963231 -0.013045387 -0.07684178 0.030310258
-0.077909395 0.07243245 0.034644846 0.038143277 -0.0574448 0.052273262 -0.067454666 0.011678752
0.056493524 0.011380306 -0.062124263 -0.010450917 -0.08676035 -0.02784966 -0.061925184 0.03506063
0.08985621 -0.04885348 -0.060391333 0.0561358 0.06318174 -0.028626509 0.04888244 -0.016712094
0.069021575 -0.054095216 -0.008779241 0.043023802 -0.030932236 0.08859391 0.0736759 -0.054336395
0.05973812 -0.05540186 0.030291947 -0.06400535 0.021973966 0.04065615 0.06953285 -0.027559781
-0.045197703 -0.02622148 0.06483682 -0.010684603 0.07392316 0.021433024 -0.07707486 0.08256865
-0.033666838 0.056644063 -0.011904693 -0.0324215 0.055790637 -0.004100254 -0.06619077 0.08580241
0.07977554 -0.09268433 0.03375496 -0.009949939 -0.038455933 -0.04381865 -0.0826069 -0.058201823
0.06902126 -0.016092097 0.01959992 0.024004722 0.059136573 -0.0293697 -0.009503708 -0.029400699
0.030442895 0.007070487 0.09326608 0.0069377287 -0.07551475 0.051480025 0.064223155 0.014264825
-0.0044473954 0.046642702 0.0090014255 -0.006237421 0.055499606 0.047284007 0.008101478 0.060097832
0.021592772 -0.04598181 0.06467426 0.060840473 0.048156213 0.009056649 0.028070247 -0.063104056
0.022654168 0.01622203 -0.024212213 -0.06498994 0.0016232872 0.05902851 -0.055860184 0.056996163
-0.03976502 -0.034465127 0.08378267 -0.046724707 0.07532386 0.0712785 0.012397563 -0.030966377
-0.013105827 0.06304765 -0.05030429 0.08666178 0.031526778 -0.06806606 0.055311568 0.03804368
00000000: c2f6 bc3b 67fe 08bd d285 523d 5809 9cbd
00000010: 629b 8e3d 52bc 55bc 395f 9dbd 384d f83c
00000020: f68e 9fbd 7757 943d c1e7 0d3d 203c 1c3d
00000030: 3d4b 6bbd 7d1c 563d ac25 8abd 3c58 3f3c
00000040: c165 673d 7774 3a3c 0376 7ebd 533a 2bbc
00000050: 69af b1bd f824 e4bc 43a5 7dbd bc9b 0f3d
00000060: 8806 b83d 961a 48bd e75c 77bd a7ee 653d
00000070: 6e65 813d 2482 eabc f438 483d cde7 88bc
00000080: 2f5b 8d3d f292 5dbd ced6 0fbc ba39 303d
00000090: 9a65 fdbc b970 b53d 64e3 963d d78f 5ebd
000000a0: f5af 743d 10ed 62bd d126 f83c 3d15 83bd
000000b0: bf02 b43c 1087 263d 3d67 8e3d 0dc5 e1bc
000000c0: 3a21 39bd 6ece d6bc 2bc9 843d 790e 2fbc
000000d0: 0765 973d 4f94 af3c 6dd9 9dbd c119 a93d
000000e0: 3de6 09bd 9b03 683d e70b 43bc 68cc 04bd
000000f0: b984 643d 6c5b 86bb 078f 87bd 2db9 af3d
00000100: 5c61 a33d 48d1 bdbd a442 0a3d 1205 23bc
00000110: f883 1dbd 2f7b 33bd ce2d a9bd 0965 6ebd
00000120: 055b 8d3d 93d3 83bc 0390 a03c 8da5 c43c
00000130: 3139 723d ba98 f0bc 71b5 1bbc bcd9 f0bc
00000140: 6163 f93c 8baf e73b 4902 bf3d e355 e33b
00000150: 7aa7 9abd b8dc 523d 6e87 833d 03b7 693c
00000160: 75bb 91bb 6b0c 3f3d b77a 133c 4863 ccbb
00000170: 8e53 633d e0ac 413d 10bc 043c 2529 763d
00000180: 53e3 b03c 6c57 3cbd f073 843d dc33 793d
00000190: 733f 453d 5762 143c 93f3 e53c b33c 81bd
000001a0: 3c95 b93c 10e4 843c b158 c6bc 7219 85bd
000001b0: 7bc4 d43a e1c7 713d a6cd 64bd cf74 693d
000001c0: a5e0 22bd 4e2b 0dbd 4096 ab3d 6862 3fbd
000001d0: 6543 9a3d 76fa 913d 261f 4b3c 33ad fdbc
000001e0: d3b9 56bc 201f 813d df0b 4ebd bb7b b13d
000001f0: 3922 013d 3866 8bbd 628e 623d b1d3 1b3d

weight f4 [128, 128]
-0.007387144 -0.036875986 0.10514355 -0.053370632 -0.043979753 0.010269732 -0.0004414845 -0.048892614
0.072228834 -0.00999017 0.021798156 -0.011455397 -0.014232296 -0.11231187 0.08128499 -0.010591729
0.0900568 -0.045857944 0.035623826 -0.027090253 -0.051809672 0.0032495102 0.060539823 0.04527231
-0.02610277 -0.03428253 0.1021809 0.055260014 0.0011260464 0.09168815 -0.03839797 0.0048957937
0.04792398 -0.07160225 0.075813875 0.08572785 -0.023985697 0.011101613 0.013964873 0.037116498
-0.017798437 -0.05974402 0.033790916 0.041340616 -0.036553852 0.062230702 0.0054422114 0.085634075
0.014883376 -0.026726965 0.017172597 0.076522194 0.028518293 0.079427876 0.03482203 -0.10745362
0.07897456 -0.02559786 0.036361855 -0.04365256 0.049483504 -0.00090717827 0.09579406 0.076241605
0.024277652 -0.060212653 -0.016415073 0.023257619 -0.016367558 0.017061528 -0.062831014 0.07420098
-0.04295172 -0.029095737 0.055553194 0.0910728 0.04175203 -0.05183073 0.10338823 0.06102601
0.07577355 -0.054614097 -0.022341829 -0.03594311 0.08286438 -0.061965656 0.09086258 0.019241538
0.02032183 0.008427499 -0.08878605 0.057806842 -0.07558317 -0.014997478 0.08901063 -0.038175907
-0.01720145 -0.02366744 0.07028027 -0.022175198 0.0016277591 0.09206031 -0.060251325 -0.007248048
0.05599819 -0.018631486 0.090640225 0.021663615 0.052223213 0.021429267 0.056414984 -0.0025064705
-0.0011427336 -0.032434262 0.02455874 0.076468915 0.07687344 0.10136277 0.037748124 0.031907838
0.025755057 -0.05686463 -0.048199385 0.066335686 0.01509043 0.076355696 0.035078727 0.03977306
-0.011525253 -0.0629609 0.021302918 -0.021043211 -0.052712522 -0.03752515 0.06141727 -0.03968581
-0.026732055 -0.006578841 -0.07084584 0.008649661 -0.03024983 -0.041562807 -0.06706015 0.049856097
0.07907812 0.079074524 0.071201 -0.015415352 -0.038331985 -0.011934542 0.025990283 -0.047615226
-0.09269185 -0.02531394 0.07763042 0.027606295 0.05862593 0.069940105 -0.0029514213 0.013309753
-0.038712297 -0.033222225 -0.028304467 -0.06217655 -0.031356025 -0.031301163 -0.030162986 -0.071505666
-0.02569965 0.06260818 -0.0069006523 -0.03585453 0.0064669857 0.05265309 0.0745792 0.07339371
-0.05353472 0.023572046 -0.027399912 -0.017111061 -0.013585538 -0.040910386 -0.058036808 -0.02392326
-0.040058434 -0.006655906 0.025524633 -0.028307427 0.05691583 -0.017528458 0.0759639 0.03640526
0.015991855 -0.0077614193 -0.017113771 -0.008266657 -0.05148497 0.04972161 -0.0041328063 -0.04851347
-0.03171946 -0.038390484 -0.07961067 -0.051815633 -0.04442981 0.076227754 0.06501225 0.04307701
0.075791016 -0.09178616 -0.06472654 0.036876637 0.05367275 -0.005862973 0.03723759 -0.0663746
0.043517355 0.021942923 -0.05614847 -0.04321867 0.03243917 -0.04049639 -0.08213114 -0.04651693
0.027628453 0.0351059 0.00975281 -0.09199217 0.064622216 0.08374429 -0.061045796 -0.043989867
-0.006738566 -0.022351688 0.06105712 -0.07550381 -0.014336804 0.070340976 0.07841975 0.053771093
0.083601125 -0.060380932 0.016111566 -0.010346351 -0.04321822 -0.07345104 -0.06147811 -0.028256807
0.06617433 0.0841658 0.06042957 0.02349125 -0.008518218 -0.05836958 -0.049374796 -0.058239903
00000000: db0f f2bb 460b 17bd 8055 d73d 2a9b 5abd
00000010: 1d24 34bd 6142 283c 0c77 e7b9 9f43 48bd
00000020: b6ec 933d cfad 23bc 0c92 b23c 6baf 3bbc
00000030: 932e 69bc c403 e6bd bf78 a63d ee88 2dbc
00000040: b36f b83d 8ad5 3bbd 4aea 113d 61ec ddbc
00000050: 6136 54bd bcf5 543b 9bf8 773d 756f 393d
00000060: 7ad5 d5bc d76b 0cbd 3844 d13d 5358 623d
00000070: d997 933a ffc6 bb3d 3147 1dbd e56c a03b
00000080: ef4b 443d 33a4 92bd 4e44 9b3d 1592 af3d
00000090: a77d c4bc 8ae3 353c eccc 643c 7807 183d
000000a0: 07ce 91bc 25b6 74bd 5868 0a3d c754 293d
000000b0: 7eb9 15bd 9fe5 7e3d 9454 b23b eb60 af3d
000000c0: 67d9 733c 82f2 dabc 8cad 8c3c abb7 9c3d
000000d0: 329f e93c 15ab a23d 8ca1 0e3d a510 dcbd
000000e0: 6abd a13d 9ab2 d1bc 2bf0 143d 07cd 32bd
000000f0: 37af 4a3d b4cf 6dba ad2f c43d 8f24 9c3d
00000100: ede1 c63c 8ba1 76bd e778 86bc c386 be3c
00000110: 4215 86bc 9ec4 8b3c 8cad 80bd aff6 973d
00000120: 25ee 2fbd 2f5a eebc bf8b 633d 6084 ba3d
00000130: 2d04 2b3d 764c 54bd 35bd d33d 69f6 793d
00000140: 2a2f 9b3d 08b3 5fbd 3606 b7bc 1539 13bd
00000150: cdb4 a93d b3cf 7dbd 2916 ba3d 6ea0 9d3c
00000160: f779 a63c 7e13 0a3c 76d5 b5bd dec6 6c3d
00000170: 59cb 9abd fbb7 75bc 354b b63d 575e 1cbd
00000180: 0eea 8cbc 38e2 c1bc 1aef 8f3d c3a8 b5bc
00000190: 885a d53a 1e8a bc3d 18ca 76bd 0981 edbb
000001a0: 5c5e 653d 0fa1 98bc 95a1 b93d e577 b13c
000001b0: 02e8 553d 6e8c af3c 6613 673d 9943 24bb
000001c0: c7c7 95ba cad9 04bd 692f c93c bc9b 9c3d
000001d0: d26f 9d3d 4997 cf3d c79d 1a3d cbb1 023d
000001e0: 45fc d23c e3ea 68bd b86c 45bd 01db 873d
000001f0: da3d 773c 6060 9c3d b6ae 0f3d 13e9 223d
00000200: 6ad4 3cbc a5f1 80bd 7583 ae3c d062 acbc
00000210: 16e9 57bd f9b3 19bd ad90 7b3d 978d 22bd
00000220: 2ffd dabc 5193 d7bb a017 91bd 4fb7 0d3c
00000230: 7ece f7bc c33d 2abd d556 89bd e835 4c3d
00000240: b6f3 a13d d3f1 a13d d4d1 913d ac90 7cbc
00000250: 0002 1dbd 1989 43bc 93e9 d43c 2f08 43bd
00000260: 3ad5 bdbd 2e5f cfbc b3fc 9e3d 9926 e23c
00000270: be21 703d c23c 8f3d a26c 41bb 2611 5a3c
00000280: c990 1ebd 0714 08bd c5de e7bc d7ac 7ebd
00000290: 2d6f 00bd a635 00bd 5e18 f7bc 9071 92bd
000002a0: 1388 d2bc b838 803d de1e e2bb 33dc 12bd
000002b0: 02e9 d33b c4aa 573d fbbc 983d 714f 963d
000002c0: 3947 5bbd 2a1a c13c c875 e0bc 7f2c 8cbc
000002d0: e095 5ebc a691 27bd 01b8 6dbd b6fa c3bc
000002e0: 5014 24bd c919 dabb 0919 d13c fae4 e7bc
000002f0: 9320 693d d797 8fbc f692 9b3d af1d 153d
00000300: 5a01 833c 8153 febb 2e32 8cbc df70 07bc
00000310: e7e1 52bd e3a8 4b3d 7e6c 87bb 0fb6 46bd
00000320: 44ec 01bd 573f 1dbd eb0a a3bd a13c 54bd
00000330: 08fc 35bd 4c1d 9c3d 2425 853d 8571 303d
00000340: 5238 9b3d 62fa bbbd 598f 84bd f50b 173d
00000350: f5d7 5b3d 2f1e c0bb 7186 183d 68ef 87bd
00000360: 413f 323d a5c1 b33c f0fb 65bd 0f06 31bd
00000370: efde 043d 8bdf 25bd 5f34 a8bd 8988 3ebd
00000380: 1155 e23c 34cb 0f3d 40ca 1f3c 6466 bcbd
00000390: a758 843d 2082 ab3d 280b 7abd b82e 34bd
000003a0: 30cf dcbb e31a b7bc 0817 7a3d bea1 9abd
000003b0: eae4 6abc ee0e 903d 899a a03d 143f 5c3d
000003c0: 1137 ab3d ff51 77bd 67fc 833c be83 29bc
000003d0: 9705 31bd 806d 96bd 78d0 7bbd d27a e7bc
000003e0: 6886 873d 1e5f ac3d ff84 773d b970 c03c
000003f0: ff8f 0bbc f114 6fbd 3a3d 4abd f78c 6ebd

bias f4 [128]
0.052331682 0.004474007 -0.016767783 0.033729892 -0.02318041 -0.006815236 0.05993583 0.079635836
0.041936092 -0.006499916 -0.04868287 -0.011671222 -0.0758822 0.0587938 -0.00946528 0.026852695
-0.03076581 0.020497961 0.06134072 -0.023629198 0.05769383 -0.079053015 0.04529461 0.05042647
0.05293846 0.049587075 -0.06712553 -0.01063701 0.06352638 0.051663958 -0.07799892 -0.020082273
-0.0012855295 0.010329174 -0.013454019 -0.06633824 0.022713043 0.08699947 0.012052009 0.04431644
-0.05631605 -0.08072161 -0.05380821 -0.0035020441 -0.06841882 0.08939973 0.010967666 0.03520932
0.002645971 0.0877379 -0.050462008 -0.03355297 0.029665796 -0.0037822598 -0.029370688 -0.08979679
0.059629947 -0.025764218 0.06349137 -0.07039981 0.02941688 0.07841592 0.08413027 -0.07288018
-0.04478266 0.068740286 -0.008408211 0.014574186 0.0005750038 -0.02605502 0.025919056 -0.017531086
0.052492853 -0.071434714 0.07734108 -0.010715964 -0.012957647 0.086896844 0.046306953 0.063549966
0.0737219 0.060774297 0.03956411 -0.0072503486 0.0077350186 -0.023692591 -0.013555582 0.06845644
-0.076540135 -0.076589465 -0.022302536 0.058733016 0.0319966 0.019306585 -0.008679836 -0.07894006
-0.025118912 0.0792582 0.02845646 -0.0030196891 -0.0023227686 0.07836116 -0.019518383 -0.010740967
0.05862818 -0.080393694 0.035949983 0.04426926 0.07456332 -0.019920753 -0.06959036 0.08855779
0.06986534 -0.08080614 0.09223346 -0.061321184 0.045928497 -0.00041760466 -0.015859112 0.06280648
-0.0017098873 -0.06447517 -0.018390365 0.061746057 0.017048517 -0.058911737 0.053470027 -0.04733032
00000000: bf59 563d b19a 923b 975c 89bc 5b28 0a3d
00000010: d8e4 bdbc 5852 dfbb 467f 753d 1d18 a33d
00000020: 2ec5 2b3d 3ffd d4bb b067 47bd a738 3fbc
00000030: 2068 9bbd c5d1 703d 4314 1bbc 2ffa db3c
00000040: 9408 fcbc 57eb a73c 6840 7b3d 0592 c1bc
00000050: 5e50 6c3d 8ce6 a1bd d786 393d fc8b 4e3d
00000060: 00d6 583d d11b 4b3d 1c79 89bd db46 2ebc
00000070: 1e1a 823d 969d 533d e6bd 9fbd 9483 a4bc
00000080: 367f a8ba b23b 293c 3f6e 5cbc 58dc 87bd
00000090: b410 ba3c c72c b23d ca75 453c 2885 353d
000000a0: a9ab 66bd 5f51 a5bd ff65 5cbd 8d82 65bb
000000b0: 2b1f 8cbd 3517 b73d bab1 333c a637 103d
000000c0: 0768 2d3b eeaf b33d 40b1 4ebd d76e 09bd
000000d0: af05 f33c cadf 77bb cc9a f0bc 61e7 b7bd
000000e0: 883e 743d 7b0f d3bc c307 823d c72d 90bd
000000f0: abfb f03c 8798 a03d 7e4c ac3d 3442 95bd
00000100: 066e 37bd b5c7 8c3d 98c2 09bc 91c8 6e3c
00000110: dabb 163a 5671 d5bc 3354 d43c 5a9d 8fbc
00000120: bf02 573d 5d4c 92bd 0065 9e3d 0392 2fbc
00000130: 504c 54bc f9f6 b13d 5cac 3d3d 7c26 823d
00000140: 82fb 963d 78ee 783d fa0d 223d 5594 edbb
00000150: 0a76 fd3b f716 c2bc 3b18 5ebc e432 8c3d
00000160: 13c1 9cbd f0da 9cbd cfb3 b6bc 0892 703d
00000170: de0e 033d d828 9e3c df35 0ebc 54ab a1bd
00000180: 2dc6 cdbc 2052 a23d 861d e93c fae5 45bb
00000190: 9739 18bb d17b a03d 04e5 9fbc e1fa 2fbc
000001a0: 1a24 703d 73a5 a4bd 4a40 133d af53 353d
000001b0: a7b4 983d d930 a3bc 6485 8ebd c95d b53d
000001c0: 8f15 8f3d b17d a5bd e5e4 bc3d ec2b 7bbd
000001d0: 851f 3c3d f3f1 dab9 f8ea 81bc afa0 803d
000001e0: 4c1e e0ba 8f0b 84bd 64a7 96bc 6fe9 7c3d
000001f0: 55a9 8b3c 6f4d 71bd 6303 5b3d 70dd 41bd

weight f4 [128, 128]
0.07429522 0.014985934 0.05709628 -0.04228846 0.053372454 0.028259858 0.0609813 -0.058015577
-0.09187269 0.03630145 0.0027853695 -0.017053857 -0.045538418 0.036227446 0.0099684335 0.03183093
-0.0056338394 0.038073964 0.054331504 -0.07885685 -0.007915502 -0.07885608 0.05023302 -0.029545788
0.011386468 0.040789124 -0.05662455 0.04520244 -0.060298637 0.06903161 -0.042133115 -0.023104101
0.06992622 -0.050929703 -0.038950272 0.031234395 -0.055203814 0.06016229 0.026602495 0.0081384005
-0.0015259832 -0.08120776 -0.026526758 0.014666855 -0.044799335 -0.03724121 -0.014443983 -0.07234607
0.024036836 -0.082351446 -0.06601943 0.00031623227 -0.019048283 -0.0609523 0.025734505 -0.08372016
0.046409983 0.064565845 0.06326306 0.060566284 -0.017316045 0.034466997 -0.086576305 0.035152476
-0.07085727 -0.056060698 -0.08933148 -0.0092046615 0.069301404 -0.015760168 0.013506053 -0.024960037
0.004069322 0.08179778 -0.010654971 0.02230864 -0.0024639124 -0.03458645 -0.06882504 -0.004629385
-0.0005274887 -0.047692392 -0.07071108 -0.01871003 0.005824009 -0.040585276 -0.060032144 -0.061875764
-0.08181935 0.060680132 -0.010235003 -0.02917879 -0.05834861 0.083856784 -0.07884215 0.015695695
-0.014050279 -0.093449764 0.044124987 -0.014735567 -0.044397652 0.012508092 -0.013298487 -0.06992462
-0.0070442823 0.008143127 -0.015764754 -0.0037011825 0.033417787 -0.01166927 -0.0082613295 0.049247276
-0.014619443 0.07700087 -0.031221874 0.042565044 0.037793215 0.06744442 0.0016516055 0.068855
-0.0071109403 0.0019325987 -0.029553115 0.028993744 0.03483531 0.014252716 0.027393656 -0.07766021
0.0651177 0.032395676 -0.042021055 0.069852345 0.030252654 0.035422955 0.043023963 -0.07540798
0.041926205 -0.05048567 -0.008281599 0.04110345 -0.07467011 0.077115364 -0.008006806 0.03444795
-0.08584285 0.004123622 -0.004443447 0.065758735 -0.03978309 0.048144855 0.03828658 -0.071733624
0.070894025 -0.013994746 0.01081979 -0.011646763 0.044998378 -0.018305644 -0.056930102 -0.011111026
0.036058526 -0.022447303 -0.040456865 0.04573682 0.03645901 -0.075036086 0.025822487 0.026230576
-0.01914464 0.056944333 0.02358595 0.0689015 -0.027715024 -0.019384518 -0.036079966 0.008981405
0.009423047 -0.027416883 0.03483208 0.07546427 0.022991395 -0.005535004 -0.098213725 -0.08061832
-0.07380765 -0.041331664 -0.031136459 0.037358347 0.049378652 0.06451844 -0.022074865 -0.050533
-0.056365345 -0.067157716 0.008781527 0.011450885 0.042949975 -0.006277884 -0.0039809793 0.05656303
0.017777693 0.011251032 -0.088179015 -0.051391713 0.022124285 -0.043180402 0.05095443 -0.0137279695
0.002450537 0.055652432 -0.07304603 0.03307652 0.015459898 -0.06491481 0.06394203 -0.011005704
-0.08850188 0.036292728 -0.037279766 -0.027622024 0.07601492 0.048267867 -0.07042773 0.051769238
-0.006056909 -0.049147177 -0.03905419 -0.033504616 0.058505 0.024011513 0.051910613 -0.098674506
0.06219751 0.08355848 0.06010824 0.03860318 0.024859386 0.044339404 0.03443936 0.039754983
-0.0126225995 -0.02260393 -0.0056112614 0.043430556 -0.030781358 -0.09181028 0.031381037 0.06843873
0.069301635 0.020190092 -0.011030017 0.05680369 0.029159132 -0.06549014 0.062037926 -0.065410346
00000000: 1828 983d 9087 753c cadd 693d aa36 2dbd
00000010: 139d 5a3d 3881 e73c 87c7 793d bea1 6dbd
00000020: c027 bcbd d4b0 143d bf8a 363b 88b4 8bbc
00000030: 7e86 3abd 3b63 143d a452 233c 2661 023d
00000040: 129c b8bb 72f3 1b3d b68a 5e3d b37f a1bd
00000050: 06b0 01bc 4c7f a1bd 24c1 4d3d 020a f2bc
00000060: 4f8e 3a3c 7f12 273d 25ef 67bd 3226 393d
00000070: b4fb 76bd 7260 8d3d c693 2cbd d044 bdbc
00000080: 7a35 8f3d aa9b 50bd 528a 1fbd 46df ff3c
00000090: 651d 62bd bc6c 763d 7aed d93c ed56 053c
000000a0: 8003 c8ba 4150 a6bd a54e d9bc 404d 703c
000000b0: 827f 37bd 3d8a 18bd 75a6 6cbc 2d2a 94bd
000000c0: e6e8 c43c e0a7 a8bd 3235 87bd facb a539
000000d0: 250b 9cbc 1ea9 79bd 2bd1 d23c 7a75 abbd
000000e0: 6518 3e3d 193b 843d 1090 813d 5a14 783d
000000f0: 61da 8dbc 442d 0d3d eb4e b1bd 0bfc 0f3d
00000100: 9e1d 91bd e79f 65bd 6cf3 b6bd 26cf 16bc
00000110: e5ed 8d3d 781b 81bc 7e48 5d3c fe78 ccbc
00000120: f257 853b 9885 a73d 3092 2ebc 9cc0 b63c
00000130: 9779 21bb 85aa 0dbd 24f4 8cbd 19b2 97bb
00000140: 2b47 0aba 1959 43bd f9d0 90bd c745 99bc
00000150: 54d7 be3b bf3c 26bd 44e4 75bd 7171 7dbd
00000160: e790 a7bd bb8b 783d b7b0 27bc 5c08 efbc
00000170: f4fe 6ebd 1bbd ab3d fe77 a1bd 4294 803c
00000180: 2433 66bc 9762 bfbd 67bc 343d 736d 71bc
00000190: 50da 35bd beee 4c3c e6e1 59bc a434 8fbd
000001a0: b9d3 e6bb c06a 053c 1625 81bc 8a8f 72bb
000001b0: 17e1 083d 7730 3fbc 875a 07bc 83b7 493d
000001c0: 6386 6fbc a2b2 9d3d 04c5 ffbc af58 2e3d
000001d0: 0fcd 1a3d 4d20 8a3d af7a d83a da03 8d3d
000001e0: e402 e9bb 404f fd3a 6019 f2bc 4a84 ed3c
000001f0: 78af 0e3d 3984 693c a968 e03c 510c 9fbd
00000200: 6e5c 853d 54b1 043d 451e 2cbd bf0e 8f3d
00000210: 6ad4 f73c a917 113d e539 303d 806f 9abd
00000220: d0ba 2b3d 10ca 4ebd 8baf 07bc 175c 283d
00000230: a5ec 98bd a9ee 9d3d fa2e 03bc 4b19 0d3d
00000240: 60ce afbd 731f 873b 569a 91bb 84ac 863d
00000250: 98f3 22bd 8a33 453d 64d2 1c3d 14e9 92bd
00000260: e330 913d 384a 65bc 7d45 313c 11d2 3ebc
00000270: 3850 383d b8f5 95bc 8a2f 69bd 050b 36bc
00000280: 1bb2 133d 68e3 b7bc 19b6 25bd 8856 3b3d
00000290: 0b56 153d 85ac 99bd ae89 d33c 81e1 d63c
000002a0: 38d5 9cbc 763e 693d 5237 c13c 3b1c 8d3d
000002b0: 9e0a e3bc 48cc 9ebc 96c8 13bd be26 133c
000002c0: 2063 1a3c 5f99 e0bc 15ac 0e3d 038d 9a3d
000002d0: 7358 bc3c fb5e b5bb 4724 c9bd 381b a5bd
000002e0: 7728 97bd 644b 29bd e311 ffbc 1105 193d
000002f0: 4541 4a3d 3e22 843d 59d6 b4bc b1fb 4ebd
00000300: 59df 66bd fc89 89bd 65e0 0f3c 7e9c 3b3c
00000310: 50ec 2f3d b5b6 cdbb e072 82bb a3ae 673d
00000320: 86a2 913c 4056 383c 3397 b4bd 1e80 52bd
00000330: fd3d b53c efdd 30bd 98b5 503d 47eb 60bc
00000340: 3099 203b cef3 633d 2899 95bd 3f7b 073d
00000350: 834b 7d3c 0ef2 84bd 0af4 823d 4551 34bc
00000360: 7940 b5bd afa7 143d abb2 18bd 9547 e2bc
00000370: b6ad 9b3d 87b4 453d 6a3c 90bd fb0b 543d
00000380: 0979 c6bb 8d4e 49bd 49f7 1fbd 233c 09bd
00000390: f0a2 6f3d cbb3 c43c 39a0 543d dc15 cabd
000003a0: d1c2 7e3d b520 ab3d 0f34 763d 5e1e 1e3d
000003b0: e9a5 cb3c 3c9d 353d 4910 0d3d 1fd6 223d
000003c0: 05cf 4ebc e12b b9bc acde b7bb 3de4 313d
000003d0: 3029 fcbc 0707 bcbd 6789 003d 9b29 8c3d
000003e0: 04ee 8d3d b165 a53c 3fb7 34bc fcaa 683d
000003f0: 22df ee3c b21f 86bd 7b1b 7e3d dcf5 85bd

bias f4 [128]
0.06777415 -0.023100883 0.085586414 -0.0744946 0.0038914469 0.051838286 -0.020932686 0.094507836
0.047917753 0.022355014 0.05375281 -0.04474759 -0.04762174 0.042668846 -0.086142525 -0.062253077
-0.012493744 0.07014726 0.006250481 -0.050955582 -0.015372665 0.07795721 -0.041298587 0.06002783
0.06379755 -0.04045838 -0.07379389 -0.005135227 -0.0127717955 -0.050492536 0.088758044 -0.061913487
0.052100893 0.0010651614 -0.026966035 0.012329518 0.051014688 0.07193879 -0.076386176 -0.05928563
-0.004190359 -0.020576458 0.06782534 -0.0090199215 -0.005425195 0.017904114 -0.039248973 0.054436434
0.033821933 0.05680723 0.01228732 0.08335568 0.010689047 0.03896457 -0.04303303 -0.015378695
-0.0050500445 0.08276889 0.009822647 0.043379266 -0.046350926 -0.07079016 -0.01055146 -0.0042380155
-0.0023354322 -0.03274245 -0.033769544 0.037254896 0.035702445 0.035968572 0.062834606 0.062203735
-0.028263165 0.0003935098 -0.014401885 -0.0587535 0.06059504 0.003585198 -0.06816312 0.017894333
0.021225559 -0.07836873 0.029191995 -0.045251165 -0.04189123 -0.006659393 -0.009107579 0.004833898
-0.013113718 0.089028895 0.026902609 -0.032903627 -0.06491454 -0.023033602 -0.0094411895 0.017072499
0.026428174 -0.08284595 -0.011324867 0.039495856 -0.059459493 -0.07598404 -0.0075000036 -0.03337096
0.05670007 -0.052130166 -0.06989236 -0.012840553 0.084202014 0.083341785 -0.010813717 -0.058196034
-0.012893615 0.09652104 -0.0018362526 -0.06318905 0.023563394 0.07533333 0.030543916 0.0022462797
0.021299185 -0.052456584 -0.05632838 0.012523416 -0.028171172 -0.023897408 0.030300125 0.06195474
00000000: 2ccd 8a3d 103e bdbc ee47 af3d a090 98bd
00000010: a507 7f3b 6254 543d 067b abbc 538d c13d
00000020: 6845 443d dd21 b73c e82b 5c3d 4049 37bd
00000030: 030f 43bd 87c5 2e3d 7e6b b0bd 15fd 7ebd
00000040: 8fb2 4cbc 5ea9 8f3d d6d0 cc3b cdb6 50bd
00000050: a1dd 7bbc 08a8 9f3d b528 29bd bedf 753d
00000060: 4aa8 823d b0b7 25bd 4021 97bd 6845 a8bb
00000070: cb40 51bc 43d1 4ebd c7c6 b53d ff98 7dbd
00000080: bf67 553d e39c 8b3a e0e7 dcbc bf01 4a3c
00000090: c7f4 503d a554 933d 5b70 9cbd 7dd5 72bd
000000a0: 474f 89bb f68f a8bc 03e8 8a3d 4bc8 13bc
000000b0: d6c5 b1bb a6ab 923c 88c3 20bd bdf8 5e3d
000000c0: de88 0a3d b3ae 683d c150 493c 62b6 aa3d
000000d0: 1d21 2f3c 5099 1f3d 6743 30bd ecf6 7bbc
000000e0: d87a a5bb bc82 a93d 2bef 203c 75ae 313d
000000f0: 78da 3dbd 6efa 90bd 08e0 2cbc 0ddf 8abb
00000100: 0d0e 19bb f21c 06bd ef51 0abd 9798 183d
00000110: ba3c 123d c853 133d 6eaf 803d 58c9 7e3d
00000120: 2788 e7bc fe4f ce39 e2f5 6bbc 83a7 70bd
00000130: 8132 783d a4f5 6a3b 1b99 8bbd 2397 923c
00000140: 39e1 ad3c c97f a0bd 0d24 ef3c 4959 39bd
00000150: 2396 2bbd 0a37 dabb f437 15bc ad65 9e3b
00000160: ebda 56bc c854 b63d dc62 dc3c f4c5 06bd
00000170: eaf1 84bd f7b0 bcbc 38af 1abc a0db 8b3c
00000180: e67f d83c 23ab a9bd ef8b 39bc 68c6 213d
00000190: cc8b 73bd 859d 9bbd 97c2 f5bb fdaf 08bd
000001a0: 553e 683d 7186 55bd ba23 8fbd 2f61 52bc
000001b0: 1b72 ac3d 19af aa3d 042c 31bc f75e 6ebd
000001c0: be3f 53bc d3ac c53d 6aae f0ba 4369 81bd
000001d0: 0508 c13c 5c48 9a3d 3c37 fa3c 5236 133b
000001e0: a17b ae3c b7dc 56bd 96b8 66bd 042f 4d3c
000001f0: 3bc7 e6bc 7fc4 c3bc f837 f83c 41c4 7d3d

weight f4 [1, 128]
0.024145491 0.0014227848 -0.09167268 0.001257856 0.06431552 -0.085008375 -0.0029237987 -0.027648874
0.081709854 0.008215475 0.07453981 -0.081844926 0.019004028 0.02765971 -0.034685776 -0.00072514766
-0.04781442 -0.022030795 -0.08574056 0.055721983 0.031705625 -0.036386482 -0.017965512 0.012175406
-0.021771695 0.06689113 0.07885645 -0.053029403 -0.0031491162 -0.08297563 -0.081997365 0.057838514
0.046366088 -0.016627844 -0.0110976 -0.03462166 0.075151786 -0.08328178 -0.0009204529 0.00402969
0.01817734 -0.048732284 0.06295718 0.08179197 -0.03346689 -0.09969904 -0.10148021 0.03806223
-0.049845707 -0.0738959 0.03923979 -0.10141773 0.06972174 -0.026885493 -0.020708304 -0.017252859
0.032873664 0.076268956 0.03406936 0.06211361 -0.0760625 0.015299187 -0.00827779 -0.089423284
-0.007562514 0.032629143 -0.027724955 0.030611807 -0.04864765 0.06889634 -0.037967198 0.056552943
-0.095274895 -0.048275873 0.013510806 -0.07574443 -0.069924384 -0.0009642689 -0.022489162 -0.058135152
-0.039299 0.04510138 0.053231522 0.069860205 -0.07668636 0.02670803 -0.05989646 0.060898826
-0.053938065 -0.031044813 0.02867965 0.0054559545 -0.003043878 -0.07652672 0.011124136 -0.09897704
-0.04775074 0.018136509 0.041447803 -0.013462313 0.043092705 -0.07619834 -0.03986153 -0.03595059
-0.03934166 -0.06626566 -0.07959483 0.037182167 -0.04917431 -0.031328693 -0.083997354 -0.012995917
-0.023477113 -0.049187947 0.05169386 -0.03944284 0.05318425 -0.0035123255 -0.01983902 0.013701937
0.077732235 0.03453246 -0.10175581 -0.09593499 -0.092700355 0.07853911 -0.051673148 -0.091695145
00000000: c4cc c53c bc7c ba3a e3be bbbd a5de a43a
00000010: dbb7 833d df18 aebd 349d 3fbb e47f e2bc
00000020: 7f57 a73d 339a 063c 54a8 983d 509e a7bd
00000030: 56ae 9b3c 9e96 e23c ac12 0ebd d617 3eba
00000040: 0ed9 43bd ed79 b4bc bf98 afbd bc3c 643d
00000050: c2dd 013d fe09 15bd 692c 93bc 5b7b 473c
00000060: 8e5a b2bc 37fe 883d 7e7f a13d 5c35 59bd
00000070: 6761 4ebb 21ef a9bd 3cee a7bd 14e8 6c3d
00000080: 5eea 3d3d 1e37 88bc b5d2 35bc 71cf 0dbd
00000090: 2ee9 993d a38f aabd 8c4a 71ba 7d0b 843b
000000a0: a5e8 943c 819b 47bd b2ef 803d 8c82 a73d
000000b0: 9414 09bd 032f ccbd dbd4 cfbd 24e7 1b3d
000000c0: 032b 4cbd bc56 97bd e7b9 203d 19b4 cfbd
000000d0: 46ca 8e3d f73e dcbc 76a4 a9bc de55 8dbc
000000e0: 89a6 063d e632 9c3d 508c 0b3d d76a 7e3d
000000f0: a8c6 9bbd 71a9 7a3c 919f 07bc 8e23 b7bd
00000100: f7ce f7bb 23a6 053d 721f e3bc 9dc5 fa3c
00000110: c242 47bd 8619 8d3d 7e83 1bbd 0fa4 673d
00000120: 7c1f c3bd ecbc 45bd 6d5c 5d3c e51f 9bbd
00000130: 8434 8fbd fec6 7cba 313b b8bc 201f 6ebd
00000140: fdf7 20bd 3abc 383d 4c09 5a3d de12 8f3d
00000150: bd0d 9dbd ccca da3c fe55 75bd 0c71 793d
00000160: 29ee 5cbd b151 febc 96f1 ea3c ddc7 b23b
00000170: cc7b 47bb 0aba 9cbd 0242 363c 79b4 cabd
00000180: 4896 43bd 0493 943c 2cc5 293d 0991 5cbc
00000190: fa81 303d e00d 9cbd d845 23bd ed40 13bd
000001a0: b824 21bd 4ab6 87bd 9d02 a3bd 544c 183d
000001b0: 006b 49bd 8452 00bd ce06 acbd d4ec 54bc
000001c0: 1353 c0bc 4d79 49bd f1bc 533d d18e 21bd
000001d0: bad7 593d 0b2f 66bb 7185 a2bc 177e 603c
000001e0: 1432 9f3d e971 0d3d 5a65 d0bd 9079 c4bd
000001f0: afd9 bdbd 1dd9 a03d 39a7 53bd aaca bbbd
