bike_sharing/AutogluonModels/ag-20220403_203319/models/NeuralNetTorch_BAG_L2/S1F1/net.params (torch, 215879 bytes, 9 tensors)

weight f4 [128, 22]
00000000: 187c 0abe 812b 3a3e 48e3 22be 8423 10be
00000010: 2d4b afbd 797d fa3d c9d0 a73d 0e39 353e
00000020: a995 173d ebe4 813d 67ec 3fbd 9033 873c
00000030: becc 5fbe 97b9 eabd 7c88 a1bd d5cf c6bb
00000040: d15f 0f3e c6ad 223e 1279 01be f87f 9fbd
00000050: f0db 853d 8a65 393e 22d0 29be 8b66 963e
00000060: e936 cc3c bfeb f33c b6d9 0a3e 2ae4 57be
00000070: 4753 10be ca72 8cbd e3d7 c9bd 83f6 383e
00000080: cbd6 23be 0b3b 1bbe 778b 41be aeb4 dbbd
00000090: 2375 f0bd f980 4b3e 67af 143e 8716 033d
000000a0: b974 ae3d 1735 7dbd 32ec 843c 9d81 edbd
000000b0: 8e4f 3abe 63a1 ccbe d45d 883d 7685 023e
000000c0: 261b cebd ca56 fbbb 01df 093e 7b8a f53d
000000d0: 7738 773d 7b17 2b3d 57dc ff3d cecf 33bd
000000e0: 605d b63c 6423 1fbe 8e6a d1bd e9a9 bdbd
000000f0: 300c 043e 2549 58ba 253e 17be dac8 973d
00000100: 65fc a73d 19fd 8c3c 9b81 bdbd 53f5 633e
00000110: da89 0a3e 3ff3 f53d 34ef cfbd 0cc6 f2bd
00000120: c486 383d 4c84 443e 7ad5 0c3e 21cf 3a3e
00000130: 155a c13d 0361 28be 93bb 1b3c 4c28 12be
00000140: 555c 7ebe f345 153e fde3 063e 9b9e fbbd
00000150: 61fb a43c a3b3 bfbd 45ba ac3c b128 2fbe
00000160: ec5d dd3d c53f 9dbe 0152 603d 7acb 863d
00000170: f7da 4f3e c607 7f3d 83af 53be ee1b f1bd
00000180: f7f2 793d 12c6 3f3d 4958 febd c369 fcbd
00000190: 8a52 3f3e 795f 0b3e df09 b8bd 265b 95bd
000001a0: 663e 67be e774 e03b 9fa3 cabd 534f 1dbe
000001b0: 639c 08bd 3c10 cc3d 3999 80be 104b 5a3e
000001c0: 593f 0bbe e034 193e 97fd a43d ecfd d8bd
000001d0: b4d3 963c 54ea 77bb 8b06 473d 8122 a23c
000001e0: 10c9 f33c 55b4 0dbd cb4c fdbd f3fc 983d
000001f0: b68e 62be d298 bdbd 9fc3 fdbc 1c26 73bd
00000200: 0811 a1bd 07ee 37be 75e2 ddbd cc70 a03d
00000210: 3bc6 56be bf92 16be 06c6 803d 7bdd 9ebd
00000220: 546b 90bc d104 0abd 6ddb d63c 431d 1d3e
00000230: f262 3a3e 716b fd3d fddd 353e 9cd3 e9bc
00000240: ed74 3dbe 999a 2cbe 2dcf 013e bc42 02bd
00000250: 7ac5 10be af9f f1bd 08cd 6bbe 72af 50be
00000260: 55c8 0cbe 1425 0c3e a6dd 983e 7534 bdbe
00000270: 63a5 e13d 535e 0abe 1d34 cabc 4ee9 a5bd
00000280: 0bc4 1ebd c195 7c39 b4bc d5bd 7338 dfbd
00000290: e926 93bb 0d3a ab3b 4a3d 8ebd 7790 c23d
000002a0: cb8d 10be e83a f33b 5003 443e 7c92 e2bc
000002b0: 9727 043e 7dbb cd3d 91a0 2dbe fc71 d53d
000002c0: 5331 433e 0839 9cbe 615c d23d b739 24be
000002d0: 1802 b43c 5adf cdbd 97d4 b43d c561 813d
000002e0: c2c0 503d ae49 003d c05e 64bd fc53 1dbd
000002f0: db01 99bd 13d8 ad3d 0d24 2a3e 7757 a43d
00000300: 51ee 39be 8b3e b03b 3ffa c7bd 5fb8 01be
00000310: 4b63 0fbe c457 c43d 10f4 6dbe 3305 aebe
00000320: ca8d 5cbd bcba 553e 741a 0cbe 336d 6ebd
00000330: a241 34bd 55ef a53d 3d71 08bd b51d 9c3d
00000340: 68bb 8b3d f8b6 6a3d d4ec 43bd a7c6 0fbd
00000350: 4b76 843d c0ab 27bd 0f15 8d3a 28c5 873b
00000360: 2df5 b2bd 542a 5fbe 0dca 123e 8039 c9bd
00000370: c517 44be b4f9 a13e 3dfe 2f3d f816 89bd
00000380: 6e12 13be 84cf cd3d 752c 1dbe 1eb9 21bb
00000390: 59b7 b1bd 2e66 34bd 07b5 543d 7e2d c73d
000003a0: 57bb b53c 79b6 123e d58a 433d ec28 35be
000003b0: 027b 533d f66c 81bd 64d4 fdbd 37db 36bb
000003c0: d8c7 143d d344 d73d 039d 7abe df9e 95bd
000003d0: 0bf9 1b3d 3102 6abe 8c25 043e b95e febd
000003e0: 040d 5a3d 4d95 0abc 6572 e0bc a68a f73b
000003f0: 5563 223e fc10 84bd 21f9 1fbe e0f4 babd
-0.135239 0.18180658 -0.15907013 -0.14076048 -0.085592605 0.12230963 0.081941195 0.17697546
0.03700796 0.06342491 -0.04685631 0.01650408 -0.21855447 -0.1146118 -0.078873605 -0.006067256
0.14001395 0.15886602 -0.12643841 -0.0778808 0.065360904 0.1810514 -0.16583303 0.2937511
0.024928527 0.029775498 0.13559613 -0.21083131 -0.14094268 -0.06857832 -0.0985563 0.18062787
-0.15999906 -0.15159242 -0.18900858 -0.10727821 -0.11741092 0.19873418 0.14520036 0.032003906
0.08518357 -0.06181821 0.016225908 -0.115969874 -0.1819441 -0.39966878 0.06658521 0.12746224
-0.10063772 -0.007670258 0.13463975 0.11989304 0.060356583 0.04177044 0.12493198 -0.04389935
0.022261322 -0.15540844 -0.10225402 -0.092609234 0.12895274 -0.00082506455 -0.147698 0.07411356
0.08202437 0.01721053 -0.09253236 0.22261553 0.13529149 0.12009286 -0.10153046 -0.11854181
0.045050398 0.19191092 0.1375331 0.18243076 0.0944101 -0.16443257 0.00950517 -0.14273185
-0.2483991 0.14577465 0.13172908 -0.12286111 0.020139398 -0.09360435 0.021084914 -0.17105366
0.1080893 -0.30712715 0.054765705 0.06581779 0.20298372 0.062263273 -0.20672421 -0.11772905
0.061022725 0.046819754 -0.12419183 -0.1232486 0.1868383 0.13610639 -0.08986258 -0.07292776
-0.22582397 0.0068498733 -0.098944895 -0.15362291 -0.033352267 0.09964034 -0.251169 0.21317697
-0.13598384 0.14961576 0.08056181 -0.10595307 0.018411495 -0.003782888 0.048590224 0.019791843
0.02975896 -0.034595806 -0.12368163 0.07470121 -0.22124752 -0.09257664 -0.030977068 -0.059362516
-0.078645766 -0.17961894 -0.10834209 0.07834014 -0.20974056 -0.14704417 0.0628777 -0.07757088
-0.017629303 -0.033696 0.026227677 0.15343194 0.18201807 0.123740084 0.17760463 -0.028543286
-0.18501635 -0.1685585 0.12676688 -0.031801924 -0.14137831 -0.11798035 -0.23027432 -0.20379427
-0.13748296 0.13686019 0.29856604 -0.36954084 0.11017873 -0.13512544 -0.024683053 -0.0810114
-0.03876118 0.0002408838 -0.10436383 -0.10899439 -0.0044907224 0.005225426 -0.06945284 0.09500211
-0.1411659 0.0074227937 0.19141889 -0.02765774 0.12905727 0.10045526 -0.16955782 0.104221314
0.19061784 -0.3051226 0.10271526 -0.16037641 0.021973655 -0.100523666 0.08829611 0.06317476
0.05096508 0.031320266 -0.055754423 -0.038410172 -0.07471057 0.084884785 0.16615315 0.08024495
-0.18157317 0.0053785495 -0.097645275 -0.12667988 -0.14002721 0.095870525 -0.23237634 -0.33988342
-0.053846158 0.20872015 -0.13681966 -0.05820961 -0.044007905 0.081022896 -0.033311117 0.07622854
0.06822854 0.0573034 -0.04783328 -0.03510156 0.06467875 -0.040935278 0.0010763722 0.004143376
-0.0873817 -0.2179349 0.14334889 -0.098254204 -0.19149692 0.3163582 0.04296707 -0.06693834
-0.14362499 0.10049346 -0.1534899 -0.0024676989 -0.08677549 -0.04404276 0.051930454 0.09725474
0.022184057 0.1432742 0.047739822 -0.17691392 0.05163098 -0.06319611 -0.12394026 -0.0027901658
0.0363234 0.10511174 -0.24473958 -0.07305693 0.038079303 -0.22852398 0.12904948 -0.12420411
0.05323507 -0.008458448 -0.027398298 0.00755437 0.15858205 -0.06448552 -0.15622379 -0.091287374

bias f4 [128]
00000000: 08d8 31be 07d8 a4bd 5118 e0bb ebe9 b2bd
00000010: c15c 84bd ba7a d93d 4db9 6dbd bc24 663d
00000020: 9fd2 4c3e 40bd 10be 490c 33be 8085 c8bd
00000030: 0e06 02bd 2433 d5bd 7280 15bd a2ba 62ba
00000040: e7c7 2e3d 74be 233e 0c92 1f3e fa58 7b3a
00000050: bfb6 be3b 1ac9 103d 1087 54bd 1edf 8dbd
00000060: ef08 f53d 88ba 8abe f918 24be 2d03 87bd
00000070: 2aba d1bd fd28 12be ee8d 47be ac24 143e
00000080: 9298 44bd da17 9fbd 5fa1 ebbd e75c 063d
00000090: d040 2ebe 8ca2 f3bc 8fce acbb 6516 4d3d
000000a0: 2c5e 9c3d 56ee 08be 494d bc3d 9090 193e
000000b0: 3f0f 2ebd 8aae 8e3d d501 13bd 3027 e93b
000000c0: 2b1d c6bb 154a b0bd 80ba f93d 6ec2 86be
000000d0: 854e f6bc 2fc1 2abe a070 ebbd 731b 3dbe
000000e0: a45a 89be 98a1 603c 7862 94bd 9666 26be
000000f0: 582f 8cbc b7f6 90bd 18f6 e13c 7335 10be
00000100: 3c3d b0bc c535 273c e0b5 9d3d d78b 1a3d
00000110: ea16 333d a510 393e 13b9 cfbd dddc fe3d
00000120: 1604 4c3e e8ce 4fbe 6e03 253d aff7 073e
00000130: 80da 25bd 1d43 803d b0da 123d 4640 fe3d
00000140: 432b 03bd 2dd5 f0bd 002d dc3d 048a a53d
00000150: 4e40 1e3e 4b6c 263d 8766 fe3d 0273 413d
00000160: 156b 7f3d 4636 8bbd 65f2 df3c 6dbd 1fbe
00000170: 56d7 043d f703 65bc 9781 be3b 8b4f 13be
00000180: 1dbd 6e3d 259d 27be 3db4 c53d 3732 0e3e
00000190: a6eb 74be f2d5 183e 9700 36be 8b47 38bd
000001a0: b058 a73d a8e9 cebc 8111 2e3e 776e fbbd
000001b0: 3315 8bbc 260d 30be 9d97 a3bd 2c56 663e
000001c0: fd49 f13d 7f1d de3c 192c 18bd 7cd9 25be
000001d0: 516e 0d3e 8ff3 07bc af0c 83bd c7a0 20be
000001e0: 38ef 203e 111f 8d3d 0ea6 ca3d af1f ceba
000001f0: 03e4 f6bd e678 d23d 8a53 e83c 0294 943d
-0.17367566 -0.080490164 -0.0068388362 -0.087360226 -0.06463004 0.10619111 -0.058038045 0.056187376
0.2000222 -0.14134693 -0.17485155 -0.09791088 -0.031744055 -0.10410145 -0.036499448 -0.0008649026
0.04267111 0.15990621 0.15583056 0.00095881487 0.005820125 0.035348035 -0.05188662 -0.06927322
0.119645946 -0.27095437 -0.16025151 -0.065924026 -0.10240586 -0.14273448 -0.19487736 0.14467114
-0.047997065 -0.07768221 -0.115053885 0.032803442 -0.17016912 -0.029740594 -0.005273647 0.050070185
0.07635149 -0.13372168 0.091944285 0.14996552 -0.04249501 0.069668844 -0.03589042 0.007115267
-0.0060459576 -0.0860788 0.12193775 -0.26320213 -0.030066738 -0.16675256 -0.11496091 -0.18467502
-0.26826966 0.013710402 -0.07245344 -0.16250071 -0.017112419 -0.07078307 0.027583167 -0.1408289
-0.021513574 0.010205691 0.077007055 0.037731018 0.043723024 0.18072756 -0.10142722 0.1244447
0.19923434 -0.20293772 0.040286474 0.13278078 -0.04049158 0.06262801 0.035853088 0.12414603
-0.03202368 -0.1175941 0.107507706 0.08082965 0.15454218 0.04063062 0.12421899 0.04722882
0.06235798 -0.06797461 0.027337262 -0.15599604 0.032431923 -0.013977996 0.005813788 -0.14385812
0.05828582 -0.1636854 0.09653518 0.13886343 -0.23918018 0.14925364 -0.17773663 -0.044990104
0.08171213 -0.0252579 0.16998865 -0.12276929 -0.016977882 -0.17192516 -0.07987902 0.2249381
0.1178169 0.027113674 -0.03715143 -0.16196245 0.13811614 -0.008297815 -0.063989036 -0.15686332
0.15716255 0.06890691 0.09894954 -0.0015725995 -0.120552085 0.10276966 0.028360147 0.07254793

weight f4 [128, 128]
00000000: 1f50 9abc 854c 99bd 54da 113e d60a ac3c
00000010: 969a 6ebc eb63 543c de95 47bc 257c 1db8
00000020: b787 953d 27ee 8d3c 68a5 523d b62d 6d3d
00000030: a2cd 2a3c 4a6b 20bc 4403 033d 3bf3 50bd
00000040: 99bc 413d 60e3 63bd 0b62 953c e2ee f9bd
00000050: 028e 9b3d a249 903d c4d3 6e3d ab92 c63b
00000060: 7749 633d 72d7 9a3d 8d04 a13d df35 163d
00000070: 4420 d5bd b85c 173d 21a4 f53c b372 90bb
00000080: 1740 773d 5ef6 9dbb 4e8c 5c3c 924a 893d
00000090: 69bf 233d d0e5 923c 768b 15bb 0ad0 07bd
000000a0: 3810 4fbd b861 cbba 6c3a 863c 5510 f6bc
000000b0: 2498 2c3c 7a5d 6d3d 5054 a33d 9107 a83b
000000c0: f8c4 5e3c 111d e1bd 3d1b 4a3d 5724 3abd
000000d0: d5e4 923d 08fa c4bc 4021 c5bc f71d a6bc
000000e0: 98e8 bb3b 85db 27bd b77f 8cbd f3b2 933d
000000f0: b69d 383d 881a ccbd 954c e6bc 1a92 233d
00000100: 1384 d73d c375 82bb 8f1f 683d d625 3a3d
00000110: 7945 c9bb 7ade 873d b4dc 93bd 2ff8 e03d
00000120: bd0f c93d 9c07 09bd fe51 2d3d c740 cb3d
00000130: 0b11 623d b9f5 6e3c 4149 313c cb2b 4fbd
00000140: a41b 3e3d 28c3 e0bc 3696 003e 9a78 23bd
00000150: f8ab 8f3c cbfb a1bc c0fc 133d ff0d 1bbc
00000160: 0db4 9b3d c407 84bd bd65 a5bc 5768 193d
00000170: 3ba5 50bd e4d6 22bd c244 893d fe86 d5bb
00000180: f018 4cbd e419 0abd 0d15 453d eddd 0a3c
00000190: 59f0 83bd 4451 a4bc 74d0 813d c8ca 41bc
000001a0: 2ade dfbc 8973 a9bd a42a 993c 9105 1d3d
000001b0: 6a3d 233d f732 873d 2746 c03d 62b8 453d
000001c0: e8d0 973c bbb5 2f3d 809f b8bc f1c8 243c
000001d0: 3a6a 993d fb28 babc 6a3b dcbc 5d4d 6dbc
000001e0: c71c 57bd fdcf fe3c 100d e93d f6f6 a5bd
000001f0: 84c0 633d ed40 ea3c a8d8 003d 0d38 d6bc
00000200: 8be2 cc3d 40bb 963d 354a 20bd 7119 d7bc
00000210: dd45 313d 30bf 2bbd 7bf6 28bc 3094 8dbd
00000220: 7800 60bc 5134 28bd a2d9 3f3d ef6b 103c
00000230: e879 2dbd efc2 b83d 459f 22bb 717f b8bc
00000240: c3db 60bc 8f82 723d 10d6 5ebd 4f24 0a3d
00000250: e8d9 333d 7688 37bd da1f f9bd 8970 7a3c
00000260: e602 74bd 364c ae3c 0e00 f4bc 94b9 883d
00000270: 05c6 fabd 890b 70bd e655 8f3b 79dd 1dbc
00000280: 4869 763d 045f 5dbd 0553 c5bd bab7 0a3d
00000290: ee23 c03d 677b e43c 0a9e 69bd 73f6 a6bd
000002a0: d75a 4bbd 9f09 633b f341 143c 2728 9ebd
000002b0: 5008 be3b 2fcc 3bbd b665 403d 8f9e ebbc
000002c0: b522 843d 4739 84bd f228 a6bd 91da 83bd
000002d0: 2efe 5b3c 9376 d5bd 8b6c 933d 21a2 7e39
000002e0: 05cf 0e3d cd16 14bc 8044 8abd 9095 b43c
000002f0: 8fe3 bfbc dbab dcbd da07 b93c c75b a83d
00000300: bb5e b83c 50cc 2abd 86a5 24bd 6024 513d
00000310: 3da6 21bd 2ec4 8c3d 4f75 833d f87d 0d3d
00000320: f9ce 1abd 58e8 afbd a79e 7a3c a7d6 c63d
00000330: ecb3 05be 25b9 e3bd 9190 ecbc 9fb0 213d
00000340: cbc4 e0bd 148e 09be 5fa0 21bc c95c 06bc
00000350: cb17 f03c b681 8abd 2901 27bd 3c48 b6bd
00000360: edd1 8d3d bb19 5fbd c885 adbd d4bb 923d
00000370: ad27 10bd 5faa 5f3c 136c 933c bd24 a0bd
00000380: a3b6 99bd 7bea d53c bebd bdbd a08c ecbc
00000390: a815 7d3c 4211 75bd 2011 6c3d 3cde cfbd
000003a0: 27a1 aabc d962 c1bb 9f8a a63c 7838 babd
000003b0: 5608 f9ba 5555 c33c 5498 8dbd 9df8 f3bb
000003c0: 78f4 2abd 5087 b13d 3864 1fbd 1490 36bd
000003d0: 4b87 96bd 5466 08bd a253 373d 9d6a dbbd
000003e0: b379 413d fab3 8e3d 4fac 2e3d 274f 0b3d
000003f0: 0ab3 61bd b6d0 db3c 26ba 8839 7c54 ecbc
-0.018837033 -0.07485298 0.14243442 0.02100126 -0.014563223 0.012963275 -0.012181727 -3.7547336e-05
0.07301276 0.017325474 0.051427275 0.05790492 0.010425003 -0.009791205 0.031985536 -0.051013213
0.047299 -0.055636764 0.018235227 -0.122037664 0.07595445 0.07045294 0.058307424 0.0060599647
0.055489983 0.07560624 0.07862196 0.03667247 -0.10406545 0.036953658 0.02998549 -0.0044082045
0.060363855 -0.004820629 0.013461186 0.06703676 0.039977465 0.017931849 -0.002281872 -0.033157386
-0.050552577 -0.0015516793 0.01638528 -0.030037085 0.01053432 0.057950474 0.07975066 0.005127855
0.013596766 -0.10991872 0.049342383 -0.045444813 0.071725525 -0.024045005 -0.024063706 -0.02027796
0.0057345144 -0.040980835 -0.06860297 0.07211866 0.04507228 -0.09965998 -0.028112689 0.039934255
0.10523238 -0.0039813234 0.05667072 0.04544624 -0.006142315 0.06634231 -0.0721983 0.10984837
0.09817455 -0.033454522 0.042314522 0.09924465 0.055192035 0.014584952 0.010820688 -0.050578874
0.04641308 -0.027436808 0.12557301 -0.039909936 0.017538056 -0.019773385 0.036129713 -0.009463786
0.07602701 -0.06446794 -0.020190114 0.03745302 -0.050938826 -0.039755717 0.06702568 -0.0065163365
-0.04982847 -0.033716097 0.04811578 0.008475763 -0.06442327 -0.020058282 0.063385874 -0.011828132
-0.027327616 -0.0827399 0.01869709 0.038335387 0.03985349 0.06601518 0.093883805 0.048271544
0.018532231 0.04289792 -0.022536993 0.010057674 0.07490964 -0.02272462 -0.0268838 -0.014483777
-0.05251768 0.031105036 0.113794446 -0.08103745 0.05560352 0.028595412 0.03145662 -0.026149774
0.10004147 0.07359934 -0.03913327 -0.026257249 0.043279517 -0.041930377 -0.010312672 -0.0691303
-0.013671987 -0.041065518 0.04683841 0.008814796 -0.042352587 0.09021556 -0.002481417 -0.022521706
-0.01372427 0.05920654 -0.054403365 0.033726033 0.043908983 -0.044807874 -0.12164278 0.01528562
-0.059573077 0.021276575 -0.029785182 0.06676021 -0.122448005 -0.05860475 0.0043742536 -0.009635323
0.060158998 -0.054045692 -0.09634975 0.03386662 0.09381853 0.027890874 -0.057035483 -0.08152475
-0.04964718 0.0034643186 0.009048927 -0.07722502 0.005799331 -0.04584902 0.046972 -0.02876213
0.06451932 -0.06456237 -0.081132784 -0.064381726 0.0134273 -0.10423007 0.07198437 0.00024283725
0.034865398 -0.009038639 -0.067513466 0.022043973 -0.023423938 -0.10774966 0.022586752 0.0822063
0.022506109 -0.041698754 -0.040196918 0.05106008 -0.039465178 0.06873356 0.06418859 0.03454396
-0.03779504 -0.08589238 0.015296615 0.097089104 -0.13056916 -0.11119298 -0.028877528 0.03947508
-0.10975035 -0.13433105 -0.009864896 -0.008200833 0.02930822 -0.06763022 -0.04077259 -0.08900496
0.06924806 -0.054467898 -0.084727824 0.071647316 -0.035194088 0.0136514595 0.01799587 -0.07819507
-0.07505538 0.026112786 -0.09264706 -0.028875649 0.015447058 -0.05983091 0.05763352 -0.1014981
-0.020828797 -0.005901676 0.020329772 -0.09092802 -0.0018999677 0.0238444 -0.0691382 -0.0074454085
-0.04173705 0.08668387 -0.038913935 -0.044570997 -0.07350024 -0.033300713 0.044757493 -0.10713694
0.047235202 0.069679216 0.042644795 0.034011032 -0.055102386 0.02683292 0.00026078633 -0.028848879

bias f4 [128]
00000000: 708a f1bb dc42 053c 37f7 b3bd 4e5e 1e3b
00000010: 8e6a ef3b b4bc 7bbd 8c71 853b 22e0 4fbd
00000020: d402 bfbd 7421 a43d 5b07 113c 297d af3d
00000030: fa8d b13d 6481 32bd 5548 bebc a284 66bc
00000040: a502 013d 36cb 8c3c 7c40 85bc f3e0 9a3d
00000050: 9073 c7bc 9be5 373d cc20 003d 0ee0 d3bc
00000060: 3871 533d 2c9a 343d 6e28 43bc 1eb3 88bd
00000070: 0de5 8d3d 648a a13d 73ff 0c3d 725c a23c
00000080: 9c80 4a3d 6430 043d 77b4 1dbd 86a7 5ebd
00000090: 7bab 3bbd b33f 7e3d 845f 62bd 68d3 5d3d
000000a0: c9ec 88bd 2b3c 32bd ed4b 853d c917 29bd
000000b0: 76e3 893c ecd9 833d ee8c b43b c702 5a3d
000000c0: ff77 0fbc 9537 a4bd 97e0 aebc 82cb 21bd
000000d0: bb3f 22bd 6c34 34bd 1990 d73c 451f bb3d
000000e0: 9b1d 9f3d 0f0b 113d b618 89bd 9577 6c3c
000000f0: 7efc d53c 64f3 a03d 9881 48bd 84fc 613d
00000100: 7911 8e3d 2709 efbb 509a f9bd 7afe bc3c
00000110: 6591 643d a086 a9bd 3d1c 9a3d b015 89bc
00000120: 0274 18be 0fe2 243d a780 463d 59e2 c6bb
00000130: eeb8 69bd f51c 2bbd 2123 6c3d bb57 5d3d
00000140: 8243 803d 81f0 d13c 16f9 7f3d 2c54 9bbc
00000150: 7f52 4c3d 054f 263d 2b57 133c abb0 b83d
00000160: b368 37bd 4e13 c23d d180 b1bb 0e48 273d
00000170: 69f2 8dbd 4222 903d 33a0 29bd d029 acba
00000180: 23ad 823d e007 cf3a d89a c2bc b27c 8bbd
00000190: 2505 a03d 3cf0 e03c 1635 b6bc c367 28bc
000001a0: 2ec1 b73d 3f5b 303d 9ddb 893d 6510 0fbd
000001b0: abfc 05bd 7360 08bd 7ad0 b7bd 1dd3 93bc
000001c0: f16d 423c 4cd7 90bd 5bf7 e9bc 7cc6 883c
000001d0: 655b d7bb 2d24 8fbd 5c9f a23d 562c 14bd
000001e0: ca05 a83c e568 773d c91d c4bd 22aa f63b
000001f0: 5694 a5bd fe2f c53d c60b 13bd 4d64 703d
-0.0073712394 0.008133616 -0.08787387 0.0024165097 0.0073064035 -0.06145926 0.0040723737 -0.05075086
-0.09326711 0.08014193 0.008851851 0.08568794 0.08669658 -0.043580428 -0.02322785 -0.014069708
0.031496663 0.017186742 -0.0162661 0.07562437 -0.024347097 0.044896703 0.031281278 -0.025863674
0.051621646 0.044092342 -0.011911495 -0.06674789 0.069284536 0.07887724 0.034423303 0.019819472
0.049439058 0.03227271 -0.038502183 -0.05435898 -0.045817833 0.062072467 -0.055266872 0.05415669
-0.06685788 -0.043514412 0.06508622 -0.04128245 0.016832095 0.0643805 0.005509964 0.053225305
-0.008756637 -0.08018414 -0.021347327 -0.03950072 -0.03961156 -0.043995306 0.026313828 0.091368236
0.07769319 0.035410937 -0.06694166 0.014432807 0.026121374 0.07858923 -0.048951715 0.05517246
0.069369264 -0.007294792 -0.12187636 0.023070563 0.05580272 -0.08277631 0.07524917 -0.016733974
-0.14888003 0.04025465 0.048462536 -0.006069463 -0.05706113 -0.041775662 0.05765069 0.054038744
0.06262876 0.025627377 0.062493406 -0.018961035 0.049883362 0.040602703 0.00899295 0.09018072
-0.044777583 0.09476338 -0.0054169674 0.0408402 -0.06931002 0.07037784 -0.041412544 -0.001313502
0.063806795 0.0015795194 -0.023755476 -0.06810893 0.07813481 0.027458303 -0.02224211 -0.010278645
0.08972393 0.04305577 0.06731341 -0.034927744 -0.032711666 -0.033295106 -0.089753106 -0.018045003
0.011867032 -0.070723146 -0.028560331 0.016696207 -0.0065721744 -0.06989322 0.07940552 -0.036175095
0.020510573 0.06040277 -0.095759936 0.0075276056 -0.080849335 0.096282944 -0.0358999 0.058689404

weight f4 [128, 128]
00000000: 417d 9a3c 771d d0bb 685e 793b 05db 23bd
00000010: 0be1 683b 210f 6fbd ecf2 ea3d 53a7 00be
00000020: c987 ba3c 1a53 ef3d 9803 02bd ecea 20bd
00000030: 65ae d9bd 9787 123c 6285 8dbc 3cb9 95bd
00000040: 2bbd 323d e2e9 dbbd f623 c93a bc58 76b9
00000050: 8aa8 b1bd 7fff 90bd a330 81bd 42b1 d5bd
00000060: e6cd bebd dc4b 2b3b a344 8f3d d290 efbd
00000070: 1bba 2f3d 751f 3ebd d632 913d 2ded fdbc
00000080: e7bc bdbd 0d4a 243c 7b23 8d3d 6265 9c3c
00000090: 3c15 aa3d fca6 753c f840 503c 22ab 63bd
000000a0: daed 7e3d 8fe9 ddbd 6be3 f63c 1554 1b3c
000000b0: 510a e23d e374 ae3c c31e 483d bdf9 993d
000000c0: baba 803c b568 a3bd 2f05 f83b f692 aa3d
000000d0: 7690 e73c 0125 55bc ce5d c43c 8798 a2bd
000000e0: 7dbc b03d 8e51 acbd 56b7 e0bd 051e ea3b
000000f0: 6cb8 22bd 1e7b 0ebd 5d06 363d ee2d 8e3c
00000100: 5e84 f9bc 8381 d3bd 6928 02bd f1d5 61bc
00000110: ae2a 20bc fcee 9bbd 5a80 46bd bb84 9dbd
00000120: 5daa 1bbc 24ae 7d3d ab01 593d 968f 98bc
00000130: 5183 32bb 2770 90bd a608 96bc 526c 773c
00000140: 88dc cebd f59e cfbd 79ef fcbc 4377 e1bd
00000150: 2a25 02bd 6b36 893c 66b3 813d 1229 503c
00000160: ce96 413d 579b 86bd 722e a9bd 72e5 5c3c
00000170: d25a 8c3d 9a29 a6bd 5c6b a83c dc46 933d
00000180: 2156 07be 80ad 15bc c647 d43d 501b 853b
00000190: 16de a63c 1dbc 813c ecb3 4a3c 103e 89bc
000001a0: c8af bf3b 43b1 25bd be73 953c ad01 53bb
000001b0: 01c1 89bc 454f 953c 8fbd bebd c7ed 7a3d
000001c0: a728 ebbd b7ba 2abd e8ea d33d 1615 443c
000001d0: e159 6e3d b826 62bd 3f36 3cbb b9e2 793d
000001e0: 2a23 e6bd 9e8e babd b707 d23d ae52 4f3c
000001f0: a5e5 9cbc f0fc 9bbd 643c 4abb 72ac 5a3d
00000200: 45c5 ce3c fab1 d403 2d50 2b3c 2c10 4cbd
00000210: 6430 19bc 0104 8cbc c3b4 b13c ef22 2ebc
00000220: a49a 39bc 6e61 d93b 0bae 1ebc 195f 8ebc
00000230: cfe9 83bb 07f7 83ba 6dc7 d3ba 680c 17bd
00000240: de24 78bd 50e4 5bbd df8a f7bc a8ff a2bc
00000250: bc9f 14bb 322b d9bb 1c40 90bc d2cc 64bb
00000260: eea4 6bbd 115e 263d 42fb f2bc 3162 153c
00000270: 1dd4 1dbc 897c 97bc fb5e 85bc 7cb8 a7bc
00000280: 0bb3 573c 9b7f c4bb 89db b483 2ddd fdbb
00000290: 71e3 fa3b 2d8f 633c af3a d0bb 096a f03a
000002a0: 3ea8 8cbc c228 c1bb dd44 0abd d6b3 7cb7
000002b0: 1c03 49bd c618 f3ba 7dc0 00bc 9eb4 eebc
000002c0: 20bf 8dbb b07f 4fbc 01e6 41bd a7f0 2cbb
000002d0: 1cb5 65b8 2eda c438 5768 cbbb 5fee eebb
000002e0: dcb1 06bd bbc8 933c b62d b33b c56f e0bb
000002f0: 53cd 81bb 96f7 33bc e32b 74bc 1e42 9cbb
00000300: 3792 4fbc f744 46bc c693 5e3c e854 82bd
00000310: 409d abbc 365a 56bc 87ac 5ebd 5ce1 09bb
00000320: 3875 1c3a c738 0dbb ce53 4b3b c032 bcbb
00000330: cd1b 28bc be98 443d 40d2 dbbc d58a 31bd
00000340: 04ba c6bc 2ff0 bd3b 6b5d 0ebd 8dae 85bb
00000350: e371 49bc f321 52bb 2170 f33b 9e79 eabb
00000360: 4c7d d5bb c8a7 b8ba 35b2 3bbc 2178 19bc
00000370: 7942 f33b a6bf cbbb 6bf2 c4bb b5b1 69bb
00000380: 513a 7e3b 4a40 0cbc 26d7 c438 62a7 0cbc
00000390: 5cbd 43bc f61c 3bbc 6978 28bc 76e0 82bc
000003a0: e33c 6bbb 7ba8 7dbc cce5 bfbb 53ef bfba
000003b0: 6c2e 073c 4fb8 6c3b bb48 de83 ad69 96bc
000003c0: 6226 fbbc 72cc 8dbb c412 e6bc 7edc 9ebc
000003d0: bf6b 2cbd 7b6a e93a a1ab 3b3a 239c 81bd
000003e0: c9c3 89bc 5d2e 7ebc 7cea b839 7173 383c
000003f0: c611 c283 d971 3d3d 7275 563c 3b6f 7ebb
0.018858554 -0.0063511687 0.0038050655 -0.040003795 0.0035534527 -0.058364037 0.11472115 -0.12563829
0.022769826 0.11685772 -0.03174171 -0.03928654 -0.10628966 0.00894346 -0.017275516 -0.07310721
0.043637436 -0.10737969 0.00153458 -0.00023493444 -0.086747244 -0.07079982 -0.06308105 -0.104342
-0.09316616 0.0026137745 0.06995513 -0.11697544 0.042902093 -0.04641672 0.07089774 -0.030996883
-0.09264546 0.010027421 0.06891533 0.019091312 0.083048314 0.014993425 0.012710802 -0.055583127
0.06223855 -0.108355634 0.030137738 0.009480496 0.11037124 0.02129597 0.04885746 0.07518337
0.015714038 -0.07978956 0.0075689773 0.08328812 0.028267127 -0.013009311 0.02397051 -0.079392485
0.08629701 -0.08413993 -0.109724686 0.007144692 -0.03972666 -0.034785382 0.044439662 0.017355885
-0.030458625 -0.10327437 -0.03177682 -0.013783918 -0.009775801 -0.07613942 -0.04846225 -0.07691332
-0.009501067 0.06193365 0.052980106 -0.018623155 -0.0027238915 -0.07052641 -0.01831467 0.015101509
-0.10100657 -0.101377405 -0.030875908 -0.110090755 -0.031773724 0.016749581 0.06333046 0.012705104
0.04726296 -0.065725975 -0.08260812 0.013482438 0.0685326 -0.081134036 0.020559005 0.0719125
-0.1321645 -0.009135604 0.10365252 0.004062094 0.02036957 0.01583677 0.012371998 -0.016753227
0.005849812 -0.040452253 0.018243667 -0.0032197044 -0.016815664 0.018226275 -0.09313499 0.06126192
-0.11482363 -0.04168197 0.10347539 0.011967918 0.058191184 -0.055212706 -0.0028718857 0.061007235
-0.11237176 -0.09109233 0.10255378 0.01265399 -0.019152472 -0.076166034 -0.003085875 0.053387113
0.02524055 1.25011015e-36 0.010456127 -0.04982011 -0.009349916 -0.017091753 0.02169264 -0.010628446
-0.011328373 0.006633929 -0.00968505 -0.01737933 -0.004025675 -0.0010068127 -0.0016157456 -0.036877066
-0.060582034 -0.053684533 -0.030217586 -0.019897297 -0.0022678217 -0.0066274637 -0.017608695 -0.0034912121
-0.057530336 0.040617052 -0.029660825 0.009117649 -0.009633091 -0.018492 -0.016280642 -0.020473711
0.013165246 -0.005996657 -1.0629852e-36 -0.0077473135 0.0076565077 0.013889116 -0.006354652 0.0018342148
-0.017170068 -0.0058947513 -0.03375708 -1.5062242e-05 -0.04907523 -0.0018546812 -0.007858393 -0.02913886
-0.0043257624 -0.01266472 -0.04733849 -0.0026388557 -5.4766526e-05 9.3866474e-05 -0.0062075066 -0.0072915996
-0.032884464 0.018040052 0.0054680957 -0.0068492615 -0.003961244 -0.010984322 -0.0149030415 -0.004768624
-0.012669138 -0.012101403 0.013585037 -0.06363851 -0.020949006 -0.013083031 -0.054363754 -0.0021038866
0.00059683947 -0.0021548735 0.0031025293 -0.0057433546 -0.0102605345 0.04799723 -0.026833653 -0.04334529
-0.024258621 0.0057964544 -0.03475706 -0.004079646 -0.012295219 -0.0032063692 0.0074291383 -0.007155611
-0.0065151807 -0.0014088089 -0.011456062 -0.00936702 0.0074236956 -0.0062179146 -0.006010344 -0.00356589
0.0038792084 -0.00856025 9.386083e-05 -0.008584829 -0.011947002 -0.011420479 -0.010282614 -0.015976172
-0.0035894446 -0.015482063 -0.0058562513 -0.0014643468 0.008250814 0.0036120599 -1.3064685e-36 -0.018360937
-0.03065795 -0.0043273503 -0.02808512 -0.019392248 -0.042094942 0.0017808223 0.00071590586 -0.06328609
-0.01681699 -0.015513984 0.0003526992 0.011257992 -1.1406376e-36 0.04625115 0.013089525 -0.0038823623

bias f4 [128]
00000000: f84d a4bc 108f 5fbc 5a02 8cbd 7777 27bd
00000010: b576 963c 7ea8 dbbc f6a9 88bd 818f 82bc
00000020: d207 afbd 1bb9 6f3d 3bea d53c 3b70 f6bb
00000030: 193f 51ba f141 9b3d bc3b f0bc cc3c 9f3c
00000040: e2a6 f23c ea75 3d3c 3a9d 9abc 7292 63bd
00000050: 1a57 cd3d 5bdf 10be 6b3f 51bd 1b50 833d
00000060: 0086 50bd 5b8e 143d 7592 c63d a5d4 7e3c
00000070: 6341 e5bb edac acbc a28c 8d3d e20d d03d
00000080: 07b5 4cbc ac5f 1fbd 83f5 8c3d 426a f2bc
00000090: eee3 b63b e55e fa3c 0d88 2e3b 61d6 a03d
000000a0: abea 8dbd 3bf3 32bd 9524 a83d 25d5 c13d
000000b0: 12f1 4dbd 40b1 3b3d 8cca 2f3c 322e 6e3b
000000c0: 7ef7 f0bc dc29 00bd 151b cb3d 50b0 d83d
000000d0: b3e3 d83d 02b4 a03d 33f9 a33d cdbc 223d
000000e0: 3718 f5bc 7111 35bd 5774 903d 502a 4cbd
000000f0: 9861 babc 2744 9c3d 23c9 163d a9fb 2f3d
00000100: 59b6 583d 1ab8 ab3d 6064 573d 65c4 2a3d
00000110: 3ded 903d b4f9 6ebc 218a 0cba 0174 fb3d
00000120: 04c7 a23a a9eb 653c 1d5a 5e3c f3ba b53d
00000130: 1f0b 053d f857 423d e8c8 98bc 9d4e 113d
00000140: 6361 a23d 2706 c23c 9269 56bd 5378 953d
00000150: 945e c23c 9434 993c b05f f7bb c6ce d6bd
00000160: e96a d03d 25f2 903d 8cf9 783d f1e2 d13d
00000170: 44cc 0c3d 5cd8 d33d 74f3 9c3d 1b96 bf3d
00000180: c8cb 13bd 1fd7 d83d 32f6 c43d df99 903c
00000190: 5811 e6b8 c66d bf3d bcdc da3c 766a 983d
000001a0: 6b83 84bc 36cc f63c 3208 51bd 1730 db3d
000001b0: d5d6 2f3d f5a7 18bc 4163 70bd 792c 593d
000001c0: 64cc 803d b621 3dbd 43cb ba3c ab7f ed3d
000001d0: ede7 033d 4eb9 6abc 7f21 523d 0e8c a13c
000001e0: 62dc 713c 1e81 443d a9ab 6c3d b753 403d
000001f0: b2ec 813d ad2c 21bc b6c0 1dbd 06ac b9bc
-0.02005671 -0.013644949 -0.06836386 -0.040885415 0.01836715 -0.026813742 -0.066730425 -0.015937569
-0.085464135 0.05852614 0.026112666 -0.007520703 -0.00079821196 0.07580937 -0.029325359 0.01943817
0.029620592 0.011563757 -0.0188738 -0.055559583 0.10026379 -0.14147703 -0.05108587 0.06411763
-0.050909042 0.036268573 0.09695903 0.015553628 -0.00699632 -0.021078551 0.06911589 0.10158898
-0.012494332 -0.0389096 0.06882765 -0.029591683 0.0055813706 0.030562827 0.0026631386 0.078533895
-0.06929525 -0.043688994 0.082101025 0.09464482 -0.05027873 0.045823336 0.010729443 0.0036343453
-0.029414888 -0.03128992 0.09917275 0.10580504 0.10590305 0.07846834 0.08006515 0.039730836
-0.029918773 -0.044206087 0.0705344 -0.04984504 -0.022751614 0.076301865 0.036812913 0.04296461
0.052908275 0.08384724 0.05258596 0.041691203 0.070764996 -0.014585901 -0.0005361159 0.12277985
0.001241893 0.014033237 0.013571289 0.08873548 0.03248131 0.047447175 -0.018650487 0.035475362
0.07928731 0.023684574 -0.052346773 0.07298341 0.023726739 0.018701829 -0.0075492486 -0.10488658
0.101766415 0.070774354 0.06078486 0.10248364 0.03437449 0.10344002 0.076636225 0.09354802
-0.036083013 0.10587906 0.096172705 0.017651496 -0.00010970485 0.093471095 0.026716582 0.07442181
-0.016175946 0.030126672 -0.051033206 0.10702532 0.04292949 -0.009317388 -0.058688406 0.053020928
0.062889844 -0.046174727 0.022802 0.11596616 0.032203604 -0.014326407 0.051301476 0.019720104
0.014762016 0.0479747 0.057780895 0.046954837 0.06343974 -0.009837312 -0.03851386 -0.022665035

weight f4 [128, 128]
00000000: 024e 2b3d 2fc5 273d ad5f a0bd d093 86bd
00000010: ee66 6fbd 6a17 8abd 810d 7dba 69b3 97bb
00000020: 7a22 f5bc bd31 023e 67ef fabd ef91 123d
00000030: c589 dd3d cfa9 4d3c c46a 033d 7dc6 6abd
00000040: e36d b43d 06a4 bc3d 8dd0 16bc da40 c83c
00000050: 7ab7 873d 7da6 1d3e 376d 5dbd 77c4 b83d
00000060: bcbc 3a3d e9b7 713d 762a 6fbd c152 a23d
00000070: 98de 7d3d b5e3 b8bd 4700 0c3d 8dc5 2e3d
00000080: 1d06 9fbc a0ba f63a 5713 a33d 938f c63d
00000090: edbb 023d 3348 833c f699 443d 3c1c ccbd
000000a0: fbc4 28bd 1f39 a4bb 6242 98bc 3dec 993d
000000b0: 0726 733a 346b 1abd 4de1 8d3d d153 b23d
000000c0: fdb8 65bc 4159 5b3d 1e31 3cbd 2686 f6bc
000000d0: 2f27 31bd c959 ed3c def3 343c affc bf3d
000000e0: de71 8f3d 0fce 063d cf9b b03d 50c5 3abd
000000f0: e8fb 8a3d 1b47 1b3d 0da0 4dbc d95d 0cbd
00000100: 268f ce3d 96d2 afbc 71fa 893d 1944 83bc
00000110: 0e5c b93d 3dce 6fbd d646 943d 67d6 083d
00000120: d4f2 41bc 75bd 383d b452 453d 24c2 823d
00000130: 4bc3 21bd 1683 013d 1e13 9abb cf50 df3d
00000140: a170 78bd 9cad 20bd ee7c 81bd 4ce0 723d
00000150: 8ede 98bd 35ea 6bbc 3840 5c3d bc02 1f3e
00000160: 3173 93bc 938e 343d 2954 41ba 8b4d 27bd
00000170: e9ef b1bc ed54 4dbc d0c3 843c da68 98bd
00000180: 947d 393d db10 55bd ab6b d43b 297b 8b3d
00000190: 415a 89bd d141 603d dae5 9a3d 4dd0 1abd
000001a0: 6932 9d3d 4410 7ebd 3076 413c 27d6 aabd
000001b0: 8f88 463c 9568 873a f0b3 6c3d a52c bfbb
000001c0: 52f7 e9bb 8a53 36bd b361 f03c 80b2 9e3b
000001d0: d4a2 2bbd 4c7e fc3c f8a9 db3c d565 093d
000001e0: 71a5 c1bc b3c0 3e3b 2ca9 58bc 821a cf3c
000001f0: 3353 823d e659 e23d 6f60 163d aebf e33d
00000200: eccb 123e 6b39 823b 5fc8 e43c d7fb 9c3d
00000210: 1626 5f3d 585b c83d ef93 2ebd c74a 973d
00000220: d8ea 81bd a1ed bcbc f897 a73d 9604 023d
00000230: 7435 febc 3836 04bd 1525 24bd 6174 4c3a
00000240: 9aa3 013d 22a6 ddbc 8a10 2ebd 57d3 0e3a
00000250: 9444 a43b bcb9 85bd df87 fbbd 5ca9 8a3c
00000260: 9265 33bd b1cc 043d ab74 2b3c 7e75 c5bc
00000270: f95a 09bc 9418 093e 2b9e 3cbd dea2 093e
00000280: 611f de3c f2d2 183c 30eb 9bbc f391 97bc
00000290: d923 59bc fb31 033e 7d93 d5bc 3afb 163e
000002a0: e0e7 ef3c c477 053e 4354 b23c 8b11 a0bc
000002b0: 48ae 82bb ce96 083e c6a9 1dbd 2b33 803c
000002c0: 281d 3c3c a31e bbbd 9cba 193c b4ba d93d
000002d0: 2818 7dbd 9f6a 59bc 1290 25bd 657e f63d
000002e0: 5aa4 f0bb 88c5 b8bd 87f9 1fbd be3a 6bbc
000002f0: 964a 15bb 737f 973c 991e 1b3c 0d5d ec3b
00000300: 6414 3f3c bb69 96bc 7dab 8e3c d7e9 703c
00000310: cb9a 49bc 71fd a8bd ca02 783b e6fc b83d
00000320: 1193 d2bc 564d 3abd 943f c6bb 8f37 b63c
00000330: 8e99 a53d 6427 a43c b9a8 26bd f59b 8f3b
00000340: cdce a73c 77f3 293d 4036 d23c 9fe0 813d
00000350: 9289 cc3d 2749 e5ba bc07 c93c e9ca 21bc
00000360: afea 273d 2ccd c53c ae70 e73c ceff 25bc
00000370: 155b ce3b c923 5f3c 30f1 54bd 777e 53bc
00000380: ea4e d53d 8dea ecbc 8c45 45bc 16d0 893c
00000390: 24ea a83d 49ff a5bc 9457 853c 0a46 0dbd
000003a0: dd04 f3bc c9ce de3c 6a9a 223d 4a13 9d3d
000003b0: b2f0 f2bc bf7f 31bd 3814 11bc 1375 aa3d
000003c0: 6a12 423d 61eb 943c 8250 573d db61 b93d
000003d0: b36a 01bd ab9c 053d b7cf 8a3c b41d 30bb
000003e0: d5bd 9cbd 697b 623d 75f1 19bd 69bc 15bd
000003f0: d057 0f3c 629c e1bc 80e0 2fbd fc01 72bc
0.04182244 0.040959533 -0.07830749 -0.06571162 -0.05844777 -0.06742747 -0.00096531963 -0.0046295417
-0.029923666 0.12714286 -0.122526936 0.035783704 0.10817293 0.012552693 0.03208424 -0.0573182
0.08810022 0.092109725 -0.009204996 0.024444986 0.06626792 0.15395541 -0.054059234 0.09021848
0.045590147 0.05901328 -0.058390103 0.0792594 0.06197986 -0.09027807 0.034179952 0.042668868
-0.019412095 0.0018823929 0.07962673 0.09695353 0.0319175 0.016025638 0.04799839 -0.09966323
-0.04120348 -0.005011692 -0.018586341 0.07515762 0.0009275381 -0.037699893 0.06927738 0.08707393
-0.014021155 0.053551916 -0.04594528 -0.030093264 -0.04325026 0.028973477 0.011044471 0.093743674
0.0700414 0.032911357 0.08623468 -0.045598328 0.067863286 0.03790961 -0.012550366 -0.034269188
0.10085897 -0.02146272 0.06737221 -0.016023682 0.09050761 -0.058546294 0.072400734 0.033407595
-0.01183768 0.045102555 0.048174575 0.06384686 -0.039492887 0.031619154 -0.004701986 0.10904085
-0.060654286 -0.039228067 -0.063226566 0.059295937 -0.07464324 -0.014399101 0.05377218 0.15528387
-0.017999263 0.044081282 -0.00073749066 -0.040845435 -0.021720843 -0.012532455 0.016206652 -0.07441874
0.045285776 -0.052018028 0.0064825616 0.068106 -0.06706668 0.054750267 0.07563372 -0.037796307
0.076756306 -0.06202723 0.011807963 -0.083416276 0.012117519 0.001033085 0.05778879 -0.0058341795
-0.0071400786 -0.044513263 0.029343462 0.004843056 -0.041903332 0.030821942 0.026814446 0.03354438
-0.023638459 0.0029106557 -0.0132239275 0.025281195 0.06363525 0.11052303 0.03671306 0.111205444
0.14335603 0.00397413 0.027927576 0.07665222 0.05447968 0.097830474 -0.04262155 0.073873095
-0.06343621 -0.023062529 0.081832826 0.031742655 -0.031031348 -0.03227827 -0.040074427 0.0007799324
0.031650163 -0.027056757 -0.04249624 0.0005448362 0.005013058 -0.06529567 -0.12281775 0.01692646
-0.043798037 0.03242177 0.0104648275 -0.024103876 -0.008383506 0.13388282 -0.04604928 0.13441035
0.027114572 0.009327637 -0.019033045 -0.018502211 -0.013253176 0.12812035 -0.026071304 0.14744273
0.029285371 0.13033968 0.021768695 -0.019539615 -0.003988061 0.13338777 -0.038491987 0.015649399
0.011481561 -0.09136703 0.00938287 0.10631314 -0.061790615 -0.013270049 -0.0404206 0.120358266
-0.007343811 -0.09022051 -0.039056327 -0.014357267 -0.0022780052 0.01849339 0.009467744 0.007213241
0.011662576 -0.018360963 0.017415756 0.014704189 -0.012304972 -0.08251465 0.003784346 0.090326115
-0.025704892 -0.04548391 -0.0060500596 0.02224329 0.08085929 0.020038314 -0.04068825 0.004382605
0.020484352 0.04149195 0.025660634 0.06341671 0.09987177 -0.0017493115 0.02453982 -0.009875038
0.040995296 0.024145685 0.028251972 -0.010131789 0.006297479 0.013619372 -0.051987827 -0.01290857
0.10415442 -0.028920436 -0.012040507 0.016822856 0.08247784 -0.020263331 0.016277112 -0.034490623
-0.029665405 0.027198212 0.039698042 0.07669695 -0.029655788 -0.04333472 -0.008854918 0.083231114
0.047380842 0.018178644 0.052567013 0.090518676 -0.031595897 0.032620113 0.01694475 -0.0026873173
-0.07653395 0.055293474 -0.037583787 -0.036556635 0.0087489635 -0.02754039 -0.04293871 -0.014770981

bias f4 [128]
00000000: d10c bd3d c725 aa3c e06e 3cbd 81f7 b4bd
00000010: 9111 fb3d beda 1f3d be3d 16bd c9ae a33d
00000020: f9ef 5b3b aa90 ad3d 2be9 88bd bf9d 7a3d
00000030: 6a0c d53d be50 223d 90eb 743d dd0f ff3a
00000040: 977c 46bd 62d3 c43d 50f4 f13b 5f7b 44bd
00000050: 3f5c ee3d 412b 0ebb cd64 aa3d 7ba4 86bd
00000060: 58ff e039 d195 5bbb 0690 acbc 671b 03bd
00000070: 261b c3bc 9037 f3bc f074 da3d f1b3 a3bc
00000080: 6459 d83d 4dfc 453d fffa 8a3d 2df1 4c3d
00000090: e91a 8b3d c420 aa3d 0100 dc3d ae33 fc3c
000000a0: 8645 d73d 2144 8dbc 046b d3bc bfa6 943d
000000b0: 78c9 a03d 7e29 7b3d 5405 ab3d 3708 e7bc
000000c0: 4eb4 133d e40d d83c 328f fdbc ceeb 5c3d
000000d0: b4b2 aa3d f0fb d0bd 9c6c b73d 15b2 893c
000000e0: cd1f a83d f48c 983d c714 033c eedb 93bc
000000f0: 9e56 7d3d 198f b53d 5f3a 9fbb 5eef 9c3d
00000100: 4b0d 113d 2bb5 663d 39f2 e53d 8ce5 f13c
00000110: b991 993d 080f 8b3d 4c0b 02bc 85ed f03d
00000120: e63f f63d 669c 6abd cc3e a23d 3ee4 b23d
00000130: 0270 01bd 5f66 e83d 107c 2cbd 5139 ea3c
00000140: e6ea 843d 7783 813d 2890 833d bd2b 7f3d
00000150: 8858 9e3d 31c5 723c 4a64 e93d f521 24bd
00000160: 9afe 0b3d 34ad 8cbd 9f2e 9a3c 7a4f 1c3d
00000170: 83af ff3d 043a 97ba fa7e 9a3d 26cc 083d
00000180: 11be adbd 4ca0 0fbc 7f1c 92bd 16f2 b83c
00000190: 2920 783d 2933 0cbd 190a 023e 1465 a1bd
000001a0: 241b a83b 1c5c 823d aacd 3d3d 12a9 bb3c
000001b0: 994a c33d 8ff1 3e3d 3a11 1d3c 70a0 d13d
000001c0: b235 c83d e6fe 883c 8b3d 613c 733b 813d
000001d0: 262f ea3d 99aa 583d ddb5 383c 62b2 b43d
000001e0: 4f4f c53d ba47 113d 9fff 9abc 7943 d03d
000001f0: 3f5d 253d e71e 5d3d eca6 04bd dedb d43d
0.0923096 0.020769967 -0.046004176 -0.0883627 0.1225921 0.03902697 -0.036679976 0.07992322
0.0033559783 0.08474858 -0.06685098 0.061185595 0.104027584 0.039627783 0.059794962 0.0019459684
-0.048458662 0.096106306 0.0073838606 -0.04796922 0.11638688 -0.0021693262 0.083200075 -0.06574341
0.00042914855 -0.0033506046 -0.02106477 -0.032008555 -0.023816656 -0.02968958 0.10666835 -0.019983264
0.10563925 0.048336316 0.06786155 0.05003469 0.06792242 0.08307031 0.10742188 0.030786362
0.105113074 -0.0172444 -0.025807865 0.07258367 0.07850927 0.061318867 0.08350626 -0.02820216
0.036060624 0.026373811 -0.03095207 0.05393582 0.08334866 -0.10204303 0.089562625 0.016808549
0.082091905 0.0744876 0.008000559 -0.018049207 0.061850183 0.08865184 -0.0048592533 0.07662843
0.035413068 0.05632512 0.11227841 0.029528402 0.074984975 0.06789976 -0.007937264 0.11764053
0.120239064 -0.05727806 0.07922134 0.0873494 -0.03160096 0.11347651 -0.042110503 0.028591784
0.06490116 0.06323903 0.0642398 0.06229757 0.0773173 0.014817522 0.11396082 -0.040071446
0.034178354 -0.068689734 0.018821059 0.038161732 0.12484648 -0.0011537676 0.0754375 0.033397816
-0.08483518 -0.008766245 -0.071343414 0.022576373 0.060577545 -0.034228478 0.12699164 -0.07880607
0.0051301885 0.06365225 0.046338715 0.022907767 0.09535713 0.046617087 0.009586627 0.10235679
0.097758666 0.016723108 0.013747583 0.06310167 0.11434774 0.05289707 0.011273828 0.08823086
0.096342675 0.035468794 -0.018920718 0.101691194 0.04037213 0.05398455 -0.03238575 0.10393499

weight f4 [1, 128]
00000000: a42c 29bd 78d7 fc3d 341a bb3d 6d54 40ba
00000010: 22e9 d0bd 9de2 da3d 8dc6 533d c5de cabd
00000020: f23b 793d c725 d23d 3de9 923d 85db e43d
00000030: 1c19 f03d c80a bfbc 9f26 123e 405d dc3d
00000040: 976e 49bd 2d92 68bd d754 54bd 5baa 573d
00000050: 6a49 fabc 87fa 77bd 464e c93d 7e63 983d
00000060: 73fd eabb 3f4e 563d 177e 9b3d ccf4 08be
00000070: 274b 0a3e 5b88 903d 4c9e b2bc 760e 153e
00000080: 23c1 cbbd 1c21 d83d 851c aebd 6cf1 82bd
00000090: 6652 d3bc e5dc dfbd f02b d13d 0eaa 953d
000000a0: 4bcd c1bd c5cd c7bd 9eac 46bd 4a8e 37bd
000000b0: 2cc8 be3d a41d 793d c91a 7d3d 3dbe 2c3d
000000c0: 067d 1bbd 9c12 b33d 76bb 0c3e 0bed bdbc
000000d0: 1e29 453d 0e0b 2abb 2121 c0bc d1a0 b4bd
000000e0: dfc9 32bd 64de 8dbd 353e 15bd 2282 c5bd
000000f0: 5950 033e 9800 b83d 2bc4 c5bd ed1d be3d
00000100: 094a 123e 3284 de3d 763e cf3d 3368 5f3d
00000110: 5abf f43d 6a75 44bd 5762 d33b a363 e5bc
00000120: d6da 6cbd 1b74 d73a d507 003e 5595 0ebd
00000130: 4d6a 963b ecd0 62bd 7afe 233e a7f0 a0bc
00000140: 04e5 96bd d42f 61bd edd4 ec3d b241 8d3d
00000150: d127 a83d 373e 34bd 84c8 a8bc 1888 903d
00000160: 13b9 58bd 2d88 d2bd f010 e6bc 4e4a 1d3e
00000170: fa21 7abd ea8b 56bd e129 dc3d bf1a 18bd
00000180: 37a7 d43c f794 5fbd ba58 55bd 9753 063e
00000190: f247 c4bd 6860 72bb 470c 1bbd 3d98 abbd
000001a0: 0159 093d 0d73 89bd 6231 e63d a5c3 a1bd
000001b0: 4f09 2e3d cb56 a53d 35f7 57bd baba a5bd
000001c0: 66ac ca3d 68e2 84bd e649 c5bd 6345 913d
000001d0: 0869 afbc da15 dc3c 746b b5bd cd4e 0cbd
000001e0: 4207 40bd 8b31 f33d 9bab 403d decb c5bd
000001f0: a72a c63d ad65 023e 15d8 a13d cab4 b1bd
-0.04130234 0.12345785 0.09135857 -0.0007336799 -0.102007166 0.10687754 0.051703025 -0.09905771
0.060848184 0.10261112 0.07173393 0.111746825 0.11723539 -0.02332057 0.14272545 0.107599735
-0.049177732 -0.05678003 -0.051838722 0.052652698 -0.030552585 -0.060541656 0.098293826 0.07440852
-0.007171327 0.052320715 0.07592409 -0.13374633 0.13505231 0.07057258 -0.021803997 0.14556298
-0.09948947 0.1055319 -0.085015334 -0.06393704 -0.025796127 -0.10930804 0.102134585 0.07307826
-0.09462985 -0.09756044 -0.048504464 -0.04481343 0.093155235 0.060819283 0.061793122 0.042173613
-0.03796103 0.08743784 0.13743386 -0.02318432 0.048134916 -0.002594653 -0.023453297 -0.08819736
-0.04364955 -0.06927183 -0.03643628 -0.096439615 0.12823619 0.08984488 -0.09656557 0.09283052
0.14286055 0.10865058 0.10119335 0.05454273 0.1195056 -0.047963537 0.006450932 -0.028001612
-0.057825886 0.00164378 0.12502988 -0.034810383 0.0045903088 -0.055375025 0.16015044 -0.019646002
-0.073679 -0.054977253 0.1156405 0.06897296 0.082107194 -0.044004645 -0.020603426 0.07057208
-0.052910876 -0.1027988 -0.028084248 0.15360376 -0.06106756 -0.052379526 0.10750175 -0.037134882
0.02595864 -0.054585423 -0.05208657 0.13117824 -0.09584035 -0.0036983732 -0.037853505 -0.083786465
0.033532146 -0.06711397 0.11239888 -0.07898644 0.042489346 0.08073195 -0.05272599 -0.08092256
0.09896164 -0.06488496 -0.09633236 0.070933126 -0.021412387 0.026865888 -0.08858386 -0.034254838
-0.04688192 0.11874684 0.047038656 -0.09658025 0.09676104 0.12734099 0.079025425 -0.08677061
