bike_sharing/AutogluonModels/ag-20220403_213147/models/NeuralNetTorch_BAG_L2/S1F8/net.params (torch, 215879 bytes, 9 tensors)

weight f4 [128, 22]
-0.10075707 0.2141916 -0.15181197 -0.15514895 -0.10761145 0.112857416 0.072274126 0.20039125
0.03965415 0.043366317 -0.04059001 -0.0032237596 -0.18119998 -0.1099935 -0.06385712 0.042344827
0.13219981 0.13486594 -0.10452751 -0.09247992 0.067718126 0.18704666 -0.21545365 0.2952329
-0.03733791 -0.021758782 0.1768432 -0.22172166 -0.16171753 -0.0024286015 -0.052409112 0.17754832
-0.11197263 -0.12839602 -0.15913747 -0.17688994 -0.15360157 0.17067705 0.08758373 0.023645781
0.086395144 -0.101243556 0.054861154 -0.1559251 -0.109435245 -0.4217111 0.058381893 0.14618438
-0.102130316 -0.0079765245 0.1329939 0.14280759 0.04347172 0.040659565 0.11473593 -0.050319854
0.03651178 -0.13101114 -0.12049496 -0.09531576 0.13770232 0.011056561 -0.13187273 0.09987779
0.06017639 0.058264535 -0.100542344 0.20998669 0.12100725 0.12759042 -0.09457288 -0.10048896
0.063841835 0.1971417 0.12617914 0.16838506 0.11157349 -0.13698243 0.011442028 -0.14768246
-0.2320612 0.15703486 0.1577154 -0.101848 0.027148854 -0.12150743 0.05562631 -0.23096794
0.1439753 -0.33444148 0.029112397 0.08660404 0.19657803 0.088149324 -0.19626263 -0.09832334
0.003629783 0.07694198 -0.13810816 -0.12701073 0.15580305 0.14236927 -0.07094838 -0.09971234
-0.22711428 0.042545334 -0.13927546 -0.12820826 -0.0075986376 0.051013928 -0.25727072 0.24683048
-0.11623474 0.16418082 0.052380886 -0.064141065 0.05730692 -0.013305622 0.03699341 0.051705424
0.004115615 0.022392873 -0.100892134 0.113010414 -0.18216835 -0.07483348 0.007445119 -0.03444288
-0.12102676 -0.15371566 -0.12853074 0.08822352 -0.20254636 -0.12756348 0.09071103 -0.06436712
-0.03875258 -0.041621834 0.024151716 0.15298855 0.20196065 0.110983685 0.15380472 -0.021365121
-0.15560248 -0.1279561 0.14280672 -0.004341786 -0.13080825 -0.115710475 -0.22508985 -0.20265763
-0.1338731 0.1418378 0.295762 -0.41059726 0.13457876 -0.13229536 -0.013042077 -0.07715111
-0.039218437 0.005066654 -0.08509921 -0.09909166 0.01310003 0.013577343 -0.0467903 0.0928739
-0.13955346 0.0018639449 0.16132699 -0.0029138587 0.12488529 0.09947559 -0.15251465 0.08694213
0.20560409 -0.3280547 0.11645147 -0.14175309 0.03231569 -0.09070602 0.08997167 0.027424432
0.051554915 0.032533295 -0.049063787 -0.019635634 -0.05784885 0.08194091 0.17037027 0.08882173
-0.19144182 0.006747013 -0.122776695 -0.15130803 -0.23039378 0.07847574 -0.2410002 -0.40457577
-0.05666316 0.23527461 -0.11397848 -0.020024179 -0.021529835 0.052516103 -0.0017915909 0.058462758
0.0657011 0.035015143 -0.014894179 -0.011032253 0.060305007 -0.021030482 -0.00082189473 -0.0019710155
-0.0973329 -0.25552025 0.059062 -0.061256964 -0.20564552 0.33629215 0.024018267 -0.088714056
-0.11702621 0.08849747 -0.15245059 0.008600949 -0.06875767 -0.02689451 0.06730638 0.07037052
0.04002476 0.1479919 0.05340809 -0.1634215 0.08323796 -0.053582802 -0.12353815 0.00562684
0.04656689 0.07607169 -0.2680057 -0.103658505 0.0627496 -0.21723005 0.12409946 -0.11481292
0.05411451 -0.020828532 -0.0157369 -0.020530142 0.15191734 -0.06938163 -0.12761982 -0.04277179
00000000: b959 cebd 0b55 5b3e 9974 1bbe 5edf 1ebe
00000010: 6463 dcbd ca21 e73d 7504 943d 5d33 4d3e
00000020: 646c 223d e1a0 313d b641 26bd b645 53bb
00000030: 7d8c 39be 4644 e1bd 86c7 82bd c571 2d3d
00000040: 635f 073e 4c1a 0a3e 8512 d6bd 1d66 bdbd
00000050: cdaf 8a3d 2989 3f3e e29f 5cbe c428 973e
00000060: a3ef 18bd 793f b2bc 6216 353e 010b 63be
00000070: 4899 25be 2c29 1fbb f0aa 56bd 3acf 353e
00000080: e851 e5bd 3f7a 03be eff4 22be a322 35be
00000090: bb49 1dbe f7c5 2e3e 195f b33d ccb4 c13c
000000a0: f0ef b03d c858 cfbd 17b6 603d d4aa 1fbe
000000b0: 961f e0bd 84ea d7be da21 6f3d 5cb1 153e
000000c0: b329 d1bd f8af 02bc 8e2f 083e 273c 123e
000000d0: 670f 323d a58a 263d acfa ea3d 311c 4ebd
000000e0: 608d 153d c927 06be 10c6 f6bd e934 c3bd
000000f0: d601 0d3e 9426 353c a509 07be ba8c cc3d
00000100: 857b 763d cba6 6e3d 25e9 cdbd c006 573e
00000110: a6d2 f73d 10a7 023e 6daf c1bd 28cd cdbd
00000120: 82bf 823d 84df 493e 1b35 013e 226d 2c3e
00000130: a480 e43d 1f45 0cbe 5877 3b3c 123a 17be
00000140: 74a1 6dbe bfcd 203e 2580 213e af95 d0bd
00000150: 4667 de3c e3d8 f8bd 6ad8 633d dc82 6cbe
00000160: 436e 133e ea3b abbe 1f7d ee3c 755d b13d
00000170: c04b 493e a287 b43d 12f9 48be bf5d c9bd
00000180: a7e1 6d3b c293 9d3d 3a6c 0dbe 1a0f 02be
00000190: d68a 1f3e 40c9 113e 624d 91bd fc35 ccbd
000001a0: a590 68be 0444 2e3d 3a9e 0ebe 0749 03be
000001b0: fefd f8bb fbf3 503d fdb8 83be 21c1 7c3e
000001c0: 7b0c eebd 041f 283e 578d 563d 645c 83bd
000001d0: a9ba 6a3d d3ff 59bc 6786 173d 11c9 533d
000001e0: 48dc 863b 4271 b73c 89a0 cebd 0172 e73d
000001f0: 578a 3abe 4c42 99bd 2ff6 f33b fa13 0dbd
00000200: e1dc f7bd a367 1dbe 909d 03be 88ae b43d
00000210: 5068 4fbe 00a0 02be b4c6 b93d e9d2 83bd
00000220: 06bb 1ebd a87b 2abd d2d9 c53c 08a9 1c3e
00000230: c6ce 4e3e 6a4b e33d fc7e 1d3e e805 afbc
00000240: 4256 1fbe ed06 03be ed3b 123e 8a45 8ebb
00000250: 99f2 05be 9df9 ecbd f47d 66be 7b85 4fbe
00000260: 0816 09be ee3d 113e 1e6e 973e ce39 d2be
00000270: 04cf 093e 6f78 07be 70ae 55bc 6701 9ebd
00000280: 83a3 20bd 2d06 a63b 7f48 aebd 91f0 cabd
00000290: 82a1 563c 8173 5e3c 30a7 3fbd ac34 be3d
000002a0: 1ae7 0ebe 9d4f f43a e732 253e 70f6 3ebb
000002b0: dcc3 ff3d dcb9 cb3d cd2c 1cbe b70e b23d
000002c0: e189 523e c9f6 a7be 1c7e ee3d b927 11be
000002d0: 755d 043d 14c4 b9bd 1143 b83d 34a9 e03c
000002e0: 3f2b 533d a241 053d 1cf7 48bd e9da a0bc
000002f0: eaf2 6cbd a3d0 a73d 8b75 2e3e 2be8 b53d
00000300: 5309 44be 0c16 dd3b 5972 fbbd 7ef0 1abe
00000310: 59ec 6bbe e4b7 a03d c2c8 76be 8e24 cfbe
00000320: a117 68bd d4eb 703e 8d6d e9bd bf09 a4bc
00000330: 565f b0bc 201b 573d d1d3 eaba a576 6f3d
00000340: 4c8e 863d 0a6c 0f3d b706 74bc 9fc0 34bc
00000350: 6202 773d 1e48 acbc 6c74 57ba 272c 01bb
00000360: 7956 c7bd 8dd3 82be ffea 713d 95e8 7abd
00000370: bd94 52be 7c2e ac3e f5c1 c43c b7af b5bd
00000380: 70ab efbd 293e b53d 021c 1cbe ffea 0c3c
00000390: d2d0 8cbd e051 dcbc edd7 893d 6b1e 903d
000003a0: 01f1 233d 308b 173e 71c2 5a3d f757 27be
000003b0: aa78 aa3d a479 5bbd 9201 fdbd 5b61 b83b
000003c0: ecbc 3e3d 79cb 9b3d 0b38 89be e94a d4bd
000003d0: dd82 803d 8e71 5ebe dc27 fe3d 0923 ebbd
000003e0: 2da7 5d3d 99a0 aabc acea 80bc d42e a8bc
000003f0: 3890 1b3e f517 8ebd c5ae 02be 7931 2fbd

bias f4 [128]
-0.1743673 -0.11144397 0.02089487 -0.106108256 -0.06807813 0.103285186 -0.05230578 0.04775391
0.16831492 -0.16734497 -0.169223 -0.104128 -0.030943848 -0.091376066 -0.037645325 0.0014772955
0.05652125 0.15995033 0.15796043 -0.00209768 -0.008594075 0.028636977 -0.048369728 -0.089972794
0.072347514 -0.30490676 -0.17425084 -0.07830768 -0.097288884 -0.15105808 -0.21311955 0.14866419
-0.049478244 -0.07823994 -0.1286185 0.04356878 -0.17460586 -0.02142402 -0.007583995 0.024886586
0.05827571 -0.15643156 0.06554784 0.12862983 -0.04182097 0.049837414 -0.034156498 0.020170286
-0.024449272 -0.12317714 0.08584522 -0.26029056 -0.02982391 -0.1704496 -0.12877068 -0.21692587
-0.26591593 -0.0068596504 -0.10008106 -0.20947853 -0.0030690224 -0.10662479 0.01258666 -0.14022464
-0.019079773 0.052952882 0.056903686 0.034876212 0.03806199 0.15667021 -0.11437927 0.13367425
0.19672325 -0.20022793 0.022360096 0.10239331 -0.083674684 0.08263735 -0.045208234 0.12002269
-0.04954688 -0.12234237 0.11980855 0.11188174 0.16013005 0.05508721 0.12244828 0.014146093
0.05254012 -0.07190679 0.07636913 -0.16912456 0.014151195 -0.03151625 0.02058706 -0.14129291
0.045933053 -0.16457713 0.080903664 0.1079087 -0.23526505 0.12098816 -0.18467264 -0.05651833
0.08083288 -0.10245613 0.1430206 -0.10816323 -0.022998855 -0.18296121 -0.06797557 0.23809578
0.1167926 0.023043858 -0.054733284 -0.16071749 0.14300413 0.010633975 -0.057599377 -0.15114759
0.17184375 0.083196886 0.12450448 0.017672462 -0.17438756 0.10889691 0.03189286 0.050642066
00000000: 578d 32be bc3c e4bd b82b ab3c 494f d9bd
00000010: 8c6c 8bbd 2f87 d33d 963e 56bd 9b99 433d
00000020: bf5a 2c3e 7b5c 2bbe cb48 2dbe 1041 d5bd
00000030: f47d fdbc 6023 bbbd fc31 1abd d0a1 c13a
00000040: d482 673d 05ca 233e 61c0 213e 3b79 09bb
00000050: 2ace 0cbc 1898 ea3c 561f 46bd a843 b8bd
00000060: ef2a 943d bd1c 9cbe d06e 32be c75f a0bd
00000070: 653f c7bd f8ae 1abe 033c 5abe 6d3b 183e
00000080: b3a9 4abd 433c a0bd 91b4 03be 2d75 323d
00000090: e1cb 32be 6d81 afbc 2983 f8bb f4de cb3c
000000a0: 83b2 6e3d 982f 20be f23d 863d 8ab7 033e
000000b0: 774c 2bbd 5122 4c3d afe7 0bbd 283c a53c
000000c0: d749 c8bc 4c44 fcbd 9ecf af3d ce44 85be
000000d0: 4651 f4bc 578a 2ebe 76dc 03be d121 5ebe
000000e0: 2226 88be ebc6 e0bb 4cf7 ccbd 8a81 56be
000000f0: a721 49bb 195e dabd 4738 4e3c 0c97 0fbe
00000100: 2f4d 9cbc 1fe5 583d d713 693d 5cda 0e3d
00000110: e4e6 1b3d 286e 203e ae3f eabd e7e1 083e
00000120: d271 493e 8d08 4dbe 852c b73c 95b3 d13d
00000130: a25d abbd c53d a93d 452c 39bd 75ce f53d
00000140: abf1 4abd a38e fabd 2f5e f53d 4122 e53d
00000150: 22f9 233e 20a3 613d 2ac6 fa3d 04c5 673c
00000160: 4f34 573d de43 93bd 6b67 9c3d fd2e 2dbe
00000170: 6ada 673c 2f17 01bd 32a6 a83c 17af 10be
00000180: 4c24 3c3d e886 28be d2b0 a53d 3dff dc3d
00000190: 52e9 70be a4c8 f73d d31a 3dbe c47f 67bd
000001a0: b68b a53d 85d4 d1bd fe73 123e af84 ddbd
000001b0: 1868 bcbc 2f5a 3bbe c736 8bbd 61cf 733e
000001c0: f530 ef3d 79c6 bc3c 0230 60bd 2093 24be
000001d0: ad6f 123e 203a 2e3c 53ed 6bbd 6fc6 1abe
000001e0: cff7 2f3e 2163 aa3d 34fc fe3d d7c5 903c
000001f0: a792 32be 5805 df3d 16a2 023d 0e6e 4f3d

weight f4 [128, 128]
-0.011498395 -0.056463823 0.08107656 0.005733392 -0.03761844 -0.017808352 -0.04265367 0.02520659
0.08678349 0.026718404 0.028378936 0.04491473 0.008868602 -0.016667712 0.023057947 -0.06847596
0.05366471 -0.042861175 0.008030291 -0.108780086 0.060644064 0.10767082 0.058591958 -0.0076421485
0.06329487 0.061120365 0.09099513 0.027875314 -0.12294277 0.032197785 -0.014574799 -0.0057342956
0.022353228 -0.018225277 0.004873054 0.066942826 -0.014189495 0.027993271 0.0102754515 -0.041273132
-0.04875395 -0.032913487 0.014531659 -0.053666994 -0.00012369284 0.053101946 0.08735226 0.003346324
-0.00194012 -0.10469779 0.04330288 -0.054155994 0.058073785 -0.040106136 -0.044590876 -0.03365212
-0.03547115 -0.036961332 -0.094178066 0.05558741 0.053017773 -0.10043404 -0.034553252 0.010066512
0.10354174 -0.017275814 0.0698016 0.040635947 -0.03890843 0.055303097 -0.083053716 0.094169535
0.1171337 -0.008187039 0.028809771 0.101012394 0.049740855 -0.023656372 -0.0030468996 -0.048950877
0.061153483 -0.016951716 0.11084079 -0.019826848 0.025005255 -0.042099845 0.044801243 -0.021182228
0.06768311 -0.058715712 -0.029982878 0.02786563 -0.038930777 -0.04064213 0.07058238 -0.039804354
-0.049436804 -0.0018918168 0.04002888 0.013066052 -0.056737952 -0.047218878 0.060927738 -0.014154029
-0.043861173 -0.074818134 0.038673338 0.056607045 0.036502145 0.050812252 0.093162686 0.027839845
-0.0052425037 0.04122227 -0.047557265 0.041017428 0.07014688 -0.024000145 -0.054730818 -0.050435416
-0.04115876 0.03034646 0.0892117 -0.046392787 0.023426265 0.013871216 0.026645452 -0.06492798
0.115949504 0.014322586 0.013286358 -0.025381014 0.013401974 -0.017642103 0.050125774 -0.17182413
-0.031316325 -0.04332927 0.052466758 0.06348903 -0.004963887 0.0686474 -0.00057018804 -0.0019717696
0.022154104 0.084956884 -0.071028784 0.06901782 0.056904502 -0.024557875 -0.084794104 0.0033066764
-0.14414318 0.076463655 -0.026272342 0.07622785 -0.071258746 0.015388784 0.14243479 -0.001132776
0.06075056 0.023108475 -0.015453373 0.01603387 0.09871534 0.100380905 -0.055151846 -0.027844692
0.0031414481 0.04912231 0.030759532 -0.08601763 0.047322046 -0.01833499 0.08783167 -0.04613046
0.08703608 -0.052306622 -0.05780557 -0.06452932 0.048809554 -0.095408164 0.038407438 -0.027700532
0.14120455 0.0043429835 -0.06593144 0.0017988224 -0.042616513 -0.06013679 0.02194319 0.087125584
0.06971206 -0.017042715 -0.07338865 -0.008205067 -0.061793186 0.08704537 0.07705964 -0.079088956
-0.08809785 -0.112365834 0.0119126 0.08395668 -0.14362258 -0.034006372 -0.042538572 0.05493165
-0.082848504 -0.14926846 -0.0038757094 0.006488369 0.034630887 -0.035451353 -0.05219033 -0.06804756
0.05198955 0.05212202 -0.008153187 0.068180695 0.01894088 -0.067515604 0.05291189 -0.043498836
-0.098078184 0.019988388 -0.1447393 -0.13132395 0.033938814 -0.09232228 0.046611555 -0.03984037
0.016492493 -0.03337172 -0.036323983 -0.10687642 -0.073031195 -0.014766647 -0.15289527 -0.049951777
-0.018489135 0.032974187 -0.082553595 -0.117368445 -0.072032064 -0.054594066 0.024413032 -0.07549235
0.06103766 0.047109693 0.038740296 -0.09906017 -0.15052132 0.010916366 0.07785014 0.030144399
00000000: c463 3cbc 9c46 67bd 780b a63d 2edf bb3b
00000010: cb15 1abd d2e2 91bc 9db5 2ebd 0d7e ce3c
00000020: 8bbb b13d 8ee0 da3c f17a e83c 82f8 373d
00000030: 9d4d 113c ba8a 88bc 05e4 bc3c 203d 8cbd
00000040: 87cf 5b3d 338f 2fbd 7b91 033c 18c8 debd
00000050: e965 783d 8582 dc3d 1ffe 6f3d fd6a fabb
00000060: bea0 813d 5959 7a3d a85b ba3d c55a e43c
00000070: 6bc9 fbbd d3e1 033d 23cb 6ebc c2e6 bbbb
00000080: 1e1e b73c 2d4d 95bc 24ae 9f3b 5219 893d
00000090: 0e7b 68bc 2552 e53c 5e5a 283c 040e 29bd
000000a0: 39b2 47bd 4bd0 06bd 3216 6e3c ecd1 5bbd
000000b0: 8bb3 01b9 6d81 593d bee5 b23d 004e 5b3b
000000c0: a04b feba cc6b d6bd 5c5e 313d add2 5dbd
000000d0: c7de 6d3d 5546 24bd eca4 36bd ced6 09bd
000000e0: 324a 11bd c464 17bd 6ee0 c0bd a0af 633d
000000f0: 2a29 593d 5db0 cdbd b687 0dbd 03ee 243c
00000100: b10d d43d 0286 8dbc 24f4 8e3d e171 263d
00000110: 725e 1fbd 8085 623d 1118 aabd f5db c03d
00000120: cbe3 ef3d ee22 06bc 7802 ec3c 96df ce3d
00000130: 11bd 4b3d 02cb c1bc 7eae 47bb b780 48bd
00000140: 137c 7a3d 53de 8abc 7f00 e33d ea6b a2bc
00000150: d2d7 cc3c e370 2cbd 8281 373d 5a86 adbc
00000160: 719d 8a3d e37f 70bd a79e f5bc 7646 e43c
00000170: e175 1fbd 5d78 26bd 7f8d 903d e409 23bd
00000180: 3f7e 4abd d7f6 f7ba 53f5 233d ff12 563c
00000190: 0e66 68bd 9568 41bd 5d8f 793d 4de6 67bc
000001a0: c6a7 33bd 403a 99bd ef67 1e3d cadc 673d
000001b0: 4683 153d 8220 503d 14cc be3d 6310 e43c
000001c0: 4fc9 abbb afd8 283d 68cb 42bd e401 283d
000001d0: 2ba9 8f3d f49b c4bc 6c2d 60bd 5e95 4ebd
000001e0: 1796 28bd 2499 f83c a0b4 b63d 5d06 3ebd
000001f0: 70e8 bf3c 1944 633c 9047 da3c f6f8 84bd
00000200: ef76 ed3d 48a9 6a3c 06af 593c d8eb cfbc
00000210: f493 5b3c 2c86 90bc af50 4d3d aaf2 2fbe
00000220: 8c45 00bd 087a 31bd 62e7 563d 8906 823d
00000230: 1aa8 a2bb 0297 8c3d ac78 15ba ce38 01bb
00000240: 867c b53c e0fd ad3d 8a77 91bd 3759 8d3d
00000250: b214 693d 992d c9bc 88a8 adbd d3b4 583b
00000260: 459a 13be fa98 9c3d 1839 d7bc 591d 9c3d
00000270: 1bf0 91bd 3d21 7c3c 6dda 113e a879 94ba
00000280: 94d5 783d fc4d bd3c 2530 7dbc 7659 833c
00000290: 452b ca3d 8194 cd3d e7e6 61bd 8d1a e4bc
000002a0: c1e0 4d3b 7a34 493d 6afb fb3c 032a b0bd
000002b0: c3d4 413d 4333 96bc 17e1 b33d 4bf3 3cbd
000002c0: f93f b23d 783f 56bd 89c5 6cbd f327 84bd
000002d0: 87ec 473d 5b65 c3bd 1e51 1d3d 3aec e2bc
000002e0: ed97 103e 964f 8e3b 1007 87bd 77c6 eb3a
000002f0: a78e 2ebd ff51 76bd 34c2 b33c e66e b23d
00000300: 32c5 8e3d 2a9d 8bbc ca4c 96bd 8c6e 06bc
00000310: da1a 7dbd d844 b23d 72d1 9d3d 64f9 a1bd
00000320: a56c b4bd 0f20 e6bd 112d 433c 7bf1 ab3d
00000330: cc11 13be 444a 0bbd ed3c 2ebd 0300 613d
00000340: 7aac a9bd d5d9 18be 9dff 7dbb 629c d43b
00000350: 1ed9 0d3d 7035 11bd 87c5 55bd 855c 8bbd
00000360: fff2 543d e67d 553d f294 05bc 52a2 8b3d
00000370: e829 9b3c 9f45 8abd 23ba 583d d62b 32bd
00000380: 37dd c8bd b0be a33c 8a36 14be c979 06be
00000390: 6d03 0b3d 7713 bdbd c2eb 3e3d a82f 23bd
000003a0: 441b 873c c9b0 08bd 75c8 14bd 06e2 dabd
000003b0: 6191 95bd ceef 71bc 9490 1cbe 3c9a 4cbd
000003c0: 8776 97bc f10f 073d dc11 a9bd de5e f0bd
000003d0: 8c85 93bd 079e 5fbd d7fd c73c bc9b 9abd
000003e0: a002 7a3d 18f6 403d 25ae 1e3d 0fe0 cabd
000003f0: 4322 1abe 8fda 323c e56f 9f3d 63f1 f63c

bias f4 [128]
-0.0047568353 0.028109284 -0.09676923 0.00097209925 -0.011318611 -0.084578 -0.00051537727 -0.057402313
-0.09135243 0.06748155 0.043695837 0.07835576 0.0838737 -0.0485926 -0.025646156 -0.055770446
0.05117334 0.017089752 -0.014435323 0.06506273 -0.040877428 0.06167214 -0.0028857887 -0.042900123
0.055864412 0.05435809 -0.0039498997 -0.07948104 0.06478213 0.073431656 0.015428699 0.026950737
0.052690495 0.04542624 -0.010862437 -0.056994397 -0.043499313 0.0703734 -0.030165976 0.075369515
-0.14522922 -0.044019826 0.10018232 -0.05100564 0.021927241 0.06906716 0.019916588 0.058122393
-0.017730707 -0.09773882 -0.03296155 -0.025228003 -0.04010112 -0.043705605 -0.002633354 0.08401784
0.07147228 0.04410726 -0.06702946 0.029018972 0.01651217 0.086616196 -0.043166164 0.061082754
0.060546916 -0.011565534 -0.13238789 0.020962365 0.045108467 -0.09146776 0.0778376 -0.001607284
-0.15389472 0.033698935 0.03761011 -0.00618341 -0.066168085 -0.03247915 0.061251253 0.05250916
0.06302819 0.023553675 0.049357288 -0.044394612 0.04429426 0.04455581 0.006669188 0.08371838
-0.019791733 0.09143918 0.0042263144 0.08061642 -0.061904103 0.075678185 -0.0036340677 0.0069166156
0.05016183 0.015865114 -0.0406777 -0.047672622 0.09149238 0.028773418 -0.032219015 0.0050782654
0.08859244 0.04869155 0.065649234 -0.015850175 -0.02125631 -0.0397176 -0.08896075 -0.014155402
0.019961776 -0.05835271 -0.04149846 0.022541162 -0.026970204 -0.07734645 0.07166697 -0.05176114
0.02009926 0.08675549 -0.08695307 0.00455378 -0.16027525 0.08399511 -0.0381023 0.06675515
00000000: 3adf 9bbb 7145 e63c f22e c6bd 7ad4 7e3a
00000010: b271 39bc 3b37 adbd 621a 07ba b01e 6bbd
00000020: fc16 bbbd c433 8a3d 68fa 323d fc78 a03d
00000030: f9c5 ab3d 0909 47bd e317 d2bc 8d6f 64bd
00000040: 239b 513d cfff 8b3c 2282 6cbc 9c3f 853d
00000050: 176f 27bd ed9b 7c3d 801f 3dbb 0ab8 2fbd
00000060: 15d2 643d 97a6 5e3d 296e 81bb f5c6 a2bd
00000070: 7eac 843d 5663 963d a7c8 7c3c cbc7 dc3c
00000080: fdd1 573d dd10 3a3d 5df8 31bc f572 69bd
00000090: 562c 32bd ee1f 903d a31e f7bc 555b 9a3d
000000a0: f8b6 14be 224e 34bd 632c cd3d 4aeb 50bd
000000b0: c2a0 b33c 1573 8d3d 1d28 a33c bf11 6e3d
000000c0: fd3f 91bc 4a2b c8bd b102 07bd f5aa cebc
000000d0: 1241 24bd a604 33bd 5994 2cbb 8c11 ac3d
000000e0: 0f60 923d d0a9 343d be46 89bd 32b9 ed3c
000000f0: 8844 873c d563 b13d 01cf 30bd e931 7a3d
00000100: 0b00 783d 5e7d 3dbc b190 07be 44b9 ab3c
00000110: a8c3 383d 7353 bbbd 5269 9f3d 80ab d2ba
00000120: 9496 1dbe e507 0a3d 0f0d 1a3d 349e cabb
00000130: 2283 87bd db08 05bd 98e2 7a3d d813 573d
00000140: ec14 813d a3f3 c03c de2a 4a3d 20d7 35bd
00000150: e66d 353d 2780 363d 3489 da3b 8b74 ab3d
00000160: 4622 a2bc 7744 bb3d e57c 8a3b 391a a53d
00000170: 288f 7dbd 2afd 9a3d 8a29 6ebb c7a4 e23b
00000180: 7e76 4d3d 8ef7 813c a99d 26bd 5e44 43bd
00000190: 5b60 bb3d 3bb6 eb3c 16f8 03bd 9467 a63b
000001a0: f46f b53d ca70 473d 1b73 863d 3ad8 81bc
000001b0: b721 aebc ecae 22bd 0e31 b6bd 0fec 67bc
000001c0: e186 a33c 4003 6fbd 4afa 29bd 3ea8 b83c
000001d0: 9ef0 dcbc d167 9ebd 22c6 923d 7d03 54bd
000001e0: 34a7 a43c ddac b13d 7314 b2bd e037 953b
000001f0: 321f 24be a105 ac3d 2811 1cbd edb6 883d

weight f4 [128, 128]
0.022726139 0.01785448 0.014206694 -0.048572604 0.0069793244 -0.13321374 0.10981368 -0.102303244
0.0014980835 0.09010738 0.016314324 -0.005741563 -0.09880003 0.016612865 -0.013074819 -0.07157163
0.039817665 -0.10524637 -0.038055725 -0.029393528 -0.10408863 -0.054165028 -0.10309092 -0.05933724
-0.11670045 0.0014203071 0.060800273 -0.145594 0.00253037 -0.068884924 0.011387238 -0.016135916
-0.11247253 0.028054452 0.042576224 0.009792768 0.08692556 0.026824525 0.016305618 -0.046201922
0.02838413 -0.09619856 0.026579363 -0.0034024075 0.09533373 0.029471278 0.02779176 0.103884004
0.021039868 -0.027427852 0.00087264203 0.108547024 -0.004119425 0.012048342 0.023494428 -0.111974604
0.06378562 -0.05274045 -0.10607493 0.03354835 -0.048970737 -0.06907283 -0.01077413 0.013294782
-0.046886932 -0.14469981 -0.046158057 -0.0043014954 0.036810864 -0.09773157 -0.06528463 -0.110793
-0.010504668 0.06724183 0.06588028 -0.04471188 0.0032095371 -0.050951004 -0.04828339 0.019355545
-0.11458208 -0.117188364 -0.067586854 -0.09062073 -0.030906644 -0.006873129 0.040103614 0.018727139
0.04757482 -0.08167773 -0.076477714 0.025658695 0.067480445 -0.07685604 -0.05368874 0.04800185
-0.08728955 -0.015328379 0.06371668 -0.014396446 0.016713249 0.042332735 0.033199213 -0.024708806
-0.044965856 -0.04691315 0.026948556 0.04388105 -0.029797055 -0.0021689858 -0.024294302 0.055552028
-0.07868559 -0.04185121 0.09859988 0.0047699767 0.05511948 -0.07482787 0.019621495 0.06183142
-0.12936068 -0.097451046 0.09540395 -0.015388246 -0.020257996 -0.08853863 0.02378299 0.07124869
0.031696554 0.029124923 -0.010478394 -0.041313224 0.007524685 -0.005993978 0.018714791 -0.03991322
-0.006105918 -0.009466435 -0.0075415825 -0.0023665554 -0.007258593 -0.005934598 0.0070321616 -0.017961796
-0.04449763 -0.0490703 -0.025486626 0.018105201 0.00089762994 0.0020675631 -0.022635572 -0.006805578
-0.084029466 0.042443532 -0.020225711 -0.02426922 0.0007975347 -0.03775741 -0.0064664762 -0.014084122
0.016435646 -0.024094371 -0.024923222 -0.025200982 0.013949957 0.032238595 -0.029423188 0.023297375
-0.02990945 -0.007120709 -0.00891788 -0.019002246 -0.020997299 -0.040200498 -0.004727715 -0.007298184
-0.025965847 -0.0037599828 -0.03568319 -0.019554038 0.012989966 0.0015821703 0.0048799682 -0.009159762
-0.03553949 0.012705979 0.019105507 -0.009886839 0.00374996 0.024717953 -0.018333018 0.007614752
-0.051617645 -0.008631711 -0.0028508748 -0.051428445 -0.03944107 -0.0030294287 -0.051627107 -0.023627752
-0.00051629345 -0.010270788 0.00048017938 -0.019367136 -0.009740354 0.042484123 -0.02817901 -0.0269701
-0.027739076 -0.0184703 -0.05096589 -0.008427325 0.0067214915 0.028224202 -0.020449713 -0.004815084
-0.0065251384 0.009180027 -0.03356454 -0.0042095096 -0.0017390678 0.01111202 0.009059723 -0.008075884
-0.0047537005 -0.0018637561 1.0788605e-36 0.011937218 0.021680597 0.0019603057 0.0078063076 -0.03159556
0.024070688 -0.01835306 -0.026626576 -0.02743589 0.009958936 -0.0042466978 -0.037454035 -0.020008892
-0.04432208 -0.008059212 -0.025696864 -0.016603332 -0.03734781 0.0084484145 0.004106914 -0.0070774653
-0.013390578 0.008639789 -0.0072622616 0.007927379 -2.2519476e-05 0.056435686 0.013900155 -0.05024122
00000000: 2b2c ba3c 8f43 923c 32c3 683c 11f4 46bd
00000010: d1b2 e43b 2f69 08be ffe5 e03d 5d84 d1bd
00000020: 575b c43a 388a b83d 9ea5 853c b923 bcbb
00000030: ac57 cabd b417 883c c437 56bc 2694 92bd
00000040: d917 233d 698b d7bd 52e0 1bbd b2ca f0bc
00000050: 6b2c d5bd 26dc 5dbd 5521 d3bd 9b0b 73bd
00000060: a500 efbd 9929 ba3a b509 793d 9816 15be
00000070: 90d4 253b 8a13 8dbd 8a91 3a3c 782f 84bc
00000080: ff57 e6bd 73d2 e53c 6864 2e3d d971 203c
00000090: 0706 b23d 1bbf db3c 5c93 853c 3a3e 3dbd
000000a0: d685 e83c c003 c5bd f7bc d93c edfa 5ebb
000000b0: 553e c33d c06d f13c 8cab e33c 23c1 d43d
000000c0: cd5b ac3c 60b0 e0bc 04c2 643a e74d de3d
000000d0: 3efc 86bb 6966 453c 6377 c03c f152 e5bd
000000e0: 09a2 823d 5f06 58bd d03d d9bd ff69 093d
000000f0: 8a95 48bd 0e76 8dbd fa85 30bc 5bd2 593c
00000100: 830c 40bd 302c 14be 3b10 3dbd 8ff3 8cbb
00000110: fdc6 163d 7d27 c8bd f3b3 85bd 71e7 e2bd
00000120: c51b 2cbc 16b6 893d 3eec 863d ce23 37bd
00000130: 1957 523b 00b2 50bd cec4 45bd 858f 9e3c
00000140: 02aa eabd 7400 f0bd fa6a 8abd 5c97 b9bd
00000150: ee2f fdbc fc37 e1bb b043 243d a869 993c
00000160: d1dd 423d a746 a7bd 59a0 9cbd 2f32 d23c
00000170: 3033 8a3d b366 9dbd b9e8 5bbd 969d 443d
00000180: ddc4 b2bd e223 7bbc e47d 823d 12df 6bbc
00000190: 39ea 883c 1765 2d3d e6fb 073d 1f6a cabc
000001a0: 1e2e 38bd 0128 40bd 38c3 dc3c 9ebc 333d
000001b0: f418 f4bc 8b25 0ebb d804 c7bc 868a 633d
000001c0: e925 a1bd 2d6c 2bbd bcee c93d 774d 9c3b
000001d0: f7c4 613d 5b3f 99bd 42bd a03c f142 7d3d
000001e0: 2077 04be 6a94 c7bd 2563 c33d fb1e 7cbc
000001f0: 19f4 a5bc be53 b5bd 8cd4 c23c d5ea 913d
00000200: 3fd4 013d 6497 ee3c 92ad 2bbc 0e38 29bd
00000210: a291 f63b 2269 c4bb c34f 993c 0b7c 23bd
00000220: 2714 c8bb 1b19 1bbc 611f f7bb 3618 1bbb
00000230: 7ed9 edbb 0477 c2bb 0c6e e63b 9e24 93bc
00000240: 2643 36bd f0fd 48bd 54c9 d0bc 5c51 943c
00000250: ed4e 6b3a f47f 073b 3c6e b9bc 5301 dfbb
00000260: a417 acbd 45d9 2d3d 64b0 a5bc 3ed0 c6bc
00000270: a611 513a 84a7 1abd bce4 d3bb 17c1 66bc
00000280: 0ca4 863c 8f61 c5bc c92b ccbc 4a72 cebc
00000290: 5c8e 643c 9e0c 043d e608 f1bc 23da be3c
000002a0: aa04 f5bc d654 e9bb 4d1c 12bc 99aa 9bbc
000002b0: 8702 acbc 47a9 24bd f3ea 9abb 9b25 efbb
000002c0: 54b6 d4bc 0b6a 76bb 8928 12bd ca2f a0bc
000002d0: ded3 543c d360 cf3a 24e8 9f3b d412 16bc
000002e0: db91 11bd bd2c 503c 2783 9c3c 69fc 21bc
000002f0: e4c1 753b 4e7d ca3c 202f 96bc 2b85 f93b
00000300: 066d 53bd 056c 0dbc bed5 3abb a2a6 52bd
00000310: f68c 21bd 6189 46bb f276 53bd fd8e c1bc
00000320: de57 07ba cf46 28bc 96c0 fb39 d4a7 9ebc
00000330: 0196 1fbc d503 2e3d abd7 e6bc 66f0 dcbc
00000340: 0f3d e3bc 074f 97bc 9cc1 50bd c312 0abc
00000350: f53f dc3b 7136 e73c 2886 a7bc dac7 9dbb
00000360: d4d0 d5bb d367 163c f97a 09bd edef 89bb
00000370: 6ff1 e3ba 310f 363c 3b6f 143c b650 04bc
00000380: eec4 9bbb 4749 f4ba 018f b703 5294 433c
00000390: 829b b13c 7978 003b 0ecc ff3b 596a 01bd
000003a0: e42f c53c 2859 96bc fa1f dabc 3bc1 e0bc
000003b0: ce2a 233c e227 8bbb 6769 19bd b0e9 a3bc
000003c0: 128b 35bd c90a 04bc 3b82 d2bc b603 88bc
000003d0: 04fa 18bd 386b 0a3c 4b93 863b 15ea e7bb
000003e0: 2864 5bbc e78d 0d3c 44f8 edbb d6e1 013c
000003f0: 35e8 bcb7 1b29 673d 7abd 633c bdc9 4dbd

bias f4 [128]
-0.010102806 -0.0015171757 -0.06730719 -0.08103621 -0.014227423 -0.036159977 0.015744302 -0.011180755
-0.062488813 0.075825796 0.042735305 -0.00031702698 0.0039316183 0.09087756 -0.030715384 0.026839327
0.035214465 0.025458599 -0.018831136 -0.019614795 0.11840917 -0.16961439 0.0006549828 0.06408359
-0.035864957 0.058021422 0.117145605 0.029003903 -0.0020925931 -0.008624396 0.056954857 0.1017107
-0.009527111 -0.013096789 0.079116076 -0.007950803 0.023493756 0.0612893 0.002850426 0.074113734
-0.09610442 -0.038433455 0.08838508 0.114848666 -0.02667021 0.06801228 0.010460866 0.010217323
-0.016671263 -0.053627715 0.077655196 0.05367797 0.10678679 0.12197416 0.09145245 0.033183906
-0.04865483 -0.03472153 0.074079566 -0.051545735 -0.021315735 0.078149796 0.0332882 0.04042225
0.055502582 0.072333515 0.05373433 0.04655446 0.068534836 -0.0056495545 -0.012220157 0.09765417
0.014840478 0.009708392 0.018670391 0.08032049 0.034882136 0.04973458 -0.0074342405 0.046144094
0.085132346 0.036935505 -0.019457357 0.065144874 0.029834738 0.02428378 -0.06393173 -0.07540691
0.10937943 0.07193432 0.08930633 0.10289016 0.03468103 0.10105806 0.09089157 0.099290945
-0.050737213 0.09454743 0.10325208 0.008785863 0.030655324 0.100381635 0.03217396 0.071179785
-0.020011492 0.009055967 -0.053946234 0.13686281 0.045076657 0.0032775113 -0.06033683 0.05416439
0.071507685 -0.03778398 0.02355494 0.10672117 0.048686154 0.021981863 0.06209504 0.008603194
0.030105991 0.0525062 0.06781964 0.047052097 0.04739473 0.008081874 -0.044051662 0.017458003
00000000: 3d86 25bc f8db c6ba 5ad8 89bd 50f6 a5bd
00000010: 231a 69bc 7c1c 14bd 32fa 803c 7c2f 37bc
00000020: 45f4 7fbd 8e4a 9b3d 370b 2f3d a436 a6b9
00000030: ced4 803b 041e ba3d d49e fbbc 26de db3c
00000040: 0b3d 103d 8d8e d03c c143 9abc 35af a0bc
00000050: 8280 f23d 65af 2dbe 27b3 2b3a 423e 833d
00000060: 22e7 12bd dfa7 6d3d 09ea ef3d 9899 ed3c
00000070: e323 09bb 574d 0dbc 7f49 693d b34d d03d
00000080: 9a17 1cbc ea93 56bc 9c07 a23d 1644 02bc
00000090: fa75 c03c 7d0a 7b3d 36ce 3a3b f1c8 973d
000000a0: 65d2 c4bd 666c 1dbd 3d03 b53d c735 eb3d
000000b0: 7c7b dabc 064a 8b3d 0d64 2b3c 8f66 273c
000000c0: 2c92 88bc bca8 5bbd b009 9f3d 6edd 5b3d
000000d0: 08b3 da3d 97cd f93d 6c4b bb3d d9eb 073d
000000e0: 494a 47bd 2a38 0ebd 07b7 973d 9f21 53bd
000000f0: 569e aebc 000d a03d 3559 083d cd91 253d
00000100: ad56 633d 9823 943d 8718 5c3d e4af 3e3d
00000110: fe5b 8c3d e61f b9bb 0e37 48bc e9fe c73d
00000120: 7a25 733c f30f 1f3c a6f2 983c 127f a43d
00000130: 92e0 0e3d 7db6 4b3d ee9a f3bb 9701 3d3d
00000140: de59 ae3d af49 173d 0965 9fbc ad6a 853d
00000150: fb67 f43c c7ee c63c a4ee 82bd f06e 9abd
00000160: 5302 e03d 4d52 933d 3de6 b63d 14b8 d23d
00000170: b20d 0e3d 87f7 ce3d 5c25 ba3d 0d59 cb3d
00000180: d3d1 4fbd 15a2 c13d d475 d33d 95f2 0f3c
00000190: e020 fb3c e394 cd3d d8c8 033d b5c6 913d
000001a0: 24ef a3bc 7b5f 143c baf6 5cbd c425 0c3e
000001b0: 4da2 383d 84cb 563b c023 77bd 7bdb 5d3d
000001c0: 9f72 923d 60c3 1abd 4af6 c03c a190 da3d
000001d0: 226b 473d 4f13 b43c 5e57 7e3d 69f4 0c3c
000001e0: d7a0 f63c be10 573d 06e5 8a3d b3b9 403d
000001f0: fa20 423d d669 043c 846f 34bd 1604 8f3c

weight f4 [128, 128]
0.04777149 0.04420444 -0.08318247 -0.02062878 -0.07305706 -0.08123481 -0.043285392 -0.055252388
-0.038573835 0.13480693 -0.15783527 0.03378287 0.116941094 0.001638736 0.028603753 -0.055273265
0.09976635 0.09290627 -0.018197263 -0.0064148116 0.06987987 0.16168177 0.06908378 0.09179172
0.037197333 0.10981648 -0.052008905 0.0753053 0.055524725 -0.1156104 0.02704973 0.041043155
-0.05989817 -0.008352402 0.07942917 0.12445745 0.047243554 -0.00717199 0.040308446 -0.13879538
-0.04240319 0.011386789 -0.016234368 0.065194726 -0.110395804 -0.051284496 0.062546246 0.08275184
-0.022179624 0.053220555 -0.049886525 -0.09613667 -0.049537763 0.03190693 0.008195155 0.07283765
0.069835216 0.03353325 0.084384464 -0.04877543 0.06966731 0.03500773 -0.010774587 -0.04095303
0.104887284 -0.025604118 0.0603622 -0.015686462 0.08817783 -0.06489109 0.06983043 0.033740584
-0.020140132 0.044168927 0.048820797 0.060595535 -0.06989613 0.071979135 -0.0059489007 0.10974362
-0.062111862 -0.039721437 -0.035440322 0.053373974 -0.07515691 -0.012578627 0.03926505 0.14203125
-0.0102536455 0.033072587 -0.0143450955 -0.03208353 -0.019247923 -0.025897522 0.01361862 -0.07636243
-0.04446993 -0.049296096 -0.008051053 -0.012271177 -0.049695455 0.058191117 0.07722314 -0.041815393
0.07406554 -0.064114265 0.012827425 -0.06682016 0.010712248 -0.0032998184 0.056393266 -0.042706575
0.008390135 -0.02694912 -0.0066063264 0.00210419 -0.052885644 -0.08371618 0.020108681 0.034103736
-0.038165208 0.0035293556 -0.00915679 0.023421591 0.06114707 0.041166358 0.019005634 0.10561023
0.13469748 0.016056452 0.019084346 0.008728367 0.038111627 0.08723839 -0.026990274 0.08500294
-0.034947794 0.016324718 0.10626369 0.02345381 -0.04203143 -0.025915103 -0.07205423 0.00095506257
0.0028265617 -0.04837055 -0.060956556 0.02431682 0.0075623225 -0.011899674 -0.09151364 0.014841444
-0.0544405 0.011818236 0.023840038 -0.026429018 -0.018986845 0.121446334 -0.024784572 0.15041561
0.035707336 0.003639508 -0.014637879 -0.028803542 0.0445393 0.13305072 -0.020523125 0.1410714
-0.02014837 0.115745306 0.06541442 -0.022588803 0.049967583 0.122681566 -0.058801264 -0.0020520287
-0.011910453 -0.05317087 0.008253915 0.12476573 0.0040306514 0.06504739 -0.014808489 0.14388515
0.0065427786 -0.03221388 -0.037344385 -0.03693593 -0.022043297 0.014919551 -0.030499773 0.010734118
0.0017967972 -0.032939617 -0.0109860515 -0.0018327007 0.013136256 -0.06351943 0.025962869 0.098578095
-0.07663497 -0.081812486 0.00046995652 0.035317056 0.095065765 0.005004236 -0.033558108 0.011637945
-0.0005706535 0.049621385 -0.028348183 0.08946066 0.06220053 -0.028632537 -0.011687914 -0.050065134
0.09791145 0.0048170714 0.050295115 -0.015535539 0.004035775 0.012879178 -0.03870235 -0.0018192552
0.04066074 -0.008285496 -0.022420788 0.11023964 0.035855934 -0.019090451 0.009673164 -0.05546662
-0.07636882 0.020996224 0.01760759 0.07116142 -0.049387038 -0.023282409 -1.2933914e-36 0.08196167
0.055367794 0.0242722 0.054881383 0.1439369 0.047894057 0.070232525 0.024795244 -0.042724967
-0.09770954 0.04712101 -0.030926637 -0.08180568 0.003380163 0.09025744 -0.03990857 -0.03641797
00000000: 0aac 433d b70f 353d 925b aabd b0fd a8bc
00000010: f19e 95bd 705e a6bd 064c 31bd 5450 62bd
00000020: 99ff 1dbd d40a 0a3e 929f 21be e85f 0a3d
00000030: d07e ef3d dbca d63a 6b52 ea3c 3866 62bd
00000040: 4d52 cc3d a445 be3d 6d12 95bc 5733 d2bb
00000050: 2d1d 8f3d e88f 253e cc7b 8d3d 4cfd bb3d
00000060: 3b5c 183d 76e7 e03d 4a07 55bd aa39 9a3d
00000070: e56d 633d 25c5 ecbd 6597 dd3c de1c 283d
00000080: c957 75bd 83d8 08bc c3ab a23d 8ce3 fe3d
00000090: 7582 413d 0303 ebbb 781a 253d 6020 0ebe
000000a0: f8ae 2dbd a88f 3a3c f0fd 84bc d084 853d
000000b0: 3217 e2bd b10f 52bd 3f18 803d cc79 a93d
000000c0: 0bb2 b5bc ccfd 593d d055 4cbd 4de3 c4bd
000000d0: 1ce8 4abd d7b0 023d f944 063c e82b 953d
000000e0: c405 8f3d 295a 093d c3d1 ac3d bfc8 47bd
000000f0: bcad 8e3d 4464 0f3d e587 30bc 5dbe 27bd
00000100: 25cf d63d babf d1bc 5b3e 773d e580 80bc
00000110: 9496 b43d 9fe5 84bd 4203 8f3d 9133 0a3d
00000120: ebfc a4bc 7aea 343d 51f8 473d 0633 783d
00000130: b425 8fbd cc69 933d ffee c2bb 43c1 e03d
00000140: 0269 7ebd f2b2 22bd df29 11bd ab9e 5a3d
00000150: deeb 99bd 9616 4ebc 64d4 203d a470 113e
00000160: e8fe 27bc 1f77 073d b107 6bbc 056a 03bd
00000170: d2ad 9dbc 0a27 d4bc a220 5f3c e863 9cbd
00000180: 1a26 36bd b4ea 49bd 90e8 03bc 0c0d 49bc
00000190: 768d 4bbd cf59 6e3d 2a27 9e3d 9e46 2bbd
000001a0: adaf 973d 574e 83bd 1f2a 523c 02d9 88bd
000001b0: 6d82 2f3c c441 58bb a0fc 663d 17ed 2ebd
000001c0: c776 093c 67c4 dcbc e279 d8bb 73e6 093b
000001d0: 9e9e 58bd 6373 abbd f6ba a43c 5cb0 0b3d
000001e0: 1f53 1cbd c34c 673b 5c06 16bc a3de bf3c
000001f0: 5a75 7a3d 0e9e 283d b4b1 9b3c 2d4a d83d
00000200: 23ee 093e d288 833c c656 9c3c 6d01 0f3c
00000210: f01a 1c3d 0baa b23d b51a ddbc 0516 ae3d
00000220: 6b25 0fbd 6abb 853c c7a0 d93d 3422 c03c
00000230: 2629 2cbd e94b d4bc 2b91 93bd 2a5d 7a3a
00000240: d63d 393b 3320 46bd 95ad 79bd 1134 c73c
00000250: 5ccd f73b daf6 42bc 816b bbbd 8729 733c
00000260: 00fd 5ebd 46a1 413c 2f4c c33c ab81 d8bc
00000270: 4d8a 9bbc dbb8 f83d 0409 cbbc 8d06 1a3e
00000280: db41 123d d084 6e3b b7d3 6fbc 68f5 ebbc
00000290: d76e 363d 733e 083e 1d20 a8bc 0575 103e
000002a0: 320e a5bc e00b ed3d fff7 853d 270c b9bc
000002b0: cfaa 4c3d 7940 fb3d 98d9 70bd 547b 06bb
000002c0: 1024 43bc b3c9 59bd 6e3b 073c 2d85 ff3d
000002d0: 8e13 843b 9137 853d 4e9f 72bc a156 133e
000002e0: ce64 d63b b4f2 03bd 6df6 18bd 214a 17bd
000002f0: 2594 b4bc 2271 743c a9da f9bc 27de 2f3c
00000300: 8282 eb3a b1eb 06bd d7fe 33bc 3b37 f0ba
00000310: 7339 573c 7a16 82bd 15b0 d43c 50e3 c93d
00000320: ccf2 9cbd 4e8d a7bd 7f64 f639 9ea8 103d
00000330: d7b1 c23d 93fa a33b 3a74 09bd 14ad 3e3c
00000340: e897 15ba cb3f 4b3d 733a e8bc 2737 b73d
00000350: fcc5 7e3d c88e eabc aa7e 3fbc 1911 4dbd
00000360: cc85 c83d 86d8 9d3b 4002 4e3d c688 7ebc
00000370: 893e 843b 3003 533c 5b86 1ebd 1374 eeba
00000380: e08b 263d e4bf 07bc cdab b7bc 52c5 e13d
00000390: acdd 123d 9463 9cbc 317c 1e3c f730 63bd
000003a0: 4267 9cbd 4600 ac3c cb3d 903c 14bd 913d
000003b0: 104a 4abd c0ba bebc 240f dc83 85db a73d
000003c0: 57c9 623d 7ed6 c63c 4dcb 603d 3264 133e
000003d0: 8f2c 443d 12d6 8f3d 651f cb3c 6000 2fbd
000003e0: f01b c8bd f601 413d dc59 fdbc bd89 a7bd
000003f0: ba85 5d3b e5d8 b83d 2b77 23bd 022b 15bd

bias f4 [128]
0.10785732 0.037650745 -0.019262241 -0.04503678 0.14265615 0.014594563 -0.030441528 0.10115681
0.020513304 0.08637483 -0.06973091 0.08946912 0.12970164 0.057580754 0.06802173 0.0081524495
-0.028258424 0.11806085 0.034026 -0.006848841 0.13526928 0.018173793 0.0452964 -0.066916384
0.015875243 0.03204812 -0.025128968 0.009765068 -0.005209084 -0.035044953 0.13883533 -0.00373295
0.12489722 0.058234364 0.08846761 0.07181914 0.08155269 0.10791219 0.124364436 0.017389474
0.116818994 0.0014203907 -0.0015671761 0.109785855 0.0949087 0.05557487 0.10963581 -0.015318547
0.047959153 0.05961187 -0.036194853 0.07195512 0.07082064 -0.10009886 0.110369414 0.03942829
0.1036574 0.08387675 0.038646564 0.0032960058 0.107417725 0.0874054 0.016693573 0.050352845
0.053139698 0.037346344 0.1323116 0.042860944 0.10460052 0.097915895 -1.2040766e-36 0.14030981
0.13998266 -0.05578794 0.04911055 0.103649326 -0.025439635 0.13339175 -0.03252124 0.042218696
0.08886444 0.084837295 0.044600945 0.09413739 0.061799083 0.032575887 0.12941974 -0.02850387
0.056014676 0.04555976 0.034952886 0.017630197 0.14611283 0.018702406 0.08510288 0.04446432
-0.082224876 -0.019588128 -0.0703231 0.071685776 0.08249249 -0.025118537 0.14680009 0.0018715947
0.0094232 0.084211454 0.035739224 0.045534562 0.10469429 0.058005225 0.03155097 0.12223515
0.0803202 0.040557984 0.033901215 0.05259555 0.13412596 0.049326412 0.028488405 0.10381889
0.11175909 0.03479759 -0.02189044 0.12320733 0.06455013 0.02365141 -0.022494795 0.12022957
00000000: 4ce4 dc3d ab37 1a3d d9cb 9dbc 7d78 38bd
00000010: 7414 123e 091e 6f3c 8360 f9bc 4d2b cf3d
00000020: 840b a83c 49e5 b03d 14cf 8ebd 963b b73d
00000030: 82d0 043e ccd9 6b3d fa4e 8b3d da91 053c
00000040: 367e e7bc e3c9 f13d d95e 0b3d 3e6c e0bb
00000050: 0884 0a3e 35e1 943c b888 393d 750b 89bd
00000060: cc0c 823c e444 033d 44db cdbc aafd 1f3c
00000070: f7b0 aabb 4c8b 0fbd d92a 0e3e 82a4 74bb
00000080: 1dca ff3d 2887 6e3d 822e b53d ea15 933d
00000090: 1905 a73d 1101 dd3d c8b2 fe3d 5f74 8e3c
000000a0: cc3e ef3d 672c ba3a b469 cdba 68d7 e03d
000000b0: 7e5f c23d 7aa2 633d bd88 e03d a5fa 7abc
000000c0: d170 443d 942b 743d 0e41 14bd 355d 933d
000000d0: 690a 913d a200 cdbd 5c09 e23d 8f7f 213d
000000e0: 554a d43d 93c7 ab3d dc4b 1e3d cd01 583b
000000f0: d3fd db3d 9a01 b33d f6c0 883c c93e 4e3d
00000100: 03a9 593d 7bf8 183d b17c 073e f58e 2f3d
00000110: cc38 d63d 2188 c83d efdc cc83 60ad 0f3e
00000120: 9d57 0f3e e581 64bd 2528 493d 1946 d43d
00000130: c866 d0bc d997 083e fe34 05bd 83ed 2c3d
00000140: 8ffe b53d 2dbf ad3d 7baf 363d 1bcb c03d
00000150: 0921 7d3d 4b6e 053d 9c86 043e f380 e9bc
00000160: a56f 653d df9c 3a3d c22a 0f3d 346d 903c
00000170: 9a9e 153e ca35 993c 6b4a ae3d 3820 363d
00000180: 8465 a8bd 4877 a0bc 8f05 90bd fecf 923d
00000190: d3f1 a83d 64c5 cdbc c352 163e 4c50 f53a
000001a0: c463 1a3c 0e77 ac3d 4b63 123d 7382 3a3d
000001b0: f669 d63d e396 6d3d 973b 013d 6c56 fa3d
000001c0: eb7e a43d 2120 263d 00dc 0a3d 6e6e 573d
000001d0: 5158 093e 7e0a 4a3d 8460 e93c 009f d43d
000001e0: f3e1 e43d eb87 0e3d 9453 b3bc 2054 fc3d
000001f0: dc32 843d 9ac0 c13c 0147 b8bc ec3a f63d

weight f4 [1, 128]
-0.04454638 0.14552632 0.10617403 0.12832643 -0.10249121 0.07737589 0.06393146 -0.101023175
0.069794916 0.118339546 0.067051314 0.13838887 0.1413065 -0.022772262 0.12420955 0.113850266
-0.036384627 -0.05912749 -0.08147975 0.17492199 -0.03770294 -0.06471389 0.124769926 0.077749826
0.03562784 0.07589116 0.07430847 -0.08764418 0.15831272 0.048074197 -0.08467152 0.14458847
-0.102043435 0.117416725 -0.08536881 -0.068017356 -0.02912332 -0.12560104 0.11539608 0.042431228
-0.110209584 -0.09733758 -0.043113776 -0.10513284 0.107046746 0.08466962 0.07943402 0.056338012
-0.044623055 0.10347444 0.18385746 -0.025252353 0.030427605 -0.016719889 -0.03641198 -0.08675137
-0.044670027 -0.07490303 -0.016174244 -0.09267763 0.14760208 0.10991088 -0.09626132 0.11275125
0.162334 0.15663628 0.11774056 0.08448761 0.14156839 -0.05599813 1.3027044e-36 -0.032634415
-0.064010955 0.0055138385 0.119240254 -0.044465713 0.0015652548 -0.061836023 0.19301154 -0.020513903
-0.07753111 -0.056820918 0.14860116 0.090126134 0.07819284 -0.04250846 -0.028848382 0.16737704
-0.054609038 -0.051320996 -0.02740835 0.06865598 -0.066931635 -0.049790353 0.118746385 -0.041349605
0.028898222 -0.017529717 -0.050084136 0.13227625 -0.09824655 -0.003253458 -0.046714213 0.053405236
0.04809723 -0.068706974 0.14782724 -0.078205585 0.0461425 0.11758637 -0.050390095 -0.085022494
0.12444037 -0.06393177 -0.09668455 0.10510485 -0.02674711 0.07526789 -0.09314086 -0.06797727
-0.053555608 0.121567436 0.046848305 -0.101790816 0.1232949 0.13456668 0.10431422 -0.09134093
00000000: 4476 36bd da04 153e c571 d93d 0168 033e
00000010: e9e6 d1bd 4077 9e3d 7fee 823d 3de5 cebd
00000020: a3f0 8e3d 015c f23d 3352 893d d0b5 0d3e
00000030: a7b2 103e e58c babc 9461 fe3d 542a e93d
00000040: 0c08 15bd ab2f 72bd dbde a6bd c01e 333e
00000050: 666e 1abd b788 84bd 6087 ff3d 4d3b 9f3d
00000060: 7fee 113d d36c 9b3d 0a2f 983d cb7e b3bd
00000070: bb1c 223e 73e9 443d 4368 adbd 000f 143e
00000080: 26fc d0bd 2e78 f03d d8d5 aebd af4c 8bbd
00000090: 0794 eebc 8f9d 00be c854 ec3d 5ecc 2d3d
000000a0: 90b5 e1bd ed58 c7bd 1298 30bd e34f d7bd
000000b0: 533b db3d 4467 ad3d 4eae a23d b0c2 663d
000000c0: aac6 36bd 68ea d33d 2145 3c3e 06de cebc
000000d0: 5043 f93c 26f8 88bc ba24 15bd b4aa b1bd
000000e0: ebf7 36bd c366 99bd d97f 84bc c5cd bdbd
000000f0: 0025 173e f518 e13d a824 c5bd 21ea e63d
00000100: e23a 263e 4365 203e f621 f13d d707 ad3d
00000110: 4ef7 103e 4c5e 65bd c7a4 dd03 aaab 05bd
00000120: 2d18 83bd 6ead b43b 3c34 f43d ae21 36bd
00000130: 3c29 cd3a c547 7dbd d1a4 453e c60c a8bc
00000140: a1c8 9ebd 0dbd 68bd e72a 183e 0d94 b83d
00000150: 9123 a03d 5a1d 2ebd 7153 ecbc e364 2b3e
00000160: baad 5fbd f735 52bd 7a87 e0bc 829b 8c3d
00000170: 7413 89bd f8f0 4bbd 4e31 f33d 345e 29bd
00000180: f7bb ec3c 7b9a 8fbc 0625 4dbd 6d73 073e
00000190: 7d35 c9bd f837 55bb 6757 3fbd 73bf 5a3d
000001a0: 9a01 453d 3eb6 8cbd 0660 173e 402a a0bd
000001b0: ebff 3c3d 1fd1 f03d d865 4ebd 4620 aebd
000001c0: 98da fe3d a9ee 82bd 8d02 c6bd 3641 d73d
000001d0: c11c dbbc 0d26 9a3d a3c0 bebd ab37 8bbd
000001e0: 205d 5bbd 59f8 f83d 02e4 3f3d b477 d0bd
000001f0: 0982 fc3d d9cb 093e b2a2 d53d f410 bbbd
