bike_sharing/AutogluonModels/ag-20220403_215705/models/NeuralNetTorch_BAG_L2/S1F3/net.params (torch, 215879 bytes, 9 tensors)

weight f4 [128, 22]
000000 ca 3d aa bd 20 41 62 3e c8 5c 13 be f4 18 14 be
       -0.083125666 0.22095156 -0.14390862 -0.14462644
000010 de 14 f9 bd 5b 10 04 3e 13 27 c1 3d 8f e3 52 3e
       -0.12162183 0.12896864 0.09431281 0.20594619
000020 8b 20 4b 3d 4e 7d 30 3d db 19 a8 bd 85 a0 91 bc
       0.049591582 0.04308825 -0.082080565 -0.017776737
000030 c8 bb 2f be 2b 54 e6 bd 55 35 c4 bd 7c 1e 67 3c
       -0.17161477 -0.112465225 -0.09580485 0.014106389
000040 98 0c d7 3d 44 1c 29 3e 5b 6d df bd 61 e2 88 bd
       0.10500449 0.16514689 -0.1090953 -0.06683803
000050 c9 c6 ae 3d 5f 7a 29 3e 16 f4 00 be 8b 06 87 3e
       0.08534009 0.16550587 -0.12593111 0.2637218
000060 ac 71 00 bc 9d 7e 22 3d 0e 04 18 3e 5b ab 3c be
       -0.0078396015 0.03967153 0.14845297 -0.18424742
000070 7b c8 f2 bd a3 e8 b2 bd 96 47 87 bd 35 56 3d 3e
       -0.11854645 -0.08735778 -0.06605451 0.18489917
000080 a6 94 19 be d9 7d 44 be 4c 5e 54 be 4b 3b c6 bd
       -0.14998111 -0.19188632 -0.20739096 -0.09679278
000090 93 89 e2 bd ae 50 60 3e ef d9 13 3e 84 a3 ad 3c
       -0.110613964 0.21905777 0.14438604 0.021196134
0000a0 8a 24 5f 3d 68 84 a0 bd e6 3c f4 3b 42 21 04 be
       0.054478206 -0.078377545 0.0074535487 -0.12903312
0000b0 f7 ea e6 bd 12 13 c5 be 60 80 85 3d 71 08 18 3e
       -0.11275285 -0.38491112 0.06518626 0.1484697
0000c0 89 c2 c4 bd f6 ca 7a 3c 11 ed 0d 3e da c7 04 3e
       -0.09607417 0.015307179 0.13859965 0.12966862
0000d0 73 3e 10 3d cb 20 5c 3d e8 be 08 3e 67 20 0d bd
       0.035215806 0.05374221 0.13354075 -0.03445473
0000e0 47 bb bb 3c 65 93 30 be 57 92 fb bd 3a ae c2 bd
       0.02291645 -0.17243727 -0.122837715 -0.09505887
0000f0 12 dd 0b 3e 04 ad 97 b9 d9 ec 1a be fc ca b5 3d
       0.1365855 -0.0002892987 -0.15129413 0.08876607
000100 44 c8 b1 3d bc 42 85 3c 53 36 8e bd b6 3e 59 3e
       0.08680776 0.016267173 -0.06943955 0.21215329
000110 1f ad 05 3e bd d6 f4 3d af 80 a5 bd 98 9d d8 bd
       0.13054322 0.119550206 -0.08081185 -0.105769336
000120 69 2b 75 3d fb 8d 43 3e 94 84 eb 3d 7b 10 33 3e
       0.059855852 0.1909713 0.11499897 0.17486756
000130 44 b1 dc 3d 5f 83 29 be 79 cf 3a 3c 67 89 0a be
       0.10775998 -0.1655402 0.011402004 -0.13528977
000140 77 07 81 be 0a 59 38 3e 96 41 17 3e 51 6e fd bd
       -0.25201008 0.18002716 0.14771113 -0.12374557
000150 2a 2c 5c 3d e4 d6 bc bd af 8f 00 3d 95 73 3f be
       0.053753056 -0.09220675 0.031387027 -0.18696435
000160 53 9d e2 3d 07 8d a0 be 04 f9 7c 3d 8e dd 72 3d
       0.110651635 -0.31357595 0.061760917 0.059293322
000170 2d 3c 68 3e f6 78 7e 3d cc 49 6d be 37 c8 e7 bd
       0.22679205 0.062127076 -0.23172683 -0.11317485
000180 ad e5 61 3d 67 ee 88 3d 6d 60 d2 bd 9a 9e e4 bd
       0.055150677 0.06686097 -0.10272298 -0.11163063
000190 3b cf 05 3e b1 4f 31 3e 7c 7e ae bd 88 ac b2 bd
       0.13067333 0.17315556 -0.08520219 -0.08724314
0001a0 a7 66 54 be 8a dc fc 3c ea 24 0c be 38 55 28 be
       -0.20742284 0.03086688 -0.13685957 -0.16438758
0001b0 99 88 25 3c 7e ad b8 3d a8 2a 85 be 73 d4 7e 3e
       0.010103368 0.09017466 -0.26009107 0.2488573
0001c0 6b d5 ec bd 33 71 26 3e 66 e3 87 3d b1 fc 84 bd
       -0.11564144 0.1625412 0.0663517 -0.064935096
0001d0 75 0e 72 3d 1c 97 fb 3b 17 3d f8 3c 5f 15 37 3d
       0.05909582 0.0076779258 0.030302567 0.044698115
0001e0 ac 1f 62 3c 52 3d 0a 3d 94 f7 df bd 50 2b da 3d
       0.0138014965 0.033749886 -0.10935894 0.106527925
0001f0 19 ad 43 be 83 33 a5 bd d5 44 0c bc 4a 1b 43 bd
       -0.19109 -0.08066466 -0.008561333 -0.047633447
000200 d9 cc bf bd f4 81 19 be d0 0b be bd 57 d7 a3 3d
       -0.093652435 -0.1499098 -0.09279597 0.08000057
000210 81 e1 65 be c0 d2 3c be 3d 2d a0 3d 15 16 81 bd
       -0.22449304 -0.1843977 0.078211285 -0.0630304
000220 29 8f 26 bd a1 03 d2 bc b3 06 d0 3c fc 56 2a 3e
       -0.040663872 -0.025636496 0.02539382 0.16634744
000230 81 14 22 3e 8d a5 eb 3d d9 73 1e 3e 17 8d 78 bc
       0.15828134 0.11506186 0.1547388 -0.015170357
000240 87 ff 20 be ff fb 25 be 59 38 02 3e bc 07 2a bd
       -0.15722476 -0.1620941 0.12716807 -0.041511282
000250 43 04 16 be 39 7c e5 bd 95 2d 7a be 84 5e 5e be
       -0.14650063 -0.11205334 -0.2443145 -0.21715742
000260 ab c8 c1 bd f0 74 f5 3d 22 86 9d 3e cc d2 bc be
       -0.094621025 0.11985195 0.30766398 -0.36879575
000270 41 4e f9 3d c7 6b 14 be 9d 29 a1 bc 13 f5 b7 bd
       0.12173129 -0.14494239 -0.019673163 -0.08982291
000280 40 61 53 bd c6 34 64 bc e8 da d7 bd d3 37 c8 bd
       -0.051606417 -0.013928598 -0.105398 -0.097762726
000290 ea 61 b4 ba 47 9b b3 3b 3c d7 5e bd 7d 64 c9 3d
       -0.0013762091 0.005481157 -0.054404482 0.0983362
0002a0 c4 68 0c be df 1a bf 3b 2c 94 34 3e ac b4 df bc
       -0.1371184 0.0058320607 0.17634648 -0.02730783
0002b0 ca 4b ff 3d 47 56 e2 3d a6 ad 1a be e8 68 ba 3d
       0.124656275 0.11051612 -0.15105304 0.091020405
0002c0 c9 ca 53 3e fc 4d a0 be 82 dd bd 3d 78 b8 11 be
       0.20682825 -0.31309497 0.09270765 -0.14230525
0002d0 b1 52 a1 3c 50 b8 be bd 08 8a ae 3d 9f d7 5a 3d
       0.01969275 -0.093124986 0.08522421 0.05342829
0002e0 93 30 56 3d 94 51 1b 3d 8e 08 50 bd 27 72 6b bd
       0.052292418 0.037919596 -0.05078941 -0.05748191
0002f0 a0 23 d6 bd a1 85 96 3d 6a ee 36 3e 2b cf 98 3d
       -0.10456014 0.073497064 0.17864385 0.07461389
000300 f2 c2 41 be 2e c3 5b bb d4 f3 fe bd 54 d1 0f be
       -0.18922022 -0.0033533084 -0.1244885 -0.14044696
000310 be 0f 3e be 80 09 b4 3d ff f1 53 be 09 e8 8c be
       -0.18560693 0.087908745 -0.20697783 -0.2752078
000320 2f f1 09 bd 67 ee 38 3e aa 91 03 be 98 97 e2 bd
       -0.033677276 0.18059693 -0.12848535 -0.110640705
000330 3a 81 c6 bd 48 60 b9 3d 1f ae 20 bd 48 5d bf 3d
       -0.09692617 0.09051567 -0.039228555 0.09343964
000340 23 bc 9d 3d cc bc 8a 3d 37 9f 4c bd 14 8f 2a bd
       0.077019 0.067742914 -0.049956527 -0.041640356
000350 76 81 9f 3c dc b9 08 bd 3d 12 ac bb f1 d3 2a 3c
       0.019470911 -0.033380374 -0.0052511976 0.010426507
000360 af c6 9c bd 2b 1d 60 be 32 7d 1e 3e 80 b3 06 be
       -0.076550834 -0.21886127 0.15477446 -0.13154411
000370 32 b8 36 be 2d d9 ab 3e 32 31 26 3d 18 a7 6b bd
       -0.17843702 0.3356413 0.04057426 -0.0575324
000380 d2 16 0e be 16 16 d6 3d 48 58 12 be 91 77 8b bc
       -0.13875893 0.10453431 -0.14291489 -0.017024787
000390 2c 76 8c bd c7 8f 47 bd 3f dc 10 3d ee b6 d2 3d
       -0.06858477 -0.0487211 0.035366293 0.10288797
0003a0 61 60 e5 3c 63 61 22 3e e0 2a 75 3d f9 c6 30 be
       0.028000059 0.15857463 0.059855342 -0.17263402
0003b0 f8 d8 cb 3d a6 70 62 bd 07 46 f0 bd ba aa db 3a
       0.09953493 -0.05528321 -0.11732107 0.0016759255
0003c0 03 db d5 3d 27 23 b5 3d ab 58 90 be 5e c5 88 bd
       0.10442164 0.088445954 -0.28192648 -0.0667827
0003d0 9d c1 6c 3d 13 8b 62 be d2 cd f7 3d 04 d8 0a be
       0.05780183 -0.22123365 0.12099804 -0.13558966
0003e0 c7 23 15 3d 39 a3 07 bc ec 5e 6b bc cb 33 4b bb
       0.036411073 -0.008278661 -0.014365893 -0.0031006213
0003f0 9f 61 19 3e 67 4d 90 bd f5 1a 2e be ed 07 98 bd
       0.14978646 -0.07046013 -0.17002471 -0.07423387

bias f4 [128]
000000 44 8a 1f be 21 6b de bd 33 30 b4 3a e3 64 87 bd
       -0.15580088 -0.10860277 0.0013747275 -0.066110395
000010 7d c0 c0 bd 38 fe f5 3d 2b 20 97 bd 7b 80 6e 3d
       -0.09411714 0.12011379 -0.073791824 0.058227997
000020 be 09 34 3e e8 04 20 be 82 da 2a be c2 59 c4 bd
       0.17581841 -0.15626872 -0.16684917 -0.095874324
000030 0d c7 05 bd bc ed c7 bd 9b db 36 bd df fa 80 bc
       -0.032660533 -0.09762141 -0.044643026 -0.015744625
000040 dd d2 24 3d d0 98 0d 3e 80 02 18 3e 98 12 db 3b
       0.040240157 0.13827825 0.14844704 0.006685566
000050 06 47 7a bc 5c 41 30 3d a1 59 71 3a 48 9d 9b bd
       -0.015275722 0.04303108 0.0009206776 -0.075983584
000060 d0 da c7 3d 0f 65 8e be 45 09 29 be ea ea 6c bd
       0.09758532 -0.27811477 -0.16507442 -0.05784122
000070 15 74 aa bd 60 bd 1a be 2d 7a 6d be f9 5e 1b 3e
       -0.08322922 -0.15111303 -0.23191138 0.15172948
000080 47 b0 49 bd 2f 1f a6 bd 9d b3 fe bd 58 58 21 3d
       -0.049240377 -0.081114165 -0.12436602 0.03939089
000090 36 9b 44 be 5d e4 bf bc 6b b8 a2 3a 89 1e 40 3d
       -0.19199833 -0.023424322 0.001241458 0.04690412
0000a0 83 76 9a 3d b5 aa 18 be 1a ad b7 3d d7 63 13 3e
       0.075421356 -0.1490887 0.089685634 0.14393555
0000b0 7f d0 3c bd 9a d2 90 3d f1 f8 d8 bc ea c6 f4 3c
       -0.046097275 0.07071419 -0.026485892 0.029880006
0000c0 b8 ae cf 3b 27 5c d2 bd ee 7e de 3d 82 77 8a be
       0.006337967 -0.10271483 0.10864054 -0.27044302
0000d0 6c 6c cf bc 7e 37 28 be 81 71 cd bd a9 ef 40 be
       -0.025320254 -0.16427419 -0.10031415 -0.18841423
0000e0 26 d6 75 be 59 03 13 3d 8a cb 92 bd a3 1c d2 bd
       -0.24007472 0.035891864 -0.07167728 -0.10259368
0000f0 b4 b7 85 bc 6d 3f 8b bd 46 06 ef 3c f3 0a 23 be
       -0.016322948 -0.06799207 0.029177796 -0.15922146
000100 88 5b 0c bd f5 c2 60 3d bb 5c 5d 3d 07 b6 9b 3c
       -0.03426698 0.054873426 0.054043513 0.019007696
000110 09 27 37 3d ac 63 27 3e 4a e7 e5 bd 79 5b f6 3d
       0.04471496 0.16346616 -0.112257555 0.12029166
000120 1c 3c 3c 3e e3 4a 45 be 1e 0d 4b 3d 2a 55 df 3d
       0.18382305 -0.19266848 0.049573056 0.10904916
000130 a6 5b b4 bd 80 67 b3 3d 59 d3 7f 3c 88 35 03 3e
       -0.08806543 0.087599754 0.015614354 0.1281339
000140 14 25 07 bd ff d0 f9 bd 5c 01 fe 3d 49 00 b3 3d
       -0.032994345 -0.12198066 0.12402603 0.08740289
000150 66 98 14 3e f3 65 6c 3d 89 bf 09 3e a3 de 7f 3d
       0.1451126 0.057714414 0.13451971 0.062468182
000160 40 20 04 3d d8 c0 97 bd 32 91 93 3c d2 d9 1f be
       0.03225732 -0.07409829 0.01801357 -0.15610436
000170 b8 4a bb 3c 5b 25 8a bc 77 e8 fa b9 ff 65 0c be
       0.022862777 -0.016863516 -0.00047856916 -0.13710783
000180 ff 88 18 3d 59 c0 32 be 3c 5f bd 3d d3 38 e6 3d
       0.037240025 -0.17456187 0.0924668 0.11241307
000190 b3 8b 4f be f6 43 16 3e 10 33 37 be 68 cc 3d bd
       -0.20268135 0.14674363 -0.17890573 -0.046337515
0001a0 8e 5e 96 3d 21 96 49 bd 54 f8 11 3e 65 9b eb bd
       0.073422536 -0.04921544 0.14254886 -0.115042485
0001b0 34 84 0c 3b a4 75 2a be 47 90 9e bd 46 13 69 3e
       0.0021441104 -0.16646439 -0.077423625 0.22761258
0001c0 bd f0 fd 3d a6 4b 3f 3d 2d 03 1a bd f7 35 19 be
       0.12399433 0.046703003 -0.037600685 -0.14961992
0001d0 42 70 00 3e 30 06 2b bd 98 75 54 bd af 70 17 be
       0.12542823 -0.041753948 -0.05186996 -0.14789079
0001e0 ba 84 1d 3e 38 62 a5 3d 16 5d cc 3d ea f7 18 3d
       0.15382662 0.08075374 0.09978692 0.037345804
0001f0 a4 11 15 be b7 24 cd 3d 84 66 c9 3c bf 8e ad 3d
       -0.1455751 0.100167684 0.024585016 0.08474492

weight f4 [128, 128]
000000 7b 38 c6 bc e0 0d 3d bd 6a 94 ba 3d 02 7a 03 3d
       -0.024196854 -0.04615581 0.09110339 0.032098778
000010 63 c7 d6 bc 05 ea e2 bb 29 3a 94 bc c4 53 4f 3c
       -0.026218122 -0.00692487 -0.01809414 0.012654249
000020 9f 18 91 3d f2 69 57 bd a7 cf 72 3d 01 96 93 3d
       0.07084774 -0.05259127 0.059280064 0.07206345
000030 b3 2a 17 3c 1e 99 25 bc 22 ec 07 3d 1d a0 89 bd
       0.009226489 -0.010107307 0.03318418 -0.06719992
000040 36 40 43 3d 12 6d 73 bd f9 6e 36 3b c6 f3 d8 bd
       0.04766866 -0.05943019 0.002783714 -0.10593371
000050 ed 76 cb 3d 5a 7a c4 3d 59 6b 69 3d da 7c 10 3b
       0.09934793 0.09593649 0.05698714 0.0022047074
000060 3b 9d 6f 3d 55 a8 49 3d 6a 2d 8d 3d 7f 2f 3f 3d
       0.058499556 0.0492328 0.06893428 0.046676155
000070 d4 b0 df bd 43 05 b3 3c ee 9c fd b9 09 48 1c bc
       -0.10922399 0.021853095 -0.00048372842 -0.009538659
000080 f5 bd 77 3d 35 60 06 3c 91 cc 55 3c eb 8a 83 3d
       0.06048389 0.0082016485 0.013049261 0.06422981
000090 8c 6c d2 bb 8b e0 b2 3c 1f 7a 6b bc 4f 46 c1 bc
       -0.006421631 0.021835586 -0.014372378 -0.023593096
0000a0 91 1d 90 bd db 25 0c bd 33 f7 09 3c 01 53 11 bd
       -0.07036889 -0.03421579 0.008420753 -0.03547955
0000b0 b9 a9 8d 3c 18 e1 82 3d 80 7f b3 3d 9a b8 e0 3b
       0.017292844 0.063905895 0.08764553 0.0068579437
0000c0 4e fd 99 3b 44 b3 a7 bd 45 62 08 3d 10 ca 38 bd
       0.0046993857 -0.08188489 0.033296842 -0.045114577
0000d0 f8 ce 73 3d af e0 ad bc 9a bd 30 bd 4d 5c 3b bd
       0.059523553 -0.021225302 -0.04314957 -0.04574232
0000e0 10 2b c1 b9 1f 62 50 bd c3 33 92 bd c7 a9 8c 3d
       -0.00036843913 -0.050874826 -0.07138779 0.0686832
0000f0 c9 8c 4d 3d 1d 18 9f bd c9 0e 81 bc 04 39 0f 3c
       0.05018309 -0.07768271 -0.01575412 0.008741621
000100 bf 1c d8 3d d7 ae ec bc d9 21 8f 3d 10 2f 07 3d
       0.10552358 -0.028891964 0.06988878 0.033003867
000110 1f de 95 bc 03 e5 88 3d f5 1c ac bd ca 3d bc 3d
       -0.018294392 0.066843055 -0.084039606 0.09191473
000120 39 35 cd 3d 26 07 7d bc 49 59 15 3d 4d 64 a8 3d
       0.10019917 -0.015443599 0.036462102 0.08222256
000130 09 8d 88 3d dc c5 9c 3b f1 34 c4 3c 22 01 3f bd
       0.06667525 0.004784329 0.023951026 -0.04663194
000140 59 f8 61 3d 74 25 41 3a ad e0 d2 3d de 63 bf bc
       0.055168483 0.00073679467 0.1029676 -0.02336305
000150 ef 8b 07 3c 71 3f a0 bc 15 c4 a2 3d 35 c8 47 bc
       0.008273109 -0.019561501 0.07947556 -0.012193729
000160 14 42 91 3d 55 49 86 bd 1a 7c f2 bc 88 91 f4 3c
       0.070926815 -0.06556956 -0.029600192 0.029854551
000170 7e 7a 46 bd 09 6c 5d bd a9 05 6d 3d fe b3 00 bd
       -0.04845666 -0.05405811 0.057866726 -0.031421654
000180 ae 33 36 bd 4e dd 29 bd a7 60 33 3d c5 2f 54 ba
       -0.04448288 -0.04147082 0.043793347 -0.00080942764
000190 7c f8 22 bd 68 8f d9 bc 76 f7 81 3d 4c cc 29 bc
       -0.039787754 -0.02655764 0.063460276 -0.01036365
0001a0 dd a4 00 bd 6a 8f 91 bd d4 64 98 3c 19 40 06 3d
       -0.031407226 -0.07107432 0.018602766 0.032775972
0001b0 2c 3a 41 3d 2f 23 79 3d 32 47 b3 3d 4c c5 81 3d
       0.047174618 0.06082457 0.08753814 0.063364595
0001c0 d5 cf 1d 3c 25 6e 3f 3d 34 7f 98 bc 69 c8 c9 3c
       0.009632071 0.0467359 -0.018615343 0.024631696
0001d0 9c 9c 98 3d 71 e6 35 bc 0c 8c ca bc fd 7c a3 bc
       0.07451746 -0.011102305 -0.024724983 -0.01995706
0001e0 da 9f 53 bd d3 90 1c 3d 04 1f d3 3d 90 82 8f bd
       -0.05166612 0.038224053 0.1030865 -0.07007325
0001f0 8b eb 43 3d ca 99 b8 3c 44 28 c5 3c f5 59 bc bb
       0.047832053 0.02253427 0.024067052 -0.0057480284
000200 c3 80 e5 3d 2d 36 da 3d f1 98 cc bd 32 85 f1 bc
       0.112062 0.106548645 -0.09990109 -0.029482458
000210 d3 f6 81 3c b2 b6 55 3c 1f 93 08 3c 45 4e 09 be
       0.015864765 0.013044046 0.008335858 -0.13408764
000220 31 75 2a bd ae a3 86 bc 3d cd 2f 3d f4 9c 5a 3d
       -0.04161567 -0.01643547 0.04292034 0.05337234
000230 b5 41 4a bd 9d cc 16 3d 31 97 a0 3c d1 57 0d bd
       -0.04937907 0.03681623 0.019603344 -0.034507576
000240 23 d1 f3 bb 61 4a aa 3d f2 ac a1 ba 05 35 1f 3d
       -0.0074407025 0.08314968 -0.0012334867 0.038868923
000250 e4 3c ca 3c 32 b9 35 bd 5b bf 5a bd 31 be 83 3c
       0.024687238 -0.04436607 -0.053405147 0.016081901
000260 b9 aa 02 bd 11 1c 8d bc 48 8c ce bc 82 89 85 3d
       -0.031901095 -0.017225297 -0.025213376 0.06520368
000270 8f 93 c0 bd bc b8 11 3c 16 6f 82 bc 8a 2c 18 3d
       -0.094031446 0.008894142 -0.01592211 0.03715185
000280 d5 86 6c 3d bd 95 4b bd 61 cd 50 bd be dc 0e 3d
       0.057745773 -0.04970335 -0.050977115 0.034878485
000290 02 de b6 3d 8d 94 44 3d 7b f3 85 bd e6 b7 86 bd
       0.089290634 0.04799323 -0.06540581 -0.065780446
0002a0 e4 6e 16 bd a8 d6 c0 3c cf 2e a5 3a 1e 75 96 bd
       -0.036726847 0.023539856 0.0012602451 -0.07346557
0002b0 ed 82 6a ba 59 d5 0e bd 21 af 7d 3d f4 41 32 bd
       -0.0008945901 -0.034871433 0.061934594 -0.04351993
0002c0 1b 3b 9b 3d 99 ba c2 bd 54 85 74 bd 88 6a c6 bd
       0.07579633 -0.09508247 -0.059697464 -0.09688288
0002d0 7e bc 0c 3c 27 52 f9 bd 05 08 72 3d 5a ed c3 bc
       0.008589862 -0.121738724 0.05908968 -0.023916889
0002e0 2f 5b 18 3d 6b ce 6a 3d 26 aa aa bd a3 72 3e 3d
       0.037196334 0.05732576 -0.083332345 0.046496045
0002f0 46 05 4a bd 37 64 88 bd 6d 52 e3 3c eb 8a 87 3d
       -0.049321435 -0.066597395 0.027749265 0.066182934
000300 d8 a6 f0 3c b6 04 88 bc be 0f 13 be 4d 92 13 3d
       0.029376432 -0.016603809 -0.14361474 0.036028195
000310 12 d1 57 bd 19 38 98 3d 0b 55 84 3d b6 c2 e2 bc
       -0.05268962 0.07432575 0.06461533 -0.027680736
000320 c3 bc 78 bc d0 e6 60 bd 55 fd 78 bb a4 f6 99 3d
       -0.015181723 -0.05490762 -0.0037992795 0.07517746
000330 74 d5 33 be 76 f3 b7 bd 30 b4 f7 bc 76 47 d9 3c
       -0.17561895 -0.08981983 -0.030237287 0.026523333
000340 92 a9 0f be 14 a7 1a be 6e 19 93 3b ae 81 26 3d
       -0.1402953 -0.15102798 0.0044891154 0.040651016
000350 f6 64 3c 3d 87 3e 42 bd 9f 0e 83 bd 9e ce a9 bd
       0.04599472 -0.047422912 -0.06399273 -0.08291362
000360 75 7d c6 3c d2 87 78 3b 6e 9c 06 be a9 a8 84 3d
       0.024229744 0.0037922752 -0.1314561 0.06477482
000370 9c e9 15 bc bf 89 04 3b 26 5f 8e bc 85 46 b3 bd
       -0.009149935 0.0020223705 -0.017379355 -0.08753685
000380 ad f4 b1 bd dd 12 57 3d e0 52 aa bd 7a 5e d7 bc
       -0.08689246 0.052508224 -0.083165884 -0.026290167
000390 4c b2 b4 3b fe 05 61 bc fc e4 85 3d a0 ed 6b bd
       0.0055144187 -0.013734339 0.06537816 -0.057599664
0003a0 01 cb 35 3a 2d db 51 bb db 0f d0 3b 29 00 d9 bd
       0.0006934852 -0.0032021508 0.0063495464 -0.10595734
0003b0 a1 63 48 bd 2f f1 15 3d 0a 46 7f bd 24 3e da bc
       -0.04892314 0.036606964 -0.062322654 -0.02664096
0003c0 b6 b7 ae bc c1 c1 e4 3d 62 1b 3f bd de 61 b6 bd
       -0.021327835 0.11169768 -0.046656974 -0.089053854
0003d0 1a 83 32 bd 50 ec 8e 3b db d9 0b 3d 78 48 42 bd
       -0.04358206 0.0043616667 0.03414331 -0.047432393
0003e0 2e 38 f3 3c b5 8f d5 3d d6 e1 bb 3c 2c 8c 99 3b
       0.029689875 0.104278006 0.022934835 0.0046858992
0003f0 63 a2 60 bd 5a c9 fd 3c 2a 8f 9d 3d 79 15 06 3c
       -0.054842364 0.030979801 0.07693322 0.00818383

bias f4 [128]
000000 08 e7 41 bb e4 6f fb 3c 1b 83 f6 bd d8 4a a0 bb
       -0.0029587168 0.030693002 -0.12036725 -0.0048917346
000010 c3 98 d7 3c 3c 5b be bd 0d e3 d7 3b 89 a2 68 bd
       0.02631796 -0.09294745 0.006588346 -0.05679563
000020 80 39 7e bd 48 43 a6 3d da da 4f 3c 35 90 b9 3d
       -0.062066555 0.08118302 0.012686456 0.090607084
000030 9a 81 b4 3d fb b7 65 bd 42 9d d4 bc 69 97 41 bd
       0.08813782 -0.05608366 -0.025953893 -0.047263537
000040 f9 ed 7c 3c a6 43 ba 3c 87 d7 c8 bc 53 a6 b6 3d
       0.0154375965 0.022737335 -0.024516834 0.089184426
000050 62 68 e6 bc cc 14 61 3d 8b 5e 91 3c 47 d5 f5 bc
       -0.028125945 0.054951474 0.017745277 -0.030008925
000060 c9 80 51 3d c0 c9 24 3d 1e 23 72 bc f4 07 a1 bd
       0.05114821 0.040231466 -0.01477888 -0.07862845
000070 84 a2 83 3d d3 24 9b 3d 87 5c 29 3d 93 6b bb 3c
       0.06427482 0.07575383 0.041348007 0.022878444
000080 36 9c 3e 3d db f5 17 3d 49 d2 e8 bc ce bc 55 bd
       0.046535693 0.0370997 -0.028420584 -0.05218201
000090 24 98 40 bd 65 8d 74 3d cc 77 72 bd fa 9a 73 3d
       -0.047020093 0.059705157 -0.05919628 0.05947397
0000a0 07 a6 bf bd dd 7c 2f bd 36 3f 8b 3d f9 42 4f bd
       -0.09357839 -0.04284369 0.06799166 -0.05060098
0000b0 3f 51 72 3c 47 f4 87 3d 16 3a 97 3a f0 07 49 3d
       0.014789878 0.06638389 0.0011537697 0.049079835
0000c0 de 64 f4 ba dd 42 b7 bd 4e fe e8 bc 9a 4b 25 bd
       -0.0018645783 -0.089483 -0.028441574 -0.040355302
0000d0 a7 7a 2d bd fe e4 94 bd 5f 99 03 3d 92 de bf 3d
       -0.0423533 -0.07270239 0.032128688 0.09368624
0000e0 be 02 97 3d f2 54 26 3d b4 21 74 bd c9 5c 91 3c
       0.0737357 0.040608354 -0.059602454 0.017744439
0000f0 d8 dc c4 3c 27 9a 9e 3d 94 cd 21 bd 00 99 47 3d
       0.024031088 0.07744246 -0.039502695 0.048729897
000100 7c 0e 96 3d e2 ef e6 bb 0e b3 f7 bd 8f 7c ab 3c
       0.073269814 -0.007047639 -0.12094699 0.020933418
000110 bd 95 3b 3d c7 1c c4 bd 8f 70 b9 3d 6b 8d d0 bb
       0.0457971 -0.09575801 0.09054672 -0.0063645146
000120 08 6b 0d be 2f 34 f2 3c 18 b9 41 3d 69 a9 3e 3b
       -0.1381036 0.029565899 0.04729566 0.0029092676
000130 05 6f 84 bd 1d 34 36 bd 21 60 7a 3d c1 14 5c 3d
       -0.06466488 -0.044483293 0.061126832 0.05373073
000140 92 03 84 3d 37 b7 1a 3d 39 d7 7a 3d d7 da 4d bd
       0.064459935 0.037772384 0.06124041 -0.05025753
000150 30 79 3a 3d d4 b1 3a 3d 74 56 59 3c 6e 1d ae 3d
       0.04552573 0.045579746 0.013265241 0.08501707
000160 a9 b3 13 bd 5d 31 b3 3d ed 13 28 ba bf de 04 3d
       -0.03606001 0.0874965 -0.00064116606 0.03243899
000170 88 b7 4d bd a2 88 9d 3d 9e f3 0a bd 93 7c f3 ba
       -0.050223857 0.07692076 -0.033923738 -0.0018576555
000180 21 19 86 3d 1b 0a 83 3b b3 96 20 bd 12 74 14 bd
       0.06547762 0.0039990074 -0.039206218 -0.036243506
000190 01 75 a3 3d 6f a8 8e 3d 43 9c ab bc 0a ae 38 bc
       0.07981301 0.0696572 -0.020948535 -0.011271963
0001a0 3d ca b7 3d 68 33 59 3d c1 7a 9c 3d a6 3b af bc
       0.08974121 0.05302754 0.07640601 -0.021390747
0001b0 9d c0 03 bd 0b 1f a9 bd 9f 63 87 bd f9 9f 59 bc
       -0.032166112 -0.08257874 -0.06610798 -0.013282769
0001c0 75 d4 4d 3c 95 e8 6f bd f2 2b 16 bd 9d 5e fe 3b
       0.012562861 -0.058571417 -0.036663003 0.0077627436
0001d0 a7 4e 8b bc 0b df 91 bd d2 80 83 3d ca 6f 1f bd
       -0.017005278 -0.0712262 0.06421055 -0.03892497
0001e0 14 25 68 3c 15 b2 a3 3d 9c a8 c6 bd d1 21 06 3c
       0.014168996 0.07992951 -0.097001284 0.008186773
0001f0 35 d0 eb bd 3a 86 ca 3d d5 25 0b bd b4 96 95 3d
       -0.11514322 0.09888883 -0.033971626 0.07304135

weight f4 [128, 128]
000000 9a 62 23 3c dd d2 7a bc 12 b1 12 3d e6 87 4b bd
       0.009972239 -0.015309063 0.0358134 -0.04969015
000010 4c ec 5d bd 8c 88 e8 bc 2f 25 d7 3d 49 cd c9 bd
       -0.05418043 -0.028385423 0.10505139 -0.09853608
000020 f7 40 94 3c 64 fc 06 3e e3 54 1f ba a1 51 76 bd
       0.018097384 0.13182217 -0.0006078018 -0.06013644
000030 d0 23 d3 bd d3 6b ca bc 97 92 50 bc b9 06 94 bd
       -0.10309565 -0.024709618 -0.012730262 -0.07227845
000040 5b 0b b4 3d e8 ae 07 be dd 77 72 3d 19 fe 5d bd
       0.087912284 -0.13250315 0.05919634 -0.054197405
000050 44 5c 9d bd 0a 26 c1 bd 40 a2 89 bd 05 84 d7 bd
       -0.07683614 -0.094310835 -0.067204 -0.105232276
000060 81 14 8f bd c3 5c b5 3b 54 ed 8e 3d 84 5f d0 bd
       -0.06986333 0.0055347397 0.069788605 -0.10174468
000070 16 98 46 3d c8 7b 3d bd a7 f2 a6 3d ee d8 9a bd
       0.048484884 -0.046260625 0.08151751 -0.07560907
000080 99 df c5 bd 69 16 36 3c 51 23 43 3d f4 f5 0f 3c
       -0.096617885 0.011113741 0.047641102 0.008786667
000090 3a a1 a5 3d 10 3f 86 3c cd 60 bd 3c 02 2d 8d bd
       0.08087392 0.016387492 0.023117447 -0.0689335
0000a0 76 4e 3f 3d ff fd b6 bd 2c 6f 81 3d 46 40 c3 bb
       0.046705686 -0.08935165 0.063200325 -0.0059585897
0000b0 53 cf f0 3d df da 88 3b 7d 41 57 3d da 73 d3 3d
       0.11758294 0.004176482 0.05255269 0.10324831
0000c0 6b a9 23 3c ab 2e c4 bd 35 47 5a bb ea 8b 9e 3d
       0.009989123 -0.09579214 -0.0033306603 0.0774153
0000d0 25 da 08 3d 67 06 74 bc dd 64 7f 3d 96 34 0e be
       0.033411164 -0.014894105 0.06235205 -0.13887247
0000e0 9f dd 8a 3d e6 bb 1d bd a5 be a2 bd b9 7c ce 3c
       0.06780552 -0.038509272 -0.07946519 0.025205957
0000f0 4c 70 ea bc 42 35 0b 3d 62 7e cf 3a 46 48 eb 3b
       -0.028618 0.033986337 0.0015830512 0.0071802465
000100 ba a2 ef bc c2 c1 e6 bd a9 46 3c bd 5a 3b fb bc
       -0.029252399 -0.11267425 -0.045965824 -0.03066795
000110 2f 73 89 ba c9 de c1 bd 51 ba 84 bd 91 5f 72 bd
       -0.0010486598 -0.09466321 -0.064808495 -0.05917317
000120 78 f4 d5 bb 52 59 91 3d 72 5e 36 3d a2 e9 65 bc
       -0.006529387 0.070971146 0.044523664 -0.014032753
000130 18 0b 82 bc 32 9f b4 bd 7a dc 80 bc a9 54 99 3b
       -0.01587443 -0.088194266 -0.015730131 0.0046792817
000140 e8 bc f6 bd f4 5e d1 bd e3 8e 87 bd 97 87 c0 bd
       -0.1204775 -0.10223189 -0.0661905 -0.09400862
000150 aa 02 08 bc 7d 73 fc 3c 13 af 5a 3d d0 bb 43 3b
       -0.008301416 0.030816788 0.05338962 0.0029866584
000160 3d 47 2a 3d 7d 37 bf bd 3d 8b b2 bd 81 3e fc 3c
       0.041571844 -0.093367554 -0.08717964 0.030791523
000170 d9 09 84 3d 88 6a 9f bd 70 9e b5 3d 51 96 65 3d
       0.06447191 -0.07783991 0.0886811 0.056051556
000180 8d 65 a2 bd 6b a7 c5 bc cb 73 db 3d c9 36 c9 bc
       -0.079295255 -0.024127683 0.10715445 -0.024562256
000190 7c c8 e7 3c 90 13 0b bd f8 96 18 3d ed f1 cf bb
       0.02829384 -0.033954203 0.03725335 -0.0063459785
0001a0 24 b2 13 bc 3b 6f 4c bd 10 df 8a 3c a7 eb 86 bb
       -0.00901464 -0.049910765 0.016952068 -0.0041174474
0001b0 90 fb f1 bc e5 f7 58 3d 59 16 98 bd 1f 6b 13 3d
       -0.0295389 0.052970786 -0.074261375 0.03599083
0001c0 b5 67 cf bd 32 fb af bc 6d 3e b9 3d d5 21 7d 3c
       -0.101272024 -0.021482084 0.0904511 0.015449961
0001d0 2d 69 9e 3d ac 21 3f bd 52 b9 f2 3c 6b ee 1a 3d
       0.077349044 -0.04666297 0.029629383 0.03782503
0001e0 9f e9 dc bd 03 50 85 bd e6 c2 82 3d bd 85 9f bc
       -0.10786747 -0.06509402 0.0638483 -0.019472951
0001f0 3f 44 ec bc 9a 0e 92 bd 6a 8c 80 3b 09 49 6d 3d
       -0.028841136 -0.07131691 0.0039229887 0.05793098
000200 13 61 52 3d 7d cf 21 bd b4 45 69 3b 23 a2 67 bd
       0.05136211 -0.039504517 0.0035594525 -0.05655111
000210 e6 e9 ed bc c8 e7 e2 bc ab ef 72 3d 59 1a 91 bd
       -0.029042196 -0.027698413 0.059310596 -0.070851035
000220 5b 3b 77 bc e7 aa 99 3d 4e c5 9a bb 50 50 3b bc
       -0.015089835 0.075033 -0.0047232276 -0.011432722
000230 be cb 31 bc e7 20 90 bb 1c b5 43 bd ed 4d 9a bc
       -0.010851799 -0.0043984535 -0.04778014 -0.018835986
000240 a0 e6 77 bd f1 5a 1e be 08 87 a6 bd 09 c8 97 bd
       -0.060522676 -0.15464379 -0.08131224 -0.074112006
000250 63 fc 1c bd 6a 39 67 bd 46 17 76 bd 4f f6 b2 bd
       -0.038326632 -0.05645124 -0.06008079 -0.08738386
000260 7b 0e 73 bd c3 ae e6 3d 09 47 7f bc 80 65 8e bd
       -0.05933998 0.11263802 -0.015580901 -0.06952953
000270 d1 81 ec bc bc fa 3f bd 6e bb 34 3d f2 9b a4 bd
       -0.028870495 -0.04686998 0.04412406 -0.08037557
000280 a7 ae c2 3b e8 c9 40 bc f5 cd 36 bd 81 54 23 bd
       0.0059412303 -0.011766888 -0.04463001 -0.03987551
000290 df 54 4e 3d 86 84 3c bd 97 67 ff bb 4f fb a6 3b
       0.050373908 -0.04602482 -0.0077943313 0.0050958763
0002a0 e5 59 29 3c 48 7b 6f bd 71 0a af bc 26 fb a4 bd
       0.010336374 -0.05846718 -0.021367284 -0.08055715
0002b0 7d 3d 02 3d f6 1b 1e bd 42 f9 4f bd 8b e2 98 3d
       0.03179692 -0.038600884 -0.05077482 0.07465085
0002c0 db a8 b2 bd b1 76 e1 3c 5b 7d ad bd 4d 9f 1a 3d
       -0.08723613 0.027522417 -0.08471175 0.037749577
0002d0 e0 7d 12 bd 9e 34 8d 3c 58 b0 61 bd 2f c3 ec bd
       -0.035764575 0.017237004 -0.055099815 -0.11560666
0002e0 d4 94 b4 bc d3 a4 c6 3a 95 8d 14 3c 66 de 12 bd
       -0.022043623 0.0015155323 0.009066959 -0.035856627
0002f0 fb a7 82 bd 70 a8 36 3d 2f 85 72 bd 8b 6c 67 bd
       -0.06379696 0.04459423 -0.059209045 -0.0565
000300 cd 30 f3 bd 73 0e 7a bd 1d ba de bb 7e ed e7 3a
       -0.118745424 -0.061048936 -0.006797089 0.001769468
000310 15 f6 9d bc d4 8e 7a bd f3 aa 45 bd ba 45 fd 3c
       -0.01928238 -0.061171368 -0.048258733 0.030917037
000320 49 df 66 3a 8c c3 f6 bc 79 f1 e3 3c 7c 22 fe bc
       0.0008807076 -0.03012254 0.027825104 -0.031022303
000330 22 a9 8a bd 6c 12 3c 3d ee 81 e9 3c 8e be c6 bd
       -0.06770541 0.045916006 0.028504338 -0.09704314
000340 7f 74 c4 bd 07 ae d4 3c b4 69 44 bd 5d 81 e6 3c
       -0.09592532 0.025961889 -0.04795237 0.028137857
000350 6a 79 51 bb f9 e5 ca 3c 32 00 6f 3d 9b 5b 13 bd
       -0.0031963238 0.024767863 0.058349796 -0.035976034
000360 b8 0c 62 3d 63 8f 8c bc 38 b4 48 bc 66 16 a8 bc
       0.05518791 -0.017158216 -0.012249999 -0.020518493
000370 55 8f 22 bc 8d a2 1c bd 61 9f b1 b9 4d ad 0e 3e
       -0.009921868 -0.038240958 -0.00033878817 0.13933297
000380 04 20 a1 3c 58 39 46 bd e6 0a 10 3d 8e 4a e8 bc
       0.019668587 -0.04839453 0.035166644 -0.028355863
000390 2a 19 38 bd 18 78 ce bd be b9 8c 3d 59 b9 64 3b
       -0.044945873 -0.100815 0.06871365 0.0034900515
0003a0 a5 4d 5c bc 3d 15 16 bd b7 9d 44 bd be 18 ad 3c
       -0.013446246 -0.03664135 -0.04800197 0.021129962
0003b0 92 d3 aa 3c 96 47 63 bd 7b b2 8a bc f3 b3 1e 3b
       0.020852838 -0.05548819 -0.01693081 0.0024216145
0003c0 cd c8 52 bd a9 5c b7 bc a3 61 32 3d 70 0e d4 bc
       -0.05146103 -0.022383051 0.043550145 -0.02588579
0003d0 5f fe 0e bc d6 54 54 bd cb fe 93 3b 11 b8 80 bc
       -0.008727639 -0.05183872 0.0045164577 -0.01571277
0003e0 75 de 6d bd ff 77 1a bc 39 ee 60 bb a3 b0 0d 3b
       -0.05807348 -0.009428023 -0.003432168 0.0021620176
0003f0 c6 11 c2 83 8f 74 74 3c 0e 21 99 bc c1 a6 2b bc
       -1.1406376e-36 0.014920368 -0.01869252 -0.010476769

bias f4 [128]
000000 b3 b4 10 bd ab 66 b3 3a f9 61 93 bd db 69 8e bd
       -0.03532858 0.0013687214 -0.07196421 -0.06953784
000010 08 98 17 3c 1a b1 22 bd 58 78 77 bd 04 db 28 bc
       0.009252556 -0.03971968 -0.060417503 -0.010306124
000020 01 4c 87 bd 6b fa 92 3d e8 43 ff 3c 1c f5 8e bb
       -0.066062935 0.0717667 0.03116031 -0.0043627154
000030 bb 51 27 3c 6a 3f a8 3d 9a d6 15 bd 71 f6 91 3c
       0.010212357 0.0821522 -0.036581613 0.017817708
000040 6a 35 1f 3c db 4c dc 3c f1 63 d4 bc 0f fc 5c bd
       0.009717325 0.026892116 -0.025926562 -0.05395132
000050 90 68 c2 3d 58 e9 12 be 12 74 90 bd eb 8e 84 3d
       0.094926 -0.14346826 -0.07053389 0.06472572
000060 9e 8c 53 bd ad c5 5e 3a 1d 2b cc 3d d9 a1 6f 3c
       -0.051647775 0.0008498084 0.09969161 0.01462599
000070 f0 ec 8b ba e8 24 ce bc da 2c 9f 3d 14 74 a8 3d
       -0.0010675471 -0.025164083 0.07772227 0.08225265
000080 44 1f 40 bb 9d b7 f8 bc 7a 10 77 3d f5 ef 98 bc
       -0.002931551 -0.030360991 0.060318448 -0.018669108
000090 47 bc 90 bb b7 0d 32 3d 3e c2 a9 ba 4a f1 a6 3d
       -0.0044169757 0.04347011 -0.0012951565 0.08151491
0000a0 97 18 e7 bd 54 72 4b bd 3e 59 ac 3d 63 66 bb 3d
       -0.11283987 -0.04966958 0.08415459 0.09150388
0000b0 d8 d5 3f bd 60 57 4c 3d 89 24 04 3c 2e 4c 84 3c
       -0.046834797 0.049888015 0.008065351 0.016149607
0000c0 e7 cc fb bc c2 35 0a bd 02 a5 9d 3d 48 e8 02 3d
       -0.030737353 -0.033742674 0.07697488 0.031959802
0000d0 8f 61 d8 3d 93 e9 c1 3d f3 45 c5 3d bb d8 7c 3d
       0.10565483 0.09468379 0.096324824 0.061730128
0000e0 1d 04 fd bc 75 42 28 bd 67 04 a7 3d 38 2d 92 bd
       -0.03088575 -0.041079003 0.081551366 -0.07137531
0000f0 92 b5 13 bc 90 b9 9d 3d 17 eb 00 3d ff dd 0e 3d
       -0.009015458 0.07701409 0.0314742 0.03487968
000100 41 64 30 3d b9 95 a9 3d a7 5a 77 3d 69 a9 34 3d
       0.04306436 0.082805105 0.060389187 0.044106875
000110 6c 28 8f 3d 48 3e c9 bc f3 5d 9b bb a4 ad eb 3d
       0.06990132 -0.02456583 -0.004741424 0.11507729
000120 4e 0c 2b 3b ae d5 75 bb e6 c9 49 3c 12 7c be 3d
       0.0026099863 -0.0037511396 0.012316203 0.09301008
000130 c4 2c 6b 3d b3 06 bd 3c a8 07 53 bc 65 3b 5e 3d
       0.05741574 0.023074483 -0.012880243 0.05425586
000140 b8 6b b9 3d 85 38 c6 3c 0d 47 a6 3b 4c da a6 3d
       0.09053749 0.024196872 0.005074388 0.081471056
000150 a9 b6 10 3c 13 17 b3 3c 02 88 1e ba e7 e0 e1 bd
       0.008832612 0.021861589 -0.00060474884 -0.11029225
000160 28 a0 ca 3d 58 da 87 3d 5a da 75 3d a0 96 cd 3d
       0.09893829 0.06633443 0.06002269 0.10038495
000170 79 47 23 3d e8 f2 d2 3d ab d3 b2 3d ba 62 c8 3d
       0.039863084 0.10300237 0.08731779 0.097844556
000180 d5 ae fe bc 98 df c2 3d 82 ff bf 3d 13 94 bf 3c
       -0.031089226 0.095153034 0.09374906 0.023386037
000190 a1 5b f4 bb 0b 04 bc 3d c6 53 c5 3c 3b f7 a4 3d
       -0.007457212 0.09180459 0.024087798 0.08054968
0001a0 c6 61 2a bc 20 f8 61 3c 50 37 4b bd 10 e6 0e 3e
       -0.010399288 0.013792068 -0.049613297 0.1395495
0001b0 49 27 3b 3d d0 31 44 3c e8 f2 7a bd fd d9 55 3d
       0.045691762 0.011974767 -0.06126681 0.052209843
0001c0 c7 2a 60 3d 5e 1a 61 bd d5 26 76 3c fb 76 da 3d
       0.054728296 -0.054956786 0.015023907 0.10667225
0001d0 bb 24 66 3d b5 45 c2 bc 9b 99 63 3d cd f5 1f ba
       0.056187373 -0.02371488 0.05556641 -0.0006101996
0001e0 d3 21 34 3c e1 2e 47 3d 80 41 7a 3d 62 c4 60 3d
       0.010994392 0.04862869 0.061097622 0.054874785
0001f0 67 46 43 3d 03 92 04 bd cd 13 1a bd 08 2f da 3a
       0.047674563 -0.03236581 -0.03761654 0.0016646096

weight f4 [128, 128]
000000 04 37 5b 3d 61 1a 68 bc b0 41 9e bd 85 ac cd bc
       0.053519264 -0.0141664455 -0.07727373 -0.025106678
000010 01 cd 8c bd e9 ec 67 bd 6e 8a a1 bc 39 40 de bb
       -0.06875039 -0.05662242 -0.019719329 -0.0067825583
000020 b2 64 4f bd c5 b2 ec 3d 71 ba 06 be d7 29 11 3d
       -0.05063314 0.11557535 -0.13157059 0.035440292
000030 73 49 d5 3d 66 3c c0 3b aa ea e1 3c 8d b4 69 bd
       0.104144 0.005866575 0.027577717 -0.057056952
000040 b4 4f c0 3d 43 23 c2 3d bf be 0f bc 9d 65 b2 3c
       0.09390202 0.09479382 -0.008773505 0.021776969
000050 33 ba 8d 3d 23 1f 26 3e de f9 85 bd 2f fe c0 3d
       0.0692028 0.16222815 -0.06541799 0.09423482
000060 0e 60 2e 3d ce a5 ae 3d 78 b1 65 bd ca 0c 9f 3d
       0.042572074 0.085277185 -0.05607745 0.07766111
000070 be d6 88 3d 7f c2 a9 bd da 9e db 3c 7e 52 08 3d
       0.06681584 -0.0828905 0.026809145 0.033281796
000080 e4 73 d5 bc d0 f6 04 ba 30 c1 ab 3d 41 ea d5 3d
       -0.026056238 -0.00050721783 0.08386457 0.10445071
000090 62 bb c8 3c c0 84 ac 3c 31 ef 32 3d 7b 0a bc bd
       0.024503414 0.021059394 0.043685142 -0.091816865
0000a0 98 d4 03 bd 10 97 6b 3c 1f 27 b5 bc a0 24 96 3d
       -0.032185167 0.014379278 -0.022113381 0.073312044
0000b0 67 9f 11 bc a8 0d 2a bd 8b 8f 89 3d b4 79 b0 3d
       -0.008888102 -0.04151693 0.06716832 0.08616963
0000c0 e2 e8 82 bc 33 2e 41 3d 06 e4 48 bd 88 4e 8a bd
       -0.015980188 0.0471632 -0.049045585 -0.0675326
0000d0 91 b6 20 bd cc 7c be 3c 33 15 47 3c 82 4b d5 3d
       -0.03923661 0.023252867 0.01215105 0.104147926
0000e0 5d 39 7d 3d 21 b7 0a 3d f3 18 b8 3d 35 3f 26 bd
       0.061822284 0.03386605 0.08989134 -0.040587623
0000f0 38 fd 80 3d 66 f9 1e 3d 71 af 3b bc a9 86 02 bd
       0.06298298 0.038812064 -0.011455403 -0.031866703
000100 91 a6 c3 3d 1e 09 9f bc 93 f6 81 3d 83 5e a0 bc
       0.095532544 -0.019413527 0.063458584 -0.019576317
000110 9e a4 b9 3d 95 4c 78 bd 3c e0 99 3d f0 ff 00 3d
       0.09064601 -0.06061991 0.075134724 0.03149408
000120 77 ed 83 bc 9b c3 37 3d d1 c5 5c 3d a8 45 83 3d
       -0.016104443 0.04486428 0.05389959 0.0640977
000130 69 3e 0d 3d f3 14 1e 3d 52 4a d4 b9 f7 3a f0 3d
       0.034483347 0.038594197 -0.00040491164 0.11729997
000140 55 6a 6e bd b3 25 30 bd e3 de f5 bd b1 55 45 3d
       -0.058206875 -0.043004703 -0.12005403 0.048177425
000150 49 24 cf bd 17 02 53 bc 4e 42 68 3d 6d 44 25 3e
       -0.10114343 -0.012878916 0.056703858 0.16139384
000160 77 d5 ad bc aa ea 11 3d c8 ad 39 3b e6 45 2f bd
       -0.021219952 0.035624184 0.0028332341 -0.04279127
000170 09 cb a5 bc 52 99 58 bc 86 f9 8a 3c f7 6b 91 bd
       -0.020238416 -0.013220148 0.016964685 -0.07100671
000180 d4 d6 9a 3c bd 37 38 bd 58 65 4e bb 6a f4 81 3d
       0.018901266 -0.04497503 -0.003149351 0.063454464
000190 78 5c bf bc f5 5e 6f 3d ba fe 96 3d 3d 5f 26 bd
       -0.023359522 0.058440167 0.07372804 -0.04061817
0001a0 ad 47 a4 3d 51 cb 69 bd 4d db 1d 3c 13 8b 71 bd
       0.080214836 -0.057078663 0.009634805 -0.058970522
0001b0 45 f8 5c 3c 30 ae 0f bc 88 33 58 3d c3 ad 2c bc
       0.013486926 -0.008769557 0.05278352 -0.010539475
0001c0 0e d8 1e 3b 8d 10 57 bd 74 fa 8e 3c b7 4d 0b 3c
       0.0024237665 -0.05250602 0.01745341 0.008502415
0001d0 b8 6b 6f bd 36 1a 57 3c c0 5b c1 3c d6 db 03 3d
       -0.058452338 0.013128808 0.02360332 0.032192074
0001e0 78 66 19 bd 36 dc a3 3b 7b 0f 2f bc 67 fc cc 3c
       -0.037451237 0.0050006164 -0.010684843 0.025022699
0001f0 3e 09 82 3d 5e 24 df 3d 74 e6 af 3c 8a d1 e2 3d
       0.06349419 0.10895608 0.021472193 0.11075123
000200 1d 8f 0e 3e 69 ac 09 3e 96 d3 84 3c a1 4d 20 3c
       0.13921781 0.13444676 0.016214173 0.009784133
000210 d3 0c 47 3d 4d ea 99 3d 10 32 69 3c 75 29 9f 3d
       0.048596215 0.075153925 0.014233127 0.07771579
000220 b2 dd 8d bd ae a3 27 bc 80 b1 a3 3d 1e e0 0f 3d
       -0.06927051 -0.010231895 0.0799284 0.035125844
000230 23 07 5a ba d5 6a e4 3b cf ff 44 bd 68 df 34 bc
       -0.00083171035 0.006970743 -0.04809552 -0.011039592
000240 89 2f 02 3d d5 17 fb bc e5 16 4a bd 35 25 4d bc
       0.031783614 -0.030651012 -0.04933824 -0.012521078
000250 bd 97 88 bb b9 d4 5a 3b 07 c2 15 be 98 5b 05 3c
       -0.0041684792 0.0033390953 -0.14624797 0.008139513
000260 6e 86 9d bc 00 fc b6 3c 32 05 07 3c 57 29 5f bd
       -0.01922914 0.02233696 0.008240985 -0.054482784
000270 c9 9d a6 bc 83 ba f3 3d e1 5e 00 bd c7 d8 15 3e
       -0.02033891 0.11900809 -0.031340484 0.14633475
000280 72 4c 05 3d 1c 25 2b 3c c9 0b c2 bc 32 2d 24 bd
       0.032543607 0.010445859 -0.02368726 -0.040082164
000290 21 77 79 3c f3 6e bc 3d f8 23 67 b9 2a 50 08 3e
       0.015226156 0.092008494 -0.00022043276 0.1331183
0002a0 fc e6 84 3b 65 df db 3d 87 ec 01 3d 28 cf fd bc
       0.004055856 0.107359685 0.03171971 -0.030982569
0002b0 c1 2f bf bb 59 61 06 3e bf 0c 0d bd 79 96 51 3c
       -0.00583455 0.13123073 -0.034435984 0.012792223
0002c0 75 24 59 3c b4 d6 8f bc 12 e3 85 3c 84 35 f3 3d
       0.013253321 -0.017558433 0.016343627 0.11875442
0002d0 d1 3c 51 bd 54 3d ff 3c 3b 36 0c bd 9a 30 e4 3d
       -0.05108339 0.031157173 -0.034231406 0.111420825
0002e0 dc e0 1e bc a0 ea 44 bd 53 2c 03 bd 58 d1 03 bd
       -0.009697165 -0.04807532 -0.032024693 -0.032182068
0002f0 1c 6e a4 bb 73 b1 99 3c d0 95 4b bc 3f f4 54 3c
       -0.005018009 0.018761372 -0.012425855 0.012997686
000300 e5 35 a5 3c 62 e4 86 bc f4 e9 92 3c 40 69 f1 3b
       0.0201673 -0.016466323 0.017933823 0.007367283
000310 03 a7 1c bd 31 34 86 bd dc 76 f9 3c b3 9b c4 3d
       -0.038245212 -0.065529235 0.030452184 0.0960001
000320 62 c6 3f bd 74 8f 4d bd f2 2d 11 bd 6f b6 e5 3c
       -0.046820052 -0.050185636 -0.035444207 0.028041093
000330 f9 3e 1a bc 31 d2 21 3c e5 f9 8b bc 96 81 dd 3c
       -0.009414428 0.009876774 -0.017086932 0.02703933
000340 49 bb ae 3c 95 19 2c 3d f2 a8 53 3d ff fb 8d 3d
       0.021329539 0.042016584 0.05167479 0.0693283
000350 aa b1 fc 3d bd d5 44 3b 41 e6 93 3c 80 27 13 3b
       0.12338574 0.0030034625 0.01805413 0.0022453964
000360 0e 41 5b 3d f6 a0 e5 3c ad fc 67 bc 8a 2b 52 3c
       0.053528838 0.028030854 -0.014159364 0.012827763
000370 f8 0c d8 bb a6 c7 41 3c 78 49 08 bd b3 fb ad 3b
       -0.006593343 0.011827385 -0.03327319 0.005309546
000380 56 5f aa 3d e7 3a 47 bc a6 b3 0f bd ef aa 36 3c
       0.08318965 -0.0121600395 -0.035083435 0.011149152
000390 f5 80 c0 bc b1 61 f5 bc b9 3c d0 3a 00 63 dc bc
       -0.023498992 -0.02995381 0.0015887237 -0.026902676
0003a0 51 18 e3 bc 09 99 fc b9 bf f1 cf 3c 6c 44 7d 3d
       -0.027721556 -0.00048179206 0.025383828 0.06183283
0003b0 39 7f e3 bc 09 0c 55 3c 48 95 11 bc a5 eb aa 3d
       -0.027770625 0.013003358 -0.008885689 0.08345727
0003c0 5e d1 19 3d 3a d3 9d 3c 67 e2 80 3d fe 67 a4 3d
       0.037553184 0.01926576 0.06293183 0.080276474
0003d0 5e 0f 41 39 1e 84 42 3d 18 25 f9 3b 17 c0 1e bc
       0.00018411639 0.047489278 0.007603299 -0.0096893525
0003e0 2e 83 90 bd 2f 61 67 3d 80 ec d1 bc 5a db 18 bd
       -0.070562705 0.056489166 -0.025625467 -0.037318565
0003f0 5e c7 57 3c ec 20 6d bd 0b a2 5f bc b8 bc 53 bc
       0.013170091 -0.057892725 -0.013649474 -0.012923412

bias f4 [128]
000000 30 9f c4 3d 6a 3a 94 3c fe ca 4b bd a0 fb 7b bd
       0.09600675 0.01809426 -0.049754135 -0.061519265
000010 77 22 00 3e 00 d4 1d 3d 61 8e 0f bd a2 6a b1 3d
       0.12513147 0.038532257 -0.035047892 0.08662917
000020 02 93 b3 3b 9e 5c e5 3d b2 c2 8e bd 93 88 8d 3d
       0.005480171 0.11199306 -0.06970729 0.06910815
000030 1c df dc 3d 63 4a 32 3d e4 b0 75 3d 7f d9 8f bc
       0.10784742 0.043527972 0.05998315 -0.017559765
000040 f8 90 31 bd b8 86 ce 3d 5a 22 0a 3c 52 79 e8 bc
       -0.043351144 0.10084289 0.008431042 -0.028378163
000050 73 5f f6 3d 12 36 21 ba 35 06 6a 3d d0 15 d8 bd
       0.12029924 -0.00061497197 0.057134826 -0.105510354
000060 95 b2 3c 3a 63 52 ce bb 7b ec b1 bc 1a 05 2c bc
       0.00071982417 -0.0062964424 -0.021719208 -0.010499263
000070 76 ef d1 bc 7d da 00 bd d1 84 f7 3d 6b 8c 01 bd
       -0.02562688 -0.031458367 0.120858796 -0.031628054
000080 c8 2c e2 3d b0 a3 06 3d f9 aa 91 3d 85 8c 5a 3d
       0.110436976 0.03287095 0.071126886 0.053356666
000090 ca 98 8f 3d 68 0a c3 3d 62 80 bf 3d 10 b8 ef 3c
       0.07011564 0.09523469 0.09350659 0.029262573
0000a0 98 5b de 3d a2 c1 79 bc cb 9b bc bc a8 ce a8 3d
       0.10857314 -0.01524392 -0.023023507 0.082425416
0000b0 ed b4 8f 3d 69 93 a3 3d 77 68 bd 3d 34 5d ef bc
       0.07016931 0.07987101 0.09248441 -0.029219247
0000c0 93 5c 10 3d 22 22 32 3d 7c dd cc bc b0 aa 69 3d
       0.035244536 0.043489583 -0.025007956 0.057047546
0000d0 7e 04 7b 3d 74 d2 ce bd 64 35 bf 3d ad 15 c1 3c
       0.06128358 -0.100987345 0.09336355 0.023569906
0000e0 fb b8 ad 3d 80 f3 9e 3d 3f cc 38 3a 1b 00 6a bc
       0.08482548 0.07761288 0.0007049478 -0.014282252
0000f0 53 80 76 3d 80 39 9f 3d 86 12 14 bb ed b6 9b 3d
       0.060180973 0.07774639 -0.0022594049 0.0760325
000100 1e a9 fc 3c cc ca 51 3d e0 49 e8 3d 8a a3 06 3d
       0.03084236 0.051218793 0.113422155 0.032870807
000110 b3 d9 b9 3d aa ce 9a 3d 89 e1 ff bb c9 75 fb 3d
       0.09074726 0.07558949 -0.0078088683 0.12278325
000120 7b 7a ff 3d 24 29 e3 bd 48 a0 a4 3d a2 3a be 3d
       0.12474533 -0.11091831 0.08038384 0.09288527
000130 21 73 d0 bc 59 10 f2 3d 85 13 7e bd 69 eb bb 3c
       -0.025445523 0.11819524 -0.062030334 0.0229394
000140 bd 1c 91 3d f3 b7 8c 3d 6e ea e1 3c b1 2d 0d 3d
       0.070855595 0.06871023 0.027577605 0.034467403
000150 0d 0d a6 3d 52 97 0e 3c 50 0d fa 3d 92 01 08 bd
       0.08107958 0.00870307 0.122095704 -0.033204623
000160 6c 0f 15 3d 37 16 b2 3c da 7e cb 3c 9a 4a 3d 3d
       0.03639166 0.021739108 0.024840761 0.046213724
000170 d3 41 04 3e 94 9f 1c 3b d2 c5 ff 3c f9 97 1d 3d
       0.12915735 0.0023898827 0.031222258 0.03847501
000180 a6 e2 ab bd 6b fe 1c bc 62 99 0b bd 74 dd 0f 3d
       -0.08392839 -0.009582142 -0.034081824 0.035123304
000190 0b b2 82 3d cd 69 c6 bc c3 25 05 3e 76 52 93 bc
       0.06381615 -0.024220372 0.13002686 -0.017983656
0001a0 97 22 56 3c 62 1d 8a 3d cf 20 10 3d aa 17 c7 3c
       0.01306977 0.067438856 0.03518754 0.024303276
0001b0 58 ac b9 3d a0 cd 13 3d 11 a7 6b 3c 4b 34 d8 3d
       0.09066075 0.03608477 0.014383093 0.10556849
0001c0 dc 9e 93 3d f6 c5 af 3c 4c b1 94 3c 11 82 89 3d
       0.072080344 0.0214567 0.018150948 0.06714261
0001d0 88 66 f3 3d 2a f0 53 3d ba c5 57 3c e2 03 b9 3d
       0.11884791 0.05174271 0.0131697 0.09033944
0001e0 7c e1 ce 3d 87 37 1b 3d b5 12 a2 bc 0d 2b d9 3d
       0.101016015 0.037894752 -0.01978431 0.106039144
0001f0 2d 8e 49 3d 54 63 20 3d f5 79 c8 bc a7 44 de 3d
       0.049207855 0.039157227 -0.024472216 0.10852938

weight f4 [1, 128]
000000 df 3b 31 bd 65 c6 f0 3d 36 3e e3 3d 33 e6 e5 3d
       -0.04326999 0.11756591 0.1109585 0.11225548
000010 bf 75 d4 bd 48 69 19 3e 34 34 81 3d 43 16 cf bd
       -0.10374021 0.14981568 0.06308785 -0.10111668
000020 9d c3 91 3d 2a af ab 3d 43 5d 99 3d e9 cb f0 3d
       0.071173884 0.08383019 0.074884914 0.11757643
000030 4b 47 e7 3d 17 d1 b1 bc 66 a3 14 3e 60 72 cf 3d
       0.11292895 -0.021706147 0.14515457 0.10129237
000040 20 f1 32 bd 0a c0 62 bd d0 cb 4c bd 0c a7 11 3e
       -0.043686986 -0.055358924 -0.04999906 0.1422388
000050 34 1b 05 bd ab 9f 6e bd 66 f9 d4 3d b8 d8 a5 3d
       -0.032496646 -0.05825774 0.103991315 0.080979764
000060 db 2d f4 3a 8a 76 57 3d 4f 2e 9b 3d 63 1c e3 bd
       0.0018629389 0.052603282 0.07577192 -0.11089399
000070 5b e5 dc 3d 54 fc 40 3d f3 c9 41 bd 2f af 0b 3e
       0.107859336 0.04711564 -0.047311734 0.13641046
000080 cf 8f cb bd ed 1c c4 3d bb 6c aa bd 44 28 86 bd
       -0.09939539 0.0957583 -0.0832152 -0.06550649
000090 fd 7c d0 bc 4e af d2 bd e8 06 e0 3d aa ee c8 3d
       -0.025450224 -0.10287343 0.10938817 0.098111466
0000a0 3e 71 be bd 35 3f c2 bd 54 09 34 bd 08 a6 37 bd
       -0.09298943 -0.09484712 -0.04395421 -0.044836074
0000b0 56 1b a7 3d 89 d6 80 3d 13 0b 8d 3d d8 3a 2c 3d
       0.08159511 0.06290919 0.06886878 0.042048305
0000c0 17 e1 08 bd 02 ed a7 3d 79 49 16 3e c3 56 cd bc
       -0.033417787 0.081995025 0.14676465 -0.025065785
0000d0 34 e1 93 3c 64 3d 3e bc b4 6d d9 bc cf 49 b5 bd
       0.018051721 -0.011611316 -0.026541568 -0.088519685
0000e0 7a b4 2a bd da f7 88 bd b9 cb e1 bc a8 25 c2 bd
       -0.041676022 -0.06687899 -0.027562963 -0.094798386
0000f0 59 f7 07 3e bc d8 b2 3d 08 63 c4 bd 6d a7 cc 3d
       0.1327795 0.08732745 -0.09589201 0.099928714
000100 ee 8b e5 3d 53 6f d0 3d ae 65 d0 3d 44 af 88 3d
       0.1120833 0.101774834 0.10175644 0.06674054
000110 be 0d 02 3e d8 41 de bc 8f a5 e3 3b fc 36 d0 bc
       0.12700555 -0.027131006 0.0069472264 -0.025416844
000120 61 42 75 bd 63 3a b4 3c fc 90 f6 3d c2 52 11 bd
       -0.059877757 0.022000497 0.12039372 -0.035479315
000130 b4 23 01 3b 38 39 68 bd 92 eb 2b 3e 3b 06 90 bc
       0.0019705119 -0.056695193 0.16789082 -0.017581096
000140 cc 00 95 bd 99 49 63 bd 0e 24 04 3e d2 97 ba 3d
       -0.072755426 -0.05549011 0.12904379 0.09110989
000150 83 79 5a 3d fa 23 34 bd 68 bc be bc 2c cd 44 3d
       0.05333854 -0.043979622 -0.023283198 0.04804723
000160 6b b7 55 bd ef 27 60 bd b1 28 e9 bc da db c3 3d
       -0.052176874 -0.054725584 -0.028461786 0.09563418
000170 5a 1c 82 bd d6 5d 53 bd 6f e5 05 3e d9 b8 17 bd
       -0.06353064 -0.05160316 0.13075803 -0.03704152
000180 31 5e 93 3c b3 6b ea bc b9 47 73 bd 0b 55 da 3d
       0.01798925 -0.028615808 -0.059394572 0.10660752
000190 81 5c c4 bd 5c fd 2b bb 7e c4 21 bd a4 92 42 bc
       -0.09587956 -0.0026243543 -0.03949403 -0.011875782
0001a0 32 b8 12 3d 57 1c 88 bd 4c bd e9 3d a7 32 9a bd
       0.035820194 -0.066460304 0.11413059 -0.075291924
0001b0 d8 12 39 3d dd 97 a7 3d 95 c2 54 bd 8e 5a a2 bd
       0.045183986 0.081832625 -0.05194338 -0.07927428
0001c0 02 29 f3 3d e3 db 87 bd f2 86 c8 bd 84 44 a0 3d
       0.11873056 -0.06633737 -0.09791364 0.07825568
0001d0 3b cf c0 bc e8 d6 c9 ba ed da b5 bd d9 dd f3 bc
       -0.023536315 -0.001539913 -0.088796474 -0.029768871
0001e0 a1 6c 44 bd 38 34 d1 3d 18 b6 40 3d e2 dc c7 bd
       -0.04795516 0.10215038 0.047048658 -0.09758927
0001f0 09 99 cd 3d a0 17 01 3e 7a 79 b0 3d ca 25 b2 bd
       0.10038955 0.12606668 0.0861692 -0.08698614
