bike_sharing/AutogluonModels/ag-20220404_171935/models/NeuralNetTorch_BAG_L1/S1F6/net.params (torch, 224187 bytes, 13 tensors)

weight f4 [5, 3]
1.5129566 -0.2960552 -2.161308 0.58310264 -1.0704414 -1.4109828 0.34560636 0.860123
-0.746221 -0.3680404 -0.5773436 0.15328272 -0.690519 0.9321371 -0.9029428
00000000: 90a8 c13f 8c94 97be df52 0ac0 3746 153f
00000010: 3904 89bf 169b b4bf 51f3 b03e 0531 5c3f
00000020: 5708 3fbf cb6f bcbe cacc 13bf 25f6 1c3e
00000030: dac5 30bf 89a0 6e3f 4227 67bf

weight f4 [13, 6]
-0.69374985 0.00058862753 -0.45974082 0.31645823 0.56556064 0.22136545 0.7419831 0.5286292
-0.02405404 0.9335465 -0.16887335 0.17669222 0.50132364 2.268795 -1.4456149 -1.5561123
-0.7025492 0.84058386 1.0624989 0.15519486 -0.26542777 -0.39894038 0.5090904 -0.43502018
-0.4411597 0.7352215 1.5119886 3.4015963 -1.5414604 -1.23589 1.7785989 -0.5646986
-0.600307 0.8879175 1.0648618 1.2506768 -1.4620763 2.5224402 -0.48683545 0.31427896
-1.6101617 -0.5736353 -0.4321169 -0.4600922 -1.0451728 1.0728251 -0.20919907 0.71572775
-0.08847959 0.64975303 -0.79878604 0.0008319024 0.81149167 -0.41358265 0.9964844 0.35215154
-0.27597043 2.2508304 -1.8257406 -0.081395805 -1.0127865 -0.8982305 -0.725748 -1.2638584
-0.22232842 -2.4027948 -0.090514034 -0.025558256 0.8843216 0.2855625 -0.40813074 -1.2500672
-0.4605042 -0.30656502 1.749889 -0.24841233 0.018976288 0.9958723
00000000: 9799 31bf 204e 1a3a 2663 ebbe d006 a23e
00000010: 95c8 103f a0ad 623e 9bf2 3d3f 3e54 073f
00000020: fa0c c5bc e7fc 6e3f 23ed 2cbe ceee 343e
00000030: bf56 003f f033 1140 e909 b9bf b02e c7bf
00000040: 44da 33bf 8130 573f f7ff 873f 67eb 1e3e
00000050: 26e6 87be ea41 ccbe c053 023f f7ba debe
00000060: afdf e1be 7a37 3c3f d888 c13f c1b3 5940
00000070: 934e c5bf a531 9ebf 21a9 e33f 1690 10bf
00000080: b8ad 19bf 904e 633f 644d 883f 2d16 a03f
00000090: 5125 bbbf a96f 2140 7f42 f9be 2ce9 a03e
000000a0: c719 cebf c3d9 12bf 6d3e ddbe 3491 ebbe
000000b0: 39c8 85bf 5552 893f 4838 56be ef39 373f
000000c0: ca34 b5bd 3756 263f 3e7d 4cbf 0614 5a3a
000000d0: ebbd 4f3f 1bc1 d3be 9a19 7f3f 354d b43e
000000e0: ff4b 8dbe 9b0d 1040 deb1 e9bf d8b2 a6bd
000000f0: fda2 81bf 6ff2 65bf 9fca 39bf 1dc6 a1bf
00000100: 10aa 63be 64c7 19c0 6c5f b9bd 8c5f d1bc
00000110: e662 623f 3f35 923e 83f6 d0be 3402 a0bf
00000120: 35c7 ebbe 17f6 9cbe 5dfc df3f cd5f 7ebe
00000130: 2974 9b3c 7df1 7e3f

weight f4 [25, 9]
0.5301315 -0.89055574 -0.7079447 -0.5889807 -0.9501895 0.7152291 0.5296172 0.6420833
-0.8480735 0.24526104 -0.14759813 0.18664946 -0.63932097 -1.2906026 -0.058333643 -1.0856165
2.7134037 1.0440066 -0.32364494 0.04089098 0.31997743 1.114278 0.22201067 0.4674364
0.48920104 0.53660935 0.25674877 -0.6342517 -1.7626354 -0.03949033 -0.5144032 0.48309863
-0.30743793 -0.2224549 0.77577347 -0.9830642 0.32288888 -0.07356954 0.9570655 -0.4680408
1.0211058 -0.8073293 0.3531024 0.16124268 -0.12864478 0.39360374 -0.27235526 -1.13104
0.14128433 -1.1256914 -0.11040475 -0.29780602 -1.5077542 -0.40178388 1.1127445 0.14401804
-0.2625088 -1.3776804 -1.0578617 -0.72979814 1.4540354 0.23309012 0.68423045 -1.0634506
0.55178154 -1.8486996 -0.6442702 0.4766311 0.47712463 0.35643962 0.22399868 0.9023729
1.9768124 0.16092065 -0.104714476 -1.089484 0.39694983 0.5751464 0.7027721 -1.1702874
-0.83853734 -2.001561 1.2602895 0.017023051 1.0276961 0.87554437 -1.3298832 1.0600914
-0.014060083 -0.8892351 0.98713267 1.3942991 -0.7654468 0.56142837 0.36050087 -0.121726766
-1.4191238 0.9377876 -0.4280671 1.5908704 0.2899826 0.2916379 -0.14204417 0.7125787
-0.12845486 -0.5465117 -0.15167849 -0.59760684 -0.6305124 0.72758424 -0.7410725 0.9724332
0.44474056 1.3629384 -1.6006068 -1.9075679 0.16305113 -1.0699121 1.4601105 -0.12622663
-0.6074067 0.76332194 -0.07330869 1.0302154 0.87581295 -0.40087274 -0.8366435 0.16851899
0.03245609 0.6534131 0.0049487907 -0.8158357 -0.47191876 -0.34157953 0.5589208 -1.1946405
-0.70261186 -0.5508815 -0.11773078 1.3843933 0.63645184 -0.51046944 -0.3498393 -1.303967
-0.7052091 -0.47938943 -0.25610745 0.71565074 0.6255749 0.26191995 -2.0499756 0.5782025
0.24133958 -0.733602 -0.1823927 1.3440717 0.43748134 -0.334 -1.0007513 -0.4660562
-0.84206694 0.66661376 0.47541508 0.6213659 -0.012164981 -0.9389735 -0.22379571 -0.8750451
0.5256287 1.5599339 -0.9276063 0.836418 -0.68843037 1.3358092 1.4804821 -0.673888
0.6647084 -1.2739787 -0.6000835 -0.20644602 -0.5434573 0.72242457 0.15492207 -1.1160275
0.37041876 0.70619184 -1.250788 0.5388906 -1.2267212 -1.2837837 1.639462 -0.12797289
0.49362803 -1.0326546 -0.19880864 0.013200367 0.41669726 1.0474961 1.9857807 1.1400872
-1.6366264 -0.3832616 -1.1284759 1.1901369 0.3135716 0.40606534 0.027386269 -2.1933167
0.53562874 -1.6401327 0.5662996 1.5484767 1.0492257 1.286441 0.12934738 1.5808815
0.30653763 -1.2006932 0.70687616 0.0011583901 0.6082176 -0.8027605 -0.7211555 -0.1702829
-0.18496522
00000000: b3b6 073f 76fb 63bf dd3b 35bf 70c7 16bf
00000010: 9e3f 73bf 4119 373f fe94 073f 925f 243f
00000020: 581b 59bf b625 7b3e f723 17be 0921 3f3e
00000030: 8aaa 23bf 7732 a5bf 42ef 6ebd 7bf5 8abf
00000040: 68a8 2d40 02a2 853f cab4 a5be 4d7d 273d
00000050: 15d4 a33e a9a0 8e3f c456 633e d353 ef3e
00000060: 8f78 fa3e 3b5f 093f 9374 833e 525e 22bf
00000070: 099e e1bf 9dc0 21bd eeaf 03bf b458 f73e
00000080: 8168 9dbe 38cb 63be 1799 463f 18aa 7bbf
00000090: b151 a53e a1ab 96bd 3f02 753f 0ba3 efbe
000000a0: 98b3 823f 22ad 4ebf d6c9 b43e cd1c 253e
000000b0: 75bb 03be 6e86 c93e 2672 8bbe ebc5 90bf
000000c0: d7ac 103e a816 90bf e31b e2bd 087a 98be
000000d0: 17fe c0bf 9eb6 cdbe 696e 8e3f 7779 133e
000000e0: 8e67 86be d557 b0bf 0368 87bf 0dd4 3abf
000000f0: d51d ba3f 2daf 6e3e ba29 2f3f 261f 88bf
00000100: 8e41 0d3f 30a2 ecbf e4ee 24bf fe08 f43e
00000110: ae49 f43e 417f b63e e95f 653e e901 673f
00000120: 3008 fd3f 62c8 243e 8b74 d6bd 3674 8bbf
00000130: 023d cb3e cb3c 133f dfe8 333f facb 95bf
00000140: 62aa 56bf 9319 00c0 2b51 a13f ed73 8b3c
00000150: 8c8b 833f ad23 603f 9d39 aabf 13b1 873f
00000160: 435c 66bc e9a4 63bf bab4 7c3f 6578 b23f
00000170: 52f4 43bf c5b9 0f3f 9293 b83e e24b f9bd
00000180: d9a5 b5bf d912 703f 9c2b dbbe a4a1 cb3f
00000190: 9978 943e 9051 953e 0774 11be 8f6b 363f
000001a0: ac89 03be 31e8 0bbf 9b51 1bbe c3fc 18bf
000001b0: 4369 21bf f642 3a3f edb6 3dbf 62f1 783f
000001c0: 09b5 e33e c474 ae3f afe0 ccbf 2f2b f4bf
000001d0: e0f6 263e e1f2 88bf e7e4 ba3f 8e41 01be
000001e0: 017f 1bbf 1169 433f de22 96bd 19de 833f
000001f0: 4735 603f 313f cdbe 452e 56bf 3e90 2c3e
00000200: adf0 043d 1546 273f 7729 a23b 9cda 50bf
00000210: 569f f1be 83e3 aebe 6f15 0f3f fbe9 98bf
00000220: 5fde 33bf 9206 0dbf d61c f1bd cd33 b13f
00000230: 82ee 223f 20ae 02bf 231e b3be 64e8 a6bf
00000240: 9588 34bf 8872 f5be 8420 83be e334 373f
00000250: ad25 203f 5f1a 863e cd32 03c0 1405 143f
00000260: b921 773e 57cd 3bbf 27c5 3abe 8b0a ac3f
00000270: 8efd df3e 0c02 abbe 9e18 80bf eb9e eebe
00000280: b391 57bf 33a7 2a3f 9b69 f33e d611 1f3f
00000290: a14f 47bc 9160 70bf b42a 65be f502 60bf
000002a0: 9a8f 063f eaab c73f 9b77 6dbf 7d1f 563f
000002b0: f93c 30bf ccfb aa3f 7080 bd3f ed83 2cbf
000002c0: 542a 2a3f bc11 a3bf 129f 19bf 9666 53be
000002d0: 0520 0bbf d1f0 383f e4a3 1e3e fdd9 8ebf
000002e0: 87a7 bd3e fdc8 343f d219 a0bf bcf4 093f
000002f0: 3305 9dbf 0653 a4bf e4d9 d13f 530b 03be
00000300: d0bc fc3e 072e 84bf 7e94 4bbe 5a46 583c
00000310: 5859 d53e 5a14 863f 102e fe3f 61ee 913f
00000320: f97c d1bf dd3a c4be e671 90bf 6856 983f
00000330: 758c a03e cce7 cf3e 2b59 e03c 4d5f 0cc0
00000340: f71e 093f deef d1bf 03f9 103f 7c34 c63f
00000350: 074d 863f 19aa a43f a473 043e 535a ca3f
00000360: 80f2 9c3e 51b0 99bf d6f5 343f 1fd5 973a
00000370: 26b4 1b3f b681 4dbf a69d 38bf a45e 2ebe
00000380: 8667 3dbe

weight f4 [5, 3]
0.09459497 -0.85398537 0.35299784 0.07363158 -0.2667196 -0.09946855 -0.8064187 2.3018703
1.409547 -3.3623967 -1.4071699 -2.2275662 0.060566965 1.4416231 0.3083234
00000000: 02bb c13d c99e 5abf 22bc b43e 27cc 963d
00000010: 798f 88be 2bb6 cbbd 7571 4ebf d851 1340
00000020: 096c b43f 8231 57c0 251e b4bf 7290 0ec0
00000030: 1115 783d 1b87 b83f 91dc 9d3e

weight f4 [128, 31]
0.087215155 0.15501775 -0.004226352 -0.090294436 0.1330986 0.15168403 0.06874463 -0.056138724
0.19996439 0.030107744 -0.114826605 0.16621101 0.11090162 -0.07465083 0.09175003 -0.09129399
0.019228999 0.15929507 -0.003777257 -0.12890042 -0.08154037 -0.059691485 -0.008096855 0.038997125
0.26090428 -0.047717657 -0.20952599 -0.020910772 0.090741105 0.10081535 -0.15303825 -0.0322701
-0.080255225 -0.065411456 0.02379767 -0.100640625 0.054125983 0.17353159 0.0053638257 -0.105613604
-0.09185917 0.03722328 -0.11959277 0.09015156 -0.1677277 -0.13927327 -0.16949666 -0.014788658
0.11866437 -0.15071827 0.11737108 -0.10941269 0.12377404 0.00755418 -0.20750105 0.112228796
0.13168606 0.25594893 0.056280505 -0.13891308 0.14973186 -0.0012465768 0.09458256 -0.08799239
-0.073604815 -0.22592711 -0.06989691 0.019048806 -0.12934767 0.045803595 0.07520599 -0.020957243
-0.12572676 -0.10406224 -0.045584545 0.084903024 0.16762671 0.10732576 -0.009597105 0.086880594
-0.14615881 -0.1393237 0.043972887 -0.067594886 0.058564935 -0.15437621 -0.062907934 -0.17917451
0.099041566 -0.01792558 0.14648014 0.10815525 0.09808725 -0.0030402166 0.011148596 -0.05821863
-0.04977808 0.06492669 -0.12731338 0.15429427 -0.049482606 -0.17548421 -0.17245826 0.13676384
0.18592928 -0.14706714 0.12354921 0.083021656 0.119269885 0.1452218 -0.05999653 0.08283593
0.055724725 -0.056014273 0.07568762 -0.073668085 0.05404362 -0.03155297 -0.066067114 0.093309134
0.04002961 -0.094215184 0.0038770938 0.09243896 -0.009503192 0.011650002 -0.05695304 0.077820115
-0.136213 -0.10431983 -0.114750296 0.16364369 -0.06643099 0.013615853 -0.08377836 0.15643086
0.17383039 -0.13505608 -0.15252335 -0.13951406 -0.013570625 -0.06246805 -0.12403187 -0.072882
0.024380911 -0.08991496 0.06439246 -0.014315103 -0.09898837 0.017278943 0.1112836 -0.13197078
0.03730487 -0.066904634 0.18261644 -0.15926436 -0.15114456 0.17702961 -0.13264182 0.023667576
-0.0021749188 -0.036334425 -0.074230045 0.1212968 -0.018099196 -0.17919521 -0.1122371 -0.060035795
0.073055 -0.082870595 0.1695881 -0.030164212 -0.036001336 0.14701778 0.06847151 0.07905722
0.1557549 -0.06046755 -0.15632379 -0.040831763 0.16005087 -0.017400358 -0.19988139 0.06506811
0.18454932 -0.04156786 -0.13493033 -0.18622932 0.05862106 -0.030989915 -0.071432814 0.019657928
0.06275291 0.14279781 0.15334219 0.022630466 -0.1432691 -0.17459385 0.15696916 0.095422834
0.07068854 -0.16333331 0.17067987 0.16332988 0.169487 -0.16802749 -0.042110085 -0.1049807
0.16939923 -0.045757066 -0.11974044 0.10895532 -0.037564516 -0.10553336 -0.03650046 -0.014101336
-0.14855249 0.14278986 -0.06925966 0.06698595 0.13067979 0.103361815 0.016761746 0.12987752
0.029326081 -0.06716883 0.17020579 0.04208429 -0.17334642 -0.048408538 -0.10326577 0.14765806
-0.0026646361 -0.13881566 -0.032383595 0.118007295 0.03258094 0.056537572 0.008001579 0.079117246
-0.05507066 -0.07079141 -0.1872702 -0.11845185 0.096017934 -0.13124932 0.023223648 0.04106847
0.0010562283 -0.06756998 0.16959164 -0.14734164 0.14690657 -0.13919188 -0.039055496 0.10387311
00000000: dc9d b23d f9bc 1e3e 367d 8abb 4aec b8bd
00000010: 004b 083e 0f53 1b3e fcc9 8c3d b8f1 65bd
00000020: 77c3 4c3e 84a4 f63c 362a ebbd 3833 2a3e
00000030: 6320 e33d 89e2 98bd 71e7 bb3d 58f8 babd
00000040: 2286 9d3c 3f1e 233e db8b 77bb 79fe 03be
00000050: a3fe a6bd 0f7f 74bd aca8 04bc 73bb 1f3d
00000060: 3f95 853e 9773 43bd fb8d 56be 114d abbc
00000070: 79d6 b93d 4778 ce3d 0fb6 1cbe a72d 04bd
00000080: da5c a4bd 71f6 85bd 55f3 c23c ac1c cebd
00000090: 35b3 5d3d 44b2 313e 08c3 af3b f24b d8bd
000000a0: a920 bcbd 7077 183d 0eed f4bd 62a1 b83d
000000b0: cfc0 2bbe a79d 0ebe 8890 2dbe 214c 72bc
000000c0: 4e06 f33d e455 1abe 4060 f03d c313 e0bd
000000d0: 3e7d fd3d 0e89 f73b 287b 54be 36d8 e53d
000000e0: b6d8 063e bd0b 833e 6386 663d 3b3f 0ebe
000000f0: 4f53 193e 2d64 a3ba 80b4 c13d 5b35 b4bd
00000100: 1fbe 96bd 7059 67be 1c26 8fbd 3e0c 9c3c
00000110: b773 04be 8d9c 3b3d 9905 9a3d 86ae abbc
00000120: 84be 00be 951e d5bd dcb6 3abd a3e1 ad3d
00000130: 56a6 2b3e 9ccd db3d 2d3d 1dbc 74ee b13d
00000140: a8aa 15be dfaa 0ebe ea1c 343d 306f 8abd
00000150: c9e1 6f3d cc14 1ebe e0d5 80bd 8679 37be
00000160: 4ed6 ca3d aad8 92bc e4fe 153e 8080 dd3d
00000170: f8e1 c83d 5f3e 47bb 9aa8 363c a876 6ebd
00000180: 1ae4 4bbd 49f8 843d 705e 02be 51ff 1d3e
00000190: 46ae 4abd 22b2 33be e698 30be d20b 0c3e
000001a0: 3f64 3e3e c598 16be 5e07 fd3d 4207 aa3d
000001b0: c543 f43d 06b5 143e ecbe 75bd e2a5 a93d
000001c0: 9c3f 643d 396f 65bd 1c02 9b3d 4bdf 96bd
000001d0: d85c 5d3d b03d 01bd 324e 87bd dc18 bf3d
000001e0: 17f6 233d e4f3 c0bd d716 7e3b a350 bd3d
000001f0: 47b3 1bbc a6df 3e3c 9747 69bd 2760 9f3d
00000200: 6c7b 0bbe a3a5 d5bd 3402 ebbd 3692 273e
00000210: f90c 88bd 0715 5f3c fd93 abbd 692f 203e
00000220: 9800 323e 244c 0abe 152f 1cbe c6dc 0ebe
00000230: 5457 5ebc 7fde 7fbd 6c04 febd 2843 95bd
00000240: 7aba c73c 5625 b8bd 32e0 833d e589 6abc
00000250: 6aba cabd 928c 8d3c a8e8 e33d 5923 07be
00000260: fecc 183d 4c05 89bd ceff 3a3e 3216 23be
00000270: a4c5 1abe 4047 353e 42d3 07be 81e2 c13c
00000280: 1589 0ebb 68d3 14bd ec05 98bd 756a f83d
00000290: c444 94bc f37e 37be 91dc e5bd 18e8 75bd
000002a0: dc9d 953d 0fb8 a9bd 81a8 2d3e f01a f7bc
000002b0: 2376 13bd d48b 163e cb3a 8c3d c0e8 a13d
000002c0: 367e 1f3e d2ac 77bd 5813 20be 353f 27bd
000002d0: 60e4 233e 328b 8ebc b5ad 4cbe 6e42 853d
000002e0: 7ffa 3c3e 0f43 2abd 2d2b 0abe e6b2 3ebe
000002f0: a31c 703d 90de fdbc 5e4b 92bd aa09 a13c
00000300: 9984 803d 9739 123e bc05 1d3e 8763 b93c
00000310: 23b5 12be bbc8 32be 86bc 203e 0c6d c33d
00000320: 27c5 903d d940 27be b4c6 2e3e f33f 273e
00000330: 008e 2d3e 660f 2cbe a07b 2cbd 1f00 d7bd
00000340: fe76 2d3e c36b 3bbd 7a3a f5bd f823 df3d
00000350: 40dd 19bd e021 d8bd 8281 15bd 4a09 67bc
00000360: 251e 18be 8137 123e 02d8 8dbd ee2f 893d
00000370: ecd0 053e 5caf d33d ee4f 893c 9dfe 043e
00000380: 403d f03c d08f 89bd 6d4a 2e3e 9460 2c3d
00000390: b981 31be 0848 46bd 017d d3bd ad33 173e
000003a0: 2da1 2ebb b125 0ebe a9a4 04bd cfad f13d
000003b0: 9773 053d f193 673d 0e19 033c 3908 a23d
000003c0: c691 61bd 16fb 90bd c2c3 3fbe e296 f2bd
000003d0: 0da5 c43d 3966 06be 853f be3c 6937 283d
000003e0: 2471 8a3a 2162 8abd 6ea9 2d3e bae0 16be
000003f0: ad6e 163e 5188 0ebe a8f8 1fbd 6dbb d43d

bias f4 [128]
0.070217095 0.14618087 -0.05284433 -0.03552597 0.035549372 -0.04999039 -0.06212244 -0.18408577
0.13493252 0.16715181 -0.1625026 -0.07738129 -0.14665931 -0.06513969 0.16062243 0.09459896
-0.025424717 0.102028206 0.040084396 0.12307829 -0.12496073 0.059050877 -0.16632831 -0.103834435
-0.05478734 0.011142185 -0.15735598 -0.017585743 0.039758254 -0.0976441 0.08640209 0.14749628
-0.030796038 -0.07416663 -0.16655262 -0.13659701 -0.109512724 -0.13073635 -0.0706685 0.123065956
0.050426375 0.15338875 0.17770274 -0.06848407 -0.08400207 0.032522235 -0.11158478 0.094867595
-0.028753329 -0.15919766 -0.12104711 -0.10568738 0.049437515 0.14283831 0.14569655 -0.041049436
-0.11479869 -0.07264106 -0.115460925 -0.018461451 -0.141918 0.09808344 -0.16193119 -0.11828158
0.14957711 -0.13292648 0.054964986 0.12675679 0.17693047 0.115461364 -0.06086785 0.08967102
0.0040062955 -0.0368127 -0.020618958 0.040963184 0.14382324 0.08541494 0.09518917 0.026973369
-0.008146017 0.077334896 0.06283692 -0.15776184 0.017033279 -0.05746121 -0.07327761 0.106652655
0.047555033 0.038080785 -0.08717555 0.116029344 0.17248057 0.02828464 0.06006718 -0.13309357
0.11380049 0.042312786 0.083326675 0.08670359 -0.035461273 0.015892316 0.18015279 0.14177382
-0.1094422 0.13514313 0.16541298 0.015874274 -0.14524668 0.025130251 -0.052501 0.14945832
-0.16904709 0.06618007 0.039470937 -0.008900188 0.1069864 0.009182567 -0.13229537 -0.10370262
-0.08338704 0.040621813 0.059525374 -0.020564336 -0.08136 0.07936132 -0.1883204 0.120467775
00000000: fbcd 8f3d 70b0 153e 4c73 58bd ae83 11bd
00000010: 389c 113d b9c2 4cbd 1a74 7ebd fb80 3cbe
00000020: c02b 0a3e d829 2b3e 1567 26be 157a 9ebd
00000030: dc2d 16be f567 85bd 357a 243e 19bd c13d
00000040: 7f47 d0bc 2af4 d03d 892f 243d 7810 fc3d
00000050: 69eb ffbd 55df 713d f851 2abe 26a7 d4bd
00000060: b168 60bd b68d 363c ed21 21be fa0f 90bc
00000070: 8dd9 223d a1f9 c7bd 94f3 b03d 4409 173e
00000080: f947 fcbc ade4 97bd c58c 2abe 16e0 0bbe
00000090: 3548 e0bd c0df 05be a6ba 90bd 010a fc3d
000000a0: e38b 4e3d f111 1d3e b5f7 353e 6041 8cbd
000000b0: 4709 acbd 0936 053d 9086 e4bd f149 c23d
000000c0: 1a8c ebbc b604 23be 8ce7 f7bd a072 d8bd
000000d0: fe7e 4a3d 3544 123e 7a31 153e 7423 28bd
000000e0: 931b ebbd d6c4 94bd c776 ecbd 783c 97bc
000000f0: f452 11be f8df c83d 4ad1 25be 9d3d f2bd
00000100: be2a 193e e11d 08be f722 613d 88cc 013e
00000110: 432d 353e 0277 ec3d 9150 79bd 71a5 b73d
00000120: 3e47 833b eac8 16bd 17e9 a8bc 03c9 273d
00000130: 6646 133e 07ee ae3d 8af2 c23d 41f7 dc3c
00000140: df76 05bc c261 9e3d a5b0 803d 528c 21be
00000150: 6089 8b3c 725c 6bbd 9212 96bd b56c da3d
00000160: 11c9 423d 99fa 1b3d 1889 b2bd cba0 ed3d
00000170: bf9e 303e 30b5 e73c 0109 763d ae49 08be
00000180: 3b10 e93d 2c50 2d3d 2da7 aa3d a791 b13d
00000190: d73f 11bd 9a30 823c f979 383e 282d 113e
000001a0: 3b23 e0bd f662 0a3e 0562 293e c40a 823c
000001b0: 8cbb 14be f5dd cd3c 4a0b 57bd 9a0b 193e
000001c0: ae1a 2dbe 6b89 873d 47ac 213d 18d2 11bc
000001d0: b01b db3d 7a72 163c 7078 07be 0a62 d4bd
000001e0: d3c6 aabd 0f63 263d e1d0 733d 8a76 a8bc
000001f0: 12a0 a6bd 3088 a23d 10d7 40be cfb7 f63d

weight f4 [128, 128]
0.040440645 0.067216575 0.06702795 0.017209167 0.014263234 -0.054971732 0.07071762 0.047612272
-0.01366495 0.03988482 -0.013315765 0.07467612 0.026516013 0.07447742 -0.022269212 0.08236036
0.057737608 0.052959815 0.008969159 0.06424104 0.09696774 0.009599029 -0.067423515 0.081699744
-0.016259123 0.0025104492 0.06282386 0.04191731 0.038508862 -0.0018045456 0.011810854 0.07988297
0.07253119 0.06241666 0.060861148 -0.061565347 0.027015455 -0.067789614 0.051796675 -0.12888208
-0.094269246 -0.0853956 0.026282739 0.015200221 -0.0062025646 0.016041026 -0.015011802 -0.016053088
-0.06082216 -0.0048433496 -0.042277604 -5.3961616e-05 0.07262349 -0.06184022 0.042566877 -0.061810378
-0.043206386 0.02504373 0.0541017 0.09489333 0.0025379744 -0.026543595 -0.02261939 -0.0150822
-0.044223428 -0.06722515 -0.034271847 0.0044526653 -0.0614491 -0.05825592 0.056736544 0.07327908
-0.009096371 -0.0477522 -0.03083331 0.0029351544 0.042024482 -0.02190501 -0.07398259 -0.01636901
-0.040796187 0.05821948 -0.03510878 0.028983543 0.012608454 -0.0072993515 -0.07999761 0.09226895
-0.005440641 0.06964163 -0.0422158 -0.056756772 -0.055437252 -0.033947315 -0.015108378 -0.044532668
0.081072114 -0.08640271 0.05286534 0.077283815 0.015006007 -0.044465464 0.011911105 0.03250269
0.053540893 -0.037128996 -0.046305608 -0.05566975 -0.08235453 0.030388955 -0.070668 -0.021914033
0.016634569 0.086669326 0.111951694 -0.062000602 0.08639451 0.099049 0.09380235 0.021154687
0.047530595 0.04949208 -0.06704151 -0.04084733 -0.010462503 -0.07356283 -0.030033017 0.070081376
0.05164989 0.08153068 0.013322541 -0.031293802 0.054045945 0.020446213 0.015005454 -0.020388033
0.05925672 -0.057696007 0.093711875 0.062240824 0.027583634 0.07532955 0.051797334 -0.021501807
-0.07954289 0.015984692 0.05967825 -0.0023648553 0.048603885 0.06493426 0.05323227 0.054979715
0.015737789 0.022318391 0.0063871494 -0.010841515 -0.05124643 0.046660103 0.09858313 0.034227755
0.0018865458 -0.027878202 -0.092085846 -0.008499218 -0.051308233 -0.06406869 -0.028616782 -0.01870115
0.014458759 -0.06923063 0.08213412 -0.089412734 -0.048082784 -0.044774484 0.008812432 0.04368973
-0.00838395 0.013826473 -0.021852857 -0.041156765 -0.005604001 0.015174305 -0.081738085 -0.06692944
0.06887875 0.049587674 -0.0022040938 0.0037131752 0.011234139 0.0011946295 -0.043761447 -0.03468331
-0.06435531 -0.059202917 -0.0012179168 -0.023939244 0.072870016 0.024132797 -0.012822603 -0.0172518
0.041385073 -0.018620484 -0.025817158 -0.02442359 -0.060284913 -0.0144284405 -0.10440455 -0.041136205
-0.060529515 0.072703645 -0.08341734 0.07914902 0.018297397 -0.06507348 0.059858013 -0.027255094
-0.091536954 -0.00990569 0.0522019 -0.07971995 -0.0011980654 0.041643333 -0.045221478 0.010081889
-0.034364294 -0.06032958 0.06640296 -0.06189827 0.0007742961 0.03533497 -0.034992352 0.057013843
-0.062530205 0.087452 0.044526923 -0.00073703565 -0.07528648 0.006720093 0.03667692 -0.04641858
-0.0031642257 -0.08409446 -0.08111324 -0.021788266 0.073616244 -0.003922897 0.061139952 -0.038446177
-0.024588667 0.0014329744 -0.035877924 0.0576471 0.057333015 -0.07766602 0.02417391 -0.052585293
00000000: 17a5 253d d8a8 893d f345 893d 3dfa 8c3c
00000010: 57b0 693c 0a2a 61bd 66d4 903d 1605 433d
00000020: f4e2 5fbc 445e 233d 5e2a 5abc cbef 983d
00000030: 1c38 d93c 9e87 983d ec6d b6bc 8cac a83d
00000040: 457e 6c3d 64ec 583d 61f3 123c ce90 833d
00000050: 0697 c63d 3f45 1d3c 5715 8abd 3252 a73d
00000060: da31 85bc 5986 243b cca9 803d 7cb1 2b3d
00000070: 78bb 1d3d 8186 ecba 5082 413c af99 a33d
00000080: 3c8b 943d 9da8 7f3d 8a49 793d f22b 7cbd
00000090: 844f dd3c 48d5 8abd c028 543d aaf9 03be
000000a0: 3c10 c1bd e3e3 aebd e64e d73c 590a 793c
000000b0: e23e cbbb 7868 833c 10f4 75bc c481 83bc
000000c0: a820 79bd f6b4 9ebb 482b 2dbd d854 62b8
000000d0: a0bb 943d 2c4c 7dbd 9b5a 2e3d e12c 7dbd
000000e0: 2ef9 30bd 8228 cd3c bf99 5d3d 6f57 c23d
000000f0: 2554 263b f471 d9bc 4d4c b9bc 551b 77bc
00000100: a023 35bd 57ad 89bd a360 0cbd aae7 913b
00000110: 0db2 7bbd c29d 6ebd 9464 683d 5813 963d
00000120: f208 15bc d097 43bd 2396 fcbc b85b 403b
00000130: dd21 2c3d 2372 b3bc 2f84 97bd 4d18 86bc
00000140: e719 27bd 8d77 6e3d 39ce 0fbd e56e ed3c
00000150: b093 4e3c 662f efbb c9d5 a3bd 81f7 bc3d
00000160: 6847 b2bb 45a0 8e3d 7aea 2cbd ca79 68bd
00000170: 2c12 63bd 570c 0bbd 2189 77bc e367 36bd
00000180: 2309 a63d e7f3 b0bd 5489 583d fa46 9e3d
00000190: c1db 753c 6b21 36bd cc26 433c 8a21 053d
000001a0: b24d 5b3d 9314 18bd f3aa 3dbd f705 64bd
000001b0: 7ea9 a8bd 42f2 f83c 62ba 90bd 0f85 b3bc
000001c0: 3845 883c b07f b13d ee46 e53d 58f4 7dbd
000001d0: 9bef b03d 34da ca3d 721b c03d 984c ad3c
000001e0: 71af 423d 35b8 4a3d 0f4d 89bd 884f 27bd
000001f0: eb6a 2bbc 1ca8 96bd cd07 f6bc d386 8f3d
00000200: d68e 533d 8ff9 a63d c946 5a3c ee2d 00bd
00000210: 485f 5d3d d17e a73c 70d9 753c ce04 a7bc
00000220: 2db7 723d a652 6cbd 03ec bf3d 3cf0 7e3d
00000230: 13f7 e13c 6146 9a3d 7129 543d 8f24 b0bc
00000240: 62e7 a2bd 54f2 823c 2e71 743d b0fb 1abb
00000250: de14 473d 41fc 843d 150a 5a3d 6932 613d
00000260: 89ec 803c 0fd5 b63c 4b4b d13b 9ca0 31bc
00000270: c7e7 51bd aa1e 3f3d f4e5 c93d 6732 0c3d
00000280: f945 f73a d460 e4bc 8197 bcbd 4e40 0bbc
00000290: 9528 52bd 7236 83bd be6d eabc 2733 99bc
000002a0: 6ee4 6c3c cac8 8dbd ef35 a83d 061e b7bd
000002b0: 74f2 44bd 7365 37bd 0562 103c 01f4 323d
000002c0: d65c 09bc 6e88 623c c304 b3bc ff93 28bd
000002d0: c5a1 b7bb a69d 783c 4c66 a7bd 4d12 89bd
000002e0: 4d10 8d3d 721c 4b3d 8f72 10bb be58 733b
000002f0: 650f 383c 1d95 9c3a 343f 33bd 1610 0ebd
00000300: b7cc 83bd c27e 72bd 82a2 9fba 3c1c c4bc
00000310: e03c 953d 25b2 c53c e515 52bc a653 8dbc
00000320: 6583 293d fc89 98bc 817e d3bc fb13 c8bc
00000330: 50ed 76bd 4465 6cbc 0dd2 d5bd 707e 28bd
00000340: cced 77bd a6e5 943d b6d6 aabd e218 a23d
00000350: 6ce4 953c 3f45 85bd ad2d 753d 1346 dfbc
00000360: ba77 bbbd 7a4b 22bc a9d1 553d 3744 a3bd
00000370: 6708 9dba 3392 2a3d 283a 39bd 822e 253c
00000380: 93c1 0cbd 261c 77bd 46fe 873d 0a89 7dbd
00000390: 22fa 4a3a 67bb 103d 2454 0fbd 5987 693d
000003a0: d60f 80bd 091a b33d dd61 363d a035 41ba
000003b0: cc2f 9abd 3a34 dc3b 8a3a 163d 6921 3ebd
000003c0: e65e 4fbb b739 acbd b31e a6bd 4e7d b2bc
000003d0: 1dc4 963d a58b 80bb e36d 7a3d bd79 1dbd
000003e0: 2c6e c9bc a4d2 bb3a bbf4 12bd 5e1f 6c3d
000003f0: 06d6 6a3d 5d0f 9fbd 5d08 c63c ad63 57bd

bias f4 [128]
0.05864092 -0.012996418 0.043382306 -0.011813716 0.06638691 -0.0415066 -0.020790707 0.049280398
-0.02755521 0.07502755 0.07284187 -0.06382019 0.03954025 -0.04841999 0.033203162 -0.06810414
0.024188416 0.03888125 0.063760765 -0.020541672 -0.05139607 -0.014538 0.0830914 0.0046011265
0.07321316 0.014379559 -0.09748999 0.058913276 -0.040748525 0.038985897 -0.017835923 -0.033535887
0.05132576 0.008247637 -0.088420555 0.08724631 0.087477945 -0.08787001 0.035123233 0.0064752237
-0.043440197 -0.028314508 -0.06958107 -0.07308136 0.05257004 -0.026564037 0.0043788147 0.022333866
0.053005107 -0.029207408 -0.0075370017 -0.036021024 0.034679886 0.0036556928 0.084505275 0.008248455
-0.060427114 0.056869756 0.053690977 -0.014600419 -0.005913754 0.060146976 0.012523298 -0.005365125
0.06283036 0.059569143 0.004708382 0.06534407 0.0074510607 -0.038178764 0.07123675 0.057797648
0.044732302 -0.00060035137 0.020098288 -0.070759006 0.02661236 0.04457184 -0.029137975 -0.062586986
0.008696507 0.06431099 -0.052058525 0.03726276 -0.042154934 -0.030781886 0.089627616 -0.062873006
0.07757145 0.061108015 0.0115623865 -0.04350921 -0.005455555 0.07806948 -0.045071196 0.09189474
0.0502444 -0.07224641 0.08114321 0.022668598 -0.0059917453 -0.04778882 0.101975024 -0.06340587
-0.05016145 -0.001464267 -0.012631205 -0.04934447 0.057725932 -0.021019733 0.027925773 -0.015738528
-0.027104098 -0.09245011 0.078279555 0.05335326 0.08105756 -0.061358467 0.024244685 -0.043161128
-0.055893783 0.005699215 0.038885925 0.038155627 -0.059090417 -0.061770413 0.093871295 0.046901092
00000000: 7631 703d eeee 54bc a5b1 313d 518e 41bc
00000010: dcf5 873d d302 2abd 4651 aabc 3eda 493d
00000020: 77bb e1bc 0ba8 993d 1e2e 953d 29b4 82bd
00000030: f5f4 213d 0a54 46bd 0a00 083d 2f7a 8bbd
00000040: c926 c63c f241 1f3d 0195 823d 0247 a8bc
00000050: af84 52bd cb30 6ebc d32b aa3d 0cc5 963b
00000060: c8f0 953d 3e98 6b3c d5a8 c7bd 0c4f 713d
00000070: ede7 26bd adaf 1f3d a41c 92bc ed5c 09bd
00000080: f63a 523d 1921 073c d615 b5bd 32ae b23d
00000090: a327 b33d 31f5 b3bd 61dd 0f3d 1d2e d43b
000000a0: 59ee 31bd d4f3 e7bc 8580 8ebd aeab 95bd
000000b0: af53 573d d39c d9bc 297c 8f3b 83f5 b63c
000000c0: e21b 593d 6044 efbc f4f8 f6bb c88a 13bd
000000d0: 7f0c 0e3d 5994 6f3b 1a11 ad3d 8724 073c
000000e0: 6c82 77bd 43f0 683d 12eb 5b3d 9936 6fbc
000000f0: 2ac8 c1bb ad5c 763d 852e 4d3c eecd afbb
00000100: 34ad 803d c6fe 733d c548 9a3b 1dd3 853d
00000110: 0728 f43b 5661 1cbd 93e4 913d 3abd 6c3d
00000120: 3839 373d e660 1dba 2aa5 a43c 19ea 90bd
00000130: 2a02 da3c f690 363d c3b2 eebc 9b2d 80bd
00000140: cb7b 0e3c 7bb5 833d 523b 55bd d6a0 183d
00000150: a7aa 2cbd 4b2a fcbc af8e b73d 90c3 80bd
00000160: c8dd 9e3d 664c 7a3d 2a70 3d3c b736 32bd
00000170: 83c4 b2bb e4e2 9f3d 939c 38bd 4f33 bc3d
00000180: 12cd 4d3d edf5 93bd 692e a63d 7fb3 b93c
00000190: 6756 c4bb 36be 43bd 48d8 d03d f0da 81bd
000001a0: 1876 4dbd a6ec bfba 1df3 4ebc 6d1d 4abd
000001b0: 0772 6c3d 9331 acbc 97c4 e43c 16ee 80bc
000001c0: 6a09 debc 7c56 bdbd 0851 a03d f388 5a3d
000001d0: 8201 a63d 0453 7bbd ca9c c63c b9c9 30bd
000001e0: e1f0 64bd 7bc0 ba3b d946 1f3d 1349 1c3d
000001f0: cb08 72bd f902 7dbd 983f c03d 5c1b 403d

weight f4 [128, 128]
-0.013037718 0.09220123 -0.0593827 -0.006444092 0.03681586 -0.01852718 0.072369285 0.08189789
-0.059542242 -0.0028742268 0.034716822 0.0222962 -0.03126344 -0.05858148 0.022604259 0.07222571
-0.04298113 0.08042408 -0.008947697 0.09351333 0.011392245 -0.0076911324 0.026381 0.07548606
-0.013536291 0.07120364 0.057884257 -0.07509192 0.07132749 -0.04901029 0.04933942 -0.048868593
0.042245276 -0.002543619 0.08367177 0.094352946 0.025847748 -0.070308134 -0.009739559 0.013932266
-0.043056168 0.047351915 -0.06917366 0.058533262 -0.063458905 -0.0026698431 0.028751535 0.06567006
-0.0045056213 -0.04384345 0.093971945 0.039386857 0.08125772 -0.05043155 -0.043419965 -0.036208678
0.06576853 -0.051642362 0.083666615 -0.008437287 0.024816856 0.015306132 -0.07047274 0.07389763
-0.069446094 0.0010466404 0.028155694 -0.026448032 -0.032548033 -0.031456664 0.071774244 -0.028016236
-0.017597761 0.06550905 -0.07415043 0.034275573 0.047690533 0.0034857995 0.08486381 -0.020390658
0.044839658 0.0008015892 0.023103973 -0.0052532265 -0.008798671 -0.077028535 0.020712962 0.06575013
0.06804359 0.069870725 0.03595967 0.03606225 0.03408665 -0.05871133 -0.0051084193 0.06802463
0.03756928 0.07168699 0.08017681 0.016615119 -0.0070243115 -0.02764096 0.027475806 -0.009254489
-0.049864274 -0.038599275 0.046730347 -0.039726656 -0.023258721 -0.0036412685 -0.05246968 0.022180736
-0.055247437 -0.029866954 -0.061854005 0.08472216 0.08475404 0.08556463 0.08910427 -0.008162195
-0.01823187 0.015582591 0.031931613 -0.0218623 -0.084157184 -0.01804874 0.08854644 0.055407077
0.075476125 0.081574455 0.00034176777 0.012797502 -0.030105228 0.033085335 -0.012047137 -0.041184615
-0.04164088 -0.022797469 0.0160185 -0.06501118 -0.015022752 0.08261143 0.016742116 0.035585955
0.024425557 0.07964017 0.08607184 0.10371899 -0.024417575 0.060591143 0.0059611 0.0044180155
-0.031926274 -0.033867564 -0.044285517 -0.011311449 -0.0119287195 -0.006790275 0.054591633 -0.00805708
0.07149469 -0.00010707369 0.08511387 0.051623814 0.03711572 -0.0006976516 -0.003504953 0.009526491
-0.056647494 0.09421703 0.020241221 -0.03916522 -0.021093484 0.020408286 -0.07069864 -0.03268652
-0.060032643 0.10856783 0.088717505 0.049779788 0.093577325 -0.069173366 -0.048739597 0.06737998
0.056395784 0.013054806 0.055162653 -0.06006886 0.052173555 0.04681061 -0.042664796 -0.035363674
0.054014385 -0.011001663 -0.11155178 -0.022218017 0.039505884 0.047326043 0.028495008 -0.07893044
0.07206625 0.09282107 -0.052567393 0.014378586 0.0062760576 0.017788747 0.08207181 -0.099299565
-0.0020837607 0.08092698 0.065951504 0.06788462 0.09482179 -0.0733287 0.03001938 0.004986451
-0.031944733 -0.066212386 -0.03340118 -0.0102631515 0.0976225 0.10168519 0.08258675 0.039814256
0.007999988 -0.04187814 0.009691012 -0.048825033 -0.0063423025 -0.04897349 -0.061262745 -0.022729052
-0.07815831 0.04387883 -0.042831935 0.06409854 -0.03868951 0.06694744 0.06346084 0.07263292
-0.0082570845 -0.049959242 -0.01030294 0.057796404 -0.047246307 0.076730035 -0.0011744254 -0.07137733
0.108295836 -0.056713894 0.08990231 0.10247738 0.012485107 -0.024764227 0.0778941 0.11130976
00000000: 279c 55bc 00d4 bc3d 463b 73bd f628 d3bb
00000010: 3acc 163d 50c6 97bc 5936 943d 15ba a73d
00000020: 91e2 73bd 865d 3cbb 3a33 0e3d 85a6 b63c
00000030: 180e 00bd 22f3 6fbd 912c b93c 13eb 933d
00000040: fb0c 30bd 61b5 a43d 5c99 12bc eb83 bf3d
00000050: 8aa6 3a3c e505 fcbb f81c d83c 6f98 9a3d
00000060: 52c7 5dbc 37d3 913d 0b18 6d3d cbc9 99bd
00000070: 2614 923d 04bf 48bd 2218 4a3d 6f2a 48bd
00000080: 6209 2d3d d8b2 26bb 1b5c ab3d 1e3c c13d
00000090: a8be d33c b6fd 8fbd ac92 1fbc 2944 643c
000000a0: aa5b 30bd 15f4 413d ebaa 8dbd 93c0 6f3d
000000b0: bef6 81bd 89f8 2ebb 5788 eb3c 067e 863d
000000c0: e4a3 93bb 3095 33bd 5d74 c03d 1d54 213d
000000d0: 736a a63d 5091 4ebd 22d9 31bd 8d4f 14bd
000000e0: a7b1 863d f186 53bd 6759 ab3d 8c3c 0abc
000000f0: b84c cb3c 92c6 7a3c 0354 90bd a457 973d
00000100: c139 8ebd 6d2f 893a c5a6 e63c 8ba9 d8bc
00000110: 1651 05bd b4d8 00bd 60fe 923d 4e82 e5bc
00000120: 2e29 90bc 9c29 863d 2edc 97bd 8b64 0c3d
00000130: 2657 433d 0372 643b 14cd ad3d 4f0a a7bc
00000140: caa9 373d be21 523a 8b44 bd3c 4223 acbb
00000150: 4d28 10bc 23c1 9dbd 3bae a93c 01a8 863d
00000160: 705a 8b3d 6218 8f3d 724a 133d 03b6 133d
00000170: 719e 0b3d 4b7b 70bd 8764 a7bb 7f50 8b3d
00000180: 3fe2 193d a1d0 923d bd33 a43d 6e1c 883c
00000190: 322c e6bb 4b6f e2bc f114 e13c 24a0 17bc
000001a0: 7b3e 4cbd 461a 1ebd 5268 3f3d 6bb8 22bd
000001b0: 1389 bebc 59a2 6ebb 72ea 56bd 60b4 b53c
000001c0: 234b 62bd 8bab f4bc a05a 7dbd d082 ad3d
000001d0: 8793 ad3d 823c af3d 4d7c b63d baba 05bc
000001e0: 015b 95bc 204e 7f3c b9ca 023d 9118 b3bc
000001f0: 9a5a acbd f4da 93bc d657 b53d 88f2 623d
00000200: 3a93 9a3d 8210 a73d 4b2f b339 9dac 513c
00000210: 3d9f f6bc 7d84 073d 5b61 45bc 33b1 28bd
00000220: a18f 2abd c2c1 babc 3b39 833c 9524 85bd
00000230: fd21 76bc 2e30 a93d c326 893c 94c2 113d
00000240: 1b18 c83c 631a a33d 6f46 b03d 9f6a d43d
00000250: 5e07 c8bc 6b2e 783d 5555 c33b 00c5 903b
00000260: 20c5 02bd b7b8 0abd bb64 35bd a853 39bc
00000270: ad70 43bc f580 debb 7a9b 5f3d d801 04bc
00000280: cf6b 923d c08c e0b8 2e50 ae3d 7e73 533d
00000290: a706 183d 9be2 36ba 5bb3 65bb 0015 1c3c
000002a0: 3407 68bd dcf4 c03d ebd0 a53c b66b 20bd
000002b0: 3ecc acbc 472f a73c 73ca 90bd 4de2 05bd
000002c0: cae4 75bd cf58 de3d 86b1 b53d e4e5 4b3d
000002d0: 78a5 bf3d c4aa 8dbd 2ca3 47bd 84fe 893d
000002e0: 44ff 663d d3e3 553c 3cf2 613d c40a 76bd
000002f0: f0b3 553d 7bbc 3f3d 48c1 2ebd 80d9 10bd
00000300: 303e 5d3d 5240 34bc 4275 e4bd 8f02 b6bc
00000310: ecd0 213d f4d8 413d 5d6e e93c 48a6 a1bd
00000320: 7897 933d f918 be3d e850 57bd 2994 6b3c
00000330: 63a7 cd3b b5b9 913c 4415 a83d 925d cbbd
00000340: b48f 08bb 0bbd a53d 9511 873d 1707 8b3d
00000350: ed31 c23d 5c2d 96bd 34eb f53c 6265 a33b
00000360: 7bd8 02bd 5c9a 87bd adcf 08bd c726 28bc
00000370: 4eee c73d 5340 d03d 3e23 a93d 4614 233d
00000380: 6212 033c 6a88 2bbd 0dc7 1e3c c2fc 47bd
00000390: 17d3 cfbb 6d98 48bd a5ee 7abd 4732 babc
000003a0: 7711 a0bd 4aba 333d 8a70 2fbd 1846 833d
000003b0: e478 1ebd bd1b 893d c2f7 813d 92c0 943d
000003c0: b948 07bc 10a2 4cbd aacd 28bc ecbb 6c3d
000003d0: 5885 41bd a324 9d3d 2def 99ba 472e 92bd
000003e0: 35ca dd3d d44c 68bd b41e b83d a9df d13d
000003f0: 568e 4c3c 59de cabc f186 9f3d 5ff6 e33d

bias f4 [128]
0.05046713 0.052551948 -0.0763624 -0.024058286 0.014148142 0.002975257 -0.031052427 -0.06275662
0.033449516 0.070267476 0.020359274 0.047047373 -0.047514074 -0.08044957 -0.049044233 0.0024277212
-0.07005205 0.08275476 0.025725115 0.040764783 -0.015951095 0.081515305 -0.049803954 -0.026183171
0.04148157 0.010059351 -0.043413106 -0.040955298 0.05626935 -0.019653678 0.07046058 -0.054779325
0.049718533 0.08243912 0.08784536 -0.058329478 -0.043627076 0.06322981 -0.0006079156 0.04581593
0.014278809 -0.043558285 0.022735294 -0.01319337 0.052029643 -0.06385674 0.06514946 0.0014370042
-0.010966971 0.07076067 0.041863937 0.036906168 0.07152729 0.058332626 0.031946406 -0.01471257
0.010005994 -0.017797653 -0.011750332 0.053314026 -0.09112542 -0.069601595 -0.0057948674 0.056666072
0.045566827 0.025321398 -0.009240019 -0.066228256 -0.027635947 0.07190931 0.030967107 -0.008056065
0.0036244153 0.070119746 -0.016743945 -0.014664634 0.05535322 -0.06884083 0.062096007 0.05316435
0.06817343 -0.02770663 -0.065449335 0.08473593 0.0896557 -0.07385422 0.07664127 -0.007796457
0.057927392 0.005740798 -0.013162876 0.056372084 0.0023100746 -0.0410041 -0.05861909 0.057793625
0.024791164 -0.026880255 0.049602963 -0.0723542 0.08751956 0.017943284 0.04972035 -0.016045399
0.063632414 0.05425121 0.081289336 -0.027349379 -0.05256884 0.054038133 0.02078531 0.00027873414
-0.035424642 0.047428366 0.030309215 0.04526879 -0.009535624 0.0344452 0.06731801 -0.09106286
-0.002911864 -0.07655673 0.06161742 -0.032455977 0.02654761 0.057290696 -0.025180226 0.06958893
00000000: 9fb6 4e3d b640 573d e463 9cbd e215 c5bc
00000010: 9ccd 673c 88fc 423b a961 febc 8b86 80bd
00000020: 5c02 093d 65e8 8f3d 7ec8 a63c bfb4 403d
00000030: 1e9e 42bd bfc2 a4bd 9be2 48bd 671a 1f3b
00000040: 7377 8fbd 547b a93d 7abd d23c f9f8 263d
00000050: dfab 82bc 7ff1 a63d 3bff 4bbd 177e d6bc
00000060: 94e8 293d facf 243c f1d1 31bd bec0 27bd
00000070: b17a 663d c000 a1bc a34d 903d 4960 60bd
00000080: a9a5 4b3d d7d5 a83d 45e8 b33d e4ea 6ebd
00000090: 4eb2 32bd a17e 813d 865c 1fba 7ca9 3b3d
000000a0: aaf1 693c 2c6a 32bd 5e3f ba3c 0129 58bc
000000b0: 091d 553d 53c7 82bd 156d 853d dc59 bc3a
000000c0: cfae 33bc f8ea 903d 8579 2b3d ec2a 173d
000000d0: e67c 923d 31ee 6e3d 3cda 023d fe0c 71bc
000000e0: 2ef0 233c 62cc 91bc 7784 40bc cf5f 5a3d
000000f0: f79f babd 488b 8ebd dfe2 bdbb af1a 683d
00000100: 48a4 3a3d d26e cf3c 7363 17bc aea2 87bd
00000110: c864 e2bc 3045 933d bbae fd3c 96fd 03bc
00000120: 9987 6d3b f19a 8f3d 992a 89bc ef43 70bc
00000130: 0fba 623d 6cfc 8cbd 6258 7e3d ddc2 593d
00000140: 839e 8b3d 04f9 e2bc 4d0a 86bd 088a ad3d
00000150: 689d b73d e240 97bd 19f6 9c3d 6c79 ffbb
00000160: 4645 6d3d 4e1d bc3b 1aa9 57bc 6ae6 663d
00000170: 9f64 173b eaf3 27bd 921a 70bd 02b9 6c3d
00000180: d716 cb3c fb33 dcbc 7a2c 4b3d 702e 94bd
00000190: 743d b33d cbfd 923c 91a7 4b3d a471 83bc
000001a0: b651 823d 8436 5e3d 067b a63d ce0b e0bc
000001b0: 6d52 57bd 1757 5d3d f445 aa3c 1023 9239
000001c0: 6e19 11bd 3f44 423d 084b f83c c46b 393d
000001d0: 4e3b 1cbc 6916 0d3d 06de 893d 2a7f babd
000001e0: f9d4 3ebb c6c9 9cbd 8c62 7c3d 8ff0 04bd
000001f0: 607a d93c a6a9 6a3d c346 cebc a484 8e3d

weight f4 [128, 128]
-0.033904165 0.09350784 -0.017449792 -0.009461701 0.104522884 -0.03148624 0.009217921 0.096083134
-0.025681589 0.077822894 0.074681215 0.030533185 0.022855561 -0.05905723 0.0022508272 0.03693326
-0.02061668 -0.02886076 0.0028616497 -0.05762911 0.0515605 -0.06163182 -0.041388996 0.03945466
0.0016208042 -0.03999902 0.042082675 -0.086021215 0.06877087 0.09517872 0.08051011 0.10996165
0.017417038 0.056926087 -0.05500452 0.06933341 -0.039991353 -0.035767984 -0.049383618 0.020174919
0.102581225 0.012928668 0.036283102 0.0003885554 0.040659443 0.09705498 0.014214165 0.04105577
0.02487979 -0.01098206 -0.05094397 0.014024848 0.022230107 -0.022696238 -0.025970364 0.0074666794
0.05796381 -0.0095474785 -0.042305168 -0.045548744 -0.056617044 0.06431958 0.008014689 0.019408425
-0.031497322 0.0854684 -0.061329417 0.032344665 0.0040997206 -0.07311778 0.09403906 0.010487415
-0.023748264 0.042131294 0.014991931 -0.019266916 0.013046838 0.022116302 -0.008247257 0.01701523
0.06087179 0.0127775725 0.026381565 0.0692497 0.012306477 0.08384221 -0.021719353 0.07492507
0.061892997 0.10435468 0.028481463 0.09713174 0.020781254 0.022048336 -0.06910039 0.04890382
0.08472143 0.061938897 0.061812837 -0.072886795 0.086695924 0.05244484 -0.0284686 0.12536302
0.07261196 0.086114325 0.056590118 -0.070143685 0.017697355 -0.030419305 0.020881431 0.07786588
-0.07244668 0.10131045 0.017613338 0.06668912 -0.06882393 0.022173753 -0.0046457862 0.084323086
-0.016657816 0.0780091 0.05727969 -0.06445116 0.10150967 0.015894243 0.04264876 0.033021733
0.07073381 0.005291833 -0.027871242 -0.00058795104 0.0679796 -0.0029703474 0.009465488 0.10984903
0.061505757 -0.05721408 0.0753986 0.046975557 0.010278634 0.08265973 0.055199035 0.09117386
-0.0014831106 -0.004424512 -0.031218883 0.015006571 0.035174984 -0.0062734536 0.05861858 0.11028373
0.043123234 0.0128624365 -0.0833328 -0.10560566 -0.05026917 -0.009229997 -0.01271005 0.08846518
0.08262588 0.086020336 0.008668739 -0.04038304 -0.022475647 -0.05933983 0.045974668 0.019119872
0.07509296 0.02323823 0.014880448 0.083193116 0.048757683 0.02820376 -0.06426852 -0.03323124
0.0527299 -0.020280488 0.070709825 0.0060093882 0.024549292 0.07939054 -0.027463418 0.060846616
0.058529798 -0.030698694 0.08265654 0.008046717 -0.07220586 0.040605392 -0.018576477 0.0128750345
0.10084132 0.04194367 -0.05363134 0.06845692 0.014835866 -0.027931968 0.0067521455 -0.0037563997
0.07094334 0.046139453 0.0796592 -0.05086849 0.08257228 0.099377096 0.042664114 0.059702218
0.0460335 0.06293618 0.07083548 0.061744947 0.011222037 -0.01337389 -0.00088345725 0.057450645
-0.008005016 -0.053194296 0.061749946 0.093952686 0.09847489 0.04014515 -0.044878058 0.07651945
0.069960006 -0.019978598 0.09717928 -0.055367358 -0.024253406 0.04021369 -0.027686754 0.06418125
-0.05179482 0.11631718 0.08818007 -0.05683403 0.03811072 -0.0144579485 0.0806402 -0.046906482
0.08725081 -0.0014527078 -0.05479592 0.09533547 0.03501968 0.07205032 -0.048540745 -0.022817904
-0.010963851 0.00018614937 0.028241238 0.049794056 0.05073955 -0.068918295 -0.017743992 0.06193574
00000000: 18df 0abd 0a81 bf3d def2 8ebc 4005 1bbc
00000010: 1810 d63d b7f7 00bd c306 173c 3cc7 c43d
00000020: 3262 d2bc 9c61 9f3d 77f2 983d bb20 fa3c
00000030: 963b bb3c fee5 71bd 9d82 133b 5447 173d
00000040: 50e4 a8bc 676d ecbc 848a 3b3b 800c 6cbd
00000050: 1a31 533d a671 7cbd 8287 29bd 369b 213d
00000060: 2a71 d43a 03d6 23bd e25e 2c3d e42b b0bd
00000070: bed7 8c3d 10ed c23d 7ce2 a43d 9333 e13d
00000080: 2dae 8e3c 542b 693d 6b4c 61bd adfe 8d3d
00000090: f9cd 23bd 7381 12bd 7a46 4abd df45 a53c
000000a0: 1b16 d23d c4d2 533c 979d 143d 06b7 cb39
000000b0: 848a 263d c3c4 c63d 87e2 683c 182a 283d
000000c0: b4d0 cb3c 19ee 33bc a0aa 50bd 7ac8 653c
000000d0: ea1b b63c 76ed b9bc cdbf d4bc 0cab f43b
000000e0: 766b 6d3d 076d 1cbc 2f48 2dbd 5291 3abd
000000f0: 46e7 67bd fcb9 833d 0b50 033c 6bfe 9e3c
00000100: 5603 01bd 0e0a af3d 8e34 7bbd d77b 043d
00000110: f356 863b c6be 95bd 8d97 c03d 68d3 2b3c
00000120: b88b c2bc dd91 2c3d b7a0 753c a7d5 9dbc
00000130: 68c2 553c 3f2d b53c 811f 07bc 8663 8b3c
00000140: b354 793d 0659 513c 271e d83c c9d2 8d3d
00000150: 1ba1 493c 77b5 ab3d c9ec b1bc 5172 993d
00000160: 8383 7d3d e8b7 d53d f551 e93c 01ed c63d
00000170: 733d aa3c b69e b43c 8184 8dbd 5f4f 483d
00000180: 6e82 ad3d a4b3 7d3d 752f 7d3d ac45 95bd
00000190: a28d b13d 67d0 563d fb36 e9bc 2a5f 003e
000001a0: 94b5 943d b55c b03d 0acb 673d 7ea7 8fbd
000001b0: 0bfa 903c e831 f9bc 890f ab3c 2678 9f3d
000001c0: ed5e 94bd da7b cf3d d949 903c 4e94 883d
000001d0: 90f3 8cbd bba5 b53c ae3b 98bb 95b1 ac3d
000001e0: f975 88bc 3cc3 9f3d 1c9e 6a3d f8fe 83bd
000001f0: 4de4 cf3d a534 823c 77b0 2e3d cc41 073d
00000200: e3dc 903d 1d67 ad3b 3b52 e4bc ba20 1aba
00000210: e338 8b3d 29aa 42bb 2215 1b3c 87f8 e03d
00000220: 76ed 7b3d 5059 6abd 956a 9a3d 7169 403d
00000230: b767 283c 8149 a93d 6218 623d 5cb9 ba3d
00000240: ef64 c2ba 7ffb 90bb bebe ffbc 1fde 753c
00000250: a513 103d 8b91 cdbb 091a 703d 70dc e13d
00000260: fda1 303d f8bc 523c 63aa aabd c847 d8bd
00000270: 0ce7 4dbd 6a39 17bc d03d 50bc 3b2d b53d
00000280: c237 a93d 6e2b b03d 5407 0e3c b068 25bd
00000290: d91e b8bc 520e 73bd ef4f 3c3d 47a1 9c3c
000002a0: 56ca 993d 1a5e be3c 1fcd 733c 2761 aa3d
000002b0: 23b6 473d 920b e73c 379f 83bd 7b1d 08bd
000002c0: 4ffb 573d 4423 a6bc 50d0 903d 67ea c43b
000002d0: 991b c93c 8297 a23d f6fa e0bc 4d3a 793d
000002e0: f1bc 6f3d d47b fbbc d547 a93d 61d6 033c
000002f0: aae0 93bd d751 263d b22d 98bc cff1 523c
00000300: e585 ce3d 20cd 2b3d 89ac 5bbd 2433 8c3d
00000310: 2212 733c 95d1 e4bc 1a41 dd3b ee2d 76bb
00000320: be4a 913d b9fc 3c3d 5d24 a33d 7a5b 50bd
00000330: a81b a93d 3886 cb3d 91c0 2e3d 508a 743d
00000340: a08d 3c3d afe4 803d 3112 913d 45e8 7c3d
00000350: a2dc 373c 291e 5bbc d097 67ba 5e51 6b3d
00000360: 7827 03bc 43e2 59bd 83ed 7c3d 446a c03d
00000370: 34ad c93d 3e6f 243d 0ed2 37bd 3bb6 9c3d
00000380: 3147 8f3d 28aa a3bc ee05 c73d e2c8 62bd
00000390: 14af c6bc 1cb7 243d 55cf e2bc 7671 833d
000003a0: ce26 54bd b437 ee3d c197 b43d cdca 68bd
000003b0: fd19 1c3d 08e1 6cbc b026 a53d 0321 40bd
000003c0: 8db0 b23d c968 beba b071 60bd 3e3f c33d
000003d0: cc70 0f3d 1e8f 933d a9d2 46bd 9dec babc
000003e0: b9a1 33bc 1731 4339 2b5a e73c daf4 4b3d
000003f0: 46d4 4f3d 0925 8dbd d95b 91bc 55b0 7d3d

bias f4 [128]
-0.04973252 -0.053624183 0.08561792 -0.079630695 0.07504734 -0.00513734 -0.0230669 0.009003167
0.053518627 0.06813796 -0.07389898 -0.060654785 -0.0016117538 -0.01831159 0.07561466 -0.01308087
-0.0094340015 0.014155802 -0.009220385 0.072008945 0.033261437 0.048960537 0.03891158 0.07965996
0.012636524 0.03526965 -0.0031964646 -0.015506776 -0.008777155 0.09055693 0.01578184 0.055425882
-0.04857997 -0.06958374 -0.0030372553 -0.009127439 -0.0064085387 -0.016886773 -0.035898972 0.03946613
0.031063844 0.051167622 0.05704726 0.07404121 -0.030205559 -0.0019578168 0.016743155 -0.060503967
0.056923162 0.009338505 -0.06452929 0.015721325 0.018131917 -0.07786811 0.042494908 -0.042248193
-0.038371284 -0.005211998 -0.0063963663 0.015649263 -0.01119311 0.084416226 0.013734056 -0.06123517
-0.05771638 -0.021874372 -0.06399208 0.0130731305 0.022413649 -0.084604055 0.011674535 0.037728384
-0.052585844 -0.07800181 -0.0036024328 -0.029957866 0.054001387 -0.048232976 -0.06566943 -0.013188026
0.07944125 0.078436896 -0.012959524 -0.061863203 -0.049903445 0.094026044 0.04207352 -0.051315755
0.036683515 0.08686554 0.031345297 0.012564476 0.027777622 -0.054780345 -0.062441744 0.0099861
-0.028857753 -0.019901779 0.025774302 0.060061995 0.022458868 0.017269425 -0.087506056 -0.0011534094
0.07613232 -0.06053965 -0.0027265083 -0.0034523092 0.09269522 0.0030919893 0.08057858 -0.07886601
0.038505405 0.02760483 -0.053162403 0.009054937 -0.042369764 -0.00010251547 -0.04960764 0.06997438
0.0404936 -0.00044445516 0.00302026 0.029650062 -0.0060160467 0.07288882 0.08854046 -0.044361457
00000000: 54b4 4bbd 08a5 5bbd 7358 af3d 6b15 a3bd
00000010: 6bb2 993d 2257 a8bb ccf6 bcbc 0582 133c
00000020: 5936 5b3d ea8b 8b3d 5958 97bd 2771 78bd
00000030: 7c41 d3ba 3002 96bc dcdb 9a3d 2551 56bc
00000040: 1291 1abc bded 673c 1911 17bc 6d79 933d
00000050: 253d 083d d88a 483d c061 1f3d c324 a33d
00000060: 6c09 4f3c e976 103d c77b 51bb 2210 7ebc
00000070: 0ece 0fbc e975 b93d eb48 813c 4006 633d
00000080: cafb 46bd eb81 8ebd b00c 47bb 418b 15bc
00000090: b8fe d1bb 2156 8abc cd0a 13bd 3da7 213d
000000a0: 9a79 fe3c 2495 513d 63aa 693d eba2 973d
000000b0: a671 f7bc b74e 00bb f128 893c 02d3 77bd
000000c0: 4328 693d 8700 193c ef27 84bd 02ca 803c
000000d0: 6389 943c 5179 9fbd 240f 2e3d 710c 2dbd
000000e0: 352b 1dbd 68c9 aabb 9c98 d1bb e232 803c
000000f0: 4e63 37bc 6ae2 ac3d ce04 613c bbd1 7abd
00000100: 0368 6cbd e231 b3bc 480e 83bd af30 563c
00000110: d49c b73c e444 adbd 8d46 3f3c 1489 1a3d
00000120: 4164 57bd 6abf 9fbd cb16 6cbb 336a f5bc
00000130: 8f30 5d3d f18f 45bd b27d 86bd 9712 58bc
00000140: 18b2 a23d 86a3 a03d 2f54 54bc 4564 7dbd
00000150: 8e67 4cbd ba90 c03d 4955 2c3d 7830 52bd
00000160: 7441 163d 8fe6 b13d ed63 003d 3bdb 4d3c
00000170: e58d e33c 5b61 60bd eac2 7fbd bd9c 233c
00000180: 1867 ecbc 0e09 a3bc a124 d33c 9103 763d
00000190: a9fb b73c 9c78 8d3c 6036 b3bd ff2d 97ba
000001a0: 43eb 9b3d 6df8 77bd 38af 32bb 2340 62bb
000001b0: fed6 bd3d f9a2 4a3b 6206 a53d 8184 a1bd
000001c0: d8b7 1d3d 8623 e23c d2c0 59bd 295b 143c
000001d0: eb8b 2dbd 93fd d6b8 6131 4bbd ba4e 8f3d
000001e0: 9edc 253d c305 e9b9 8eef 453b b0e4 f23c
000001f0: 4222 c5bb bc46 953d b354 b53d 5cb4 35bd

weight f4 [1, 128]
-0.062362336 -0.07996903 -0.077472195 0.0681159 0.09703644 -0.0012660784 -0.024835058 -0.035621036
0.08163262 -0.08475403 -0.001859877 0.0020673487 0.01849989 -0.05018 0.07730956 0.07620655
-0.030015318 -0.096662685 -0.0036615776 0.09385334 -0.057044864 -0.057963297 0.09637834 -0.1003551
0.070017815 -0.026596343 0.0051596686 -0.018193943 0.022116253 0.08826564 0.047836404 0.08561135
-0.08172734 0.015994698 -0.010280293 -0.08483296 -0.07862331 0.049668986 -0.022185901 0.029639008
-0.048466127 0.109136894 -0.04448595 0.08194653 -0.09084633 -0.049607992 0.0752035 -0.08974264
-0.07241011 0.009926314 -0.023132952 -0.052267153 -0.037972964 0.046942327 0.0852374 0.06811638
-0.074358955 0.02829065 -0.074730664 0.081759274 -0.05629473 -0.027920531 0.015120908 0.010419524
0.0063184444 -0.07203429 0.056051828 -0.09694285 -0.047766738 0.018299388 0.065647595 -0.018597044
0.041069213 -0.07581752 -0.04313813 -0.025344528 -0.036452826 -0.06159378 -0.083720975 0.038366206
-0.0455803 -0.02947792 -0.08537096 -0.034294378 -0.0946169 -0.04735667 0.12045088 -0.047189254
0.07413532 0.01078718 -0.018450525 0.02074528 0.0849985 0.03170554 -0.0741789 -0.09994454
-0.09292269 0.0737014 -0.055479757 -0.091129966 0.014177528 -0.027467094 0.005795529 0.07863851
-0.04504554 -0.0639954 0.07945396 -0.09098804 0.10375149 -0.0028640893 -0.018200355 0.061625108
0.10334799 0.055375244 0.055055864 0.04250206 0.02715259 -0.09286683 -0.10471127 -0.089786515
-0.08649183 0.13915901 -0.038189538 0.06526488 -0.056950387 -0.08375756 0.050469298 -0.00928474
00000000: a66f 7fbd cec6 a3bd bea9 9ebd 5980 8b3d
00000010: 0bbb c63d 8bf2 a5ba e472 cbbc 5de7 11bd
00000020: 012f a73d 8593 adbd 1ec7 f3ba 5b7c 073b
00000030: 158d 973c 8b89 4dbd 7954 9e3d 2e12 9c3d
00000040: afe2 f5bc 16f7 c5bd 14f7 6fbb 2e36 c03d
00000050: e0a7 69bd ec6a 6dbd 0262 c53d fa86 cdbd
00000060: 8065 8f3d 93e0 d9bc 7012 a93b 770b 95bc
00000070: 252d b53c 9ec4 b43d 1bf0 433d 0155 af3d
00000080: aa60 a7bd 5007 833c ad6e 28bc e7bc adbd
00000090: 4205 a1bd b571 4b3d 35bf b5bc 81cd f23c
000000a0: 6b84 46bd 2a83 df3d e636 36bd 95d3 a73d
000000b0: a40d babd c031 4bbd 4b04 9a3d fdca b7bd
000000c0: c04b 94bd faa1 223c 5181 bdbc 1516 56bd
000000d0: 8a89 1bbd 9946 403d f290 ae3d 9a80 8b3d
000000e0: 8249 98bd cbc1 e73c 640c 99bd 6871 a73d
000000f0: 4e95 66bd 99b9 e4bc afbd 773c a7b6 2a3c
00000100: f40a cf3b b786 93bd 9a96 653d f989 c6bd
00000110: 0ea7 43bd 99e8 953c 3f72 863d d458 98bc
00000120: 3138 283d 3746 9bbd 9cb1 30bd 549f cfbc
00000130: 8f4f 15bd c249 7cbd e775 abbd e225 1d3d
00000140: 69b2 3abd ae7b f1bc f8d6 aebd 4378 0cbd
00000150: 81c6 c1bd 11f9 41bd f3ae f63d 8549 41bd
00000160: 42d4 973d b6bc 303c 8e25 97bc 01f2 a93c
00000170: b213 ae3d abdd 013d 1beb 97bd b9af ccbd
00000180: 404e bebd c2f0 963d be3e 63bd 59a2 babd
00000190: dd48 683c ac02 e1bc 6ce8 bd3b 3a0d a13d
000001a0: ac81 38bd 0510 83bd c2b8 a23d f057 babd
000001b0: a97b d43d 72b3 3bbb e918 95bc 9c6a 7c3d
000001c0: 1ca8 d33d 27d1 623d 4282 613d a416 2e3d
000001d0: 1c6f de3c f730 bebd dd72 d6bd fee1 b7bd
000001e0: a122 b1bd b37f 0e3e a26c 1cbd 98a9 853d
000001f0: cf44 69bd 1589 abbd e5b8 4e3d 061f 18bc
