bike_sharing/AutogluonModels/ag-20220403_215705/models/NeuralNetTorch_BAG_L2/S1F8/net.params (torch, 215879 bytes, 9 tensors)

weight f4 [128, 22]
-0.124402896 0.21293253 -0.15334082 -0.1494313 -0.08719868 0.11483554 0.07214118 0.1930932
0.030771533 0.03773615 -0.028908996 0.0043768655 -0.19944568 -0.13150826 -0.079352684 0.03788953
0.1323968 0.1283379 -0.09950529 -0.10061896 0.090506665 0.18689154 -0.21941571 0.2763242
0.0002031248 0.03592237 0.20112818 -0.17044072 -0.102612115 -0.0057214946 -0.13832349 0.1600437
-0.098120034 -0.13480796 -0.19287904 -0.12861848 -0.13537373 0.19631292 0.103442736 0.024322715
0.108222514 -0.1282497 0.08897195 -0.1607567 -0.16092694 -0.4167611 0.04163624 0.12035621
-0.09150866 -0.0022310598 0.13745803 0.12176229 0.061854128 0.011857041 0.10581611 -0.0669006
0.005364417 -0.16293572 -0.11372442 -0.11015184 0.13915947 0.0028993494 -0.14618045 0.050619807
0.03241095 0.08087295 -0.09584901 0.22146918 0.121576525 0.1278681 -0.11955815 -0.10894484
0.050357867 0.19044642 0.15374677 0.15683198 0.08786681 -0.12278151 0.03012939 -0.12583095
-0.23207034 0.16480057 0.14534707 -0.10222071 0.021448238 -0.124243185 0.055237025 -0.24118774
0.15403327 -0.2989012 0.061126955 0.12369824 0.16423233 0.08095541 -0.18545702 -0.08337275
0.05921204 0.059981234 -0.1686381 -0.1081599 0.14026494 0.19010994 -0.059074022 -0.10489553
-0.25249085 0.03258222 -0.11121345 -0.11135059 -0.06584975 0.085455455 -0.26997498 0.23187579
-0.14085451 0.14281873 0.06623816 -0.062596895 0.05925476 -0.03194367 0.009067276 0.045217685
0.025226023 -0.016306454 -0.092008084 0.08180526 -0.20912102 -0.078087695 -0.016035888 -0.02927735
-0.11150168 -0.16915084 -0.13392594 0.0810337 -0.19096412 -0.12919164 0.107542664 -0.05408471
-0.042571597 -0.043995544 0.017012931 0.13710664 0.212232 0.12863566 0.15396453 -0.016881915
-0.15761898 -0.13026105 0.15063685 0.011872422 -0.12657514 -0.11210978 -0.23440549 -0.18718119
-0.11531018 0.15210503 0.29681203 -0.41958246 0.13387267 -0.13810293 -0.013421448 -0.068722025
-0.03001367 0.01033071 -0.0866788 -0.0975525 0.016435716 0.0094684735 -0.049575794 0.08038145
-0.1369747 0.0030612384 0.16105245 -0.002851527 0.11688884 0.09485979 -0.15436366 0.081926726
0.21946898 -0.3342139 0.11999005 -0.13642447 0.03624372 -0.08933617 0.09234045 0.010827311
0.031526953 0.031224469 -0.047503624 -0.011713382 -0.05648891 0.07525804 0.1778248 0.086807005
-0.18193635 0.005663545 -0.122732975 -0.15471932 -0.20614743 0.0712543 -0.252107 -0.40386882
-0.06432232 0.20868434 -0.11156111 -0.025975881 -0.01914086 0.03572132 0.0027739198 0.05921536
0.06284046 0.02628865 -0.009826636 -0.025330514 0.04883645 -0.0012826548 0.009194006 0.0024440587
-0.11998337 -0.27488706 0.0694818 -0.073253356 -0.21105771 0.33036745 0.018190214 -0.09346185
-0.11595333 0.08204701 -0.16226144 0.010331078 -0.05874512 -0.038310595 0.07359134 0.082537934
0.027416673 0.14018081 0.05222731 -0.15790577 0.07585855 -0.05593312 -0.11575097 -0.0038909977
0.04234749 0.078664325 -0.30038977 -0.12026857 0.07672093 -0.19850525 0.112564355 -0.11538591
0.05246458 -0.025523426 -0.0032031513 -0.01840459 0.14011379 -0.060148336 -0.12301214 -0.03394017
00000000: f2c6 febd fc0a 5a3e 6005 1dbe 8504 19be
00000010: 3995 b2bd e52e eb3d c1be 933d 39ba 453e
00000020: 9514 fc3c 3991 1a3d 8fd2 ecbc cf6b 8f3b
00000030: 7d3b 4cbe 1aaa 06be a983 a2bd 0d32 1b3d
00000040: 0793 073e 036b 033e 6ec9 cbbd 5011 cebd
00000050: 8f5b b93d 7f60 3f3e 83ae 60be 5e7a 8d3e
00000060: e6fd 5439 5623 133d 8cf4 4d3e 0388 2ebe
00000070: 4d26 d2bd 607b bbbb aca4 0dbe 7fe2 233e
00000080: 28f3 c8bd 190b 0abe 1582 45be 90b4 03be
00000090: 699f 0abe 4106 493e c9d9 d33d 6e40 c73c
000000a0: c4a3 dd3d e453 03be ed36 b63d 689d 24be
000000b0: 08ca 24be b661 d5be c38a 2a3d 517d f63d
000000c0: e468 bbbd f936 12bb ccc1 0c3e 825e f93d
000000d0: c15a 7d3d 0944 423c 1eb6 d83d 2f03 89bd
000000e0: fec7 af3b 9fd8 26be 59e8 e8bd 4a97 e1bd
000000f0: d27f 0e3e 0303 3e3b 54b0 15be b756 4f3d
00000100: 58c1 043d b8a0 a53d 7c4c c4bd d1c8 623e
00000110: 1dfd f83d dbef 023e e7da f4bd 791e dfbd
00000120: 0d44 4e3d 6304 433e cb6f 1d3e 9098 203e
00000130: 84f3 b33d df74 fbbd e9d1 f63c d4d9 00be
00000140: d9a3 6dbe 7bc1 283e ddd5 143e 1759 d1bd
00000150: 37b4 af3c 3673 febd 3840 623d ebf9 76be
00000160: e6ba 1d3e 9409 99be 4260 7a3d 8155 fd3d
00000170: 852c 283e f3cb a53d 72e8 3dbe 55bf aabd
00000180: 5388 723d e2ae 753d 77af 2cbe f082 ddbd
00000190: 9da1 0f3e 2eac 423e 9af7 71bd 78d3 d6bd
000001a0: 7b46 81be ef74 053d e1c3 e3bd c70b e4bd
000001b0: 3cdc 86bd 4503 af3d 293a 8abe d970 6d3e
000001c0: 2a3c 10be 133f 123e dfa7 873d cd32 80bd
000001d0: 1fb5 723d 5ed7 02bd e98e 143c 2e36 393d
000001e0: cea6 ce3c 1d95 85bc bc6e bcbd 8489 a73d
000001f0: d223 56be 71ec 9fbd b25d 83bc 0ed7 efbc
00000200: fe5a e4bd e135 2dbe e223 09be fff4 a53d
00000210: 198c 43be d04a 04be 543f dc3d ee87 5dbd
00000220: 8e5f 2ebd ac34 34bd b45e 8b3c af65 0c3e
00000230: 5853 593e 11b9 033e e1a8 1d3e f14b 8abc
00000240: df66 21be 2763 05be 8c40 1a3e 8c84 423c
00000250: ea9c 01be d099 e5bd fe07 70be 6dac 3fbe
00000260: be27 ecbd 6cc1 1b3e bff7 973e 83d3 d6be
00000270: eb15 093e db6a 0dbe a2e5 5bbc 22be 8cbd
00000280: 3adf f5bc 2342 293c a884 b1bd 9bc9 c7bd
00000290: 32a4 863c a821 1b3c fd0f 4bbd 089f a43d
000002a0: 1943 0cbe 0f9f 483b efea 243e afe0 3abb
000002b0: 6b63 ef3d d945 c23d 8211 1ebe 33c9 a73d
000002c0: 7abc 603e 161e abbe 58bd f53d dbb2 0bbe
000002d0: 4c74 143d e2f5 b6bd fd1c bd3d 0965 313c
000002e0: 6822 013d 75ca ff3c 2993 42bd 7ce9 3fbc
000002f0: ea60 67bd e320 9a3d b417 363e dfc7 b13d
00000300: 864d 3abe 4295 b93b 6d5b fbbd be6e 1ebe
00000310: 5018 53be c6ed 913d 2b14 81be e5c7 cebe
00000320: 6cbb 83bd 59b1 553e 277a e4bd 5fcb d4bc
00000330: 4bcd 9cbc 8550 123d a7ca 353b ce8b 723d
00000340: 80b2 803d 4c5b d73c e6ff 20bc f081 cfbc
00000350: bb08 483d c11e a8ba 75a2 163c 802c 203b
00000360: d7b9 f5bd ffbd 8cbe 794c 8e3d db05 96bd
00000370: 831f 58be ec25 a93e a503 953c ed68 bfbd
00000380: f178 edbd 4308 a83d dd27 26be af43 293c
00000390: b99e 70bd 92eb 1cbd 0eb7 963d a609 a93d
000003a0: ee98 e03c 8f8b 0f3e 4eec 553d 0db2 21be
000003b0: ba5b 9b3d 211a 65bd d80e edbd 1c00 7fbb
000003c0: 9074 2d3d c31a a13d b0cc 99be 5e4f f6bd
000003d0: dd1f 9d3d f644 4bbe 2488 e63d 734f ecbd
000003e0: 19e5 563d 8116 d1bc f6eb 51bb 39c5 96bc
000003f0: fd79 0f3e 1a5e 76bd caed fbbd d904 0bbd

bias f4 [128]
-0.17863294 -0.124418736 -0.023400005 -0.11132538 -0.037078016 0.09510754 -0.04526904 0.0413325
0.16547574 -0.19653788 -0.17162882 -0.12076145 -0.031891007 -0.09078159 -0.047900476 0.0025409702
0.07119439 0.12431608 0.14082448 -0.0063907006 -0.0055803005 0.030187014 -0.048659157 -0.09258737
0.06838537 -0.31990418 -0.17284606 -0.08040596 -0.088699065 -0.15031758 -0.2337014 0.14081497
-0.050566263 -0.08523185 -0.122702725 0.041730054 -0.18183927 -0.018640693 0.0021427728 0.022644036
0.05703509 -0.17092434 0.068380654 0.12861708 -0.045970906 0.05283037 -0.034004565 0.013019945
-0.019151479 -0.107567705 0.095513195 -0.25823647 -0.030104399 -0.17195025 -0.1251509 -0.21574141
-0.26604027 -0.010399811 -0.10228481 -0.19470857 -0.0019214025 -0.11859994 0.013459212 -0.13450584
-0.01749611 0.042557854 0.05201851 0.030451898 0.043448076 0.15040386 -0.11827681 0.13281599
0.19643213 -0.20191461 -0.0025798732 0.104899615 -0.089131564 0.08599719 -0.04451496 0.12585916
-0.024321623 -0.119066045 0.11241316 0.103767134 0.15215628 0.030246453 0.11364413 0.0067160414
0.048259217 -0.07877643 0.08123252 -0.17158371 0.010803482 -0.03825147 0.026028283 -0.13964802
0.026564425 -0.16564141 0.074736334 0.11373596 -0.20043671 0.12080553 -0.18983473 -0.0542833
0.0766715 -0.08674897 0.15031041 -0.113853775 -0.0048969663 -0.18980345 -0.058704868 0.23284921
0.10578187 0.024317127 -0.063499376 -0.15577672 0.123516455 0.0023446197 -0.07545162 -0.17717016
0.17503662 0.08160579 0.14027943 0.002540239 -0.17333837 0.100033425 0.041566137 0.045835402
00000000: 8eeb 36be 40cf febd 5eb1 bfbc 90fe e3bd
00000010: 1edf 17bd bec7 c23d 076c 39bd 444c 293d
00000020: 7972 293e 3a41 49be 77bf 2fbe c751 f7bd
00000030: 25a0 02bd b3eb b9bd 4a33 44bd 6886 263b
00000040: 5dce 913d 6e99 fe3d 4b34 103e 1569 d1bb
00000050: f4da b6bb c24a f73c d34e 47bd 729e bdbd
00000060: a10d 8c3d 7bca a3be 8ffe 30be e1ab a4bd
00000070: dba7 b5bd daec 19be 6b4f 6fbe cd31 103e
00000080: 921e 4fbd 098e aebd 914b fbbd 22ed 2a3d
00000090: 1334 3abe 5eb4 98bc c36d 0c3b fc7f b93c
000000a0: a09d 693d ca06 2fbe 280b 8c3d 32b4 033e
000000b0: fd4b 3cbd a864 583d 5f48 0bbd 9b51 553c
000000c0: 90e3 9cbc 754c dcbd 6c9c c33d 9237 84be
000000d0: 809d f6bc ba13 30be 8f27 00be 51eb 5cbe
000000e0: 6e36 88be f863 2abc b37a d1bd af61 47be
000000f0: 92d7 fbba 86e4 f2bd 0784 5c3c e6bb 09be
00000100: 0154 8fbc 2551 2e3d 5c11 553d 4276 f93c
00000110: 9cf6 313d 7803 1a3e 1d3b f2bd ea00 083e
00000120: 8125 493e b4c2 4ebe 1713 29bb 9cd5 d63d
00000130: 9c8a b6bd 4b1f b03d 5255 36bd 39e1 003e
00000140: 243e c7bc e6d8 f3bd df38 e63d dd83 d43d
00000150: dbce 1b3e 69c7 f73c 41be e83d 3d12 dc3b
00000160: 75ab 453d 8955 a1bd 3c5d a63d a4b3 2fbe
00000170: 1601 313c 93ad 1cbd 4439 d53c e4ff 0ebe
00000180: a39d d93c e79d 29be 5d0f 993d 66ee e83d
00000190: 483f 4dbe e468 f73d 0964 42be 2a58 5ebd
000001a0: f305 9d3d 72a9 b1bd f9ea 193e 2b2c e9bd
000001b0: bb76 a0bb d65b 42be 8474 70bd 0670 6e3e
000001c0: 2aa4 d83d b634 c73c f60b 82bd ef83 1fbe
000001d0: 32f6 fc3d 31a8 193b 6186 9abd 186c 35be
000001e0: cd3c 333e f020 a73d 69a5 0f3e 237a 263b
000001f0: 9d7f 31be 53de cc3d 4141 2a3d e7bd 3b3d

weight f4 [128, 128]
-0.0006228135 -0.06409556 0.09586774 0.031247886 -0.0393137 0.016788729 -0.0023225413 0.019071735
0.06854763 0.053773686 0.055208065 0.063742965 0.005114433 -0.016970389 0.04259359 -0.029461673
0.013528226 -0.043192707 0.0137513215 -0.09592113 0.06570976 0.08941199 0.070871755 -0.015369338
0.0642088 0.06978795 0.10422503 0.028409516 -0.12924625 0.04313234 -0.013531735 0.014879891
0.03372165 -0.060278248 -0.006282739 0.06619142 0.0077208905 0.061414495 -0.018294767 -0.07275374
-0.05573741 -0.015512339 0.017504867 -0.03965376 0.026151134 0.07239762 0.080451116 -0.021047039
-0.0057253386 -0.0681625 0.041255433 -0.04967945 0.061107747 -0.04434936 -0.059472173 -0.025061402
-0.03579943 -0.035131566 -0.093682185 0.074504465 0.040363267 -0.07444059 -0.03174849 0.013386196
0.102066025 -0.027660403 0.07375851 0.06297992 -0.026504926 0.036890183 -0.10248896 0.10532255
0.12921049 0.006965746 0.018134624 0.09740083 0.05214228 0.020527145 0.022270799 -0.04778214
0.046481878 0.0009974897 0.117813684 -0.019969359 0.020822002 -0.019026658 0.03141921 -0.025273163
0.059511013 -0.05622253 -0.01547092 0.022546241 -0.05160979 -0.09291429 0.05699578 -0.03337412
-0.03285784 -0.019829066 -0.010299502 0.022303231 -0.079715125 -0.018949345 0.048196662 0.03531924
-0.034087833 -0.05329762 0.004923295 0.069612265 0.04992305 0.043051142 0.097459465 0.03179255
-0.022279544 0.032358274 -0.027835265 0.0291095 0.07618473 -0.02222141 -0.024261318 -0.04082431
-0.03668234 0.041607864 0.11899628 -0.05168796 0.039486747 0.040023953 0.034663603 0.013377941
0.1074554 0.011157621 0.008922374 -0.04844787 0.01873849 -0.03352734 0.0769735 -0.18425095
-0.027358374 -0.05581157 0.055852603 0.07627424 -0.02275551 0.074311905 0.015854623 -0.018737383
0.03306586 0.10257153 -0.08118936 0.052504912 0.0491697 -0.03803583 -0.07204325 0.010629401
-0.099894166 0.069220275 -0.018011654 0.062172573 -0.0812886 -0.005762834 0.14198926 0.00097496214
0.07048127 -0.021240113 -0.0030039751 0.02140248 0.1020512 0.07571085 -0.02981841 -0.018371517
0.026594294 0.034487847 0.023385437 -0.08913998 0.016247734 -0.03262494 0.10412736 -0.025645347
0.07016565 -0.06340883 -0.06840386 -0.07715141 0.0247649 -0.10710492 0.058692362 -0.026607346
0.1530587 0.06416675 -0.05518811 -0.0038347037 -0.031175746 -0.06474823 0.022183716 0.09914836
0.07327182 -0.060471434 -0.10672497 -0.007415339 -0.04378097 0.09039443 0.074804075 -0.09132508
-0.05935466 -0.10088215 0.010952613 0.08108637 -0.12695414 -0.09014747 -0.046663705 0.034892313
-0.08615485 -0.16984877 0.010316412 0.026239857 0.04054914 -0.054752942 -0.040840503 -0.07110991
0.03500921 0.05361186 -0.006467142 0.05802284 0.010201152 -0.029094493 0.06887721 -0.06723786
-0.08658227 0.0075659063 -0.14523832 -0.07088696 0.020330284 -0.024254652 0.06033386 -0.057457462
0.021898145 0.016317936 -0.021080982 -0.07244432 -0.06497205 -0.0108349575 -0.102970645 -0.0667212
-0.017320734 0.057689745 -0.065996766 -0.12298008 -0.08769598 -0.046835672 0.013058459 -0.07819242
0.06608735 0.068368256 0.045907807 -0.0916663 -0.15147774 -0.0085069 0.08483566 0.0148594035
00000000: 4e44 23ba 8844 83bd 4e56 c43d 91fb ff3c
00000010: 6707 21bd 8488 893c c735 18bb 543c 9c3c
00000020: b362 8c3d cc41 5c3d da21 623d ac8b 823d
00000030: f996 a73b 7c05 8bbc 9e76 2e3d 9b59 f1bc
00000040: 7ea5 5d3c d6ea 30bd 394d 613c 4c72 c4bd
00000050: d792 863d a21d b73d 3625 913d adcf 7bbc
00000060: e77f 833d fcec 8e3d ef73 d53d 13bb e83c
00000070: 2159 04be 89ab 303d 36b4 5dbc c9ca 733c
00000080: b61f 0a3d 53e6 76bd 6fdf cdbb 5e8f 873d
00000090: 86ff fc3b c48d 7b3d e8de 95bc eaff 94bd
000000a0: e94c 64bd 7727 7ebc 5e66 8f3c fb6b 22bd
000000b0: e73a d63c 3445 943d 8ec3 a43d d76a acbc
000000c0: 9f9b bbbb c898 8bbd 75fb 283d ae7c 4bbd
000000d0: 1e4c 7a3d ada7 35bd 1899 73bd 924d cdbc
000000e0: 6ca2 12bd 1ee6 0fbd 72dc bfbd cc95 983d
000000f0: f453 253d 4f74 98bd b40a 02bd c751 5b3c
00000100: fe07 d13d 1298 e2bc b40e 973d 9efb 803d
00000110: dc20 d9bc 291a 173d bbe5 d1bd 59b3 d73d
00000120: c14f 043e ea40 e43b 108f 943c 167a c73d
00000130: 2593 553d 8b28 a83c 4071 b63c 35b7 43bd
00000140: c863 3e3d 33be 823a 4d48 f13d c896 a3bc
00000150: e792 aa3c cbdd 9bbc 6eb1 003d aa09 cfbc
00000160: d2c1 733d 9849 66bd be79 7dbc e5b2 b83c
00000170: ca64 53bd d949 bebd 6874 693d 4db3 08bd
00000180: f195 06bd 9170 a2bc 3ebf 28bc 44b5 b63c
00000190: af41 a3bd a83b 9bbc dd69 453d e8aa 103d
000001a0: af9f 0bbd 9b4e 5abd 9853 a13b e090 8e3d
000001b0: 1d7c 4c3d 6556 303d d498 c73d e838 023d
000001c0: 9783 b6bc 1c8a 043d c806 e4bc 0c77 ee3c
000001d0: bd06 9c3d ad09 b6bc acbf c6bc 6437 27bd
000001e0: 3940 16bd 026d 2a3d 52b4 f33d c1b6 53bd
000001f0: dbbc 213d 28f0 233d 6cfb 0d3d 272f 5b3c
00000200: 9411 dc3d 74ce 363c 262f 123c 4671 46bd
00000210: 7681 993c f753 09bd 48a4 9d3d 48ac 3cbe
00000220: ab1e e0bc ac9a 64bd b3c5 643d ab35 9c3d
00000230: c369 babc d730 983d 8ee1 813c 247f 99bc
00000240: 1170 073d 0611 d23d 9b46 a6bd 640f 573d
00000250: 2b66 493d 75cb 1bbd 698b 93bd f026 2e3c
00000260: 5095 ccbd 5cc3 8d3d 2d8d 93bc aba8 7e3d
00000270: a37a a6bd 28d6 bcbb a265 113e 9a94 7f3a
00000280: 7c58 903d bfff adbc 57de 44bb 4154 af3c
00000290: 3800 d13d 4a0e 9b3d bd45 f4bc dd7f 96bc
000002a0: 47dc d93c 2143 0d3d d192 bf3c 068f b6bd
000002b0: f819 853c bba1 05bd ba40 d53d 3116 d2bc
000002c0: 02b3 8f3d 7ddc 81bd 5317 8cbd 8f01 9ebd
000002d0: c2df ca3c d359 dbbd 6767 703d a6f7 d9bc
000002e0: 6bbb 1c3e db69 833d ed0c 62bd a74f 7bbb
000002f0: 4764 ffbc b89a 84bd a0ba b53c 4c0e cb3d
00000300: 890f 963d e5b0 77bd 9f92 dabd 5ffc f2bb
00000310: ad53 33bd b720 b93d e132 993d a508 bbbd
00000320: df1d 73bd 4d9b cebd 9772 333c 9c10 a63d
00000330: 4400 02be 3d9f b8bd 7122 3fbd 3eeb 0e3d
00000340: f471 b0bd d6ec 2dbe 2b06 293c f8f4 d63c
00000350: db16 263d 9f44 60bd 5f48 27bd 13a2 91bd
00000360: d165 0f3d 1c98 5b3d 52ea d3bb 5ca9 6d3d
00000370: bc22 273c 9357 eebc 7f0f 8d3d 01b4 89bd
00000380: 0c52 b1bd 6ceb f73b 5bb9 14be 2f2d 91bd
00000390: b28b a63c b1b1 c6bc a320 773d 8458 6bbd
000003a0: bd63 b33c 31ad 853c 06b2 acbc b05d 94bd
000003b0: 1110 85bd 1b85 31bc 46e2 d2bd 20a5 88bd
000003c0: 36e4 8dbc 154c 6c3d 5029 87bd fbdc fbbd
000003d0: f399 b3bd c3d6 3fbd 26f3 553c 5923 a0bd
000003e0: ce58 873d a804 8c3d d309 3c3d 8bbb bbbd
000003f0: fb1c 1bbe 8660 0bbc 52be ad3d db74 733c

bias f4 [128]
0.015367255 0.015431899 -0.0709922 0.0033215843 -0.013933929 -0.085335225 -0.009849164 -0.05792169
-0.10018691 0.045478642 0.040428787 0.09345008 0.08646322 -0.04846421 -0.0261894 -0.04901381
0.046913307 0.021516794 -0.020973701 0.10069775 -0.057512157 0.051203158 -0.017485783 -0.03334325
0.044101886 0.042575806 0.0013816154 -0.07929429 0.066105865 0.07274939 0.014493068 0.01940609
0.05008423 0.044701926 -0.02437084 -0.06436262 -0.04373431 0.06838227 -0.02575166 0.07017146
-0.15710369 -0.048529405 0.09017434 -0.0479395 0.012833017 0.06834921 0.011812768 0.050775267
-0.017505199 -0.082966216 -0.05120372 -0.022188859 -0.03715904 -0.039149307 -0.00087094423 0.109569944
0.08117143 0.048534147 -0.067912795 0.021192329 0.0030488104 0.103681296 -0.04377772 0.049941342
0.061009515 -0.015193 -0.13067584 0.021189095 0.04878053 -0.101455875 0.06828399 0.0040988824
-0.123153254 0.031685475 0.049413513 -0.0030952515 -0.062138423 -0.04705359 0.06036169 0.056778975
0.059756692 0.022159146 0.05098541 -0.04456422 0.047424804 0.048065085 -0.0013827373 0.0874933
-0.019182896 0.08471159 0.00015788464 0.0916446 -0.06531339 0.07674276 -0.0069815083 0.003731448
0.04115736 0.00345075 -0.048190713 -0.045602232 0.09451713 0.03253462 -0.03520386 0.010357944
0.085899 0.051059857 0.069269426 -0.024597285 -0.021208666 -0.039543994 -0.083337314 0.0011437982
0.014481802 -0.06792658 -0.03322438 0.022449162 -0.016126866 -0.08263606 0.06633742 -0.058038335
0.02000814 0.07930143 -0.089163505 0.008623443 -0.15799932 0.08508086 -0.037245724 0.061268497
00000000: f0c6 7b3c 13d6 7c3c 5c64 91bd f0ae 593b
00000010: 224b 64bc 3cc4 aebd 635e 21bc 4b3f 6dbd
00000020: cb2e cdbd d047 3a3d a898 253d c162 bf3d
00000030: a113 b13d 6882 46bd 278b d6bc b4c2 48bd
00000040: 2b28 403d fd43 b03c 0ad1 abbc 9f3a ce3d
00000050: de91 6bbd 67ba 513d 583e 8fbc ef92 08bd
00000060: 2ea4 343d f863 2e3d 5217 b53a 0b65 a2bd
00000070: 8362 873d a2fd 943d 5574 6d3c 85f9 9e3c
00000080: 1f25 4d3d 5e19 373d 5ba5 c7bc 8dd0 83bd
00000090: bf22 33bd 010c 8c3d 25f5 d2bc 0eb6 8f3d
000000a0: cadf 20be c5c6 46bd 53ad b83d 365c 44bd
000000b0: 9341 523c acfa 8b3d 578a 413c baf9 4f3d
000000c0: 1067 8fbc 31ea a9bd feba 51bd 69c5 b5bc
000000d0: 1434 18bd 065b 20bd 1450 64ba 3566 e03d
000000e0: 353d a63d becb 463d dd15 8bbd 899b ad3c
000000f0: 8dce 473b dc56 d43d 4450 33bd 4b8f 4c3d
00000100: 1de5 793d 10ec 78bc e3cf 05be c194 ad3c
00000110: 18ce 473d 19c8 cfbd 7ad8 8b3d eb4f 863b
00000120: c637 fcbd a1c8 013d d365 4a3d b4d9 4abb
00000130: dc84 7ebd 44bb 40bd d23d 773d 1291 683d
00000140: 6fc3 743d 1987 b53c 14d6 503d f988 36bd
00000150: 8340 423d e5df 443d f73c b5ba b02f b33d
00000160: 7325 9dbc 457d ad3d d68d 2539 2ab0 bb3d
00000170: 07c3 85bd 4f2b 9d3d 23c5 e4bb 4f8b 743b
00000180: 9f94 283d fa25 623b a063 45bd 68c9 3abd
00000190: 3292 c13d 0643 053d ec31 10bd 5eb4 293c
000001a0: d1eb af3d 2424 513d 21dd 8d3d 3f80 c9bc
000001b0: ccbd adbc e2f8 21bd c1ac aabd 80eb 953a
000001c0: 1445 6d3c 171d 8bbd 4a16 08bd 4ee7 b73c
000001d0: 7d1c 84bc 183d a9bd eadb 873d 9bb9 6dbd
000001e0: 1ce8 a33c ca68 a23d 5b9b b6bd 5749 0d3c
000001f0: 93ca 21be e03e ae3d f98e 18bd adf4 7a3d

weight f4 [128, 128]
0.016940184 0.0032778934 0.0058865384 -0.06184655 0.008757176 -0.117018156 0.11129177 -0.10731183
0.021327857 0.058384404 0.054030806 -0.03836357 -0.10381271 0.0063110054 -0.019650672 -0.07903853
0.056475036 -0.10886419 -0.013081719 -0.023515891 -0.061677787 -0.07512479 -0.10251693 -0.048936624
-0.10824129 -0.01405038 0.06011009 -0.10885036 0.017885974 -0.032211013 0.02555018 -0.03284875
-0.13964257 0.053677615 0.060984332 -0.005370584 0.08003863 0.036058273 -0.0033717046 -0.022126922
0.03254152 -0.07874839 0.05404438 -0.020011991 0.08626071 0.031501573 0.01919153 0.14901288
-0.0072636562 -0.045992445 -0.05962628 0.08810579 0.008039822 0.010553024 0.010258959 -0.07145268
0.059803035 -0.09369782 -0.08238633 0.022594705 -0.040131424 0.019320397 -0.0086853 0.046842422
-0.045905117 -0.17405553 -0.045660816 -0.0090446 0.08141185 -0.1312106 -0.06895319 -0.103775255
0.0022401945 0.027201856 0.05500213 -0.035993528 0.00054113957 -0.05757011 -0.03853306 0.0049616206
-0.11749116 -0.1216512 -0.08006551 -0.052873693 -0.032646704 0.008929435 0.026550848 0.035872485
0.047922373 -0.076562285 -0.069327675 -0.002153428 0.05870196 -0.09856759 0.028432917 0.06621713
-0.07606052 -0.009098867 0.0707384 0.012822195 0.005529546 0.029749054 0.033367466 -0.008887667
-0.011693623 -0.022091858 -0.0014329385 0.03770547 -0.047772907 -0.016609622 -0.033514254 0.05547843
-0.12552948 -0.0058614505 0.08463233 -0.0008608457 0.022472376 -0.035613794 0.006803165 0.05686012
-0.13774684 -0.09185266 0.09443922 -0.019639779 -0.02261692 -0.055678908 -0.014387572 0.06595197
0.09325262 0.010934123 -0.19708799 -0.015310927 0.008495592 0.028742803 0.04256561 -0.043860905
-0.01722535 -0.018249394 0.011838696 0.08061884 -0.010370072 0.008666322 -0.117033355 -0.08642207
-0.010777299 -0.10986271 -0.13139988 -0.05644667 -0.019583372 0.015127441 0.053376842 -0.14305179
-0.011688555 0.08235844 0.02155181 -0.05296144 0.02025675 -0.068691045 -0.055342484 -0.12202521
-0.0048128264 0.013972113 -0.037101533 0.022138251 0.04693584 0.046307646 -0.06455755 0.06130255
-0.045379907 -0.039145023 0.0041223187 -0.0954481 0.085523635 -0.09587529 0.049277574 0.062684804
-0.12461814 0.03231231 -0.07162009 0.03631212 -0.047332454 0.104434095 -0.10858796 0.012905425
0.00015772435 -0.05520515 0.031305164 -0.033362195 -0.045534246 0.09980483 0.02695113 -0.0062014395
-0.02878016 -0.018985556 -0.021310342 -0.035716295 -0.035381027 -0.04408238 -0.07491054 0.030622577
-0.12337444 -0.020275006 0.015445145 -0.014703821 -0.13909689 0.037050575 0.03233674 -0.12996663
0.0040775826 -0.07665703 -0.09028487 -0.1700259 -0.019405032 -0.00588927 0.023772487 -0.036947604
0.077259436 -0.038549013 -0.052336488 -0.03935989 0.009502723 -0.028539235 -0.05319708 0.112414606
0.004796258 0.007137459 -0.01139983 -0.062460206 0.021535857 -0.025500402 0.04290454 0.025155734
0.024187142 -0.017760582 -0.032544095 0.035367474 0.05247077 -0.12879814 0.0382335 -0.0034743105
-0.0934302 -0.15932812 -0.010367781 0.03274764 0.00160234 -0.005593214 -0.09254586 -0.04619062
0.025605977 0.0099786585 0.024698848 -0.044641353 -0.002290147 0.02584465 0.0078516025 -0.020286638
00000000: 24c6 8a3c edd1 563b dde3 c03b cf52 7dbd
00000010: 427a 0f3c 37a7 efbd f1ec e33d 4ec6 dbbd
00000020: c2b7 ae3c 7c24 6f3d 684f 5d3d 1e23 1dbd
00000030: c29b d4bd 8dcc ce3b 72fa a0bc f4de a1bd
00000040: 5e52 673d 30f4 debd b554 56bc 66a4 c0bc
00000050: d9a1 7cbd 07db 99bd 65f4 d1bd c571 48bd
00000060: 9cad ddbd 9133 66bc ff35 763d f0ec debd
00000070: 9b85 923c b2ef 03bd 9c4e d13c 698c 06bd
00000080: 76fe 0ebe 0fdd 5b3d b5ca 793d b9fb afbb
00000090: 4beb a33d d7b1 133d d1f7 5cbb 8543 b5bc
000000a0: 424a 053d d646 a1bd a45d 5d3d 30f0 a3bc
000000b0: 75a9 b03d cb07 013d 8e37 9d3c d596 183e
000000c0: f703 eebb 9362 3cbd b03a 74bd cf70 b43d
000000d0: 75b9 033c 97e6 2c3c 3115 283c c855 92bd
000000e0: 07f4 743d a5e4 bfbd 2aba a8bd 8818 b93c
000000f0: d960 24bd cf45 9e3c ca4c 0ebc d7dd 3f3d
00000100: 0107 3cbd 9d3b 32be d606 3bbd cd2f 14bc
00000110: 42bb a63d 125c 06be 5537 8dbd 1f88 d4bd
00000120: 3ad0 123b 6dd6 de3c ea49 613d f36d 13bd
00000130: 43db 0d3a a3ce 6bbd d8d4 1dbd 1795 a23b
00000140: 359f f0bd 4424 f9bd 63f9 a3bd 1692 58bd
00000150: 8db8 05bd c44c 123c 2a81 d93c 07ef 123d
00000160: 404a 443d b0cc 9cbd abfb 8dbd 8720 0dbb
00000170: 7771 703d cedd c9bd 26ec e83c d99c 873d
00000180: 9ec5 9bbd 6a13 15bc 4bdf 903d 2f14 523c
00000190: 3231 b53b 4ab4 f33c 53ac 083d 949d 11bc
000001a0: 9c96 3fbc fcf9 b4bc 70d1 bbba 0d71 1a3d
000001b0: 86ad 43bd e710 88bc 3e46 09bd 5a3d 633d
000001c0: cd8a 00be 6911 c0bb b753 ad3d 61aa 61ba
000001d0: fd17 b83c c5df 11bd 16ed de3b 28e6 683d
000001e0: 820d 0dbe 3f1d bcbd 5a69 c13d 9ae3 a0bc
000001f0: 1e47 b9bc 910f 64bd dab9 6bbc d411 873d
00000200: 3bfb be3d 0925 333c 6fd1 49be afda 7abc
00000210: 1831 0b3c 0776 eb3c 4759 2e3d 7ea7 33bd
00000220: 2d1c 8dbc c17f 95bc 17f7 413c 7e1b a53d
00000230: 3ce7 29bc 30fd 0d3c 2faf efbd 0efe b0bd
00000240: 4593 30bc b3ff e0bd b18d 06be a034 67bd
00000250: 4f6d a0bc 16d9 773c ada1 5a3d 2b7c 12be
00000260: 5a81 3fbc 8bab a83d 6c8d b03c 18ee 58bd
00000270: 7cf1 a53c e4ad 8cbd cdae 62bd 5ae8 f9bd
00000280: eab4 9dbb 4aeb 643c c7f7 17bd 475b b53c
00000290: cc3f 403d 16ad 3d3d c036 84bd 6218 7b3d
000002a0: 48e0 39bd 8856 20bd 8414 873b 4b7a c3bd
000002b0: 0427 af3d 445a c4bd 48d7 493d e460 803d
000002c0: cc37 ffbd ea59 043d 8ead 92bd 04bc 143d
000002d0: addf 41bd 8be1 d53d 5d63 debd 4771 533c
000002e0: cf62 2539 cc1e 62bd d839 003d cca6 08bd
000002f0: 1e82 3abd 7a66 cc3d 9ec8 dc3c 7235 cbbb
00000300: 5fc4 ebbc 9987 9bbc 0793 aebc 404b 12bd
00000310: b2eb 10bd ba8f 34bd b26a 99bd 33dc fa3c
00000320: bdab fcbd c517 a6bc a20d 7d3c 4ce8 70bc
00000330: 6a6f 0ebe 58c2 173d 8873 043d f915 05be
00000340: 3e9d 853b 5cfe 9cbd 46e7 b8bd 451b 2ebe
00000350: 4df7 9ebc c7fa c0bb 85be c23c 5f56 17bd
00000360: 323a 9e3d 92e5 1dbd c95e 56bd d637 21bd
00000370: 4fb1 1b3c 1dcb e9bc 2ee5 59bd a139 e63d
00000380: ee29 9d3b 58e1 e93b 5ac6 3abc 46d6 7fbd
00000390: f76b b03c 38e6 d0bc acbc 2f3d 6613 ce3c
000003a0: 1d24 c63c a47e 91bc f54c 05bd 7cdd 103d
000003b0: 97eb 563d a9e3 03be bb9a 1c3d 42b1 63bb
000003c0: 5558 bfbd e926 23be a0dd 29bc 6422 063d
000003d0: 9c05 d23a 4847 b7bb af88 bdbd 6032 3dbd
000003e0: a0c3 d13c 877d 233c 3d55 ca3c dad9 36bd
000003f0: 4a16 16bb 29b8 d33c 02a4 003c 2a30 a6bc

bias f4 [128]
-0.01606689 0.032629184 -0.0720875 -0.03206558 0.0007711661 -0.028238084 0.016317945 -0.017761772
-0.057951327 0.08026001 0.03647526 -0.011427172 0.022048648 0.088198274 -0.044213228 0.027381502
0.03184515 0.029818378 -0.020604445 -0.06583065 0.112938635 -0.18045756 -0.021898989 0.06615431
-0.032572243 0.077386156 0.116250105 0.018614471 -0.007976069 -0.013048612 0.070145726 0.10705006
0.0005083315 -0.013196001 0.08224143 -0.008286975 0.040611494 0.067759395 0.01690358 0.08433314
-0.12586167 -0.040258806 0.08796197 0.10570549 -0.016520217 0.071457 0.0059862942 -0.0008133045
-0.023878692 -0.036953688 0.083358444 0.058489963 0.10025587 0.1283025 0.09697916 0.029510332
-0.009032235 -0.039541222 0.080244735 -0.046250623 -0.018308913 0.08597168 0.025677858 0.04050014
0.060635526 0.07411111 0.04375083 0.04250297 0.07789114 0.0029330836 -0.010679327 0.14440791
0.023398388 0.009187001 0.013056448 0.081841595 0.031543415 0.039318666 -0.018530736 0.045690592
0.08524557 0.033233687 -0.024844605 0.06403036 0.0368535 0.023687242 0.00073235104 -0.09716462
0.094925575 0.05945433 0.09092077 0.1046527 0.035455134 0.104307696 0.08309716 0.10620719
-0.07057799 0.09798294 0.09863568 0.006851162 0.017401924 0.10451051 0.032835413 0.073337235
-0.022067856 0.02624118 -0.052642312 0.104369245 0.043732356 0.0070061292 -0.06257634 0.05454637
0.0701847 -0.038559467 0.025510348 0.12197676 0.051771514 0.014896433 0.049825404 0.010119705
0.034408357 0.046207864 0.071083084 0.036974348 0.054453377 0.004653279 -0.04178467 0.017621944
00000000: b69e 83bc 2ea6 053d 9ca2 93bd 3357 03bd
00000010: 1528 4a3a 8e53 e7bc 36ad 853c 2381 91bc
00000020: 5f5e 6dbd 5c5f a43d 1567 153d 0939 3bbc
00000030: 5e9f b43c 4ca1 b43d ee18 35bd 2c4f e03c
00000040: 0f70 023d ac45 f43c a7ca a8bc 38d2 86bd
00000050: 5f4c e73d dec9 38be 8265 b3bc e97b 873d
00000060: 796a 05bd a27c 9e3d 8914 ee3d 607d 983c
00000070: 0fae 02bc d8c9 55bc 90a8 8f3d 103d db3d
00000080: 8d41 053a 0a34 58bc 326e a83d 18c6 07bc
00000090: 3d58 263d 70c5 8a3d 6079 8a3c dab6 ac3d
000000a0: e2e1 00be 6be6 24bd 6825 b43d 1f7c d83d
000000b0: 6855 87bc 0c58 923d ad28 c43b f133 55ba
000000c0: 3f9d c3bc c05c 17bd d5b7 aa3d 2c93 6f3d
000000d0: f352 cd3d bb61 033e 039d c63d a7bf f13c
000000e0: f0fb 13bc faf5 21bd 5a57 a43d 4b71 3dbd
000000f0: 93fc 95bc ec11 b03d 5f5a d23c 7ae3 253d
00000100: f55c 783d 91c7 973d 1234 333d 9817 2e3d
00000110: 6485 9f3d fa38 403b 58f8 2ebc abdf 133e
00000120: faad bf3c 1385 163c b6ea 553c 919c a73d
00000130: ab33 013d 9c0c 213d c5cd 97bc 0f26 3b3d
00000140: 3b95 ae3d 0c20 083d ea86 cbbc 5922 833d
00000150: b2f3 163d bf0b c23c 3ffb 3f3a 3ffe c6bd
00000160: 5768 c23d 6286 733d ab34 ba3d 2854 d63d
00000170: 6739 113d 469f d53d d82e aa3d 2883 d93d
00000180: 318b 90bd 48ab c83d 8101 ca3d b67f e03b
00000190: 7b8e 8e3c 9b09 d63d 6d7e 063d d531 963d
000001a0: a6c7 b4bc bef7 d63c 779f 57bd 8bbf d53d
000001b0: b320 333d ac93 e53b 0628 80bd 046c 5f3d
000001c0: ffbc 8f3d 88f0 1dbd 14fb d03c f4ce f93d
000001d0: 5e0e 543d 2b10 743c b915 4c3d 1fcd 253c
000001e0: c7ef 0c3d 7544 3d3d 0294 913d 6a72 173d
000001f0: 810a 5f3d 897a 983b 6726 2bbd e55b 903c

weight f4 [128, 128]
0.04098912 -0.03840555 -0.076385126 -0.07255762 -0.071131155 -0.07518676 -0.04936233 -0.059181094
-0.031365767 0.120419115 -0.14039616 0.034889627 0.1124007 0.0035693506 0.033334985 -0.05843533
0.116536625 0.09218447 -0.011604961 0.02973597 0.06923348 0.16174273 0.07643158 0.093780786
0.0377559 0.08767515 -0.05741488 0.075704716 0.05881383 -0.09948839 0.024769997 0.04419172
-0.03913558 -0.0038676907 0.0800513 0.13651714 0.069093645 -0.013146492 0.04472899 -0.13233149
-0.02619993 0.017776638 -0.020014128 0.06868007 -0.058887873 -0.052803036 0.061364368 0.082315974
-0.021914888 0.04320234 -0.0492747 -0.09002243 -0.04963556 0.03151619 0.0065714014 0.09751516
0.08715357 0.03379869 0.08913168 -0.045332223 0.066805646 0.038418718 -0.011917619 -0.03912353
0.101555474 -0.019157982 0.062448226 -0.016389182 0.09150804 -0.062483888 0.06737283 0.040163275
-0.023671469 0.044930752 0.0411216 0.060596067 -0.030597337 0.04716293 -0.006956742 0.118218526
-0.061158955 -0.03989561 -0.03370698 0.029474411 -0.07104552 -0.010374984 0.04769402 0.15869772
-0.0058098305 0.03135654 -0.013844398 -0.035161946 -0.016711604 -0.016045725 0.009260225 -0.07159699
-0.07941399 -0.054511208 -0.005609497 0.0020504368 -0.036637172 0.060504545 0.080742024 -0.039752793
0.077444844 -0.058342725 0.011762381 -0.09410457 0.008629526 0.014228761 0.060264822 -0.034584235
0.017430808 -0.035576332 -0.006966235 0.013771589 -0.044834226 -0.026401466 0.02002808 0.03244228
-0.03676589 0.0025179961 -0.010942278 0.0253324 0.06671262 0.02979784 0.016536012 0.10937773
0.13902375 0.09843894 0.009578685 0.052472662 0.034029234 0.0681208 0.012662805 0.06993224
-0.044456866 -0.012942348 0.065854646 0.031534452 -0.008697381 -0.06841205 0.027358387 0.02757934
0.007859504 -0.0557229 -0.1323363 -0.0014945857 -0.08460729 -1.0184297e-36 -0.03031173 -0.005330378
-0.037728764 0.120514795 -0.07777367 -0.054702673 -0.11272453 0.10986146 -0.08589933 0.1475153
0.011972027 -0.03014702 -0.09107253 -0.019995088 0.021738758 0.11766743 -0.05989014 0.097924344
0.011264496 0.1122692 0.06776939 -0.098547705 0.08750592 0.100572035 -0.0639468 -0.0028011845
-0.03137219 0.045641392 -0.11762894 0.108737245 -0.0284258 0.048599403 -0.07190325 0.12146112
0.0035879384 -0.16811608 -0.0984512 -0.075703695 -0.09085837 -0.0726743 -0.00022211173 -0.03998595
-0.010153012 -0.12062633 -0.021143867 -0.009697154 0.011115492 -0.12156988 0.027490363 0.07719112
-0.07107262 -0.090702005 0.017867919 -0.057284404 0.0063720825 0.04782738 -0.017055567 0.032933246
-0.09082525 -0.036711525 -0.026886377 0.083963335 0.050257202 -0.03781063 -0.002574685 -0.009866361
0.08151187 -0.04692556 0.05340674 -0.012639727 -0.011869398 0.0086106835 -0.09626273 -0.06635597
0.042884383 -0.048673395 -0.06002003 0.07240629 0.009752404 -0.068708606 -0.026582759 -0.13099885
-0.13678214 -0.038123805 0.01096525 0.07458262 -0.06521358 -0.010506596 -1.2933914e-36 0.07274344
0.081116624 0.03153223 0.025417844 0.07967593 0.009371661 0.02640071 -0.04754311 -0.018967107
-0.0681122 0.03550516 -0.113193735 -0.09407428 -0.07291462 0.042701755 -0.08114953 -0.06737162
00000000: 35e4 273d 234f 1dbd ce6f 9cbd 1799 94bd
00000010: 36ad 91bd 84fb 99bd 2830 4abd e067 72bd
00000020: 6479 00bd 4c9e f63d 03c4 0fbe 6de8 0e3d
00000030: 5732 e63d c4eb 693b 448a 083d e259 6fbd
00000040: c1aa ee3d 36cb bc3d bc22 3ebc d998 f33c
00000050: 48ca 8d3d e39f 253e 2988 9c3d 2410 c03d
00000060: eea5 1a3d 078f b33d dd2b 6bbd 130b 9b3d
00000070: c5e6 703d 92c0 cbbd 73ea ca3c 6102 353d
00000080: a14c 20bd 1579 7dbb f0f1 a33d 26cb 0b3e
00000090: f880 8d3d 6264 57bc bf35 373d e881 07be
000000a0: 3ca1 d6bc 50a0 913c abf4 a3bc 23a8 8c3d
000000b0: 6934 71bd ff47 58bd 3459 7b3d 4795 a83d
000000c0: da86 b3bc f0f4 303d 45d4 49bd ae5d b8bd
000000d0: a84e 4bbd 1f17 013d e954 d73b 07b6 c73d
000000e0: 927d b23d 7f70 0a3d ac8a b63d 48ae 39bd
000000f0: 66d1 883d f25c 1d3d 1e42 43bc ff3f 20bd
00000100: 51fc cf3d 33f1 9cbc b6c9 7f3d 9b42 86bc
00000110: 9168 bb3d 1bef 7fbd c4fa 893d 3f82 243d
00000120: abea c1bc 4f09 383d 1f6f 283d 9533 783d
00000130: 44a7 fabc eb2d 413d 62f5 e3bb 8e1c f23d
00000140: d081 7abd 9469 23bd 5510 0abd 5274 f13c
00000150: 5080 91bd d6fb 29bc ce5a 433d a881 223e
00000160: 6460 bebb b76f 003d 9dd3 62bc f905 10bd
00000170: c6e6 88bc 5372 83bc 33b8 173c 71a1 92bd
00000180: cda3 a2bd 2547 5fbd dfcf b7bb 9f60 063b
00000190: dc10 16bd 9dd3 773d 135c a53d d3d3 22bd
000001a0: 679b 9e3d c8f8 6ebd 00b7 403c e6b9 c0bd
000001b0: db62 0d3c c01f 693c 3fd8 763d 33a8 0dbd
000001c0: 0ecb 8e3c 7db8 11bd 0445 e4bb 3ba2 613c
000001d0: 18a4 37bd e347 d8bc ee11 a43c 32e2 043d
000001e0: d497 16bd f704 253b 3e47 33bc e585 cf3c
000001f0: a0a0 883d 9a1a f43c 8876 873c 6e01 e03d
00000200: 3e5c 0e3e 5b9a c93d ebef 1c3c 93ed 563d
00000210: 3d62 0b3d eb82 8b3d a777 4f3c a238 8f3d
00000220: 6718 36bd 240c 54bc cdde 863d 452a 013d
00000230: 767f 0ebc 9e1b 8cbd b21e e03c 11ee e13c
00000240: 26c5 003c b23d 64bd 2b83 07be f9e5 c3ba
00000250: 9646 adbd df46 ad83 4e50 f8bc 74aa aebb
00000260: 7a89 1abd 76d0 f63d cd47 9fbd e90f 60bd
00000270: 1edc e6bd 0cff e03d fdeb afbd 400e 173e
00000280: 5226 443c e2f6 f6bc 3c84 babd bdcc a3bc
00000290: 7b15 b23c 9ffb f03d 5d4f 75bd 8f8c c83d
000002a0: b88e 383c 65ed e53d aeca 8a3d 61d3 c9bd
000002b0: 4e36 b33d b6f8 cd3d 8af6 82bd 1494 37bb
000002c0: 2080 00bd 78f2 3a3d 71e7 f0bd a2b1 de3d
000002d0: 39dd e8bc 2b10 473d 0342 93bd 9cc0 f83d
000002e0: 9e23 6b3b 9f26 2cbe c8a0 c9bd 8a0a 9bbd
000002f0: f413 babd 43d6 94bd aae6 68b9 4fc8 23bd
00000300: d258 26bc f00a f7bd e735 adbc d0e0 1ebc
00000310: c11d 363c a1f9 f8bd 7833 e13c 6116 9e3d
00000320: 868e 91bd f9c1 b9bd be5f 923c 0da3 6abd
00000330: e7cc d03b a5e6 433d 1eb8 8bbc 03e5 063d
00000340: 9702 babd d35e 16bd d240 dcbc f8f4 ab3d
00000350: 7fda 4d3d 52df 1abd 0cbc 28bb 84a6 21bc
00000360: b2ef a63d 0435 40bd 07c1 5a3d dc16 4fbc
00000370: dd77 42bc d313 0d3c 6525 c5bd a4e5 87bd
00000380: 89a7 2f3d c15d 47bd 90d7 75bd c049 943d
00000390: 8cc8 1f3c 19b7 8cbd 16c4 d9bc 9024 06be
000003a0: 9e10 0cbe b527 1cbd 98a7 333c c6be 983d
000003b0: b38e 85bd dc23 2cbc 240f dc83 83fa 943d
000003c0: 7920 a63d f127 013d 1539 d03c 222d a33d
000003d0: 988b 193c 4d46 d83c 90bc 42bd e860 9bbc
000003e0: 697e 8bbd dc6d 113d 1ed2 e7bd 04aa c0bd
000003f0: 4354 95bd 09e8 2e3d ba31 a6bd 22fa 89bd

bias f4 [128]
0.114932455 0.007923613 -0.033951104 -0.04227055 0.14853163 0.02968077 -0.032520935 0.104659066
0.046147693 0.086798236 -0.06939843 0.08455788 0.12547585 0.059396923 0.050408047 0.0018451232
-0.034337092 0.12252896 0.03932027 0.01080469 0.14037365 0.019547887 0.092280604 -0.06181906
0.0009294661 0.01537198 -0.019888772 0.0138321705 -0.0036332698 -0.038214654 0.14621685 -0.0015558725
0.13105454 0.082522444 0.09281254 0.07543363 0.09118714 0.118337154 0.11554464 0.04360403
0.11764332 0.013401542 -0.0006032032 0.10492121 0.094075486 0.07382674 0.1061569 -0.03311074
0.055226915 0.048666622 -0.043257307 0.07537506 0.058579516 -0.099284366 0.11575856 0.043440726
0.10421682 0.10059839 0.038587306 0.0087871365 0.09100529 0.08911671 0.018343886 0.07284944
0.042236585 0.0665237 0.080071665 0.037801452 0.089598134 0.10264514 -0.0070778127 0.14403158
0.14594275 -0.057117037 0.041697145 0.10833826 -0.025077257 0.13934967 -0.027466761 0.053325728
0.09297048 0.089443 0.07136602 0.09620215 0.06233018 0.035528578 0.13349515 -0.03549153
0.06174705 -0.03186796 0.042049304 0.017163139 0.15095018 0.026246238 0.07344408 0.059387226
-0.083798945 -0.010196347 -0.069859855 0.069854274 0.0862757 -0.0066426876 0.15375443 -0.013270474
0.009259363 0.09064689 0.027533306 0.05078821 0.09574289 0.048273508 0.03888533 0.12640887
0.07451208 0.045978874 0.03805126 0.04496531 0.13928193 0.080291666 0.029998504 0.10565004
0.12061299 0.032046724 -0.021108182 0.12817949 0.067122854 0.051516373 -0.00540304 0.12703167
00000000: b561 eb3d 0bd2 013c 5010 0bbd e223 2dbd
00000010: ad18 183e 1625 f33c ac34 05bd 7e57 d63d
00000020: 5d05 3d3d 46c3 b13d c420 8ebd af2c ad3d
00000030: be7c 003e 304a 733d ab78 4e3d 10d8 f13a
00000040: 0da5 0cbd 77f0 fa3d 4b0e 213d 2806 313c
00000050: 1cbe 0f3e e422 a03c 9dfd bc3d fc35 7dbd
00000060: 6aa7 733a c2da 7b3c c7ed a2bc 54a0 623c
00000070: 271c 6ebb f886 1cbd dfb9 153e 6bee cbba
00000080: 2933 063e 8701 a93d 8014 be3d f27c 9a3d
00000090: 53c0 ba3d c05a f23d aba2 ec3d 249a 323d
000000a0: fbee f03d 2492 5b3c 4820 1eba eee0 d63d
000000b0: a6aa c03d 7932 973d ca68 d93d 219f 07bd
000000c0: 9e35 623d a756 473d 932e 31bd 3d5e 9a3d
000000d0: 13f1 6f3d 9a55 cbbd d312 ed3d e7ee 313d
000000e0: a16f d53d 8706 ce3d b90d 1e3d ecf7 0f3c
000000f0: fb60 ba3d d282 b63d eb45 963c 1632 953d
00000100: 4500 2d3d 943d 883d 9dfc a33d b2d5 1a3d
00000110: 3a7f b73d 9d37 d23d ffec e7bb 047d 133e
00000120: 0472 153e 8ef3 69bd a0ca 2a3d 73e0 dd3d
00000130: d26e cdbc aeb1 0e3e f901 e1bc 146c 5a3d
00000140: 4f67 be3d e42d b73d 5928 923d a205 c53d
00000150: ee4d 7f3d 6a86 113d f4b2 083e 915f 11bd
00000160: 7aea 7c3d fa87 02bd e43b 2c3d b699 8c3c
00000170: af92 1a3e 5a02 d73c da69 963d 0540 733d
00000180: c89e abbd 940e 27bc af12 8fbd c20f 8f3d
00000190: 50b1 b03d e7aa d9bb cd71 1d3e 676c 59bc
000001a0: 95b4 173c 14a5 b93d 878d e13c 4c07 503d
000001b0: d914 c43d 71ba 453d 3946 1f3d 5471 013e
000001c0: ca99 983d 5854 3c3d a3db 1b3d 8b2d 383d
000001d0: ec9f 0e3e f56f a43d 6cbf f53c 0c5f d83d
000001e0: f103 f73d 6d43 033d 11eb acbc 7c41 033e
000001f0: b577 893d d502 533d fc0b b1bb 9714 023e

weight f4 [1, 128]
-0.045484073 0.17250076 0.09808111 0.12381226 -0.10709607 0.076119766 0.064598255 -0.10138636
0.039388817 0.11836635 0.07510292 0.1254098 0.14168042 -0.023396626 0.16580203 0.10486576
-0.054534614 -0.061491374 -0.10405644 0.17154597 -0.039318137 -0.06406105 0.11295791 0.06818171
0.008519838 0.058964223 0.0773645 -0.09291643 0.16719441 0.048112515 -0.08067359 0.14104848
-0.10346479 0.11690464 -0.0854526 -0.06849153 -0.027132902 -0.12363042 0.1089749 0.07204319
-0.15057674 -0.09545066 -0.04206378 -0.10781322 0.1016455 0.09477837 0.084420085 0.04177646
-0.03836313 0.10496287 0.17390516 -0.025366561 0.02805671 -0.017369764 -0.040883556 -0.086368345
-0.04669545 -0.07621613 -0.023792917 -0.09368025 0.13352425 0.11038137 -0.09650531 0.11591758
0.14204736 0.1250793 0.14575605 0.08052464 0.13970436 -0.072385214 0.0067418832 -0.03358269
-0.06774126 0.0053317454 0.12509756 -0.04148033 0.0022293103 -0.064297274 0.1894194 -0.019192457
-0.07799457 -0.059720926 0.12227856 0.08651514 0.0794967 -0.043709192 -0.035318922 0.17095523
-0.0544097 -0.066054344 -0.027738867 0.078276925 -0.06825443 -0.05290525 0.114129856 -0.042153314
0.023006788 -0.032292813 -0.05220805 0.13396361 -0.09769872 -0.0127810575 -0.047571484 -0.005420863
0.04988755 -0.06992687 0.15422054 -0.0786138 0.05026511 0.10534589 -0.05170495 -0.085655905
0.12427013 -0.06357357 -0.09734888 0.12012032 -0.028553847 0.07308578 -0.090660825 -0.07513882
-0.052848015 0.11692566 0.04587571 -0.10323413 0.13173667 0.13157718 0.09820478 -0.08945509
00000000: 824d 3abd 0aa4 303e c0de c83d 4891 fd3d
00000010: 2f55 dbbd aee4 9b3d 174c 843d a7a3 cfbd
00000020: 2b56 213d 0f6a f23d 8fcf 993d 6d6b 003e
00000030: ac14 113e 48aa bfbc 02c8 293e dcc3 d63d
00000040: b05f 5fbd 61de 7bbd 8b1b d5bd bfa9 2f3e
00000050: 0e0c 21bd 7132 83bd 7a56 e73d daa2 8b3d
00000060: ca96 0b3c 7884 713d 4771 9e3d f84a bebd
00000070: 0335 2b3e a111 453d 3238 a5bd 036f 103e
00000080: 59e5 d3bd b36b ef3d c601 afbd 4a45 8cbd
00000090: d245 debc f231 fdbd 3b2e df3d 618b 933d
000000a0: ca30 1abe a37b c3bd 124b 2cbd 2dcd dcbd
000000b0: 842b d03d 291b c23d 70e4 ac3d cb1d 2b3d
000000c0: a822 1dbd c6f6 d63d 3214 323e 89cd cfbc
000000d0: 2fd7 e53c 094b 8ebc 8475 27bd e3e1 b0bd
000000e0: ba43 3fbd 3417 9cbd 5de9 c2bc 6edb bfbd
000000f0: 95ba 083e a10f e23d 93a4 c5bd 3266 ed3d
00000100: dd74 113e ca14 003e 1341 153e 1aea a43d
00000110: a90e 0f3e b33e 94bd 04eb dc3b 018e 09bd
00000120: eebb 8abd ecb5 ae3b 9319 003e 47e7 29bd
00000130: 9f19 123b 4aae 83bd 29f7 413e 8039 9dbc
00000140: 9ebb 9fbd ee9d 74bd 2f6d fa3d da2e b13d
00000150: 2acf a23d 6908 33bd 93aa 10bd e30e 2f3e
00000160: b5dc 5ebd 8047 87bd 9f3c e3bc a74f a03d
00000170: fbc8 8bbd 2db3 58bd eabc e93d f4a8 2cbd
00000180: bb78 bc3c 7845 04bd 1cd8 55bd c22d 093e
00000190: 4416 c8bd a467 51bc 51da 42bd 7fa1 b1bb
000001a0: e356 4c3d d235 8fbd fdeb 1d3e 4600 a1bd
000001b0: cae2 4d3d 96bf d73d 92c8 53bd 5d6c afbd
000001c0: 5781 fe3d dc32 82bd d95e c7bd a401 f63d
000001d0: c2e9 e9bc ffad 953d 62ac b9bd 62e2 99bd
000001e0: 2977 58bd b876 ef3d 2be8 3b3d 6a6c d3bd
000001f0: fae5 063e 2bbc 063e 961f c93d 3b34 b7bd
