bike_sharing/AutogluonModels/ag-20220403_213147/models/NeuralNetTorch_BAG_L2/S1F6/net.params (torch, 215879 bytes, 9 tensors)

weight f4 [128, 22]
000000 3c 13 c8 bd 03 9a 65 3e c6 7b f9 bd 44 d2 f4 bd
       -0.09769294 0.22422032 -0.12181811 -0.119541675
000010 61 b9 dd bd 53 31 e7 3d 9e 55 95 3d ea d3 45 3e
       -0.10826374 0.11288705 0.07291721 0.1931912
000020 38 8e ae 3c e4 7a 1c 3d e3 43 80 bd 95 a0 49 bc
       0.02130805 0.038203135 -0.06262948 -0.012306352
000030 46 2f 3d be 6c b3 12 be 37 61 d4 bd 46 a6 3c 3d
       -0.18475065 -0.14326257 -0.10370105 0.04605701
000040 10 c9 bc 3d 13 84 48 3e 6e 8a bf bd 2e f0 9b bd
       0.09218037 0.19581632 -0.09352575 -0.0761417
000050 5d 65 b4 3d 12 48 3d 3e 4e 91 22 be 70 90 60 3e
       0.08808396 0.18484524 -0.15875742 0.21930099
000060 46 99 80 bd 1e 4c 6b 3c 45 2e 30 3e 2a 5a 51 be
       -0.062792346 0.0143614095 0.1720515 -0.20444551
000070 3c 1d 02 be 50 f9 b6 3a 24 fa 29 bd 2d 8f 24 3e
       -0.12706465 0.0013959799 -0.04149832 0.16070242
000080 27 8c 0b be e6 ff 0f be 5f 7f 3d be f0 61 2a be
       -0.13627683 -0.14062461 -0.1850562 -0.16638923
000090 23 7e 23 be c8 cc 27 3e 62 4c c6 3d eb c0 05 3e
       -0.15966086 0.16386712 0.096825376 0.13061874
0000a0 9a 51 82 3d 97 2d f6 bd 87 b8 1f 3d 55 3c 2f be
       0.063632205 -0.12020414 0.03899434 -0.17112859
0000b0 20 b3 18 be 16 cb d3 be 8c 83 67 3d b1 1c 13 3e
       -0.14912081 -0.4136588 0.056521937 0.14366414
0000c0 e7 79 b7 bd 9b 30 12 bb 9b 9a 04 3e f9 28 06 3e
       -0.08958798 -0.0022306803 0.12949602 0.13101567
0000d0 97 86 68 3d f6 7b 37 3d 72 da fc 3d 69 36 55 bd
       0.05676898 0.044795953 0.12346353 -0.052053843
0000e0 dc e2 c6 3c b9 3c f8 bd 89 4f d0 bd 85 3d e8 bd
       0.024278097 -0.12120957 -0.1017142 -0.11339859
0000f0 46 9f 21 3e 15 92 e0 3b 96 21 12 be c9 13 b6 3d
       0.15783414 0.006853352 -0.14270625 0.088904925
000100 cd 59 a7 3d de 7e 80 3c bb fe 9d bd d8 5b 59 3e
       0.08171425 0.015685495 -0.077146016 0.21226442
000110 30 2d e4 3d 8a 9d e0 3d f4 46 d7 bd 88 8d ed bd
       0.11141431 0.10967548 -0.1051158 -0.115992606
000120 28 88 4a 3d 2d c6 29 3e 4e be da 3d 91 05 36 3e
       0.049446255 0.16579504 0.10680829 0.17775561
000130 e5 d8 b9 3d 70 c4 2a be 2b d4 7f bc 47 a4 02 be
       0.090745725 -0.16676497 -0.01561455 -0.1275798
000140 cd b1 73 be 77 e8 28 3e 65 db 27 3e 5a 8d 0a be
       -0.23798294 0.16494928 0.16392286 -0.13530484
000150 78 b3 98 3c 7a 26 c8 bd dd 02 0d 3d 5a 53 3a be
       0.018640265 -0.09772964 0.03442656 -0.18195859
000160 ba 8c 07 3e b8 9b ac be 8c 0e 35 3d e7 8f ac 3d
       0.13237277 -0.33712554 0.044203326 0.08425885
000170 db 77 4b 3e 87 06 9a 3d 2e fd 46 be 44 04 d7 bd
       0.1986994 0.07520776 -0.19432518 -0.104988605
000180 ce 7c 86 3d f7 04 5d 3d fe 3a 07 be b1 a9 e7 bd
       0.06566773 0.053959813 -0.13206097 -0.11311663
000190 33 8b 27 3e 0d b6 38 3e ef ef 99 bd ff 6e 92 bd
       0.16361694 0.18038197 -0.07516467 -0.07150077
0001a0 9d 85 65 be ed a8 19 3b ee c2 c8 bd 50 b9 0c be
       -0.2241425 0.0023446635 -0.09802805 -0.13742566
0001b0 a0 25 e8 bc 14 56 f1 3d b3 f8 8b be 5e cc 81 3e
       -0.028338253 0.11783996 -0.2733818 0.25351232
0001c0 fb cc 01 be 11 34 18 3e 72 5e 75 3d 82 27 ae bd
       -0.1267585 0.14863612 0.059904523 -0.08503629
0001d0 d0 cd 30 3d ef 1a 7d bc 42 9e 07 3d 33 58 ab 3c
       0.043165028 -0.015448316 0.03310991 0.02091608
0001e0 f7 88 27 3c 4a 13 5d bd d0 ba da bd 55 d4 ab 3d
       0.010225526 -0.053973474 -0.10680163 0.083901085
0001f0 1f ab 47 be 54 92 a9 bd f3 ac a0 3b e7 53 24 bd
       -0.19498871 -0.08279863 0.0049034297 -0.040119078
000200 94 07 a8 bd 78 c1 2a be 2d 82 26 bd 9b 71 8a 3d
       -0.082045704 -0.16675365 -0.04065149 0.0675995
000210 30 29 57 be a1 1a 14 be 0a b8 b9 3d a5 54 99 bd
       -0.21011806 -0.14463283 0.09068306 -0.07486848
000220 89 9e ee bc ad 8c 46 bd ea 74 ea 3b ac d0 07 3e
       -0.02912833 -0.048474003 0.0071550505 0.13263196
000230 1c ad 51 3e 1e e6 c8 3d 6d dc 30 3e 6e 0f 13 bc
       0.20476192 0.09809516 0.17271586 -0.008975847
000240 62 36 20 be 87 72 0e be 87 82 1b 3e d6 82 ae bc
       -0.15645745 -0.13910876 0.15186511 -0.021302622
000250 77 1e 00 be 7c 1f f4 bd ed be 57 be 9e c6 5e be
       -0.12511621 -0.11920068 -0.21068926 -0.21755454
000260 76 90 e0 bd 2f 62 ff 3d 39 74 92 3e 59 44 c2 be
       -0.10965054 0.12469899 0.28604296 -0.3794277
000270 30 b1 01 3e 87 26 11 be 52 f1 bc bc 39 ab 8b bd
       0.12665248 -0.14174853 -0.02306429 -0.068197675
000280 99 8a 10 bd 6d ec 3f bc f3 93 d8 bd 03 98 d0 bd
       -0.035288427 -0.011714083 -0.10575094 -0.10185244
000290 da b4 aa 3b ad cd 06 bc 58 78 96 bd 58 89 c7 3d
       0.0052095475 -0.008227748 -0.073471725 0.09742993
0002a0 31 8e 08 be 6a ac 06 3c 84 93 3c 3e 50 4f ea bc
       -0.13335492 0.008219818 0.18415648 -0.028602272
0002b0 8c fb df 3d 3d 11 bc 3d 1d a2 1b be ea 1a ac 3d
       0.10936651 0.091829754 -0.1519856 0.08403571
0002c0 dd 9d 35 3e 54 b4 a0 be 31 fd c4 3d a8 77 1c be
       0.17736001 -0.3138758 0.09618605 -0.1528002
0002d0 4d a8 0b 3d b0 46 a2 bd 4f 22 c4 3d 64 cc 6f 3d
       0.03409605 -0.07923639 0.09576856 0.05854453
0002e0 0c 7b 4d 3d 23 33 16 3d 7e 02 5d bd 54 80 0a bd
       0.050166175 0.03666986 -0.053957455 -0.03381379
0002f0 ff e4 ac bd e8 e4 98 3d 50 3e 2f 3e 13 5a 8a 3d
       -0.08442115 0.074655354 0.17113614 0.067554615
000300 d7 d8 40 be 8e 5f 22 3b 64 ae fa bd 8b fa 0f be
       -0.18832718 0.0024776193 -0.122402936 -0.14060418
000310 09 37 4c be 8e c2 be 3d 09 7e 7a be bf b3 b0 be
       -0.19942869 0.09314452 -0.24462141 -0.34512135
000320 b5 07 a5 bd b6 8a 2c 3e fe 31 e7 bd 18 50 b6 bd
       -0.080581106 0.16849789 -0.11288832 -0.089019954
000330 25 51 94 bd d4 4d 23 3d e3 19 45 bc 30 2d 94 3d
       -0.072420396 0.039869145 -0.012030098 0.07235181
000340 e0 bd a2 3d 30 e7 80 3d 20 bc 33 bd 0a cc 67 bc
       0.07946372 0.062940955 -0.04388058 -0.014147768
000350 66 74 06 3d 6e 03 de bc 22 0d 99 3c 87 af 57 3c
       0.03282585 -0.027101245 0.01868302 0.013164408
000360 6e 84 c3 bd 08 8e 7e be 8f 8d 0f 3e ab df e9 bd
       -0.09546743 -0.24858868 0.14018844 -0.114196144
000370 e2 ee 48 be 54 bf a5 3e f2 f3 c3 3c 59 2a 88 bd
       -0.19622377 0.32372534 0.023920033 -0.06648702
000380 6d 03 01 be 90 69 d2 3d e0 53 1f be 7b a7 ab bc
       -0.12598963 0.10274041 -0.1555934 -0.020953884
000390 51 d0 94 bd 6f 01 23 bd 3a 5b 68 3d 21 25 c4 3d
       -0.07266296 -0.03979629 0.056727625 0.09577394
0003a0 8b 7b 2d 3c 6d a0 17 3e a6 20 4c 3d ce 1d 2a be
       0.010588537 0.14807291 0.049835823 -0.16612932
0003b0 ca 8b a2 3d fc 06 61 bd e2 10 05 be 86 22 76 bb
       0.07936819 -0.0549383 -0.12994722 -0.0037557199
0003c0 4a 17 83 3d 68 4a c8 3d 75 7d 82 be f0 c8 af bd
       0.064009264 0.09779817 -0.2548634 -0.08583248
0003d0 49 a8 80 3d 9f fb 5f be ae d2 0b 3e 33 ff f3 bd
       0.06282098 -0.2187333 0.13654587 -0.1191391
0003e0 78 29 83 3d f8 f3 be bc 54 23 22 bd 59 6e 7b bc
       0.06404394 -0.023309693 -0.039584473 -0.015346133
0003f0 e8 40 1f 3e fa 7f b6 bd 75 18 17 be 49 ae 43 bd
       0.15552104 -0.08911128 -0.14755423 -0.047773633

bias f4 [128]
000000 6f 9d 1c be ae 8e 0d be 28 a3 f2 3b c1 d9 bb bd
       -0.15294431 -0.13823959 0.0074047036 -0.09172393
000010 46 34 47 bd a0 a0 e8 3d a8 87 5e bd d9 4f 1a 3d
       -0.048633836 0.11358762 -0.05432859 0.037673805
000020 25 7e 35 3e 5c 87 2f be 47 53 36 be 5d 51 00 be
       0.17723902 -0.17141479 -0.17805205 -0.12531038
000030 c5 6d 1c bd 74 06 05 be 15 ef 58 bd d0 ba cc 3c
       -0.038190622 -0.12990743 -0.05296238 0.024991423
000040 f7 61 51 3d d7 a1 27 3e fc e4 20 3e 9d 54 7e 3c
       0.051118817 0.16370331 0.1571235 0.015523103
000050 af 59 26 bc 66 07 31 3d 5d cd 0e bd cd da a8 bd
       -0.010153218 0.043219946 -0.03486382 -0.08244858
000060 6b 01 d9 3d aa 74 84 be 0e b7 20 be 0d 1c 8c bd
       0.105959736 -0.25870258 -0.1569483 -0.06841288
000070 a7 7f c8 bd 83 d5 07 be 1e 69 7b be a9 99 16 3e
       -0.09789973 -0.13265042 -0.24551818 0.14707054
000080 c1 f2 6d bd f8 30 b2 bd 16 ef 06 be 35 ea 1b 3d
       -0.058092836 -0.08700746 -0.13177142 0.038065154
000090 b8 18 3c be c5 de 7b bc f6 42 83 bc a6 5b 30 3d
       -0.18368804 -0.015372937 -0.01602314 0.043056153
0000a0 0c 31 94 3d c6 e9 15 be 92 a4 aa 3d 9c e4 19 3e
       0.072359174 -0.14639959 0.083321705 0.15028614
0000b0 8f d4 27 bd 1e 57 6c 3d f5 c9 01 bd 4d 63 97 3c
       -0.040974196 0.05770027 -0.03168674 0.018479967
0000c0 28 9b af bc 07 d4 e6 bd 5c f7 fe 3d 2e 6c 89 be
       -0.021436289 -0.1127091 0.12449524 -0.26840347
0000d0 cc 73 02 bd 61 d6 2c be ee 78 ff bd cf 41 3a be
       -0.031848714 -0.16878654 -0.124742374 -0.18189166
0000e0 c2 1e 8c be d4 1c 95 3d a4 85 af bd 19 b3 12 be
       -0.27367216 0.07280889 -0.08570412 -0.14326133
0000f0 8b 13 a3 bc 8f b9 9c bd b8 7d 46 3c 19 0d 21 be
       -0.01990678 -0.0765258 0.012114935 -0.15727653
000100 77 4d c4 bc 6a c4 64 3d 2d 9c 5d 3d 90 26 80 3c
       -0.02396272 0.055851378 0.05410402 0.015643388
000110 08 22 ff 3c 00 c2 27 3e f0 66 eb bd 29 0d c0 3d
       0.031144157 0.16382599 -0.11494243 0.0937751
000120 2a 7e 42 3e 0d 8d 4c be 23 89 a7 3c 47 27 eb 3d
       0.1899344 -0.19975682 0.020451134 0.11482101
000130 e8 af 6e bd 03 5c 9b 3d 5a a9 9c 3c a1 98 f0 3d
       -0.058273226 0.07585909 0.019123722 0.11747862
000140 40 da 0d bd 33 4a ec bd 5b 43 f6 3d 25 2d b4 3d
       -0.034631968 -0.1153759 0.12024566 0.08797673
000150 0d 61 0a 3e 09 a9 6b 3d f2 04 f7 3d 23 fc 27 3d
       0.13513584 0.05753425 0.1206149 0.04101194
000160 ec 09 21 3d 50 e6 a2 bd 37 bf 82 3d df 34 28 be
       0.039316103 -0.07954085 0.063841276 -0.16426419
000170 93 95 c5 3c 83 e5 d2 bc ff c2 03 bc fe e1 0f be
       0.024119174 -0.025744205 -0.008042096 -0.14051053
000180 59 6c 62 3d 21 9a 52 be f6 53 c4 3d ec a9 e1 3d
       0.05527911 -0.20566608 0.09586327 0.11018738
000190 9f d4 6c be bc fb 0e 3e 91 e8 45 be 33 a5 15 bd
       -0.23127984 0.13963217 -0.19326998 -0.0365345
0001a0 44 38 a8 3d 83 2a dd ba 5c 42 2a 3e b8 69 cd bd
       0.08213857 -0.0016873631 0.16626877 -0.1002993
0001b0 d5 f6 ab ba 09 82 35 be eb 14 c4 bd 6b 0a 6a 3e
       -0.0013119826 -0.17725386 -0.09574302 0.22855537
0001c0 90 24 ed 3d 7c 01 d2 3c c5 7b f4 bc b8 bb 20 be
       0.11579239 0.025635473 -0.029844174 -0.15696609
0001d0 47 72 19 3e 18 df 9a 3c 7c d6 38 bd 98 c6 1d be
       0.14985 0.018905208 -0.045126423 -0.15407789
0001e0 a9 5c 18 3e 85 ce 9e 3d 9e 8d de 3d 89 8c 65 3c
       0.14879097 0.07754234 0.10866855 0.014010557
0001f0 c2 ec 19 be 8f 13 db 3d 70 cc 17 3d 08 24 86 3d
       -0.15031722 0.1069709 0.0370602 0.06549841

weight f4 [128, 128]
000000 1d b7 cf bc 58 c3 9a bd cd 3f e6 3d fa 9b ab 3c
       -0.02535587 -0.0755679 0.11242638 0.020948399
000010 80 c7 de 3b 8d 2e 54 bc 53 63 13 bd e1 2f ef ba
       0.0067986846 -0.012950552 -0.035983395 -0.0018248522
000020 84 c1 53 3d 14 74 a7 3c a0 7e 11 3d 4d a8 53 3d
       0.051698223 0.020441093 0.03552115 0.051674176
000030 25 24 33 3b fa dd c4 bc 14 2f 4a 3d e9 11 1e bd
       0.0027334776 -0.024031628 0.049361303 -0.0385913
000040 6c ed 93 3d dc b0 06 bd 87 83 06 3d 19 f9 c8 bd
       0.07223019 -0.03288351 0.032840278 -0.098131366
000050 ac 8e ca 3d 59 ed b3 3d 17 b1 79 3d cf f7 2a bc
       0.09890494 0.08785505 0.0609599 -0.010435059
000060 8e 92 79 3d b6 1c 64 3d 55 3b 96 3d 81 2f 3e 3d
       0.06093078 0.055691443 0.073355354 0.046432022
000070 79 e8 c0 bd 7c e2 b5 3c 09 5b ae 3c 5e 33 05 3b
       -0.09419341 0.022202723 0.021283643 0.0020324807
000080 ca 53 6a 3d f0 fd e8 3c ee 93 8c 3b 2b b9 94 3d
       0.057208814 0.0284414 0.0042900955 0.072618805
000090 94 48 53 3c 48 15 72 3c cd 94 3e 3c 2f 53 11 bb
       0.012895722 0.014775582 0.011632157 -0.0022174825
0000a0 51 de 53 bd d5 3c 4b bc cd e4 aa 3c d9 55 2d bd
       -0.05172569 -0.01240464 0.020861054 -0.0423182
0000b0 0a 10 ed bb 7b 5c 53 3d 85 71 c3 3d 52 88 58 bb
       -0.007234578 0.051601868 0.095431365 -0.0033040238
0000c0 07 d7 92 3c d5 75 a3 bd 59 e1 39 3d 81 71 26 bd
       0.017924799 -0.07981459 0.045380924 -0.04063559
0000d0 87 9b 8b 3d 30 ef 03 bd f5 88 ee bc 8f fd 5d bd
       0.06816774 -0.03221053 -0.02911804 -0.05419689
0000e0 a9 fd 91 3c db 4d 75 bc 08 ed b5 bd 05 d8 94 3d
       0.01782115 -0.0149721755 -0.08883101 0.07267765
0000f0 8e 13 5e 3d e2 39 b6 bd 49 15 d8 bc 3f be 9a 3c
       0.054217868 -0.08897759 -0.026377337 0.018889545
000100 84 5c d6 3d e8 07 b8 bc bc 49 55 3d 39 3c e3 3c
       0.10466865 -0.022464707 0.05207227 0.027738677
000110 7c ea bf bc af c7 64 3d 9c ef 98 bd 50 51 b7 3d
       -0.02342724 0.055854496 -0.07467577 0.08951056
000120 18 65 c0 3d 55 60 8f bc 9d 86 2f 3d ae b1 e6 3d
       0.09394282 -0.01750199 0.042852987 0.112643585
000130 50 1d 3f 3d b6 f7 18 bc 58 fd 05 3d a1 23 78 bd
       0.046658814 -0.009336403 0.03271231 -0.060580853
000140 16 e1 f0 3c 23 1a c7 bc b2 51 d2 3d d2 ac a7 bc
       0.029404204 -0.024304455 0.102694884 -0.02046815
000150 d6 1b e9 3c 80 d4 2d bd f9 de 7f 3d 8e e9 9b bc
       0.028455656 -0.042438984 0.062468503 -0.019032266
000160 47 49 8f 3d 7d 57 90 bd 66 8c 21 bd 8f 6f d6 3c
       0.069963984 -0.07047937 -0.039440535 0.026176242
000170 18 1b 2c bd cb f4 25 bd 8a e8 55 3d 2f 11 ec bc
       -0.042018026 -0.040516656 0.05222372 -0.028816788
000180 31 b8 42 bd c6 df c5 bc 46 ac 87 3d 57 65 5b bc
       -0.04753894 -0.024154555 0.066246554 -0.0133908605
000190 0d 0e 4b bd 67 d0 1b bd ba 49 6f 3d dd 91 86 bc
       -0.049573947 -0.038040545 0.05841992 -0.016426975
0001a0 0b bf 14 bd bb 3e 83 bd 8e 91 e7 3c 43 56 06 3d
       -0.036315005 -0.06408449 0.028267648 0.03279711
0001b0 bf f2 4c 3d 8f 5e 59 3d b4 8e d6 3d e3 49 9e 3d
       0.05003619 0.053068694 0.10476437 0.077289365
0001c0 6b 8d 2f 3c 73 42 5b 3d 8d a0 d6 bc 0e 10 06 3d
       0.010714869 0.053530168 -0.026199603 0.032730155
0001d0 28 46 82 3d 0f c9 fe bb 64 2f a5 bc 62 55 21 bc
       0.063610375 -0.007775433 -0.0201642 -0.009847017
0001e0 e5 f8 52 bd c7 f9 40 3c 3b dc b5 3d d5 56 80 bd
       -0.051506896 0.011778302 0.08879896 -0.06266562
0001f0 91 19 25 3d 18 43 a7 3c 91 32 0b 3d 61 0a 8c bd
       0.040307585 0.020417735 0.03398377 -0.06837917
000200 7a 15 03 3e 85 a1 b9 3d 9a 9a bd bd 03 6e 4a bd
       0.12801161 0.090640105 -0.092580035 -0.04942132
000210 06 09 29 3d b7 1a ae bb 07 cd 82 3d 5f cc bc bd
       0.04126837 -0.0053132433 0.06386762 -0.09218668
000220 fc e5 16 bd 8e 54 ab bd f4 d7 2a 3d 6d d8 b8 3d
       -0.036840424 -0.08365737 0.041709855 0.09025655
000230 67 ad 34 bd 09 be 35 3c d3 f6 ab bc 1a 33 e7 bb
       -0.04411068 0.011092671 -0.020991718 -0.0070556523
000240 da 15 53 bc ce 48 de 3d d6 e7 45 bd 87 60 b7 3d
       -0.012883628 0.1085373 -0.0483168 0.08953958
000250 f8 cb 29 3c 63 b7 42 bd 50 b4 4c bd 45 89 c9 3b
       0.010363571 -0.047538172 -0.049976647 0.006150397
000260 16 5a a7 bc 94 c3 24 3c da 43 51 bc ee 0c 6d 3d
       -0.020428699 0.010056395 -0.012772525 0.05787366
000270 d9 06 a5 bd 12 0b 6f bc 11 f7 bf 3b 57 81 d8 3c
       -0.08057947 -0.014590042 0.00585831 0.026428862
000280 90 bc 82 3d 6b 20 e3 bd ca d6 4d bd 3e 7d 69 3d
       0.06383622 -0.110901676 -0.050253667 0.057004206
000290 02 57 8c 3d 11 3d b3 3d 5a bd 2f bd f8 1c b0 bd
       0.06852533 0.08751882 -0.04290519 -0.08599275
0002a0 bf c1 c4 3c ff 62 18 3d b9 e1 20 3c ed 10 61 bd
       0.024018167 0.037203785 0.0098194415 -0.054947782
0002b0 05 82 38 3b d6 d3 e2 bb ba e4 a3 3c f2 c6 32 bd
       0.002815367 -0.0069222255 0.020006526 -0.04364676
0002c0 b1 d1 87 3d 01 ef b2 bd 6c e1 45 bd 1b 90 42 bd
       0.06631792 -0.087369926 -0.048310682 -0.04750071
0002d0 8c da 34 3b a1 04 56 bd 7a 5b 59 3c 29 3b 5d bc
       0.0027596084 -0.05225051 0.013266439 -0.013502874
0002e0 c4 09 c2 3d 78 52 18 3d 53 fe 8e bd 34 19 0f bd
       0.09474519 0.037188023 -0.06982102 -0.034936145
0002f0 bf 73 c1 bc d7 69 83 bd ea fe d2 3c 4f e4 65 3d
       -0.023614762 -0.06416672 0.025756318 0.056125935
000300 f7 23 05 3d b2 a5 fd 3c d5 35 b4 bd 48 a6 00 3c
       0.032505002 0.030962799 -0.0879933 0.007852145
000310 4f 49 07 bd 1e 7c 65 3d c2 05 8a 3d 67 1c aa bb
       -0.033028897 0.05602657 0.067393795 -0.005191374
000320 6f 3d 8a bc 03 76 46 bd 89 97 e7 bc bc de 78 3d
       -0.016874997 -0.04845239 -0.0282705 0.06075929
000330 9f 58 39 be ad 08 de bd e5 cc a8 bc d4 81 22 3d
       -0.18100213 -0.108414985 -0.020605514 0.039674595
000340 57 57 95 bd f5 8a 1f be e0 2f f8 bb c1 71 61 3d
       -0.072920494 -0.15580352 -0.0075740665 0.055040125
000350 b4 88 77 3d 10 62 1e bc 0a 45 0c be 69 bc 8b bd
       0.060433105 -0.009666935 -0.13698211 -0.06823046
000360 b2 dc 33 3c e9 a1 69 3d 22 99 07 bd f5 3e 20 3d
       0.010977911 0.057039175 -0.033105023 0.03912254
000370 83 3a df bc f0 1c f4 3b 96 47 21 3d 8a 40 12 bd
       -0.02724958 0.0074497387 0.03937491 -0.03570608
000380 ee 87 b2 bd 30 a4 89 3c 6f a6 4d be 95 80 9b 3c
       -0.08717333 0.016801924 -0.2008302 0.018982211
000390 c1 26 e9 3b 5e df 83 bc 2e cb 1a 3d 94 4c d5 bc
       0.0071152155 -0.01609772 0.037791423 -0.026037492
0003a0 0d e6 c7 3c 25 ad 0b bb c4 b1 b2 3c ff 42 5e bd
       0.024401689 -0.002131292 0.02181328 -0.05426311
0003b0 89 d2 1f 3c 5a 6a f1 3c bb 4f 99 bd d6 bd c7 bd
       0.009754785 0.029469658 -0.074859105 -0.09753005
0003c0 0e d2 0f bc f2 3d db 3d 5e 39 98 bc 3a c9 7f bd
       -0.008778108 0.107051745 -0.018582042 -0.062447764
0003d0 06 43 ba bc ea 86 22 bd 90 fe 4d 3d e5 a6 f8 bd
       -0.022737037 -0.039679445 0.050291598 -0.121412076
0003e0 46 07 5f 3d 89 45 a5 3d 01 5f 90 3c b1 7f 9e 3b
       0.054450296 0.080699034 0.017623426 0.0048369993
0003f0 a1 09 27 bd 74 ee 64 3c 22 86 a2 3d f3 ad ca 3d
       -0.040780667 0.013972867 0.0793574 0.098964594

bias f4 [128]
000000 db f9 01 bb 16 de 33 3d 77 3d 10 be cb d2 93 bb
       -0.0019832763 0.04391297 -0.14085947 -0.0045112125
000010 8f fc 06 3b b6 64 bf bd fa c3 99 3b 90 57 66 bd
       0.0020597314 -0.09345381 0.0046925517 -0.05623585
000020 e3 17 81 bd 9f ea a9 3d d2 81 37 3c 35 57 9c 3d
       -0.06303384 0.082967035 0.011200385 0.07633821
000030 9c 4e be 3d f2 5e 53 bd 59 51 cc bc a7 82 08 bd
       0.09292337 -0.05160422 -0.024941133 -0.033327725
000040 a9 61 15 3d a2 fb ad 3c be 7b a2 bc 4f d5 82 3d
       0.03647009 0.021238152 -0.019834395 0.06388342
000050 99 48 91 bc d3 cb 4d 3d bb 42 b5 3c 3f 73 50 bd
       -0.017734813 0.05024321 0.022126546 -0.050891157
000060 1d 98 8a 3d 9c 7a 43 3d ad 32 d4 bc 83 87 a1 bd
       0.067672946 0.04772435 -0.02590307 -0.07887175
000070 d1 5d 7f 3d 77 d3 9a 3d 4c fe 2a 3d d9 de c7 3c
       0.06234533 0.07559865 0.041746423 0.024398254
000080 dc a0 32 3d 75 40 08 3d ec 52 18 bd 52 fc 7d bd
       0.04361044 0.033264596 -0.037188455 -0.06200821
000090 db cb 33 bd 20 b1 7f 3d 2b e6 e9 bc 58 6d 7d 3d
       -0.043895584 0.06242478 -0.028552135 0.061871856
0000a0 6f 56 b0 bd 4e f7 36 bd 02 d2 8c 3d 5d 93 35 bd
       -0.08610236 -0.044669442 0.06875993 -0.04432999
0000b0 d3 bd 5c 3c ff 15 a3 3d e3 61 e3 3a a4 21 49 3d
       0.013472992 0.0796318 0.0017347898 0.049104348
0000c0 41 82 20 bc ea c8 b1 bd 65 bf a7 bc a4 fd 0a bd
       -0.00979668 -0.086808994 -0.020477006 -0.033933297
0000d0 ac 84 fd bc 4d e0 f9 bc f2 41 96 3b 77 d8 ab 3d
       -0.030947052 -0.030502463 0.004585498 0.08390897
0000e0 61 8a 91 3d 05 ea 29 3d 59 46 64 bd b2 7d b9 3c
       0.07106472 0.041482944 -0.05573115 0.022642944
0000f0 93 0c d8 3c ff 64 af 3d cc d4 15 bd 2e 8c 67 3d
       0.026373183 0.08564185 -0.036579892 0.05653017
000100 fd 89 81 3d 59 dc 6a bc 00 96 07 be 36 2f e2 3c
       0.06325147 -0.014334762 -0.13240814 0.027610403
000110 97 35 3d 3d 1d 9c 8e bd 4f fb c4 3d c9 9c 14 bc
       0.046193685 -0.0696337 0.09618246 -0.009070584
000120 47 68 0b be 2e ce 06 3d 75 31 77 3d 55 d2 23 bc
       -0.13613997 0.032911472 0.0603499 -0.0099988775
000130 25 2a 8b bd 12 a1 1a bd b4 b6 52 3d 55 b5 48 3d
       -0.06795148 -0.037751265 0.05144377 0.049001057
000140 07 fc 85 3d 6e b6 25 3d 3b 3b 6c 3d 77 f5 93 bd
       0.06542211 0.04045718 0.057673674 -0.07224553
000150 d0 72 5c 3d 5e 2f 33 3d 23 a0 1c 3c ee 56 a7 3d
       0.05382043 0.043746345 0.009559664 0.081708774
000160 91 b4 f1 bc 7e 24 b9 3d 96 63 b4 3b bc 1e a0 3d
       -0.029505046 0.090401635 0.0055050356 0.07818362
000170 55 00 8a 3b c7 73 ad 3d ea 90 ee bc 57 63 b2 bd
       0.0042114654 0.084693484 -0.029121835 -0.08710354
000180 9d 4e 67 3d ac ef 30 3b 5b d4 0f bd 8e 76 56 bd
       0.056471456 0.0026998324 -0.035114627 -0.052359156
000190 b0 42 b8 3d 96 70 0e 3d 73 18 22 bc 89 cd ce 3a
       0.08997095 0.03477534 -0.009893524 0.0015777807
0001a0 c0 ed be 3d 45 9f 1a 3d 18 2b 8b 3d 09 6f c5 bc
       0.09322691 0.037749548 0.06795329 -0.024100797
0001b0 5b 84 33 bd 03 68 23 bd dc cf ac bd e9 70 4a bc
       -0.043827396 -0.039894115 -0.084380835 -0.012356021
0001c0 53 1f 5d 3c 86 ce 6f bd 4a 1d 18 bd ae ba a3 3c
       0.013496238 -0.058546565 -0.037137307 0.019986477
0001d0 9a 2d a9 bc 87 82 95 bd 74 82 ae 3d 33 86 34 bd
       -0.020651627 -0.07300287 0.08520976 -0.044073295
0001e0 3d b9 85 3c 3c 7b 96 3d e9 dc ba bd ea b5 02 3c
       0.01632368 0.07347724 -0.091241665 0.007977942
0001f0 b8 81 bb bd c4 bd bd 3d ef bb 22 bd 77 e6 9f 3d
       -0.09155601 0.092647105 -0.03973001 0.078076296

weight f4 [128, 128]
000000 7e ce e7 bc 16 af fb bb 1b d7 11 3d f2 ca 42 bd
       -0.028296705 -0.007680784 0.03560553 -0.047556825
000010 e2 7a 2e 3c 25 87 81 bd be a8 bf 3d 9f 9a d8 bd
       0.010649415 -0.06324605 0.09358357 -0.10576367
000020 65 cc 72 3c fa 37 da 3d 40 f7 dc bc f5 a7 a3 bd
       0.014819239 0.10655208 -0.026973367 -0.0799102
000030 c2 25 02 be 2a 30 6e 3c 5f 20 c9 bb 69 61 90 bd
       -0.12709716 0.01453785 -0.006137892 -0.070498295
000040 28 99 ed 3c c9 f4 08 be d2 29 36 3d ed 3a 9a bb
       0.029003695 -0.13374628 0.044473477 -0.0047067315
000050 b9 24 bc bd ea 3d 57 bd ef c0 10 b9 d5 48 12 bd
       -0.09186692 -0.05254928 -0.00013804784 -0.03571399
000060 1b 54 b4 bd 26 cf be bc ce 14 61 3d 31 15 13 be
       -0.08805104 -0.023292135 0.05495148 -0.14363553
000070 cf 50 0f 3d f2 33 82 bd 9c 70 ac 3d 3a d6 15 bd
       0.034989174 -0.06357564 0.08419916 -0.036581255
000080 97 39 ec bd 59 cd 02 b9 53 b4 65 3d 3d 65 1f 3c
       -0.11534422 -0.00012474264 0.056080174 0.009728727
000090 83 df 96 3d 75 d3 f9 3c c4 b8 87 3c 98 98 68 bd
       0.0736685 0.030496338 0.016567595 -0.05678615
0000a0 4b 1a 7f 3d b4 e6 b6 bd fc b9 16 3d e3 27 b4 bc
       0.062280934 -0.08930722 0.036798462 -0.021991676
0000b0 33 57 e7 3d 05 32 95 3c 5e 9a 4a 3d bc bf ea 3d
       0.11295929 0.018212328 0.049463622 0.11462352
0000c0 03 2e 3f 3c 27 61 a4 bd 3b d3 76 3c 97 5c 95 3d
       0.011668685 -0.08026343 0.01506501 0.07293051
0000d0 8f 52 0c 3d 2a 16 f1 3c 43 92 28 3d 9e d3 b2 bd
       0.03425842 0.029429514 0.04115511 -0.08731769
0000e0 e6 4e 7c 3d 2a 42 68 bd f2 c2 df bd a3 34 1e 3d
       0.06159868 -0.056703724 -0.10925855 0.038624417
0000f0 ae 12 15 bd e3 1d 46 3d fa 70 30 3d a5 6c a5 3b
       -0.036394767 0.048368346 0.043076493 0.005048352
000100 a9 07 23 bd 30 95 07 be ed 8b 04 bd d9 4c f3 bc
       -0.039802227 -0.13240504 -0.032360006 -0.02969973
000110 ef 3a 86 3c 3c 3f 06 be cf 3c 60 bd 33 7a e3 bd
       0.016385524 -0.1311006 -0.05474549 -0.11107292
000120 76 32 fe bb 4d 29 d8 3d 51 19 2b 3d a3 be 57 bc
       -0.0077574803 0.105547525 0.04177219 -0.01316801
000130 15 1b 73 bc 0a c4 2d bd 47 2a 3b bd e1 7b 5a 3c
       -0.014838 -0.042423286 -0.045694616 0.013335199
000140 b0 2e d5 bd 75 d5 a1 bd 34 3c 3a bd ec aa 9b bd
       -0.104092956 -0.07902042 -0.04546757 -0.0760096
000150 3d 1c 0e bd e7 1e 06 3b 2c 76 34 3d 62 89 83 3c
       -0.0346949 0.0020465197 0.04405801 0.01605672
000160 8c 2c 3b 3d 06 1c 8d bd 99 4e c5 bd f8 97 48 3c
       0.04569678 -0.06890111 -0.09634132 0.012243263
000170 7f c6 e1 bc 65 92 00 be ae 84 39 3d e8 77 2b bd
       -0.02756047 -0.12555845 0.04529255 -0.0418624
000180 6a a5 ee bd 61 31 a7 bc e1 f8 76 3d 9b a7 6c bc
       -0.11652644 -0.020409288 0.060295943 -0.014444257
000190 8a 21 ba 3c 7e e3 a6 3b 55 c1 2e 3c 88 8d c1 bc
       0.02272107 0.005093037 0.010666211 -0.023627058
0001a0 60 12 a9 b9 0f ed 86 bd 1a af 85 bb ad b8 d3 3b
       -0.00032247882 -0.06588184 -0.0040797116 0.006461224
0001b0 49 b3 2f bd 6f c2 f2 3c b8 be ab bd d7 93 26 3d
       -0.04289559 0.029633729 -0.08385986 0.040668335
0001c0 2f c6 f5 bd 5d 0d 36 bd a5 07 ab 3d ca 23 c9 3a
       -0.12000691 -0.044446338 0.083510675 0.0015345749
0001d0 42 36 5d 3d 53 ee 37 bd e8 bd 6d 3b d0 ee 34 3d
       0.054006822 -0.044905018 0.0036276523 0.04417306
0001e0 41 ec e8 bd d0 e1 bd bd aa 25 58 3d e4 94 10 bd
       -0.11373187 -0.09271586 0.052770294 -0.035298243
0001f0 ad dc a7 bc d8 61 8e bd 5b e6 27 bc ac 13 c6 3d
       -0.020490969 -0.06952256 -0.010247792 0.09671721
000200 a6 02 ce 3c fa b1 d4 03 96 02 b2 03 ec fd f1 bc
       0.025147747 1.25011015e-36 1.0462493e-36 -0.029540025
000210 62 d2 d0 03 6e 80 bb 83 64 3b 47 3c 30 d5 d2 83
       1.2273443e-36 -1.1020358e-36 0.012160156 -1.2391636e-36
000220 b5 ec c7 ba f5 3c a3 39 d5 26 d8 03 a2 df 6e bb
       -0.0015253039 0.000311352 1.2704254e-36 -0.0036449214
000230 07 7c 45 39 77 ff 88 bc ca 05 8a bb 14 c9 06 bc
       0.00018833588 -0.016723378 -0.004212116 -0.008226652
000240 a3 87 31 bd 19 25 5b bd 3d 88 c5 bc 4b ae 77 bc
       -0.043342244 -0.053502176 -0.024112815 -0.015117238
000250 d0 c0 24 39 10 19 93 bb dc 83 06 bc ca db ba 03
       0.00015712087 -0.0044890717 -0.008210149 1.0982559e-36
000260 c3 1c 41 bd fa 46 15 3d 12 f3 a7 bc 87 db 42 bc
       -0.04714657 0.03644464 -0.020501647 -0.01189316
000270 25 21 da bb eb 7d 3c bc 56 fd 47 3a b7 e3 a5 bb
       -0.006656783 -0.011504631 0.00076289976 -0.005062546
000280 71 7c 33 3b 63 f4 13 bc 89 db b4 83 9e 2a 2d bc
       0.0027387405 -0.009030434 -1.0629852e-36 -0.010569243
000290 23 c9 6a 3b 84 da 49 3c 65 8f c4 bb 1f 1f 44 3c
       0.0035825453 0.012320165 -0.0059985393 0.0119703105
0002a0 f3 3b a2 bc eb d8 36 bc e0 75 35 bd ac 3b 12 bd
       -0.019803977 -0.011160116 -0.044301867 -0.03570144
0002b0 1b fc 23 bd 42 54 eb bc 2e e9 52 bb 13 b2 f8 b9
       -0.04003535 -0.0287267 -0.0032182443 -0.00047434922
0002c0 4a 64 3f bd a7 f0 d6 83 54 e1 0c bd a5 6e ea 3a
       -0.046726502 -1.2633041e-36 -0.034394577 0.0017885758
0002d0 d0 cd 33 bc 2a 73 f1 bb 1a 12 c3 03 98 12 da 03
       -0.0109743625 -0.007368465 1.1465226e-36 1.2817157e-36
0002e0 7c da c4 bc d6 05 de 3c 6f 27 46 3b d6 ac 1b ba
       -0.024029963 0.027102392 0.0030235907 -0.00059385353
0002f0 24 5d cb bb 7c 12 19 bc 1b 8f 63 bb ff a9 45 3b
       -0.0062061716 -0.009342786 -0.0034722749 0.003016114
000300 ba 69 2b bd a3 a0 93 bb 85 8f c7 bb cc 29 57 bd
       -0.041848876 -0.0045052334 -0.006090107 -0.052530095
000310 14 f3 07 bd 7a e3 c0 bb 0f a3 2a bd bb c4 df 3b
       -0.0331908 -0.0058864923 -0.04165941 0.006828872
000320 ff 73 e0 03 20 e3 4a bb a0 97 e2 bb 5d 2a 95 bb
       1.3192168e-36 -0.003095813 -0.0069150478 -0.0045521692
000330 c4 e1 fa bb 60 af 26 3d b8 d3 ae bc 83 5b 05 bd
       -0.007656308 0.040694594 -0.02134119 -0.032557976
000340 17 33 68 bc bf b0 e1 ba ab 21 9f bc f7 b6 a4 83
       -0.014172337 -0.0017218812 -0.019425234 -9.68106e-37
000350 ad 96 f8 bb de d3 03 3d 2e b9 bb 83 52 62 8c bb
       -0.0075863213 0.032184474 -1.1033387e-36 -0.0042841816
000360 23 5b 92 bb 69 63 da bb 49 1e 06 bd c7 db 8b 3b
       -0.0044664307 -0.0066646826 -0.032743726 0.004268143
000370 00 49 84 3c bf 3c 06 3b a1 84 06 3b b2 08 2b 3b
       0.01614809 0.0020482985 0.002052583 0.0026097712
000380 6b 56 ec bb 27 02 31 bb 01 8f b7 03 82 38 ab 3b
       -0.0072124503 -0.002700934 1.0788605e-36 0.005225242
000390 9f 39 c1 3b 11 d1 cf bb a3 a8 81 bb 1a 00 81 bc
       0.0058967615 -0.0063420613 -0.0039568706 -0.015747119
0003a0 cf 29 26 bc b6 0d 04 bc 3a 5a a6 ba 28 17 1e bb
       -0.010141804 -0.00805991 -0.0012691685 -0.002412269
0003b0 03 e1 04 83 2c fa 17 bd bb 48 de 83 bf 2e 41 bc
       -3.9049614e-37 -0.037103817 -1.3064685e-36 -0.01179093
0003c0 d4 e2 ab bc c2 fd 2b bc ac 58 b5 bc 45 5c 4f bc
       -0.020982184 -0.010497512 -0.022137009 -0.012656276
0003d0 54 b5 ca bc f0 18 1e 3c 8c 0a a8 3b 62 83 2c bd
       -0.024744667 0.0096495 0.0051282104 -0.042117484
0003e0 72 69 0d bc 07 74 6c bc 95 45 1b 3b c7 b1 48 3c
       -0.008631097 -0.01443196 0.0023692597 0.012249417
0003f0 c6 11 c2 83 1a 76 24 3d 7e 67 49 3c 39 a4 42 bd
       -1.1406376e-36 0.040151693 0.012292741 -0.047519896

bias f4 [128]
000000 f5 c5 0d bd bd 83 12 bc e6 f4 9b bd a7 43 34 bd
       -0.034612615 -0.008942542 -0.0761507 -0.04400983
000010 3f 97 b8 3c f6 f3 0c bd 94 b6 4b bc ce cd 77 bc
       0.022533057 -0.034412347 -0.012433667 -0.015124751
000020 7b 55 d6 bd 52 6c 84 3d 2a 12 e4 3c 08 ca 1f bc
       -0.10465523 0.06465973 0.027840693 -0.009752758
000030 89 eb 0d bb e4 99 9e 3d b6 e2 eb bc a3 7a a2 3c
       -0.0021655282 0.07744196 -0.028794628 0.019833868
000040 47 40 0c 3d 77 4b c4 3c 1f 40 c0 bc ff a5 8a bd
       0.034240987 0.023961766 -0.023468075 -0.067699425
000050 5d d6 c6 3d ef 31 12 be 9f 1f ab bd 86 7e 98 3d
       0.09708855 -0.1427686 -0.083556406 0.074460074
000060 5a ad 28 bd 76 e6 dc 3c ac 70 e2 3d cd 9f 61 3c
       -0.041180946 0.026965361 0.11056647 0.01377101
000070 4a 8c 28 bc f2 35 d5 bc 5a ec 7e 3d 3a 88 e1 3d
       -0.010287354 -0.0260267 0.06223712 0.11012311
000080 9e 5d 87 bb ec ef 0e bd 81 5b 81 3d 78 30 15 bd
       -0.004131033 -0.034896776 0.06316281 -0.036423177
000090 b1 ba 54 3c ed a7 4a 3d f7 ae 87 bb a8 c2 b9 3d
       0.012983964 0.049476553 -0.0041407305 0.09070331
0000a0 7c 8f 29 bd c4 0f ab bd 4d 9d b6 3d 05 e1 b4 3d
       -0.041396603 -0.083526164 0.089167215 0.088319816
0000b0 f7 b8 11 bc 9d 12 4f 3d 3d 82 73 3c 9b bc a8 3c
       -0.008894197 0.05055486 0.014862594 0.020597747
0000c0 fe 8d ef bc f3 cd 7b bd 4d 7a ba 3d a1 9c 46 3d
       -0.029242512 -0.061475705 0.09105358 0.048489217
0000d0 94 86 d8 3d ac 70 da 3d 26 92 a2 3d e3 cb b7 3d
       0.10572544 0.10666022 0.07938032 0.08974435
0000e0 81 00 57 bc 80 5b 22 bd 06 f7 99 3d ba e9 54 bd
       -0.013122679 -0.039638042 0.07517819 -0.05198071
0000f0 0d 56 b4 bc 2d 2b 98 3d f0 ba 06 3d 9e 14 3f 3d
       -0.022013688 0.0743011 0.03289312 0.04665052
000100 cd 63 48 3d 5b 87 a6 3d 4d 34 63 3d f2 f3 32 3d
       0.048923302 0.08131286 0.0554698 0.043689676
000110 f8 4c a1 3d ba 93 a6 bc b7 71 d5 ba 31 8c 04 3e
       0.07876009 -0.020334113 -0.00162845 0.12944104
000120 4e 00 c8 3c 24 0a 1d 3c 84 21 e6 bc ae a1 bb 3d
       0.024414208 0.009584937 -0.028092153 0.09161697
000130 43 8b 3e 3d 66 ba 80 3d 48 58 93 bc e0 50 45 3d
       0.04651953 0.06285553 -0.017986432 0.04817283
000140 02 ed 8e 3d e5 48 cb 3c 55 3d 1f 3c 75 85 ab 3d
       0.069787994 0.024815032 0.009719213 0.08375064
000150 21 b9 c3 3c 02 38 4a 3c 9c 53 8f bb f7 54 f0 bd
       0.023891987 0.012342455 -0.0043739807 -0.11734956
000160 4b 4d cd 3d 52 a6 7e 3d 67 f1 8a 3d a7 9f e2 3d
       0.10024508 0.062170334 0.06784325 0.110656075
000170 6a bf 25 3d 7a a8 e5 3d e7 9d 99 3d 21 e1 cd 3d
       0.04046575 0.11213775 0.075008206 0.100527056
000180 b5 fe 0e bd 95 20 e9 3d df 7f b2 3d 18 5d 28 bc
       -0.034910876 0.11383168 0.08715796 -0.0102761015
000190 91 b2 b8 bc af 8a d4 3d a1 a7 ee 3c f0 6f 88 3d
       -0.022546085 0.10378014 0.029132666 0.066619754
0001a0 34 ea a3 bc 80 5d f7 3c 04 88 3f bc fe db 03 3e
       -0.020009138 0.030195951 -0.0116901435 0.12876889
0001b0 9f 5a 3b 3d 86 f8 d4 3b 56 0d 7b bd a5 3f 6d 3d
       0.04574072 0.006499353 -0.061292015 0.057922024
0001c0 d1 aa a3 3d 0a a4 08 bd 88 12 d8 3c bb 7e b4 3d
       0.07991565 -0.033359565 0.026376024 0.088132344
0001d0 16 02 48 3d b1 4d 99 bb 47 2a 38 3d 4b 9e 2e 3c
       0.048830114 -0.004678451 0.044962194 0.010657857
0001e0 e4 64 e0 3c ea 16 48 3d 97 6d 9e 3d 81 80 2e 3d
       0.027391858 0.048849978 0.07735746 0.04260302
0001f0 0f f9 83 3d b8 0d 26 bd 32 54 5f bd 1a 5f 45 bc
       0.064439885 -0.040540427 -0.054523654 -0.0120466

weight f4 [128, 128]
000000 f5 4d 44 3d d3 29 02 3d 51 8e 9c bd 6e 75 c4 bd
       0.047925908 0.031778168 -0.07644332 -0.095927104
000010 65 3a 77 bd 47 d6 5a bd e6 66 e9 bc fb 50 87 bb
       -0.060358424 -0.053427007 -0.028491449 -0.0041295267
000020 83 0e c2 bc 60 0f f5 3d d6 d0 09 be 42 27 fb 3c
       -0.02368856 0.11965823 -0.13458571 0.030658368
000030 6b 95 d0 3d 72 e6 17 3c a8 4a 09 3d 64 27 52 bd
       0.10184749 0.009271251 0.033518463 -0.051307097
000040 b1 ad b5 3d 53 f1 b9 3d bb ed 0e bc b4 51 9c 3c
       0.0887102 0.09079232 -0.008723672 0.019081928
000050 f5 47 88 3d d8 8d 1a 3e 30 18 66 bd a1 c9 bf 3d
       0.0665435 0.15093172 -0.05617541 0.093646295
000060 f5 4e 1c 3d 00 2a 24 3d b0 a1 6d bd 22 65 a5 3d
       0.038161237 0.040079117 -0.058015525 0.0807593
000070 0c 13 75 3d fd 76 8f bd 4b 09 12 3d 40 9c 34 3d
       0.059832618 -0.07005117 0.035653394 0.044094324
000080 13 a2 eb bc af 9b ce ba 4f 44 a8 3d 2d 6f c9 3d
       -0.028763806 -0.001576295 0.08216154 0.09835658
000090 96 30 b1 bd 14 53 90 3c e0 41 36 3d f8 12 b8 bd
       -0.08651845 0.01761774 0.044496417 -0.08987993
0000a0 5f a2 f9 bd ff c6 43 3d 5b 24 c6 bc 4b 64 92 3d
       -0.12189173 0.0477972 -0.024187258 0.071480356
0000b0 92 40 c5 bc df 76 c3 bc 0f c7 8e 3d 55 2b b4 3d
       -0.024078641 -0.023860393 0.06971561 0.087973274
0000c0 a7 bd 80 bc 90 0f 70 3d cf fb 4f bd 64 f2 90 bd
       -0.015715433 0.05860859 -0.050777253 -0.07077482
0000d0 49 a2 45 bd 65 af 92 3c 1b eb ff 3b 8f b8 dc 3d
       -0.04825047 0.0179059 0.007810009 0.10777389
0000e0 5c c8 0a 3d f2 3d 1d 3d de 3d b1 3d d5 75 35 bd
       0.033882484 0.038389154 0.08654378 -0.044301827
0000f0 09 03 86 3d bb 6a 17 3d 69 38 83 bc 75 c9 10 bd
       0.06543548 0.03696702 -0.01601811 -0.035348374
000100 7d 1e c7 3d 2f be be bc e8 2e 7f 3d 79 96 60 bc
       0.09722612 -0.023284046 0.062300593 -0.0137077505
000110 73 26 bc 3d 1d 4e 61 bd 6a 7c 9d 3d 9c 02 23 3d
       0.09187021 -0.055006135 0.07689746 0.03979741
000120 37 df a9 bc 5e f0 33 3d f3 62 65 3d 6d 6e 74 3d
       -0.02073632 0.043930404 0.05600257 0.059675623
000130 c6 59 11 3d f0 97 03 3d ba 3a 75 bb c5 6f e0 3d
       0.035486005 0.03212732 -0.0037419037 0.10958818
000140 10 33 6e bd 2a d9 2f bd b1 43 04 be 2e bc 44 3d
       -0.058154166 -0.042931713 -0.12916447 0.048031025
000150 be 07 b7 bd 39 d5 6b bc 95 90 5d 3d 0c 46 23 3e
       -0.089370236 -0.014394098 0.054092962 0.1594469
000160 cf 6d 34 bc 3b 23 22 3d ef e7 e8 bb 4e 75 04 bd
       -0.0110125085 0.03958438 -0.0071077268 -0.032338433
000170 a5 5b a6 bc 1e 11 70 bc 21 de 91 3c 51 e5 9c bd
       -0.020307371 -0.014652519 0.017806115 -0.07660926
000180 f7 b0 21 3d d6 6b 3f bd a6 4f 02 3b 7f aa 2e bc
       0.039475407 -0.0467337 0.00198839 -0.010660767
000190 94 a6 b6 bc dd 3f 60 3d 50 da 9d 3d 94 4d 15 bd
       -0.022296228 0.054748405 0.077076554 -0.036450937
0001a0 4d 27 a2 3d 03 93 80 bd 17 04 ce bc 69 ef 5b bd
       0.07917652 -0.0627804 -0.025148435 -0.053695116
0001b0 a1 f4 35 3c c3 70 ff 3a 74 09 6c 3d ed 37 5e 3b
       0.011105687 0.0019488562 0.057626203 0.0033907846
0001c0 e9 db 56 3c 72 a7 ca bc 60 11 bb 3c 27 ac 4e bc
       0.013113954 -0.024738047 0.022835433 -0.0126142865
0001d0 ab f2 59 bd ea d7 84 b8 65 bf e0 3c f7 fc 01 3d
       -0.05320994 -6.3344676e-05 0.027435014 0.031735387
0001e0 f8 56 e6 bc 43 a3 19 3b 66 7f 2e bc 29 3c 02 3d
       -0.028117642 0.0023443259 -0.010650491 0.031795654
0001f0 b2 12 85 3d ed a5 cf 3d 21 91 a9 3c 5f 7a 0a 3e
       0.064977065 0.1013907 0.020699086 0.13523243
000200 e4 36 01 3e c1 e8 48 3c 8f 8b 59 3c 57 73 94 3d
       0.12618595 0.012262524 0.013277902 0.07248562
000210 38 5e 1e 3d b1 46 99 3d 87 5c 2a bd de b3 96 3d
       0.038664073 0.074841864 -0.041592147 0.07358526
000220 b5 0b 62 bd fd 51 ef bc da 1d 94 3d d9 20 0f 3d
       -0.055186946 -0.0292139 0.07232256 0.034943435
000230 12 5e d6 bc e2 70 2b bd da 56 6c 3c d0 a8 73 3d
       -0.026167903 -0.0418557 0.014425004 0.059487164
000240 17 42 d6 3b f6 7c 10 bd a1 be d4 bd a5 f5 c0 3b
       0.0065386402 -0.035275422 -0.10387922 0.005888658
000250 87 96 8f bc c1 c8 ac bc 9f d2 8a bd 6b 99 66 3c
       -0.017527832 -0.02109182 -0.06778454 0.014074664
000260 23 bd 54 bd 51 ec 7d 3d d4 ee 94 3c 70 10 49 bd
       -0.051938187 0.061992947 0.018180288 -0.04908794
000270 8c 6b 2a bd 34 69 ab 3d 5e a5 54 bd 6b d0 21 3e
       -0.04160647 0.08369675 -0.05191552 0.15802161
000280 af b9 81 3c 5e 95 e6 bc 52 49 76 bc ee bc 76 bd
       0.015835611 -0.028147396 -0.015032129 -0.06023877
000290 c5 3d 02 3e e5 11 16 3e 19 c1 3a bd 63 f3 e9 3d
       0.12718876 0.14655264 -0.04559431 0.114233755
0002a0 a2 8e 80 3d 03 2a 50 3c 57 79 88 3d f3 07 25 bd
       0.06277205 0.012705329 0.06663769 -0.040290784
0002b0 55 28 9a 3d bf 14 f6 3d b4 93 65 bc 00 6f 48 3c
       0.07527224 0.12015676 -0.014012266 0.012233496
0002c0 c6 53 18 3a d1 73 37 3b bb 9e 02 3c 51 c2 e2 3d
       0.0005810823 0.0027992616 0.007972415 0.11072219
0002d0 3d 3f a1 3c f4 e8 f9 3c 8c 52 c7 bc e6 76 f1 3d
       0.019683475 0.030506589 -0.024331354 0.11790256
0002e0 e8 4c 36 3d 9f fe 86 bd c5 51 2b bd f4 82 81 bd
       0.044506937 -0.06591534 -0.04182603 -0.063238055
0002f0 1d 8d 97 bb 59 61 83 ba 91 8d 22 3c c3 5d e2 3c
       -0.0046249763 -0.0010023519 0.009921447 0.0276326
000300 92 30 9e 3c 6a 6a 39 bd fe b0 84 3c 63 18 9b 3b
       0.01931027 -0.0452675 0.016197678 0.0047331317
000310 f6 16 29 3d e4 c6 fd bd 39 c9 2e 3d d5 b6 bc 3d
       0.041281663 -0.12391451 0.04267237 0.0921456
000320 48 a8 1c bd 2f dd 5a bd 6f 51 90 bc 46 66 b8 3c
       -0.038246423 -0.053433593 -0.017616956 0.022509705
000330 30 18 80 3d 00 09 88 3d d0 83 b4 bc c4 44 61 3d
       0.062546134 0.066423416 -0.02203551 0.05499722
000340 b2 47 1b bc 40 04 8c 3c 91 03 b8 3d ca d2 8f 3d
       -0.009477543 0.01709187 0.08985055 0.07022627
000350 1c 65 e5 3d d3 7f ee bc 24 50 2b 3d 34 0d 82 bb
       0.11200926 -0.029113686 0.041824475 -0.003968859
000360 3b 1d d1 3d 72 3a 52 3d fc 1d 8e 3c f0 85 b3 3c
       0.102106534 0.05132527 0.017348282 0.021914452
000370 5d f0 b2 bc d2 bf bc 3c 49 78 48 bd fd 37 8a bb
       -0.02184313 0.023040686 -0.048942838 -0.0042181
000380 c6 ba df 3d 71 6f 52 3d cc cc 36 bd f9 c0 be 3d
       0.10924296 0.05137581 -0.044628903 0.0931415
000390 b5 df cb 3c 34 0c 16 bd 29 12 b2 bb e6 64 42 bd
       0.024886945 -0.03663273 -0.0054342938 -0.047459505
0003a0 7a 2e a2 bd 76 32 b4 3b 0d 9e 0b 3e 3f a8 50 3d
       -0.07919021 0.0054991795 0.1363451 0.050941702
0003b0 69 47 ec bc b4 98 85 bb 8f 8e d4 3a 69 c8 67 3d
       -0.028842645 -0.0040770415 0.0016216802 0.05658761
0003c0 79 4d ed 3c fc 55 04 bd cc 00 3a 3d 98 9e b1 3d
       0.028967606 -0.032308564 0.045410916 0.086728275
0003d0 37 ff 0e 3d 66 75 23 3c 53 1f d6 bb 59 e3 b9 39
       0.03491136 0.00997672 -0.006534496 0.00035455337
0003e0 9f 2e 9c bd 86 e6 32 3d 9e 4a 77 bd fc 92 39 bd
       -0.0762608 0.043676876 -0.060373895 -0.04530619
0003f0 bb 5d 88 bc 46 59 c5 bc c9 e9 1c bd 2d a7 76 bd
       -0.016646257 -0.02409042 -0.038308892 -0.060218025

bias f4 [128]
000000 76 06 d1 3d 9f 0a be 3c 6d 2a 46 bd 35 85 88 bd
       0.102063105 0.023198424 -0.048380304 -0.06666032
000010 49 7e 07 3e b8 8d 09 3d 29 ad ea bc 1a 9c ba 3d
       0.13231768 0.03358242 -0.028647022 0.09111805
000020 f0 85 fb 3c 5e 21 e3 3d 4d 8e 8b bd 6e e7 7a 3d
       0.030703515 0.11090349 -0.06814251 0.061255865
000030 1c 9a e5 3d 1d 27 3a 3d a7 af 7d 3d a8 8c 76 bc
       0.11211035 0.045447458 0.061935093 -0.0150481835
000040 2f 97 4e bd 0e 27 df 3d b9 a2 ab 3c 35 11 eb bc
       -0.05043715 0.10896121 0.020951616 -0.028694728
000050 21 b1 02 3e a7 c9 cc 3b d2 52 34 3d ab 0c 8b bd
       0.12762882 0.006249625 0.044024296 -0.067895256
000060 27 b6 e7 bb 8c 76 7f 3c a8 b5 b7 bc 6b 9f 36 bc
       -0.007071275 0.015592229 -0.022425488 -0.011146407
000070 8f 42 bc bc 41 92 f7 bc 81 f4 02 3e bd 0d a9 bc
       -0.022980956 -0.030221106 0.12788583 -0.020636434
000080 f7 b6 ec 3d 52 e3 2a 3d ae b0 9f 3d 23 18 73 3d
       0.11558335 0.041720696 0.07797371 0.05934919
000090 a2 dc a2 3d 1a 6a d5 3d cb ce d5 3d 6b ee e3 3c
       0.079522386 0.10420628 0.10439833 0.027823647
0000a0 db ac df 3d ed d1 81 bb 22 8e 64 bc 93 df ab 3d
       0.109216414 -0.0039617927 -0.013949903 0.08392253
0000b0 0f e8 a2 3d 4e 63 93 3d 1c ad a9 3d 76 67 af bc
       0.07954418 0.07196675 0.08284971 -0.021411639
0000c0 cc af 1b 3d 3f d6 2d 3d ce 24 82 bd c3 45 83 3d
       0.03800945 0.04244065 -0.06354676 0.0640979
0000d0 20 77 9f 3d 1f 8d d9 bd 25 d4 ce 3d 4e 3e e6 3c
       0.07786393 -0.1062262 0.10099057 0.028105881
0000e0 d0 df bd 3d 0c 67 ab 3d 23 cc 35 ba f1 7c 72 bb
       0.092712045 0.08369264 -0.0006935021 -0.003700074
0000f0 ef cb 7b 3d 67 a7 b3 3d 31 b9 cf 3b 47 01 92 3d
       0.061473783 0.08772164 0.006339215 0.0712915
000100 e8 36 41 3d d6 85 52 3d 33 4b f2 3d 68 e3 0c 3d
       0.047171503 0.051397167 0.11830749 0.03439656
000110 f8 10 90 3d 70 eb a6 3d 63 1a 39 bc 08 9e ff 3d
       0.070344865 0.08150375 -0.011297795 0.12481314
000120 ab e2 06 3e aa 3f 68 bd d0 eb a1 3d b7 cb c5 3d
       0.13172404 -0.05670134 0.07906306 0.09657996
000130 4c 05 d3 bc a1 da 00 3e 69 a3 48 bd f5 09 05 3d
       -0.025759362 0.125834 -0.048983965 0.0324802
000140 68 2e 9b 3d 30 18 9b 3d e7 79 86 3d 2d 95 90 3d
       0.07577211 0.07572973 0.0656622 0.07059703
000150 ed 58 ae 3d c3 0e b5 3c 64 27 03 3e f6 57 72 bd
       0.08513055 0.022101765 0.12807995 -0.059165917
000160 b4 99 34 3d ec 53 56 bd d0 e7 fe 3c 6d a1 53 3d
       0.044091895 -0.052326128 0.031116396 0.05166762
000170 5e 0b 09 3e e9 67 3c 3c 15 2d 83 3d ae fb 26 3d
       0.13383242 0.0114993835 0.06405083 0.040767364
000180 01 52 a8 bd 36 b4 36 bc f8 4c 93 bd 8f ff c2 bb
       -0.08218766 -0.011151364 -0.07192415 -0.005950875
000190 04 0c 92 3d ee e6 c8 bc ae dc 09 3e 62 39 5e bd
       0.07131198 -0.024524178 0.13463089 -0.054253943
0001a0 70 45 a4 3b db 88 94 3d 3c e8 41 3d 7c f6 03 3d
       0.0050131604 0.072526656 0.047340617 0.032217488
0001b0 cb 4b ca 3d 47 19 2d 3d c8 29 92 3c 19 06 d2 3d
       0.098777376 0.042260434 0.017842188 0.10255069
0001c0 75 65 d5 3d 26 ee cd 3c 20 30 ca 3c ea 4b 7f 3d
       0.10419742 0.025137972 0.02468115 0.062328257
0001d0 05 0e 03 3e ba 54 83 3d cb 18 af 3c 01 9c d6 3d
       0.12798317 0.06412645 0.021374127 0.10478974
0001e0 6a 63 de 3d 59 3a 1b 3d 86 fe 63 bc be ed e2 3d
       0.108588055 0.03789744 -0.013915664 0.11080502
0001f0 cf 29 2f 3d cd 2f 60 3d a0 c0 f4 bc 2f 87 ee 3d
       0.04276448 0.054733086 -0.029877007 0.11646878

weight f4 [1, 128]
000000 76 4e 32 bd 3e 08 05 3e 76 64 d3 3d c3 3b e6 3d
       -0.043531857 0.12991425 0.10321896 0.112418674
000010 dd 89 d5 bd 33 d0 80 3d 96 04 75 3d 95 53 ce bd
       -0.10426686 0.06289711 0.059818827 -0.10074536
000020 9c 54 5e 3d 9c 80 a2 3d 44 45 92 3d e8 c3 ed 3d
       0.05427991 0.079346865 0.071421176 0.11609632
000030 03 5f 01 3e 20 eb bc bc 9c e9 19 3e 4f b2 db 3d
       0.126339 -0.023061335 0.15030521 0.10727369
000040 be 9a 3a bd 00 34 77 bd 12 e7 6b bd cc 3e 06 3e
       -0.04555773 -0.060352325 -0.057593413 0.13109893
000050 fa 33 0e bd 91 a7 70 bd 8c e9 bd 3d d3 0b a1 3d
       -0.034717537 -0.058753554 0.09273061 0.078635834
000060 62 f7 86 3a 7d 6f 05 3e 86 72 9b 3d 82 5b 01 be
       0.0010297114 0.1303081 0.07590203 -0.12632564
000070 51 64 01 3e b1 77 00 3e 92 58 8d bd d5 9c 09 3e
       0.12635924 0.12545659 -0.06901659 0.13438733
000080 25 72 cc bd c5 d2 a2 3d 4c b8 af bd 0b c6 84 bd
       -0.09982709 0.07950357 -0.08580074 -0.06483086
000090 7e 37 e8 bc 28 f6 ec bd cd 06 d1 3d 39 b0 96 3d
       -0.028346773 -0.11570388 0.10206375 0.073578306
0000a0 10 b3 ca bd 48 35 b9 bd dc 44 31 bd 43 74 8b bd
       -0.09897435 -0.09043366 -0.04327856 -0.068092845
0000b0 c1 34 bb 3d ee 7b 86 3d 31 87 80 3d a7 a7 94 3d
       0.091409214 0.065666065 0.06275786 0.0725854
0000c0 e8 e1 0c bd 6e 51 d7 3d e7 34 16 3e 0c 6c de bc
       -0.03439513 0.10513578 0.14668618 -0.02715113
0000d0 04 1c d0 3c 90 33 66 bc f7 ac d5 bc 3a e0 b4 bd
       0.025403984 -0.014050379 -0.026083453 -0.0883183
0000e0 6a cb 3e bd 5a b4 8e bd b8 bb 14 bd 8a 8c c1 bd
       -0.04658071 -0.06967993 -0.036311835 -0.09450634
0000f0 44 93 07 3e d9 0c c8 3d 3f 6a c3 bd 12 d4 c3 3d
       0.13239771 0.097680755 -0.09541749 0.095619336
000100 b2 4a 0f 3e ec 72 d3 3d 18 2d e2 3d e0 1a 9c 3d
       0.13993338 0.10324654 0.11043757 0.076223135
000110 ab e2 f5 3d 20 69 4a bd c3 03 c5 3a f1 0e eb bc
       0.12006124 -0.04941666 0.0015031028 -0.028693648
000120 2e c9 76 bd 86 92 3e 3b eb c8 03 3e 94 7c 0e bd
       -0.060250454 0.0029079034 0.12869613 -0.034786776
000130 c8 20 0e 3b fd 82 68 bd d7 93 21 3e 96 9f 98 bc
       0.002168702 -0.056765545 0.15779053 -0.018630784
000140 b0 03 99 bd 9d 3d 6a bd 64 bb f0 3d 48 c9 83 3d
       -0.074714065 -0.057187665 0.11754492 0.06434876
000150 20 58 98 3d 01 cd 32 bd 2a b3 c9 bc 18 26 66 3d
       0.074386835 -0.04365254 -0.024621565 0.056188673
000160 5d c2 50 bd 3b 1b b7 bd 26 fb db bc 74 3f b6 3d
       -0.05096661 -0.08940741 -0.026853155 0.088988215
000170 72 5e 81 bd db 97 5b bd 26 5c bc 3d 3f f8 1a bd
       -0.06316842 -0.053611618 0.091972634 -0.037834402
000180 5c f9 e4 3c 8d 81 13 bd b6 bd 57 bd a2 fb 1e 3d
       0.027950935 -0.03601222 -0.052671157 0.038814195
000190 c3 b5 c7 bd d8 15 49 bb 93 7b 20 bd cf d0 a8 bd
       -0.09751465 -0.0030683186 -0.03918035 -0.08242952
0001a0 48 04 03 3d 78 df 86 bd 70 cc e1 3d 99 ec 9c bd
       0.031986505 -0.06585592 0.110253215 -0.07662315
0001b0 54 1d 37 3d d6 b3 a7 3d af bd 4f bd 77 95 ab bd
       0.044705704 0.08188598 -0.050718006 -0.083781175
0001c0 45 23 df 3d e6 83 7e bd 3f d5 c8 bd d1 0b 86 3d
       0.10895399 -0.062137507 -0.098062985 0.065452226
0001d0 ae 24 d3 bc aa ea 37 3d a7 6d b7 bd 73 c3 14 bd
       -0.025774326 0.044901527 -0.089564614 -0.036319207
0001e0 bb 9e 4b bd de 1f bf 3d 3f 08 55 3d 95 92 c7 bd
       -0.049711924 0.0933225 0.052009817 -0.09744755
0001f0 1f d8 c7 3d d6 75 fd 3d ce 68 bd 3d 9a 6c b4 bd
       0.09758019 0.12375991 0.092485055 -0.088097766
