bike_sharing/AutogluonModels/ag-20220404_171935/models/NeuralNetTorch_BAG_L2/S1F1/net.params (torch, 227707 bytes, 13 tensors)

weight f4 [5, 3]
1.5037944 -0.29659507 -2.1579723 0.61507154 -1.1372811 -1.4798582 0.3246115 0.8377441
-0.86490124 -0.4201806 -0.60852945 0.15938286 -0.3479234 0.5651167 -0.53822374
00000000: 567c c03f 4fdb 97be 381c 0ac0 5475 1d3f
00000010: 6d92 91bf fe6b bdbf 7b33 a63e 6676 563f
00000020: 2b6a 5dbf e921 d7be 96c8 1bbf 4335 233e
00000030: 0423 b2be 7dab 103f 08c9 09bf

weight f4 [13, 6]
-0.6239527 0.11290413 -0.5176793 0.23102093 0.5064941 0.1705905 0.70982546 0.53969395
-0.17111158 0.88252586 -0.18875894 0.08100248 0.4968852 2.2119064 -1.4296055 -1.5116042
-0.6964572 0.8314587 1.0755503 0.189703 -0.2744541 -0.36782178 0.59408325 -0.37056538
-0.5226896 0.688581 1.449392 3.3317735 -1.5085994 -1.1704363 1.7340585 -0.56029284
-0.51217246 0.83553153 1.0267336 1.2569249 -1.4245652 2.5283186 -0.50162125 0.35091624
-1.6186993 -0.532834 -0.4822273 -0.41343045 -1.0886313 1.0782784 -0.088852614 0.775582
-0.09583751 0.70143026 -0.8104034 0.004740577 0.82857513 -0.3886229 1.0707892 0.38013512
-0.28205344 2.2968092 -1.8574257 -0.02010765 -1.0290736 -0.94516283 -0.74325645 -1.2754085
-0.21804988 -2.3782141 -0.034781855 0.03166022 0.9631375 0.3709819 -0.32867184 -1.2165769
-0.16136098 -0.06222926 1.348814 -0.03483222 4.5428283e-07 0.6242725
00000000: 5dbb 1fbf 483a e73d a186 04bf c090 6c3e
00000010: 99a9 013f 47af 2e3e 1fb7 353f 6229 0a3f
00000020: e037 2fbe 37ed 613f 064a 41be a1e4 a53d
00000030: bd67 fe3e e08f 0d40 50fd b6bf 3f7c c1bf
00000040: 054b 32bf 7ada 543f a2ab 893f 8141 423e
00000050: 3f85 8cbe 2353 bcbe d715 183f bfba bdbe
00000060: fcce 05bf d846 303f ad85 b93f c73b 5540
00000070: c919 c1bf dbd0 95bf a1f5 dd3f 5a6f 0fbf
00000080: bc1d 03bf 65e5 553f 026c 833f eae2 a03f
00000090: 2758 b6bf f9cf 2140 406a 00bf 4bab b33e
000000a0: 8a31 cfbf cf67 08bf 7fe6 f6be 28ad d3be
000000b0: 4558 8bbf 0705 8a3f 5cf8 b5bd 8b8c 463f
000000c0: 7546 c4bd ef90 333f 9976 4fbf d856 9b3b
000000d0: 801d 543f 95f9 c6be 9f0f 893f 12a1 c23e
000000e0: 4f69 90be ecfe 1240 20c0 edbf ccb8 a4bc
000000f0: afb8 83bf 31f6 71bf 0e46 3ebf 9640 a3bf
00000100: 7848 5fbe a934 18c0 6b77 0ebd 26ae 013d
00000110: 2e90 763f 57f1 bd3e ad47 a8be cbb8 9bbf
00000120: d03b 25be 1ce4 7ebd f0a5 ac3f 3bac 0ebd
00000130: 28e4 f334 53d0 1f3f

weight f4 [25, 9]
0.6202759 -0.70126855 -0.8844814 -0.40236095 -0.8300199 0.56909966 0.570093 0.47907692
-0.7599784 0.24210563 -0.12526804 0.07755663 -0.62533545 -1.2209424 -0.031703617 -1.0226498
2.6130154 1.0116366 -0.22903386 0.14616582 0.2427792 1.2116766 0.29816905 0.31883278
0.507488 0.58898896 0.16973507 -0.7443855 -1.8503293 0.12881452 -0.6964926 0.33510935
-0.15695652 -0.29817882 0.93495834 -0.98754054 0.29731283 -0.047804102 1.0048119 -0.50297964
0.9825719 -0.80897385 0.33337933 0.19597943 -0.14434499 0.3389969 -0.31200722 -1.0518563
0.17572549 -1.148998 -0.051413313 -0.35678372 -1.5388445 -0.3302417 1.0569379 0.12206167
-0.22640802 -1.4302616 -1.0810475 -0.712497 1.4336396 0.24720995 0.63738096 -1.028777
0.7083949 -1.9725759 -0.5438735 0.55144787 0.37025246 0.3645397 0.21257305 0.8781742
2.0182264 0.14358877 -0.05343949 -1.0999027 0.41470918 0.58997494 0.62288475 -1.1996341
-0.8708845 -2.0192506 1.1524981 0.06991625 0.95057696 0.83963764 -1.2376125 0.98091155
0.051560506 -0.81850916 0.88778865 1.288365 -0.69342417 0.5186052 0.29605532 -0.018369842
-1.4690892 1.0075928 -0.34627834 1.5696769 0.22848994 0.34215754 -0.13134147 0.6027205
-0.009229596 -0.58062977 -0.14137553 -0.5697945 -0.4224028 0.88821995 -0.89737856 0.87717825
0.42429876 1.1808802 -1.5055926 -1.6673707 -0.003242736 -1.0537508 1.4474581 -0.12694633
-0.631397 0.75959915 -0.09141068 1.0154113 0.89746934 -0.45739418 -0.8551658 0.18014632
0.06249919 0.6616262 0.015957108 -0.7930005 -0.5164608 -0.41561317 0.55167305 -1.195312
-0.668514 -0.57159257 -0.045847606 1.3879017 0.5694212 -0.5144168 -0.37781218 -1.3405104
-0.69701916 -0.47941983 -0.24823458 0.7089262 0.57992715 0.249897 -2.0505834 0.5311503
0.25217602 -0.53397447 0.06624148 1.1664404 0.49300936 -0.27744982 -1.278562 -0.35604498
-0.6319204 0.40987393 0.6389564 0.9222881 -0.21608588 -0.61083066 -0.18996218 -1.1161399
0.57357186 1.4534166 -0.9206248 0.78702676 -0.64869624 1.2035514 1.432081 -0.59423286
0.6932653 -1.2463925 -0.56053084 -0.18516333 -0.49915034 0.7282763 0.0645164 -1.0218606
0.3843107 0.63658464 -1.1925063 0.42517546 -1.1798573 -1.3267453 1.5257574 -0.010922165
0.4544732 -1.1247663 -0.18204515 -0.04396672 0.36257398 1.1142386 1.9363859 1.0454468
-1.4720465 -0.51269966 -1.176554 1.2783707 0.26767582 0.50433975 -0.01704992 -2.1800594
0.4363433 -1.5336316 0.48482403 1.4620016 1.066697 1.2486514 0.089954056 1.5585208
0.062214833 -0.81754154 0.3621465 2.8637542e-13 0.2779019 -0.4471258 -0.37463406 -0.010428711
-0.013829661
00000000: 67ca 1e3f 5686 33bf 5f6d 62bf 4102 cebe
00000010: 2f7c 54bf 84b0 113f 9df1 113f 9249 f53e
00000020: f28d 42bf 8aea 773e 4446 00be 03d6 9e3d
00000030: fc15 20bf d747 9cbf a7db 01bd 30e6 82bf
00000040: a53b 2740 4f7d 813f da87 6abe 7eac 153e
00000050: 1c9b 783e 3818 9b3f 9da9 983e 0d3e a33e
00000060: bcea 013f fbc7 163f 08cf 2d3e 0c90 3ebf
00000070: 97d7 ecbf f4e7 033e 574d 32bf 7493 ab3e
00000080: 36b9 20be e5aa 98be 6e59 6f3f 75cf 7cbf
00000090: 6339 983e 3cce 43bd ad9d 803f 46c3 00bf
000000a0: d589 7b3f e918 4fbf b2b0 aa3e d5ae 483e
000000b0: 2ccf 13be 0091 ad3e 69bf 9fbe 3aa3 86bf
000000c0: 62f1 333e 5e12 93bf c496 52bd 5bac b6be
000000d0: dbf8 c4bf 7115 a9be be49 873f 78fb f93d
000000e0: 81d7 67be d012 b7bf c45f 8abf 3466 36bf
000000f0: 8181 b73f 9b24 7d3e 662b 233f f7ae 83bf
00000100: 5e59 353f 5e7d fcbf 4b3b 0bbf b02b 0d3f
00000110: bb91 bd3e f3a4 ba3e c0ac 593e 06d0 603f
00000120: 9f2a 0140 ef08 133e 5ee3 5abd 9dc9 8cbf
00000130: c354 d43e 9908 173f 6075 1f3f 9c8d 99bf
00000140: 49f2 5ebf 673b 01c0 0f85 933f 4030 8f3d
00000150: 0359 733f 7ef2 563f 166a 9ebf 051d 7b3f
00000160: 1c31 533d d189 51bf 1e46 633f 25e9 a43f
00000170: 3f84 31bf 4fc3 043f 9094 973e 5a7c 96bc
00000180: 1d0b bcbf cdf8 803f 654b b1be 2ceb c83f
00000190: 44f9 693e 462f af3e 617e 06be e44b 1a3f
000001a0: bb37 17bc 27a4 14bf bfc4 10be 0dde 11bf
000001b0: 2e45 d8be 6262 633f 9aba 65bf c18e 603f
000001c0: b03d d93e 1527 973f 42b7 c0bf 676c d5bf
000001d0: 1584 54bb 4ee1 86bf 4f46 b93f 38fe 01be
000001e0: 3ca3 21bf 1775 423f 8635 bbbd fff8 813f
000001f0: 8dc0 653f 922f eabe 25ec 5abf 4778 383e
00000200: 27ff 7f3d 5660 293f 7bb8 823c 1502 4bbf
00000210: c636 04bf 40cb d4be 723a 0d3f fcff 98bf
00000220: bc23 2bbf e453 12bf b3ca 3bbd c3a6 b13f
00000230: 96c5 113f d2b0 03bf 9970 c1be d895 abbf
00000240: d96f 32bf 8476 f5be 3531 7ebe 307c 353f
00000250: 1b76 143f 00e5 7f3e c23c 03c0 77f9 073f
00000260: 371d 813e 8db2 08bf 9da9 873d eb4d 953f
00000270: b96b fc3e e70d 8ebe eba7 a3bf 874b b6be
00000280: 89c5 21bf ffda d13e a692 233f 131b 6c3f
00000290: 9e45 5dbe 665f 1cbf 7285 42be acdd 8ebf
000002a0: 9bd5 123f 8e09 ba3f 11ae 6bbf 967a 493f
000002b0: f510 26bf f90d 9a3f 6e4e b73f a51f 18bf
000002c0: d679 313f ca89 9fbf f37e 0fbf 759b 3dbe
000002d0: a290 ffbe 5170 3a3f 2d21 843d 54cc 82bf
000002e0: 5fc4 c43e 36f7 223f 0ca4 98bf 99b0 d93e
000002f0: 9005 97bf cad2 a9bf 054c c33f e1f2 32bc
00000300: b6b0 e83e 58f8 8fbf 0b6a 3abe 7316 34bd
00000310: 4ca3 b93e 5f9f 8e3f 7edb f73f 33d1 853f
00000320: 056c bcbf 4940 03bf 5299 96bf a7a1 a33f
00000330: ce0c 893e 691c 013f 46ac 8bbc 1886 0bc0
00000340: 6468 df3e 0a4e c4bf db3a f83e de22 bb3f
00000350: 8789 883f cfd3 9f3f d539 b83d 9c7d c73f
00000360: fbd4 7e3d 674a 51bf 446b b93e 0c37 a12a
00000370: 2849 8e3e aced e4be 09d0 bfbe 2fdd 2abc
00000380: cd95 62bc

weight f4 [5, 3]
0.17333722 -0.7885276 0.29365006 0.07169566 -0.23486087 -0.14421159 -0.7693132 2.2931406
1.4091649 -3.3449275 -1.3584939 -2.2155147 0.00014614145 1.0489656 0.06316318
00000000: 507f 313e f2dc 49bf 4d59 963e 2dd5 923d
00000010: 5e7f 70be 34ac 13be b6f1 44bf d1c2 1240
00000020: 845f b43f 4b13 56c0 21e3 adbf feca 0dc0
00000030: 8c3d 1939 8144 863f b35b 813d

weight f4 [128, 38]
0.06794375 0.072866894 0.023546044 -0.051866427 0.101621464 0.07791314 -0.013108034 -0.11070418
0.14916329 0.034457464 -0.13340496 0.14988823 0.09839547 -0.085427575 0.07077017 -0.119690776
-0.036771975 0.124810815 0.016726049 -0.097000524 -0.035613302 -0.06555513 -0.024975555 0.030510774
0.1505342 0.035454985 -0.12337959 -0.038386494 0.10253757 0.095363155 -0.15233843 -0.02327652
-0.14195344 -0.081581675 0.056240752 -0.09889389 0.035126116 0.11857727 0.010576569 -0.07839866
-0.051047385 0.04249743 -0.22579433 -0.02316194 -0.24851066 -0.12420062 -0.1288904 -0.012625003
0.12994812 -0.15053053 0.16539933 -0.027933212 0.11315742 0.0040718135 -0.12551953 0.12275318
0.14063226 0.16287403 0.101319276 -0.06985733 0.125353 0.003873732 0.053584523 -0.12539704
-0.02730727 -0.13471991 -0.022043044 0.06316477 -0.112058535 0.012622262 0.063136816 0.05838432
-0.1371166 -0.14001606 -0.05727947 0.061919384 0.17727885 0.08823581 -0.028300567 0.046844456
-0.2145422 -0.19916195 0.023342744 -0.07257885 0.062226042 -0.082102984 -0.068129934 -0.08257846
0.092375 -0.017031332 0.13658892 0.078798324 0.07697984 0.018548237 -0.052637342 -0.05386557
0.058641456 0.04812612 -0.14498085 0.1033656 0.021254838 -0.10442929 -0.05276726 0.110604145
0.13540864 -0.1867681 0.09640852 0.086179845 0.118350536 0.13636221 -0.08298627 0.074740924
0.059583496 -0.033914253 0.006951465 -0.06005393 0.12356981 -0.021734482 -0.068630055 0.03318002
0.047050383 -0.11016453 0.036841627 0.048996467 -0.039963678 0.021982323 -0.05324396 0.009072271
-0.14785625 -0.11655561 -0.09303489 0.13353948 -0.008016093 0.023864858 -0.1288855 0.12982179
0.16567214 -0.109458275 -0.13027194 -0.12460065 -0.039706938 -0.05727185 -0.10913018 -0.024490664
-0.00019879785 -0.07205123 -0.0015533096 -0.022713143 -0.047245964 0.027734682 0.09320727 -0.15305947
0.021672925 -0.046486992 0.136454 -0.17664446 -0.23671202 0.07390265 -0.17542799 -0.0026074536
0.038123313 -0.020157157 -0.00277682 0.10820734 0.04630091 -0.10694523 -0.10225613 -0.06341458
0.107856266 -0.10349641 0.14381413 -0.04929439 0.005974465 0.119414695 0.053314928 0.11873773
0.123120256 -0.021066628 -0.060460493 -0.009961841 0.1762881 -0.07773216 -0.16935968 0.051753737
0.15708132 -0.028073676 -0.11853599 -0.13270979 0.04903527 0.00058624026 -0.08541645 0.03496289
0.0238891 0.09130185 0.043031644 -0.11645442 -0.22716334 -0.09234526 0.131919 0.081626244
0.0641767 -0.15980606 0.13415176 0.21661568 0.11962536 -0.17400023 -0.10452265 -0.13345477
0.2438606 -0.0504899 -0.07257521 0.06461819 -0.020071516 -0.05829478 0.007749837 -0.010839755
-0.082819186 0.10354679 -0.055002708 0.06338538 0.15455467 0.069603495 0.0032243212 0.12880133
-0.025442889 -0.059222262 0.11525922 0.015071875 -0.13751242 -0.06803716 -0.119022556 0.13370553
-0.122990005 -0.24937269 -0.10334359 0.07912278 0.07477176 0.09881818 0.013497855 0.05584479
0.0067493124 0.027194465 -0.12731394 -0.13504739 0.08585862 -0.08399254 0.029642351 0.028721036
0.05191292 -0.07267642 0.16040465 -0.072691716 0.11882931 -0.110955626 -0.061713208 0.10428606
00000000: 1826 8b3d 3d3b 953d a2e3 c03c e471 54bd
00000010: ea1e d03d ed90 9f3d 14c3 56bc e0b8 e2bd
00000020: 43be 183e 4523 0d3d 4f9b 08be 4d7c 193e
00000030: 9083 c93d a7f4 aebd f3ef 903d 7020 f5bd
00000040: 369e 16bd d09c ff3d 1105 893c 36a8 c6bd
00000050: 41df 11bd c541 86bd 8999 ccbc bbf1 f93c
00000060: a325 1a3e 3f39 113d 70ae fcbd 283b 1dbd
00000070: 38ff d13d c24d c33d 9bfe 1bbe 67ae bebc
00000080: 3e5c 11be 4b14 a7bd b45c 663d e188 cabd
00000090: 67e0 0f3d a4d8 f23d 5849 2d3c 7a8f a0bd
000000a0: 1017 51bd c911 2e3d a136 67be 1cbe bdbc
000000b0: 9479 7ebe e55c febd d8fb 03be 1ad9 4ebc
000000c0: 1f11 053e ad24 1abe 715e 293e 31d4 e4bc
000000d0: 14bf e73d d96c 853b 3188 00be 0566 fb3d
000000e0: e701 103e 73c8 263e 7b80 cf3d 5c11 8fbd
000000f0: 895c 003e 70de 7d3b 727b 5b3d 1568 00be
00000100: 7fb3 dfbc 04f4 09be 9d93 b4bc 885c 813d
00000110: f27e e5bd 9bcd 4e3c e04d 813d 6624 6f3d
00000120: 4b68 0cbe 5f60 0fbe e19d 6abd 2e9f 7d3d
00000130: 9688 353e fab4 b43d 97d6 e7bc f9df 3f3d
00000140: f3b0 5bbe 1cf1 4bbe 4839 bf3c 38a4 94bd
00000150: bce0 7e3d 9c25 a8bd b587 8bbd e51e a9bd
00000160: 1b2f bd3d 4b85 8bbc f7dd 0b3e 0461 a13d
00000170: 9ba7 9d3d 79f2 973c 419a 57bd 25a2 5cbd
00000180: 0632 703d e51f 453d dc75 14be 58b1 d33d
00000190: a01e ae3c 06df d5bd 7b22 58bd 6d84 e23d
000001a0: 90a8 0a3e 2340 3fbe d571 c53d 0f7f b03d
000001b0: c461 f23d 89a2 0b3e b5f4 a9bd c511 993d
000001c0: d30d 743d ace9 0abd 1dc9 e33b 1cfb 75bd
000001d0: 2b12 fd3d 830c b2bc ea8d 8cbd c6e7 073d
000001e0: e7b7 403d f19d e1bd 3fe7 163d 85b0 483d
000001f0: f4b0 23bd 4614 b43c 5716 5abd dda3 143c
00000200: a167 17be b5b4 eebd 1489 bebd 93be 083e
00000210: ee55 03bc 3c80 c33c 8ffa 03be 01f0 043e
00000220: f5a5 293e a92b e0bd 0266 05be a02e ffbd
00000230: bea3 22bd e395 6abd a57f dfbd a5a0 c8bc
00000240: 6474 50b9 988f 93bd 6c98 cbba ea10 babc
00000250: fc84 41bd d833 e33c 74e3 be3d 9fbb 1cbe
00000260: 6b8b b13c 2569 3ebd 99ba 0b3e 49e2 34be
00000270: a364 72be 465a 973d 65a3 33be d0e1 2abb
00000280: 3127 1c3d 9f20 a5bc 4ffb 35bb cf9b dd3d
00000290: 06a6 3d3d 1a06 dbbd a96b d1bd 81df 81bd
000002a0: bfe3 dc3d edf5 d3bd 0344 133e eae8 49bd
000002b0: 72c5 c33b b18f f43d c160 5a3d c42c f33d
000002c0: 7926 fc3d ec93 acbc 6ca5 77bd fd36 23bc
000002d0: de84 343e 0a32 9fbd a06c 2dbe bafb 533d
000002e0: edd9 203e c4fa e5bc ffc2 f2bd 13e5 07be
000002f0: 35d9 483d ebad 193a d2ee aebd 3f35 0f3d
00000300: 13b3 c33c 77fc ba3d f341 303d a87f eebd
00000310: 829d 68be 831f bdbd c615 073e a92b a73d
00000320: 136f 833d 33a4 23be 145f 093e 80d0 5d3e
00000330: 24fe f43d 1e2d 32be f90f d6bd 5ea8 08be
00000340: 98b6 793e 7fce 4ebd 50a2 94bd 8b56 843d
00000350: 056d a4bc 82c6 6ebd 58f2 fd3b 3a99 31bc
00000360: 1b9d a9bd 5710 d43d 854a 61bd 32d0 813d
00000370: 9443 1e3e 478c 8e3d 224f 533b 7fe4 033e
00000380: 9b6d d0bc 0b93 72bd 070d ec3d 07f0 763c
00000390: 0ed0 0cbe 1157 8bbd 19c2 f3bd 1aea 083e
000003a0: 2fe2 fbbd 8e5b 7fbe cea5 d3bd 200b a23d
000003b0: f021 993d 3061 ca3d 1b26 5d3c 82bd 643d
000003c0: 5629 dd3b edc6 de3c 965e 02be dd49 0abe
000003d0: a5d6 af3d 4804 acbd 84d4 f23c 6148 eb3c
000003e0: a4a2 543d 60d7 94bd 1e41 243e 65df 94bd
000003f0: c85c f33d b43c e3bd fdc6 7cbd ee93 d53d

bias f4 [128]
0.010179514 0.09083012 -0.085275084 0.08894385 0.15229413 -0.044581722 0.07185683 0.0046865786
-0.004080311 -0.16626589 0.1668616 0.034811575 -0.13589695 -0.12645407 0.1939122 0.005558932
-0.01712451 0.07247462 0.018735418 0.08963656 0.15091781 -0.031547084 0.14960755 -0.095268235
-0.050886087 0.0005417912 -0.007822048 0.069847055 0.021218684 0.050567754 -0.03812408 0.1303227
-0.048111696 -0.0039209574 0.095298044 0.1584659 0.1283995 -0.13990189 -0.04855569 0.035426352
-0.022710038 0.1330717 0.0761645 -0.076095484 -0.016148837 0.010713922 0.16939646 0.07204639
-0.045303654 -0.078938425 0.094350934 -0.012874769 -0.07967169 -0.13892834 0.03617485 -0.022153417
-0.07177688 0.05587839 0.21718426 0.16617551 0.13094859 -0.090775356 0.08170657 0.14914948
0.01186937 0.014836221 0.048392843 -0.10798841 0.00040569264 -0.054036554 -0.042150225 -0.18577705
0.033785228 -0.11096268 -0.15141812 0.04896289 -0.15923166 0.18472278 0.20476449 0.02305226
-0.02328992 -0.13249432 0.02507707 -0.036104582 -0.0658754 0.0864657 -0.0030669307 -0.055825856
0.05221421 -0.17101412 -0.088585936 -0.024814984 0.19206212 -0.06965088 0.17629099 -0.028133497
-0.029407626 -0.048334222 0.08434189 0.03933445 0.17234926 -0.0128276115 -0.03995451 0.09388182
-0.020818511 0.12183571 0.06081766 -0.008109599 -0.11785118 -0.15455273 0.09908241 0.018902108
0.13988434 -0.10990285 0.021387234 0.1682355 0.11872852 0.14627154 0.12128518 -0.00727143
-0.049864516 -0.045527987 0.091429785 -0.041018788 0.027106121 0.0424821 0.09869782 0.11776276
00000000: fac7 263c 2405 ba3d b4a4 aebd 3128 b63d
00000010: fef2 1b3e 539b 36bd ac29 933d df91 993b
00000020: 21b4 85bb 9b41 2abe c4dd 2a3e 9596 0e3d
00000030: 9228 0bbe 2d7d 01be eb90 463e b427 b63b
00000040: b348 8cbc 936d 943d 057b 993c 5f93 b73d
00000050: 338a 1a3e 8437 01bd b932 193e fe1b c3bd
00000060: ee6d 50bd fe06 0e3a 0c28 00bc f90b 8f3d
00000070: ced2 ad3c 2220 4f3d ff27 1cbd 5073 053e
00000080: c510 45bd 607b 80bb 9f2b c33d e344 223e
00000090: 297b 033e 7142 0fbe 55e2 46bd 391b 113d
000000a0: 670a babc f343 083e 22fc 9b3d f3d7 9bbd
000000b0: 914a 84bc 7289 2f3c 4476 2d3e 0f8d 933d
000000c0: 5390 39bd 78aa a1bd 103b c13d b2f0 52bc
000000d0: e92a a3bd 3b43 0ebe 142c 143d 157b b5bc
000000e0: c2ff 92bd bde0 643d 8d65 5e3e ea29 2a3e
000000f0: 6317 063e 6ee8 b9bd c655 a73d a4ba 183e
00000100: bf77 423c 9f13 733c 9337 463d 0729 ddbd
00000110: 25b3 d439 6f55 5dbd b7a5 2cbd 573c 3ebe
00000120: 6162 0a3d 6740 e3bd 5a0d 1bbe 508d 483d
00000130: a00d 23be f827 3d3e c8ad 513e 18d8 bc3c
00000140: 81ca bebc 97ac 07be 6d6e cd3c 66e2 13bd
00000150: afe9 86bd ee14 b13d 8ffe 48bb a7a9 64bd
00000160: 91de 553d 531e 2fbe 8b6c b5bd cb48 cbbc
00000170: efab 443e 1fa5 8ebd a085 343e 3878 e6bc
00000180: 43e8 f0bc 1bfa 45bd 71bb ac3d 291d 213d
00000190: 537c 303e e72a 52bc 57a7 23bd 1d45 c03d
000001a0: 958b aabc 0085 f93d f01b 793d 20de 04bc
000001b0: f65b f1bd 1243 1ebe b8eb ca3d 98d8 9a3c
000001c0: d73d 0f3e bf14 e1bd 4834 af3c ed45 2c3e
000001d0: f027 f33d 35c8 153e 5d64 f83d 2d45 eebb
000001e0: bc3e 4cbd 8e7b 3abd 8a3f bb3d 5103 28bd
000001f0: a80d de3c b601 2e3d 1522 ca3d 9a2d f13d

weight f4 [128, 128]
0.06194129 -0.015160676 0.019777568 -0.014497825 -0.022019546 -0.044556852 -0.066434026 0.116556846
-0.018834844 0.052196775 -0.05142756 0.03346196 -0.06318811 -0.016657086 -0.09673994 -0.02204121
0.045472104 -0.055091757 0.029627277 0.008768063 -0.108180285 0.052209403 0.044859502 0.057420246
-0.0068659023 0.09715631 -0.017572831 0.055297166 -0.010759969 -0.08429688 -0.009735676 -0.04663209
0.06616394 0.06504676 -0.015404887 -0.02042508 0.04157525 -0.09295983 -0.016524509 0.047370136
0.044016052 -0.0633984 0.06776114 0.050042607 -0.056443267 0.06566627 -0.1206255 0.072628774
0.065570466 0.0271559 -0.048449095 -0.0830245 -0.040709194 -0.036723487 -0.029993258 0.06109128
-0.063650206 0.0108790295 -0.11964388 0.0056114634 0.05645015 -0.10324503 -0.010319107 -0.016182367
-0.065753214 -0.035312958 -0.019250367 0.082848765 -0.06678584 -0.001958928 -0.07089208 -0.06712118
0.090474345 0.052459303 -0.026076209 -0.0066116247 -0.010795686 -0.010290744 -0.08075341 -0.10383877
-0.02765715 -0.06174658 0.018384313 0.074296445 -0.030059598 -0.104682066 0.086935595 0.092908055
0.011577501 0.07799995 0.048408397 0.09641674 -0.119246185 -0.07648091 -0.051109597 0.018990275
-0.10857189 -0.052642718 -0.052343216 -0.009065125 0.067196764 0.054573003 -0.02531798 -0.02863549
-0.06663437 0.0036825573 -0.060639646 0.011967684 0.011524989 0.060560223 -0.059211697 0.107227765
-0.035795484 -0.07008272 0.05102509 0.046792064 -0.052367326 -0.057318512 0.053575523 -0.11704644
0.03783436 -0.07840318 -0.035412375 -0.059516817 0.054086845 -0.02875272 0.005968385 0.067710176
-0.054466944 0.040734746 -0.051230494 -0.06674299 0.004830557 0.020078722 0.11427173 -0.10002559
-0.008950191 0.02621478 0.029109996 0.039396286 -0.040736295 -0.011539494 0.039088678 -0.09157564
0.050583195 -0.08298207 0.03941315 0.031420246 -0.017908562 0.03480033 0.07426204 0.085466094
0.07997029 -0.03685404 0.02849128 0.057564367 0.059701577 0.07696343 -0.056979872 0.05923867
0.005136715 -0.08788111 -0.01763941 0.08510359 -0.038430825 -0.0016054581 -0.016274247 -0.021233961
0.030534934 0.082319304 0.03759423 0.0010594794 -0.002155837 -0.053223304 -0.023242077 -0.023725495
-0.06994737 0.06228335 0.043969527 0.047672994 0.003243614 0.10220079 0.08719782 0.04100103
0.07298572 -0.035288915 0.057806436 -0.03704048 0.042141363 -0.026623884 0.0027013493 0.081320986
0.0552758 0.076325096 0.06350288 -0.004616908 0.022492632 0.07587322 0.04554521 0.023319455
-0.0520468 -0.02796937 -0.03098413 0.020055933 -0.029699463 0.033583608 0.09128743 0.106965385
-0.07414384 0.0101161245 0.06573762 -0.060964257 0.08145598 -0.030914495 -0.056609463 -0.026775004
-0.040957272 -0.053652115 0.048822965 0.034472167 0.04187429 0.07445912 -0.02068253 -0.07978577
-0.022824837 -0.03167121 -0.01923602 0.038302317 -0.050041936 -0.050886415 0.094896 -0.06196032
0.022084799 -0.05081352 0.043132327 0.059556015 -0.041793607 0.0270655 -0.03208477 0.05339593
0.07782339 -0.049599703 0.07749451 0.07139164 0.103898756 0.07529146 0.0134541085 0.031624347
0.04350327 -0.034279577 -0.008568236 0.010446196 -0.03747787 0.007995908 -0.027540559 -0.026272254
00000000: 26b6 7d3d 7c64 78bc 9104 a23c 4988 6dbc
00000010: 5662 b4bc 3f81 36bd 900e 88bd 5bb5 ee3d
00000020: 884b 9abc 49cc 553d b5a5 52bd 680f 093d
00000030: c568 81bd 7174 88bc 971f c6bd c58f b4bc
00000040: f540 3a3d e5a7 61bd e7b4 f23c eca7 0f3c
00000050: a08d ddbd 87d9 553d 99be 373d 7e31 6b3d
00000060: 5dfb e0bb e3f9 c63d e6f4 8fbc 487f 623d
00000070: 954a 30bc d8a3 acbd 6382 1fbc 4a01 3fbd
00000080: f680 873d 3c37 853d c764 7cbc 7f52 a7bc
00000090: cf4a 2a3d b961 bebd 685e 87bc 3007 423d
000000a0: 2d4a 343d 05d7 81bd 5ac6 8a3d 7af9 4c3d
000000b0: 0e31 67bd 0a7c 863d 810a f7bd 65be 943d
000000c0: cf49 863d 0d76 de3c 8f72 46bd c008 aabd
000000d0: afbe 26bd 5e6b 16bd 6cb4 f5bc da3a 7a3d
000000e0: 0a5b 82bd f53d 323c da07 f5bd 5ee0 b73b
000000f0: 4638 673d 2172 d3bd 7911 29bc e290 84bc
00000100: 9fa9 86bd 52a4 10bd f2b2 9dbc 9dac a93d
00000110: 04c7 88bd 5c61 00bb de2f 91bd d476 89bd
00000120: 9d4a b93d 91df 563d c69d d5bc 54a6 d8bb
00000130: 64e0 30bc 829a 28bc 0b62 a5bd 6ca9 d4bd
00000140: 3f91 e2bc fbe9 7cbd b39a 963c bc28 983d
00000150: 8c3f f6bc 8d63 d6bd 4a0b b23d 9446 be3d
00000160: 8faf 3d3c 70be 9f3d e247 463d 2476 c53d
00000170: 5837 f4bd 06a2 9cbd 4c58 51bd 7e91 9b3c
00000180: f05a debd e49f 57bd d765 56bd e485 14bc
00000190: 759e 893d f187 5f3d a767 cfbc fa94 eabc
000001a0: 9a77 88bd 0f57 713b 4761 78bd 1b14 443c
000001b0: 4fd3 3c3c ff0d 783d f787 72bd 3b9a db3d
000001c0: 499e 12bd 8787 8fbd afff 503d 09a9 3f3d
000001d0: 1f7f 56bd d1c6 6abd 0272 5b3d 0bb6 efbd
000001e0: 34f8 1a3d d991 a0bd 910c 11bd e8c7 73bd
000001f0: 2b8a 5d3d d38a ebbc 7192 c33b a2ab 8a3d
00000200: bb18 5fbd 7ad9 263d 11d7 51bd 8cb0 88bd
00000210: a649 9e3b 227c a43c 4c07 ea3d 37da ccbd
00000220: d2a3 12bc 61c0 d63c 1678 ee3c 005e 213d
00000230: 1adb 26bd 2510 3dbc 731b 203d 028c bbbd
00000240: 5330 4f3d 81f2 a9bd af6f 213d 84b2 003d
00000250: fab4 92bc ca8a 0e3d b216 983d d908 af3d
00000260: 77c7 a33d 43f4 16bd 8b66 e93c 9dc8 6b3d
00000270: a489 743d 019f 9d3d ba63 69bd 3fa4 723d
00000280: e351 a83b 03fb b3bd 8680 90bc ca4a ae3d
00000290: a469 1dbd 3c6e d2ba 9251 85bc d8f2 adbc
000002a0: 6624 fa3c 0697 a83d 68fc 193d 3bde 8a3a
000002b0: f148 0dbb ae00 5abd 2b66 bebc f85b c2bc
000002c0: 9140 8fbd d31c 7f3d 6419 343d c244 433d
000002d0: d092 543b a64e d13d c594 b23d b2f0 273d
000002e0: 8a79 953d 1c8b 10bd 71c6 6c3d c2b7 17bd
000002f0: 6c9c 2c3d 551a dabc 1f09 313b 9e8b a63d
00000300: e168 623d 5550 9c3d cc0d 823d 6e49 97bb
00000310: 7842 b83c 6b63 9b3d 9d8d 3a3d 7108 bf3c
00000320: 062f 55bd 0520 e5bc 6ed2 fdbc 574c a43c
00000330: 4a4c f3bc f78e 093d e7f4 ba3d ab10 db3d
00000340: bad8 97bd 1abe 253c 72a1 863d a8b5 79bd
00000350: 65d2 a63d 6540 fdbc 53df 67bd 4157 dbbc
00000360: d0c2 27bd 52c2 5bbd 97fa 473d b032 0d3d
00000370: 6084 2b3d 067e 983d 696e a9bc b966 a3bd
00000380: 27fb babc acb9 01bd dc94 9dbc e4e2 1c3d
00000390: c6f8 4cbd 466e 50bd d658 c23d 1bca 7dbd
000003a0: 2eeb b43c d621 50bd 86ab 303d 02f1 733d
000003b0: c62f 2bbd 78b8 dd3c 526b 03bd b1b5 5a3d
000003c0: df61 9f3d 0f29 4bbd 71b5 9e3d c835 923d
000003d0: dfc8 d43d 6932 9a3d 9f6e 5c3c 8888 013d
000003e0: 7c30 323d be68 0cbd c961 0cbc 8626 2b3c
000003f0: 6582 19bd 4501 033c bd9c e1bc e938 d7bc

bias f4 [128]
-0.06603056 0.11373543 -0.09187791 0.10375299 -0.057001267 0.010076431 0.053081017 -0.047198467
0.035683207 0.027558565 -0.053938396 -0.057993304 0.04688683 -0.022453947 -0.007563711 -0.029472671
0.03342118 -0.024687298 -0.015678085 0.049825374 -0.0893775 0.06397668 -0.01807935 -0.004004365
0.038561936 -0.02519057 0.042984195 0.011558268 0.10536336 -0.004665035 0.058469515 -0.06346607
0.054498225 0.08241301 -0.045751005 0.097308174 0.12073495 -0.08295844 0.052389156 0.0719559
-0.066212155 -0.007644573 -0.03851045 -0.06630314 -0.035736665 -0.021999346 -0.0025538295 0.06974323
0.08326766 -0.014755697 -0.06996621 0.007827097 -0.021473048 -0.0073386724 0.022298018 -0.02747676
0.053272698 0.03675624 -0.03884738 -0.030564833 0.046901785 0.04487215 0.102252476 0.04232423
0.040341605 0.102280565 -0.016146215 -0.061498746 0.085503906 -0.02846096 0.046074554 0.08395951
-0.018332895 0.022945026 0.0024419262 0.04449304 0.08740709 0.02419673 -0.05129841 0.09218392
0.010486237 0.0081889415 0.10464091 0.054498807 0.082379214 0.049470738 -0.047440305 -0.014936631
-0.0016331001 0.10765879 -0.05076533 -0.040076014 0.010439338 -0.0027668485 -0.05756164 0.06695711
0.05436638 -0.03689476 -0.060626477 0.04043032 0.00057008385 0.08393361 0.117308505 -0.05148783
-0.014040406 -0.03001736 -0.038636867 -0.012394903 -0.07660116 0.062131234 -0.09578492 0.013767811
0.03173863 0.01602337 -0.040890407 0.05315308 -0.047621213 -0.013291734 0.08563243 -0.017557114
0.012869384 0.08110351 0.073178336 0.058177408 -0.032233715 0.05858631 0.104758725 -0.027084677
00000000: 083b 87bd 1fee e83d 7c2a bcbd 737c d43d
00000010: 297a 69bd 9d17 253c 7b6b 593d 2e53 41bd
00000020: 8e28 123d 80c2 e13c 82ee 5cbd 638a 6dbd
00000030: 680c 403d 57f1 b7bc 02d9 f7bb ac70 f1bc
00000040: a6e4 083d 043d cabc 546f 80bc b115 4c3d
00000050: 8d0b b7bd 3506 833d 251b 94bc 0c37 83bb
00000060: 1ff3 1d3d 745c cebc 3210 303d e45e 3d3c
00000070: bfc8 d73d 26dd 98bb bb7d 6f3d 80fa 81bd
00000080: 8839 5f3d 27c8 a83d 6865 3bbd 8249 c73d
00000090: e343 f73d 1de6 a9bd 0396 563d 9d5d 933d
000000a0: 3d9a 87bd 547f fabb 22bd 1dbd f1c9 87bd
000000b0: 9c60 12bd f937 b4bc 265e 27bb 8ad5 8e3d
000000c0: 3c88 aa3d e1c1 71bc 724a 8fbd 393d 003c
000000d0: 3fe8 afbc 3f79 f0bb 55aa b63c f116 e1bc
000000e0: 7934 5a3d b68d 163d 6e1e 1fbd 1a63 fabc
000000f0: 161c 403d dccb 373d bf69 d13d 2c5c 2d3d
00000100: 3d3d 253d 7978 d13d 1145 84bc 1ce6 7bbd
00000110: ac1c af3d f626 e9bc acb8 3c3d f7f2 ab3d
00000120: de2e 96bc 35f7 bb3c b908 203b 553e 363d
00000130: 7d02 b33d 3938 c63c 481e 52bd ecca bc3d
00000140: 77ce 2b3c e92a 063c f94d d63d 243a 5f3d
00000150: 6fb6 a83d d4a1 4a3d c450 42bd c5b8 74bc
00000160: bf0d d6ba 367c dc3d 4fef 4fbd bf26 24bd
00000170: c209 2b3c 0454 35bb c1c5 6bbd cf20 893d
00000180: 48af 5e3d f61e 17bd 7853 78bd 439a 253d
00000190: ae71 153a 62e5 ab3d 713f f03d e7e4 52bd
000001a0: bb09 66bc f7e6 f5bc b141 1ebd fe13 4bbc
000001b0: 12e1 9cbd 527d 7e3d e22a c4bd 6292 613c
000001c0: 5e00 023d 7143 833c b37c 27bd 0bb7 593d
000001d0: 760e 43bd 93c5 59bc 0e60 af3d f0d3 8fbc
000001e0: 1cda 523c 9919 a63d 86de 953d 6f4b 6e3d
000001f0: 8007 04bd 33f8 6f3d be8b d63d afe0 ddbc

weight f4 [128, 128]
0.013283759 -9.8697654e-08 -5.739941e-10 -0.002168482 -0.027667953 0.0020490445 0.01636029 -0.006957432
2.3932841e-17 0.017823562 -0.0207445 -0.0020376064 0.03453036 0.0011775234 -0.0042659966 -0.0028315238
0.026884694 5.9615595e-37 -0.015073086 -0.018630542 -0.035481557 -3.8760773e-14 -0.0074895597 9.709137e-26
-0.0064502647 -0.014639314 -1.6669966e-29 0.017506195 -0.0023903733 -0.017378246 0.029432802 0.011589187
5.97576e-07 -0.033214666 -4.4997845e-30 0.0120721245 4.6646215e-11 6.649273e-16 -0.018478276 -0.060192797
1.8467935e-06 -0.0021536697 1.5286485e-36 0.044416577 -0.0013555499 -3.120311e-11 -0.004664448 -0.023958407
-0.0027652439 4.0532376e-37 -0.0032926514 -0.02179621 -0.007440762 0.0064862925 0.035858423 -4.3447315e-11
-0.00044979944 -6.351265e-33 -5.832733e-09 -5.1826343e-12 -4.6115637e-12 -0.008339284 -0.0075767185 -0.01824773
-0.030248584 -0.012435877 -0.0020273617 -7.916066e-13 0.030498672 -0.016940823 -0.030085318 -0.025072863
-1.2290556e-11 3.6418266e-10 0.0025155018 0.0061026076 -0.0014443716 -0.009306742 -0.0023292478 -0.047426578
-2.081797e-17 -0.006108636 -0.020273205 -0.004673842 -2.4622226e-24 0.0053995047 -0.0020761602 -0.044535507
-0.01221349 1.1200045e-27 7.3574323e-31 -1.374607e-17 2.2880737e-27 0.0017961432 -3.781594e-06 -1.8738058e-16
-0.037766155 -1.50149435e-05 -0.0291317 2.339788e-13 0.042764924 -0.010551318 -0.018587118 -0.005466028
-1.5386749e-10 -0.001404232 1.6526415e-12 -0.018437479 -1.607603e-11 -0.044060927 -4.72955e-23 0.00023367966
-0.028363958 -0.007146819 0.03042546 -3.275024e-05 -0.018315807 0.03309269 -0.0081764525 -1.492573e-23
2.8653645e-13 -0.0028809984 -0.00014463955 -0.013209568 0.029076232 0.031618517 -0.0058949413 5.358253e-10
-0.016725166 -0.045969345 -0.041609455 0.025017543 0.005387677 0.069406345 0.08449341 0.038815178
0.028171774 -0.06208185 -0.04775913 0.010579702 -0.028495288 0.082797736 0.020441493 0.005870678
-0.05729866 -0.03898664 0.1015618 -0.05382918 0.0070474586 0.06944585 0.023574032 0.008599443
0.07446396 0.009564595 0.08309858 0.028631136 0.012860166 -0.052285213 0.015222004 0.088415004
0.04410205 -0.03879527 -0.060718503 -0.05558501 -0.05990513 0.036782138 -0.038907334 0.049455527
0.039694104 -0.06773478 -0.019934094 0.040962584 -0.010683029 0.06574211 0.06412598 0.0910666
-0.04040287 0.07912117 -0.093251966 0.0884916 0.018099204 0.08645389 -0.026093313 0.003266624
-0.035264973 -0.048439104 0.055656478 0.023866422 0.074647285 0.008364776 0.039843287 0.008857428
-0.021052018 0.089833535 -0.04664298 0.00045894756 -0.0104674315 -0.0053090653 -0.05214974 0.009956093
0.006717038 0.06609218 0.055291608 0.105022706 -0.0046581123 0.053229455 -0.10851989 -0.02681361
-0.058375824 0.012676222 0.08868942 -0.009879536 0.06501662 -0.0097537115 -0.070284285 -0.047251396
0.043795094 0.07013359 -0.040295772 0.04537813 0.014884718 -0.035960082 -0.01864852 0.065295294
0.05865512 -0.07539195 -0.047520842 -0.049808115 -0.037744585 -0.013039781 0.028721606 -0.0057889535
-0.033599943 0.094092436 0.07851664 -0.009980819 -0.046149403 0.07315342 -0.01857569 -0.07141558
0.048488304 -0.109618336 -0.0019702294 0.061981946 -0.007226599 -0.03530563 0.04946225 -0.08956483
-0.010308735 0.008189488 0.084722646 -0.009475115 -0.055688836 -0.09745444 0.048331313 0.0076290932
00000000: 20a4 593c 9cf3 d3b3 3ec7 1db0 171d 0ebb
00000010: e7a7 e2bc 4349 063b 0406 863c 2bfb e3bb
00000020: d3bd dc23 b802 923c 5ff0 a9bc 5d89 05bb
00000030: b56f 0d3d 2157 9a3a c6c9 8bbb 1691 39bb
00000040: 4a3d dc3c 82dc 4a03 1bf5 76bc 149f 98bc
00000050: 1c55 11bd 2190 2ea9 fb6a f5bb f762 f015
00000060: be5c d3bb bcd9 6fbc b50d a98f 2769 8f3c
00000070: cfa7 1cbb d35c 8ebc 0f1d f13c 93e0 3d3c
00000080: 1c69 2035 1a0c 08bd 6f88 b68e 29ca 453c
00000090: f826 4d2e faa6 3f26 c15f 97bc b98c 76bd
000000a0: 57df f735 9524 0dbb 040b 0204 28ee 353d
000000b0: b5ac b1ba 943b 09ae 3ad8 98bb 6c44 c4bc
000000c0: 1839 35bb aeec 0903 86c9 57bb f78d b2bc
000000d0: a3d1 f3bb f78a d43b 48e0 123d 5415 3fae
000000e0: 0fd3 ebb9 1ee9 038a 4369 c8b1 0559 b6ac
000000f0: 4641 a2ac 7ea1 08bc 1f46 f8bb 437c 95bc
00000100: e1cb f7bc d9bf 4bbc 7cdd 04bb 44d1 5eab
00000110: 5ad8 f93c 7bc7 8abc 7c75 f6bc 9b65 cdbc
00000120: be37 58ad 2736 c82f 1edb 243b 62f8 c73b
00000130: 1251 bdba 4e7b 18bc 4ba6 18bb 5f42 42bd
00000140: 0b03 c0a3 f42a c8bb fe13 a6bc 0727 99bb
00000150: 5881 3e98 54ee b03b 3010 08bb dd6a 36bd
00000160: 171b 48bc c878 b112 28c3 6e0d fb91 7da3
00000170: a647 3513 916c eb3a 4ac7 7db6 fc08 58a5
00000180: afb0 1abd b1e8 7bb7 9aa5 eebc e6b7 832a
00000190: 462a 2f3d 6fdf 2cbc 0344 98bc 5e1c b3bb
000001a0: d92d 29af 350e b8ba af96 e82b 320a 97bc
000001b0: 0068 8dad 3b79 34bd feb4 649a e807 7539
000001c0: 885b e8bc dd2f eabb d03e f93c 4d5d 09b8
000001d0: 080b 96bc 338c 073d 87f6 05bc 515a 9099
000001e0: 414e a12a 22cf 3cbb 62aa 17b9 f26c 58bc
000001f0: 4731 ee3c 6b82 013d 5a2a c1bb 5a49 1330
00000200: 3703 89bc 5a4a 3cbd ad6e 2abd 97f1 cc3c
00000210: 1c8b b03b ea24 8e3d e20a ad3d aafc 1e3d
00000220: 7ec8 e63c 8a49 7ebd 149f 43bd 7d56 2d3c
00000230: f36e e9bc dc91 a93d eb74 a73c d15e c03b
00000240: 00b2 6abd 74b0 1fbd a2ff cf3d fc7b 5cbd
00000250: 5eee e63b a039 8e3d 541e c13c aee4 0c3c
00000260: 9080 983d d2b4 1c3c 972f aa3d d88b ea3c
00000270: 72b3 523c 0529 56bd b665 793c ed12 b53d
00000280: 5aa4 343d cae7 1ebd f7b3 78bd 1cad 63bd
00000290: 155f 75bd dea8 163d 4c5d 1fbd e191 4a3d
000002a0: 4996 223d 88b8 8abd d34c a3bc 62c8 273d
000002b0: df07 2fbc cda3 863d 7b54 833d 2081 ba3d
000002c0: 7b7d 25bd 480a a23d e3fa bebd 153b b53d
000002d0: c844 943c bd0e b13d a5c1 d5bc db14 563b
000002e0: 0172 10bd 1568 46bd 0cf8 633d 8483 c33c
000002f0: ade0 983d 6a0c 093c b732 233d bf1e 113c
00000300: 4875 acbc a5fa b73d b60c 3fbd e69e f039
00000310: 977f 2bbc abf7 adbb f79a 55bd e11e 233c
00000320: 991a dc3b 565b 873d 7479 623d 2516 d73d
00000330: 14a3 98bb 2107 5a3d ad3f debd 37a8 dbbc
00000340: 7d1b 6fbd eeaf 4f3c cca2 b53d c7dd 21bc
00000350: 6f27 853d 08ce 1fbc 35f1 8fbd ae8a 41bd
00000360: 7c62 333d 33a2 8f3d 2e0d 25bd 6bde 393d
00000370: 08df 733c e14a 13bd c8c4 98bc 8ab9 853d
00000380: 5a40 703d 1867 9abd 37a5 42bd 9803 4cbd
00000390: 119a 1abd cea4 55bc 9349 eb3c 43b1 bdbb
000003a0: 18a0 09bd 89b3 c03d 55cd a03d 9786 23bc
000003b0: 2807 3dbd 76d1 953d 0c2c 98bc 5542 92bd
000003c0: ac9b 463d 947f e0bd f71e 01bb c8e0 7d3d
000003d0: 1bcd ecbb a39c 10bd ee98 4a3d c46d b7bd
000003e0: f8e5 28bc 342d 063c 1183 ad3d 833d 1bbc
000003f0: fa19 64bd 3296 c7bd 0ef7 453d 79fd f93b

bias f4 [128]
-0.049601488 0.09605992 0.06904921 0.09807178 0.04230828 0.046403863 0.028390901 0.11613025
0.07716824 0.07717945 0.014852424 -0.0748811 0.04901368 0.0003823203 0.020643136 -0.02451422
0.047632948 -0.06495698 0.0015770039 0.04859806 0.07445429 0.07682707 0.071772784 -0.032139704
0.009248213 -0.044131108 -0.07964014 0.01631122 -0.040965598 -0.011377944 0.030842066 0.08224139
-0.07385769 -0.03074674 -0.0056603 0.017323865 -0.05915569 0.08631157 -0.04119806 0.009967832
0.06818659 -0.00449624 0.11427975 -0.017991155 0.089514114 0.04970144 0.060862258 -0.0103599755
0.023109464 0.025528518 0.03868668 -0.06782563 -0.03938399 0.08122953 -0.044870652 -0.002984202
0.03508134 0.09652342 0.083518304 0.0699446 0.031290557 -0.10200376 0.09835164 0.090408854
-0.012971381 -0.017475938 0.019747563 -0.044373997 0.048025124 -0.016931983 -0.026462803 -0.058727138
0.022236392 -0.050389327 0.026345355 -0.033746332 -0.022071172 0.031040737 0.05960505 0.0509131
-0.05828937 0.018331477 0.09816999 -0.04659287 0.101939924 -0.08129472 0.08280548 -0.029490655
0.13270265 0.018776894 0.04314824 0.021202287 -0.037355352 0.083733 0.037366856 -0.028367324
0.029689707 0.06280266 -0.012323237 0.12207109 -0.039089303 0.081965126 -0.00011686109 -0.051754653
0.047039956 -0.0037067097 -0.03863371 -0.005947764 -0.041617338 0.0030218924 -0.053925626 0.042437725
0.029452356 -0.06210493 -0.04984409 -0.02739164 0.006419045 0.08551863 0.032201767 0.058770772
0.035717934 0.0152686 0.04091761 -0.020560265 0.0822503 -0.0048145866 -0.057517357 0.055249117
00000000: ee2a 4bbd 10bb c43d ac69 8d3d dbd9 c83d
00000010: 724b 2d3d fa11 3e3d 0994 e83c b2d5 ed3d
00000020: 620a 9e3d 4210 9e3d 9557 733c 435b 99bd
00000030: 92c2 483d 2972 c839 cb1b a93c 0cd2 c8bc
00000040: c41a 433d 2a08 85bd 78b3 ce3a c20e 473d
00000050: 7e7b 983d 8357 9d3d 9cfd 923d eca4 03bd
00000060: d185 173c d2c2 34bd 5f1a a3bd 1c9f 853c
00000070: 8bcb 27bd 8e6a 3abc 80a8 fc3c 2d6e a83d
00000080: b342 97bd 96e0 fbbc 0a7a b9bb c7ea 8d3c
00000090: 3d4d 72bd 1fc4 b03d 4cbf 28bd 1e50 233c
000000a0: 69a5 8b3d 3255 93bb 800b ea3d 3062 93bc
000000b0: 2d53 b73d bd93 4b3d b44a 793d e3bc 29bc
000000c0: 0f50 bd3c 2f21 d13c ed75 1e3d 2ae8 8abd
000000d0: 1b51 21bd ab5b a63d 4aca 37bd 9a92 43bb
000000e0: 73b1 0f3d 12ae c53d a50b ab3d 1d3f 8f3d
000000f0: 872a 003d 59e7 d0bd 966c c93d 4728 b93d
00000100: ea85 54bc b329 8fbc a4c5 a13c 82c1 35bd
00000110: feb5 443d f1b4 8abc 85c8 d8bc de8b 70bd
00000120: 1829 b63c 0a65 4ebd 37d2 d73c 9839 0abd
00000130: 9ace b4bc 2549 fe3c 6d24 743d 418a 503d
00000140: d6c0 6ebd e52b 963c 590d c93d 2ad8 3ebd
00000150: e1c5 d03d d97d a6bd eb95 a93d 6396 f1bc
00000160: 34e3 073e 00d2 993c 35bc 303d 6bb0 ad3c
00000170: ed01 19bd 357c ab3d fd0d 193d 9762 e8bc
00000180: d437 f33c ae9e 803d 67e7 49bc 6800 fa3d
00000190: 1b1c 20bd 55dd a73d 5213 f5b8 b0fc 53bd
000001a0: f8ac 403d 45ec 72bb 623e 1ebd 76e5 c2bb
000001b0: f176 2abd f10a 463b 1ee1 5cbd 2ed3 2d3d
000001c0: 1146 f13c bd61 7ebd 5129 4cbd 6f64 e0bc
000001d0: da56 d23b 6424 af3d 00e6 033d 9fb9 703d
000001e0: f84c 123d 2629 7a3c 3999 273d 006e a8bc
000001f0: d872 a83d aec3 9dbb 5297 6bbd e64c 623d

weight f4 [128, 128]
-0.016464531 0.08528336 0.07783519 0.06831266 0.05530664 0.020494431 -0.039799422 0.053553887
-0.013036338 -0.0020349592 0.0894221 0.038321156 0.099022694 -0.010961916 0.05723219 0.042045165
-0.04013569 -0.041714586 -0.012045789 -0.049219705 0.027640639 -0.07297841 0.07020353 0.049223833
-0.021634368 0.04729958 -0.08114686 -0.03558703 0.042469837 0.011702452 -0.00892453 0.09167387
-0.036693934 0.002810367 -0.029013764 0.07207671 -0.05151088 0.045582585 -0.0014964801 0.07338329
0.088478826 -0.04562768 -0.057480637 -0.02626322 -0.002940441 0.05955086 0.012449357 0.022876503
-0.0018308559 -0.02489674 0.049143247 0.056763984 -0.036783032 0.005979851 -0.075846 0.05096222
-0.0033781724 0.100641556 -0.046892386 0.08493095 -0.054070093 -0.07399283 0.062544234 -0.03111842
-0.015749618 -0.039472867 -0.033296466 -0.016846595 0.08160198 -0.025068028 0.008494501 0.06147622
-0.021809196 0.05590327 -0.06329599 -0.014268526 0.042953346 -0.022546737 -0.08184552 0.040468384
-0.074772015 -0.06489612 0.0906016 0.08515018 -0.03952674 -0.06789957 0.0067387214 0.010879974
0.09377036 -0.06268715 -0.048437834 0.019305041 -0.034621894 -0.06970095 0.08356494 0.09211927
0.07498348 0.041572038 0.012901186 -0.030850084 0.03104898 0.08205426 0.059028868 -0.07116187
0.07045616 0.09046759 0.07222816 0.0008137836 0.00084237946 0.07213617 0.047936074 -0.02196711
0.047915455 -0.017130224 -0.017737856 0.0115358755 -0.057513494 -0.008956374 0.07619663 -0.0073732226
0.099014476 0.024678847 -0.058006696 0.010967018 -0.007827133 -0.006944126 0.012507264 -0.067438595
7.419947e-18 -3.506208e-12 -8.2394273e-25 -2.1147376e-12 -1.905719e-10 1.338782e-10 -3.9494692e-11 -9.81093e-16
3.0265174e-10 -3.4592584e-13 -5.372457e-12 -8.539719e-20 -8.4200507e-16 4.8821782e-26 -1.253413e-10 -2.287857e-14
-1.06264254e-16 3.3103977e-37 -9.693979e-12 -2.0280649e-11 -3.3390867e-15 -2.5951065e-13 1.746976e-29 -5.2438268e-14
-9.707113e-14 2.4989127e-25 -2.3232225e-13 -1.216179e-12 -6.348578e-14 -4.7003616e-16 3.9707014e-12 -3.3483032e-11
-1.9389971e-15 1.9402434e-20 -1.5146703e-11 -8.1901425e-14 -1.2735256e-10 1.4944076e-32 -4.0224435e-16 -1.4486807e-15
-4.7393093e-11 -4.681885e-34 -1.10949784e-10 -1.05070467e-16 -1.318465e-13 -1.1347546e-24 4.8401226e-17 -1.8222198e-11
5.222627e-16 7.3425e-11 -1.9956989e-10 2.6608798e-10 -4.4064978e-14 6.5249156e-16 -1.6912441e-14 8.008421e-21
-8.734594e-12 2.4650776e-16 -7.17003e-37 -1.2073283e-10 -2.5827849e-11 7.970766e-37 -1.6195526e-14 9.247074e-37
-3.3125333e-37 2.7125503e-11 -1.162095e-12 9.410146e-13 -1.228601e-10 5.5479383e-15 -1.1494685e-11 -7.758828e-37
1.9093716e-20 1.3398866e-18 -1.4118996e-24 -1.0360511e-10 4.028543e-10 -3.5896858e-13 -7.0475035e-18 1.5851674e-10
-3.5666188e-13 -5.7311285e-13 -4.0261678e-16 -1.9120243e-10 -6.155413e-13 -4.300696e-37 -7.979286e-15 3.2748326e-19
-2.9686963e-12 -1.1625526e-18 -6.9766885e-15 -4.643465e-11 -3.9472793e-11 -1.4233361e-13 -1.7457221e-12 -8.295385e-12
-5.825495e-13 -1.8195885e-12 -5.408421e-30 -4.886879e-32 3.2459462e-25 -1.4856248e-12 -1.7200444e-10 -1.0514271e-14
-3.9102537e-11 -2.4380448e-10 -5.361738e-15 2.1598402e-15 5.100066e-11 7.535109e-13 -2.0945108e-12 -4.215802e-15
1.0505603e-25 2.4096833e-12 -7.439537e-13 1.0268368e-36 -1.928314e-12 -3.3227676e-16 -2.7024206e-11 -2.4395713e-10
-1.9105209e-13 -5.132253e-12 -1.475795e-14 -2.5551918e-11 3.939754e-24 -6.252458e-16 5.314725e-37 -3.7893796e-30
00000000: a0e0 86bc 0ba9 ae3d 0e68 9f3d 82e7 8b3d
00000010: 3789 623d f0e3 a73c b804 23bd 525b 5b3d
00000020: 5d96 55bc f35c 05bb ef22 b73d a5f6 1c3d
00000030: 69cc ca3d 9c99 33bc 4d6c 6a3d 8d37 2c3d
00000040: 5265 24bd eadc 2abd b35b 45bc 9a9a 49bd
00000050: 9f6e e23c b475 95bd dec6 8f3d ee9e 493d
00000060: 8f3a b1bc 34bd 413d 5330 a6bd b5c3 11bd
00000070: daf4 2d3d a4bb 3f3c 3138 12bc 83bf bb3d
00000080: 614c 16bd 222e 383b 46ae edbc f49c 933d
00000090: 13fd 52bd ceb4 3a3d 8a25 c4ba fa49 963d
000000a0: 6334 b53d 17e4 3abd d170 6bbd f725 d7bc
000000b0: 6ab4 40bb 9aeb 733d 63f8 4b3c 8167 bb3c
000000c0: 54f9 efba 40f4 cbbc 6e4a 493d 5a81 683d
000000d0: cea9 16bd a0f2 c33b 2655 9bbd c3bd 503d
000000e0: 5464 5dbb 291d ce3d 3b12 40bd 47f0 ad3d
000000f0: 9a78 5dbd 8e89 97bd 3117 803d 0fec febc
00000100: 5805 81bc 4dae 21bd e061 08bd df01 8abc
00000110: f01e a73d 775b cdbc 852c 0b3c 7dce 7b3d
00000120: 33a9 b2bc d4fa 643d 54a1 81bd 89c6 69bc
00000130: d9ef 2f3d efb3 b8bc a09e a7bd 2dc2 253d
00000140: 1222 99bd 42e8 84bd 558d b93d 3863 ae3d
00000150: cae6 21bd ee0e 8bbd 7ed0 dc3b eb41 323c
00000160: ad0a c03d 1f62 80bd c066 46bd 9b25 9e3c
00000170: b0cf 0dbd 5fbf 8ebd 1824 ab3d 07a9 bc3d
00000180: f090 993d 7147 2a3d 7f5f 533c 51b9 fcbc
00000190: 6e5a fe3c 100c a83d 41c8 713d 51bd 91bd
000001a0: 524b 903d 1247 b93d 5cec 933d 1854 553a
000001b0: 21d3 5c3a 21bc 933d 9e58 443d 5ef4 b3bc
000001c0: ff42 443d af54 8cbc fb4e 91bc f800 3d3c
000001d0: 4593 6bbd c1bd 12bc fb0c 9c3d 139b f1bb
000001e0: 1ac8 ca3d 4b2b ca3c 6e98 6dbd 02af 333c
000001f0: 603d 00bc 8d8b e3bb 44eb 4c3c 3f1d 8abd
00000200: b6df 0823 3aba 76ac 78ff 7e97 bacf 14ac
00000210: 3989 51af 5d33 132f 12b3 2dae f163 8da6
00000220: 7262 a62f 2bbd c2aa ca06 bdac 6fa3 c99f
00000230: 02b1 72a6 f6c0 7115 71d0 09af 6412 cea8
00000240: 5807 f5a4 434b e102 cd89 2aad f663 b2ad
00000250: 479b 70a7 6d17 92aa 172a b10f 3529 6ca9
00000260: b295 daa9 daac 9a16 2ac9 82aa 7729 abab
00000270: 0ff5 8ea9 8c7a 07a6 e6b4 8b2c 8b42 13ae
00000280: 2fb8 0ba7 3540 b71e 583b 85ad f56c b8a9
00000290: 8f06 0caf 2b30 9b0a cae0 e7a5 e2c6 d0a6
000002a0: e16f 50ae 1395 1b88 2dfb f3ae a846 f2a4
000002b0: 2b72 14aa 4398 af97 1536 5f24 be48 a0ad
000002c0: 2f88 1626 9a76 a12e ee6d 5baf 8e48 922f
000002d0: 7673 46a9 6111 3c26 6f55 98a8 5946 171e
000002e0: 1da9 19ad 201a 8e25 c5fb 7383 45bf 04af
000002f0: 252f e3ad 959d 8703 57e0 91a8 b054 9d03
00000300: 7870 e182 3499 ee2d e38c a3ab a06f 842b
00000310: 0b16 07af b3e2 c727 7637 4aad 7602 8483
00000320: c655 b41e 7cbb c521 1b7b da97 7ed4 e3ae
00000330: b478 dd2f d314 caaa e500 02a3 7f4a 2e2f
00000340: 65c8 c8aa 2251 21ab c017 e8a5 b33a 52af
00000350: 6d42 2dab 5958 1283 f6bd 0fa8 df4f c120
00000360: 47e7 50ac ff8f aba1 985c fba7 c538 4cae
00000370: 6a9a 2dae df40 20aa 44b0 f5ab 18ef 11ad
00000380: 1ef9 23ab cb0a 00ac 4164 db8e c4bd 7d8b
00000390: 12ea c816 4615 d1ab f21e 3daf 8468 3da8
000003a0: 8bf9 2bae 6e08 86af 4e2d c1a7 05a2 1b27
000003b0: a34d 602e 2f18 542b 5a63 13ac e9e3 97a7
000003c0: 960d 0216 ff90 292c 8467 51ab 0db5 ae03
000003d0: 6bb1 07ac 658b bfa5 1ab5 edad ea1d 86af
000003e0: 041b 57aa 3a93 b4ac 84ed 84a8 cec1 e0ad
000003f0: 6f69 9818 ff36 34a6 c9d9 3403 2bb7 998e

bias f4 [128]
0.039774083 -5.2452503e-10 0.066235036 0.03230587 0.049047414 0.035684682 -0.008420411 -0.0366545
0.010116651 -0.018504333 0.099837154 -0.01777868 0.043743275 -0.0031520352 -0.053190134 0.037530087
0.075010896 0.0047157793 0.054885365 0.069364354 -0.08410232 0.017431928 -0.09555463 -0.03963666
0.047676858 -0.068231665 -0.018521821 0.048967306 -0.080002755 0.027029278 0.027267814 0.031764925
-0.016739523 0.045993835 -0.051052418 0.013034807 -0.017129682 0.008495046 0.066949375 -0.059065484
-0.05437125 0.10045221 -0.040509038 0.117859684 0.022059636 0.060702074 0.051239826 -0.06906279
0.11652466 0.09716409 -0.04525552 0.04330561 0.025619427 -0.08009861 0.04088601 0.007206293
0.09390198 -0.017764919 0.08267529 0.011949524 -0.07594307 -0.08929275 0.03674351 0.092946954
0.0468519 0.062602155 0.028462537 -0.0345738 0.011192208 0.024832644 0.03042497 -0.016528584
0.017207945 0.08551517 -0.046770472 0.058253396 0.06261564 0.00022279282 -0.053141948 -0.022923587
0.0966315 -0.061203796 0.053012703 0.062463187 0.0038967254 0.11192393 0.09908599 -0.079677485
0.087615 -0.038840014 0.07152546 -0.041747186 -0.08877659 0.10466371 -0.0410336 0.09739614
0.013834961 0.056483537 -0.016794465 0.071098536 -0.059690915 0.08210506 0.07248724 0.045288675
0.065467924 0.03805725 -0.061620876 -0.0069064316 0.06181391 0.09413963 -0.0049396832 -0.08074107
-0.08255137 0.03774483 -0.057378665 -0.0022301443 -0.01568473 -0.035554864 0.069025524 -0.08809461
0.04036575 -0.0323085 -0.019149957 -0.03264695 -0.030672679 -0.104776345 -0.023569021 0.08885469
00000000: 26ea 223d 2b2e 10b0 3ca6 873d 2953 043d
00000010: f1e5 483d 1a2a 123d c3f5 09bc 0723 16bd
00000020: 4fc0 253c 6696 97bc 6c77 cc3d 98a4 91bc
00000030: 262c 333d 6092 4ebb e6dd 59bd 26b9 193d
00000040: 509f 993d d386 9a3b 7acf 603d e60e 8e3d
00000050: d63d acbd 67cd 8e3c 25b2 c3bd 0d5a 22bd
00000060: cf48 433d 0bbd 8bbd 13bb 97bc f191 483d
00000070: 7cd8 a3bd 816c dd3c c060 df3c f01b 023d
00000080: 5321 89bc 0864 3c3d 571c 51bd f18f 553c
00000090: 8c53 8cbc ce2e 0b3c c11c 893d a6ee 71bd
000000a0: 63b4 5ebd e3b9 cd3d ceec 25bd 6b60 f13d
000000b0: 69b6 b43c bda2 783d dae0 513d cb70 8dbd
000000c0: 7ba4 ee3d f7fd c63d da5d 39bd 3961 313d
000000d0: d5df d13c bd0a a4bd 1778 273d c422 ec3b
000000e0: ae4f c03d bc87 91bc aa51 a93d f0c7 433c
000000f0: 0a88 9bbd 1edf b6bd 5d80 163d f95a be3d
00000100: c7e7 3f3d 8f35 803d 442a e93c 429d 0dbd
00000110: 865f 373c d46d cb3c c93d f93c f466 87bc
00000120: adf7 8c3c 9422 af3d 6592 3fbd 1d9b 6e3d
00000130: a13c 803d 7e9d 6939 5fab 59bd 3fca bbbc
00000140: bce6 c53d d5b0 7abd d923 593d 66d9 7f3d
00000150: 3460 7f3b 6038 e53d 98ed ca3d f32d a3bd
00000160: 7e6f b33d b516 1fbd f17b 923d 19ff 2abd
00000170: 80d0 b5bd ed59 d63d d912 28bd a177 c73d
00000180: 08ac 623c 485b 673d 8c94 89bc 1c9c 913d
00000190: 767e 74bd b326 a83d 3174 943d 9e80 393d
000001a0: 0c14 863d ebe1 1b3d 2c66 7cbd 594f e2bb
000001b0: 9530 7d3d 47cc c03d 11dd a1bb 935b a5bd
000001c0: b110 a9bd 539a 1a3d e405 6bbd 9d27 12bb
000001d0: 437d 80bc faa1 11bd 415d 8d3d f26a b4bd
000001e0: 8f56 253d eb55 04bd 5fe0 9cbc cfb8 05bd
000001f0: 4545 fbbc fb94 d6bd d213 c1bc 73f9 b53d

weight f4 [1, 128]
-0.027277635 -6.6787944e-09 0.10423826 0.059506264 -0.047289662 0.016928038 0.11134784 -0.0780934
0.1318626 -0.0074244994 -0.028721746 -0.11594907 0.016838716 -0.069993064 -0.0057885866 -0.051828682
0.06661818 -0.07795706 -0.03212222 0.015539406 0.12320785 -0.05191449 0.037897006 0.093100764
-0.09653854 0.027416673 0.06930695 -0.050083652 0.048600536 0.07948601 0.063694105 -0.0868582
0.04067748 -0.021320581 -0.031065436 -0.027889017 -0.014424041 0.073716626 -0.040370762 0.06714839
0.028389838 -0.058862958 0.044385705 -0.019733014 -0.018762982 0.07257433 0.12782475 0.058150813
-0.029743547 0.06379204 0.013356751 0.09142279 -0.04210262 0.09597413 -0.027135614 -0.011790376
-0.05624797 0.0702477 0.09934491 -0.06822598 0.044822287 0.003605308 -0.053139728 0.048149988
0.07798061 0.09332224 0.054033197 0.11559139 0.020649258 0.057593822 -0.10668805 -0.021547383
0.092620715 -0.026983775 0.018010836 -0.076335974 -0.07735995 -0.04020615 0.061163906 0.0065653664
-0.05160485 0.019372622 -0.043337554 0.057566743 -0.03410766 -0.09014443 -0.047118343 -0.01183268
-0.012569447 -0.026543332 0.031996854 -0.063651726 0.008726035 -0.08382433 0.06545716 -0.0772043
-0.08129298 0.084839754 -0.007482377 0.00885715 -0.06687395 -0.05753298 -0.08018654 0.13142273
-0.082288064 0.04009573 -0.0014310229 0.082891285 -0.05725692 -0.051469922 0.038227465 0.09946457
0.087765716 -0.036019057 0.05356108 0.027791495 -0.028897202 -0.047288302 0.0338041 0.008003476
-0.048840888 0.087523915 0.10100572 -0.03582694 -0.0028817854 0.031325907 -0.061987087 0.124112345
00000000: 5975 dfbc 4c7b e5b1 de7a d53d d7bc 733d
00000010: ceb2 41bd abac 8a3c 560a e43d 6fef 9fbd
00000020: fd06 073e 3749 f3bb de49 ebbc b576 edbd
00000030: 59f1 893c 8658 8fbd 2fae bdbb 504a 54bd
00000040: 1d6f 883d f3a7 9fbd 9792 03bd fe98 7e3c
00000050: 6654 fc3d 4aa4 54bd e439 1b3d 9dab be3d
00000060: 00b6 c5bd ee98 e03c cdf0 8d3d 8424 4dbd
00000070: 5b11 473d 90c9 a23d 0e72 823d b6e2 b1bd
00000080: 6e9d 263d 80a8 aebc f17c febc 8277 e4bc
00000090: d052 6cbc bef8 963d d05b 25bd 1885 893d
000000a0: ce91 e83c 491a 71bd c9cd 353d 21a7 a1bc
000000b0: d3b4 99bc daa1 943d 7ee4 023e 8c2f 6e3d
000000c0: bda8 f3bc 67a5 823d 46d6 5a3c df3b bb3d
000000d0: cc73 2cbd 168e c43d 824b debc 6c2c 41bc
000000e0: 4564 66bd 07de 8f3d 5875 cb3d 10ba 8bbd
000000f0: 9397 373d 0847 6c3b 0ba9 59bd ec38 453d
00000100: 4cb4 9f3d bb1f bf3d ea51 5d3d 2ebb ec3d
00000110: a228 a93c 80e7 6b3d 447f dabd 2384 b0bc
00000120: eeaf bd3d 140d ddbc 768b 933c 0956 9cbd
00000130: e56e 9ebd 34af 24bd 0187 7a3d 4922 d73b
00000140: 9b5f 53bd 55b3 9e3c b882 31bd 1bcb 6b3d
00000150: 79b4 0bbd a59d b8bd 2aff 40bd dbdd 41bc
00000160: 15f0 4dbc 6771 d9bc 220f 033d d65b 82bd
00000170: a5f7 0e3c 17ac abbd 670e 863d 4a1d 9ebd
00000180: ef7c a6bd 77c0 ad3d ba2e f5bb 941d 113c
00000190: 36f5 88bd b4a7 6bbd d738 a4bd ae93 063e
000001a0: a586 a8bd 6c3b 243d 2991 bbba e8c2 a93d
000001b0: 3b86 6abd 20d2 52bd 6794 1c3d 15b4 cb3d
000001c0: 83be b33d b888 13bd dd62 5b3d fdaa e33c
000001d0: d3b9 ecbc 61b1 41bd 2b76 0a3d 0321 033c
000001e0: 620d 48bd bd3f b33d 16dc ce3d 45bf 12bd
000001f0: 56dc 3cbb 984f 003d 2ce6 7dbd 9d2e fe3d
