bike_sharing/AutogluonModels/ag-20220403_215705/models/NeuralNetTorch_BAG_L1/S1F1/net.params (torch, 211783 bytes, 9 tensors)

weight f4 [128, 14]
000000 b8 6d e6 3b 15 7c a4 3d e3 72 65 be 18 ee 40 be
       0.0070321225 0.08031479 -0.22407107 -0.18840826
000010 5f f6 b8 bd 3b d9 08 3d 2b bb 59 bc 9a 28 5a 3e
       -0.090313666 0.033410292 -0.013289253 0.21304551
000020 bc 28 f3 bc 39 a0 1b 3e c3 e3 09 bd f5 bd 82 bd
       -0.02968251 0.15197839 -0.033664476 -0.06383888
000030 d3 e4 c6 be 20 4a 14 be fd e2 e7 bd fb 23 ae 3c
       -0.38846454 -0.14481401 -0.113225915 0.021257391
000040 49 2c d9 3d 99 69 69 3e 4b 39 32 be 45 4e 33 be
       0.1060415 0.22794189 -0.17404668 -0.17510326
000050 a4 13 ee 3d 1b 33 4c 3e 5f 14 13 bd a7 9f 3e 3e
       0.1162484 0.1994137 -0.0359081 0.1861559
000060 59 bb 07 bc fc 44 bd bc 9d c6 82 3e bd 97 84 be
       -0.008284413 -0.023104183 0.25542155 -0.25897017
000070 96 09 56 be 6d 51 c9 bd d3 d6 05 be 8e 70 43 3e
       -0.20902094 -0.09829984 -0.1307023 0.19085905
000080 3f 1c 7f be 50 56 ec bd 1f 44 7d be bc 7a ae be
       -0.24913119 -0.115399 -0.24733017 -0.34078014
000090 0b e0 e0 bd d9 c2 4e 3e 0a cf c8 3d 9d b1 38 3e
       -0.10980233 0.20191516 0.098051146 0.18036504
0000a0 e8 20 95 bc 6d bc fb bd d2 ec 06 3d f9 70 a6 be
       -0.018204167 -0.12291799 0.032940693 -0.32508066
0000b0 98 12 5b be e5 ac 4c be 8c 5c 4b 3e 1e 32 ee 3d
       -0.21393812 -0.19987829 0.19859523 0.11630653
0000c0 fd e0 11 be e7 d3 dd bb 62 f5 2e 3e f9 ff 78 3e
       -0.14245982 -0.0067696455 0.17085794 0.24316396
0000d0 74 57 92 3d 32 32 b8 bc 73 32 a7 3c 27 ff 39 be
       0.071455866 -0.022484872 0.020409798 -0.18163739
0000e0 3d df d0 3a 38 e5 a1 be 32 95 77 be ab 39 ae bd
       0.0015935671 -0.31620193 -0.24178007 -0.08507093
0000f0 9d e9 e0 3d 28 31 7c 3d f2 05 4c be e6 7a c0 3d
       0.10982058 0.061570317 -0.19924143 0.09398441
000100 ef 7c a3 3d 36 cb 0c bc d6 53 24 bc 45 06 eb 3c
       0.079828136 -0.008593371 -0.010029754 0.028689513
000110 8b a0 3e 3e 55 32 8e 3e 02 7e 8a be a1 48 a6 bd
       0.1861593 0.27772775 -0.2704926 -0.081193216
000120 cd 73 e2 3d a8 2a 9d 3e d8 87 7a 3e 9d 60 38 3e
       0.110572435 0.30696607 0.24465883 0.18005605
000130 4b 9e 91 bd 19 be 82 be 39 8d b6 3a 4c fc 16 be
       -0.0711027 -0.25535658 0.0013927586 -0.14744681
000140 66 75 8d be 73 10 67 3e f6 b3 a6 3e f9 ef ac be
       -0.2762863 0.22564869 0.32559174 -0.33776835
000150 c4 07 58 3d 76 20 33 be fe 76 c0 bd 47 3b 4c bd
       0.05274178 -0.17492852 -0.09397696 -0.04986122
000160 67 8d c2 bb ba 0c 78 be 29 ed b0 3d 93 41 fd 3d
       -0.0059372666 -0.24223605 0.08638985 0.12366023
000170 47 e9 8f 3e e5 39 c1 3d 39 ae 52 be 30 94 60 be
       0.28107664 0.09434871 -0.20574273 -0.21931529
000180 14 e5 0c 3e 6f aa 51 3c ca 66 31 be 83 9e 76 be
       0.13759261 0.012796982 -0.17324367 -0.24083905
000190 ca d0 31 3e d9 b2 79 3e e9 0b d6 bd 00 86 d1 bc
       0.17364803 0.24384631 -0.104514904 -0.025576591
0001a0 9f 68 99 be 5d 75 30 bd a5 ea 33 be 38 bb 31 be
       -0.29962632 -0.043080676 -0.17569979 -0.17356575
0001b0 f1 7a bb bd 72 39 b0 3d f8 72 cf bd 0a c0 21 3e
       -0.091543086 0.08604707 -0.101293504 0.15795913
0001c0 89 07 1f be 87 52 74 3e 2b 57 30 3e d7 71 6b be
       -0.15530218 0.23859607 0.17220752 -0.22992645
0001d0 01 da 27 bd 46 ec 89 3d 53 47 cd 3d b0 5b 80 3d
       -0.04097939 0.06734519 0.1002337 0.06267488
0001e0 a2 9b 5a 3d e7 6d 1e 3c 04 39 3c be 75 99 ff 3d
       0.05337108 0.009669757 -0.18381125 0.124804415
0001f0 f5 b1 86 be 2b 63 55 be 11 e3 65 bd b6 cd 4a be
       -0.26307645 -0.20838611 -0.05612475 -0.19805035
000200 4c a9 e8 bd b3 b3 66 be 47 a9 8e bd ec 69 24 3d
       -0.11360416 -0.22529487 -0.06965881 0.040140077
000210 60 f5 44 be d9 02 85 bd 1b 78 58 3e 25 db 15 bd
       -0.19234228 -0.06494684 0.21139567 -0.036585946
000220 a3 8c be bb 18 cb 26 bd a7 f3 c1 3d a9 2a 06 3e
       -0.005815105 -0.04072103 0.09470301 0.13102211
000230 d5 d3 91 3e bd ed 31 3e 9a 45 79 3e 70 ad 15 bd
       0.28481928 0.17375846 0.24342957 -0.036542356
000240 8e 50 85 be a4 26 fc bd 59 b9 9a 3e d1 06 ab 3d
       -0.2603802 -0.123120576 0.30219534 0.083509095
000250 3f 9d 28 be 23 3d e5 bd e1 4e 95 be 8a 24 9c be
       -0.16466235 -0.111933015 -0.29161742 -0.30496627
000260 e3 fb ad be 03 4f 3c 3e 22 a9 08 3e fc 70 a6 be
       -0.33981237 0.18389516 0.13345769 -0.32508075
000270 0b 70 da 3d 40 52 1d be 05 cd 5a bd 2e 12 40 be
       0.10665902 -0.15363407 -0.053418178 -0.18756935
000280 af 7a 0c bd 8e 31 bd bd 3c d3 8b be 5c 0e 23 be
       -0.034296688 -0.092379674 -0.27309597 -0.15923446
000290 b2 b0 1a bd d1 ef d4 bd da 79 92 be 9f b8 13 3e
       -0.037766166 -0.10397304 -0.2860859 0.14425896
0002a0 06 f9 c6 be bd e2 e0 3d 93 89 ad 3e ea 7c 3e bd
       -0.38861865 0.10980747 0.33894023 -0.046505846
0002b0 46 c4 77 3e dd 4c 44 3d 37 82 b7 be 4c 4d d1 3d
       0.24195966 0.047924865 -0.35841534 0.10219821
0002c0 56 16 b4 bd 25 63 35 bd c3 54 3a 3e 12 c9 6b be
       -0.08793323 -0.044284005 0.18196397 -0.23025921
0002d0 17 8a 7e 3d 2a 73 82 bd 75 df 28 3e b6 fa 05 bd
       0.06214341 -0.06369622 0.16491492 -0.0327098
0002e0 26 45 97 3d 35 d0 1a 3e de 78 a5 bd 37 f6 de bd
       0.07386236 0.15118487 -0.08079694 -0.108868055
0002f0 be 99 85 be c3 79 18 3e d5 1b 3c 3e e9 54 3d 3e
       -0.26093858 0.14890198 0.18369992 0.18489422
000300 78 3d 23 be f5 a0 52 bb d6 3f b9 be 19 9d 96 bd
       -0.15941417 -0.0032139395 -0.36181515 -0.07354183
000310 53 37 3c be a4 66 cd 3a eb 3a 4e be c5 d2 bf bc
       -0.1838048 0.0015670848 -0.20139663 -0.023415932
000320 8d 31 18 3d 77 16 0c 3e 42 92 73 be 4b 15 04 be
       0.03715663 0.13680445 -0.23786262 -0.12898748
000330 cd e0 f4 bd 77 a9 3a 3e 72 50 81 bd 5f 5f 5b 3e
       -0.1195694 0.18228708 -0.06314172 0.214231
000340 c2 51 c2 bb b3 75 aa 3d 24 d4 82 bc 77 b3 a9 bd
       -0.0059301564 0.083232306 -0.015970297 -0.08286183
000350 93 58 c7 3b 81 fb 14 be 01 25 ca 3c 98 21 93 3d
       0.006083557 -0.14549066 0.024675848 0.07184142
000360 13 c2 7f be 2c ea 3a be 0e 74 32 3e f7 ae 06 be
       -0.24976377 -0.18253392 0.17427084 -0.13152681
000370 9d 66 ee bd dc 64 87 3e 6a ab f6 3d f9 a9 a2 bd
       -0.11640666 0.26444137 0.120444134 -0.07942576
000380 7c 34 6d be 2d ba 22 3e 23 78 82 be 36 09 f0 bd
       -0.23164552 0.15891333 -0.25482282 -0.11720507
000390 62 24 98 bd 3b f2 32 bd 30 60 37 3d c2 74 72 3e
       -0.074288145 -0.04368804 0.044769466 0.23677352
0003a0 60 14 c3 3d d8 cf 7f 3e 22 5e 23 3e 24 17 59 be
       0.095253706 0.2498163 0.15953878 -0.21200234
0003b0 84 90 8b 3d 81 ea 6e be 9a da 05 be 4a 9c 50 3d
       0.068146735 -0.23331644 -0.13071671 0.0509303
0003c0 e3 7f 58 3d 72 c0 8c 3e a5 3b f2 bd 21 50 85 bd
       0.052856337 0.27490574 -0.118277825 -0.06509424
0003d0 74 50 79 3d 9a e4 6a be f6 38 4a 3e ae 07 31 be
       0.06086774 -0.22938767 0.19748291 -0.17288086
0003e0 5c f4 38 bd 03 24 de bd 3f d7 4e be bb a5 9d bd
       -0.045154914 -0.108467124 -0.20199297 -0.07697626
0003f0 b5 70 77 3e 09 6c 0e be 5e 01 21 be b6 8b 24 be
       0.24164088 -0.139084 -0.15723178 -0.1606892

bias f4 [128]
000000 0f 6b 68 3e 91 a0 f6 3d d2 cc 07 3e 96 11 0f be
       0.2269709 0.12042344 0.13261726 -0.13971552
000010 41 ca d5 3d 03 67 dd 3d e7 06 d7 3d b1 f0 ce 39
       0.104389675 0.108106636 0.104993634 0.0003947071
000020 3e ab 3e 3c 09 04 6b bc bc aa 8e be 12 83 77 bc
       0.011637507 -0.014344224 -0.27864635 -0.015106933
000030 18 ed 65 be 40 ff 05 3e 58 8a 23 be eb e6 0c be
       -0.22453725 0.13085651 -0.15970743 -0.13759963
000040 cd f4 1f be a8 d9 08 3e c7 0d 2f be 87 1d d1 3d
       -0.15620728 0.1336428 -0.170951 0.1021071
000050 09 7b 22 3e c9 8f 39 3e 36 1a 84 3d 05 94 b4 3d
       0.15867247 0.18121256 0.06450312 0.08817295
000060 09 a9 21 3e 7c f1 c6 3d 36 a3 71 bc e4 fd 45 be
       0.15787138 0.09714028 -0.014748385 -0.19335133
000070 6a a0 ab bc 85 29 0e bc b6 33 ed 3c 9e 5a ca bd
       -0.020950515 -0.008676891 0.028955322 -0.09880565
000080 24 36 87 be 5c 0a ab bd ed 2c d8 3d 13 27 62 3e
       -0.26408494 -0.08351585 0.10555444 0.22085218
000090 88 0d 89 be 73 7d cb 3d 1f 8e 40 be 63 63 76 be
       -0.26768136 0.09936037 -0.18804215 -0.2406135
0000a0 bd 27 1c be 22 bb ab bd 16 09 ca 3c 75 82 90 be
       -0.15249534 -0.08385302 0.024662536 -0.2822453
0000b0 b7 5b 2f 3e 9d 9d 72 3e 4c 12 df bb b6 bb 6f 3e
       0.1712483 0.23692937 -0.006807601 0.2341145
0000c0 a5 11 14 be a2 93 0c be 9f 31 a5 bc 31 90 79 bd
       -0.14459856 -0.13728192 -0.020165263 -0.060928527
0000d0 56 45 57 be fc 9d 4f be 92 d1 4e 3d 74 16 e4 bc
       -0.21022543 -0.2027511 0.05049283 -0.027842738
0000e0 e2 42 67 3e 7a b8 27 be 64 9d 9c 3d 4c 55 d1 bd
       0.22584108 -0.16378966 0.076472074 -0.10221347
0000f0 b4 e5 fb 3d 70 51 71 bd 70 c6 3c 3e b4 dc f4 3d
       0.12299672 -0.058915555 0.18435073 0.11956158
000100 70 32 4b 3e 8c cb 20 3e 4b 92 20 bd da a6 2a 3e
       0.19843459 0.15702647 -0.039202016 0.16665211
000110 97 79 f2 bd 02 23 85 3e 35 31 95 3e 7e 19 2a 3e
       -0.11839598 0.2600327 0.29139104 0.16611287
000120 15 dd 07 be c9 21 22 be 65 ba 8e 3d b2 bb 5d 3d
       -0.1326793 -0.158332 0.06969146 0.05413408
000130 bc 7b c7 3d b7 8b 21 3a 72 5a 4a 3e 70 f1 00 be
       0.09740397 0.0006162482 0.19761065 -0.12592101
000140 f0 b6 f1 bd 53 15 1e 3d 0a 2e 8c 3c ab 9a 2c be
       -0.11802471 0.038594555 0.017111797 -0.16855876
000150 58 64 08 bd 24 f7 78 be 24 0f e2 bd e7 f8 44 bd
       -0.03329882 -0.24313027 -0.11038044 -0.048088934
000160 ba 8e 85 3e c5 91 89 be 69 71 08 be 14 b4 61 be
       0.26085454 -0.26869026 -0.13324513 -0.2204135
000170 b9 6e 95 3d ec 5a 73 be 5a cf 44 3d e6 20 37 be
       0.07296509 -0.23765153 0.04804931 -0.17883644
000180 77 da 26 be eb ef 36 be 06 5b 67 bc 5f f9 64 3e
       -0.16294275 -0.17864959 -0.014120823 0.22360753
000190 7b 9a 53 3e 85 c5 cd bd 45 94 91 be 61 f8 0c be
       0.20664398 -0.100474395 -0.28433433 -0.13766624
0001a0 9d 8d 23 be ac 92 1c bd 1d a0 2b 3d 7d ff b4 3d
       -0.1597199 -0.038225815 0.041900743 0.08837793
0001b0 08 af 83 3d 69 22 11 bc 20 e3 18 be 85 31 92 bd
       0.06429869 -0.008858302 -0.14930391 -0.07138351
0001c0 b4 3c ce 3a a1 0a 16 be f5 bd 9c bd 85 0b a9 bc
       0.0015734644 -0.14652492 -0.07653419 -0.020635376
0001d0 cb a8 84 be 36 b2 1c 3e 1d 28 d1 bc e4 77 82 be
       -0.2591003 0.15302357 -0.025531823 -0.25482094
0001e0 a2 a7 74 3e 17 41 20 be a0 0a 8d 3d 71 6e 70 3e
       0.23892072 -0.1564983 0.06886792 0.2347963
0001f0 c7 58 a1 bc 7d 2e 8b 3d d4 06 f4 3d 16 a3 a2 3d
       -0.019695653 0.06795976 0.11915365 0.079412624

weight f4 [128, 128]
000000 3d 35 42 3b a5 dd 2a bc fe 9b 11 3b c0 a4 e8 3d
       0.0029633783 -0.010428821 0.0022218223 0.113595486
000010 a3 7a e4 ba 13 0f aa 3d 89 19 80 3d 30 ae 01 3d
       -0.0017431568 0.083036564 0.062548704 0.03166026
000020 83 e3 87 bd cc c3 d7 3c df b9 e5 bd 92 a5 a3 bd
       -0.06635191 0.02633848 -0.11217093 -0.079905644
000030 ec e5 b2 bc 1e d6 1b 3d 9f 7b 7e 3d be 46 35 3c
       -0.02183815 0.038045995 0.062129613 0.0110642295
000040 6c 3a f1 3c 0c c2 2a 3d be a3 86 bd b7 bb 9a bd
       0.029446803 0.041688964 -0.065742 -0.07555335
000050 9b 10 3c bd 14 d8 1c bd 76 4b 7a bd 94 81 86 ba
       -0.045914274 -0.038292006 -0.06110712 -0.0010262006
000060 4f 48 c4 bb 7e ba 09 3d b0 d2 16 bc a3 ce dd 3c
       -0.005990065 0.03362512 -0.009205505 0.027076071
000070 ab b2 b9 3d 80 62 a1 bc 64 b4 07 3d 50 92 18 3d
       0.09067281 -0.019700289 0.03313102 0.03724891
000080 9c 52 f4 3d ab 16 19 bb 37 86 94 bc 02 a2 70 bd
       0.11929819 -0.0023359458 -0.018130405 -0.058748253
000090 93 68 ec 3d 1b a7 c7 bc 7b 43 88 bd a7 94 05 3e
       0.115433834 -0.024371674 -0.06653496 0.13044988
0000a0 3b 3f a5 3d dd 69 9d bd 10 f8 70 bd ae 1a 1f 3d
       0.08068701 -0.076862074 -0.05883032 0.038843803
0000b0 43 6e 08 bd 6f 01 94 bc 2a bc 39 bd 6e c1 49 bd
       -0.03330828 -0.01806709 -0.045345463 -0.049256735
0000c0 4d b2 4f bd a6 af 50 bd 6d 13 c9 bd 22 ee 8d bc
       -0.05070715 -0.05094876 -0.09818158 -0.017325465
0000d0 ca 33 09 3d 8c 32 e8 bc d7 46 8d 3b 0a 4c a3 bc
       0.033496656 -0.028344415 0.0043114233 -0.01993372
0000e0 e7 f7 95 3d a0 b3 4d 3d bc 2d 87 3c 42 0e 95 bc
       0.07322674 0.050220132 0.0165013 -0.018195275
0000f0 dc dc 85 bd a3 9c 11 bd e1 74 17 3d eb a7 a6 3c
       -0.06536266 -0.03554977 0.0369767 0.020343741
000100 c5 d2 c1 3c 59 de 2d bd a7 41 1a 3d 17 72 5a bd
       0.023660073 -0.042448375 0.037660267 -0.05333146
000110 fa 38 54 3d be c6 bd 3d 9c fe bf bd 2a db f9 bc
       0.05181215 0.09266423 -0.09374735 -0.030500013
000120 6f f5 9d 3d be 06 89 bd bc 66 05 bc 88 43 54 3d
       0.07712828 -0.06690739 -0.00814217 0.051822215
000130 32 91 0b 3c d6 a0 8f bd 3a c2 0e bd 35 e9 8e 3d
       0.008518504 -0.07013099 -0.034853198 0.069780745
000140 0c 35 8f 3d dc 28 f5 3c 4a f1 2d 3c 77 f1 6d bd
       0.0699254 0.02992671 0.01061661 -0.058091607
000150 64 db de 3d ab e3 f8 3b 13 42 98 bb bc 9c 10 3d
       0.10881689 0.0075954995 -0.0046465485 0.035305724
000160 36 be a9 bd c2 b0 ec 3d c2 b9 18 be 5d a8 80 3d
       -0.08288233 0.115571514 -0.14914611 0.06282113
000170 92 8b 3a bd d3 d3 0f bc 28 df b5 3d b8 3e 43 3d
       -0.04554326 -0.00877853 0.08880454 0.047667235
000180 7a df 91 bb 75 21 38 3d 7e 28 72 bd 17 c1 39 bd
       -0.0044516893 0.044953782 -0.059120648 -0.04535016
000190 a8 2b 1f bd 54 16 93 bd ea da ae 3b b1 d1 d2 3c
       -0.038859993 -0.07181993 0.005336155 0.025734754
0001a0 ac ba 7c 3d 21 94 c9 3b 84 26 75 3d 64 84 f2 bd
       0.06170146 0.0061516915 0.059851184 -0.11841658
0001b0 0d 9b a7 3c d7 4d 6a 3d 6d cf b0 3a a0 f1 e6 3d
       0.020459676 0.05720314 0.0013489552 0.11276555
0001c0 3b 75 ac bc b2 0f b7 3b 95 d4 89 bd e8 71 a2 3d
       -0.021051994 0.005586588 -0.0673 0.07931882
0001d0 b3 9f 9f bc 84 04 dd bd 3a 16 b9 3d 58 ea 0a be
       -0.01948533 -0.10791877 0.090374425 -0.13565958
0001e0 8a 0b 8d bd 3b 05 18 3d a0 3f 95 3d cc fa d2 3d
       -0.068869665 0.037114363 0.07287526 0.10301742
0001f0 65 77 44 3c 2e 84 80 bc ea 81 86 3d ba 2e e4 bc
       0.0119913565 -0.015688028 0.06567748 -0.027854312
000200 80 3b 89 ba 18 60 32 bd 3c 56 7e bd 27 4d 60 3d
       -0.0010470003 -0.043548673 -0.06209396 0.05476108
000210 77 2b a8 bc 81 24 4c bc 06 22 3d 3c f2 2f ba bc
       -0.020528538 -0.012459875 0.011543756 -0.02272794
000220 b7 76 c9 3d e2 c2 d2 3d 8a eb 93 bd dd cd c8 3c
       0.09837096 0.10291077 -0.0722266 0.024512226
000230 f4 fb 4c 3d 0f 2b 20 3d d8 37 11 bd fe bd c8 3c
       0.05004497 0.039103564 -0.035453647 0.024504658
000240 68 5b 3e 3d 80 73 b1 3d e1 df 0b be 4c bd 05 bd
       0.04647389 0.08664608 -0.13659622 -0.03265123
000250 51 65 c7 bd 18 89 15 be 90 a3 80 bd a2 23 ed 3c
       -0.097361214 -0.14603078 -0.06281197 0.028947655
000260 11 5f bf bd 79 2c 26 bd df ed 33 3d ac bd 1c bd
       -0.09344304 -0.040569756 0.043928023 -0.038266823
000270 48 cc 15 bc 7a de ca bd 5b 98 92 bd 7b e4 82 bd
       -0.009142943 -0.09905715 -0.07157966 -0.063912354
000280 04 c0 f5 bd c4 4e bc bd 05 97 af bd b5 8f b2 3d
       -0.11999515 -0.09194711 -0.085737266 0.08718816
000290 4d bb a9 bd fe ea 5d bc 6d 26 39 be 3d 3a ab 3d
       -0.08287678 -0.013544796 -0.18081065 0.083607174
0002a0 1d 5d dc bd 76 d9 b4 bb 70 aa 62 bd 39 e8 8e bd
       -0.107599474 -0.0055190874 -0.055338323 -0.06977887
0002b0 33 25 7a 3d 1e 73 6a bd 6f ce 2c bd d8 a6 d0 bc
       0.061070632 -0.05723869 -0.042189058 -0.025470182
0002c0 93 12 34 3c b0 b9 73 3c 4d e1 c9 bc 54 18 ad 3d
       0.010990757 0.014875814 -0.024643565 0.08451906
0002d0 dc 46 e9 bd 70 28 96 bd 0a 35 a8 bc 0d 6a 43 bc
       -0.113904685 -0.073319316 -0.020533103 -0.01192714
0002e0 12 a8 fd 3d 70 6f cf 3d 58 89 65 3c 67 30 29 be
       0.123855725 0.10128677 0.014009796 -0.1652237
0002f0 3c fa 9e 3d 9c 50 7d 3d 28 12 5d 3c 8b 85 f3 bc
       0.07762572 0.061844453 0.013493098 -0.029726764
000300 e7 88 b8 3c c5 4a a8 3d 2c c6 5d 3d fd 23 88 bc
       0.022526218 0.08217386 0.05414407 -0.016618723
000310 c0 d0 8c be 1c 73 df bd 97 fc 2b 3b 59 fa 81 3c
       -0.27503014 -0.10910627 0.0026243085 0.015866445
000320 d0 b8 b4 bb e5 fd 93 3d d8 5b db bd dc 99 06 bd
       -0.0055151954 0.07226161 -0.10710877 -0.032861575
000330 3a 0c 64 3b 76 a8 d2 3d 8d 3b 5e 3d 15 7a 5b 3d
       0.0034797327 0.102860376 0.05425601 0.053583223
000340 05 d6 b7 3d 3b 79 b3 bd e4 7c f7 bc 3a fb 44 3d
       0.08976368 -0.08763357 -0.03021092 0.04809115
000350 db 8c 88 bd 21 2d cf 3c 45 94 62 bd 67 9d a9 bd
       -0.06667491 0.025290074 -0.055317182 -0.08281975
000360 2b e7 04 3e f1 2e ca bd 1e 6c fe 3d 31 e6 9e 3c
       0.12978809 -0.098722346 0.124229655 0.019396873
000370 36 84 7f bd 93 4b 8d 3d 01 39 18 be 2a 24 bb bc
       -0.062381946 0.0689918 -0.14865495 -0.022844393
000380 35 92 0b bd 6c 8a 8b bd 22 36 25 3c 3b 20 ab bc
       -0.03407498 -0.06813511 0.010083707 -0.020889392
000390 d4 88 98 bd b3 59 45 bc 8d d4 8f 3d a1 49 83 3c
       -0.07447973 -0.012045312 0.07022963 0.01602632
0003a0 5b 68 4b 3d 2b 06 6f 3c 8b b8 99 39 2d 13 97 bd
       0.049660068 0.014588873 0.0002931993 -0.07376704
0003b0 16 de 8e 3c 96 80 a5 bd 56 13 0c bd cb d8 ae bb
       0.017439883 -0.080811664 -0.034198128 -0.0053359023
0003c0 8f 0a 97 3d 7d 5f c9 3c fe fd 1b bd 4e 81 98 bd
       0.07375061 0.024581665 -0.038084023 -0.07446538
0003d0 fc 0f ff bd 8c bd 01 bc b9 5e 91 bc ba ee 1d 3d
       -0.12454221 -0.007918727 -0.017745363 0.038557746
0003e0 f1 f1 b0 bb 65 42 b3 3c 09 94 5b bb 47 f1 31 bd
       -0.0053999354 0.021882245 -0.0033504984 -0.04344299
0003f0 4a d1 99 3d 2b b3 b7 bb 96 b3 05 bd 26 3a e8 3b
       0.07510622 -0.0056060753 -0.03264197 0.00708701

bias f4 [128]
000000 16 38 be 3d 7c 6a f8 3b a8 87 d8 3d d2 4e c3 3d
       0.09288041 0.0075810533 0.105727494 0.09536518
000010 1e a2 82 3d 78 f6 26 bd 33 d1 bb bc 60 00 41 3b
       0.06378578 -0.040762395 -0.022926902 0.0029449686
000020 42 91 35 3d 65 b2 2e 3b d9 cd 9a 3d 14 9d b2 3a
       0.04432798 0.0026656624 0.075587936 0.0013627135
000030 62 d1 62 3d 7a eb 71 bd c9 f1 1c bc 53 aa a8 3d
       0.055375464 -0.05906246 -0.00957913 0.08235612
000040 a3 22 2e bd 3e 18 c7 bc f1 4f 8a bc ba b0 a2 bd
       -0.0425135 -0.024303552 -0.016883822 -0.07943864
000050 37 7e 90 bd 70 45 c4 bb de d3 fd 3a cd 67 43 3c
       -0.070553236 -0.005989723 0.001936551 0.0119266035
000060 3f 77 0c 3b b5 4b ad 3d af 9c 9a 3d cf 31 91 3d
       0.002143338 0.084617056 0.07549416 0.07089578
000070 a4 83 47 bb f6 19 fb 3c 22 1f 89 bd de 0c 99 3d
       -0.0030443454 0.030652028 -0.06695391 0.07473157
000080 43 c8 2c 3d c0 cd d0 3c 81 3e ea bc f3 68 cc 3d
       0.042183172 0.025488734 -0.028594257 0.09980955
000090 74 63 ba bd 68 43 50 3d 3b 8e 74 3d a6 f8 fa 3c
       -0.091010004 0.050845534 0.059705954 0.030636143
0000a0 89 d8 9b 3d ee 26 3e bd be 86 ab 3d 3a 21 a7 3d
       0.0760966 -0.046423845 0.083753094 0.08160634
0000b0 a1 e5 14 bc 5a 3f af 3d 11 c4 9d bc 4f d3 92 bd
       -0.009087951 0.08557005 -0.01925853 -0.0716921
0000c0 29 c3 bc 3d a1 18 4a 3d d9 63 52 3d 9b d0 e9 3c
       0.09216911 0.049339894 0.051364753 0.028541854
0000d0 f0 be 1f bc f2 33 8a 3a 08 52 61 3d 2a dc 61 bd
       -0.009750113 0.0010544045 0.05500987 -0.055141605
0000e0 47 cf b3 3d 0e 8b 0b 3d 6c 3f 5c 3d 08 bd bc bd
       0.087797694 0.03406816 0.05377142 -0.09215742
0000f0 da 0a df bc 7b 44 11 bd 9d 5b 81 bd 63 25 cd 3d
       -0.027226854 -0.0354657 -0.06316302 0.100168966
000100 a6 90 02 3d 92 14 6e bd b0 06 50 bd 91 06 08 bd
       0.03187623 -0.058125086 -0.050787628 -0.033209387
000110 d2 56 b2 3d eb 9a 72 bd 8f 85 70 3d be 4a 34 3d
       0.08707966 -0.059229773 0.05872112 0.044016592
000120 8c 78 7f bd 1a d3 94 bd e9 7f 06 3c e1 6f b1 3d
       -0.06237082 -0.07266827 0.008209207 0.08663917
000130 aa 1f 86 bc 62 aa 9e bd 12 8c 1f 3c e5 82 98 bb
       -0.01637252 -0.07747342 0.009737985 -0.0046542757
000140 dc 27 6f bd ab eb 3a 3c 28 d0 8c 3d 4e 09 d1 bd
       -0.058387622 0.011408727 0.0687564 -0.10206853
000150 a4 95 fb 3c 65 3a 94 bc f6 90 57 bd 5a b8 a2 3d
       0.030711003 -0.018094251 -0.05262848 0.079453185
000160 e5 4f 60 bc 2b 0a d1 3d 30 76 85 bd 1c 46 13 3c
       -0.013690923 0.102070175 -0.06516683 0.008988883
000170 8f 3d 82 bc e4 ad 05 3d 28 bb d9 bd bf b1 32 3d
       -0.015898494 0.03263654 -0.106314 0.043626543
000180 ab fe a4 bd 09 02 81 3d 65 eb 93 bd ad d4 e0 3c
       -0.080563866 0.06299216 -0.07222632 0.027445162
000190 d5 e7 9c bd 85 1e ae bd c9 d2 4b 3c 7b 9c 97 3d
       -0.07661406 -0.08501915 0.012440392 0.07402893
0001a0 2d 22 76 3d 3b 56 7a bd 5e 6d 85 bd 32 a3 98 3d
       0.060091186 -0.061117392 -0.06515001 0.07453002
0001b0 bc 14 bd 3c c7 32 4c 3d 29 db 69 3d 96 d3 2e bd
       0.023081176 0.049853113 0.057093773 -0.042682253
0001c0 99 57 2c bc 1e 91 47 3c b1 5c e2 bd 81 a3 e5 bc
       -0.010518932 0.012180595 -0.11052836 -0.028032066
0001d0 75 e7 d0 3d e1 f1 37 bd c1 09 e8 bb e1 8e 35 bd
       0.10200397 -0.044908408 -0.007081241 -0.044325713
0001e0 1e 52 14 bc 45 84 ab bc a7 5c 9e bd d5 35 6c 3d
       -0.009052781 -0.020937094 -0.07732516 0.057668526
0001f0 57 11 e9 bd 7d 51 db bc e5 51 93 bd 00 2d 29 bd
       -0.113802604 -0.026772255 -0.071933545 -0.04130268

weight f4 [128, 128]
000000 8f 09 9b 3d e2 0c 05 be 0a c2 d5 bc d7 b4 86 bd
       0.075701825 -0.12993196 -0.026093502 -0.06577461
000010 1d 5f 5a 3b 33 bc 20 3d 52 74 d2 3d 4b fa 07 3d
       0.0033320852 0.03924198 0.102760926 0.033197682
000020 d8 b7 8b bd b7 03 d1 bc 92 d9 56 3d d6 f6 23 bc
       -0.06822175 -0.025514467 0.052453585 -0.010007581
000030 ee b5 d6 3d 14 e3 00 be 09 e1 b5 bd 6d 19 b4 bd
       0.10483919 -0.12586623 -0.08880813 -0.08793912
000040 64 ff 5a bd 36 08 79 3d d0 96 8f bd 90 61 8b bd
       -0.053466216 0.060798846 -0.07011187 -0.06805718
000050 f7 ae 39 bc a1 07 30 3d e3 43 a2 bd d4 d7 9b 3d
       -0.011333219 0.042976025 -0.079231046 0.07609525
000060 9c c5 18 bd fe 6a 98 bd 37 85 9f bc 05 5b 3d bc
       -0.03729783 -0.07442282 -0.019472701 -0.011557345
000070 74 fc 7e bd 5f 21 7f 3d db 66 05 3d 18 a5 cb 3c
       -0.062252477 0.062287685 0.032568794 0.024858996
000080 dd d5 5b bc dd 1d 30 bd 2e de ab 3d 95 60 10 3c
       -0.013417688 -0.04299723 0.08391987 0.008812089
000090 35 b0 d9 3a 92 aa 4d 3b 0d da 58 bd 5a 2f 70 bd
       0.00166083 0.0031382185 -0.052942324 -0.058638908
0000a0 3f 11 9f bc c6 df 07 bd d4 0e fa 3c df e1 5b bd
       -0.019417403 -0.03317239 0.030524649 -0.053682204
0000b0 ac 99 5f 3c f4 49 0a 3d fb 34 59 bd 3b 07 97 bc
       0.013647478 0.033761933 -0.05302904 -0.018436065
0000c0 9f ad 85 bc c4 0d 28 bc 5a 17 94 3d 08 fe 52 3d
       -0.01631814 -0.010257188 0.072310165 0.051511794
0000d0 b3 3d 9d 3d 09 2e 9b bc 2a 81 b8 bd 80 ae 06 bd
       0.07677784 -0.01894285 -0.09009011 -0.03288126
0000e0 ac 38 64 bd f3 41 e5 3d d8 09 88 3c 0d 96 81 3d
       -0.05571811 0.111942194 0.016606256 0.06327448
0000f0 b3 f4 1e bd f7 4a 1d 3d c0 10 e2 3c 60 bc 5b 3d
       -0.038807582 0.03840157 0.027595878 0.053646445
000100 42 fc aa 3d b5 90 4f bc 01 83 6e 3d ae e9 26 bc
       0.083488956 -0.012668778 0.058230404 -0.0101875495
000110 2f 9e 6e 3d 51 d9 08 3d a3 7b e8 bd 36 62 86 3c
       0.058256324 0.033410374 -0.11351707 0.016404252
000120 f2 c9 9d 3c 0e a2 fa 3c c4 0d c9 bc eb 3b f6 bb
       0.019261334 0.030594852 -0.024542697 -0.007514467
000130 0a 4e d5 3a 75 53 ae bc 36 88 3e bd ea c7 d4 3c
       0.0016273868 -0.02128003 -0.04651662 0.025974233
000140 3c b4 57 bd 35 28 fd bb 53 93 91 3c b3 c2 82 3d
       -0.05266212 -0.0077257403 0.017770445 0.06384792
000150 cf 7d b7 3d e1 71 66 bd fd ce 2c 3d 71 62 e6 bd
       0.08959543 -0.056260947 0.042189587 -0.11249245
000160 9d 01 2d bd 0f ee 3c bd 4c 41 9d bd 87 c1 3a 3d
       -0.042237867 -0.046125468 -0.0767847 0.04559472
000170 b3 94 33 bd d9 34 0b bd d7 34 99 3d 39 b6 5f 3c
       -0.043842983 -0.033985946 0.074807815 0.013654285
000180 ae ae eb 3c ce 45 cf 3c 4b b9 3a bc de 51 c9 bc
       0.028769817 0.02530184 -0.011396716 -0.02457517
000190 d8 a3 07 3e 48 aa 90 bd 6a bc 97 bd 06 66 17 3d
       0.13246095 -0.070637286 -0.07408984 0.03696253
0001a0 05 ea 74 3d 65 96 a7 3d 14 40 54 3c 6e 48 da 3c
       0.05979349 0.08182982 0.012954731 0.026645865
0001b0 bc d3 7c bd 37 a6 12 3b 08 ac 3f 3c bd 91 34 bd
       -0.061725363 0.0022376904 0.01169873 -0.0440843
0001c0 e3 76 09 3d f8 c8 95 3d 55 e4 a2 3d da 58 18 bd
       0.033560645 0.07313722 0.07953707 -0.03719411
0001d0 88 3f 12 3c d4 9c 78 bd 41 19 38 3d 84 f9 c6 bd
       0.00892628 -0.060696438 0.04494596 -0.0971556
0001e0 05 39 89 bc 1c b1 9c ba 24 42 37 bc 0c 13 d2 3c
       -0.016750822 -0.0011954638 -0.011185203 0.025643848
0001f0 aa 39 dc bc 9b 08 81 bd b8 66 a5 3d 54 7c 82 3c
       -0.026882965 -0.063004695 0.08076233 0.015928425
000200 ef c1 c8 3b 8a 29 b2 bd f0 1d f1 3c da 59 53 3d
       0.0061266343 -0.08699329 0.02943322 0.05159936
000210 0a a3 28 3d 3c 9c 89 bc ad 6b 2f bd 82 93 be 3d
       0.04117111 -0.016798131 -0.042827297 0.09305479
000220 80 0e 54 3d 01 8d 7d 3d 52 08 2e 3d 4f 18 1d 3d
       0.05177164 0.06190205 0.042488404 0.03835326
000230 67 b6 19 3d dd 9e ba bd 7f ee 47 bd c7 5e b0 bc
       0.037527468 -0.09112332 -0.048811432 -0.021529568
000240 81 18 10 bd 7d 28 84 3d 50 4d 18 be 07 17 82 bd
       -0.03517962 0.06453035 -0.14873242 -0.06352048
000250 c1 c1 05 3d e9 31 32 3d ec 81 9e 3d 5f 53 2e 3e
       0.03265548 0.04350463 0.077396244 0.17023991
000260 45 c8 85 3b 71 72 40 3d 66 93 f9 3b db f2 3d bd
       0.004082712 0.04698414 0.007616448 -0.046374183
000270 69 0c 18 ba 55 4e 63 3c 5d 18 ca 3b ae be a7 bb
       -0.0005800189 0.013873656 0.006167455 -0.0051191663
000280 98 fc 55 bd 82 77 29 3d df 81 46 3d bc 23 2e 3d
       -0.052242845 0.041373737 0.0484637 0.042514548
000290 c2 e2 11 bd 49 1c 12 3d 30 be 25 3d 24 1c 49 bc
       -0.035616644 0.035671506 0.04046458 -0.012274776
0002a0 ad c7 86 bc 44 f0 03 3d 6f c5 48 bd 6f 81 e6 bb
       -0.016452635 0.032211557 -0.049016412 -0.0070344727
0002b0 ff e3 4f bd ca 4f cc bc db 2f ba bd f9 05 2d 3d
       -0.050754543 -0.02494039 -0.09091159 0.042242024
0002c0 de c1 e7 ba 2b 68 cd bd 62 47 1d 39 6b 7f 5e 3c
       -0.0017681678 -0.10029634 0.00014999279 0.0135801835
0002d0 7e be 32 3d 59 dc 0c bd d5 6e 06 bc d0 1e c7 3d
       0.0436387 -0.034389827 -0.008205135 0.09722674
0002e0 38 0d 97 bd 29 35 32 bd b8 61 eb 3d 94 d8 82 bb
       -0.07375568 -0.04350773 0.11493248 -0.0039931033
0002f0 69 2c 54 bd c5 31 80 bd 86 ce c2 3c f9 c7 94 bc
       -0.051800165 -0.06259493 0.023780119 -0.01816176
000300 02 cb 0d 39 ac 04 68 3d e9 9b 54 3c c8 65 a7 bd
       0.00013522434 0.05664508 0.012976625 -0.0817371
000310 98 8e d9 b9 5e 98 88 bc ee 0e b9 bd 89 75 04 3d
       -0.00041495706 -0.016674217 -0.09036051 0.032338653
000320 90 83 49 3d 90 68 6b bd 9d 0f 9e bc 3f d7 3f 3d
       0.049197733 -0.057472765 -0.019294554 0.046836134
000330 b2 42 ae bd c8 69 4a bd 06 9c ce 3d 44 bf 9c bd
       -0.08508815 -0.049417287 0.10088353 -0.076536685
000340 89 51 b3 bc c0 61 4e 3d 4d fd ae bd 3b c5 42 3d
       -0.021889465 0.05038619 -0.08544407 0.047551375
000350 d2 60 c0 3d e1 2e 46 3d ed df 79 bd 2c 7c af bd
       0.09393467 0.04838455 -0.061004568 -0.08568606
000360 9b 4b 96 bd 89 85 1e 3d 82 16 19 bc 1e 10 e6 3c
       -0.07338639 0.038701568 -0.009343745 0.028083857
000370 0e be b1 bd 74 d3 81 bd 82 df 64 3c c2 58 7d 3c
       -0.08678828 -0.063391596 0.013969304 0.015463056
000380 ee e3 ac 3d 1f 4e 7e 3d 28 a2 1c bd f2 60 2b bd
       0.08441912 0.06208622 -0.03824058 -0.0418405
000390 98 df 0e 3e f6 cc a3 3c 32 1d 67 3c cf e9 36 3c
       0.13952482 0.019995194 0.014106082 0.011164143
0003a0 e1 95 80 bc 88 d2 b4 bc 17 dc 50 3d 7e bd 2c bd
       -0.015696468 -0.022073045 0.050991144 -0.0421729
0003b0 59 00 34 bd c1 3c 6a bd 74 7d 24 3c e8 66 c3 3d
       -0.043945644 -0.057186846 0.010039676 0.09541112
0003c0 6e f9 bd 3c 2d 1f b6 3c 5a 79 44 3d 8f 5c ff 3b
       0.023190226 0.022231663 0.047967292 0.0077930163
0003d0 c2 80 4a bd cd a5 a2 bd 41 a1 cc 3d 80 b3 3f 3d
       -0.0494392 -0.0794178 0.09991694 0.046802044
0003e0 79 cf b4 3d 0a 38 6a 3d 02 9f 81 bb db 53 9f bd
       0.08828635 0.05718235 -0.003955723 -0.07779666
0003f0 a0 c4 cd 3d 21 0f b8 bd 3e 91 11 bd 82 23 bf bc
       0.10047269 -0.089872606 -0.035538904 -0.023332361

bias f4 [128]
000000 bb 8a af 3d 1e 91 c8 bc b8 b4 1f 3d e5 1d ef bc
       0.085713826 -0.02448326 0.038990706 -0.02918906
000010 06 c9 ad bb ec b4 9a bd cd eb 75 3d fa f4 0f 3d
       -0.005303505 -0.07554039 0.06003933 0.035145737
000020 81 ab 9e 3d 3d 52 75 3d 87 65 d2 bc 9e ce 52 bc
       0.077475555 0.05989288 -0.025683178 -0.012866644
000030 40 9a a1 3d 0b f7 81 bd 1f 5f 04 3c 04 01 a0 bc
       0.07890749 -0.06345948 0.008079319 -0.019531734
000040 c6 01 ea 3c b7 75 81 bc 70 21 9e 3c 8a 3f 43 3d
       0.028565299 -0.015803201 0.019303054 0.047668017
000050 95 9e a4 bc b4 27 b7 3d f3 b5 28 bd 0c 6d 97 3d
       -0.020095149 0.0894312 -0.041189145 0.07393846
000060 f7 23 03 bc 4e 87 06 3d db 0a 23 3d 16 a1 bc b8
       -0.00800418 0.03284388 0.039805274 -8.994543e-05
000070 49 de 34 3d 7f e3 2f 3d 85 11 87 bd 8a 91 5f bb
       0.0441573 0.042941567 -0.065951385 -0.0034113848
000080 d6 04 20 3d ba f1 67 3c 7b c8 00 3b e0 56 6f 3d
       0.039067112 0.014156753 0.0019650746 0.05843246
000090 a8 de e2 bc 8c 45 a9 3d 9b 88 41 3b 65 9e 33 bc
       -0.027694061 0.08265218 0.0029530886 -0.010963057
0000a0 56 51 e7 bc a3 d8 97 3b 74 e2 3f bd d8 5d 4b bc
       -0.028237026 0.0046339794 -0.046846822 -0.012412511
0000b0 4a 9b 31 3a 00 a2 ad 3d 6e 4d 7a bd 29 e2 7c bd
       0.0006775154 0.08478165 -0.061109 -0.06173912
0000c0 b0 8f c3 3d 0b 1c 67 bc 91 6c bb 3d 0e 04 ef 3c
       0.095488906 -0.014105807 0.09151567 0.029176738
0000d0 81 aa a9 3d 90 e4 6e bd e7 51 9b 3c db 99 67 bd
       0.08284474 -0.058323443 0.018959953 -0.056543212
0000e0 91 b3 9f 3c 3c e3 20 bc 41 ae 22 bd 7e 5c d4 3d
       0.019494804 -0.009819802 -0.039716963 0.10369204
0000f0 f9 5f 9c bb 14 51 e0 bc c5 1e 05 3c 99 05 c4 3d
       -0.004772183 -0.027382411 0.008125012 0.0957138
000100 b3 3a 04 bd 98 c9 07 3e 95 70 53 bc b3 04 b3 3d
       -0.032282542 0.13260496 -0.01290526 0.08741131
000110 4a 4d 9f 3d 46 b1 73 bd c2 f3 7d bd 05 e4 98 ba
       0.077784136 -0.059495233 -0.062000044 -0.0011664635
000120 fd 45 17 3d db 01 02 3d 8c eb 15 3d bf a0 b8 bc
       0.03693198 0.03174005 0.036601588 -0.022537587
000130 28 91 8d 3d dc ff 93 3c 0e d0 a4 bd 0c 9a b6 3d
       0.06912452 0.01806634 -0.08047496 0.08916101
000140 06 02 8b bc 5a 4f 3e 3d da 7d ae 3d 9c 91 c3 bc
       -0.016968738 0.046462394 0.08520098 -0.023873143
000150 41 35 a9 3d 8c 12 bf 3d b1 35 fb bc f5 82 ef bc
       0.082621105 0.093297094 -0.03066525 -0.02923725
000160 be 64 92 3d 4b 13 67 bc b4 6b 4d 3d 69 dc 4a 3c
       0.07148121 -0.014103721 0.05015154 0.012381651
000170 fc 55 be 3d 9e 4a 19 bd ed 94 e6 3c 3f 5e ca 3d
       0.09293744 -0.037424676 0.028147185 0.09881257
000180 1a c7 9f bd be 8b 8f 3d bb 37 58 3d 65 d4 8e 3c
       -0.078016475 0.070090756 0.052787524 0.017435262
000190 72 50 b5 bd e4 31 67 3d 8c ea b4 3d 78 a7 a4 3d
       -0.08853234 0.056444064 0.08833799 0.08039755
0001a0 22 50 1f bd ef 9b 99 bd 84 c0 4f bd 01 cf 61 bb
       -0.03889478 -0.07500445 -0.050720707 -0.003445566
0001b0 5a 49 5b 3d d1 9f d4 bc 10 d5 9d 3d cd 28 47 bd
       0.05353675 -0.025955113 0.07706654 -0.048622895
0001c0 75 d7 28 bd 46 0f f6 3b ee a8 98 3d 6b 1e 89 3d
       -0.0412211 0.007509145 0.07454096 0.06695255
0001d0 9c 5e 98 bd 8c 17 ca 3d 96 8c 7a 3c a8 e9 17 bc
       -0.0743992 0.098677725 0.015292307 -0.009272017
0001e0 1d 65 6f 3d 6f 08 4c bb 43 8d dd bc ed 36 c3 bc
       0.05844604 -0.0031132957 -0.027044898 -0.023829902
0001f0 49 9f 39 3d e3 1b b7 3d 1e 03 07 3d 5f dc 38 bb
       0.04531792 0.08940866 0.032961957 -0.0028207523

weight f4 [128, 128]
000000 89 7c 32 3c 5e 0f 53 bd fa 46 a5 3d 54 bb 96 3d
       0.010893949 -0.051528327 0.08070178 0.07359949
000010 96 21 c4 bb 75 da bc 3d 6d 7d da 3d 8d d0 90 3d
       -0.005985449 0.09221355 0.10668454 0.07071028
000020 8b f0 cd bc 89 6c a4 3c b3 fa 1c 3d 27 4b d9 3d
       -0.025139114 0.020071285 0.038325023 0.10610037
000030 7a b4 e0 bb 8a 73 95 bd de 0b 13 bd 6b 30 3f bd
       -0.006857452 -0.07297428 -0.03589999 -0.046677034
000040 73 78 dd 3b af 59 15 3d ff da 84 3d 94 02 95 3b
       0.0067587434 0.036462482 0.06487083 0.0045474265
000050 94 f8 67 3c bf a5 1f 3d fe 2d 7f 3c 69 66 94 3d
       0.014158387 0.038976427 0.01557493 0.07246096
000060 a9 5a cf 3d 87 a0 d3 bc 1a 61 40 bd f5 0a a5 bd
       0.10124714 -0.025833381 -0.046967603 -0.080587305
000070 2c 26 d3 3d 85 6d 17 bd 0d 03 6b bd 19 61 1c bd
       0.10310015 -0.03696968 -0.057375956 -0.038178537
000080 bf 6f 87 bd 60 8c fb 3d 43 7a 50 bc 77 c0 8a bc
       -0.06613111 0.12282634 -0.012724462 -0.016937478
000090 07 46 82 3d 80 af b8 bc 7b 94 de ba eb a0 8f bd
       0.06361013 -0.022544622 -0.0016981506 -0.070131145
0000a0 85 b5 b9 3c 9e aa 4d 3d 74 f0 96 bc 48 54 bd 3d
       0.022669563 0.05021154 -0.018425204 0.09244591
0000b0 4a 3c b0 bc 5c 80 7a 3c b9 f4 8b 3c 41 da cc bd
       -0.021513123 0.015289392 0.017084466 -0.10002566
0000c0 44 7b e8 3d 0e d4 fa bc b7 73 27 bd ed bd 5c 3d
       0.11351636 -0.030618694 -0.04088184 0.053892065
0000d0 0b d0 2c 3c 63 f6 23 3d 54 f9 37 3d dd 41 26 3d
       0.010547648 0.040029895 0.044915512 0.040590156
0000e0 34 e1 51 bd e4 cc 4b 3d f3 ab 84 3d 23 74 0b bd
       -0.05124016 0.049755946 0.06478109 -0.034046303
0000f0 e9 68 de 3d 7d 31 07 bd 5d ee ea 3c d4 58 44 3d
       0.10859854 -0.03300618 0.028678114 0.047936276
000100 04 4f ce bd 9b 8a 1f 3d e5 e7 c6 3d f6 db 8a bd
       -0.10073665 0.038950544 0.09712199 -0.067802355
000110 19 bd e0 3d 01 b0 06 3c 6d 8b ee 3d ca a7 3a bd
       0.109735675 0.008220674 0.11647687 -0.045570172
000120 8d f8 9b 3d b7 dc 0f bd 19 84 0f 3d 7d 5b 59 3c
       0.07615767 -0.0351226 0.035038088 0.013266441
000130 77 83 5c 3a a9 d6 fd bc af eb e5 bc a3 27 d4 3d
       0.0008411924 -0.030986147 -0.028066484 0.103591226
000140 a3 a9 1e 3d bc 66 4d 3d 54 b7 8e 3c 5b b3 4d 3c
       0.038735997 0.050146803 0.017421402 0.012554969
000150 2f 3c 5e 3e 17 59 ba 3d 7d 69 0b be 3a 52 dc 3d
       0.21702646 0.09099024 -0.1361446 0.10757871
000160 63 be 3c bd de 21 5c bb a8 24 49 3d 6e ec 18 39
       -0.046080004 -0.0033589522 0.049107224 0.00014583927
000170 44 f6 98 3d fb 85 d1 bc 6e d8 3d bc 30 8c 0c bd
       0.074688464 -0.025576582 -0.011587245 -0.03431338
000180 74 1f b0 3d d2 89 38 bd 85 16 8e bc 1d b9 fd bc
       0.08599749 -0.04505331 -0.017344723 -0.030972058
000190 7b 62 f8 bc 85 da bd 3d bf 0c c0 3d 7d 94 ed bb
       -0.030320397 0.09270195 0.09377431 -0.007250367
0001a0 f6 01 79 3d c8 13 93 bd 79 7e d5 bc b4 3f b1 3c
       0.060792886 -0.07181507 -0.026061283 0.021636821
0001b0 7d 38 c9 bc 5f 5b d7 3d 5b 81 6e bc 98 b9 ee bc
       -0.024563069 0.105154745 -0.014557208 -0.029141232
0001c0 ac fe 96 3d 0a 3b 3a 3d 5d 54 f4 3c 42 72 82 bc
       0.073727936 0.04546646 0.029825384 -0.015923623
0001d0 2f 5f 01 3c 68 dd b2 3d 52 ec ec bc af ad a6 3d
       0.007896229 0.08733636 -0.02892128 0.08138596
0001e0 0e a4 89 bc 59 ae c8 3d 96 a9 4c 3c 19 a6 01 3d
       -0.01680186 0.09798879 0.012491604 0.031652544
0001f0 fa b1 53 bc 7d a8 d2 3d 90 7f 9a 3d d2 1f 9a 3d
       -0.012920851 0.10286043 0.07543862 0.075256005
000200 d0 14 ba 3c 85 55 d6 3c 09 50 ae bd d2 10 3c 3b
       0.022715002 0.026163826 -0.08511359 0.002869655
000210 79 cf f5 bc c8 c4 90 3d c7 ea b4 bd bf 6e 28 bc
       -0.030006157 0.07068783 -0.08833843 -0.01028031
000220 aa 69 33 bd ff d5 aa bd 41 b0 a3 bd 1c 4f 96 bd
       -0.04380194 -0.08341598 -0.07992602 -0.07339308
000230 a7 bf d8 bc ba e3 a2 3d 0d 95 a9 3c e5 00 b5 bc
       -0.026458574 0.07953592 0.020700956 -0.022095153
000240 f5 52 90 bd f4 1e 91 bd c8 d7 48 bd 85 2d 00 bd
       -0.07047073 -0.07085982 -0.04903391 -0.03129341
000250 26 85 39 bd ad 53 3d bc 2f 68 b3 bc 54 b0 af bc
       -0.045292996 -0.011555594 -0.021900265 -0.021446384
000260 40 96 92 bd ff 0f 9c bd b8 cc 89 bd e9 eb 6a bd
       -0.07157564 -0.076202385 -0.067285 -0.057353888
000270 cd 64 95 3d 61 b6 8d bd 20 7e 58 3d 11 61 9a 3d
       0.07294617 -0.06919552 0.052854657 0.07538045
000280 96 fd 23 3d c1 7a a0 bd 85 71 b7 bd 8c 81 84 3c
       0.04003676 -0.078359134 -0.08957199 0.016175054
000290 f6 08 98 bd ab 6f 5c 3b 16 4e 29 3c 2f e7 58 bb
       -0.07423584 0.0033635895 0.010333559 -0.003309678
0002a0 9d 5e 11 bd 29 ad 1e 3d e3 d5 56 3d 64 02 80 bd
       -0.03549062 0.038739357 0.052450072 -0.06250456
0002b0 07 1a 8f bb a2 72 60 bd ae 1a ad bc c0 36 78 3c
       -0.0043671164 -0.054796822 -0.021130886 0.015149772
0002c0 f5 48 12 bd 45 7a 42 3d 2d 19 8b bd e0 db 25 bb
       -0.03571411 0.047479887 -0.06791911 -0.0025308058
0002d0 08 a8 1c bd a5 05 53 3d bf 2a 98 bc cc fa dc bc
       -0.038246185 0.051519055 -0.01857507 -0.026975058
0002e0 86 25 02 3d be 9b 36 bd c6 af 52 bc 83 0a c7 ba
       0.031774066 -0.04458212 -0.0128592905 -0.0015185628
0002f0 23 9c 93 3d 94 e2 8f bd d1 4c 58 bc 28 6e d7 3c
       0.07207515 -0.07025638 -0.013201908 0.026297644
000300 a2 6c d9 03 96 af 7d 3d 10 63 1c 3c 03 3c 2b bd
       1.2779055e-36 0.06193503 0.009545103 -0.04180528
000310 5d e8 0e 3d 5d 16 6f bd a4 c0 bf bb 50 1f 71 bd
       0.034889568 -0.058370937 -0.005851822 -0.058867753
000320 40 0e a2 bd 15 8c 51 3d 40 aa 73 3c 61 54 7a 3c
       -0.07912874 0.051158983 0.014872134 0.015278907
000330 66 1e e8 3b 6c c0 8a bd 98 53 90 3d 1a 6d 75 bc
       0.007083702 -0.06774983 0.07047194 -0.014979625
000340 86 1c 01 3d 94 a2 f6 3c 38 5c f1 bc c7 e8 47 3d
       0.031521343 0.03010682 -0.029462919 0.04880598
000350 cf a4 53 3d cd cd a1 3d 8e 6f 7c bd 4c 51 2a 3d
       0.051670846 0.079005815 -0.061629824 0.041581437
000360 6f 93 70 3d bd 65 bf bd 8b d2 ae bc f1 83 e7 ba
       0.058734354 -0.09345577 -0.02134063 -0.0017663223
000370 b3 8c b5 bc 53 65 1e 3b 74 d9 d0 bc 53 6f fa bc
       -0.022161817 0.002416928 -0.025494315 -0.030570662
000380 4f 2c 90 bd 72 33 aa bd ce d3 d2 3b 08 f1 52 3d
       -0.07039701 -0.08310594 0.0064339405 0.051499397
000390 a9 20 bd bb bc 97 0d bd 07 65 d5 bc 43 4a 17 3d
       -0.0057717157 -0.034568533 -0.02604915 0.036936056
0003a0 d6 2e 83 3d 50 55 4d 01 2e 19 8d bb f6 c2 19 3d
       0.064054176 3.7713762e-38 -0.00430598 0.037539445
0003b0 b6 19 b5 3b d9 49 3c bd 24 71 86 bd 02 e2 25 39
       0.0055267466 -0.045968864 -0.065645486 0.0001581982
0003c0 48 48 69 3d e2 ed fe 3c 04 3f 2b 3c 0e 3f 88 3c
       0.0569537 0.03111929 0.010452036 0.01663163
0003d0 03 5e 77 3d ac 43 2b bd f2 f0 55 3d d7 86 63 bd
       0.06039239 -0.041812584 0.052231736 -0.055548515
0003e0 8e c7 54 bd 29 6a 53 bd 0d 3a 80 3d 4a 5b 63 bd
       -0.051948123 -0.051614914 0.06261072 -0.055506982
0003f0 a4 8c bd bd 02 60 3c 3d 96 63 1b 3d df e8 a9 bd
       -0.09255341 0.045989998 0.03793677 -0.0829637

bias f4 [128]
000000 8f 48 91 3d 74 f1 72 bd 47 44 91 bc 6e 67 85 3d
       0.070939176 -0.0593123 -0.017732752 0.06513868
000010 22 b0 b9 3c db d2 4d bc 55 7e fb 3d f2 36 55 bd
       0.022666994 -0.012562479 0.12279955 -0.052054353
000020 1d 25 bc bd b5 59 d6 3d 2a fb 70 bd 76 37 30 3b
       -0.09186766 0.10466329 -0.05883328 0.0026888526
000030 b6 7a 63 3c 6e 4e a1 bc b2 f4 ac 3d 6f d8 5f bd
       0.013884237 -0.019690719 0.084451094 -0.054649767
000040 45 a1 7d 3b ca 7b c9 3d 7a e6 21 bd ac 95 2f bd
       0.003870086 0.09838064 -0.03952644 -0.042867348
000050 96 41 b7 3c 1d 15 e8 3b 5d ef b0 bc ef dc 3b 3d
       0.022370141 0.007082595 -0.021598512 0.045864996
000060 90 ae 5a bd 41 f5 da 3d 90 23 de bc ad 22 a8 bc
       -0.053389132 0.1069131 -0.027116567 -0.020524347
000070 86 c4 98 3d 82 be 73 bc be aa 40 3c 28 48 57 bc
       0.07459359 -0.014876964 0.011759458 -0.013139762
000080 8d 23 cf bd fe 3a bb bd 0a 2e c4 3d 8f e4 f3 3d
       -0.10114203 -0.09142111 0.09579094 0.119088285
000090 ab 35 5a 3b 18 4f f4 3d 05 70 b7 3d e1 c1 bb 3b
       0.0033296149 0.119291484 0.08956913 0.0057298993
0000a0 70 14 82 bd 63 8f 56 3d 32 8d 97 3d 0b 4e e7 bd
       -0.063515544 0.052382838 0.07399978 -0.112941824
0000b0 76 f5 08 bb c4 55 87 3d 6b 68 08 3e 48 8b 3e 3d
       -0.002089826 0.06608155 0.13321082 0.046519548
0000c0 52 7b c5 3d 70 7c 6c 3d 4f 2b 31 3d 87 80 93 bc
       0.09642662 0.05773586 0.043254193 -0.018005623
0000d0 18 a4 5a 3d 2e 0c 73 3d 98 2b ea bc fe d2 b9 bd
       0.05337915 0.059337787 -0.02858524 -0.09073447
0000e0 81 34 13 bc 19 ee ce 3c 53 be d9 3d c7 8d af 3d
       -0.008984686 0.025260018 0.106320046 0.08571964
0000f0 48 1c 5f bd e6 1b a4 3d 5b 91 51 bb 70 63 b6 3d
       -0.05447033 0.08013134 -0.0031977508 0.08905685
000100 8b 1e 93 bd f5 98 60 3d da cf b6 3d 3f c4 f8 3d
       -0.0718356 0.05483337 0.08926363 0.12146806
000110 43 b2 9c bb ea 71 40 bd 12 01 8f 3c ed f9 98 3d
       -0.0047819926 -0.046983637 0.017456565 0.074695446
000120 4f 36 50 3d 7c c0 7a 3d 54 7d a0 3c 66 b7 1f 3d
       0.050833043 0.061218724 0.019591011 0.03899326
000130 11 03 30 3d 23 9a cf 3d 48 32 d5 3c 02 a1 d9 3d
       0.042971674 0.10136821 0.026024953 0.10626413
000140 41 91 8e bc 6b 99 ea 3d 2a 6f d7 3d 1a 3e ec 3c
       -0.017403247 0.114550434 0.1051925 0.028838206
000150 cf 84 0d bc 13 66 85 3c 2c a0 06 3d 41 5b ae 3c
       -0.008637621 0.016284024 0.032867596 0.021283748
000160 11 32 c0 3d ba ba bf 3d 87 e3 01 3e 6a 7d 08 3d
       0.093845494 0.09361787 0.12684451 0.03332273
000170 4b 15 46 bd ff 36 95 3d 33 12 db 3d ca 36 e1 bc
       -0.04836015 0.0728588 0.106968306 -0.027491946
000180 aa 54 c1 3d df 30 5e bd f0 b5 3b 3d 5b 4d 51 bd
       0.094399765 -0.054245826 0.045827806 -0.051099163
000190 67 93 8a 3d e5 e3 f8 3c 99 70 45 3d d9 a7 7f 3d
       0.06766396 0.030382106 0.048203085 0.06241593
0001a0 5f 93 82 3c ea 39 e9 3d be 2e c2 3d f3 c6 84 3d
       0.015939413 0.11387999 0.094815716 0.06483259
0001b0 d6 ae 71 3d 48 20 dd 3d b7 db c3 3c 14 54 ce 3d
       0.059004627 0.10797173 0.02390848 0.100746304
0001c0 a4 02 93 3c f4 16 b0 3d 10 0a 6f 3d a4 23 c1 bd
       0.017945595 0.08598128 0.058359206 -0.09430626
0001d0 a5 25 13 bd af 5e 22 bc fe f3 4b bd f7 2a c8 bd
       -0.035924572 -0.00991027 -0.049793236 -0.0977382
0001e0 18 e3 91 3d 30 83 c9 3d 66 9c 96 3d bd c0 15 3c
       0.07123393 0.09839475 0.073540494 0.009140191
0001f0 7f 59 b6 3c 80 c4 db 3c 99 b1 9f 3d 91 aa 06 3e
       0.022259472 0.026827097 0.07797546 0.13151003

weight f4 [1, 128]
000000 47 3f a8 bd e0 32 da 3c 20 3a 1c 3d 9c 50 0f 3d
       -0.08215194 0.026635587 0.03814137 0.034988984
000010 cf da 51 bd d5 f3 74 3c 5a fe d3 bd c0 bf 40 3d
       -0.051234063 0.014950712 -0.10351248 0.047057867
000020 cf 44 e4 3c 90 cb 27 3e 48 88 a4 3b 5d 60 26 bd
       0.027864842 0.16386247 0.005021129 -0.040619243
000030 30 d0 31 3d af b7 8b bd 14 cb a1 3d 1a cc 2d 3d
       0.043411434 -0.06822144 0.07900062 0.042430975
000040 e5 77 b4 bd 9d d7 14 bd 8a 37 65 3d b5 61 ff bd
       -0.088119306 -0.036338437 0.05596117 -0.12469808
000050 da 70 92 bd fd bb cf bc 11 3a 5a bd 41 89 25 bc
       -0.07150431 -0.025358194 -0.053278033 -0.010103525
000060 75 fb be bd f5 e7 0f be e4 d6 2e 3d 8c 8a 0d bd
       -0.09325305 -0.14053328 0.042685404 -0.034555957
000070 0e 0a d4 bd f3 a0 89 bd 77 e8 c5 bd 5a 60 a2 bd
       -0.1035348 -0.06720152 -0.0966348 -0.07928534
000080 55 9f 72 3d 33 33 49 3d fb d5 a6 bd a8 55 a4 bd
       0.059233982 0.049121093 -0.08146282 -0.0802415
000090 43 8d 7e bd e1 55 51 bd bf b7 d6 3d b4 4c 5d 3c
       -0.062146436 -0.05110729 0.104842655 0.013507057
0000a0 c2 20 86 3d a6 8d 05 3e 31 9c c0 3d 40 f7 2e 3d
       0.06549217 0.13042316 0.09404791 0.042716265
0000b0 5d ae 8a bc fd 02 bf 3d 42 8c 71 bd a4 23 cd bc
       -0.016928846 0.09326742 -0.05897165 -0.025041409
0000c0 04 2e 52 3e d8 cc bb bd 59 52 29 bd ad 62 33 bd
       0.20525366 -0.0916993 -0.0413383 -0.043795276
0000d0 59 0e 6d 3d f5 5a ee bc c3 f1 5f 3d 75 a8 0c 3d
       0.05787501 -0.029096106 0.05467392 0.03434034
0000e0 d9 08 b9 bd d1 24 8d bd d7 95 c6 bd da 0a a0 bd
       -0.09034891 -0.06891788 -0.096965484 -0.0781457
0000f0 07 45 a8 3c 33 22 f0 3d 0f 2a ae bd 43 22 8d bd
       0.020540727 0.11725273 -0.08504116 -0.068913005
000100 e5 f7 87 3d 89 4a bd bd 20 13 3e 3e 3d 2b 67 bd
       0.06639079 -0.09242732 0.18561983 -0.05643772
000110 6f f3 5e bb e7 53 46 3c ba ae 50 bd 7f a0 10 3e
       -0.003401961 0.012104965 -0.050947882 0.14123724
000120 55 8f 9f 3d bc ce fe bd cc 14 19 3e f1 90 e7 3d
       0.0779101 -0.12441775 0.1494934 0.11306942
000130 97 f6 91 bc 9f 81 2a bd 53 21 05 3e 6b b6 e7 bc
       -0.017817779 -0.041627523 0.13000993 -0.028285226
000140 12 c6 af bd ac da 8c bd 01 42 a0 bd b0 bf 42 bd
       -0.08582701 -0.06877646 -0.07825089 -0.04754609
000150 03 68 bf bd 62 77 8b bd bc 18 bd bd c5 47 fa 3c
       -0.093460105 -0.0680988 -0.09233233 0.0305518
000160 87 bd 8d 3d 89 a3 d5 bd af 52 c9 bd 90 2f 5e bd
       0.06920915 -0.104315825 -0.09830224 -0.054244578
000170 1e 37 95 38 0f 7d f4 bc a9 98 04 bd 17 aa a2 bc
       7.11514e-05 -0.029844789 -0.03237215 -0.019856496
000180 41 f8 33 bd b3 fe 26 ba 18 7e 35 bd 4a eb e5 3c
       -0.043937925 -0.00063703506 -0.044309705 0.028066296
000190 c3 92 cf bd d9 5f 77 3d 05 e8 a7 3d 67 5d 05 3d
       -0.101354145 0.06039414 0.08198551 0.03255978
0001a0 75 5d 8f bd 9c e3 0b 3e 38 7a 34 3e 48 03 93 bd
       -0.070002474 0.13661045 0.17624748 -0.0717836
0001b0 91 de 89 3d 3b 4e 0e 3e 6c 26 35 3d a8 65 af 3d
       0.06731904 0.1389703 0.044226095 0.08564311
0001c0 43 f8 88 bd d7 17 53 bd a3 93 19 3e bc f4 35 3d
       -0.06687977 -0.051536407 0.14997725 0.04442285
0001d0 de 1a fb bc d0 23 d1 bd db 22 6e 3b a7 f5 7e 3d
       -0.03065246 -0.10211909 0.0036336693 0.06224599
0001e0 c5 d0 5f 3d 25 16 c7 bd ac b7 65 3d 9e 34 b1 3d
       0.054642458 -0.097210206 0.056083366 0.08652614
0001f0 40 65 a8 bd d0 91 92 bd 28 db a1 3d 50 83 ce bd
       -0.08222437 -0.07156718 0.07903129 -0.100836396
