bike_sharing/AutogluonModels/ag-20220403_215705/models/NeuralNetTorch_BAG_L2/S1F5/net.params (torch, 215879 bytes, 9 tensors)

weight f4 [128, 22]
000000 bb c9 ef bd ae b5 5d 3e 50 e6 05 be bf 8d 17 be
       -0.11708399 0.21651337 -0.13076138 -0.14800166
000010 84 2d e8 bd ee c8 e5 3d 92 af 9f 3d dd 4e 5c 3e
       -0.113368064 0.11219965 0.07797159 0.21514459
000020 6b 25 1d 3d 3e d9 24 3d be 91 7e bd f8 45 aa 3c
       0.038365763 0.04024624 -0.06215071 0.020785317
000030 66 89 2a be fd 0f 15 be 59 c3 d0 bd f9 6a ea 3c
       -0.16653976 -0.1455688 -0.101935096 0.028615462
000040 c9 91 c1 3d e5 a0 1b 3e f8 15 d5 bd 10 29 ac bd
       0.094516344 0.15198095 -0.10404581 -0.084062696
000050 1b e8 16 3e 95 b3 16 3e 89 b4 4d be 70 fe 8e 3e
       0.14736979 0.14716943 -0.200884 0.27928495
000060 c1 93 53 bd a0 a7 24 bc ae fc 1c 3e b8 9e 58 be
       -0.05165458 -0.010049731 0.15330765 -0.21154296
000070 48 94 17 be 5a e7 8b bc 79 b0 40 bd 6f 11 43 3e
       -0.14802659 -0.01707809 -0.047043297 0.19049619
000080 6d 5a 0f be 81 78 17 be e3 eb 35 be df a7 2b be
       -0.13999338 -0.14792062 -0.17765765 -0.16763256
000090 ed 70 1e be 88 15 2e 3e 7f 5a ad 3d 40 f6 12 3d
       -0.15472765 0.17000401 0.084645264 0.035879374
0000a0 8b f8 77 3d 5b 96 9a bd 6d d4 43 3d d4 b0 14 be
       0.060539763 -0.07548209 0.047810007 -0.1452058
0000b0 86 59 20 be 43 e3 cb be a7 4f 8f 3d f3 87 0d 3e
       -0.1565915 -0.39821824 0.06997614 0.13821392
0000c0 dc b1 b1 bd 31 d7 cb ba 38 b8 0a 3e 7d 2e e6 3d
       -0.08676502 -0.0015551803 0.13546836 0.11239336
0000d0 f5 32 59 3d 5d 1c 3c 3d e0 fe 0c 3e 1d 5c 53 bd
       0.053027112 0.045925487 0.13769102 -0.051601518
0000e0 2c 9c f2 3b 29 f5 0f be 6d 8f c6 bd 7b d7 cc bd
       0.007403871 -0.14058365 -0.09695325 -0.10002037
0000f0 5f be 0f 3e 88 20 92 3b 21 15 1f be 5a e4 88 3d
       0.14037465 0.0044594444 -0.15535404 0.066841796
000100 d0 7e 51 3d 34 08 e4 3c 96 c1 ad bd 15 40 79 3e
       0.05114633 0.027835943 -0.08484189 0.24340852
000110 f3 0c 01 3e 25 8c d3 3d dd 65 cc bd 12 11 ff bd
       0.12602596 0.10329465 -0.099803664 -0.12454428
000120 cd e5 28 3d c0 46 3f 3e 75 a8 13 3e e8 89 3f 3e
       0.04123478 0.18679333 0.1441973 0.18704951
000130 16 a9 c8 3d 97 bd 13 be ad da 88 3b 31 97 0b be
       0.097978756 -0.14427792 0.004176459 -0.13631894
000140 7f f9 83 be 37 98 13 3e 23 40 06 3e 10 f5 f5 bd
       -0.25776288 0.14413534 0.13110404 -0.120096326
000150 d7 1e f7 3c c3 58 b1 bd 9e 6f 4e 3d eb e1 35 be
       0.030166073 -0.08659508 0.050399415 -0.17761962
000160 39 d9 25 3e 95 f0 ad be 53 8f c0 3c 3e f5 8c 3d
       0.16196145 -0.33972612 0.023505842 0.06882714
000170 79 38 56 3e fe 2b 76 3d 16 e0 5c be e9 63 d4 bd
       0.2091998 0.060100548 -0.21569857 -0.10370619
000180 e0 30 94 3d a6 21 99 3d 73 ce ef bd 54 3d c6 bd
       0.07235885 0.07477121 -0.11709299 -0.09679666
000190 5a c5 0f 3e d6 3e 1f 3e 88 f5 88 bd fa d0 90 bd
       0.14040127 0.15551314 -0.06687456 -0.07071109
0001a0 e3 05 51 be 06 9d 40 3c 54 ec 10 be 14 e1 1d be
       -0.20412402 0.011756187 -0.14152652 -0.15417892
0001b0 78 65 69 bd 87 31 e8 3d 92 4f 87 be 6f b0 4a 3e
       -0.056981534 0.113375716 -0.26427895 0.19793867
0001c0 ea cc 07 be ed 20 26 3e 36 46 c5 3d ee 9e b1 bd
       -0.13261762 0.16223498 0.09632532 -0.086728916
0001d0 8f 05 0e 3d d9 7a 28 3c ff 64 84 3d 44 23 f8 3c
       0.03467327 0.010283195 0.06464576 0.030290253
0001e0 0c bc 5a 3d 51 ef d4 bb 97 15 ee bd 7a c2 86 3d
       0.05340199 -0.0064982553 -0.11625212 0.06580062
0001f0 80 22 48 be 6d 7d a4 bd 61 32 7f bd 23 1c 2a bd
       -0.1954441 -0.080317356 -0.062303904 -0.04153074
000200 8a 8b a4 bd b9 ed 38 be dd 82 e5 bd 59 3d ac 3d
       -0.080344275 -0.18059434 -0.11206601 0.08410139
000210 93 2a 81 be a1 25 04 be 3d c3 95 3d f4 2b 95 bd
       -0.25227794 -0.1290498 0.07312629 -0.07283774
000220 b2 46 31 bd b8 a9 10 bd f8 99 84 3c f6 c8 15 3e
       -0.04328031 -0.035318106 0.0161867 0.14627442
000230 c7 21 3c 3e c4 7b 08 3e 1e e6 25 3e 39 b2 8f bc
       0.1837226 0.13328463 0.16201064 -0.017541038
000240 a8 b3 43 be 01 f1 08 be 0c 50 15 3e a1 36 a4 bc
       -0.19111502 -0.13373186 0.14581317 -0.02004558
000250 9c 06 f8 bd 48 7a d9 bd 94 cc 76 be 1d 1a 40 be
       -0.12110636 -0.106190264 -0.24101478 -0.18759961
000260 75 d2 e9 bd 24 1b 0e 3e fd 91 99 3e c6 7a bc be
       -0.114170946 0.13877541 0.29994193 -0.3681242
000270 f0 eb f1 3d ef 30 05 be 71 fe 5d bc ea 2d 95 bd
       0.1181258 -0.13006948 -0.013549433 -0.07284148
000280 fe 7b 0a bd c8 4c 08 3c af 54 bd bd 59 84 eb bd
       -0.033809654 0.008319087 -0.09244668 -0.11499853
000290 77 ed 16 ba 1d 9d 29 3b 78 13 78 bd 5d 18 b7 3d
       -0.0005757431 0.0025881 -0.06056544 0.08940194
0002a0 82 33 17 be a6 37 41 3b 8d 67 35 3e ab af b2 bc
       -0.14765742 0.0029482632 0.17715283 -0.02181228
0002b0 d0 a0 09 3e 10 2c cb 3d a4 bd f5 bd e3 f4 c0 3d
       0.13440251 0.09920514 -0.11999062 0.094217084
0002c0 9d 01 49 3e 5e d4 9b be c3 19 b3 3d f5 1f 11 be
       0.19629522 -0.3043546 0.08745148 -0.14172347
0002d0 73 db 17 3d 29 3b b9 bd c5 49 b4 3d 06 a2 6d 3d
       0.037074517 -0.09044487 0.08803133 0.058015846
0002e0 6d a2 48 3d ba 02 2b 3d 1e f5 4e bd df 2c 2f bd
       0.048983026 0.041750647 -0.05052673 -0.0427674
0002f0 bd 95 9c bd f4 64 a7 3d d9 d6 29 3e b3 30 98 3d
       -0.07645748 0.08173552 0.16585864 0.07431164
000300 2f 9c 48 be 27 72 d7 3b 81 09 03 be fa 0e 0e be
       -0.1959083 0.0065748873 -0.12796594 -0.138729
000310 d5 d1 6a be 12 65 c4 3d b2 56 83 be fa 93 ae be
       -0.22931607 0.0958959 -0.2565208 -0.34097272
000320 a3 d2 6d bd 5e 44 2d 3e 33 0a 06 be aa ea 45 bd
       -0.058062207 0.16920611 -0.13089828 -0.048319496
000330 3c ee 30 bd 68 d7 89 3d d8 a0 6c bc 0b 03 91 3d
       -0.043195948 0.067305386 -0.014442645 0.070806585
000340 d0 05 8e 3d 17 0c 75 3d de 83 03 bd 6b 91 e8 bc
       0.069347024 0.059825983 -0.03210818 -0.028389653
000350 96 22 31 3d 9c a4 bc bc 85 b4 40 3c 74 d7 f1 3b
       0.043245874 -0.02302771 0.011761789 0.0073804203
000360 6b 5b b7 bd a6 a8 79 be 76 b6 fb 3d 6a ee 02 be
       -0.089529835 -0.2438074 0.12290661 -0.1278626
000370 88 f4 42 be 75 76 a4 3e 23 26 22 3d fa 71 91 bd
       -0.19038594 0.32121626 0.03958715 -0.071018174
000380 31 23 f9 bd 99 12 da 3d 3e d5 0f be 0a e0 fb bc
       -0.12164915 0.106480785 -0.14046189 -0.030746479
000390 88 68 b0 bd 4b 1c 20 bd 56 5f 6f 3d 0b 56 c4 3d
       -0.08613688 -0.039089482 0.05844053 0.09586724
0003a0 cd 89 e6 3c 5e 07 12 3e 77 ae 57 3d 89 34 31 be
       0.02814188 0.14260623 0.052656617 -0.17305197
0003b0 fe 27 82 3d 7d 0f 8a bd fa 2f fb bd 16 98 37 3b
       0.06355284 -0.067412354 -0.1226501 0.0028014234
0003c0 87 1c 18 3d c1 1e ed 3d 58 90 81 be 55 9b c7 bd
       0.03713658 0.115781315 -0.25305438 -0.09746424
0003d0 ee 6f 54 3d 82 3f 62 be 7d 6a e9 3d b5 4b 04 be
       0.051864557 -0.22094539 0.11397264 -0.12919505
0003e0 55 c3 57 3d aa 76 1c bd 63 13 8e bd 90 11 2a bc
       0.052676518 -0.038199104 -0.069372915 -0.010380164
0003f0 fc 4d 12 3e 15 7c 91 bd 1d 7c fe bd c8 26 47 bd
       0.14287561 -0.07103745 -0.124260165 -0.04862097

bias f4 [128]
000000 dc c9 2b be df 02 d5 bd ef 4a 8a bc 20 fc a1 bd
       -0.16776222 -0.10400938 -0.016881434 -0.07909417
000010 a5 ca b2 bd be ae d5 3d 6f ee 54 bd 74 ce 74 3d
       -0.087300576 0.1043372 -0.0519852 0.0597672
000020 4c 3b 33 3e 09 3a 29 be 7a 2d 2f be 5e 1b c2 bd
       0.17503089 -0.16526045 -0.17107192 -0.09477876
000030 ad e4 35 bd 00 da ca bd 40 76 0f bd 27 6c 8f bc
       -0.044407535 -0.099048615 -0.03502488 -0.017507626
000040 a1 69 69 3d 43 c2 31 3e a3 01 14 3e c1 0e a9 bb
       0.0569855 0.17359261 0.1445375 -0.0051592295
000050 a6 22 64 3c 76 e6 c4 3c 0d 8b db 39 43 2c 8a bd
       0.013924276 0.024035674 0.00041874536 -0.067467235
000060 06 67 f2 3d 71 44 94 be bd ac 18 be af b2 5c bd
       0.118360564 -0.28958467 -0.14909644 -0.053881343
000070 8a c1 a6 bd f8 ee 02 be 5b 81 69 be 3b a2 15 3e
       -0.081423834 -0.12786472 -0.22803251 0.14612667
000080 f2 25 05 bd a3 e5 c1 bd 2a 7b e0 bd d9 55 2f 3d
       -0.03250689 -0.09467628 -0.10960992 0.04280648
000090 e4 35 3b be 2c 45 cd bc 33 88 0a bb 51 a7 0a 3d
       -0.18282276 -0.025057398 -0.002113831 0.03385097
0000a0 cf 65 86 3d 82 ba 10 be 0c f5 c0 3d 29 12 1e 3e
       0.06562387 -0.14133647 0.09421739 0.15436615
0000b0 a9 80 20 bd cf b3 88 3d 8f 7c be bc 8a 0a a2 3c
       -0.0391852 0.06674921 -0.023252754 0.019780416
0000c0 9d a5 10 3a a1 b2 bf bd e7 54 fa 3d d3 0f 80 be
       0.00055178424 -0.09360243 0.12223225 -0.25012073
0000d0 d7 ed dd bc 1c 55 2d be 19 21 cd bd f4 df 4a be
       -0.02709095 -0.16926998 -0.100160785 -0.19811994
0000e0 d5 7f 89 be c7 c6 83 3d e9 47 95 bd 11 7e 53 be
       -0.2685534 0.06434398 -0.072891064 -0.2065356
0000f0 c7 67 5c bc cb 32 ad bd 23 ae 92 3b 7e a7 22 be
       -0.013452477 -0.084569536 0.004476325 -0.15884206
000100 ed bf 43 bc dc f2 dc 3c d5 89 5b 3d 19 e4 0b 3d
       -0.011947614 0.026971273 0.053598244 0.034153078
000110 de b2 31 3d 8b 20 2f 3e 2e 4b e7 bd eb 24 0c 3e
       0.04338347 0.17102258 -0.11293636 0.13685958
000120 18 87 48 3e b4 b8 53 be 11 ad 99 3c b1 38 fe 3d
       0.19582784 -0.20675927 0.018759282 0.12413157
000130 d3 58 e2 bc e4 b3 a6 3d a3 60 ad 3c 59 f2 d2 3d
       -0.027630245 0.0813978 0.021164244 0.103001304
000140 63 43 3a bd 62 fa f3 bd 23 e7 00 3e 99 ff bb 3d
       -0.04547442 -0.11912991 0.12588172 0.09179611
000150 c4 8e 0a 3e 49 0b 65 3d 80 a6 1f 3e 2e 52 4c 3d
       0.13531023 0.055918965 0.15590858 0.04988306
000160 d8 a0 4a 3d e2 69 aa bd f4 dd c2 3c 21 35 1f be
       0.0494698 -0.08320977 0.023787476 -0.15547611
000170 21 5d 64 3c 82 35 b0 bc 5c 1d c9 b8 a6 e9 32 be
       0.013938219 -0.02150989 -9.5898955e-05 -0.17471942
000180 60 55 00 3d 97 af 35 be 7d f8 aa 3d fd d4 99 3d
       0.03133142 -0.17742763 0.08348177 0.075113274
000190 10 5f 6b be 92 c8 23 3e 8f 4c 35 be 8b ff 5b bd
       -0.22985482 0.1599448 -0.17704986 -0.0537105
0001a0 ec 3b 9e 3d a6 58 75 bd 65 d2 40 3e fc 3f de bd
       0.07726273 -0.059898995 0.18830259 -0.10852048
0001b0 0f f9 a5 3a 76 fa 3a be 02 6a b0 bd da 87 6f 3e
       0.0012662726 -0.18259606 -0.086139694 0.23391667
0001c0 1b 65 f8 3d 69 70 a5 3c 85 b8 37 bd 61 f0 34 be
       0.12128659 0.020195203 -0.044853706 -0.17669822
0001d0 64 3f fc 3d 99 57 3e bc 15 41 32 bd 1b 4a 17 be
       0.12316778 -0.011617565 -0.0435191 -0.14774363
0001e0 65 c9 28 3e af f6 a6 3d 56 d1 c7 3d df 05 50 3c
       0.16483076 0.0815252 0.097567245 0.012696712
0001f0 92 4e f9 bd 14 40 d1 3d 73 4a b1 3c 57 bb 81 3d
       -0.12173189 0.102173 0.021641945 0.0633456

weight f4 [128, 128]
000000 bc 7b 96 3c 36 43 b0 bd 34 69 d9 3d af 66 b4 3c
       0.018369548 -0.086065695 0.10615769 0.02202162
000010 07 37 39 bb f8 9a d6 3b 66 2c b2 bc 4a 1b b6 3b
       -0.0028261559 0.0065492354 -0.021749686 0.0055574523
000020 6a 42 53 3d dd 8b d4 3c 1b a0 1e 3d c8 a1 80 3d
       0.05157701 0.025945598 0.038726907 0.06280857
000030 43 13 a1 3b 16 6e 85 bb d0 10 0d 3d 3e 3b 27 bd
       0.0049156263 -0.004071961 0.03443986 -0.040827982
000040 7f 61 6b 3d 3a 32 52 bd d1 38 1d 3c a1 04 e1 bd
       0.057466026 -0.05131743 0.009596066 -0.10987211
000050 92 03 a5 3d d3 13 c6 3d b5 d0 0a 3d 6f b4 2c ba
       0.080573216 0.0967175 0.033890445 -0.0006588166
000060 8e 0e 72 3d 9e 68 67 3d 95 46 ce 3d ad e5 2c 3d
       0.05909591 0.056496255 0.10072056 0.042211223
000070 ff 52 eb bd 21 54 e7 3c 2b 8c af 3c ff a1 93 ba
       -0.114904396 0.028238358 0.021429142 -0.0011263489
000080 6c d0 49 3d 4f bc 44 3c 1d e1 e0 bb 34 50 90 3d
       0.049271032 0.012007787 -0.006862773 0.070465475
000090 75 bd c3 3c 43 e2 83 3c f6 e3 73 3b 78 09 84 bc
       0.023894051 0.016099101 0.0037214733 -0.016117796
0000a0 ec 98 7b bd d7 e8 e8 bc fa 20 12 3c b3 0a 5d bd
       -0.061425135 -0.02843134 0.008918995 -0.05396528
0000b0 77 f0 4c 3c ef 2d 82 3d fb 44 e7 3d b5 cb ea 3a
       0.012508503 0.063564174 0.11292454 0.0017913493
0000c0 72 51 65 bb df 2f 9a bd c1 5e 1f 3d 33 1b 49 bd
       -0.0034991172 -0.07528662 0.038908724 -0.049098205
0000d0 02 d4 9e 3d 48 47 fd bc 62 50 04 bd e4 db 15 bd
       0.07755281 -0.030917779 -0.03230322 -0.036586657
0000e0 b7 98 34 bc 39 99 2d bd 4c b3 b4 bd 9e c7 aa 3d
       -0.011022738 -0.042382453 -0.08823261 0.08338855
0000f0 c5 91 3d 3d 36 fc a0 bd f5 ce d3 bc 27 76 0c 3d
       0.046281595 -0.078606054 -0.02585552 0.034292366
000100 31 a4 ef 3d 1d 8d d2 bc be 93 62 3d f6 d5 22 3d
       0.11701239 -0.025702054 0.05531668 0.03975483
000110 0f 1b be bc d8 52 5e 3d f4 8e 9c bd ec ae c9 3d
       -0.023206262 0.054278225 -0.07644454 0.09847817
000120 61 d5 d0 3d 62 9e df 3a 73 7c 2a 3d 34 32 ad 3d
       0.10196949 0.0017060752 0.04162259 0.08456841
000130 3f 37 68 3d 69 74 bf ba 90 e8 ec 3c e8 62 64 bd
       0.05669331 -0.0014606836 0.028919488 -0.055758387
000140 9a 0f 56 3d 84 5d 7b bc 4c a9 f0 3d 0d 9c 94 bc
       0.052260973 -0.01534212 0.11751041 -0.018140817
000150 4b f1 80 3c 9d f9 f0 bc 65 90 c8 3d 71 bf 84 bc
       0.015740057 -0.0294159 0.09793166 -0.016204568
000160 65 81 96 3d cd 40 89 bd e1 64 06 bd 3d 96 0c 3d
       0.07348899 -0.06701813 -0.03281105 0.034322966
000170 50 cb f5 bc e2 e2 0d bd 61 29 6a 3d 43 02 76 bc
       -0.030004174 -0.0346402 0.05716837 -0.015015188
000180 1a 42 60 bd 9b 9a a2 bc c1 fe 8d 3d 29 54 f9 3b
       -0.05475054 -0.019849112 0.06933356 0.0076089096
000190 77 4f 23 bd 3d be 4b bd c6 f7 76 3d f5 cb 9f bb
       -0.039870705 -0.049741972 0.06029489 -0.0048766085
0001a0 48 9f 13 bd fa b4 80 bd 2f d3 63 3c 0a 68 13 3d
       -0.036040574 -0.062845185 0.013905331 0.03598789
0001b0 04 78 f9 3c 87 d6 5f 3d 3d a6 c8 3d 16 ae 7f 3d
       0.030452736 0.05464795 0.097973324 0.06242188
0001c0 d4 03 4d 3c 50 87 53 3d dc d0 cd bc 8a 9c 12 3d
       0.01251312 0.051642716 -0.025124006 0.03579382
0001d0 dd 1f 87 3d ae 84 33 3b 6f 71 c6 bc 1c 7b 0c bd
       0.06597874 0.0027392316 -0.024224011 -0.034297094
0001e0 e6 ca 37 bd b6 ea 58 3c 91 cc b9 3d 78 88 4b bd
       -0.044871233 0.013239553 0.09072221 -0.049690694
0001f0 7a e6 20 3d af fd 14 3d 74 2d 7c 3c ce 65 6d bd
       0.0392823 0.036374744 0.015391696 -0.057958417
000200 ac 4d ed 3d 76 de 9a 3d bb 6f c2 bd 4a 28 e8 bc
       0.1158708 0.07561962 -0.09493967 -0.028339524
000210 4c 65 11 3d 54 e7 2a bd e8 16 f0 3c cb 03 00 be
       0.035496995 -0.041724518 0.029307798 -0.12501447
000220 38 c3 b3 bc 42 27 a0 bc 0d fc 03 3d f6 fa d2 bc
       -0.021943673 -0.01954997 0.032222796 -0.025754433
000230 5d c0 4c bd 56 62 5c 3d 8a 7a 69 bc 42 3e 29 bd
       -0.04998814 0.053804718 -0.014250407 -0.04131914
000240 53 8a 47 3b e4 82 b5 3d 28 e3 11 bd bc 08 d0 3c
       0.0030447438 0.08862856 -0.035617024 0.02539479
000250 7d 11 a4 3d 3f c3 69 bd 98 6e ba bd 55 38 a6 3c
       0.08011148 -0.057070967 -0.09103125 0.020290533
000260 df 4e 58 bd da 28 4c 3c 8f a7 c6 bc 9f ec 52 3d
       -0.052809592 0.012460912 -0.02424982 0.05149519
000270 2a 03 f0 bd 8a 7a 9c bc df 21 07 3d 1a 04 60 bc
       -0.117193535 -0.0191014 0.032991286 -0.013672853
000280 95 d1 99 3d 6f 28 6d bd f8 a3 8c bd 7e 79 b1 3c
       0.07510678 -0.05789989 -0.06867212 0.021664377
000290 c9 8b d8 3d 47 71 e3 3c 03 82 c1 bc 71 de a9 bd
       0.10573537 0.027763976 -0.023621565 -0.082943805
0002a0 0b b2 2c 3c 99 62 98 3c d6 f0 5c bb 1f 0a 9b bd
       0.010540496 0.018601703 -0.0033712885 -0.0757029
0002b0 5f 0b 19 bc f6 61 9e bd 36 ee ca 3c 70 f2 b7 bc
       -0.00934109 -0.07733528 0.024771791 -0.02245447
0002c0 4b 5f 5c 3d 71 f7 a1 bd 49 f4 ce bd 6f da 94 bd
       0.053801816 -0.07908524 -0.101051874 -0.072682254
0002d0 64 83 4f bd 32 c1 f0 bd 2f b8 ad 3d 35 85 e1 3b
       -0.050662413 -0.11755599 0.08482396 0.0068823346
0002e0 3d b5 8a 3d 2a f3 6e 3d 5f de 56 bd 84 9d 4f bd
       0.0677285 0.058337368 -0.052458163 -0.050687328
0002f0 a1 1a 95 bd fd a1 7c bd af de c6 3c 09 35 a9 bb
       -0.0728047 -0.06167792 0.024276106 -0.005163793
000300 4f ea 4b bd 2c 44 7e bc 56 3c c1 bd 59 50 9d 3c
       -0.049784 -0.015519183 -0.09435336 0.019203352
000310 9a ad 8f bd 69 3b b4 3d 13 47 c9 3d 14 0f ef 3c
       -0.07015534 0.08800394 0.098280095 0.029181994
000320 ef 61 dd bb 88 4d e7 bc 76 8d ac 39 0f da 18 3d
       -0.0067560594 -0.028235212 0.00032911793 0.037317332
000330 ad 07 e3 bd 4f 91 e9 bd 4a 69 41 3b 26 1e fb 3c
       -0.110854484 -0.114046685 0.002951222 0.030654024
000340 8a 5e df bd 09 69 35 be f2 3e 29 bd e8 46 8f 3c
       -0.10906704 -0.17715849 -0.041319795 0.017489865
000350 05 99 45 3d 76 bf 83 bd 13 9d fd bd ba c4 9f bd
       0.048241634 -0.06433003 -0.12383475 -0.078011945
000360 1a fb b9 3d a3 f8 40 bd bd 56 ff bd 41 87 9e 3d
       0.09081097 -0.04711212 -0.12467716 0.077406414
000370 09 d1 6d bb 2d 8f 2e 3c bf 6f e7 3c cc 90 9e bd
       -0.0036287925 0.010654253 0.028251527 -0.077424616
000380 bb 06 ae bd 74 44 39 3c cc f3 c8 bd ca 86 7c bd
       -0.084973775 0.011307824 -0.098121256 -0.061651982
000390 dc 08 53 3d 34 00 18 3d ea f9 61 3d 15 83 9f bd
       0.05152212 0.03710957 0.055169977 -0.07788674
0003a0 72 a5 18 bd 7b 33 20 bd e2 75 d9 3c 07 7f f0 bd
       -0.037267156 -0.039111596 0.026545469 -0.117429785
0003b0 9f 4b cb bc b5 34 2a 3c a5 f4 2d 3c 19 da 44 bd
       -0.024816332 0.010388543 0.01061741 -0.048059557
0003c0 34 83 ff bc 50 5e ae 3d 0c e8 98 bd bf 1f 5d bd
       -0.031190492 0.085140824 -0.074661344 -0.053985354
0003d0 0e 5f 8e bd 9d 54 bd 3c 8d 70 75 3d 05 8b d9 bd
       -0.06951724 0.023111636 0.05992179 -0.10622219
0003e0 c1 f1 27 3d 6e cf 9e 3d f7 ee 5b 3d 63 51 00 3d
       0.04100204 0.07754408 0.05369469 0.031327616
0003f0 e5 f9 99 bd 1b 97 54 3c dc 0d c5 3c b0 b4 96 bc
       -0.07518367 0.0129754795 0.02405446 -0.018396705

bias f4 [128]
000000 58 c7 10 bc d4 66 b3 3c 06 ab f4 bd 3b 0d 4b bc
       -0.00883659 0.021899618 -0.11946683 -0.012393291
000010 42 7b e2 3b a0 7f bd bd a0 e9 88 36 86 b8 76 bd
       0.006911666 -0.09252858 4.0803134e-06 -0.06023457
000020 44 b3 ad bd 8f b9 91 3d ea e9 d4 3c d2 6d a1 3d
       -0.08481458 0.071154706 0.025990445 0.07882275
000030 a8 3c bb 3d 80 47 56 bd c8 05 a9 bd 32 7c db bc
       0.09142429 -0.05231428 -0.08253056 -0.02679262
000040 b2 eb 43 3d 4b 66 b8 3c 74 22 1e bd 60 eb 96 3d
       0.0478322 0.022509715 -0.038607076 0.07369113
000050 1b 4f b1 bc 85 04 87 3d aa 27 15 3d ba c2 ff bc
       -0.021644166 0.06592659 0.03641478 -0.031220783
000060 f6 24 5d 3d 92 c3 4c 3d 9c c7 39 bc dd fd a0 bd
       0.053990327 0.049991198 -0.0113390945 -0.078609206
000070 e7 5a 87 3d 30 46 92 3d f8 21 1e 3d 35 e7 39 3c
       0.06609135 0.071422935 0.038606614 0.011346628
000080 2a a4 1a 3d 15 42 1e 3d b9 e7 2b bd f0 5c 69 bd
       0.037754215 0.03863724 -0.041969035 -0.056973398
000090 00 ac 49 bd 52 c0 7e 3d 0d 8c 85 bd 51 45 82 3d
       -0.049236298 0.06219513 -0.06520853 0.06360877
0000a0 92 ac 94 bd 31 9c 3b bd 45 b4 a2 3d 58 68 3c bd
       -0.07259478 -0.045803253 0.0794454 -0.045997947
0000b0 5a c8 60 3c 37 ce 9d 3d 7b 81 86 3c e7 a9 26 3d
       0.013719643 0.07705348 0.016419163 0.040689375
0000c0 10 1e 25 bc ba a3 ba bd be a9 ea bc 8a 6c 10 bd
       -0.010077968 -0.091132596 -0.028645393 -0.03525976
0000d0 d5 98 88 bd c2 73 aa bd ef 06 e4 3a 0b 2c af 3d
       -0.066697754 -0.0832286 0.0017397086 0.085533224
0000e0 68 72 94 3d 3c 08 14 3d 74 bc 62 bd 16 e7 7a 3c
       0.07248384 0.036140665 -0.055355504 0.015313884
0000f0 53 83 ba 3c e0 37 ad 3d b3 ce c7 bc 58 fe 48 3d
       0.022767698 0.08457923 -0.024390554 0.049070686
000100 95 c7 b5 3d fd 90 eb bb 2c 75 dd bd 21 b6 ad 3c
       0.08875958 -0.007188915 -0.108133644 0.02120501
000110 91 1f 6e 3d 43 e3 c9 bd fb 17 a3 3d a6 5d 50 bb
       0.058135573 -0.098578 0.07963558 -0.00317941
000120 4f ef 04 be e9 2e 07 3d df dd 42 3d 00 fb c9 b9
       -0.12981914 0.03300372 0.047574874 -0.00038524717
000130 22 88 7a bd 79 33 45 bd 82 85 47 3d ea 99 60 3d
       -0.061164983 -0.04814479 0.048711307 0.054834284
000140 ac 3a 49 3d 48 07 1d 3d 87 b1 6d 3d 2b 9e 15 bd
       0.04912822 0.038337022 0.05803063 -0.036527794
000150 79 f4 45 3d 52 e0 11 3d 07 17 42 3c 25 fb b2 3d
       0.04832885 0.03561432 0.01184631 0.08739308
000160 ec d2 e7 bb c8 c9 b7 3d cf 95 ea bb 5a d4 87 3d
       -0.0070747044 0.089740336 -0.007158972 0.066323
000170 43 e8 b2 bd 38 d1 a0 3d 90 6b c6 bc 6d 41 aa 3a
       -0.08735707 0.07852405 -0.024221212 0.0012989469
000180 9b b8 a5 3d 7c 75 5a 3b 8d 00 08 bd 07 e3 3d bd
       0.08091851 0.0033334186 -0.03320365 -0.04635909
000190 e2 a5 b1 3d db fc ad 3c 4f 31 ae bc cd bb e4 ba
       0.08674218 0.021238735 -0.021263747 -0.0017450989
0001a0 36 74 a9 3d 7f c4 1c 3d ea ff b1 3d 27 f4 05 bd
       0.082741186 0.03827333 0.0869139 -0.032703545
0001b0 be 5c 0b bd a3 fa 3c bd ce e0 97 bd 41 b6 1f bc
       -0.034023993 -0.046137463 -0.07415925 -0.009748043
0001c0 56 1f 0c 3c a5 bc 33 bd ca 4f 27 bd d2 07 7c 3c
       0.008552393 -0.043881077 -0.040847577 0.015382724
0001d0 6d bd 78 bc 04 a4 79 bd dc dc b5 3d 31 06 49 bd
       -0.015181881 -0.060947433 0.08880016 -0.04907817
0001e0 be 31 93 3c ce dd a2 3d 98 10 be bd c9 48 7b 3c
       0.017968055 0.07952462 -0.09280509 0.015337178
0001f0 b1 1a 08 be 2a 40 bc 3d ad 5c 0b bd 07 8b 90 3d
       -0.13291432 0.09191926 -0.03402393 0.07057767

weight f4 [128, 128]
000000 e0 4a a3 3c 2c 90 c7 bc 28 ea 8b 3c 17 fa 3a bd
       0.019933164 -0.024360739 0.017079428 -0.04564866
000010 7e ae 88 3d fd 0c 92 bd 01 bf e0 3d d4 e9 e0 bd
       0.06673907 -0.071313836 0.10973931 -0.10982099
000020 25 ab 08 3c d2 2e 03 3e d0 0c e9 bc 40 8f ca bc
       0.008341585 0.1281083 -0.028448492 -0.02472651
000030 a7 f9 bc bd 2a 7c 2f 3d 75 f9 32 3d db 59 85 bd
       -0.09227305 0.04284302 0.043694932 -0.06511279
000040 fc 9d 64 3d 88 89 cf bd de ac 99 3d 95 3d 77 bb
       0.05581473 -0.10133654 0.07503675 -0.0037725915
000050 02 7c ae bd fd 71 37 bd 4a ac c9 bd c2 57 d5 bd
       -0.08519746 -0.044786442 -0.09847315 -0.10417129
000060 18 35 99 bd 44 27 05 3c e6 f8 60 3d a8 15 09 be
       -0.0748083 0.008127037 0.054924868 -0.13387167
000070 8b 16 6b 3d f2 38 46 bc c1 78 92 3d b9 56 f0 bc
       0.057394546 -0.012098538 0.07151938 -0.029338228
000080 9b 79 e2 bd ae 7b 17 3d 95 56 99 3d f0 55 ff 3c
       -0.11058351 0.036983185 0.07487217 0.031168908
000090 8e ba ab 3d b8 69 23 3d 7b 54 8b 3c 6d fb 56 bd
       0.08385192 0.039895743 0.017008057 -0.052485872
0000a0 95 8f d3 3c c8 d9 c7 bd 12 03 fb 3c b5 95 88 3c
       0.025825301 -0.09758335 0.030641112 0.016672948
0000b0 d0 b0 a7 3d 8e f9 93 3c e0 33 21 3d 19 75 8f 3d
       0.08188021 0.018063333 0.039356112 0.070047565
0000c0 4d 14 89 bb a0 6f cd 39 92 25 02 3d 05 a4 d4 3d
       -0.0041833282 0.00039183814 0.03177411 0.10382847
0000d0 e5 17 64 3d b6 d9 d8 bc 68 f6 d9 3b 6f 89 f4 bd
       0.05568685 -0.026471 0.0066516884 -0.11940276
0000e0 d7 14 b3 3d 6f 13 4a bd cf 08 f3 bd e2 12 88 3d
       0.08744209 -0.04933494 -0.118669145 0.066442266
0000f0 03 98 60 bd 13 12 fa bc 67 be f9 bb 1e 6d 9a 3b
       -0.05483247 -0.030526197 -0.0076215747 0.004712715
000100 23 89 cc ba 9d 55 c4 bd ca f5 71 bd 6f 7e 0c bc
       -0.0015604835 -0.09586642 -0.059072293 -0.008575066
000110 5c 27 7f bc ab 51 e3 bd bd fe 31 bd 77 e8 f4 bd
       -0.015573349 -0.11099561 -0.043455828 -0.11958402
000120 cd ff d7 bb 4d dd 51 3d a8 5f 46 3d b3 38 67 bc
       -0.006591773 0.05123644 0.04843107 -0.014112639
000130 e4 96 22 ba bd eb 3e bd d7 09 67 bd e2 c1 e3 3c
       -0.0006202294 -0.046611536 -0.05640587 0.027802411
000140 51 b7 a1 bd 02 80 e0 bd fb 88 7d bd db 3e 1d be
       -0.07896293 -0.109619156 -0.061898213 -0.15356009
000150 a1 42 ff bc 8d 74 d5 3c 20 9a 69 3d 87 52 fd 3b
       -0.0311597 0.026056552 0.05703175 0.0077307853
000160 6e d1 5e 3c d2 93 82 bd 15 1e c7 bd 91 14 92 3c
       0.013599737 -0.06375851 -0.097225346 0.017832072
000170 c9 20 72 3d c4 0e 38 bd 1a dd 63 3d bd ba 16 3d
       0.059113298 -0.044935957 0.05563078 0.03679918
000180 cc d5 c7 bd 35 69 44 3b 00 82 ae 3d 25 c0 3a 3b
       -0.097575754 0.0029969935 0.08520889 0.0028495875
000190 34 ca 53 3d 0a 4d 97 3c fe 39 25 3d 86 25 7e bd
       0.051706508 0.018469352 0.04033851 -0.062047504
0001a0 6e 20 cb 3c 1e 86 d7 bc e2 3d b9 3c 72 3b 94 3c
       0.024795737 -0.02630907 0.022612516 0.018094752
0001b0 c2 7f 67 bc 5b 1d 76 3d ee fe 8d bd 32 fd 76 3d
       -0.014129581 0.06008659 -0.069333896 0.06030006
0001c0 fe d0 d1 bd 6a cd 78 bd 43 27 97 3d 36 62 bd 3c
       -0.1024494 -0.060742773 0.073805355 0.02311812
0001d0 86 b2 28 3d e2 b4 bb bd a0 23 e5 3c b3 3b 5c 3d
       0.04118588 -0.0916536 0.027971089 0.05376787
0001e0 d6 6b f4 bd 7c 05 c8 bd 72 ba a7 3d 70 a7 b1 bb
       -0.119346306 -0.09766671 0.081898585 -0.0054215714
0001f0 2e e7 7d bc 7c ba 88 bd 9c ba 1b ba b3 f3 8b 3d
       -0.015497012 -0.06676194 -0.0005940588 0.06833591
000200 04 27 29 3c 22 27 54 bd a2 f9 ad bd 6c 9d 61 bc
       0.010324243 -0.051795132 -0.08494879 -0.013770442
000210 a6 16 30 bd 76 92 c6 bc da a4 e3 3c e9 3f ef bc
       -0.04299035 -0.02423976 0.027788568 -0.02920528
000220 c7 c2 40 bd 8f ef 82 3d fe 37 0e bd be f5 10 3d
       -0.047060754 0.063933484 -0.034721367 0.035390608
000230 d5 58 fb 3b 82 82 b3 3d 61 01 4c bd 2a 35 de bc
       0.0076705017 0.08765127 -0.049806003 -0.02712496
000240 76 f5 77 bd 1a d0 ad bd d8 c8 c3 bc 22 62 95 bd
       -0.060536824 -0.08486958 -0.02389948 -0.07294108
000250 f1 a2 8f bd 32 d4 82 3d 10 81 92 bc 3a 7b aa bd
       -0.070135005 0.06388129 -0.017883807 -0.08324285
000260 3c 14 7c 3c a4 52 b6 3d f7 74 d1 3b d8 57 38 bd
       0.015385684 0.08902481 0.006392117 -0.04500565
000270 cf 7f da 3c eb 15 c6 bd 05 ad 26 3d 14 46 c9 bd
       0.026672272 -0.09672149 0.040692348 -0.098278195
000280 cf ec 49 bd 24 b4 08 3d 20 f7 66 bd 78 b6 cd bb
       -0.049298104 0.03337492 -0.05638802 -0.0062778555
000290 b8 86 5b 3d 7a 22 a3 ba be 9f 95 bd 1d f4 50 3d
       0.053595275 -0.0012446188 -0.07305859 0.051014055
0002a0 b3 7f a9 bd d9 05 42 bd e5 8e 6c bc d4 08 ad bd
       -0.0827631 -0.047368858 -0.014438366 -0.084489495
0002b0 69 dc b0 3d d3 4a 46 bd 3a ad 96 3c b7 a9 d6 3c
       0.0863579 -0.0484112 0.018393148 0.026203973
0002c0 28 b0 8f bd d2 9b f1 ba 14 0b be bd d5 64 fa 3b
       -0.07016021 -0.0018433279 -0.09279457 0.0076414146
0002d0 95 1c 3f bd 8f 9d dc 37 99 cf 68 bd f1 c9 29 bd
       -0.046658117 2.6299413e-05 -0.056838606 -0.041452352
0002e0 73 b1 71 bc 1a e2 5b bd eb 39 89 bc 3b 04 03 bd
       -0.01475178 -0.053682424 -0.01675125 -0.031986456
0002f0 ab b5 0a bd cc f0 b4 3c 0a fc b7 ba ee 31 fd bc
       -0.03386466 0.022087477 -0.0014036905 -0.030907597
000300 e5 0a 86 bc dc d2 09 3d 75 ac 89 bd 66 c1 3f bd
       -0.016362617 0.033648357 -0.06722347 -0.0468153
000310 9e d2 51 bd 6a a6 a1 bd bc 37 04 bc 82 4e cc bc
       -0.05122625 -0.07893069 -0.008069929 -0.02493978
000320 93 f3 99 bc fb 1c 88 bc 51 b4 cb 3b 79 e3 34 bd
       -0.018792903 -0.016615381 0.0062165638 -0.044162247
000330 13 04 cc bd a3 22 49 3d 63 ae 2b 3d f5 8c f0 bd
       -0.099617146 0.049105298 0.041914355 -0.117456354
000340 a9 37 84 bd e1 4d 19 bd 26 bd bd bd 5b 54 39 bd
       -0.06455929 -0.037427787 -0.09264593 -0.045246463
000350 f7 07 a6 bc ad 36 0f bd 0e 29 8e 3d 5a 04 f6 bc
       -0.02026747 -0.034964252 0.06941424 -0.030031372
000360 97 aa 55 3d ca bc 2b bd 67 d6 fa bc 22 7a 9a bd
       0.05216464 -0.04192809 -0.030619813 -0.07542826
000370 3f e8 ed bc f7 e4 4b 3d 01 b0 80 bd 98 d7 cd 3d
       -0.029041408 0.049778905 -0.0628357 0.10050887
000380 26 09 76 bd d1 83 19 bc ae cf 8e bb 17 a3 b8 bc
       -0.06006732 -0.009369806 -0.0043582534 -0.022538705
000390 e2 2c 12 3d bb 0e 92 bd 02 3b 34 3d 09 15 41 3d
       0.035687335 -0.07131716 0.044001587 0.0471392
0003a0 f0 d0 90 3d db 17 a4 bc 06 fe 6e 3c 57 93 df bc
       0.07071102 -0.020030906 0.014586931 -0.027291937
0003b0 42 c1 89 3c d2 c8 3d bd c1 56 5e bd 2e 13 3a 3c
       0.016815785 -0.046334095 -0.054281954 0.011357112
0003c0 8c 1f b8 bd 98 5d 3c bd a3 31 8f 3c 27 17 ac 3c
       -0.08990392 -0.045987695 0.017479723 0.021007134
0003d0 e3 a2 27 bd b8 ef 6e bd 09 0a 82 bd d7 09 3d bc
       -0.040926825 -0.058334082 -0.0634957 -0.0115379905
0003e0 26 4e 91 3c 10 d3 0b 3d 5c 8d a5 3c d2 8b e9 bc
       0.01773746 0.03413683 0.020209007 -0.028509054
0003f0 d8 80 2b 3c 60 da 68 bc c1 3f 79 bd 98 3e 8b 3b
       0.01046773 -0.014212221 -0.060851816 0.004249405

bias f4 [128]
000000 99 8c 2b bc f6 d9 f4 3c e3 54 86 bd df 80 21 bd
       -0.010470533 0.029889088 -0.065591596 -0.03942954
000010 11 8a 22 3c 19 53 2f bd f3 d7 7d bc f2 9e 9c bc
       0.009920613 -0.042803857 -0.015493381 -0.01911876
000020 51 c9 8e bd c5 83 7f 3d 0d ac f4 3c 71 e0 72 bb
       -0.06971992 0.062381525 0.029867196 -0.0037060047
000030 de 3e 8f 3b 0e 37 90 3d f1 23 28 bd ab f9 99 3c
       0.004371508 0.07041751 -0.0410499 0.018795809
000040 93 f3 b5 3c 3e b4 13 3d 56 9e 45 bc bb 14 1c bd
       0.022210872 0.036060564 -0.012061676 -0.038105708
000050 8e e7 c7 3d 91 35 11 be 20 45 7d bd de 1a 8b 3d
       0.097609624 -0.1418059 -0.0618335 0.06792234
000060 13 a1 17 bd 6e df bf 3c 9a ed dc 3d b4 2a 29 3c
       -0.037018847 0.02342197 0.107875064 0.010325123
000070 66 8a 39 bc c4 74 db bc 26 16 72 3d c4 1c de 3d
       -0.011324501 -0.026789077 0.059103154 0.1084533
000080 94 49 80 bc 64 3d 06 bd 72 4d 80 3d 85 f8 9f bb
       -0.015660085 -0.03277339 0.062647715 -0.0048819208
000090 ca 28 64 3c 00 03 87 3c 45 98 94 3b 03 47 a8 3d
       0.0139257405 0.016480923 0.0045347535 0.082166694
0000a0 01 3e 35 bd dd a0 36 bd 60 d4 be 3d 88 6c c9 3d
       -0.044248585 -0.044587005 0.09317851 0.09835154
0000b0 d7 e6 a2 bb 90 d7 45 3d 7d 5b 7a 3c 4e 11 0d 3c
       -0.004971366 0.04830128 0.015280602 0.008610083
0000c0 c0 88 f2 bc 1a c0 72 bd fd ac bb 3d b0 49 51 3d
       -0.029606223 -0.059265234 0.09163854 0.051095665
0000d0 68 08 d2 3d 09 92 b0 3d 37 40 9a 3d 6c 78 74 3d
       0.102555096 0.08621604 0.07531779 0.059685156
0000e0 38 5f 1c bd 09 8d 88 bd b1 3d 9a 3d fe 8e 4a bd
       -0.038176745 -0.06667525 0.07531298 -0.049452774
0000f0 21 7f 9d bc 40 7e 8c 3d 19 a8 f7 3c b0 15 ee 3c
       -0.019225659 0.06860018 0.030231522 0.029063076
000100 a6 63 69 3d 4d d5 a8 3d 97 79 5f 3d 3a 96 43 3d
       0.056979798 0.08243809 0.054559316 0.04775069
000110 98 64 9c 3d 92 45 36 bc f7 c0 24 bb b4 c5 de 3d
       0.07636374 -0.011124985 -0.002513943 0.10877553
000120 73 00 aa 3c ef a9 28 3c 6d e7 e9 bc 7e ca bb 3d
       0.020752167 0.010294422 -0.028552735 0.09169482
000130 33 cc fc 3c 30 9f 21 3d 29 68 18 bc a6 f9 41 3d
       0.030859089 0.039458454 -0.0093021775 0.047357224
000140 79 54 a4 3d e3 99 a4 3c 32 04 27 bb d2 7e aa 3d
       0.080239244 0.02009291 -0.0025484678 0.0832497
000150 7c 62 c4 3b 00 58 d2 3c fc de 85 bd d8 35 a7 bd
       0.0059931856 0.025676727 -0.065366715 -0.08164567
000160 4a be c1 3d dd 70 7a 3d 2a 20 7e 3d c6 1d ee 3d
       0.09460123 0.06114279 0.062042393 0.116267726
000170 f0 04 15 3d 9e 1f d1 3d 07 e2 af 3d 9b 4e b8 3d
       0.036381662 0.102111086 0.08588033 0.08999368
000180 7c 93 5e bc 1d 71 c3 3d c0 e8 be 3d ee ca 0d 3d
       -0.013584968 0.09543059 0.09321737 0.034617357
000190 55 d8 30 3a 6a f3 bf 3d ec 11 c9 3c 73 9f 91 3d
       0.0006746103 0.093725994 0.024544679 0.07110491
0001a0 09 9d 84 bc 38 db db 3c e3 d7 a9 bc 00 d9 04 3e
       -0.016188161 0.02683793 -0.020732826 0.12973404
0001b0 dc 67 57 3d 0b 76 43 3b 29 b2 9a bd 2f f2 67 3d
       0.052589282 0.0029824998 -0.075535126 0.05662745
0001c0 c3 85 a6 3d c1 2b 22 bd bc f2 c0 3c 4f 1f d4 3d
       0.08130982 -0.03959251 0.023553245 0.10357534
0001d0 fa 08 44 3d 0f fd aa bc a0 31 35 3d d0 df b7 3b
       0.047860123 -0.02087262 0.04423678 0.0056113973
0001e0 83 d8 83 3c 18 ce 5f 3d 8a 11 91 3d 12 3f 41 3d
       0.016094452 0.054639906 0.070834234 0.04717929
0001f0 bd 37 67 3d a3 3e 3f bd db bb 5d bd 34 d5 99 3b
       0.05644964 -0.046690594 -0.05413423 0.0046946052

weight f4 [128, 128]
000000 93 6b 4c 3d 91 b4 db bc 9a 60 92 bd 93 9a 1b bd
       0.04990728 -0.0268195 -0.071473315 -0.03798921
000010 9d af 89 bd e6 1b 54 bd 2e a8 ea bc ce b8 3a bc
       -0.06722949 -0.05178442 -0.028644647 -0.0113966
000020 81 d3 51 bd 3d dd ee 3d fe 68 fd bd ac 86 09 3d
       -0.051227096 0.116632916 -0.12373541 0.0335757
000030 26 f6 e0 3d e8 3c 07 3c ff ad 35 3d 6a c1 56 bd
       0.10984449 0.008254267 0.04435539 -0.052430548
000040 0d 17 b9 3d a5 81 bd 3d fb a2 21 bc 41 cf 71 bc
       0.090376 0.09253243 -0.009865518 -0.014758886
000050 e8 90 8d 3d 66 c8 1f 3e 8f 75 6b bd c2 62 bf 3d
       0.06912404 0.1560379 -0.05748516 0.093450084
000060 3d f4 35 3d f7 e8 a7 3d 00 aa 46 bd a4 6c a4 3d
       0.044422377 0.081987314 -0.04850197 0.08028534
000070 b0 16 84 3d 48 41 93 bd fa 91 fd 3c 2b 55 45 3d
       0.0644964 -0.07190186 0.030953396 0.048176926
000080 97 64 0c bd b0 b2 19 bb 44 c2 9e 3d 38 b1 b2 3d
       -0.034275617 -0.0023452453 0.07751897 0.08725208
000090 f0 79 25 3d 16 f9 ef 3c 31 60 29 3d 59 dd 98 bd
       0.04039949 0.029293578 0.0413515 -0.07464094
0000a0 96 18 ad bd e7 df 42 3c ea 97 e9 bb f4 f1 8e 3d
       -0.08451955 0.011894203 -0.0071287053 0.06979743
0000b0 f1 e7 57 bd fd 22 10 bd 0c 86 85 3d 62 76 ac 3d
       -0.05271143 -0.035189617 0.06519708 0.08421017
0000c0 b4 bf 7f bc 70 d4 9a 3d 69 52 49 bd 22 ce 93 bd
       -0.01560967 0.075600505 -0.049150858 -0.07217051
0000d0 6e 9a 27 bd 76 a8 ba 3c 20 b6 39 3c 43 b6 dc 3d
       -0.04091876 0.022785407 0.011334926 0.10776951
0000e0 82 7a 65 3d 8a ab 01 3d 64 07 ad 3d d7 3e 35 bd
       0.056025036 0.031657733 0.08448675 -0.044249382
0000f0 6e dc 8d 3d b7 65 14 3d e0 1d 57 bc 48 48 1c bd
       0.06926809 0.036229815 -0.013129681 -0.03815487
000100 cc 98 cf 3d f2 3a b1 bc e4 54 88 3d 1d 7a 50 bc
       0.101365656 -0.021634553 0.066568166 -0.012724427
000110 0e 24 d2 3d b2 b7 7b bd 09 f6 8f 3d a5 67 0f 3d
       0.10260783 -0.061454482 0.07029349 0.035010953
000120 fd fb 84 bc 98 25 4c 3d d9 48 63 3d 05 d1 85 3d
       -0.016233439 0.04984054 0.055489395 0.06534008
000130 ae e4 e0 bc df af 25 3d 0a 53 b9 bb b0 6b df 3d
       -0.027452793 0.040450927 -0.005655651 0.10909212
000140 f9 66 6a bd 12 64 27 bd c1 2e 99 bd e7 22 85 3d
       -0.05722711 -0.04086692 -0.07479621 0.06500798
000150 c9 cd a8 bd 8f b2 5b bc d1 ae a3 3d 40 8e 14 3e
       -0.082423754 -0.013409271 0.07992328 0.14507389
000160 8d 9a be bb 9e 82 1a 3d 65 30 21 bc 7b 38 19 bd
       -0.0058167637 0.037722223 -0.009838198 -0.03740738
000170 85 ef c0 bc 63 1d ad bc 83 b5 60 3c 67 35 95 bd
       -0.023551712 -0.021132177 0.013715151 -0.07285576
000180 6f d2 27 3d 08 ef 0b bd dd 8a 9c ba 9d a7 4a 3d
       0.04097217 -0.034163505 -0.001194324 0.049476255
000190 fa dd bb bd b2 a7 54 3d 2c ec 9c 3d 1e db 1a bd
       -0.09173198 0.05191774 0.07662234 -0.037806623
0001a0 39 26 a4 3d ed 25 80 bd 49 ff 46 bc 0d ec 63 bd
       0.08015103 -0.06257234 -0.012145826 -0.055645037
0001b0 3a b5 25 3c 39 c4 f2 bb 2e f9 fd bc 04 09 5b 3c
       0.010114009 -0.0074086455 -0.031002607 0.013368849
0001c0 93 cf 1e 3c 3b 1c 42 bd 7e f2 a3 3c 62 85 f9 3b
       0.009693044 -0.047390204 0.02001309 0.0076147774
0001d0 c2 b4 3e bd 51 19 e9 3a 14 09 c1 3c 6c 2e 16 3d
       -0.046559103 0.0017784034 0.0235639 0.036665365
0001e0 3c dc 12 bd e6 e6 1e 3b dd 44 17 bc e2 66 e4 3c
       -0.035854563 0.0024246513 -0.009232727 0.02788109
0001f0 40 73 87 3d c6 fc e2 3d 7f 4d 4e 3d 1a 71 dd 3d
       0.06613779 0.11083369 0.050366875 0.10812588
000200 ec c3 03 3e ee 8c d8 3d c1 49 10 3c 7b 7e a7 3d
       0.12867707 0.10573755 0.008806647 0.08178421
000210 69 8f 37 3d 97 aa 9d 3d 54 6b 03 bc 86 dd 71 3d
       0.0448145 0.07698553 -0.0080211945 0.05904915
000220 39 d6 ce bd 06 47 20 bd 4b 3e 65 3d a6 4b 45 3d
       -0.100994535 -0.039130233 0.05596761 0.048167847
000230 29 54 48 bd 42 14 39 bd 53 b2 c5 bc a1 00 13 3d
       -0.048908386 -0.045185335 -0.024132883 0.03588927
000240 f4 a0 0f bb 49 7b 91 bd c1 33 00 be b3 25 99 3b
       -0.0021916004 -0.07103593 -0.12519743 0.0046736836
000250 8a 2d a2 bd df 46 ad 83 68 a6 6e bd 19 04 18 bd
       -0.07918842 -1.0184297e-36 -0.058264166 -0.037113283
000260 76 e8 9c bc 75 6c 0c 3d 4a 3e 73 bc 16 58 0b bd
       -0.019153815 0.03428312 -0.014846394 -0.034019552
000270 f1 52 2d bd b2 18 91 3d 10 a2 a8 bd 79 de c0 3d
       -0.042315427 0.070847884 -0.08234036 0.09417433
000280 fe 99 31 3c 9b 23 0b bc 2b ff 4a bd b1 34 1c bd
       0.010839937 -0.008492376 -0.049559753 -0.038136188
000290 a1 37 c0 3c 11 17 be 3d db a3 04 bd e0 c1 a8 3d
       0.023464026 0.09281743 -0.032382827 0.08240104
0002a0 dd 92 90 3d 4f 16 fd 3d 5b 60 a1 bc 39 a6 90 bd
       0.07059262 0.12357771 -0.019699266 -0.070629545
0002b0 bd 44 4b 3c 7c 32 f0 3d f7 bb 8b bd 68 b9 41 bd
       0.012406525 0.11728379 -0.06822961 -0.047295958
0002c0 ef c7 3c bc 54 ec 27 3c 40 2c 91 bd ae 72 ae 3d
       -0.011522277 0.010249216 -0.07088518 0.08517967
0002d0 48 3a 09 bd ca 3b b4 3d 03 4d 3a bd 48 77 ab 3d
       -0.033502847 0.08800466 -0.0454836 0.083723605
0002e0 52 fc ef bb 6b dd 9e bc 02 6a e6 bd d4 b6 6c bd
       -0.00732378 -0.01939269 -0.11250688 -0.057791546
0002f0 44 35 a6 bd 14 f4 b5 bc af d2 27 bd df c3 20 bd
       -0.08115628 -0.022211112 -0.040972408 -0.039249297
000300 d3 ca 52 bc 4d 27 c1 bd b1 ea d9 bc ff a4 ae bc
       -0.01286574 -0.09431324 -0.026601167 -0.02131891
000310 e8 c1 65 ba 67 85 89 bd f3 eb 7a 3c b6 c9 57 3d
       -0.0008764551 -0.067148976 0.015315044 0.0526826
000320 e5 54 d0 bd f3 0e 06 be c8 52 39 bb ea 22 10 bd
       -0.10172442 -0.1309164 -0.0028278101 -0.035189547
000330 a6 57 ad 3d 6c 91 2b 3d 0f 3d 45 bd a2 ff 2a 3d
       0.08463983 0.041886732 -0.048153933 0.041747697
000340 72 65 dc bc 6b e7 79 bc c9 af 2f 3d ae 53 19 3d
       -0.026903842 -0.015252928 0.04289225 0.03743332
000350 34 23 23 3d cf 1f c1 bd df 91 06 3d c4 10 5f bb
       0.039828494 -0.09429895 0.032853957 -0.0034037093
000360 73 ad 9e 3d 43 dd 19 bd 31 7d c9 3b d4 86 5b bd
       0.077479266 -0.037564527 0.006148957 -0.05359538
000370 cb 38 1a bd e2 ba a9 bc ad 58 8e bd 13 1f 48 bd
       -0.03765182 -0.020718995 -0.06950507 -0.04885776
000380 a6 5f 94 3d 32 19 60 bd c3 38 79 bd 56 3d 8a 3c
       0.07244806 -0.054711528 -0.060845148 0.01687495
000390 69 9d e9 3d 27 24 9a bd 6e 45 33 bd a9 12 0e be
       0.11406977 -0.07526427 -0.043767385 -0.13874306
0003a0 67 39 25 be cd 14 66 bd d7 24 15 bd 5c e7 3f 3d
       -0.16135179 -0.05617218 -0.036412086 0.0468515
0003b0 42 4b 91 bc 9c 5b 8f bd ba e0 67 bc 42 26 0e 3d
       -0.017736081 -0.06999895 -0.0141527 0.034704454
0003c0 e1 5d 29 3c f9 94 12 3d 5e 2d f5 3c 48 87 cc 3d
       0.010337324 0.035786603 0.02992886 0.0998674
0003d0 00 37 b6 bc 1a 76 e2 3b 34 d1 c8 bc ad a8 b9 bc
       -0.022243023 0.0069110515 -0.024513818 -0.022663439
0003e0 15 81 b2 bd 64 fe dc 3b c7 52 db bd df 65 e0 bd
       -0.08716027 0.006744193 -0.10709148 -0.1095693
0003f0 d9 51 9a bd 99 e3 fe bc 59 5b 4f bb 9b fd 5a bd
       -0.075351425 -0.031114386 -0.003164014 -0.053464513

bias f4 [128]
000000 55 72 cc 3d bc 74 14 bc 3d ea 2d bd ed f6 b5 bd
       0.099827446 -0.009061035 -0.042459715 -0.08884988
000010 8d 44 06 3e 59 ef d1 3c 0a 31 0a bd 4a 51 ae 3d
       0.13112088 0.025626825 -0.033738174 0.085115984
000020 50 29 ca 3b b3 83 dc 3d 05 fe 83 bd db 21 86 3d
       0.0061694756 0.10767307 -0.06444935 0.06549426
000030 c0 d2 e3 3d b4 ec 43 3d da af 7f 3d 35 f0 77 bc
       0.11124182 0.04783316 0.062423564 -0.015132953
000040 33 da 5c bd bb 08 d9 3d a8 80 8d 3c 5b e3 9f bc
       -0.05391903 0.10597368 0.017273262 -0.019517591
000050 7e 37 f8 3d d1 d2 9a 3b ed 12 36 3d 2c f6 89 bd
       0.12119959 0.0047248383 0.044451643 -0.06736407
000060 24 66 eb 39 e7 f8 ad 3c 35 ca b0 bc c6 e5 a0 bc
       0.00044898794 0.02123685 -0.021580795 -0.019640815
000070 04 11 28 bb 0b a8 7c bc b5 52 06 3e 7f 38 98 bc
       -0.0025644908 -0.015420924 0.13117488 -0.018581627
000080 19 53 e4 3d 4b 99 2f 3d 01 e2 95 3d 0c 66 66 3d
       0.11148662 0.0428708 0.073184974 0.056249663
000090 ac 05 90 3d c4 5e d0 3d b8 f2 da 3d 64 03 4c 3d
       0.07032332 0.10174325 0.10690826 0.04980792
0000a0 c8 83 e2 3d 14 9b 3c bc 9f 88 92 bc f6 09 ae 3d
       0.110602915 -0.011511583 -0.017887412 0.08497994
0000b0 ee 86 d6 3c db 4f 8e 3d 49 cb cd 3d d1 37 ef bc
       0.026187386 0.06948825 0.10048539 -0.02920142
0000c0 27 24 29 3d 4e 0c 2f 3d fe 66 69 bd 35 24 7b 3d
       0.041294243 0.042736344 -0.056982987 0.061313827
0000d0 db 3d ab 3d 13 91 d1 bd 88 f1 ba 3d 7d ad cf 3c
       0.08361407 -0.10232749 0.091281 0.02535128
0000e0 34 3d bb 3d d1 c0 a4 3d 60 02 c8 3c 1c 48 2c bc
       0.09142533 0.08044589 0.024415195 -0.010515239
0000f0 5c c0 b5 3d 60 98 bb 3d 03 30 6e b8 46 fd 6d 3d
       0.0887458 0.091599226 -5.6788336e-05 0.05810287
000100 cf 26 28 3d 62 42 02 3d 3b ac f3 3d cf 27 23 3d
       0.041052636 0.03180159 0.11898085 0.039832886
000110 19 e8 a5 3d 6c 22 97 3d a2 76 2e bc 6d 6d 01 3e
       0.0810091 0.07379612 -0.010648401 0.12639399
000120 c4 e9 03 3e 48 da 65 bd 70 77 a9 3d 09 c3 bd 3d
       0.12882143 -0.056116372 0.08274734 0.09265716
000130 21 64 ef bc 0e 24 f8 3d 0b bc 5a bd 56 af 0d 3d
       -0.02922255 0.12116252 -0.053401988 0.03459104
000140 41 5e 97 3d 20 32 94 3d 5e 7f 83 3d 75 d0 86 3d
       0.073910244 0.07236123 0.06420778 0.06582729
000150 d3 6f a9 3d 0b 84 8a 3c 8d 2b fb 3d 72 ca 64 bd
       0.08273282 0.016908666 0.12264166 -0.05585713
000160 12 52 21 3d fc 87 6f bd ea 53 bb 3c c7 45 27 3d
       0.03938491 -0.058479294 0.022867162 0.04083803
000170 56 bd 01 3e f2 03 18 3c fd 9d 8f 3d 6f 8c 2a 3d
       0.12669882 0.009278284 0.07012556 0.041637834
000180 1f 04 fa bd 56 70 ae 3c 9b f2 33 bd 20 e7 9b 3c
       -0.12207817 0.0212938 -0.04393254 0.019031107
000190 68 50 8a 3d c3 6b ca bc fe 6f 07 3e 1a b5 a3 bc
       0.067536175 -0.024709588 0.13226315 -0.019983817
0001a0 8f bc 58 3b ed a9 8d 3d c2 45 7a 3d e8 23 ce 3c
       0.0033071374 0.069171764 0.061101682 0.025163606
0001b0 fa 87 c6 3d 42 24 4d 3d 5c f1 91 3c f8 46 e0 3d
       0.09693904 0.050083406 0.017815284 0.10951036
0001c0 03 5e d5 3d fc b4 d3 3c 93 cf ad 3c a1 c8 36 3d
       0.10418322 0.025843136 0.021217143 0.04462493
0001d0 10 c5 fc 3d e6 5e 91 3d 6c eb 58 3c 12 f3 cf 3d
       0.12342274 0.070981786 0.013239723 0.10153784
0001e0 f9 b9 d5 3d d7 ee cd 3c 1c 35 a1 bc 91 9e dd 3d
       0.10435862 0.025138302 -0.019678645 0.1082126
0001f0 e6 a7 70 3c 52 68 74 3d fd 8c a6 bc 09 34 e4 3d
       0.014688468 0.0596698 -0.0203309 0.111427374

weight f4 [1, 128]
000000 f7 b7 2f bd 86 6f 12 3e fc ea ea 3d a2 9d 10 bb
       -0.042900052 0.14300355 0.11470601 -0.0022066613
000010 5f c5 d1 bd 86 e5 82 3d 1a 16 87 3d 75 f9 cd bd
       -0.10242724 0.06391434 0.065960124 -0.10057346
000020 22 23 9f 3d e7 dd a6 3d 43 e4 98 3d d7 9a f5 3d
       0.07770373 0.08147793 0.074654125 0.11992424
000030 d1 ef ed 3d cb 72 bb bc 77 8d 0b 3e a5 8e d1 3d
       0.11618007 -0.022881886 0.13628183 0.102322854
000040 28 d7 8b bd e7 d9 69 bd e0 73 68 bd 80 89 1f 3e
       -0.06828147 -0.057092573 -0.056751132 0.15579796
000050 cb a6 0a bd a5 f2 7b bd d3 c5 d0 3d 2b 02 9e 3d
       -0.033850472 -0.0615107 0.10193982 0.07715257
000060 a8 3f 3d 3c e8 3f 12 3e f7 34 9a 3d 6c 0e cc bd
       0.011550821 0.14282191 0.075296335 -0.09963688
000070 a1 f3 b1 3d 7e 7b 01 3e 5a b1 74 bd 34 e9 03 3e
       0.08689047 0.12644765 -0.059739448 0.12881929
000080 3b 1d cb bd 90 d3 f9 3d 5b a2 ad bd ab ae 86 bd
       -0.09917685 0.121985555 -0.084782325 -0.06576284
000090 97 c8 e5 bc 92 6b f2 bd 3b fb cc 3d 43 52 97 3d
       -0.02804975 -0.11836924 0.10008856 0.07388737
0000a0 01 37 c0 bd 66 71 c6 bd 0d d3 3b bd 1c c4 52 bd
       -0.09385491 -0.09689598 -0.04585557 -0.051456556
0000b0 07 6e b9 3d 23 07 85 3d 60 77 7e 3d ec ac 24 3d
       0.09054189 0.06495502 0.062125564 0.040203974
0000c0 93 b3 17 bd 55 24 ad 3d a2 55 1b 3e 39 2a cc bc
       -0.03703649 0.084541954 0.15169385 -0.024922477
0000d0 35 a1 5c 3d 9c 36 57 bc 33 a6 d6 bc ae 44 b9 bd
       0.053864677 -0.0131355785 -0.026202297 -0.09046303
0000e0 26 dc 30 bd 66 4f 8d bd cb a1 35 bd d8 53 c2 bd
       -0.0431787 -0.0689991 -0.04434375 -0.09488648
0000f0 75 04 00 3e 8b 3f cc 3d d8 65 c3 bd 0a 3b ca 3d
       0.125017 0.09973057 -0.095409095 0.09874542
000100 52 f7 1d 3e 4e 57 04 3e d3 12 e7 3d fa 9e 8c 3d
       0.15426376 0.12923929 0.11282887 0.0686626
000110 e9 c1 f4 3d 7c 01 01 bd cb c2 89 bb a0 a1 ea bc
       0.11951048 -0.031495556 -0.0042041293 -0.028641522
000120 16 52 7a bd 51 f2 b9 3b 66 73 e4 3d 98 5d 0c bd
       -0.06111344 0.0056746383 0.11154823 -0.034268945
000130 1a 69 86 39 8d b3 65 bd 94 e9 1e 3e a6 55 9d bc
       0.00025636778 -0.056079436 0.1551879 -0.01920588
000140 90 33 9a bd 59 b0 70 bd 88 bb f8 3d 35 79 5a 3d
       -0.07529366 -0.05876193 0.12145144 0.05333825
000150 72 6d a1 3d 35 b2 29 bd 35 fe bc bc 85 f4 82 3d
       0.07882203 -0.041429717 -0.023070434 0.06394295
000160 6e c7 5e bd 82 97 a6 bd ae 1e e1 bc 53 5c d6 3d
       -0.05438941 -0.081343666 -0.02748045 0.10466828
000170 06 fb 7f bd f2 e6 5b bd 03 87 cc 3d 12 2e 1f bd
       -0.062495254 -0.053687043 0.09986689 -0.038862295
000180 cc eb 10 3d 0a 4e c2 bc da 5b 83 bd 11 32 0b 3e
       0.035381123 -0.023718853 -0.06414004 0.13593318
000190 cd bd c4 bd b7 44 15 bc d4 ed 25 bd f5 70 8f bc
       -0.09606514 -0.009110621 -0.040510014 -0.017509917
0001a0 bc 0c f8 3c d2 ee 88 bd 15 35 e9 3d 4f cf 9a bd
       0.03027951 -0.06686176 0.11387078 -0.07559072
0001b0 a5 7c 34 3d e5 3a a1 3d 92 aa 56 bd 01 df a7 bd
       0.044064183 0.07872561 -0.052408762 -0.081968315
0001c0 4c 83 d8 3d 32 7c 86 bd 63 3c c6 bd a7 f5 c6 3d
       0.10571918 -0.06566657 -0.096794866 0.09714823
0001d0 0c 3f c7 bc f8 0e 73 3d e5 f5 ba bd fb 70 23 bd
       -0.024322055 0.059340447 -0.09128932 -0.03990267
0001e0 41 bb 44 bd 11 69 f9 3d 5d 17 3e 3d 2d 82 cc bd
       -0.04803014 0.12178243 0.046409 -0.099857666
0001f0 05 4f f2 3d 88 40 fe 3d 0e a6 b6 3d b4 8f b4 bd
       0.11831478 0.12414652 0.08918391 -0.08816472
