bike_sharing/AutogluonModels/ag-20220403_215705/models/NeuralNetTorch_BAG_L2/S1F4/net.params (torch, 215879 bytes, 9 tensors)

weight f4 [128, 22]
-0.09459877 0.2213906 -0.12244904 -0.113496445 -0.10372537 0.12472666 0.08758561 0.21339071
0.02959808 0.04121121 -0.07631835 -0.004946979 -0.19235754 -0.12418324 -0.09449117 0.0489073
0.11376811 0.1582234 -0.10930165 -0.078420244 0.07961091 0.17118049 -0.16697302 0.24580315
-0.001353233 0.067562215 0.1603682 -0.20196223 -0.13615707 -0.008965847 -0.055367053 0.21294755
-0.13847181 -0.17144483 -0.16954604 -0.13562895 -0.13774014 0.23672585 0.11974163 0.04159777
0.056774396 -0.043901328 0.06689768 -0.14750102 -0.13553412 -0.39199412 0.06627455 0.14022902
-0.09657162 0.0017058209 0.13304538 0.14218171 0.039523754 0.05657415 0.13796373 -0.05452857
0.028001128 -0.15757275 -0.110717736 -0.09302098 0.13115269 0.004061352 -0.14709067 0.08949879
0.08657471 0.003934108 -0.06837457 0.23281746 0.15809335 0.1453452 -0.10029397 -0.13147621
0.037740316 0.18207818 0.13494965 0.19654067 0.097053856 -0.18333548 0.013046731 -0.124897845
-0.26115635 0.14758356 0.12977016 -0.12847301 0.028806485 -0.07199498 0.021254763 -0.1563029
0.14202772 -0.30569702 0.05083628 0.09746706 0.19184177 0.0764639 -0.19257072 -0.061328724
0.051262002 0.06411985 -0.13150956 -0.08570671 0.21071984 0.1585769 -0.068256855 -0.075366
-0.22238736 -0.017031822 -0.099325255 -0.12406985 -0.086367875 0.08537574 -0.25989556 0.21745105
-0.14011928 0.15550648 0.077070095 -0.10213788 0.017005773 -0.011404766 0.037661638 0.013343716
0.0257736 -0.04296634 -0.12024147 0.08791428 -0.21663854 -0.0963112 -0.02953886 -0.05026534
-0.066795714 -0.17799167 -0.079002306 0.08472368 -0.2001894 -0.12758206 0.07452058 -0.06839669
-0.046253923 -0.024357637 0.037120875 0.15189904 0.22242303 0.102663346 0.16184565 0.0028926148
-0.17218177 -0.14379677 0.13102192 -0.026485726 -0.12641327 -0.12194257 -0.2167892 -0.21435721
-0.09765425 0.12907381 0.28824556 -0.38063496 0.118960574 -0.14003038 -0.01579554 -0.08864963
-0.04251592 0.0018710641 -0.09976937 -0.10712783 0.008368145 -0.007167975 -0.06664712 0.094296545
-0.13799794 0.0025754306 0.18730396 -0.022697387 0.13839498 0.10599503 -0.17814115 0.102969915
0.17254066 -0.3014663 0.11858671 -0.1538494 0.028772797 -0.08349052 0.099753216 0.055147666
0.04445573 0.033776563 -0.050186537 -0.022969242 -0.07802725 0.07926681 0.18213339 0.089694366
-0.18139833 -0.0017836245 -0.114017144 -0.1405438 -0.20957431 0.09175383 -0.24523133 -0.32437018
-0.041498788 0.19632299 -0.14402746 -0.080825955 -0.06848503 0.06928827 -0.033877578 0.068231046
0.06694862 0.07158037 -0.034368798 -0.010261053 0.05368835 -0.026580676 0.002528926 0.007880157
-0.07335095 -0.22171746 0.14014786 -0.11092978 -0.16095105 0.32247707 0.035262402 -0.061621934
-0.1275118 0.09263739 -0.16161479 -0.008447852 -0.09033042 -0.032452796 0.046816844 0.13500406
0.0126939565 0.15230772 0.046028256 -0.18050805 0.071986765 -0.064779624 -0.11687433 0.01726073
0.09649159 0.10353436 -0.21855582 -0.09146324 0.058865 -0.22009446 0.10871246 -0.13869019
0.039454166 -0.060942244 -0.048579145 -0.020799085 0.1333903 -0.074363686 -0.1472645 -0.06381833
00000000: 00bd c1bd 38b4 623e 90c6 fabd d370 e8bd
00000010: f76d d4bd b170 ff3d 1660 b33d 1883 5a3e
00000020: ac77 f23c 16cd 283d cc4c 9cbd 451a a2bb
00000030: 60f9 44be c853 febd 9684 c1bd 0553 483d
00000040: 41ff e83d 5105 223e 8bd9 dfbd cb9a a0bd
00000050: 0b0b a33d f049 2f3e fafa 2abe d2b3 7b3e
00000060: f75e b1ba 0f5e 8a3d 9037 243e 30cf 4ebe
00000070: c26c 0bbe 7de5 12bc 90c8 62bd ec0e 5a3e
00000080: 8ecb 0dbe 3c8f 2fbe 7a9d 2dbe 51e2 0abe
00000090: c00b 0dbe 4368 723e 1a3b f53d 6c62 2a3d
000000a0: 458c 683d e1d1 33bd a701 893d 820a 17be
000000b0: 75c9 0abe 74b3 c8be f4ba 873d 3298 0f3e
000000c0: 57c7 c5bd da95 df3a 0c3d 083e 1598 113e
000000d0: a9e3 213d 4cba 673d 5d46 0d3e 5a59 5fbd
000000e0: 9f62 e53c c05a 21be fbbf e2bd c981 bebd
000000f0: e44c 063e 1715 853b f09e 16be 244b b73d
00000100: 154e b13d b1e9 803b f707 8cbd b367 6e3e
00000110: 39e3 213e 5fd5 143e ed66 cdbd b3a1 06be
00000120: 9795 1a3d b472 3a3e 3e30 0a3e f541 493e
00000130: 2cc4 c63d 4cbc 3bbe f5c1 553c 71ca ffbd
00000140: 49b6 85be 2520 173e 78e2 043e 6e8e 03be
00000150: 94fb eb3c 1b72 93bd 781e ae3c de0d 20be
00000160: b76f 113e 5284 9cbe b439 503d cf9c c73d
00000170: 2b72 443e 1b99 9c3d 4231 45be d433 7bbd
00000180: 1bf8 513d 4551 833d 71aa 06be 0087 afbd
00000190: f1c6 573e fc61 223e 40ca 8bbd 7d59 9abd
000001a0: 83b9 63be 5286 8bbc 0a6b cbbd 5518 febd
000001b0: a4e1 b0bd 7ad9 ae3d 0811 85be 7dab 5e3e
000001c0: 6e7b 0fbe 173d 1f3e edd6 9d3d aa2d d1bd
000001d0: b14f 8b3c 0edb 3abc 1743 1a3d 9a9f 5a3c
000001e0: 2823 d33c 79fd 2fbd 2941 f6bd 670c b43d
000001f0: 7ed6 5dbe ce3e c5bd 7bfb f1bc 07e3 4dbd
00000200: 31cc 88bd 7343 36be f6cb a1bd 9c83 ad3d
00000210: 73fe 4cbe dfa4 02be 3f9e 983d 9013 8cbd
00000220: c174 3dbd ab89 c7bc 0f0c 183d 6c8b 1b3e
00000230: ddc2 633e 2941 d23d deba 253e 0692 3d3b
00000240: 6b50 30be 763f 13be 9c2a 063e 98f8 d8bc
00000250: 7b72 01be 07bd f9bd fdfd 5dbe 7580 5bbe
00000260: f4fe c7bd ed2b 043e ec94 933e 96e2 c2be
00000270: 9aa1 f33d 2064 0fbe a665 81bc f08d b5bd
00000280: 2c25 2ebd 7e3e f53a e253 ccbd d665 dbbd
00000290: 8b1a 093c 55e1 eabb 497e 88bd 8c1e c13d
000002a0: 554f 0dbe 8ec8 283b 9ccc 3f3e dfef b9bc
000002b0: 6ab7 0d3e ec13 d93d a26a 36be e4e1 d23d
000002c0: 80ae 303e ca59 9abe 97dd f23d b28a 1dbe
000002d0: eeb4 eb3c 14fd aabd 6a4b cc3d 85e2 613d
000002e0: 3617 363d 4b59 0a3d 6690 4dbd fe29 bcbc
000002f0: c0cc 9fbd a356 a23d 2d81 3a3e aeb1 b73d
00000300: 7cc0 39be 82c8 e9ba d281 e9bd b7ea 0fbe
00000310: a69a 56be 6fe9 bb3d ec1d 7bbe d913 a6be
00000320: a2fa 29bd e508 493e ef7b 13be 1488 a5bd
00000330: e141 8cbd 02e7 8d3d 37c3 0abd b8bc 8b3d
00000340: 5c1c 893d bb98 923d 4cc6 0cbd fa1d 28bc
00000350: 51e8 5b3d b8bf d9bc 56bc 253b c61b 013c
00000360: 0639 96bd e709 63be ec82 0f3e 272f e3bd
00000370: 5ad0 24be b71b a53e 4f6f 103d 4867 7cbd
00000380: 7492 02be acb8 bd3d 597e 25be dc68 0abc
00000390: 28ff b8bd 39ed 04bd 05c3 3f3d 813e 0a3e
000003a0: 50fa 4f3c 8ef6 1b3e 2088 3c3d 1ad7 38be
000003b0: cc6d 933d 2eab 84bd cf5b efbd 6066 8d3c
000003c0: 629d c53d d309 d43d 19cd 5fbe 1451 bbbd
000003d0: 6d1c 713d 7160 61be a3a4 de3d cd04 0ebe
000003e0: b19a 213d 939e 79bd edfa 46bd d862 aabc
000003f0: 7897 083e fd4b 98bd 81cc 16be 2fb3 82bd

bias f4 [128]
-0.16661917 -0.07726439 0.0048648515 -0.06669758 -0.0419274 0.114695355 -0.055934504 0.06557332
0.18086807 -0.14148484 -0.15382634 -0.09580233 -0.027215073 -0.11105444 -0.03914294 -0.011477614
0.06642766 0.15958819 0.13957196 0.0035770405 0.0032259221 0.037873104 -0.008610853 -0.06934632
0.09981462 -0.27353692 -0.1535377 -0.044528306 -0.10049701 -0.14263393 -0.22216392 0.15707703
-0.054086715 -0.07749805 -0.110300116 0.03349272 -0.18599 0.00012845031 -0.010483191 0.045984168
0.06591757 -0.14873688 0.088341795 0.15142553 -0.03978884 0.06330841 -0.039909422 0.011784714
0.009847713 -0.10074302 0.10693011 -0.24959247 -0.03035223 -0.15885161 -0.11936066 -0.17654079
-0.24676265 0.006403692 -0.065097146 -0.1397267 -0.020366907 -0.07118448 0.02713571 -0.16876118
-0.035742886 0.055731587 0.065780856 0.024234066 0.043965954 0.18203223 -0.09986228 0.119708076
0.19918247 -0.20110866 0.043122496 0.11588528 -0.06723652 0.06708269 0.019859374 0.13791154
-0.03160496 -0.12452317 0.1478952 0.093680516 0.14294995 0.05376709 0.13660781 0.05058282
0.042822108 -0.07908018 0.024610225 -0.14893089 0.02561488 -0.01818797 0.00639609 -0.14447819
0.07204147 -0.16299704 0.09270577 0.100505784 -0.22223613 0.14748342 -0.17884845 -0.053424098
0.091065206 -0.040040858 0.17975034 -0.12178331 -0.00192872 -0.17311805 -0.06991999 0.23143877
0.12073983 0.032830846 -0.027003247 -0.15375723 0.14647 -0.026827056 -0.045565873 -0.15873714
0.1740564 0.088373266 0.12111686 0.018575598 -0.14941172 0.099358805 0.038660634 0.08366217
00000000: 379e 2abe cb3c 9ebd 5569 9f3b be98 88bd
00000010: 11bc 2bbd 66e5 ea3d 941b 65bd 4e4b 863d
00000020: 7b35 393e 67e1 10be a784 1dbe 0334 c4bd
00000030: 25f2 debc 8370 e3bd 5954 20bd 9a0c 3cbc
00000040: 3a0b 883d 166b 233e f4eb 0e3e c86c 6a3b
00000050: fe69 533b d420 1b3d 8914 0dbc 7205 8ebd
00000060: 9c6b cc3d 080d 8cbe fd38 1dbe 5063 36bd
00000070: 60d1 cdbd a10e 12be f07e 63be cdd8 203e
00000080: 088a 5dbd 4cb7 9ebd 07e5 e1bd aa2f 093d
00000090: 2a74 3ebe 9eb0 0639 b1c1 2bbc e559 3c3d
000000a0: caff 863d 7b4e 18be 8bec b43d 4b0f 1b3e
000000b0: 9ff9 22bd d7a7 813d 1078 23bd ac14 413c
000000c0: 4d58 213c 5b52 cebd 2cfe da3d 2b95 7fbe
000000d0: 3da5 f8bc ffa9 22be 5d73 f4bd 1cc7 34be
000000e0: 59af 7cbe 10d6 d13b a751 85bd 8414 0fbe
000000f0: 80d8 a6bc 2bc9 91bd b54b de3c bbcf 2cbe
00000100: 2267 12bd ce46 643d 1db8 863d 8586 c63c
00000110: a515 343d a866 3a3e 9884 ccbd 8229 f53d
00000120: 7df6 4b3e 6eef 4dbe 37a1 303d 4355 ed3d
00000130: 4db3 89bd a662 893d 20b0 a23c af38 0d3e
00000140: 3474 01bd 0106 ffbd d771 173e 92db bf3d
00000150: 7961 123e e13a 5c3d ebe2 0b3e ee2f 4f3d
00000160: 3c66 2f3d caf4 a1bd 629b c93c 5781 18be
00000170: 4cd6 d13c f0fe 94bc 4b96 d13b 17f2 13be
00000180: 7a8a 933d b2e8 26be 86dc bd3d fad5 cd3d
00000190: de91 63be e505 173e 0c24 37be 3ad3 5abd
000001a0: 6580 ba3d e201 24bd 7910 383e 8769 f9bd
000001b0: 1bcd fcba dc45 31be 3632 8fbd 49fe 6c3e
000001c0: 7246 f73d a379 063d ea35 ddbc 8972 1dbe
000001d0: 3bfc 153e 6ac4 dbbc 48a3 3abd fd8b 22be
000001e0: d73b 323e 0bfd b43d 1e0c f83d da2b 983c
000001f0: 63ff 18be a17c cb3d 9d5a 1e3d 1257 ab3d

weight f4 [128, 128]
-0.011859383 -0.06761887 0.11720042 0.016256813 -0.0032885866 -0.0077102063 -0.039369952 0.0098715825
0.07244084 0.006159904 0.028467499 0.051846415 0.010300804 -0.027047426 0.027993338 -0.03330822
0.06699336 -0.05249464 0.03860472 -0.13161692 0.08752134 0.07994259 0.03583884 -0.0063122096
0.07463394 0.055585846 0.06443778 0.045532547 -0.120044775 0.02365271 0.007394043 -0.0076400707
0.061646827 0.029590346 0.018763635 0.062169462 0.03713386 0.0010367024 -0.0029212798 -0.018915484
-0.047062602 -0.014389839 0.020502493 -0.03432952 0.0012942716 0.05142457 0.078648776 -0.0062917974
0.0015354252 -0.08949688 0.040260997 -0.04450542 0.0784205 -0.028824585 -0.017007798 -0.060306188
0.0031267228 -0.009121649 -0.08361826 0.081296764 0.057085443 -0.08133643 -0.02199934 0.029328354
0.10359938 -0.033938903 0.0677929 0.021115854 -0.02548741 0.06310256 -0.08586908 0.09362267
0.094123095 -0.024069946 0.038665455 0.10677403 0.05218079 0.005416648 0.036808617 -0.042206977
0.0411852 -0.030411491 0.09935293 -0.035449192 0.014225063 -0.022222929 0.06540433 -0.019047681
0.07547151 -0.05449324 -0.016205091 0.028365945 -0.034768127 0.00390017 0.056443222 -0.026021402
-0.04352718 -0.03022274 0.0868786 -0.0061690137 -0.034368366 -0.019595986 0.056489233 -0.027707238
-0.03959094 -0.05138933 0.021103874 0.029774096 0.025307827 0.052578412 0.106048614 0.073355526
0.022605207 0.054300945 -0.028842952 0.026073517 0.06652193 -0.025322117 -0.017896604 -0.018414088
-0.054263607 0.043791987 0.09439243 -0.04366055 0.048014596 0.026663873 0.022269337 -0.03892714
0.09891076 0.07059844 -0.13221754 -0.04508962 0.036513135 -0.017300287 0.017905697 -0.11895586
-0.036943957 -0.03816537 0.04347099 0.043735843 -0.04086514 0.05185006 -0.0020575633 -0.019443627
0.028510205 0.098285995 -0.034826368 0.03223083 0.055417784 -0.061655276 -0.07626664 0.027471948
0.0021457803 0.0023333838 0.004478712 0.03740294 -0.078603886 -0.011137362 0.024954502 -0.009787111
0.08057243 -0.05134227 -0.08214533 0.01751721 0.092676625 0.04445565 -0.049390834 -0.0759366
0.017262565 0.006850828 0.0155235445 -0.06252785 0.005679818 -0.052979957 0.025872597 -0.03184378
0.06979268 -0.10890131 -0.08881535 -0.051034857 -0.019728145 -0.12274316 0.039347157 -0.01646776
0.07797088 0.07960853 -0.052025314 0.0024193535 -0.041898258 -0.07012955 0.03653191 0.038564637
-0.021255853 0.023674836 -0.10605483 -0.015771898 -0.05222339 0.09785315 0.08286876 -0.0059567634
-0.012827367 -0.05285503 -0.0028435932 0.06252784 -0.16100411 -0.10397656 0.0073672724 0.010843712
-0.12062411 -0.15521784 -0.013874837 0.069625504 0.05293714 -0.0917379 -0.06886992 -0.08108806
0.03707637 0.002360022 -0.09526886 0.06690095 -0.0047013583 0.019404577 -0.0058476417 -0.029269591
-0.06803192 0.06704791 -0.12329278 -0.06351262 0.051589843 0.012315885 0.05596946 -0.06904769
-0.03499942 -0.009279675 0.03446841 -0.12255568 -0.039691344 0.016581172 -0.042843215 -0.070413634
-0.0030459098 0.10780059 -0.058782592 -0.082528874 -0.04784319 0.025107237 0.04284947 -0.0879786
0.049945645 0.08365188 -0.006986406 0.06909273 -0.1257902 0.04139534 0.08214662 0.04367586
00000000: dc4d 42bc c37b 8abd c606 f03d 022d 853c
00000010: 5485 57bb e6a5 fcbb 6342 21bd 6bbc 213c
00000020: dd5b 943d 05d9 c93b ac34 e93c e85c 543d
00000030: b4c4 283c 9092 ddbc 4952 e53c 336e 08bd
00000040: d133 893d 9f04 57bd fc1f 1e3d 96c6 06be
00000050: 633e b33d f1b8 a33d bfcb 123d a7d6 cebb
00000060: aed9 983d fcad 633d f4f7 833d 5680 3a3d
00000070: 09da f5bd 54c3 c13c ba49 f23b 8f59 fabb
00000080: 6281 7c3d 7467 f23c 32b6 993c 68a5 7e3d
00000090: ad19 183d f6e1 873a f172 3fbb a5f4 9abc
000000a0: b7c4 40bd 5cc3 6bbc d8f4 a73c 1c9d 0cbd
000000b0: 8ca4 a93a 92a2 523d 9c12 a13d 6c2b cebb
000000c0: 5240 c93a 244a b7bd b7e8 243d 514b 36bd
000000d0: ed9a a03d 8921 ecbc f053 8bbc 9f03 77bd
000000e0: b4e9 4c3b f872 15bc 0d40 abbd eb7e a63d
000000f0: 6dd2 693d b793 a6bd f637 b4bc 0442 f03c
00000100: e92b d43d 8503 0bbd 01d7 8a3d 28fb ac3c
00000110: f9ca d0bc ea3b 813d 21dc afbd 3ebd bf3d
00000120: 9cc3 c03d 562e c5bc ab5f 1e3d 58ac da3d
00000130: 86bb 553d 237e b13b a2c4 163d 39e1 2cbd
00000140: d0b1 283d 8521 f9bc 8d79 cb3d 2c33 11bd
00000150: 3d10 693c dc0c b6bc b5f2 853d e209 9cbc
00000160: cf90 9a3d 4e34 5fbd 8ac0 84bc b35f e83c
00000170: 0669 0ebd ff99 7f3b 0231 673d d62a d5bc
00000180: 8e49 32bd ae95 f7bc 68ed b13d 7025 cabb
00000190: d8c5 0cbd c387 a0bc 4161 673d 4afa e2bc
000001a0: 1c2a 22bd 9e7d 52bd 08e2 ac3c cee8 f33c
000001b0: 5c52 cf3c 765c 573d 0430 d93d 6c3b 963d
000001c0: 8e2e b93c ab6a 5e3d 0e48 ecbc 2198 d53c
000001d0: a63c 883d 5470 cfbc e69b 92bc 24d9 96bc
000001e0: 8443 5ebd 3a5f 333d d150 c13d 68d5 32bd
000001f0: f4aa 443d 326e da3c 2f6e b63c 1172 1fbd
00000200: b991 ca3d ea95 903d 0964 07be e5af 38bd
00000210: cc8e 153d 55b9 8dbc f8ae 923c 219f f3bd
00000220: 8c52 17bd 4a53 1cbd a30e 323d 5b24 333d
00000230: 3462 27bd ba60 543d 2fd8 06bb 3e48 9fbc
00000240: 3c8e e93c 2b4a c93d 18a6 0ebd 7a04 043d
00000250: c2fd 623d 3e8a 7cbd af31 9cbd da0c e13c
00000260: 38a0 0c3b afeb 183b 29c2 923b d333 193d
00000270: 13fb a0bd 7b79 36bc 626d cc3c 1e5a 20bc
00000280: 2803 a53d 464c 52bd d03b a8bd 4180 8f3c
00000290: 3ecd bd3d 2117 363d 0b4e 4abd a684 9bbd
000002a0: 396a 8d3c e97c e03b 7756 7e3c 9a0e 80bd
000002b0: c41d ba3b 8301 59bd c5f2 d33c a06e 02bd
000002c0: 77ef 8e3d a607 dfbd d2e4 b5bd ed09 51bd
000002d0: eb9c a1bc c460 fbbd 7c2a 213d 65e7 86bc
000002e0: 32af 9f3d cc09 a33d 7f18 55bd 048e 1e3b
000002f0: 829d 2bbd 15a0 8fbd 7ca2 153d f4f5 1d3d
00000300: c120 aebc bbf1 c13c 4633 d9bd 1134 81bc
00000310: 32e8 55bd 3b67 c83d 19b7 a93d f430 c3bb
00000320: e029 52bc 847e 58bd 945b 3abb 990e 803d
00000330: 43de 24be aaf1 d4bd 2969 f13b d3a9 313c
00000340: c609 f7bd 6df1 1ebe 4953 63bc d197 8e3d
00000350: 9dd4 583d 15e1 bbbd ac0b 8dbd 7f11 a6bd
00000360: 64dd 173d 99aa 1a3b 521c c3bd 5e03 893d
00000370: da0d 9abb 59f6 9e3c 939d bfbb c8c6 efbc
00000380: 5254 8bbd 6a50 893d ed80 fcbd e812 82bd
00000390: df4f 533d 91c8 493c 3c40 653d e068 8dbd
000003a0: 8d5b 0fbd c709 18bc bf2e 0d3d 79fe fabd
000003b0: 6493 22bd 3dd5 873c 5e7c 2fbd 0635 90bd
000003c0: e39d 47bb 8ec6 dc3d 04c6 70bd e604 a9bd
000003d0: 39f7 43bd b1ad cd3c ed82 2f3d 202e b4bd
000003e0: ce93 4c3d ad51 ab3d 39ee e4bb 7d80 8d3d
000003f0: 25cf 00be 298e 293d 7d3c a83d 75e5 323d

bias f4 [128]
-0.0023799574 0.03344832 -0.119935736 0.0010568162 0.019961601 -0.08345656 -0.0015592042 -0.05665693
-0.11644674 0.07801335 -0.014161964 0.090291195 0.088369176 -0.054622814 -0.024021208 -0.04727429
0.0415352 0.019645086 -0.02368418 0.08484718 -0.019785482 0.03422421 0.0154928975 -0.038375877
0.04435343 0.045435883 -0.019785697 -0.068491094 0.06495998 0.07547038 0.040124785 0.025582397
0.037681405 0.040553614 -0.033955213 -0.05113431 -0.055635452 0.06022292 -0.031620048 0.0533341
-0.09695788 -0.04128646 0.07531582 -0.036095235 0.01949386 0.06748551 -0.008965579 0.052112035
-0.011904369 -0.09269904 -0.049126457 -0.035392165 -0.0350085 -0.02282248 0.04228223 0.09214922
0.08064626 0.039570287 -0.051514827 0.018980704 0.021590754 0.09213488 -0.051252622 0.05111195
0.0738597 -0.010337517 -0.10245627 0.024737755 0.04304656 -0.14429949 0.08170081 0.0061339815
-0.13655826 0.03438877 0.045840602 0.0016161003 -0.06328951 -0.034854367 0.05672753 0.056933485
0.060281586 0.05347865 0.06149013 0.00846608 0.0556572 0.0456159 0.009221145 0.08893179
-0.036584157 0.09269663 -0.0031282064 0.095164604 -0.010830632 0.07665109 -0.029328419 -0.0021373632
0.080506146 0.0068059913 -0.026793035 -0.051407915 0.09175381 0.022041082 -0.024135467 -0.014851205
0.08547072 0.06066349 0.07698857 -0.037774403 -0.028595604 -0.094011344 -0.0850586 -0.015022317
0.0066946293 -0.07846783 -0.035287283 0.012887753 -0.009130889 -0.07266803 0.080661274 -0.04229937
0.024507044 0.056480773 -0.08696128 0.0040859515 -0.08134227 0.09554394 -0.036384683 0.071606055
00000000: 0ff9 1bbb 1b01 093d dea0 f5bd de84 8a3a
00000010: 8386 a33c 46eb aabd 365e ccba 1911 68bd
00000020: a17b eebd 77c5 9f3d 9507 68bc 97ea b83d
00000030: e6fa b43d 2cbc 5fbd 20c8 c4bc b0a2 41bd
00000040: d020 2a3d bbee a03c 5305 c2bc 5cc4 ad3d
00000050: 2a15 a2bc af2e 0c3d ecd5 7d3c 0630 1dbd
00000060: f1ab 353d fa1a 3a3d 9d15 a2bc 0f45 8cbd
00000070: bd09 853d 3790 9a3d e359 243d 2d92 d13c
00000080: d157 1a3d 8c1b 263d 9f14 0bbd 3672 51bd
00000090: 00e2 63bd 4fac 763d 0684 01bd db74 5a3d
000000a0: da91 c6bd fe1b 29bd 2e3f 9a3d 99d8 13bd
000000b0: 96b1 9f3c d835 8a3d 5de4 12bc 6e73 553d
000000c0: 8b0a 43bc ffd8 bdbd d338 49bd 60f7 10bd
000000d0: 1365 0fbd 36f6 babc 2230 2d3d bbb8 bc3d
000000e0: de29 a53d 7414 223d 3601 53bd 6c7d 9b3c
000000f0: 18df b03c 36b1 bc3d 45ee 51bd c45a 513d
00000100: c143 973d b05e 29bc 98d4 d1bd d5a6 ca3c
00000110: 9751 303d 3fc3 13be c152 a73d 91ff c83b
00000120: eed5 0bbe 3ddb 0c3d 5bc3 3b3d 54d3 d33a
00000130: ee9d 81bd 74c3 0ebd 205b 683d 1633 693d
00000140: d3e9 763d 6e0c 5b3d 13dd 7b3d 50b5 0a3c
00000150: cef8 633d bdd7 3a3d 4914 173c df21 b63d
00000160: 45d9 15bd bbd7 bd3d 9802 4dbb a9e5 c23d
00000170: f772 31bc 3ffb 9c3d 2742 f0bc 0113 0cbb
00000180: 68e0 a43d cb04 df3b 117d dbbc 1b91 52bd
00000190: 6ce9 bb3d 808f b43c beb7 c5bc 7852 73bc
000001a0: 460b af3d 487a 783d 2fac 9d3d 55b9 1abd
000001b0: 5441 eabc 0589 c0bd 3433 aebd 2a20 76bc
000001c0: 9f5e db3b beb3 a0bd 6689 10bd 2727 533c
000001d0: b999 15bc fad2 94bd bd31 a53d 1b42 2dbd
000001e0: ffc2 c83c 6258 673d c118 b2bd 72e3 853b
000001f0: c796 a6bd 8bac c33d 1b08 15bd 32a6 923d

weight f4 [128, 128]
0.0122756185 -0.040010635 0.0208117 -0.057354957 0.013712247 -0.028439028 0.106572755 -0.11311097
0.036612924 0.12155137 -0.030770095 -0.03540871 -0.08215361 0.025279704 0.005998485 -0.067173176
0.07158873 -0.10779097 0.02187506 0.023146864 -0.05953374 -0.041477982 -0.060868878 -0.06594049
-0.07816538 0.015428012 0.08093932 -0.122602135 0.063746266 -0.054390907 0.06735946 -0.036377557
-0.07838771 0.058359962 0.05956406 0.008805053 0.081724204 0.00793184 0.0106358435 -0.05643222
0.026640797 -0.10867867 0.04641559 0.01431431 0.12123677 0.0093618175 0.059707854 0.10257631
0.005821539 -0.08481838 0.008026238 0.10006996 0.06665316 0.02921393 0.048632782 -0.0971003
0.06308598 -0.038240734 -0.09801278 0.020810451 -0.032409623 -0.0020631673 0.059003025 0.03635152
0.002414873 -0.09492237 -0.046397 -0.030533204 0.010206023 -0.09273881 -0.054739904 -0.095033705
0.008292628 0.077398136 0.041508056 -0.015305272 -0.016647585 -0.056481782 0.00066118594 0.0314926
-0.08475996 -0.081503145 -0.05867925 -0.13160525 -0.037623156 0.02509756 0.049966283 0.01219618
0.030726818 -0.087225534 -0.0740658 -0.0073064077 0.031420447 -0.055183157 0.023891846 0.017941672
-0.013343703 0.0065771746 0.08858455 -0.013871926 0.044469595 0.07905305 0.04926331 3.6686804e-05
0.037854947 -0.042779215 0.02220782 0.022715969 -0.052348558 0.06050349 -0.05321172 0.04871895
-0.115069136 -0.033567555 0.063020416 0.034004956 0.070855014 -0.027028555 0.010521541 0.045595255
-0.102334626 -0.038107578 0.074102566 0.008365206 -0.018824527 -0.047902968 -0.026360383 0.054763094
0.048781507 -0.008225644 -0.0070528025 -0.062383335 0.016121298 -0.0041765748 0.043380953 -0.010684701
0.008435026 -0.004835479 0.0021527212 0.0010397794 -0.002555109 0.010619832 0.02267955 -0.0073373634
-0.08988114 -0.038579766 -0.073691756 0.005585261 0.012723395 -0.002511726 -0.03496877 1.0982559e-36
-0.09855611 0.051286787 -0.011053899 -0.017783519 -0.0040480006 -0.0007949164 -0.012490496 -0.020374388
0.03209959 -0.011208325 -1.0629852e-36 -0.0003234674 0.021276262 0.03966429 -0.011294312 0.047121283
-0.048366304 -0.01880129 -0.0051191924 -0.077279575 -0.083826534 -0.07429752 0.007654383 -0.053723298
-0.015404939 -1.8166581e-31 -0.06822384 -0.0059525683 -0.041799236 0.010060374 -0.019726396 2.427223e-35
-0.06676 0.051609516 0.02973653 -0.005821356 -0.017531816 -0.00023169769 -0.017618427 0.022957502
-0.07759145 -0.0013025941 -0.0072581433 -0.026683051 -0.055232294 0.020274846 -0.092560366 0.007104855
0.07241608 -0.012576239 -0.015764717 -0.027930757 -0.035434954 0.07248949 -0.058058668 -0.049305595
-0.014967412 0.009268886 -0.045811042 -0.018914465 -0.017828155 0.065528564 -0.038247827 0.0019253152
-0.014960618 -0.010690694 -0.04122093 0.015596585 0.004570485 -0.0073786047 -0.0027915132 0.021440985
0.0052137286 0.0010695913 0.007552462 0.04296768 0.040266495 0.018496994 0.025816295 -0.018804383
0.0023788495 -0.03505848 -0.015773246 0.0072357915 -0.0027726998 -0.0019456315 -0.04549198 -0.0423227
-0.0080193905 -0.0007478499 -0.06171075 -0.04884317 -0.06721521 0.0395656 0.023213122 -0.06600967
-0.023253823 -0.012727127 0.0030172141 0.03710798 -1.1406376e-36 0.08111213 0.03203517 0.00043822604
00000000: ad1f 493c 31e2 23bd 4c7d aa3c 08ed 6abd
00000010: 55a9 603c f7f8 e8bc d142 da3d b9a6 e7bd
00000020: 6ff7 153d edef f83d 9111 fcbc b908 11bd
00000030: 2740 a8bd 6217 cf3c f08e c43b 1792 89bd
00000040: 1d9d 923d 83c1 dcbd 5333 b33c 7e9e bd3c
00000050: a7d9 73bd d1e4 29bd a551 79bd cf0b 87bd
00000060: 2c15 a0bd c6c5 7c3c 84c3 a53d d416 fbbd
00000070: 678d 823d 00c9 5ebd c2f3 893d a200 15bd
00000080: bc89 a0bd db0a 6f3d 72f9 733d 1243 103c
00000090: 055f a73d 8cf4 013c f641 2e3c 7925 67bd
000000a0: cd3d da3c ec92 debd 461e 3e3d 9186 6a3c
000000b0: fc4a f83d 4f62 193c 3990 743d 8713 d23d
000000c0: 9cc2 be3b 42b5 adbd 7b80 033c 7bf1 cc3d
000000d0: 7481 883d 0d52 ef3c 2b33 473d 86dc c6bd
000000e0: 3933 813d 51a2 1cbd edba c8bd ae7a aa3c
000000f0: f4bf 04bd 3436 07bb 28ad 713d 55e5 143d
00000100: d942 1e3b a966 c2bd c80a 3ebd c520 fabc
00000110: 2a37 273c d8ed bdbd f336 60bd 08a1 c2bd
00000120: cedd 073c ea82 9e3d 5a04 2a3d f7c2 7abc
00000130: 8460 88bc 7159 67bd 7053 2d3a 62fe 003d
00000140: a196 adbd 1feb a6bd a759 70bd 87c3 06be
00000150: bd1a 1abd 6699 cd3c 72a9 4c3d 7dd2 473c
00000160: cfb6 fb3c 4da3 b2bd cfaf 97bd 976a efbb
00000170: bab2 003d bc07 62bd d5b8 c33c 6afa 923c
00000180: 8c9f 5abc 5785 d73b d16b b53d 1347 63bc
00000190: c025 363d 91e6 a13d 53c8 493d 28e0 1938
000001a0: ca0d 1b3d 4239 2fbd 2ded b53c d716 ba3c
000001b0: 716b 56bd 82d2 773d 88f4 59bd 868d 473d
000001c0: 5ea9 ebbd 227e 09bd d910 813d c848 0b3d
000001d0: 6f1c 913d fd6a ddbc 8b62 2c3c 17c2 3a3d
000001e0: d194 d1bd b116 1cbd 16c3 973d 380e 093c
000001f0: e535 9abc e735 44bd bbf1 d7bc 444f 603d
00000200: 1ecf 473d dac4 06bc 321b e7bb ab85 7fbd
00000210: d010 843c a6db 88bb 3ab0 313d e20e 2fbc
00000220: 1033 0a3c f072 9ebb ab14 0d3b 3549 883a
00000230: 9e73 27bb cefe 2d3c 77ca b93c 446e f0bb
00000240: 9a13 b8bd d105 1ebd b4eb 96bd 9104 b73b
00000250: c975 503c c59b 24bb 6a3b 0fbd cadb ba03
00000260: c9d7 c9bd 1812 523d 6a1b 35bc beae 91bc
00000270: 17a5 84bb f061 50ba f0a4 4cbc 30e8 a6bc
00000280: dc7a 033d 1fa3 37bc 89db b483 0f97 a9b9
00000290: 8e4b ae3c 0677 223d c70b 39bc 3f02 413d
000002a0: bf1b 46bd 2a05 9abc e6be a7bb c144 9ebd
000002b0: 3fad abbd 4c29 98bd 9ed1 fa3b f60c 5cbd
000002c0: ff64 7cbc d2d0 6b8c f1b8 8bbd c30d c3bb
000002d0: ad35 2bbd 44d4 243c 4099 a1bc a60d 0106
000002e0: 78b9 88bd 8064 533d 069a f33c 13c1 bebb
000002f0: e29e 8fbc e0f3 72b9 8554 90bc 5f11 bc3c
00000300: 44e8 9ebd cebb aaba b8d5 edbb 6a96 dabc
00000310: 423b 62bd 6f17 a63c 4a90 bdbd d8cf e83b
00000320: e24e 943d 920c 4ebc 0225 81bc 0bcf e4bc
00000330: 3e24 11bd 5f75 943d edce 6dbd aaf4 49bd
00000340: e039 75bc 87dc 173c 5ca4 3bbd 82f2 9abc
00000350: 5a0c 92bc d733 863d c1a9 1cbd dc5a fc3a
00000360: 611d 75bc 0528 2fbc 47d7 28bd d288 7f3c
00000370: 02c4 953b 39c8 f1bb d2f1 36bb 01a5 af3c
00000380: edd7 aa3b 8731 8c3a a57a f73b e1fe 2f3d
00000390: 7bee 243d 0287 973c b27c d33c a60b 9abc
000003a0: 79e6 1b3b 7b99 0fbd e536 81bc 381a ed3b
000003b0: 2fb6 35bb 8f04 ffba cc55 3abd 915a 2dbd
000003c0: c363 03bc 5b0b 44ba 69c4 7cbd c70f 48bd
000003d0: 21a8 89bd 8a0f 223d 7229 be3c 1430 87bd
000003e0: cd7e bebc 7185 50bc 74bc 453b 8afe 173d
000003f0: c611 c283 1e1e a63d 4f37 033d b4c1 e539

bias f4 [128]
-0.02009901 -0.029892558 -0.06897179 -0.06734532 0.017635388 -0.04629257 -0.029928304 -0.021123625
-0.07389315 0.07968831 0.02619734 0.0052256314 -0.0011316726 0.088118136 -0.07106772 0.018181842
0.017444195 0.024418348 -0.014845764 -0.03061352 0.08619566 -0.12514837 -0.03931272 0.06800501
-0.036138695 0.01896649 0.104441226 0.014960427 -0.006167699 -0.032014795 0.061880995 0.08975204
-0.016427739 -0.02769096 0.07179947 -0.038121663 0.010495939 0.051017202 0.00629129 0.078754246
-0.116130486 -0.059774637 0.08215809 0.10365404 -0.023857102 0.057337463 0.012202619 0.0127243465
-0.028768552 -0.032571636 0.08766322 0.05813879 0.10624684 0.07990678 0.077901326 0.064182565
-0.03950875 -0.047276776 0.07989727 -0.055617224 -0.03282711 0.07126036 0.04858724 0.028361967
0.050810214 0.080815285 0.043719284 0.04341002 0.07172529 -0.005236059 -0.013237908 0.10331699
0.03204613 0.0056541967 0.010820397 0.095780134 0.019940782 0.03254249 -0.008589289 0.039976962
0.08075594 0.014248873 -0.022209037 0.06679332 0.016940303 0.018719705 -0.08927571 -0.09502452
0.09871074 0.063195705 0.059009798 0.102641724 0.03054947 0.0812187 0.08385402 0.09387848
-0.03645752 0.10804298 0.09260723 0.03246401 0.007270914 0.09838065 0.0257046 0.07516058
-0.009110969 0.020076672 -0.03670149 0.122611985 0.053742994 0.00823685 -0.051877502 0.032849103
0.053790607 -0.029803978 0.023322176 0.10778709 0.05619957 -0.037797358 0.059251875 0.007106457
0.012012362 0.0511128 0.06938847 0.04301829 0.060896523 -0.0045249425 -0.04630018 -0.02210443
00000000: aea6 a4bc 3de1 f4bc 1541 8dbd 58ec 89bd
00000010: 1778 903c 479d 3dbd 342c f5bc 740b adbc
00000020: 4b55 97bd a033 a33d ce9b d63c c63b ab3b
00000030: a254 94ba 4877 b43d f48b 91bd 16f2 943c
00000040: 21e7 8e3c fd08 c83c a63b 73bc 34c9 fabc
00000050: 5a87 b03d e526 00be 6006 21bd 3646 8b3d
00000060: 2b06 14bd 9d5f 9b3c 48e5 d53d 941c 753c
00000070: 691a cabb f221 03bd ed76 7d3d ebcf b73d
00000080: 7793 86bc 27d8 e2bc 9a0b 933d 7625 1cbd
00000090: 29f7 2b3c 6af7 503d 2a27 ce3b e849 a13d
000000a0: d2d5 edbd 40d6 74bd 8042 a83d 9248 d43d
000000b0: f86f c3bc b0da 6a3d 7eed 473c c779 503c
000000c0: 07ac ebbc d669 05bd c688 b33d f122 6e3d
000000d0: f197 d93d 2aa6 a33d bb8a 9f3d 2672 833d
000000e0: edd3 21bd 4ba5 41bd 2ea1 a33d e3ce 63bd
000000f0: b875 06bd f4f0 913d 6a03 473d 5b57 e83c
00000100: 5f1e 503d 7c82 a53d fe12 333d b5ce 313d
00000110: b5e4 923d 3f93 abbb cfe3 58bc dc97 d33d
00000120: ce42 033d d746 b93b 0948 313c 6028 c43d
00000130: da5a a33c 464b 053d 17ba 0cbc e2be 233d
00000140: 5f63 a53d 1b74 693c baef b5bc f0ca 883d
00000150: 64c6 8a3c 115a 993c 2fd6 b6bd 379c c2bd
00000160: db28 ca3d c06c 813d 42b4 713d d335 d23d
00000170: e242 fa3c fd55 a63d a8bb ab3d 5c43 c03d
00000180: 7b54 15bd a345 dd3d dca8 bd3d fbf8 043d
00000190: d940 ee3b cb7b c93d 7492 d23c caed 993d
000001a0: 2c46 15bc d577 a43c 4d54 16bd fe1b fb3d
000001b0: 9d21 5c3d daf3 063c 817d 54bd c88c 063d
000001c0: 8a53 5c3d 7927 f4bc 260e bf3c 7abf dc3d
000001d0: 8531 663d 67d1 1abd 18b2 723d 48dd e83b
000001e0: 7fcf 443c a85b 513d 8b1b 8e3d f233 303d
000001f0: a26e 793d f845 94bb 42a5 3dbd 5914 b5bc

weight f4 [128, 128]
0.05790177 0.06815702 -0.06501635 -0.043198314 -0.06506597 -0.08943258 -0.031593263 -0.0040059597
-0.04420287 0.10579149 -0.11407013 0.035934616 0.1085464 0.010985156 0.032939304 -0.053290334
0.09303097 0.098301195 -0.008335693 0.04665447 0.07174846 0.12507959 -0.007270578 0.09255949
0.037062928 0.081955865 -0.050191388 0.07911721 0.06134969 -0.07264157 0.03487122 0.04027597
-0.025639128 0.0010673034 0.079563774 0.08848549 0.03728663 0.023217823 0.043723624 -0.071676925
-0.025027884 0.024536237 -0.013878065 0.07178711 -0.028899979 -0.03172331 0.0676867 0.086579345
-0.012545458 0.056055494 -0.049128518 -0.06662544 -0.04251262 0.020588763 0.012683534 0.10715025
0.058914244 0.03089099 0.089778274 -0.043091916 0.07033905 0.038719453 -0.012878472 -0.03639679
0.09905956 -0.02456403 0.06158509 -0.018391924 0.09044018 -0.06308854 0.07195893 0.026376618
-0.021439781 0.04218637 0.04387778 0.06586276 -0.015302037 0.034211773 -0.0021432347 0.11420179
-0.05686766 -0.040235728 -0.0675741 0.06426055 -0.07315498 -0.007532905 0.09590149 0.15429401
-0.008778804 0.040052548 0.010402628 -0.040201418 -0.019322556 -0.032625295 0.017387193 -0.0702147
0.043736912 -0.0542795 -4.875321e-05 0.045980603 -0.037371803 0.056913976 0.07818195 -0.037509557
0.07784677 -0.06555463 0.006449999 -0.057539605 0.012724887 -0.0037862507 0.066518664 -0.007947176
0.0071983957 -0.031694967 0.018106064 0.010922276 -0.047004472 0.037825912 0.028731318 0.03632635
-0.023653151 0.0058634584 -0.013454391 0.028298613 0.06120918 0.09664936 0.023039874 0.11838617
0.11905034 0.014971164 0.01198374 0.06490109 0.04012865 0.105269484 -0.012504372 0.05585416
-0.030626293 -0.03794788 0.019939924 0.04497973 -0.029979961 -0.032260004 0.003893158 0.04555058
0.03507799 -0.047709256 -0.12584046 0.010537398 -0.01523359 -0.0035473115 -0.11594495 0.010591908
-0.06772708 0.011478175 0.0011508892 -0.036410768 -0.0320881 0.09364982 -0.035046 0.076735325
0.0027112418 -0.028219838 -0.050094012 -0.030619776 0.040072434 0.12963913 -0.030020365 0.09227971
0.012811679 0.10664724 0.05378684 -0.058633946 -0.012879138 0.10481427 -0.05136469 0.013961127
-0.0232216 0.016127013 0.00015668187 0.09625314 -0.010954388 0.06701276 -0.0642839 0.11493771
0.012555084 -0.020073473 -0.06997514 -0.0040213997 -0.016893102 -0.004484771 -0.019912237 -0.014656623
0.0014187237 -0.043960452 0.0039297105 0.0027426674 0.03767283 -0.090367325 0.040862717 0.0816776
-0.064904965 -0.08537317 -0.011080034 0.021111336 0.071025014 0.018755868 -0.04527331 0.076108955
0.0029884467 0.013402816 0.010695579 0.06465451 0.1083094 -0.0031049896 0.03349899 -0.002461424
0.08251017 0.0047052368 0.011834609 0.0057609254 -0.01275555 0.017638065 -0.050554536 -0.029018186
0.10545366 -0.018441083 -0.035162702 0.00981076 0.07449472 -0.064200416 -0.00853671 -0.086692855
-0.098691024 0.0179889 0.06885835 0.06315988 -0.041908383 -0.032015637 0.0066714594 0.10472257
0.08122085 -0.008767219 0.053772505 0.08444127 -0.04387748 -0.024379294 0.007102427 -0.014821935
-0.032330565 0.051372193 -0.039936494 -0.029305367 -0.024273008 0.012905097 -0.03555085 0.011335375
00000000: 682a 6d3d e895 8b3d 4b27 85bd b7f0 30bd
00000010: 4f41 85bd 6e28 b7bd f067 01bd 6d44 83bb
00000020: 120e 35bd 35a9 d83d 9a9d e9bd 2d30 133d
00000030: 934d de3d 15fb 333c 5deb 063d f746 5abd
00000040: 0587 be3d 2352 c93d 6e92 08bc c218 3f3d
00000050: dbf0 923d dd14 003e 073e eebb d48f bd3d
00000060: 4ccf 173d 7ad8 a73d 7c95 4dbd 3408 a23d
00000070: d049 7b3d 1ac5 94bd 20d5 0e3d 6af8 243d
00000080: 2609 d2bc c2e4 8b3a 55f2 a23d e137 b53d
00000090: deb9 183d 4e33 be3c 8b17 333d 5acb 92bd
000000a0: 4707 cdbc 3800 c93c d360 63bc 1f05 933d
000000b0: a6bf ecbc 4df0 01bd 539f 8a3d 8350 b13d
000000c0: 778b 4dbc 729a 653d fc3a 49bd eb72 88bd
000000d0: b721 2ebd c4a9 a83c 99ce 4f3c 9771 db3d
000000e0: 1050 713d 1a0f fd3c acdd b73d 2681 30bd
000000f0: eb0d 903d 4a98 1e3d 3a00 53bc cd14 15bd
00000100: bddf ca3d 813a c9bc a640 7c3d a9aa 96bc
00000110: b338 b93d 9134 81bd 345f 933d c713 d83c
00000120: 7ba2 afbc 9dcb 2c3d 30b9 333d 0ee3 863d
00000130: 65b5 7abc a521 0c3d 8375 0cbb a1e2 e93d
00000140: 10ee 68bd 38ce 24bd 4a64 8abd 099b 833d
00000150: 47d2 95bd 96d6 f6bb 0068 c43d 40ff 1d3e
00000160: f9d4 0fbc 240e 243d c96f 2a3c 3eaa 24bd
00000170: 564a 9ebc 1aa2 05bd 966f 8e3c bacc 8fbd
00000180: 7a25 333d 2e54 5ebd 5c7c 4cb8 2856 3c3d
00000190: 2d13 19bd a11e 693d dc1d a03d 9fa3 19bd
000001a0: 216e 9f3d 8141 86bd 835a d33b a6ae 6bbd
000001b0: 0b7c 503c bf22 78bb f03a 883d df34 02bc
000001c0: 85e0 eb3b 95d2 01bd 2b53 943c 59f3 323c
000001d0: c387 40bd 58ef 1a3d f15d eb3c f0ca 143d
000001e0: 41c4 c1bc 4122 c03b ce6f 5cbc 7ed2 e73c
000001f0: 7ab6 7a3d 1af0 c53d 1ebe bc3c 7374 f23d
00000200: aad0 f33d 9d49 753c 7357 443c ddea 843d
00000210: f05d 243d 8797 d73d 23df 4cbc 55c7 643d
00000220: fee3 fabc 3c6f 1bbd 0d59 a33c aa3c 383d
00000230: 8998 f5bc 1123 04bd 5a24 7f3b 3f93 3a3d
00000240: f0ad 0f3d c86a 43bd 52dc 00be 0da5 2c3c
00000250: 4f96 79bc 037a 68bb 8c74 edbd af89 2d3c
00000260: 7fb4 8abd f50e 3c3c 6fd9 963a 7523 15bd
00000270: d06e 03bd 7acb bf3d 658c 0fbd 6927 9d3d
00000280: 17af 313b 4a2d e7bc 612f 4dbd 53d6 fabc
00000290: fe22 243d 1fc0 043e 45ed f5bc 25fd bc3d
000002a0: 14e8 513c de69 da3d 974f 5c3d 262a 70bd
000002b0: 0503 53bc dda8 d63d c863 52bd 36bd 643c
000002c0: 3a3b bebc cc1c 843c f84a 2439 5e20 c53d
000002d0: 097a 33bc fc3d 893d 47a7 83bd 7664 eb3d
000002e0: d7b3 4d3c 2071 a4bc 204f 8fbd f2c5 83bb
000002f0: 6763 8abc fcf4 92bb fd1e a3bc 5522 70bc
00000300: 78f4 b93a e00f 34bd cdc4 803b 53be 333b
00000310: d34e 1a3d 8112 b9bd aa5f 273d 9646 a73d
00000320: e5ec 84bd 21d8 aebd 0889 35bc aef1 ac3c
00000330: 9075 913d e8a5 993c 8270 39bd 03df 9b3d
00000340: d1d9 433b 7c97 5b3c 833c 2f3c 9569 843d
00000350: 52d1 dd3d 157d 4bbb 3d36 093d d84f 21bb
00000360: 18fb a83d 632e 9a3b f3e5 413c 25c6 bc3b
00000370: a8fc 50bc b47d 903c 4612 4fbd 8cb7 edbc
00000380: 17f8 d73d c111 97bc c406 10bd 4fbd 203c
00000390: b090 983d 827b 83bd 8fdd 0bbc 068c b1bd
000003a0: 851e cabd 755d 933c 9b05 8d3d f859 813d
000003b0: 20a8 2bbd d422 03bd 429c da3b c978 d63d
000003c0: 1e57 a63d 62a4 0fbc 8f40 5c3d 8bef ac3d
000003d0: dfb8 33bd 16b7 c7bc 7abb e83b b4d7 72bc
000003e0: 0e6d 04bd a66b 523d 7394 23bd cf11 f0bc
000003f0: 30d8 c6bc e66f 533c c59d 11bd 02b8 393c

bias f4 [128]
0.09395366 0.0068406756 -0.03719514 -0.06529464 0.12261663 0.025316346 0.0046865363 0.08324654
0.02902861 0.106291175 -0.06711211 0.05623036 0.10372962 0.040684644 0.05303397 -0.035810284
-0.021721598 0.098330356 0.0058507123 -0.024648143 0.11716297 -0.0022456474 0.074555196 -0.072057016
0.0028130766 0.013290595 -0.021544807 -0.041191574 -0.024886604 -0.014920873 0.10414251 -0.02151923
0.10602631 0.05271282 0.067309625 0.050959922 0.06701665 0.10003026 0.103622355 0.027664633
0.10415277 -0.016481254 -0.020206256 0.06253838 0.07777983 0.06715271 0.09164574 -0.02958186
0.034082476 0.040602762 -0.065691926 0.054098725 0.0717679 -0.10417198 0.090556435 0.02001725
0.082047015 0.074942224 0.016226567 -0.016889494 0.083126456 0.080382526 -0.0056022066 0.06845196
0.036799517 0.06087497 0.098623715 0.011079422 0.07209265 0.07014587 -0.0016056404 0.11947798
0.12165718 -0.05623825 0.074393764 0.090635285 -0.026285522 0.11404777 -0.057740334 0.021565164
0.06761077 0.064680405 0.044969033 0.040740523 0.07968114 0.013469249 0.116833344 -0.028414687
0.031697445 -0.033020057 0.020185364 0.03249328 0.12571135 0.00076686544 0.07392631 0.034658246
-0.068445705 -0.015163712 -0.07026762 0.050629012 0.061457783 -0.038212948 0.12861915 -0.008167518
0.006996888 0.06643184 0.05731397 0.023285825 0.09279102 0.0503009 0.010125277 0.103050984
0.07312333 0.016693644 0.013584451 0.062162742 0.11548724 0.063936196 0.009967087 0.07988421
0.097256236 0.057135217 -0.019390242 0.1013855 0.02062712 0.05843935 -0.030292299 0.1051179
00000000: c76a c03d bf27 e03b ee59 18bd 32b9 85bd
00000010: 6d1e fb3d 3a64 cf3c 8491 993b 297d aa3d
00000020: 68cd ed3c 30af d93d 1372 89bd ce51 663d
00000030: 3270 d43d f1a4 263d 263a 593d cead 12bd
00000040: 7ef1 b1bc 6d61 c93d 55b7 bf3b e7ea c9bc
00000050: 24f3 ef3d b62b 13bb 65b0 983d a192 93bd
00000060: 985b 383b ccc0 593c bc7e b0bc 7fb8 28bd
00000070: fede cbbc ad76 74bc ab48 d53d 1949 b0bc
00000080: 5224 d93d 66e9 573d a1d9 893d 5abb 503d
00000090: 0740 893d aadc cc3d f537 d43d f1a0 e23c
000000a0: 0c4e d53d b203 87bc 9787 a5bc 1f14 803d
000000b0: 084b 9f3d 5c87 893d c3b0 bb3d a855 f2bc
000000c0: 119a 0b3d 154f 263d 7d89 86bd a096 5d3d
000000d0: 0cfb 923d 1e58 d5bd a775 b93d 37fb a33c
000000e0: 4408 a83d 4f7b 993d 94ed 843c d65b 8abc
000000f0: 343e aa3d 989f a43d b792 b7bb 8b30 8c3d
00000100: 17bb 163d 0858 793d 3bfb c93d 7786 353c
00000110: 50a5 933d a3a8 8f3d 5a74 d2ba dfb0 f43d
00000120: 6627 f93d 145a 66bd c25b 983d fe9e b93d
00000130: bc54 d7bc e191 e93d 2181 6cbd 6da9 b03c
00000140: 8477 8a3d 2977 843d 7331 383d 89df 263d
00000150: de2f a33d 20ae 5c3c 5246 ef3d ebc5 e8bc
00000160: 2ed5 013d 0a40 07bd c75b a53c ac17 053d
00000170: 7aba 003e 7807 493a ad66 973d cef5 0d3d
00000180: 432d 8cbd 3871 78bc 78e8 8fbd 5e60 4f3d
00000190: 28bb 7b3d 2e85 1cbd bdb4 033e 0ed1 05bc
000001a0: 2746 e53b 6b0d 883d 0ec2 6a3d eac1 be3c
000001b0: 3809 be3d 5108 4e3d 7de4 253c 650c d33d
000001c0: afc1 953d 1cc1 883c 5191 5e3c 5c9e 7e3d
000001d0: 9384 ec3d fbf0 823d fe4c 233c 559a a33d
000001e0: 472e c73d 9e06 6a3d 49d8 9ebc 33a3 cf3d
000001f0: 35fa a83c 1a5e 6f3d 8e27 f8bc 0e48 d73d

weight f4 [1, 128]
-0.04160665 0.13037463 0.10822683 0.09644607 -0.09968792 0.07811807 0.1677588 -0.09965834
0.047522582 0.070596226 0.07418738 0.1096021 0.112534724 -0.022528706 0.1371019 0.10995812
-0.029193664 -0.0553705 -0.05687641 0.13130885 -0.031487983 -0.059343185 0.081296116 0.07413111
-0.013641338 0.12091531 0.075946584 -0.11687365 0.118965946 0.08654392 -0.045392077 0.15057448
-0.09790521 0.091376424 -0.082843855 -0.06625886 -0.025493462 -0.078028336 0.09500388 0.04545443
-0.08992977 -0.09223474 -0.045608267 -0.04048243 0.08801047 0.071857564 0.057566192 0.041602332
-0.0318069 0.082831815 0.15332435 -0.025284024 0.020912658 -0.011155202 -0.019185271 -0.0903193
-0.040705908 -0.06499377 -0.03059764 -0.095386155 0.114481695 0.095834784 -0.09737669 0.10209619
0.14528883 0.1170855 0.1002989 0.07159622 0.11031252 -0.022683382 0.0033948577 -0.024862207
-0.056074448 0.005575639 0.10898077 -0.036230713 -0.000788021 -0.05348111 0.14996812 -0.019492796
-0.07402702 -0.053334586 0.13953727 0.08196425 0.06411811 -0.04403573 -0.023370124 0.11444692
-0.050754815 -0.07212469 -0.026835192 0.084249616 -0.061417487 -0.0544844 0.100431226 -0.038715534
0.008912961 -0.03784847 -0.051563237 0.11055756 -0.09707229 -0.0005935249 -0.03975644 0.0015546681
0.04032672 -0.06685485 0.11522721 -0.07599263 0.030568456 0.08194571 -0.051986594 -0.079476744
0.107849374 -0.06553688 -0.096568614 0.06500039 -0.018923672 0.033069286 -0.09038883 -0.030238608
-0.04551507 0.086315006 0.046467524 -0.09625849 0.11572792 0.12430615 0.08393375 -0.08564438
00000000: bc6b 2abd ed80 053e 07a6 dd3d 8485 c53d
00000010: 2e29 ccbd 5efc 9f3d f6c8 2b3e ac19 ccbd
00000020: 0aa7 423d c194 903d 8eef 973d 1177 e03d
00000030: 9b78 e63d 1f8e b8bc 7164 0c3e b931 e13d
00000040: 8d27 efbc 2dcc 62bd 3df7 68bd d475 063e
00000050: 8bf9 00bd d711 73bd 947e a63d 0dd2 973d
00000060: eb7f 5fbc 72a2 f73d e289 9b3d 745b efbd
00000070: 6ba4 f33d f03d b13d 0bed 39bd 3230 1a3e
00000080: 8782 c8bd 9023 bb3d 0aaa a9bd bab2 87bd
00000090: aad7 d0bc 52cd 9fbd 6591 c23d 6d2e 3a3d
000000a0: 192d b8bd 91e5 bcbd bccf 3abd e8d0 25bd
000000b0: d53e b43d 0f2a 933d 87ca 6b3d 3567 2a3d
000000c0: f447 02bd baa3 a93d 0f01 1d3e 7120 cfbc
000000d0: 0651 ab3c 4fc4 36bc 6e2a 9dbc 53f9 b8bd
000000e0: 3dbb 26bd 741b 85bd e7a7 fabc d159 c3bd
000000f0: 6175 ea3d 0745 c43d 6e6d c7bd cf17 d13d
00000100: 98c6 143e 86ca ef3d 8269 cd3d 0aa1 923d
00000110: 88eb e13d 80d2 b9bc 437c 5e3b d4ab cbbc
00000120: 52ae 65bd dab3 b63b 4f31 df3d a866 14bd
00000130: 3293 4eba 020f 5bbd 3e91 193e 5baf 9fbc
00000140: 7a9b 97bd 5e75 5abd dce2 0e3e dfdc a73d
00000150: 5b50 833d cf5e 34bd b472 bfbc 2663 ea3d
00000160: 48e4 4fbd 1cb6 93bd 7ad5 dbbc 108b ac3d
00000170: e790 7bbd 092b 5fbd e3ae cd3d 2e94 1ebd
00000180: ab07 123c ff06 1bbd f933 53bd 016c e23d
00000190: d6cd c6bd c896 1bba a6d7 22bd 01c6 cb3a
000001a0: a12d 253d 32eb 88bd 3efc eb3d 06a2 9bbd
000001b0: b36a fa3c 27d3 a73d e5ef 54bd b4c4 a2bd
000001c0: 22e0 dc3d 3338 86bd c4c5 c5bd ed1e 853d
000001d0: d105 9bbc a973 073d c71d b9bd f5b6 f7bc
000001e0: 036e 3abd ecc5 b03d bb54 3e3d 2c23 c5bd
000001f0: c202 ed3d 3994 fe3d 75e5 ab3d 5266 afbd
