bike_sharing/AutogluonModels/ag-20220403_203319/models/NeuralNetTorch_BAG_L2/S1F4/net.params (torch, 215879 bytes, 9 tensors)

weight f4 [128, 22]
000000 6d 3e c6 bd 93 6c 69 3e 70 47 01 be 88 d4 e7 bd
       -0.096798755 0.22795324 -0.12624907 -0.11319834
000010 ad 5c e4 bd 85 11 fa 3d 66 49 b0 3d eb dc 5d 3e
       -0.11150489 0.12210373 0.0860775 0.21666305
000020 bb 45 dc 3c 05 5a 14 3d e9 0b ab bd 6c 10 92 bc
       0.026888719 0.03621866 -0.08351881 -0.017830096
000030 26 15 47 be 44 5d fe bd ae 8b c0 bd 33 72 1d 3d
       -0.19441661 -0.12420133 -0.09401642 0.038438987
000040 22 d0 f6 3d 0d 83 19 3e ab 9b cc bd 5d 91 96 bd
       0.12051417 0.14991398 -0.09990629 -0.073519446
000050 c5 f2 8c 3d 2f c6 39 3e a1 30 22 be ea b6 86 3e
       0.06882242 0.18142007 -0.15838863 0.26311427
000060 ef 25 40 ba 3a 89 35 3d 36 1c 11 3e a1 49 4f be
       -0.00073298713 0.044320323 0.14170918 -0.20242931
000070 06 93 10 be be 7e 1f bd 35 85 bb bd 13 9f 4d 3e
       -0.14118585 -0.03893923 -0.091562666 0.20080213
000080 a1 8b 1f be 8a b7 29 be af c7 36 be fd 6d 03 be
       -0.15580608 -0.16573921 -0.17849611 -0.12834926
000090 51 97 05 be bb b0 63 3e a4 f7 0f 3e 3c 5e 01 3d
       -0.13046004 0.22235386 0.14059311 0.03158401
0000a0 d5 55 83 3d d9 2f 3d bd 8b f2 89 3d df 5c 12 be
       0.064128555 -0.04618821 0.067357145 -0.1429324
0000b0 3a e3 11 be 05 ec c6 be c9 8e 8b 3d f7 92 09 3e
       -0.14246836 -0.38851944 0.068143435 0.13434969
0000c0 1a 5b c5 bd 5e 00 03 bb 3d 6d 05 3e 3f 66 0c 3e
       -0.09636517 -0.0019989233 0.13029952 0.13710879
0000d0 72 a2 1f 3d ce 0a 65 3d a0 87 0f 3e b5 d9 61 bd
       0.03897328 0.055918507 0.1401658 -0.055139262
0000e0 cf 26 d1 3c 06 3f 1d be f6 d1 db bd b3 94 bb bd
       0.0255312 -0.15356073 -0.10733406 -0.091592215
0000f0 fd 09 07 3e d5 f5 0a 3b 59 09 19 be fc ac ad 3d
       0.13187404 0.0021203656 -0.14944972 0.0848026
000100 93 26 ab 3d 59 cc eb 3b 54 58 94 bd b7 5b 61 3e
       0.08356967 0.007195991 -0.0724341 0.22007643
000110 29 6b 1c 3e 49 d0 12 3e f9 4a e0 bd c3 a0 0a be
       0.15275253 0.14337267 -0.109518 -0.13537888
000120 52 d3 19 3d b5 df 3c 3e 10 50 0f 3e 5f 64 46 3e
       0.037555046 0.18444712 0.13995385 0.19374226
000130 f6 d4 b8 3d 20 1e 32 be 0f 29 09 3c 92 30 01 be
       0.09024994 -0.17394304 0.008371606 -0.12616184
000140 22 78 83 be 7d 70 1b 3e 50 ef 03 3e e7 5e fb bd
       -0.25677592 0.1517963 0.12884259 -0.122739606
000150 61 cf dc 3c 5f 16 96 bd 97 7f c6 3c 00 f4 22 be
       0.026954355 -0.07328486 0.024230761 -0.15913391
000160 3d 67 18 3e 07 25 9d be 00 6c 30 3d 27 3b a1 3d
       0.14883132 -0.30692312 0.043071747 0.078726105
000170 88 b2 3b 3e 45 66 9e 3d 7b e1 39 be a0 48 72 bd
       0.18329823 0.0773435 -0.1815242 -0.05915129
000180 7e ec 90 3d 0f c7 82 3d 7f 06 08 be 14 89 e5 bd
       0.07076357 0.06385624 -0.13283728 -0.11207786
000190 ba f6 62 3e b4 83 26 3e c1 54 88 bd 62 90 99 bd
       0.22164431 0.16261178 -0.066567905 -0.07498242
0001a0 fe 99 65 be 10 1a 6b bc 11 c5 cc bd 3e 49 f8 bd
       -0.22422025 -0.0143494755 -0.09998525 -0.12123345
0001b0 e0 da a1 bd c1 6e b4 3d b1 4c 7d be 96 69 63 3e
       -0.07903075 0.08810187 -0.24736287 0.22208247
0001c0 90 b9 08 be 76 f1 27 3e 15 fc 96 3d 32 73 c9 bd
       -0.13352036 0.16400704 0.073722996 -0.09836425
0001d0 08 28 af 3c ca 4f 50 bc 41 dc 07 3d e9 34 62 3c
       0.021381393 -0.012714336 0.033169035 0.01380656
0001e0 c4 eb bb 3c 95 d0 0b bd 6f 5f 00 be 0d 91 ad 3d
       0.02293957 -0.034134466 -0.12536405 0.08474932
0001f0 d6 bc 5e be 8c e4 c8 bd 18 11 e5 bc 0e 04 48 bd
       -0.21751723 -0.09809217 -0.027962252 -0.04883199
000200 53 ee 86 bd a7 e2 33 be 8f 13 ab bd b8 25 b1 3d
       -0.065884255 -0.1756693 -0.0835334 0.086497724
000210 06 e0 5a be de ac 04 be 62 02 a2 3d 31 2f 8c bd
       -0.2137452 -0.12956569 0.07910611 -0.068449385
000220 f0 dc 2a bd 11 ee cc bc ee ba 18 3d 6d d1 23 3e
       -0.04171461 -0.025015863 0.037287645 0.15997858
000230 95 ed 5d 3e 62 99 c6 3d 3d 29 27 3e 66 28 52 3c
       0.21672662 0.09697224 0.16324325 0.012827015
000240 ad 25 2d be 84 c6 15 be 5f be 06 3e 0a 1c 05 bd
       -0.16908903 -0.14626509 0.13158558 -0.032497443
000250 17 d9 05 be 15 97 ec bd 6d a1 5b be df 9c 63 be
       -0.13071094 -0.11552254 -0.21448298 -0.2222781
000260 5f ce f2 bd 3a 1c 03 3e 56 cd 91 3e 94 b0 c1 be
       -0.118557684 0.12803736 0.2847697 -0.3783003
000270 89 7b ee 3d 39 37 13 be 8d 1c 97 bc 80 8a b2 bd
       0.11644656 -0.14376535 -0.018446231 -0.08717823
000280 73 03 2a bd d4 96 57 3b a4 96 cb bd 3d 8d dd bd
       -0.041507196 0.0032896297 -0.09940842 -0.10817955
000290 1e 21 87 3b 48 cb eb bb 83 74 8f bd 88 ab b9 3d
       0.004123821 -0.007195864 -0.07004645 0.0906592
0002a0 f4 a8 12 be 21 ea 9e bb 93 99 3f 3e 78 9b c0 bc
       -0.14322263 -0.0048496877 0.18710928 -0.023511633
0002b0 6f 76 0b 3e 0f 1f d9 3d d1 c7 38 be f4 5e d6 3d
       0.13619398 0.10601627 -0.18044974 0.104673296
0002c0 43 40 2d 3e fd a2 99 be ba 17 f5 3d de 97 17 be
       0.16919045 -0.30007163 0.11967416 -0.14804026
0002d0 42 e8 a8 3c 01 6e b9 bd 03 dc bd 3d 9c bc 49 3d
       0.020618562 -0.09054185 0.092704795 0.049252138
0002e0 af 49 6b 3d 15 c5 e5 3c 40 e8 73 bd f8 10 b9 bc
       0.057443317 0.028048078 -0.059547663 -0.0225911
0002f0 7d 5b d7 bd 9d 01 9c 3d 45 d6 31 3e a2 a1 c1 3d
       -0.10515497 0.07617495 0.17366894 0.09454657
000300 5d fa 3a be 1f 0a 13 bb 5b bd fc bd ff 45 19 be
       -0.18259569 -0.0022436453 -0.12340804 -0.14968108
000310 95 21 51 be 1b be c4 3d e2 63 75 be 5e 8f a8 be
       -0.20422967 0.09606572 -0.23963884 -0.3292188
000320 85 fb 5f bd 03 c3 51 3e e4 20 09 be b3 f5 9c bd
       -0.054683227 0.20484547 -0.13391453 -0.07664051
000330 0f a7 80 bd 06 3d a1 3d ee 03 33 bd 3f 61 a7 3d
       -0.06281864 0.078729674 -0.04370492 0.08172845
000340 7e 95 95 3d 71 17 73 3d 9a e2 19 bd 52 a7 4b bc
       0.07303904 0.059348527 -0.03756962 -0.012430029
000350 8c 52 80 3d 89 64 f1 bc 29 cb 1e bc 82 05 0b 3c
       0.062657446 -0.029466884 -0.009691992 0.0084852
000360 9a e2 a9 bd a7 0b 5d be 15 7a 06 3e 4e 11 cf bd
       -0.08295174 -0.21586476 0.13132508 -0.101107225
000370 d8 ae 2e be 2a 05 a9 3e 51 fe 16 3d ea 63 7f bd
       -0.17058885 0.33011752 0.03686363 -0.062351145
000380 a3 61 09 be 35 79 c3 3d 1f 08 21 be a2 f6 83 bb
       -0.13416152 0.09544603 -0.15725754 -0.0040272037
000390 ac e1 b0 bd a9 55 d1 bc 6c b1 40 3d 70 85 0c 3e
       -0.086367935 -0.025553541 0.047044203 0.13722777
0003a0 98 fe a4 3b f5 e0 1a 3e 9e 51 31 3d 93 ab 33 be
       0.0050352328 0.15124877 0.043290727 -0.17545919
0003b0 c7 d9 7f 3d 36 f8 79 bd 45 33 e9 bd cd 60 e2 3c
       0.062463548 -0.061027728 -0.11386732 0.027634049
0003c0 3e fd a3 3d 0c 2e f7 3d 0d bc 51 be da 06 cd bd
       0.080072865 0.120693296 -0.20481892 -0.100110725
0003d0 38 75 72 3d 8e 2b 65 be dc 24 e8 3d 86 38 09 be
       0.05919382 -0.22379896 0.11335155 -0.13400468
0003e0 a5 6a 1f 3d bb 72 4b bd 7d e8 75 bd db 6b cc bc
       0.038920064 -0.049669962 -0.06003617 -0.024953773
0003f0 d8 dd 0d 3e 57 f9 80 bd f6 c9 0c be 52 0e 78 bd
       0.13854158 -0.06297558 -0.13748917 -0.060560532

bias f4 [128]
000000 7e c4 21 be d9 06 9f bd 1e 77 25 39 34 e2 8b bd
       -0.15797612 -0.07764978 0.00015780001 -0.06830254
000010 8b 34 26 bd 04 3d ef 3d 5c 8c 73 bd 31 78 83 3d
       -0.040577453 0.1168156 -0.05946003 0.06419409
000020 e9 72 2c 3e dd db 10 be 5e c8 13 be 40 11 c4 bd
       0.1684071 -0.14146371 -0.14431903 -0.09573603
000030 d5 c2 db bc 20 0f ec bd 14 2d 33 bd 39 4b 94 bc
       -0.026826302 -0.11526322 -0.04374416 -0.018102275
000040 7d c8 a0 3d cd 93 24 3e 2e 0c 14 3e 5e 51 f8 3b
       0.0785074 0.16072007 0.14457771 0.007578059
000050 1b 31 3c 3b 21 df 14 3d 0e 4b 8c 3b 96 e5 97 bd
       0.0028715793 0.036345605 0.004281408 -0.07416837
000060 71 b2 c8 3d b9 d3 87 be ac 42 1d be da c4 2e bd
       0.0979966 -0.2652872 -0.15357465 -0.0426682
000070 04 cb d1 bd 42 ab 15 be e0 72 64 be bd 9b 1b 3e
       -0.102438 -0.14616111 -0.22309446 0.15196128
000080 ba ff 3a bd 85 2c a6 bd fa 68 e6 bd 62 7a fd 3c
       -0.045654036 -0.0811396 -0.112504914 0.030942146
000090 a8 da 35 be a6 ca 2b bb fe 5b 32 bc a0 77 40 3d
       -0.17759192 -0.0026213317 -0.01088619 0.046989083
0000a0 23 b2 7d 3d 5f a0 17 be 74 90 b7 3d e6 36 1b 3e
       0.061937463 -0.1480727 0.08963099 0.15157661
0000b0 1b 9c 1a bd 21 8f 79 3d 69 fe fd bc 66 bb c8 3c
       -0.03774653 0.060927514 -0.031005101 0.024503421
0000c0 b5 27 06 3c 8d 4e af bd 8f d1 c3 3d a2 77 83 be
       0.008188178 -0.08559904 0.095614545 -0.2567721
0000d0 02 25 06 bd 9f b4 1f be 5e 39 e1 bd 95 b3 3b be
       -0.032750137 -0.15596245 -0.1099727 -0.18330224
0000e0 44 2d 7a be f2 40 a3 3c 80 4c a3 bd 91 d3 16 be
       -0.2443133 0.01992843 -0.079735756 -0.14729144
0000f0 4c fe 9e bc 70 67 7f bd fd 2a d0 3c 64 35 1a be
       -0.019408368 -0.062354505 0.025411123 -0.1505943
000100 35 6e 63 bd de cc 4b 3d c5 d5 88 3d 7b d9 03 3d
       -0.055525023 0.049755923 0.06681398 0.032189827
000110 cf 89 39 3d 2b e1 2f 3e f0 db d2 bd f2 8b 07 3e
       0.04529744 0.17175739 -0.10295856 0.13236979
000120 56 a7 4d 3e 5b df 4c be 5e 39 29 3d dd 46 f3 3d
       0.20083365 -0.20007078 0.041314475 0.118787505
000130 72 86 8e bd f9 0c 91 3d 29 b7 b8 3c 0f 0e 0f 3e
       -0.06959237 0.070825525 0.022548275 0.13970207
000140 e5 a0 00 bd c0 04 ff bd 29 ba 17 3e 87 6d d9 3d
       -0.03140344 -0.12452078 0.14817108 0.10616594
000150 56 a4 14 3e 87 66 51 3d 65 bd 0c 3e 5d 38 50 3d
       0.14515814 0.05112317 0.13744123 0.050835002
000160 3d c5 04 3d 97 92 8d bd 29 c4 f7 3c 6b cb 1a be
       0.032414664 -0.069127254 0.030244904 -0.1511666
000170 cf b1 d7 3c 68 5a 9e bc ec b4 b3 38 75 d7 10 be
       0.026329903 -0.019330218 8.5690845e-05 -0.1414469
000180 20 d2 86 3d 21 24 2c be 5b 41 c3 3d 46 80 cb 3d
       0.06583047 -0.16810657 0.0953395 0.099365756
000190 f7 53 63 be b3 41 34 3e 72 f9 2b be 9e 35 60 bd
       -0.22199999 0.17603187 -0.16794375 -0.054738633
0001a0 ff cc b0 3d 8b 57 2a bd 64 b4 36 3e 4a 89 fe bd
       0.0863285 -0.041587394 0.17842251 -0.124285296
0001b0 d0 1d a5 3a 9b bd 2a be 21 b6 9f bd 7c c9 65 3e
       0.0012597386 -0.16673891 -0.0779841 0.22440141
0001c0 e8 b6 fb 3d 66 f1 23 3d d6 3f f7 bc 6c 8e 1e be
       0.12290746 0.040025137 -0.030181807 -0.15484017
0001d0 b4 e8 0e 3e 9a a6 c7 bc 1a 26 44 bd ad 4c 26 be
       0.13955957 -0.024371434 -0.0478879 -0.16240187
0001e0 ad a8 28 3e 49 4f b4 3d ca c3 00 3e 76 ae ab 3c
       0.16470595 0.08804185 0.12574688 0.020957213
0001f0 c4 8e 29 be a9 92 d2 3d 2f 3e 08 3d 4c 88 b1 3d
       -0.16558367 0.102818795 0.033262428 0.08668575

weight f4 [128, 128]
000000 40 97 fa bb bf 81 b5 bd fc 67 cf 3d fb 91 5e 3c
       -0.007647425 -0.08862638 0.10127255 0.013584609
000010 ac 2f 53 3a 39 86 43 bc e4 38 2f bd 37 80 3c 3c
       0.0008056115 -0.011933857 -0.042778865 0.011505178
000020 8a e5 9c 3d 60 86 23 bc a3 03 df 3c 65 91 3d 3d
       0.076609686 -0.009980768 0.027223414 0.046281237
000030 3e e3 29 3c af e2 dc bc 84 19 02 3d 58 0b fb bc
       0.01036912 -0.02696356 0.031762615 -0.030645058
000040 33 d5 8d 3d c6 e9 30 bd bd 89 33 3d b7 b1 fd bd
       0.0692543 -0.043191694 0.04383253 -0.12387412
000050 3f 9a 94 3d f3 f6 9c 3d ec e0 56 3d 31 bf a9 3b
       0.072559826 0.07664289 0.052460596 0.0051802625
000060 92 a7 9c 3d af 1c 3e 3d 48 fa 83 3d a7 4d 1f 3d
       0.07649149 0.046414074 0.06444222 0.038892414
000070 c6 7a e7 bd f2 23 72 3c 79 48 8a bb 5a a2 00 bc
       -0.11302714 0.014779078 -0.004220065 -0.007851208
000080 9c c1 68 3d c0 dc 06 3d 13 a4 2d 3c 3b 44 84 3d
       0.056825265 0.032925367 0.0105982 0.064583264
000090 7e 90 91 3c 30 4a fa 3b 3a 22 54 bb 6d f1 ac bb
       0.017769095 0.0076382384 -0.0032369033 -0.0052778036
0000a0 de e5 30 bd 19 ab 41 bc 8b 2e 65 3c e6 55 17 bd
       -0.04318797 -0.011820578 0.0139881475 -0.036947154
0000b0 30 41 69 3b 16 80 37 3d b8 f5 a9 3d c7 1b c2 bb
       0.0035591833 0.044799887 0.0829882 -0.0059237215
0000c0 cc ef 9f ba bf 8d c2 bd c2 ae 2d 3d b5 2e 39 bd
       -0.0012202202 -0.09499692 0.04240299 -0.04521056
0000d0 e3 77 96 3d b9 88 10 bd d3 10 98 bc d1 b2 62 bd
       0.07347085 -0.03528664 -0.01856271 -0.055346314
0000e0 06 88 32 bc 4b ad c5 bb 7f 28 8c bd ad 50 a2 3d
       -0.010896688 -0.006032621 -0.068436615 0.07925544
0000f0 32 45 69 3d 95 34 95 bd 81 d5 cc bc ff 4a aa 3c
       0.056950755 -0.0728542 -0.02500415 0.020787714
000100 7d 5c d1 3d cb 72 11 bd bf 20 93 3d 51 63 a3 3c
       0.10222719 -0.035509866 0.0718398 0.019944819
000110 e2 1b f0 bc 19 41 7a 3d ca 72 a2 bd 10 a0 b8 3d
       -0.02931017 0.06109724 -0.079320505 0.090149045
000120 37 22 c5 3d e1 b5 e7 bc e0 7d 19 3d c1 00 e0 3d
       0.096256666 -0.028284969 0.03747356 0.10937644
000130 10 74 4a 3d 9d b5 48 3c cc 5a 03 3d bd 31 34 bd
       0.049427092 0.012250331 0.032069013 -0.043992747
000140 ca c4 16 3d f3 94 dd bc 73 42 b6 3d c4 f3 1f bd
       0.036808766 -0.027048564 0.08899393 -0.039050832
000150 19 20 99 3c a5 21 03 bd a1 20 69 3d 52 11 9e bc
       0.018692063 -0.032014508 0.056915883 -0.019295368
000160 71 5c 98 3d 0d d1 80 bd 0e c6 ab bc 44 8d 06 3d
       0.07439507 -0.06289873 -0.020968463 0.032849565
000170 32 c4 06 bd 03 cd 2b 3b d5 a2 41 3d 52 8e 0e bd
       -0.03290195 0.0026214726 0.04727443 -0.034803696
000180 95 6e 46 bd b0 40 0e bd 7d f4 b8 3d 3c fb 82 bc
       -0.048445303 -0.03472966 0.090310074 -0.015988939
000190 47 a1 fb bc 4b ac 6e bb f1 b5 7d 3d 1d 73 04 bd
       -0.030716551 -0.0036418613 0.06194109 -0.032336343
0001a0 09 9f 3b bd aa f1 50 bd 43 29 c6 3c 61 c4 ed 3c
       -0.045805965 -0.05101172 0.024189597 0.029024305
0001b0 30 08 e4 3c 74 7d 45 3d d6 93 ca 3d c8 69 96 3d
       0.027835935 0.048215345 0.09891479 0.07344395
0001c0 5c 27 db 3c d6 f0 87 3d ad 59 df bc 23 24 bd 3c
       0.026752166 0.06637733 -0.02726444 0.02308852
0001d0 58 94 8c 3d 3d c2 bb bc 99 d3 f2 bc ca de 81 bc
       0.06864232 -0.022919768 -0.029641913 -0.015853304
0001e0 54 db 66 bd 53 1e 39 3d 3d de b0 3d c9 4e 7e bd
       -0.05636151 0.045194935 0.086361386 -0.062086854
0001f0 e4 a5 31 3d d7 33 e1 3c a1 9c cb 3c 3c d1 4f bd
       0.043371096 0.02749054 0.02485496 -0.05073665
000200 7a a2 fc 3d 08 3c a6 3d 08 e0 05 be a3 22 f3 bc
       0.123356774 0.08116919 -0.13073742 -0.029679602
000210 97 84 a5 3c 9a 9b 7e bc b7 bf 8c bc c8 bb ac bd
       0.020204825 -0.015540028 -0.01718126 -0.08434254
000220 65 74 91 bd 9b 03 06 bd 20 c3 0a 3d de 65 ca 3b
       -0.071022786 -0.032718282 0.033877492 0.0061766943
000230 db 00 4c bd d5 fe 67 3d 38 e0 97 3b 38 05 80 bc
       -0.049805503 0.05663951 0.0046348833 -0.015627488
000240 f2 c1 03 3d 16 e1 bd 3d 3c 73 21 bd 65 7b 5c 3d
       0.032167383 0.09271447 -0.039416537 0.053828616
000250 38 78 3b 3d 28 c6 44 bd a6 29 c0 bd 71 0b d0 3c
       0.045768946 -0.04804054 -0.09382944 0.02539608
000260 44 af b0 3a c1 57 05 3c 6b 75 af bc ae eb 47 3d
       0.0013479968 0.008138598 -0.021418294 0.048808746
000270 08 ad a3 bd 6c f3 29 bd 82 8f 14 bd 7a e0 a2 bc
       -0.079919875 -0.04149191 -0.036269672 -0.01988243
000280 44 6b b3 3d fa 1a 22 bd 33 29 b6 bd 18 9e 15 3d
       0.08760694 -0.039576508 -0.08894577 0.036527723
000290 56 34 bc 3d 39 42 1e 3d 11 77 48 bd 45 d8 82 bd
       0.0918967 0.038637374 -0.048941676 -0.063889064
0002a0 85 29 dd bc 2e d2 cd 3c 69 85 b1 3c 34 89 a3 bd
       -0.026997337 0.025124636 0.02167006 -0.07985154
0002b0 a8 92 d7 ba 0b 70 2c bd f4 3b 3f 3d 36 f4 24 bd
       -0.0016446905 -0.04209904 0.046688035 -0.04027196
0002c0 ba 54 a7 3d c5 cc a8 bd d2 5e be bd 7f 81 42 bd
       0.08170457 -0.08242182 -0.09295429 -0.04748678
0002d0 a0 f7 86 bc b6 62 cb bd 55 b2 3f 3d 56 5c 5f bb
       -0.016475499 -0.09930937 0.04680093 -0.0034082136
0002e0 e0 f2 72 3d 29 6c 89 3d bd a7 4d bd e4 fa b6 3c
       0.059313655 0.06710083 -0.050208796 0.02233643
0002f0 a8 d5 03 bd 68 11 8a bd 2f df 10 3d 4c f8 8d 3d
       -0.03218618 -0.06741601 0.035369094 0.069321245
000300 ff 36 64 3c 1b c7 7d 3b 65 da dd bd d2 62 8c bc
       0.013929128 0.0038723412 -0.10832671 -0.017136965
000310 d0 2b 3a bd b3 f6 ae 3d 48 25 b5 3d 41 3a 50 bb
       -0.04545194 0.08543148 0.088450015 -0.0031773003
000320 29 4e 85 bc 4a da 1c bd 1c 50 b6 3c ec 10 a3 3d
       -0.016272621 -0.038294114 0.022254996 0.07962212
000330 f6 84 05 be 22 be bb bd 9a a6 75 3c 82 f7 84 3c
       -0.13039002 -0.09167124 0.014993334 0.016231302
000340 44 e8 21 be 9f 83 0d be 17 f5 c7 bb 87 68 66 3d
       -0.15811259 -0.1381974 -0.006102215 0.05625203
000350 0b 4e 13 3d 29 90 85 bd 58 0e 54 bd ef 14 ae bd
       0.0359631 -0.06521637 -0.05177149 -0.085000865
000360 99 20 61 3d 55 0d 35 bc 41 8e e8 bd 85 1a 79 3d
       0.05496273 -0.011050542 -0.11355258 0.060816307
000370 00 22 95 3a 5a d5 56 bc 28 72 8e 3b 35 f9 91 bd
       0.0011377931 -0.01311239 0.0043471046 -0.071276106
000380 28 2a 99 bd 2c b6 84 3d 04 8d e4 bd e4 49 56 bd
       -0.07478744 0.06480059 -0.11159709 -0.05231656
000390 e0 6d 36 3d 9a 0d 08 bd ca 14 84 3d b1 99 88 bd
       0.04453838 -0.033216096 0.06449278 -0.06669939
0003a0 50 d5 fe bc 00 56 2c 3c 26 c9 dc 3c f6 9f f9 bd
       -0.031107575 0.010518551 0.026951384 -0.12188713
0003b0 e2 79 19 bb af 1e 8a 3c 82 37 88 bd 0e 56 71 bd
       -0.0023418595 0.016860334 -0.06651212 -0.05891996
0003c0 2b 40 74 3c 5b ce d0 3d 0f 98 34 bd 5c d0 2d bd
       0.014907877 0.10195609 -0.044090327 -0.042435035
0003d0 b0 d2 36 bd d0 74 19 3c cb eb 44 3d 50 ab 5c bd
       -0.04463452 0.009366229 0.048076432 -0.053874314
0003e0 d7 ca 2c 3d b2 ce 8b 3d cd c1 2a 3c 99 cc 9d 3d
       0.04218563 0.068265334 0.010422182 0.077050395
0003f0 08 57 d7 bd 39 ec 0c 3d 76 c6 3d 3d c0 e0 3a 3c
       -0.10514647 0.034404967 0.046331845 0.011406124

bias f4 [128]
000000 98 7a 48 3a d8 ed e7 3c ac cd d8 bd d4 be e5 ba
       0.00076476624 0.028311655 -0.10586104 -0.0017528185
000010 61 70 23 3c 07 ef 73 bd 61 b4 ce bb f5 53 6f bd
       0.009975524 -0.059554126 -0.006308124 -0.058429677
000020 08 80 f5 bd 9d d8 99 3d af 08 29 bc 34 ce b3 3d
       -0.11987311 0.07512019 -0.010317012 0.087795645
000030 f5 e7 c0 3d be a7 57 bd 1c cd bb bc 30 c6 53 bd
       0.09419242 -0.052650206 -0.022924952 -0.05170268
000040 a1 61 31 3d 9f e9 cf 3c e8 4f 1b bd 2c b0 aa 3d
       0.043305997 0.025379954 -0.037918 0.08334383
000050 86 97 b1 bc 54 f7 30 3d fc 2e 21 3c b0 df 0e bd
       -0.021678697 0.04320462 0.009837862 -0.034881294
000060 6b 13 39 3d d7 31 36 3d de b0 e5 bc 32 27 9a bd
       0.045184534 0.044481125 -0.028038438 -0.07527007
000070 02 e1 88 3d be 9f 98 3d 0d 14 33 3d 4c 2d c9 3c
       0.06683542 0.074523434 0.043720294 0.024557732
000080 56 a5 1a 3d 96 3c 42 3d e0 a3 7f bc 79 96 4a bd
       0.037755333 0.04742106 -0.015603036 -0.04945991
000090 8c 2b 60 bd 41 b4 85 3d 24 23 a7 bc dc 01 6c 3d
       -0.05472903 0.06528521 -0.020402499 0.05761896
0000a0 b6 28 bc bd 3a 00 1b bd 8f fa 9a 3d 00 6e 1e bd
       -0.091874525 -0.037842013 0.075673215 -0.038679123
0000b0 c4 d2 91 3c 66 8d 8d 3d 91 ef 78 3c 81 96 5d 3d
       0.017800696 0.06911735 0.015193836 0.05409861
0000c0 40 cd 30 bc 8b 59 b7 bd 2d c7 0b bd 96 e2 02 bd
       -0.010791123 -0.08952626 -0.034125496 -0.03195437
0000d0 a5 23 cf bc 71 f5 02 bd 07 61 0f 3d 6c ef bb 3d
       -0.025285551 -0.031972352 0.03500464 0.091765255
0000e0 72 6a 9b 3d 08 6e 0b 3d e6 d4 63 bd ae 15 a8 3c
       0.07588662 0.03404048 -0.055622958 0.02051815
0000f0 13 34 9f 3c c6 f7 bc 3d 67 a8 4c bd 61 ac 4f 3d
       0.01943401 0.092269465 -0.04996529 0.050701503
000100 42 60 9f 3d f6 00 b2 bb 77 0a d6 bd b2 fd c7 3c
       0.077820316 -0.0054322435 -0.10451215 0.024412964
000110 5c 8b 2d 3d ca 6b 0b be f8 85 a0 3d d4 74 fc 3a
       0.04236923 -0.13615337 0.078380525 0.0019260892
000120 f3 c9 02 be 5a aa e4 3c 9c 45 29 3d 6a 54 2e 3a
       -0.1277235 0.027913261 0.04132615 0.0006650152
000130 13 c7 7d bd f2 4a 16 bd 4b 39 7a 3d b6 ec 67 3d
       -0.06195743 -0.036692567 0.061089795 0.05662223
000140 39 b8 6a 3d 94 70 53 3d 6b 5e 69 3d cd 54 a7 3b
       0.057304595 0.051621035 0.05697481 0.0051065446
000150 c1 5a 5a 3d 0f b5 42 3d db b6 da 3b f7 92 ab 3d
       0.053309206 0.047535952 0.00667463 0.08377641
000160 0a c8 12 bd b3 b4 b6 3d 20 e7 9e 3b ca 1f a1 3d
       -0.035835303 0.089211844 0.0048493296 0.078673914
000170 a7 2a 7a bd 13 b6 94 3d d1 51 1a bd 4b 96 5e bb
       -0.061075833 0.072612904 -0.037675682 -0.0033964093
000180 0e 7a 90 3d 35 21 11 3c 2d c2 e2 bc ba 8c 1e bd
       0.0705453 0.008858015 -0.02768048 -0.038708426
000190 02 34 b7 3d 87 1f e4 3c 47 e8 c9 bc 47 13 85 bc
       0.089454666 0.027847065 -0.024646891 -0.016244544
0001a0 2f 98 b0 3d c8 f7 80 3d f7 2f 8f 3d 64 86 22 bd
       0.08622777 0.062972605 0.069915704 -0.039678946
0001b0 f7 dc e6 bc a6 17 dc bd 83 1d a9 bd 5c 4a 65 bc
       -0.028181536 -0.10746698 -0.08257582 -0.013994779
0001c0 0a 80 8f 3c 76 ac 8c bd c8 00 18 bd d0 b8 59 3c
       0.017517108 -0.06868832 -0.03711012 0.013288692
0001d0 cd 3a 1c bc bf d3 a1 bd f7 d7 ae 3d d1 67 2a bd
       -0.009535504 -0.079017155 0.08537286 -0.041602913
0001e0 3b 48 b7 3c 82 2e 73 3d e0 5a af bd 9e 72 2a 3b
       0.02237331 0.059370525 -0.08562255 0.0026008259
0001f0 9f e0 f6 bd 7a cd c0 3d 13 09 19 bd e5 cf 9c 3d
       -0.12054562 0.094141915 -0.03736217 0.0765684

weight f4 [128, 128]
000000 ce 84 8c 3c a0 6e 1f bd 0a 91 ac ba 3d 02 3c bd
       0.01715317 -0.03892386 -0.0013165784 -0.045900572
000010 5f 67 4d 3b b4 e5 97 bc 9e 95 ef 3d 29 f8 99 bd
       0.0031342132 -0.018542148 0.11698459 -0.07518036
000020 e0 90 48 3d b7 2d 1a 3e 16 52 2a bd 4c b9 b4 bb
       0.04896629 0.15056501 -0.04158219 -0.005515253
000030 22 86 a2 bd cc 34 2e 3d 93 73 01 bc f8 b4 9b bd
       -0.0793574 0.04253082 -0.00790109 -0.076028764
000040 43 78 8d 3d a6 d8 ac bd 15 1c 73 3d 03 d4 62 bc
       0.06907704 -0.0843976 0.059352953 -0.013844493
000050 48 7d 76 bd d0 ba 33 bd c6 f1 3a bd 25 3a 80 bd
       -0.06017807 -0.04387933 -0.04564073 -0.0626109
000060 92 c3 82 bd 5f 5a 92 3c 76 c2 b0 3d 62 1a be bd
       -0.06384958 0.017865358 0.086308405 -0.09282376
000070 9f f7 9d 3d 33 80 f9 bc bb d1 9e 3d ac 7d 03 bd
       0.077132456 -0.030456638 0.07754847 -0.032102272
000080 f2 10 98 bd 33 61 60 3d 48 d2 9e 3d 21 a5 67 3c
       -0.07425107 0.054780196 0.07754952 0.014138491
000090 9c 2a c0 3d f4 dd f3 3c c4 dc a5 3c 8c 80 35 bd
       0.09383127 0.029768921 0.02024687 -0.044312045
0000a0 1f c2 bf 3c 65 43 8a bd f0 2e 98 3d 05 79 c1 3c
       0.023407994 -0.06751136 0.074308276 0.023617277
0000b0 3f 44 ea 3d a4 43 81 3b a3 82 86 3d 0c 14 d5 3d
       0.11438798 0.003944831 0.06567886 0.10404214
0000c0 29 0a 20 bb f9 0d 70 bd 5c f9 1a 3d 5b f2 cf 3d
       -0.0024420118 -0.058607075 0.037835464 0.101536475
0000d0 dd c3 89 3d ae 67 62 3d 57 ea 80 3d 34 88 fa bd
       0.06726811 0.055274658 0.06294697 -0.1223301
0000e0 33 0c 55 3d 30 c6 38 bd ad 44 94 bd e6 e1 d0 3c
       0.052013587 -0.04511088 -0.07239661 0.025498342
0000f0 60 b3 ba bc 0b 85 4b 3d 11 15 ab 3d ce 35 36 3d
       -0.02279061 0.049687427 0.083536275 0.044484906
000100 c0 c5 9b 3c c5 aa 72 bd 0f 07 62 bd e8 9a c9 bc
       0.019015193 -0.05924489 -0.055182513 -0.024609998
000110 db a7 0e 3d ce 39 e9 bd 97 06 cc bc 11 88 a5 bd
       0.03482805 -0.113879785 -0.024905486 -0.08082593
000120 c3 65 0d bc 96 f6 9c 3d 95 c3 55 3d eb bd ba bc
       -0.008630219 0.0766422 0.052188475 -0.022795638
000130 f1 c7 a8 3b 72 5f 93 bd c1 94 3f 3c 51 58 f7 3c
       0.005150788 -0.07195939 0.011693181 0.03019348
000140 63 a0 96 bd 74 cd cc bd 3c 09 36 bd 43 08 e1 bd
       -0.0735481 -0.100001246 -0.0444424 -0.10987904
000150 72 20 07 bd 37 c4 47 3d 7d 6b 6e 3d 51 68 70 3c
       -0.032989927 0.04877111 0.058207978 0.0146733085
000160 e2 bf 18 3d 06 4d cd bd 9e f5 89 bd 01 bf 9a 3c
       0.03729237 -0.10024457 -0.06736301 0.018889906
000170 70 37 1f 3d d3 58 78 bd a8 8e cd bb bc f6 19 3c
       0.03887123 -0.060631584 -0.0062731095 0.009397205
000180 24 50 4a bd a1 1a 1e 3b 9f 53 b6 3d e4 4f 0d 3c
       -0.049392834 0.0024124759 0.08902668 0.008625004
000190 19 72 78 3d 5b 94 15 3c 85 1d 5f 3d cb be 03 3d
       0.060655687 0.009129609 0.05447151 0.032164376
0001a0 c2 79 a4 3c e7 83 d6 bc ad 7f 24 3d 2d 5a 97 3c
       0.02007759 -0.026185943 0.040160824 0.018475616
0001b0 d9 32 1b bd d5 34 53 3d 6f cf a3 bd 8c 35 61 3d
       -0.03789029 0.051564056 -0.07998549 0.054982707
0001c0 74 ec e3 bd 76 0d a7 bd 2c 7a 84 3d 6f eb 30 3d
       -0.11129084 -0.08156864 0.06468615 0.043193277
0001d0 ac 7e 94 3d 7d 19 e2 bc c7 4f ed 3c ac 2c 4b 3d
       0.07250723 -0.027600044 0.028968705 0.04960315
0001e0 e5 f1 a6 bd 96 38 bd bc 4c 2c b2 3d c2 a3 09 3c
       -0.081516065 -0.023098271 0.08699855 0.008400859
0001f0 63 f7 70 bd 51 f3 17 bd 91 fd 3b 3c bd 1c 81 3d
       -0.058829676 -0.03709728 0.011474029 0.063043095
000200 f7 25 64 3d fa b1 d4 03 5c f0 b5 bb c8 95 74 bd
       0.05570027 1.25011015e-36 -0.0055523347 -0.059713155
000210 62 d2 d0 03 6c c0 b2 bb a2 e3 17 3d bf 6d d3 bb
       1.2273443e-36 -0.0054550674 0.037082322 -0.0064522917
000220 15 27 01 3c ec 23 47 bc 18 d5 6c 3c 3e a8 6c bb
       0.007882853 -0.012154561 0.014455102 -0.0036111022
000230 54 50 22 bc 5e 21 67 8c 0c 4b 40 3c 7c 4b c9 8e
       -0.009906847 -1.7805634e-31 0.011736643 -4.9623014e-30
000240 37 ce b0 bd 63 ef 3c bd 8d c6 88 bd a3 f3 fc 39
       -0.08633082 -0.046126734 -0.066784956 0.0004824671
000250 16 83 f0 3b 5f a2 10 bb 30 05 01 bd ca db ba 03
       0.0073398454 -0.0022069437 -0.031499088 1.0982559e-36
000260 04 6d bb bd 06 b0 3a 3d 33 19 a7 bc d8 1f 90 bb
       -0.091516525 0.045578025 -0.020397758 -0.0043983273
000270 66 ee 00 bc 47 1f ea ba 84 42 9c 3b e0 d3 84 bc
       -0.007869339 -0.0017862105 0.0047686715 -0.016214311
000280 fb 30 08 3d 7e 33 52 bc 89 db b4 83 af 24 13 3c
       0.033249836 -0.0128296595 -1.0629852e-36 0.008980914
000290 c0 95 a4 3c 12 0e 20 3d ce a7 a0 bb a5 f8 2b 3d
       0.020090938 0.03907592 -0.0049028164 0.041985173
0002a0 57 95 43 bd 1e bd 84 bc 89 e6 21 bd 77 4f 98 bd
       -0.047749843 -0.01620346 -0.039526496 -0.07437032
0002b0 3a a7 ac bd 3b fd 73 bd 89 3a 48 3b 89 ca 52 bd
       -0.084303334 -0.05956767 0.0030552468 -0.051462684
0002c0 f0 f6 58 bc d2 d0 6b 8c 98 ee 7f bd 12 f0 2c bc
       -0.013242468 -1.8166581e-31 -0.0624834 -0.010555284
0002d0 dc d8 23 bd 0f 38 01 84 53 98 b3 bb a6 0d 01 06
       -0.040001735 -1.5189618e-36 -0.005480805 2.427223e-35
0002e0 56 fc 8e bd 45 9e 5d 3d ec 82 0e 3d 20 44 39 bc
       -0.06981723 0.054106016 0.034792826 -0.011307746
0002f0 4b e8 31 bb db 06 9c 3b cb 0d ca 3a c7 96 a8 3c
       -0.0027146514 0.0047615594 0.0015415488 0.020579709
000300 17 d9 9c bd f1 c2 41 bc 0f 0a 2c bc 8f e3 3a bd
       -0.07658594 -0.011826263 -0.010500445 -0.045627173
000310 3d 08 40 bd df 3c aa 3c 9c a5 c5 bd bf 08 96 3c
       -0.046882857 0.020780979 -0.09650728 0.018314717
000320 6d 07 98 3d fd 71 e1 bb 72 0b 81 bc 63 0a 47 bc
       0.07423291 -0.0068800435 -0.015752528 -0.0121484725
000330 fe 37 e3 bc c1 02 90 3d 86 a2 6f bd 4f b6 54 bd
       -0.02773666 0.07031775 -0.058504604 -0.051931676
000340 fb 9d d3 bb 22 f0 84 3b 4e e6 1b bd ad 16 a2 bb
       -0.0064580417 0.0040569464 -0.038061433 -0.004946551
000350 95 3e 93 bc 51 24 78 3d 77 e1 45 bd 9c b4 68 3b
       -0.017974177 0.06058151 -0.048310723 0.0035508042
000360 25 e9 40 bc e6 07 2c bc cd 33 51 bd 3d 54 3f 3c
       -0.011774336 -0.01049993 -0.05107479 0.011677799
000370 29 e8 ca 03 e2 ca 63 bc 0d ca 3c bc c7 d7 90 3c
       1.1925794e-36 -0.0139033515 -0.011522782 0.017681016
000380 3e 85 ba bb 4c e0 67 bc 01 8f b7 03 d6 76 18 3d
       -0.0056921532 -0.014152598 1.0788605e-36 0.037222706
000390 c0 07 19 3d df 3d 3f 3b 49 1e 26 3c 2b e3 ea bb
       0.037360907 0.0029181165 0.0101390565 -0.007168194
0003a0 d0 7f 0d 3b a0 1a 1e bd 45 26 5a bc f4 68 92 bb
       0.0021591075 -0.03859961 -0.013314788 -0.004468078
0003b0 ba f8 c6 bb d0 62 28 bc 72 97 39 bd 9b 0d 06 bd
       -0.006072131 -0.010277465 -0.045310445 -0.03272782
0003c0 c9 eb 1f 3a 1f 22 a3 b9 f3 8d 89 bd 6c a5 36 bd
       0.00061005034 -0.00031115205 -0.06716528 -0.044591352
0003d0 0d a2 72 bd 60 ba 0c 3d 60 68 fe 3c 9a 99 89 bd
       -0.059236575 0.03435743 0.03105563 -0.0671875
0003e0 42 c9 85 bc 25 e9 05 3c 18 44 f3 bb 6d 87 e7 3c
       -0.016331319 0.008173262 -0.007423889 0.028262818
0003f0 c6 11 c2 83 70 d7 99 3d d3 e1 22 3d 95 28 1c bd
       -1.1406376e-36 0.075117946 0.039766144 -0.03812464

bias f4 [128]
000000 a0 57 19 bc 0b 74 11 bd 83 cd 58 bd 81 00 7e bd
       -0.00935927 -0.035511058 -0.052930366 -0.0620122
000010 3c cf 6b 3c a4 7b 0b bd 66 ae 1e bd d4 e4 cd bc
       0.01439267 -0.03405346 -0.038740538 -0.025133528
000020 47 57 8b bd 1a 65 9f 3d 89 b6 f3 3c 4d ea 8d 3b
       -0.06803756 0.077829555 0.029750125 0.0043309093
000030 43 73 20 3b 03 c7 bd 3d 06 74 a5 bd 50 49 30 3c
       0.0024482764 0.09266474 -0.0807877 0.010759667
000040 ea 3e 61 bc 18 b5 98 3c 7d 2a 69 bc 97 22 35 bd
       -0.01374791 0.01864104 -0.014231321 -0.04422244
000050 a0 21 b3 3d 19 c2 05 be de 71 f1 bc 49 43 85 3d
       0.08746648 -0.13062324 -0.029473241 0.06506974
000060 4a 76 27 bd 04 1c dd 3c aa 89 de 3d 65 ba 8b 3c
       -0.040884294 0.026990898 0.10866101 0.017056653
000070 39 c2 c7 bb 21 b4 f3 bc 80 f8 84 3d 98 51 98 3d
       -0.006096151 -0.029748978 0.0649271 0.07437438
000080 32 37 74 bc 7d 2f fa bc 6d 1c a1 3d 45 29 54 bc
       -0.014905738 -0.030540222 0.0786675 -0.012949293
000090 7f bc 19 3c 92 50 3f 3d 3e d7 e4 3b f2 fb 9d 3d
       0.00938332 0.046707697 0.0069836667 0.077140704
0000a0 f5 0e dc bd e9 0c 43 bd 0b 57 b1 3d 9a 25 cf 3d
       -0.1074504 -0.047619734 0.0865918 0.10114594
0000b0 db 20 42 bd 69 c7 4a 3d 45 7e 7f 3c cd a0 2b 3c
       -0.047394615 0.04950658 0.01559407 0.01047535
0000c0 7e 4a 0e bd 91 fa 73 bb 72 76 b9 3d 25 27 6a 3d
       -0.03473901 -0.0037228207 0.09055795 0.057166237
0000d0 64 92 e7 3d f5 1d c1 3d bf d4 97 3d 55 86 6e 3d
       0.11307219 0.09429542 0.07413625 0.058233578
0000e0 8d cb 11 3a 43 98 2d bd df 33 b0 3d 22 b7 80 bd
       0.00055616425 -0.042381536 0.086036436 -0.0628493
0000f0 48 77 f8 bc 12 26 87 3d e8 74 3b 3d b5 14 06 3d
       -0.030330315 0.06599058 0.045765787 0.03273459
000100 c3 aa 51 3d c9 f5 aa 3d a2 37 50 3d a9 f7 1f 3d
       0.05118824 0.08347661 0.050834306 0.039054547
000110 08 4b a0 3d b1 86 36 bc 09 fb d4 bb 29 bd b6 3d
       0.07826811 -0.011140511 -0.0064996523 0.08922798
000120 99 d5 c8 3c 0a 40 ff 3b 6c 33 5e 3c d2 f9 be 3d
       0.024515914 0.0077896165 0.013562065 0.09324993
000130 b9 23 dd 3c a9 9d a1 3c a2 d7 cd bb 6b b4 2d 3d
       0.026994573 0.019728499 -0.006281809 0.042408388
000140 d2 cb b8 3d 37 73 c4 3c 18 c2 41 bd 99 be 78 3d
       0.09023251 0.02398072 -0.047304243 0.060728643
000150 90 a1 a6 3c cb 18 98 3c 3f 69 b6 bd 28 5d a9 bd
       0.02034071 0.01856651 -0.08906793 -0.08269721
000160 42 d6 c0 3d 2b 76 82 3d 4c 19 84 3d f9 d8 ea 3d
       0.094158664 0.06370195 0.064501375 0.114671655
000170 1e 5a fa 3c da a4 b1 3d 57 1c b3 3d 49 7b c4 3d
       0.03056055 0.08674021 0.0874564 0.09593827
000180 a8 3b 1a bd c2 d5 ec 3d c6 d0 c3 3d 28 17 1e 3d
       -0.03765455 0.115642086 0.09561305 0.038596302
000190 f3 ac b7 3c 5e ce c9 3d 36 cd d2 3c 62 c2 99 3d
       0.022421336 0.098538145 0.025732618 0.07507779
0001a0 5f 2e 43 bc 96 c9 bd 3c 56 d9 40 bd d4 6c eb 3d
       -0.011912911 0.023167413 -0.047082268 0.11495367
0001b0 64 4b 4e 3d d4 ba 41 3c a5 2c 7b bd 71 75 05 3d
       0.050364867 0.011824328 -0.061321873 0.032582704
0001c0 e7 1f 96 3d 23 27 42 bd f6 ea 7e 3c 33 13 f9 3d
       0.07330304 -0.047400605 0.015558949 0.12161865
0001d0 c9 a2 35 3d f9 4f 72 bc 7a 21 6c 3d 31 8f 07 3c
       0.044344697 -0.014789575 0.057649113 0.008273886
0001e0 61 90 f9 3b 56 ff 58 3d 50 43 95 3d f1 9a 47 3d
       0.0076160883 0.052977882 0.072882295 0.048731748
0001f0 60 5c 88 3d af cb 18 bc 0c 04 34 bd b0 3e 72 bc
       0.06658244 -0.009325906 -0.043949172 -0.014785454

weight f4 [128, 128]
000000 21 96 8e 3d 8a 98 8a 3d 55 5a e0 bd 13 14 b1 bc
       0.069622286 0.06767376 -0.109547295 -0.021616017
000010 fc 02 85 bd 38 e1 b5 bd 07 4d ee bc cb c1 c4 bb
       -0.0649471 -0.08880848 -0.029089464 -0.0060045472
000020 1d b8 48 bd 80 32 de 3d d4 14 f4 bd 12 fb 11 3d
       -0.04900371 0.10849476 -0.11918035 0.03563983
000030 a9 9f db 3d 9c f7 0a 3c 18 26 10 3d 91 11 5f bd
       0.10723812 0.008481886 0.03519258 -0.054460112
000040 da 73 e0 3d 5c b9 cf 3d 42 b5 20 bc 20 72 21 3d
       0.10959597 0.10142776 -0.00980884 0.03941548
000050 4f 38 91 3d df 97 0e 3e f8 6f 67 3d 5c 0b c1 3d
       0.07090818 0.13925122 0.056503266 0.09425995
000060 0a 4f 28 3d 46 61 b0 3d be 83 4d bd 3b 63 a2 3d
       0.041091003 0.086123034 -0.050174467 0.07929083
000070 cf 62 7a 3d ff a9 96 bd 8a c7 05 3d f4 47 f5 3c
       0.061129387 -0.07356643 0.032661 0.029941536
000080 57 64 ea bc c5 6f 92 3b 91 5b a0 3d e6 28 a9 3d
       -0.028612299 0.0044688904 0.07829965 0.08259754
000090 17 48 39 3d 4f 69 da 3c 47 df 34 3d cb 2c b5 bd
       0.045234766 0.026661543 0.044158246 -0.08846434
0000a0 e4 bf a1 bc c7 aa ba 3c c8 9a 84 bc e4 44 92 3d
       -0.01974482 0.022786511 -0.016187087 0.07142046
0000b0 82 84 7d bc 9c 8a 37 bd eb a1 8b 3d aa ee b4 3d
       -0.015473487 -0.044809923 0.06817993 0.08834584
0000c0 16 e9 52 bc 29 77 33 3d 3f 49 4b bd c3 c0 84 bd
       -0.012872955 0.04381481 -0.0496304 -0.06482079
0000d0 11 25 1e bd 07 56 89 3c 09 5e 1e 3c 3d 6e d7 3d
       -0.038609568 0.016764654 0.009665974 0.10519073
0000e0 4c 89 ab 3d 66 8c ee 3c 6a 16 b7 3d fb 87 30 bd
       0.08375797 0.029119682 0.08939822 -0.04309843
0000f0 bf 05 90 3d f4 c5 21 3d 63 42 6c bc d2 ae 18 bd
       0.07032346 0.039495423 -0.014420125 -0.037276097
000100 4d a8 d1 3d e9 7b bd bc 3d ce 7c 3d ce 52 86 bc
       0.10237179 -0.023130374 0.06172012 -0.016396906
000110 1f 0a ba 3d fb 67 80 bd 33 f0 90 3d f7 70 4d 3c
       0.09083962 -0.06269833 0.07077064 0.01253914
000120 09 87 ba bc ac e2 2c 3d 74 0b 3f 3d 28 1b 82 3d
       -0.022769468 0.04220836 0.046641782 0.06352836
000130 2b f6 7a bc 35 02 32 3d 27 4b 29 bb 38 91 ee 3d
       -0.01531748 0.043459136 -0.0025832148 0.11648792
000140 83 70 70 bd ad f1 1e bd 28 ff 8d bd e9 86 4e 3d
       -0.05870105 -0.0388047 -0.06933433 0.05042163
000150 55 f0 8b bd dd e0 12 bc f8 93 c8 3d 6a e6 17 3e
       -0.06832949 -0.008964744 0.09793848 0.1483399
000160 66 9d 1c bc 5a c8 1e 3d ee 24 1b 3c 44 37 2b bd
       -0.009559011 0.03876529 0.009469254 -0.041800752
000170 c9 0e a0 bc b1 13 f6 bc 94 f4 8d 3c 7a ae 8e bd
       -0.0195383 -0.030038686 0.017328538 -0.069668725
000180 0c 6e 63 3d 44 8c 68 bd ff ce c9 ba a5 c4 3f 3d
       0.05552487 -0.056774393 -0.0015396773 0.046818394
000190 d6 21 37 bd e9 e4 6b 3d ca 0e 9f 3d fe 81 17 bd
       -0.044710003 0.057591353 0.07766493 -0.036989205
0001a0 1c a6 a2 3d f2 9a 85 bd 1a b8 41 3c 5c 96 81 bd
       0.07941839 -0.06523694 0.011823678 -0.06327507
0001b0 f1 c4 62 3c b6 c6 a7 bb cd 4b 7e 3d 2e 70 15 bc
       0.0138409 -0.0051201237 0.062084008 -0.009120984
0001c0 3f 61 c8 3b f7 52 ed bc 44 28 73 3c 35 c8 ed 3b
       0.0061151083 -0.028970225 0.014841143 0.0072565326
0001d0 f7 4b 3e bd b5 5c e2 3b 38 75 ef 3c 34 73 0f 3d
       -0.046459164 0.006908024 0.029230699 0.035021976
0001e0 11 3f b5 bc 05 a9 a5 3b 7b b0 68 bc d2 9f f1 3c
       -0.022124799 0.005055549 -0.0142022325 0.029495154
0001f0 40 2d 7b 3d 9c 61 cd 3d 85 c5 b7 3c 37 34 f3 3d
       0.06132245 0.10028383 0.022433052 0.118751936
000200 ae 72 db 3d 1b ea c7 39 54 a5 8a 3c 7e 22 98 bc
       0.10715233 0.0003813066 0.016924538 -0.018571135
000210 93 94 05 3d a2 24 dc 3d bf ec 88 ba 0a 68 6e 3d
       0.032612395 0.10749175 -0.0010446532 0.058204688
000220 5d db 13 bd 7c 10 45 bd 55 ea c5 3b f4 3b 2b 3d
       -0.036097873 -0.048111424 0.0060398974 0.041805223
000230 60 8b 98 bd a5 ff a5 bd 10 a4 df ba f7 d0 bf 3c
       -0.07448459 -0.08105401 -0.0017062444 0.023415072
000240 62 d8 00 3d d0 75 39 bd f6 bb 04 be b4 41 c3 bc
       0.03145636 -0.04527837 -0.12962326 -0.02383504
000250 00 fc 96 bc df 46 ad 83 3a af 43 bd 11 c7 d2 bb
       -0.01843071 -1.0184297e-36 -0.04777453 -0.006432422
000260 05 c9 22 bd ac 5e a7 3c d7 43 a6 bc 5e b4 18 bd
       -0.03974249 0.020430885 -0.02029602 -0.037281387
000270 de 40 9f bd a2 a8 a9 3d be e8 95 bd 92 19 77 3d
       -0.07776044 0.08284117 -0.07319783 0.06032712
000280 5a 32 b1 bb e2 8c cd bc 57 4a 8c bd e7 e3 da 3a
       -0.0054076137 -0.025091592 -0.06850117 0.00167
000290 17 09 12 3d ba 97 dd 3d b7 73 4a bd 1b 52 9f 3d
       0.0356532 0.10819955 -0.04942676 0.07779332
0002a0 a2 ce 23 3c 03 27 e3 3d 20 82 0c 3d c4 1f 9d bd
       0.009997996 0.11091425 0.034303784 -0.076720744
0002b0 4d 37 de ba 7d 46 b9 3d 4f 48 a0 bd b6 5b 77 3c
       -0.0016953737 0.09046648 -0.07826292 0.015097549
0002c0 2f e9 62 bc 78 3b a4 bb 7b 1c 67 bd 21 21 b4 3d
       -0.013849541 -0.005011972 -0.056423645 0.08795381
0002d0 8b 31 0c bd a8 9b 82 3d e7 62 96 bd 2e e4 c7 3d
       -0.034226935 0.06377345 -0.07343083 0.09760319
0002e0 75 fd 13 bd 2b 18 54 bd 59 81 df bd 31 22 08 bc
       -0.036130387 -0.05178086 -0.10913343 -0.008308933
0002f0 0b 91 c7 bc 56 8f a5 ba fc 47 36 bd 7b ed 5d bd
       -0.024361154 -0.0012631218 -0.044502243 -0.054181557
000300 77 81 1e bc d3 87 92 bd 6e 9f 60 bc 1e 06 12 bc
       -0.0096744215 -0.07154813 -0.013709886 -0.008912591
000310 cf 13 01 bd aa 59 cc bd fb ae ee 3c 06 cf 98 3d
       -0.03151303 -0.099780396 0.029136172 0.074613616
000320 e6 bd b4 bd 18 07 ee bd 24 4c c5 b8 8b 00 10 bd
       -0.08825283 -0.11622447 -9.407874e-05 -0.035156768
000330 a2 ae 85 3d 2d 68 cb ba 1a 1f 7b bd 75 eb 00 3d
       0.06527449 -0.0015518718 -0.061308958 0.03147455
000340 bf 98 e3 bc 72 60 27 bb 45 85 e3 3c b8 27 b5 3d
       -0.027782796 -0.0025539664 0.027773509 0.088454664
000350 c7 2d b8 3d b9 6b ab bc 4c 4a 19 3d d1 39 b0 bb
       0.08993106 -0.02092539 0.03742437 -0.005377986
000360 10 c6 9b 3d 61 6b 6b bc ed da 01 bc ad 68 00 bd
       0.07606137 -0.014368863 -0.007925731 -0.031349827
000370 d9 9f 07 bd 9b bc 0a bc 10 76 6e bd db f5 26 bd
       -0.033111427 -0.008467819 -0.058218062 -0.04076181
000380 cb ac c4 3d 39 77 51 bd ba c5 51 bd 04 52 8c bb
       0.0960327 -0.05113909 -0.051213957 -0.004282238
000390 b0 0c a2 3d 58 fb 9c bd 77 75 10 bd 7b 8e f3 bd
       0.07912576 -0.076651275 -0.035268273 -0.1189241
0003a0 0e 88 06 be 56 16 a9 bc 87 ff d7 3c 4d 0d 3d 3d
       -0.13137838 -0.020640533 0.026366962 0.046155263
0003b0 84 d5 20 bd 9f 83 8b bd 7a 9f bd ba f4 ad e7 3d
       -0.039266124 -0.06812214 -0.0014467083 0.11312476
0003c0 d4 f9 20 3d b4 a9 96 3b 88 ef 7d 3d 02 4c 72 3d
       0.039300755 0.004597867 0.061996013 0.059154518
0003d0 69 0e 91 bc a2 8e 07 bd 5e 26 b5 39 13 6a 9a bc
       -0.017707067 -0.03309501 0.00034551596 -0.018849408
0003e0 3e ad 3b bd a6 b2 2a 3d be d5 ae bd 5a 3b 51 bd
       -0.045819513 0.04167428 -0.08536862 -0.051081993
0003f0 08 9f 60 bd 5b f2 47 bd 45 ba 1e bd 25 3e 7c 3b
       -0.054839164 -0.048815113 -0.03875186 0.003848919

bias f4 [128]
000000 48 58 c3 3d 89 7a 29 bc c8 6f 2e bd b1 ae 8a bd
       0.09538323 -0.010344156 -0.04258707 -0.06771601
000010 a0 b7 fe 3d 89 7f c6 3c 59 53 b1 bc 79 8b ad 3d
       0.124373674 0.024230735 -0.021646189 0.08473868
000020 29 a7 7e 3c 7e ed d7 3d 20 ec 8a bd 32 1f 6d 3d
       0.015542784 0.10543345 -0.067833185 0.05789108
000030 2c d7 cc 3d a5 09 31 3d 08 19 8c 3d 31 8b bf bc
       0.10001978 0.04322209 0.06840712 -0.023381801
000040 0e 71 70 bd d5 d3 cd 3d ee a1 7c 3c e2 ba e3 bc
       -0.058701567 0.100501694 0.015419466 -0.027799074
000050 2d c1 f5 3d a5 e8 15 39 c6 5c 90 3d 8b 8e 8f bd
       0.11999736 0.00014296414 0.07048945 -0.0700961
000060 fd 48 f2 3b 4d 3e 57 bb 67 e7 b1 bc fc b7 16 bd
       0.007393955 -0.003284353 -0.021716787 -0.036796555
000070 67 43 8d bc 1f 5e 07 bd c9 be e1 3d 2a 25 b5 bc
       -0.017244054 -0.033048745 0.110227175 -0.022112448
000080 c9 e9 dc 3d 11 b1 4e 3d 1a ad 8e 3d 9e c8 5a 3d
       0.107867785 0.050461832 0.0696661 0.05341398
000090 c6 23 8f 3d 40 f0 d1 3d fd 25 ce 3d 46 14 de 3c
       0.06989245 0.10250902 0.100658394 0.027109277
0000a0 f6 bb da 3d 1a 64 7c bc e8 ff 9a bc a0 38 8f 3d
       0.10680382 -0.015404725 -0.018920854 0.06993222
0000b0 47 35 95 3d 74 08 64 3d 00 1e a4 3d 2d 5f f0 bc
       0.072855525 0.055672124 0.080135345 -0.029342258
0000c0 a3 54 18 3d ce 8f 22 3d fb e1 59 bd 51 f1 66 3d
       0.03719009 0.039687924 -0.053194027 0.05638248
0000d0 d6 9e 90 3d 0d 45 d0 bd 8f fd be 3d 51 71 af 3c
       0.070615456 -0.101694204 0.09325706 0.021416338
0000e0 b2 f3 ad 3d 0f 18 9c 3d 14 c3 50 3b 60 45 7f bc
       0.08493747 0.07621776 0.0031854557 -0.015580505
0000f0 09 2f b0 3d 8f 57 ac 3d b3 e3 41 bb 06 8e 86 3d
       0.08602721 0.08415138 -0.0029585182 0.065700576
000100 df bd 49 3d 87 34 59 3d 1a be da 3d 50 13 a7 3c
       0.04925334 0.05302861 0.1068079 0.020394951
000110 d1 f2 95 3d fe a9 9a 3d bf 3d c5 ba bf ad fc 3d
       0.07321704 0.07551955 -0.0015048309 0.12337827
000120 79 25 fe 3d 71 32 66 bd d0 b6 6d 3d 80 85 bd 3d
       0.12409491 -0.05620045 0.05803567 0.09253979
000130 f4 e1 cc bc c4 04 f1 3d c1 ad 6b bd 34 23 04 3d
       -0.025010087 0.11768487 -0.05753875 0.032260135
000140 2a 9e 8d 3d 9b c8 89 3d 1b 8b 22 3d b6 b1 2b 3d
       0.06914933 0.067277156 0.039683443 0.041917525
000150 88 be 9e 3d 1c c7 82 3c dd 02 f2 3d 77 30 a3 bc
       0.07751185 0.015964083 0.118169524 -0.01992057
000160 ad a6 13 3d f3 d7 a0 3c 96 db b6 3c 21 7f 11 3d
       0.036047626 0.019634223 0.022321504 0.03552163
000170 08 b4 03 3e 90 95 8b 3a 05 9f 91 3d 5f 39 1e 3d
       0.12861645 0.0010649431 0.07110409 0.038628932
000180 e9 8d 9c bd fd 3c 3d bc 6f a1 95 bd 97 18 4a 3d
       -0.07644255 -0.011550185 -0.07306182 0.049339857
000190 9f 15 7f 3d 09 ea 1c bd 87 80 06 3e 1e a4 c1 3a
       0.06227648 -0.03830913 0.13134967 0.0014773642
0001a0 af cb ab 3b ee 22 87 3d 86 ac 5e 3d 5b 66 c3 3c
       0.005242787 0.06598459 0.05436375 0.023852518
0001b0 f7 db ba 3d a6 a8 46 3d b7 32 59 3c b6 97 d7 3d
       0.09123986 0.04850068 0.01325672 0.105269834
0001c0 fb bf c9 3d 37 0a a3 3c 43 d9 8f 3c e1 41 6e 3d
       0.098510705 0.019902332 0.017559653 0.058168296
0001d0 9b e2 ee 3d 1e c3 7b 3d 2c ea 56 3c b5 e7 af 3d
       0.11664315 0.061465375 0.013117354 0.085891165
0001e0 7c 90 c9 3d 14 67 0b 3d a8 d5 a0 bc ff 0a d4 3d
       0.09842011 0.03403385 -0.01963313 0.1035366
0001f0 3d 6e bc 3c 63 c7 49 3d 81 f7 e5 bc a3 d7 db 3d
       0.023001784 0.049262416 -0.02807212 0.10734489

weight f4 [1, 128]
000000 59 9d 30 bd e4 22 0d 3e 92 8c d2 3d c8 b5 ca 3d
       -0.04311881 0.13782841 0.10280718 0.09897953
000010 5c e4 cc bd 53 23 b1 3d 29 46 85 3d 82 24 cd bd
       -0.100044936 0.08649316 0.065075226 -0.10016729
000020 e0 dc 6c 3d 68 4b 98 3d f4 1c 99 3d 88 56 e2 3d
       0.05782783 0.074362576 0.074762255 0.11051661
000030 3f 03 ea 3d 07 66 b7 bc d5 a5 ff 3d 24 a6 e1 3d
       0.114264004 -0.022387518 0.12482802 0.11018017
000040 dc 80 27 bd 53 4d 63 bd 4c 6a 63 bd 0a 8d 04 3e
       -0.040894374 -0.055493664 -0.055521294 0.12944427
000050 17 4d 06 bd 85 c1 77 bd 9d e3 b7 3d 1a f1 9a 3d
       -0.032788362 -0.06048729 0.08978961 0.07565518
000060 7e d5 69 bc c7 fa 51 3d 31 3b 9b 3d 46 d2 dd bd
       -0.014272092 0.05126455 0.07579649 -0.10831122
000070 b3 67 00 3e 11 2e cd 3d 39 85 58 bd d5 6e 21 3e
       0.12539558 0.10018552 -0.052861426 0.15764935
000080 0c 49 ca bd 56 40 f7 3d 94 e4 aa bd bc 16 88 bd
       -0.09877214 0.12072818 -0.08344379 -0.06644961
000090 65 e8 d1 bc 41 71 9a bd 3e f0 c3 3d ea 20 30 3d
       -0.02562351 -0.07541133 0.09567307 0.04300014
0000a0 cc 4c bf bd 0c 8a bf bd 04 68 3b bd ad c4 2d bd
       -0.0934082 -0.09352502 -0.045753494 -0.042423893
0000b0 84 8c af 3d b1 90 7b 3d 8d 90 56 3d 26 06 2a 3d
       0.08571723 0.061417285 0.052383948 0.04150977
0000c0 f7 de 05 bd e7 d1 b1 3d 14 e3 21 3e 73 b4 d2 bc
       -0.03268334 0.08682614 0.1580928 -0.02572081
0000d0 3b b3 27 3d 91 40 34 bc 0d c8 b5 bc ca 65 b9 bd
       0.040942412 -0.011001722 -0.022190118 -0.09052618
0000e0 03 23 27 bd c4 e9 85 bd 25 12 b4 bc 94 31 c4 bd
       -0.040804874 -0.06538728 -0.021981308 -0.09579769
0000f0 a2 c2 f3 3d bb b3 c6 3d f7 8d c8 bd 25 58 c0 3d
       0.11902358 0.097022496 -0.09792703 0.09391812
000100 93 99 d1 3d 05 5a ed 3d 6a e6 bf 3d be ac a1 3d
       0.1023437 0.115894355 0.0937012 0.07894276
000110 99 73 ea 3d f0 e4 b6 bc d7 24 d7 3b 19 1b d4 bc
       0.1144783 -0.022325963 0.006565671 -0.025891827
000120 6e 59 6a bd 20 94 90 3b ab 8c d6 3d 85 26 17 bd
       -0.057214193 0.004412189 0.10476049 -0.03690197
000130 9a 57 e6 3a 5a d7 62 bd db 34 1f 3e 3b 3b a7 bc
       0.0017573715 -0.055381157 0.15547507 -0.020413985
000140 7f 1b 9b bd a9 92 62 bd cc 97 00 3e a8 81 9e 3d
       -0.07573604 -0.055315647 0.12557906 0.07739574
000150 fc 0b 81 3d 58 3d 36 bd ce 8c c4 bc 61 53 fe 3d
       0.06301114 -0.044492096 -0.023992922 0.12418247
000160 19 37 54 bd 7c 01 8c bd 0c 82 de bc b1 34 75 3d
       -0.051810358 -0.068362206 -0.02716162 0.059864704
000170 02 3c 80 bd 9b 01 5c bd b3 f1 d1 3d 2b 37 26 bd
       -0.062614456 -0.05371247 0.102511786 -0.040579956
000180 66 08 e3 3c eb 3d ff bc cb 7c 44 bd ee 4e e8 3d
       0.027713966 -0.031157454 -0.047970574 0.1134318
000190 1e ad c7 bd 90 87 39 bb 79 21 24 bd b1 2f 49 b8
       -0.09749816 -0.0028309561 -0.040070985 -4.796655e-05
0001a0 96 0c 30 3d 1b fa 88 bd 47 a7 f6 3d a5 49 9c bd
       0.042980753 -0.06688329 0.12043624 -0.07631234
0001b0 7d fd 03 3d ac 11 ad 3d 58 45 54 bd 10 3c a5 bd
       0.032224167 0.08450636 -0.051823944 -0.08068097
0001c0 fe e6 c9 3d 3c 3a 85 bd f4 dc c4 bd b2 d4 81 3d
       0.098585114 -0.06505248 -0.09612456 0.063393965
0001d0 ec f8 96 bc 57 78 4d 3d c8 2d ba bd d9 65 f4 bc
       -0.018429242 0.050163593 -0.09090763 -0.029833721
0001e0 f7 a8 3e bd 0d 7a c7 3d 51 94 3f 3d 98 3b c8 bd
       -0.046547856 0.09740076 0.046772305 -0.097769916
0001f0 7f 4f 03 3e da 65 f9 3d cb 94 c8 3d 83 69 b1 bd
       0.12823294 0.1217763 0.09794005 -0.08662703
