bike_sharing/AutogluonModels/ag-20220403_213147/models/NeuralNetTorch_BAG_L1/S1F4/net.params (torch, 211783 bytes, 9 tensors)

weight f4 [128, 14]
0	0x3b3fb760	0.0029253587
1	0x3da340b0	0.079713225
2	0xbe84272a	-0.2581113
3	0xbe505571	-0.20345093
4	0xbde5ffe8	-0.11230451
5	0x3d199f95	0.037505705
6	0xbc852d78	-0.016257033
7	0x3e725a76	0.2366732
8	0xbb0a7120	-0.0021124557
9	0x3dfb25bc	0.12263057
10	0xbd86864a	-0.06568582
11	0xbd9fba41	-0.07799197
12	0xbec21e2a	-0.37913638
13	0xbe437130	-0.19086146
14	0xbe05ddb8	-0.1307286
15	0xba72f0fc	-0.0009267477
16	0x3dc310e3	0.09524705
17	0x3e5bc2d9	0.21461047
18	0xbdb51e28	-0.088436425
19	0xbe24390b	-0.16037385
20	0x3df6a4e5	0.1204317
21	0x3e532d80	0.20622826
22	0xbd158052	-0.03649933
23	0x3e66f1d3	0.22553186
24	0xbc4b8e6c	-0.012424093
25	0xbc272a13	-0.010202902
26	0x3e8f9df8	0.28050208
27	0xbe8b7f27	-0.27245447
28	0xbe3532af	-0.17695116
29	0xbdc8b6de	-0.09800504
30	0xbe145e24	-0.14489037
31	0x3e83ef25	0.2576839
32	0xbe516da9	-0.20451988
33	0xbe4a5120	-0.19757509
34	0xbe4256a7	-0.18978368
35	0xbe7e6e6b	-0.24846809
36	0xbda70a51	-0.081562646
37	0x3e818813	0.2529913
38	0x3e46fc0b	0.19432084
39	0x3dda5f7b	0.10662743
40	0xbd85c2d3	-0.065313004
41	0xbde497e4	-0.11161783
42	0x3d3b0b1d	0.045664895
43	0xbea26a0b	-0.3172153
44	0xbe54291f	-0.20718811
45	0xbe557afd	-0.20847698
46	0x3e02810f	0.12744544
47	0x3e013dfe	0.12621304
48	0xbdff0d77	-0.1245374
49	0x3d11cae4	0.035593882
50	0x3e1ca7a8	0.15298331
51	0x3ea5094e	0.3223366
52	0x3deb9667	0.11503296
53	0x3c2d19f0	0.010565266
54	0x3e2b1061	0.16705467
55	0xbe2c4393	-0.16822653
56	0x3be79a86	0.007067981
57	0xbe9d61eb	-0.30738768
58	0xbe6e5061	-0.2327285
59	0xbd87d630	-0.0663265
60	0x3dd9b2e5	0.106298245
61	0x3daabbcf	0.08336603
62	0xbe3bbde6	-0.1833416
63	0x3def4917	0.11683863
64	0x3dc3c55a	0.09559126
65	0x3c06a1a6	0.008217251
66	0xbca9b6d0	-0.020717055
67	0x3d29b0a0	0.04142821
68	0x3e509892	0.20370701
69	0x3e87225a	0.26393396
70	0xbe7fe261	-0.249887
71	0xbd8bdd5a	-0.06829329
72	0x3df7c333	0.12097778
73	0x3e9da989	0.30793408
74	0x3e8636ea	0.2621377
75	0x3e2096a2	0.15682462
76	0xbd09091e	-0.03345596
77	0xbe775b65	-0.24155958
78	0x3d339d0f	0.043850955
79	0xbe0e23f0	-0.13880897
80	0xbe560bde	-0.20902964
81	0x3e52def2	0.2059286
82	0x3ea29906	0.31757373
83	0xbea420d9	-0.3205631
84	0x3d8bbb01	0.068227775
85	0xbe2b6dda	-0.16741124
86	0xbdbea7bb	-0.09309336
87	0xbdc62015	-0.09674088
88	0xbd0e99e0	-0.034814715
89	0xbe7dd94f	-0.24789928
90	0x3db839c7	0.08995395
91	0x3e34855a	0.17628995
92	0x3e8226c6	0.25420207
93	0x3dc92660	0.098217726
94	0xbe42d400	-0.19026184
95	0xbe624dbd	-0.22099967
96	0x3e35b523	0.1774488
97	0xbc0b7e9c	-0.008514073
98	0xbe4dc0fc	-0.20093149
99	0xbe8cfa37	-0.2753465
100	0x3e198f14	0.14995986
101	0x3e2e5e4a	0.17028156
102	0xbd25dc51	-0.040493313
103	0xbd8f60f9	-0.07000918
104	0xbea65cb8	-0.32492614
105	0x3c74da7c	0.014944669
106	0xbdf88b93	-0.12135997
107	0xbe44f317	-0.19233356
108	0xbd57f648	-0.052725106
109	0x3d6a65f0	0.05722612
110	0xbe0351e1	-0.12824203
111	0x3e0edf1c	0.13952297
112	0xbe17ca12	-0.14823177
113	0x3e8459e4	0.2584983
114	0x3e366fdc	0.17816108
115	0xbe701f9a	-0.23449555
116	0xbc334c49	-0.010943481
117	0x3d13cd59	0.036084507
118	0x3db54110	0.088503
119	0x3d3db4bb	0.046314936
120	0x3c67253e	0.014108
121	0x3c09d2b3	0.008412051
122	0xbe48592b	-0.19565265
123	0x3db9cf96	0.09072797
124	0xbeae93db	-0.3409718
125	0xbe4d70bc	-0.20062536
126	0xbd540862	-0.051765807
127	0xbe896542	-0.26835066
128	0xbe415a53	-0.18882112
129	0xbe2ca715	-0.16860612
130	0xbdb8408e	-0.08996688
131	0xbb9afa0f	-0.0047295163
132	0xbe3130a0	-0.17303705
133	0x3c1af035	0.009456684
134	0x3e231d27	0.1592909
135	0xbbdb27b6	-0.0066880835
136	0x3b9567b4	0.0045594815
137	0xbdf0acaa	-0.11751683
138	0x3deb1b6f	0.11479842
139	0x3dee1db1	0.11626757
140	0x3e974b8c	0.29549825
141	0x3e177497	0.14790569
142	0x3e7165a4	0.23573929
143	0xbd4ab04f	-0.049484547
144	0xbe8adad7	-0.27120087
145	0xbe1e490a	-0.1545755
146	0x3eb2fb2f	0.34957263
147	0x3d772d9c	0.06034623
148	0xbe0e91af	-0.13922761
149	0xbdc22e3a	-0.09481473
150	0xbe88b4fe	-0.26700586
151	0xbebd3a65	-0.36958614
152	0xbe888c4e	-0.26669544
153	0x3df5a0f0	0.11993587
154	0x3e1d0c3c	0.15336698
155	0xbea7fb54	-0.32808936
156	0x3de8680b	0.113479696
157	0xbe1f3c32	-0.15550306
158	0xbd725ec0	-0.059172392
159	0xbe57367d	-0.2101688
160	0x3d11b99b	0.035577398
161	0xbcbe4143	-0.023224479
162	0xbe930edf	-0.28722283
163	0xbe2291c9	-0.15875925
164	0x3b925870	0.004466109
165	0xbe15c220	-0.14624834
166	0xbe7e7a72	-0.24851397
167	0x3dfe3f30	0.12414396
168	0xbed10514	-0.40824187
169	0x3ddeffdf	0.10888647
170	0x3eb18803	0.3467408
171	0xbdb25375	-0.087073244
172	0x3e72056b	0.2363488
173	0x3d6629f0	0.05619234
174	0xbed809f2	-0.42195088
175	0x3dab9e23	0.083797716
176	0xbd8e7406	-0.069557235
177	0xbd1630aa	-0.036667503
178	0x3e13f79d	0.14449926
179	0xbe644b04	-0.22294241
180	0xbcd4b5e1	-0.025965633
181	0xbd638b10	-0.055552542
182	0x3e1f2b2a	0.1554381
183	0xbcc3747b	-0.023859253
184	0x3dabfa07	0.08397298
185	0x3e23bc97	0.1598991
186	0xbdd53922	-0.10411288
187	0xbdd1e6df	-0.10249113
188	0xbe7a85ef	-0.24465154
189	0x3e132d14	0.14372665
190	0x3e411325	0.1885496
191	0x3e3ed09e	0.18634269
192	0xbe1a118d	-0.15045758
193	0x3b3ac49d	0.0028498538
194	0xbeb9b442	-0.36270338
195	0xbdac9104	-0.08426097
196	0xbe418490	-0.18898225
197	0x3d0bc807	0.034126308
198	0xbe2b17a8	-0.16708243
199	0xbd65445a	-0.05597339
200	0xbd085b31	-0.033290092
201	0x3e2329bb	0.15933888
202	0xbe65dd28	-0.22447646
203	0xbde889d6	-0.11354415
204	0xbdcbaf02	-0.099454895
205	0x3e6392c0	0.2222395
206	0xbe2016ea	-0.15633741
207	0x3e5a8a2d	0.21341772
208	0x3cc3cc40	0.023901105
209	0x3d7bff83	0.06152297
210	0x3c784bcb	0.015154789
211	0xbd7b0048	-0.061279565
212	0x3d04d37d	0.032428253
213	0xbe09177b	-0.13387863
214	0xbadb5db4	-0.00167363
215	0x3d84c1fd	0.06482313
216	0xbe6044cb	-0.21901242
217	0xbe375a86	-0.17905626
218	0x3e3f163c	0.18660825
219	0xbdd40423	-0.103523515
220	0xbdd06156	-0.10174815
221	0x3e7726f5	0.24135955
222	0x3d325496	0.0435377
223	0xbd7cf1fb	-0.061754208
224	0xbe814265	-0.25245968
225	0x3e09d083	0.13458447
226	0xbe7db8ba	-0.24777499
227	0xbe58ce4d	-0.21172448
228	0xbca81ac4	-0.020520575
229	0xbd15f2fc	-0.03660868
230	0x3c842dc1	0.016135098
231	0x3e4341b6	0.19068035
232	0x3e1c0e92	0.15239933
233	0x3e95aa53	0.2923151
234	0x3e2a6728	0.16640913
235	0xbe320fed	-0.17388888
236	0x3ddef907	0.10887342
237	0xbe87d633	-0.2653061
238	0xbe12c88f	-0.1433432
239	0x3c2d25c1	0.010568083
240	0x3cbefb45	0.023313174
241	0x3e916c06	0.28402728
242	0xbd9d49aa	-0.07680066
243	0xbd89a49e	-0.06720851
244	0x3c8d12ed	0.017220939
245	0xbe83b0ae	-0.25720733
246	0x3e2f1a40	0.17099857
247	0xbe2f3f18	-0.17113912
248	0xbd9132ae	-0.070897445
249	0xbdd6d791	-0.10490335
250	0xbe34c05d	-0.17651506
251	0xbd9344bb	-0.07190844
252	0x3e7eba73	0.24875812
253	0xbe29ffec	-0.16601533
254	0xbe6b26fb	-0.22964089
255	0xbda0bf03	-0.078489326

bias f4 [128]
0	0x3e4d5724	0.20052773
1	0x3e00f986	0.12595186
2	0x3e0994c5	0.13435657
3	0xbdb6d228	-0.08926803
4	0x3de56bc0	0.11202192
5	0x3df8a79a	0.121413425
6	0x3df5fcb4	0.1201109
7	0xbc0cdd18	-0.008597635
8	0xbcc8c4b3	-0.024507856
9	0xbd8dad88	-0.06917864
10	0xbea3053f	-0.3183994
11	0xbcd40a78	-0.025883898
12	0xbe74331f	-0.23847626
13	0x3e10c786	0.14138612
14	0xbe3a946b	-0.1822068
15	0xbe160edb	-0.14654104
16	0xbe00e790	-0.12588334
17	0x3df9d243	0.12198307
18	0xbe2bdcae	-0.16783401
19	0x3dcd5d14	0.10027519
20	0x3e2d80ad	0.16943617
21	0x3e2c1a37	0.16806875
22	0x3d824ba4	0.063620836
23	0x3da1734a	0.07883318
24	0x3e2bfdbe	0.16796014
25	0x3dce572e	0.10075222
26	0x3c867c46	0.01641668
27	0xbe535b0f	-0.20640205
28	0xbd02568e	-0.031820826
29	0x3b49a3a3	0.00307677
30	0x3d46c0d7	0.04852375
31	0xbdcb0456	-0.099129364
32	0xbe7b31d7	-0.24530731
33	0xbd7876c8	-0.060660154
34	0x3db7ad48	0.08968598
35	0x3e490dc6	0.1963416
36	0xbe8311b0	-0.25599432
37	0x3da09aaf	0.078420036
38	0xbe5af6fa	-0.21383277
39	0xbe7348d6	-0.23758253
40	0xbdf3ee57	-0.11910694
41	0xbdae4b38	-0.085104406
42	0x3ca5525f	0.02018088
43	0xbe9034e3	-0.2816535
44	0x3da62907	0.08113294
45	0x3e5eb04a	0.21746936
46	0xbc7e3c99	-0.015517377
47	0x3e747c66	0.23875579
48	0xbe0b0d18	-0.13579214
49	0xbe1e3929	-0.15451492
50	0x3c26b686	0.010175353
51	0xbd65c85d	-0.056099284
52	0xbe54e64e	-0.2079098
53	0xbe48af43	-0.19598107
54	0x3d3b33c7	0.045703676
55	0xbc932532	-0.017962072
56	0x3e8bed87	0.27329656
57	0xbdf8c2d3	-0.12146535
58	0x3daf9eca	0.085752085
59	0xbe1114a3	-0.14168029
60	0x3ddc6ca2	0.107629076
61	0xbd88eb2f	-0.06685483
62	0x3e3b98b6	0.18319973
63	0x3e01d2f9	0.12678136
64	0x3e3ba4c1	0.18324567
65	0x3e12de4b	0.1434261
66	0xbc813d6b	-0.015776357
67	0x3e15e08c	0.14636439
68	0xbdf7a4c0	-0.120919704
69	0x3e7f8f3d	0.24956985
70	0x3e8fb518	0.2806785
71	0x3e1868a3	0.14883666
72	0xbe02780e	-0.1274111
73	0xbe366010	-0.17810082
74	0x3d9f8594	0.0778915
75	0x3d703924	0.058648244
76	0x3dc88658	0.09791249
77	0x3bb83469	0.005621482
78	0x3e527b3f	0.20554827
79	0xbdf56e61	-0.11983944
80	0xbddbff86	-0.107420966
81	0x3d572822	0.052528508
82	0x3bee068f	0.0072639654
83	0xbe416b8b	-0.1888868
84	0xbd14e223	-0.036348473
85	0xbe8757ce	-0.26434177
86	0xbde93edf	-0.11388945
87	0xbd8d01e2	-0.06885125
88	0x3e727a56	0.2367948
89	0xbe6b77c8	-0.22994912
90	0xbe0f5819	-0.1399845
91	0xbe5d65a8	-0.2162081
92	0x3d863dd4	0.065547615
93	0xbe7b4f6f	-0.2454202
94	0x3d7d31e1	0.061815146
95	0xbe0abd65	-0.13548811
96	0xbe3af304	-0.18256766
97	0xbe385e64	-0.18004757
98	0xbcdcf280	-0.026971102
99	0x3e5627d2	0.20913628
100	0x3e506d39	0.20354165
101	0xbdc50fb8	-0.09622139
102	0xbe9c4413	-0.30520687
103	0xbdda6029	-0.10662872
104	0xbe1ec255	-0.1550382
105	0xbcdc64d6	-0.026903551
106	0x3ce610b4	0.028084137
107	0x3d98d0ef	0.07461726
108	0x3dc366b9	0.09541077
109	0x3bcbacfb	0.0062156892
110	0xbdd83cde	-0.105584845
111	0xbdae00ce	-0.08496247
112	0x3c2377bb	0.009977276
113	0xbe3353fe	-0.17512509
114	0xbdb26a7c	-0.087117165
115	0xbcc99206	-0.024605762
116	0xbe8e5c13	-0.27804622
117	0x3df68e4b	0.12038859
118	0xbd1fa861	-0.038978938
119	0xbe8d1fe6	-0.275634
120	0x3e7edc4c	0.24888724
121	0xbe16d9b7	-0.14731489
122	0x3d49f6c7	0.04930761
123	0x3e6cd472	0.23127916
124	0xbd4171fc	-0.047227845
125	0x3c6f35c3	0.01460022
126	0x3ddb905d	0.107208945
127	0x3d8cae6e	0.06869207

weight f4 [128, 128]
0	0x3bddd5e1	0.006769881
1	0xbc9d11a3	-0.019173449
2	0x3c8253f3	0.01590917
3	0x3d9648f2	0.07338132
4	0x3c0339f0	0.008009419
5	0x3d9a3908	0.07530409
6	0x3d248bde	0.04017245
7	0x3bb59165	0.005541014
8	0xbcdffb1b	-0.027341416
9	0x3d31557b	0.04329441
10	0xbdef93d4	-0.11698118
11	0xbd6ba1ba	-0.05752728
12	0xbddb0767	-0.10694771
13	0x3d7403d3	0.05957396
14	0x3d883ac0	0.06651831
15	0x3c487818	0.012235664
16	0x3d7f8567	0.06238308
17	0x3d65057e	0.05591344
18	0xbd5e3057	-0.05424532
19	0xbdf00a3d	-0.11720703
20	0xbd966f3b	-0.07345434
21	0xbd38dc62	-0.04513205
22	0xbd9cf725	-0.076643266
23	0xbcfac9ef	-0.030613868
24	0xbca88565	-0.02057142
25	0xbd1513f5	-0.036395986
26	0xbd03868b	-0.032110732
27	0x3d3f9bb2	0.046779342
28	0x3dadff8c	0.08496007
29	0xbd000920	-0.031258702
30	0x3d38a2a0	0.045076966
31	0x3d16b2cd	0.03679161
32	0x3df5aff4	0.11996451
33	0xbc0d3d37	-0.008620552
34	0xbcfaf343	-0.030633574
35	0xbd255d15	-0.040371973
36	0x3dc9539f	0.098304026
37	0xbcdb869c	-0.026797585
38	0xbd950e90	-0.07278168
39	0x3e063a88	0.13108265
40	0x3dce2f49	0.10067613
41	0xbd8f92b3	-0.070104025
42	0xbd4e613c	-0.0503857
43	0x3c230855	0.009950717
44	0xbca2da59	-0.019879507
45	0xbd50f534	-0.051015094
46	0xbd82fc4c	-0.06395778
47	0xbd6c29cc	-0.057657048
48	0xbd9247fa	-0.07142635
49	0xbd653431	-0.055957977
50	0xbe04ec41	-0.12980749
51	0xbc945a9d	-0.018109614
52	0x3cffa4cd	0.031206513
53	0xbd04f51d	-0.03246032
54	0xbc551a96	-0.013006827
55	0xbd10f741	-0.03539205
56	0x3dcd7328	0.1003173
57	0x3d558b9f	0.052135106
58	0x3c257059	0.010097587
59	0xbcbf831c	-0.023377948
60	0xbd912501	-0.07087136
61	0xbcafcbe6	-0.021459531
62	0x3dac50a2	0.08413817
63	0x3b89c7fe	0.004204749
64	0x3c81c0be	0.015838977
65	0xbd141add	-0.03615843
66	0x3cc07e2e	0.023497667
67	0xbd7d0a51	-0.061777417
68	0x3d3c7482	0.046009548
69	0x3da0a3c8	0.07843739
70	0xbdc6a96a	-0.09700282
71	0xbd06841f	-0.032840844
72	0x3db718c7	0.08940273
73	0xbc9013f7	-0.017587645
74	0xbcca14b2	-0.024668071
75	0x3d46a6ab	0.04849879
76	0x3b5cad5b	0.0033672664
77	0xbd938b72	-0.072043315
78	0xbcdb8428	-0.026796415
79	0x3d810bc0	0.06301069
80	0x3da8e78f	0.08247291
81	0x3d32be59	0.04363856
82	0x3c760940	0.015016854
83	0x3d460db4	0.048352912
84	0x3db1b7c1	0.086776264
85	0x3c90537d	0.017617935
86	0xbb798f6c	-0.003807987
87	0x3c3dced6	0.011584958
88	0xbd46ac84	-0.048504367
89	0x3dda9459	0.10672826
90	0xbdbc193a	-0.09184499
91	0x3d4ba27c	0.049715504
92	0xbd269c3e	-0.040676348
93	0xbd30f698	-0.04320392
94	0x3dcab418	0.098976314
95	0x3c94e55b	0.018175771
96	0x3c35a532	0.011086749
97	0x3d3e142a	0.04640595
98	0xbd8afde2	-0.067867056
99	0xbd5e02be	-0.054201834
100	0xbd59798b	-0.053094428
101	0xbd8f4ad8	-0.06996697
102	0x3c8923f2	0.016740773
103	0x3c81273f	0.015765784
104	0x3d7bd1c0	0.06147933
105	0x3b32e3ae	0.0027296352
106	0x3d351be1	0.04421604
107	0xbda7a4f0	-0.08185756
108	0x3b823137	0.003973152
109	0x3cdf9d0a	0.027296562
110	0x3b3cd5c2	0.0028813933
111	0x3dd01b57	0.10161465
112	0xbcddcbdc	-0.027074747
113	0xba974192	-0.0011539927
114	0xbd809d6c	-0.06280026
115	0x3d81e2dc	0.06342098
116	0xbce093bd	-0.027414197
117	0xbda1b954	-0.07896677
118	0x3daed964	0.08537558
119	0xbe184a3d	-0.1487207
120	0xbdb1cf51	-0.086821206
121	0x3cb8b37b	0.02254652
122	0x3dc3c17c	0.095583886
123	0x3dbe4b9e	0.092917666
124	0x3d319126	0.043351315
125	0x3c1dac60	0.009623617
126	0x3d7d49ae	0.061837845
127	0xbd0edb96	-0.034877382
128	0xbc3babf2	-0.011454569
129	0xbc4b10fe	-0.012394188
130	0xbdf8afaf	-0.12142884
131	0xbba668f7	-0.0050784308
132	0xbd4a4359	-0.049380634
133	0x3c5d69a4	0.013513956
134	0xbd80d307	-0.0629025
135	0xbc6dd17d	-0.014515278
136	0x3dd2902d	0.102814056
137	0x3dbcf040	0.092255116
138	0xbd6be0b3	-0.057587337
139	0x3d0a148b	0.033710998
140	0x3d31ce15	0.043409426
141	0x3d99726a	0.07492526
142	0xbd46b0ce	-0.048508458
143	0x3d0e24b7	0.034702983
144	0x3cb6aca1	0.022299113
145	0x3db23895	0.087021984
146	0xbdbcc873	-0.0921792
147	0xbd0ec919	-0.03485975
148	0xbe2e858a	-0.17043129
149	0xbe3835c0	-0.17989254
150	0xbdc28bf9	-0.09499354
151	0x3d27b7cf	0.040946778
152	0xbda2e598	-0.07953948
153	0x3ac01b0f	0.0014656502
154	0x3d519943	0.051171552
155	0xbcf0f3ee	-0.02941319
156	0xbaeb3fb5	-0.0017948063
157	0xbd7df887	-0.062004592
158	0xbd35ae78	-0.04435584
159	0xbd5e6cee	-0.054303102
160	0xbe012b53	-0.12614183
161	0xbdeb96eb	-0.11503395
162	0xbda92a71	-0.08260048
163	0x3dbe4001	0.092895515
164	0xbdc18f06	-0.09451108
165	0xb9f5214b	-0.00046754847
166	0xbe3e9145	-0.18610103
167	0x3ce191a4	0.027535267
168	0xbdb8d776	-0.09025471
169	0x3ccd2b55	0.025045076
170	0xbd391aac	-0.045191452
171	0xbd942a3b	-0.07234617
172	0x3daa4893	0.08314624
173	0xbd35fa5f	-0.044428226
174	0xbd1f86f7	-0.038947072
175	0xbd8dfb75	-0.06932727
176	0x3cb4139b	0.021982005
177	0xbc89ce3d	-0.016821975
178	0xbd699bed	-0.057033468
179	0x3dba914e	0.09109746
180	0xbe1b1c59	-0.15147533
181	0xbbe3bce0	-0.006950006
182	0xbc9526c4	-0.018206961
183	0x3a643dc1	0.0008706712
184	0x3e041750	0.12899518
185	0x3db788d3	0.08961644
186	0x3bd7f049	0.0065899235
187	0xbde4395e	-0.111437544
188	0x3d900ac9	0.07033307
189	0x3cb570d3	0.022148525
190	0x3d9bc26e	0.07605444
191	0xbd08aaf7	-0.03336617
192	0x3c0ea4e3	0.008706304
193	0x3dbaa293	0.0911304
194	0x3cc5769b	0.024104407
195	0xbceb3781	-0.02871299
196	0xbe867105	-0.26258102
197	0xbdd37661	-0.10325313
198	0x394def62	0.000196395
199	0x3bdec14d	0.0067979456
200	0x3d4812e7	0.04884615
201	0x3da33da1	0.07970739
202	0xbdc9af72	-0.09847917
203	0xbcba9670	-0.022776812
204	0xbccf7a4a	-0.025326867
205	0x3d8db2ef	0.069188945
206	0x3d2b6617	0.041845407
207	0x3ceff3a3	0.02929098
208	0x3d7f25a2	0.06229175
209	0xbd9352e8	-0.071935475
210	0xbd2648fa	-0.04059694
211	0x3cd6bb83	0.02621246
212	0xbd931012	-0.071807995
213	0x3d7d512f	0.061845
214	0xbcccc291	-0.02499512
215	0xbdacb674	-0.08433238
216	0x3ddf02d6	0.10889213
217	0xbe084559	-0.13307704
218	0x3e1d2bea	0.15348783
219	0x3cce5e0b	0.025191328
220	0xbd6684f2	-0.05627913
221	0x3d8d99b6	0.06914084
222	0xbdf884db	-0.12134715
223	0xbdb0fb9f	-0.08641743
224	0xbc0d75a5	-0.008634006
225	0xbc9bc73c	-0.0190159
226	0x3b5a095c	0.0033269739
227	0xbd37ea54	-0.044901207
228	0xbda5caf8	-0.08095354
229	0x3bbb276e	0.0057114875
230	0x3da12c75	0.07869808
231	0xbcbcdff7	-0.023056014
232	0x3d6cdfed	0.05783074
233	0x3d7a024c	0.061037347
234	0x3cf52d0c	0.029928707
235	0xbd7175ff	-0.05895042
236	0x3b6428bf	0.0034814326
237	0xbdc44865	-0.09584121
238	0xbdac5dc2	-0.084163204
239	0xbd3e3d13	-0.046444964
240	0x3d6fb7a4	0.058524743
241	0x3d817614	0.0632135
242	0xbd2c70cd	-0.042099763
243	0xbdee37fa	-0.116317704
244	0xbd397a78	-0.04528281
245	0xbbc434ad	-0.0059877248
246	0xbc528e87	-0.012851364
247	0x3d03da21	0.032190446
248	0xbd8f51cc	-0.069980234
249	0x3d6c95f5	0.057760198
250	0x3c1f6967	0.00972972
251	0xbd4e0fe4	-0.050308123
252	0x3dca6660	0.09882808
253	0x3d88fe13	0.06689086
254	0xbd932f98	-0.07186812
255	0x3cdb081b	0.026737263

bias f4 [128]
0	0x3dbb3b9c	0.09142229
1	0xbb465127	-0.0030260773
2	0x3ddad5f9	0.10685343
3	0x3dcc393d	0.09971855
4	0x3d95f489	0.07322032
5	0xbd65c866	-0.056099318
6	0xbc60b32c	-0.013714593
7	0x3c89d22f	0.016823856
8	0x3d2a5bad	0.041591335
9	0x3bd3a680	0.0064590573
10	0x3d8f5d09	0.07000167
11	0xbbb66de5	-0.0055672997
12	0x3d6ee3a5	0.058322567
13	0xbd6fe69b	-0.058569532
14	0xbc9af1cd	-0.018914128
15	0x3dc39c52	0.095513
16	0xbd758c9f	-0.05994856
17	0xbbeae28d	-0.0071681202
18	0xbce3c54f	-0.027804045
19	0xbd9eb9ca	-0.0775028
20	0xbd7ec393	-0.062198233
21	0xbaf0ccbf	-0.0018371566
22	0xbbe24fdc	-0.0069064926
23	0x3d066f11	0.032820765
24	0x3bceb3b1	0.006308042
25	0x3da6ba20	0.08140969
26	0x3d9135e5	0.07090358
27	0x3d8519f4	0.06499091
28	0xb93fa031	-0.00018274855
29	0x3d208038	0.03918478
30	0xbd83fbbe	-0.064445004
31	0x3d8b7bb3	0.06810703
32	0x3d1bd0d2	0.038040943
33	0x3cb30fbb	0.021858087
34	0xbd2caee9	-0.042158995
35	0x3dbd9e9c	0.09258768
36	0xbdbaee32	-0.091274634
37	0x3d62d4ad	0.055378605
38	0x3dadd363	0.084875844
39	0x3d46401c	0.048400983
40	0x3da3fb99	0.08006973
41	0xbd5b73a3	-0.053577077
42	0x3dc0943f	0.09403276
43	0x3dabef05	0.08395199
44	0xbcc55b60	-0.024091423
45	0x3dbbf816	0.09178178
46	0xbcd775af	-0.026301233
47	0xbd8c74ef	-0.06858241
48	0x3dc8d181	0.09805585
49	0x3d5042cf	0.050844964
50	0x3d3547ae	0.044257812
51	0x3d3213ab	0.043475788
52	0xbc5ec029	-0.013595619
53	0x3cf53f4b	0.029937407
54	0x3d5e5912	0.054284163
55	0xbd128bb2	-0.035777755
56	0x3da297c5	0.07939104
57	0x3cf00257	0.02929799
58	0x3ce999e3	0.028515762
59	0xbdb82029	-0.08990509
60	0xbce6c66b	-0.028170785
61	0xbd0cb3ae	-0.034351043
62	0xbd4bb3f4	-0.049732164
63	0x3dd5b049	0.10434014
64	0x3ce56481	0.028002026
65	0xbd890608	-0.066906035
66	0xbd323089	-0.043503318
67	0xbd1e2ee5	-0.03861894
68	0x3da2bf83	0.07946684
69	0xbd43b546	-0.047780298
70	0x3d6f03c5	0.058353204
71	0x3d3e7ebf	0.046507593
72	0xbdb3bae6	-0.087758824
73	0xbd911a7f	-0.07085132
74	0xbb90e038	-0.00442126
75	0x3d991b2c	0.07475886
76	0xba174e60	-0.00057718717
77	0xbd858d66	-0.0652111
78	0x3cc9ef73	0.024650311
79	0xbc99cb5e	-0.01877373
80	0xbd89cbea	-0.06728347
81	0x3c6fcd42	0.01463634
82	0x3db38425	0.08765439
83	0xbdb87aed	-0.09007821
84	0x3d22c36d	0.039737154
85	0x3b580ad9	0.003296545
86	0xbd1b8127	-0.037964966
87	0x3d8c0a70	0.06837928
88	0xbca412d4	-0.02002851
89	0x3dd0511d	0.10171721
90	0xbdd3408d	-0.103150465
91	0x3c8c1fe1	0.017105045
92	0xbbae4d95	-0.005319307
93	0x3d3add0d	0.045620967
94	0xbdbaf959	-0.091295905
95	0x3d434482	0.047672756
96	0xbda04c97	-0.07827108
97	0x3d87e344	0.06635144
98	0xbd93fe50	-0.07226241
99	0x3cad7ddd	0.02117818
100	0xbd971937	-0.07377856
101	0xbdb10567	-0.086436085
102	0x3d05615e	0.03256356
103	0x3d99fab7	0.07518523
104	0x3d87175b	0.065962516
105	0xbda1aaee	-0.078939304
106	0xbd20078d	-0.0390697
107	0x3dbc1d96	0.091853306
108	0x3ce76630	0.028246969
109	0x3c59dbc8	0.013297029
110	0x3d1a26e3	0.03763474
111	0xbd425cd0	-0.047451794
112	0xbbc15140	-0.0058995783
113	0x3c7e4e5a	0.01552161
114	0xbdb19a6e	-0.08672033
115	0xbc5ddbbd	-0.013541159
116	0x3dd4d292	0.103917256
117	0x3bd3e7b8	0.006466832
118	0xbd129c5c	-0.035793647
119	0xbd4ad5ee	-0.049520425
120	0xba393020	-0.0007064361
121	0xbc18f3db	-0.009335483
122	0xbdc5b0ec	-0.09652886
123	0x3d6e1ff2	0.058135934
124	0xbde1e8b5	-0.110307135
125	0xbd0567f6	-0.032569848
126	0xbd88504e	-0.06655942
127	0xbd166820	-0.036720395

weight f4 [128, 128]
0	0x3d5d3848	0.054008752
1	0xbe184791	-0.1487105
2	0xbc5170fe	-0.012783287
3	0xbdd58924	-0.10426548
4	0x3aab4214	0.0013065957
5	0x3d70b02a	0.058761753
6	0x3dee18d1	0.11625827
7	0x3d7c2dde	0.06156718
8	0xbd4a8323	-0.049441468
9	0xbb7a9497	-0.003823554
10	0x3d6ae45e	0.057346694
11	0x3b89d986	0.004206839
12	0x3df63b95	0.12023083
13	0xbd7238b5	-0.05913611
14	0xbde4caee	-0.11171518
15	0xbd8d84af	-0.06910073
16	0xbce5133d	-0.027963275
17	0x3dab476d	0.08363233
18	0xbdd72c83	-0.10506537
19	0xbccb95cf	-0.024851708
20	0x3a3c8aa2	0.0007192289
21	0x3d1c7527	0.038197663
22	0xbd76e1af	-0.060273822
23	0x3b15e6e3	0.0022873215
24	0xbca31c8a	-0.01991107
25	0xbd7b3b15	-0.061335642
26	0xbc2e9d9d	-0.010657695
27	0x3bde49b0	0.0067836866
28	0xbd70807f	-0.058716293
29	0x3d272a50	0.040811837
30	0x3d02277b	0.031775933
31	0x3cca1b49	0.024671214
32	0xbc046d38	-0.00808268
33	0xbd90e7bf	-0.07075452
34	0x3db49f40	0.08819437
35	0x3d3c9c88	0.046047717
36	0x3ce5eaf8	0.028066143
37	0x3c44e576	0.012017598
38	0xbd6435f3	-0.055715512
39	0xbd93b1a7	-0.07211619
40	0xbc598d68	-0.013278343
41	0xbd043b9b	-0.032283407
42	0x3d5c7bc7	0.05382898
43	0xbd48cb8f	-0.049022254
44	0x3ba78c8c	0.00511319
45	0x3d494cdf	0.049145576
46	0xbd2849c1	-0.041085962
47	0xbc6b6650	-0.014367655
48	0x3c55d54a	0.01305134
49	0xbc1f6d45	-0.009730642
50	0x3d7e31dc	0.06205927
51	0x3d37d459	0.044880245
52	0x3d6ba879	0.057533715
53	0xbd0e9ccb	-0.0348175
54	0xbd88343a	-0.066505864
55	0xbcdfc890	-0.027317315
56	0xbcdd124e	-0.026986267
57	0x3dcede91	0.10101045
58	0x3c8a480e	0.016880061
59	0x3d7d030d	0.061770488
60	0xbd9d44c0	-0.07679129
61	0x3c9c1dab	0.019057116
62	0x3d379c5c	0.04482685
63	0x3da2456a	0.07923396
64	0x3daa9d3f	0.083307736
65	0x3d6b7e08	0.05749324
66	0x3d858757	0.06519955
67	0xbd133134	-0.035935596
68	0x3d34b7e9	0.044120703
69	0xb9090700	-0.00013067946
70	0xbdd3b0ab	-0.10336431
71	0x3ce400ce	0.027832415
72	0xbb434da6	-0.002980092
73	0x3cecda29	0.02891262
74	0xbdb49256	-0.08816974
75	0x3c58e667	0.013238526
76	0xbd320657	-0.043463077
77	0x3c3162f0	0.010826811
78	0xbd2be057	-0.041961994
79	0x3cd29a7a	0.025708426
80	0xbd752e4d	-0.05985861
81	0x3c6324f7	0.013863794
82	0x3be591dc	0.007005913
83	0x3d8230f0	0.0635699
84	0x3dc6feb7	0.09716552
85	0xbd532fcf	-0.051559266
86	0x3d38a04f	0.045074757
87	0xbda2b255	-0.079441704
88	0xbd1b8bc8	-0.037975103
89	0xbd126b93	-0.035747122
90	0xbde0c42a	-0.10974915
91	0x3d22bed7	0.03973278
92	0xbd045c4d	-0.032314587
93	0xbcd11dbf	-0.02552688
94	0x3dbba443	0.0916219
95	0x3cceb828	0.025234297
96	0x3d39215c	0.04519783
97	0x3cbaeb4d	0.022817278
98	0xbd7d01bf	-0.061769243
99	0xbd0af124	-0.033921376
100	0x3dfb0ec5	0.122586764
101	0xbe04760b	-0.12935655
102	0xbe377c1f	-0.17918442
103	0x3d21202a	0.039337315
104	0x3d4c2220	0.04983723
105	0x3d994493	0.074837826
106	0xbc8800ae	-0.016601887
107	0x3c340b31	0.010988996
108	0xbd96202c	-0.07330355
109	0xbd428202	-0.047487266
110	0xbd86c499	-0.06580467
111	0xbdb279be	-0.08714627
112	0x3d5ef418	0.054432005
113	0x3dab9cca	0.083795145
114	0x3db7ef1c	0.08981153
115	0xbd1aea9e	-0.037821405
116	0x3d9bf10b	0.07614335
117	0xbca4b0af	-0.02010378
118	0x3d6d255b	0.057896953
119	0xbda4e185	-0.08050827
120	0xbc94271e	-0.018085059
121	0xbb7be4f8	-0.0038436037
122	0xbbcd527d	-0.006265937
123	0x3d0e6ff4	0.034774736
124	0xbc14f9b9	-0.009092742
125	0xbd4bdbc9	-0.04977015
126	0x3d9b0baa	0.07570584
127	0x3c0d6fd4	0.008632619
128	0x3cbb54f2	0.022867654
129	0xbd859dbd	-0.06524227
130	0x3c9ea523	0.019365853
131	0x3daa839b	0.08325883
132	0x3d28a1b3	0.041169833
133	0x3d55f466	0.05223503
134	0xbd422459	-0.047397945
135	0x3dc4872b	0.09596094
136	0xbc280fd8	-0.010257684
137	0x3d54f11b	0.05198775
138	0x3c9990f0	0.01874587
139	0xbd61ac12	-0.05509574
140	0x3b55e250	0.0032636113
141	0x3d3269c9	0.043557916
142	0xbe196b7f	-0.14982413
143	0x3c13e35e	0.0090263765
144	0xbdc21fc3	-0.09478714
145	0x3d0c3150	0.034226716
146	0xbdb4d9ed	-0.088306285
147	0xbe0fc986	-0.14041719
148	0xbcef5f29	-0.02922018
149	0x3c2b3280	0.010449052
150	0x3ddc8e3b	0.10769316
151	0x3d891755	0.06693903
152	0x384dcf5e	4.9068934e-05
153	0x3d8c79d6	0.06859176
154	0x3c93a258	0.018021747
155	0xbc9c7eb0	-0.019103378
156	0x3c1a6107	0.009422547
157	0xbaeaf389	-0.0017925362
158	0xbcbfbfd5	-0.023406902
159	0xbc8b9f2b	-0.01704367
160	0xbd9e1960	-0.07719684
161	0xbdaa1055	-0.08303896
162	0x3bdc9c1c	0.006732477
163	0x3d04a459	0.032383297
164	0xbdef8fde	-0.11697362
165	0x3c8e7b30	0.017392725
166	0x3e0fd217	0.14044987
167	0xbd2b138f	-0.0417667
168	0xbc01c566	-0.007920599
169	0x3cf18f7c	0.029487364
170	0xbd779fe4	-0.060455218
171	0x3c482547	0.012215919
172	0xbd644ff2	-0.055740304
173	0xbdce491d	-0.10072539
174	0xbd970b9d	-0.07375262
175	0x3d0ce94e	0.034402184
176	0x3dea270b	0.11433228
177	0xbdb71803	-0.08940127
178	0xbd25fcb2	-0.040524192
179	0x3bcd8205	0.006271603
180	0x3af1e340	0.0018454567
181	0xbd7d2745	-0.06180503
182	0xbc9018db	-0.017589977
183	0x3d908018	0.07055682
184	0xbe138dd7	-0.14409576
185	0xbb6acfc3	-0.0035829402
186	0x3e0db7d8	0.13839662
187	0xbdb208e3	-0.08693101
188	0xbd3b25a7	-0.045690205
189	0xbd3f4678	-0.046698064
190	0xbbc5684b	-0.0060243956
191	0xbcac66e1	-0.02104515
192	0x3ca46423	0.02006728
193	0xbd251218	-0.04030046
194	0x3c0e20ff	0.008674859
195	0xbc8f17ad	-0.017467344
196	0xbca1ba40	-0.019742131
197	0xbd311183	-0.04322959
198	0xbdeabbb3	-0.11461582
199	0x3d6a500c	0.057205245
200	0x3dba96d4	0.091107994
201	0xbb4ea61d	-0.0031532117
202	0xbd7bb87a	-0.061455227
203	0x3d9343f0	0.071906924
204	0xbe052121	-0.13000919
205	0xbd2374ec	-0.039906427
206	0x3d8318e3	0.06401231
207	0xbd25e177	-0.040498223
208	0xbda8f3e4	-0.082496434
209	0x3d3abe6d	0.04559176
210	0xbdec23d1	-0.11530269
211	0x3df403fa	0.11914821
212	0x3da6b23b	0.081394635
213	0xbd862ced	-0.06551538
214	0xbd9aad74	-0.07552615
215	0xbdb2e165	-0.08734397
216	0xbdc082a2	-0.09399916
217	0x3c4445f1	0.011979566
218	0x3ce99f2b	0.02851828
219	0x3d61a010	0.055084288
220	0xbd19930a	-0.037493743
221	0xbda340e8	-0.07971364
222	0xbd8553be	-0.06510113
223	0x3d41f4a9	0.047352467
224	0x3d7a314c	0.06108217
225	0x3d4f9b91	0.05068547
226	0xbc85bc7f	-0.016325234
227	0xbda8b75d	-0.08238099
228	0x3e0830f1	0.1329992
229	0xbd912155	-0.07086436
230	0xbda66566	-0.08124809
231	0xbca30d9d	-0.019903952
232	0xbdc59270	-0.09647071
233	0xbcc36878	-0.023853526
234	0x3affcc0a	0.0019515764
235	0xbd58c790	-0.052924693
236	0xbd2d1196	-0.0422531
237	0xbae0c29e	-0.0017147844
238	0x3c8e3867	0.01736088
239	0x3cfd27aa	0.030902702
240	0x3caaf32b	0.020867905
241	0x3d9e1d37	0.07720416
242	0x3d537bff	0.051631924
243	0xbd5be108	-0.053681403
244	0xbcc6a720	-0.024249613
245	0xbdc10c16	-0.09426133
246	0x3e2015eb	0.15633361
247	0xbc72fa3a	-0.0148301665
248	0x3d0608b6	0.03272315
249	0x3d5e085d	0.054207195
250	0x3d120b00	0.03565502
251	0xbdd6b802	-0.104843155
252	0x3d95bba5	0.07311181
253	0xbdc71c60	-0.09722209
254	0x3cad2d53	0.021139776
255	0xbd067573	-0.032826852

bias f4 [128]
0	0x3dc81fc3	0.09771683
1	0xbd0bd2a0	-0.034136415
2	0x3cdd1289	0.026986377
3	0xbd05bfe1	-0.032653693
4	0x3b2172a6	0.0024634986
5	0xbd9becfd	-0.07613561
6	0x3d49d5e3	0.049276244
7	0x3d4df88b	0.050285857
8	0x3d95d534	0.07316056
9	0x3dc07fc0	0.093993664
10	0xbd1be08e	-0.03805595
11	0xbd05609c	-0.032562837
12	0x3db20e3d	0.08694122
13	0xbd393f97	-0.04522666
14	0x3a75f949	0.00093831547
15	0xbc8e58c3	-0.01737631
16	0x3d26079d	0.040534604
17	0xbc0f8161	-0.008758874
18	0x3ca1a988	0.01973416
19	0x3d57bac3	0.052668344
20	0xbceaff24	-0.028686114
21	0x3dbb6544	0.09150174
22	0xbd5c57ef	-0.053794798
23	0x3db15362	0.08658482
24	0xbc028a10	-0.007967487
25	0xbc2040c0	-0.009781063
26	0x3d39e2cd	0.04538231
27	0xbbeb079f	-0.0071725394
28	0x3d3dcf25	0.046340127
29	0x3d7d480a	0.06183628
30	0xbd10f4bb	-0.035389643
31	0xbc4c945d	-0.012486544
32	0x3d4ab339	0.049487326
33	0xbcf7728e	-0.030205991
34	0x3c5cb903	0.013471845
35	0x3d8948f5	0.067033686
36	0xbcba732a	-0.022759993
37	0x3d00bd45	0.0314305
38	0xbcbeaed4	-0.023276724
39	0xbcc8c98a	-0.024510164
40	0xbd190abb	-0.03736375
41	0xbb45b069	-0.0030164963
42	0xbd18aa43	-0.03727175
43	0xbbbb3c47	-0.0057139727
44	0xbd5aa19e	-0.053376786
45	0x3da996ca	0.08280714
46	0xbd2df21f	-0.042467233
47	0xbd34c15b	-0.04412971
48	0x3de98567	0.114023976
49	0xbd1aa265	-0.037752528
50	0x3da00896	0.07814138
51	0x3cf8218f	0.03028944
52	0x3d9a4171	0.07532013
53	0xbdb22d63	-0.08700063
54	0x3d069f18	0.032866567
55	0xbd89dfa9	-0.06732113
56	0x3d29492b	0.041329544
57	0x3c0a461b	0.008439566
58	0xbd18d170	-0.03730911
59	0x3dc73989	0.09727771
60	0xba894a9c	-0.0010474506
61	0xbc74dc9c	-0.0149451755
62	0x3c9f7def	0.01946923
63	0x3dc752db	0.097326
64	0xbcc892f8	-0.024484143
65	0x3e06d5aa	0.13167444
66	0xbcf32ae2	-0.029683534
67	0x3da908bd	0.0825362
68	0x3dccb5ae	0.0999559
69	0xbd376ba7	-0.0447804
70	0xbd8328d1	-0.064042695
71	0x3bd6e41e	0.0065579554
72	0x3d630f34	0.05543442
73	0x3d13ac6b	0.036053102
74	0xbbd910fd	-0.0066243396
75	0xbba1ca5b	-0.0049374527
76	0x3dc362e3	0.095403455
77	0x3c71b9aa	0.014753738
78	0xbd6c5360	-0.0576967
79	0x3ddad153	0.10684457
80	0xbccd9874	-0.02509711
81	0x3cda5e96	0.02665643
82	0x3dcbab32	0.09944762
83	0xbc1179c7	-0.008879132
84	0x3d954fc1	0.072906025
85	0x3dc109bc	0.09425685
86	0xbcd72046	-0.026260506
87	0xbc75cfbd	-0.015003142
88	0x3da441eb	0.08020385
89	0x3bc8b546	0.006125125
90	0x3d92e0dc	0.07171795
91	0x3cb82272	0.022477362
92	0x3dbeeae8	0.093221486
93	0xbd1312d6	-0.035906635
94	0x3d1be1e4	0.038057223
95	0x3dc9674c	0.098341554
96	0xbd56a3dc	-0.052402362
97	0x3da871dd	0.08224843
98	0x3d1bbdab	0.03802268
99	0x3d6d627b	0.057955246
100	0xbd948451	-0.072518
101	0x3d856816	0.065139934
102	0x3db7133f	0.08939218
103	0x3daa58b2	0.083176985
104	0xbd191629	-0.03737465
105	0xbdc15734	-0.09440461
106	0xbd4d96b7	-0.05019256
107	0xbcab303b	-0.020897022
108	0x3d94e183	0.072695754
109	0x39cfb1e5	0.00039614658
110	0x3d976e37	0.07394069
111	0xbd5c270e	-0.053748183
112	0xbcbf69f5	-0.023365954
113	0x3ba709c7	0.005097601
114	0x3dc083fe	0.094001755
115	0x3d88d0e0	0.06680465
116	0xbdd537b1	-0.10411013
117	0x3dd6f9e2	0.1049688
118	0x3c942352	0.018083248
119	0xba6d45ee	-0.0009051253
120	0x3d660d4b	0.05616502
121	0xba840128	-0.0010071145
122	0xbc32ba86	-0.010908728
123	0xbc96edaf	-0.018423883
124	0x3d596e25	0.053083558
125	0x3db8fabc	0.09032199
126	0x3d5bb20a	0.05363659
127	0x3b23fbb9	0.0025021865

weight f4 [128, 128]
0	0x3c8d2bbc	0.017232768
1	0xbca965ac	-0.020678364
2	0x3dab61e0	0.083682775
3	0x3d499d0f	0.04922205
4	0xbbef8566	-0.0073096035
5	0x3d4c05fe	0.049810402
6	0x3dcfb6fa	0.10142322
7	0x3d97eb0b	0.07417878
8	0xbd8d5f81	-0.069029815
9	0xbda981b7	-0.08276694
10	0xbc597998	-0.013273619
11	0x3dcfed15	0.10152642
12	0xbc315d25	-0.01082543
13	0xbd98c1df	-0.07458853
14	0xbd29366a	-0.04131166
15	0xbd435aa0	-0.04769385
16	0x3b7e7696	0.0038828007
17	0x3d01436d	0.031558443
18	0x3d970141	0.07373286
19	0x3c1dffdf	0.009643524
20	0x3c37516a	0.011188844
21	0x3d15c2d7	0.036562767
22	0xbcc5296a	-0.0240676
23	0x3dbfdc6d	0.09368215
24	0x3de02364	0.1094425
25	0xbd816c00	-0.063194275
26	0xbd62e250	-0.05539161
27	0xbd927532	-0.071512595
28	0x3e060389	0.13087286
29	0xbd29b8d5	-0.041436035
30	0xbd699191	-0.05702359
31	0xbd1ae3b4	-0.03781481
32	0xbd481b2d	-0.04885404
33	0x3dccb9a4	0.09996346
34	0xbc73a636	-0.014871171
35	0xbda0c256	-0.07849567
36	0x3d6b75ed	0.05748551
37	0x3b838706	0.004013899
38	0xbbb20ac5	-0.0054334127
39	0xbdfedc0b	-0.124443136
40	0x3ca5a447	0.020219935
41	0x3d2f0a4a	0.04273442
42	0xbc8d4c00	-0.017248154
43	0x3daf13b6	0.085486814
44	0xbb7494b0	-0.003732007
45	0x3c021fd8	0.007942162
46	0x3cb2e081	0.021835567
47	0xbde90984	-0.11378768
48	0x3d86a638	0.065746725
49	0xbca06a57	-0.019581957
50	0xbd498715	-0.04920109
51	0x3d600dd2	0.05470068
52	0x3baa7881	0.0052023535
53	0x3df2e35b	0.11859771
54	0x3d1e8d5c	0.03870903
55	0x3dbe0b0f	0.09279453
56	0xbd0f34a2	-0.034962304
57	0x3d5ac2f0	0.053408563
58	0x3d843768	0.064558804
59	0xbd10c43a	-0.035343386
60	0x3dae9a2b	0.08525499
61	0xbd7f1f6d	-0.06228583
62	0x3cf6a962	0.030110065
63	0x3d1e0e05	0.03858759
64	0xbd73cd20	-0.059521794
65	0x3d012904	0.031533256
66	0x3dbcdebd	0.092221715
67	0xbd942944	-0.07234433
68	0x3dd33e3d	0.103146054
69	0x3bc11805	0.005892756
70	0x3e03795c	0.12839264
71	0xbd3f3a30	-0.04668635
72	0x3dc1ecb6	0.09468977
73	0xbd0f697e	-0.035012715
74	0x3d6d53ae	0.05794113
75	0x3c210e3e	0.009830056
76	0x3b04c872	0.0020261076
77	0xbd0a8ee4	-0.033827677
78	0xbd34ca4e	-0.044138245
79	0x3e098a8c	0.13431758
80	0x3d69a26f	0.057039674
81	0xbc874c3c	-0.016515844
82	0x3a8c672a	0.0010711898
83	0x3cd9c0b7	0.026581151
84	0x3e4ae5eb	0.19814269
85	0x3db4ae24	0.08822277
86	0xbe1540b8	-0.1457547
87	0x3da25399	0.07926101
88	0xbd1a6f75	-0.03770395
89	0xbc91ee6a	-0.01781388
90	0x3dbb49d2	0.091449395
91	0xbc4427e7	-0.011972404
92	0x3e2204ca	0.1582214
93	0xbcc2f181	-0.023796799
94	0xbb004be1	-0.0019576477
95	0xbd1f8168	-0.03894177
96	0x3db8805d	0.09008858
97	0xbd32096c	-0.043466017
98	0xbe022ece	-0.12713167
99	0xbdc63ba9	-0.09679348
100	0x3bc345a0	0.0059592277
101	0x3db04c30	0.086082816
102	0x3db68439	0.08911938
103	0xbc0d8202	-0.008636953
104	0x3d722fc0	0.05912757
105	0xbd8a20da	-0.06744547
106	0xbcdce49e	-0.026964482
107	0xbc8cd43b	-0.017191043
108	0xbd52716f	-0.05137771
109	0x3dbfebac	0.09371123
110	0xbc6e2f4a	-0.014537642
111	0xbd209dfa	-0.03921316
112	0x3da1e951	0.0790583
113	0x3d3bad4f	0.045819577
114	0x3cfc5887	0.030803932
115	0xbc3fbd6e	-0.011702878
116	0xbc11c308	-0.008896597
117	0x3dc4b957	0.09605663
118	0xbd60abee	-0.054851465
119	0x3d9fc6f3	0.078016184
120	0xbc967e60	-0.018370807
121	0x3dbb7535	0.09153215
122	0xbc8f109c	-0.017463975
123	0x3ce7d832	0.028301332
124	0xbda52932	-0.08064498
125	0x3dccd156	0.10000865
126	0x3d99fe55	0.07519213
127	0x3bdb7b80	0.006698072
128	0x3cebf118	0.028801486
129	0x3c7ba316	0.015358707
130	0xbda7d699	-0.08195228
131	0x3bfeb606	0.0077731637
132	0xbd01eca1	-0.031719808
133	0x3d8b92cc	0.06815109
134	0xbdaf129d	-0.08548472
135	0xbbdafa53	-0.006682673
136	0xbd2f6ea5	-0.04283013
137	0xbda8c066	-0.08239822
138	0xbd7066f3	-0.05869193
139	0xbdb0d8fb	-0.08635136
140	0xbca69d71	-0.020338746
141	0x3da052ba	0.07828279
142	0x3cba48ed	0.022739852
143	0xbcc1b3a6	-0.023645233
144	0xbd8824dd	-0.06647656
145	0xbd800e8b	-0.06252774
146	0xbd3e56ae	-0.046469383
147	0xbd14e540	-0.036351442
148	0xbd1b19e7	-0.0378665
149	0xbc438349	-0.011933156
150	0xbc660c51	-0.014041022
151	0xbc8ac3c8	-0.016939059
152	0xbd8fbde3	-0.0701864
153	0xbd9aeb7a	-0.07564445
154	0xbd87c9fe	-0.06630324
155	0x83cb913b	-1.1964611e-36
156	0x3d9764ce	0.07392274
157	0xbd6ac69d	-0.05731832
158	0x3d3e01d3	0.04638846
159	0x3da6d451	0.08145965
160	0x3d2376ae	0.039908104
161	0xbd9db15a	-0.07699843
162	0xbdc73db8	-0.09728569
163	0x3c044b5b	0.008074607
164	0xbda34cb6	-0.07973616
165	0x3bd1bdba	0.006400791
166	0x3c680ae6	0.014162755
167	0xbb5c84bb	-0.003364845
168	0xbd0e9a23	-0.034814965
169	0x3d3f6d52	0.046735115
170	0x3d6871d0	0.056749165
171	0xbd9693e9	-0.073524304
172	0xbbeb4c12	-0.007180699
173	0xbd6285bd	-0.055303324
174	0xbc811c81	-0.015760662
175	0x3cc1d76f	0.023662297
176	0xbcc4c321	-0.024018826
177	0x3d1548da	0.03644643
178	0xbd8c8fc9	-0.06863362
179	0x3b05e823	0.0020432554
180	0xbd04a1fa	-0.032381035
181	0x3d81cb6b	0.06337627
182	0xbcbd8ee4	-0.023139425
183	0xbced966a	-0.029002387
184	0x3ced691b	0.028980782
185	0xbd3bc4f3	-0.045842122
186	0xbc4d5ef3	-0.012534845
187	0xbb93641a	-0.004498017
188	0x3d81bc06	0.06334691
189	0xbd91a5ad	-0.07111678
190	0xbc348250	-0.011017397
191	0x3cf5eaca	0.030019183
192	0xbc146d29	-0.009059229
193	0x3d972a74	0.07381144
194	0x3c75ea6d	0.015009505
195	0xbd199e7e	-0.037504666
196	0x3cfc3357	0.0307862
197	0xbd693de7	-0.0569438
198	0xbb037232	-0.002005708
199	0xbd6481f2	-0.055787988
200	0xbda11654	-0.07865587
201	0x3d58f69e	0.052969567
202	0x3c8bb1fc	0.017052643
203	0x3c78430e	0.015152706
204	0x3b6647df	0.0035138053
205	0xbd8b831a	-0.06812115
206	0x3d904e36	0.070461676
207	0xbc3ae47e	-0.011407016
208	0x3d2e1010	0.042495787
209	0x3d202d08	0.039105445
210	0xbc945301	-0.018105986
211	0x3d5246f7	0.05133721
212	0x3d6748c7	0.05646589
213	0x3da0ab0c	0.078451246
214	0xbd2c51c6	-0.042070173
215	0x3cfc4481	0.030794384
216	0x3d7e9dc8	0.06216219
217	0xbdbc7781	-0.09202481
218	0xbca35307	-0.019937051
219	0xb91a1e41	-0.00014697855
220	0xbca63c4d	-0.020292426
221	0x3c333df7	0.010940067
222	0xbce96de6	-0.028494786
223	0xbd03c98a	-0.032174625
224	0xbd8b37aa	-0.067977265
225	0xbda9aa65	-0.08284453
226	0x3a39ba0c	0.0007084913
227	0x3d63a2fb	0.055575352
228	0xbb00513c	-0.001957967
229	0xbd0e0712	-0.03467471
230	0xbce99d9e	-0.02851754
231	0x3d22a996	0.03971251
232	0x3d6f2707	0.05838683
233	0x014d5550	3.7713762e-38
234	0xbba7e5c8	-0.0051238276
235	0x3d1879ec	0.03722565
236	0x3bb871ab	0.0056287847
237	0xbd493297	-0.04912051
238	0xbd82eaa3	-0.0639241
239	0xb9fd3a07	-0.00048299154
240	0x3d733533	0.059376907
241	0x3d07b187	0.033128288
242	0x3c47be6d	0.012191397
243	0x3ccddb05	0.02512885
244	0x3d77127b	0.06032036
245	0xbd1889f9	-0.037240956
246	0x3d367cfe	0.044552796
247	0xbd85101c	-0.06497213
248	0xbd4765eb	-0.04868118
249	0xbd379002	-0.04481507
250	0x3d7fdca7	0.06246629
251	0xbd662cf9	-0.056195233
252	0xbdbd1905	-0.09233288
253	0x3d37fd48	0.044919282
254	0x3d1f7326	0.038928173
255	0xbda22366	-0.07916908

bias f4 [128]
0	0x3d8f4ade	0.06996702
1	0xbd664dda	-0.05622659
2	0xbcd03232	-0.02541456
3	0x3d45e1d5	0.048311073
4	0x3cf3aeba	0.029746402
5	0x3bb74202	0.0055925855
6	0x3e0c8b89	0.13725103
7	0xbd2fd0c1	-0.042923693
8	0xbdb7b032	-0.089691535
9	0x3db36f17	0.08761423
10	0xbd8268e1	-0.0636766
11	0xbb55d107	-0.003262581
12	0x3d4a537d	0.049396027
13	0xbc4c4a6e	-0.012468917
14	0x3d88891a	0.06666775
15	0xbd5296cc	-0.051413342
16	0x3bc40368	0.0059818514
17	0x3dd55abe	0.10417698
18	0xbd0b4d74	-0.034009412
19	0xbc6255bd	-0.013814387
20	0x3cbc7ca7	0.023008658
21	0x3c436ced	0.011927825
22	0x3c1552b6	0.009113958
23	0x3d79ef5a	0.06101928
24	0xbd872c2d	-0.06600223
25	0x3dd84687	0.10560327
26	0xbc82faae	-0.015988674
27	0xbcd772e5	-0.026299903
28	0x3da84b09	0.08217437
29	0xbc9537d4	-0.018215097
30	0x3bdbce4c	0.006707942
31	0x39876bde	0.00025829574
32	0xbc795593	-0.015218156
33	0xbdcb1c83	-0.099175476
34	0x3dc8fe3e	0.09814118
35	0x3dfa6430	0.122261405
36	0x3c17048f	0.009217395
37	0x3e00bc38	0.125718
38	0x3da869f7	0.08223336
39	0xba0f46ff	-0.00054655963
40	0xbd82899f	-0.063739054
41	0x3d3dd43b	0.046344977
42	0x3d9e03c1	0.0771556
43	0xbde15d95	-0.110041775
44	0x3c28544f	0.010274007
45	0x3d9293e8	0.07157117
46	0x3e0ed4f1	0.13948418
47	0x3d4f80ef	0.05066007
48	0x3da0e9a2	0.07857062
49	0x3d63d179	0.05561969
50	0x3d847187	0.06466966
51	0xbc1e44f3	-0.009659993
52	0x3d624bdd	0.05524813
53	0x3d80bf44	0.06286481
54	0xbd151f80	-0.036406994
55	0xbdbcf8f5	-0.09227172
56	0x3bc35d25	0.0059620314
57	0x3d00231f	0.031283494
58	0x3ddeab90	0.10872567
59	0x3db1bd25	0.086786546
60	0x3b21b5f9	0.0024675115
61	0x3db092c0	0.0862174
62	0x3c4809f3	0.012209403
63	0x3dd84d80	0.10561657
64	0xbd5eacf6	-0.054364167
65	0x3d4e35c6	0.05034425
66	0x3dae9078	0.08523649
67	0x3e02fcc2	0.12791732
68	0xbc6652ec	-0.014057856
69	0xbd3beda4	-0.04588093
70	0x3cebfa2b	0.028805813
71	0x3d910ed6	0.07082908
72	0x3d1d14b3	0.03834982
73	0x3d61ad90	0.055097163
74	0x3cb5ddb3	0.022200441
75	0x3d03a826	0.03214278
76	0x3c9a57d0	0.0188407
77	0x3ddc7a26	0.107654855
78	0xbd25b74c	-0.04045801
79	0x3de3f127	0.111299805
80	0xbc64dba9	-0.013968387
81	0x3dea7258	0.114475906
82	0x3ddf8e5b	0.10915824
83	0x3d05eb9e	0.032695405
84	0x3d2043a9	0.039127026
85	0x3cd4c4de	0.02597278
86	0x3ce4bfa3	0.02792341
87	0x3d143a08	0.036188155
88	0x3da5776e	0.0807942
89	0x3dc93e27	0.09826308
90	0x3e075c32	0.13218763
91	0x3cf8c755	0.030368486
92	0xbd5a9c65	-0.053371806
93	0x3da8f31d	0.08249495
94	0x3debfe2b	0.11523088
95	0xbc94479f	-0.018100558
96	0x3dc090b7	0.09402602
97	0xbd517623	-0.051138055
98	0x3d5de2e5	0.05417146
99	0xbd7191e8	-0.058977038
100	0x3d691df8	0.056913346
101	0x3d3df902	0.04638005
102	0xbc8bf882	-0.017086271
103	0x3d9d0591	0.07667077
104	0x3c5885fb	0.013215537
105	0x3dffacfa	0.124841645
106	0x3db40ed4	0.08791891
107	0x3d031e72	0.032011457
108	0x3d663bb0	0.056209266
109	0x3dbfbec8	0.093625605
110	0x3d028832	0.031868167
111	0x3df47c81	0.1193781
112	0x3c8a8b09	0.016912
113	0x3db5e67f	0.08881854
114	0x3d4c9f6d	0.049956728
115	0xbdc0a979	-0.09407324
116	0xbcf8627e	-0.030320402
117	0xbab5b875	-0.0013864177
118	0xbd49b1fa	-0.049241997
119	0xbd79ce86	-0.06098797
120	0x3d96f7cf	0.073714845
121	0x3dd059a5	0.10173348
122	0x3d825732	0.063642874
123	0xbcccd3dd	-0.025003368
124	0x3d0ada2d	0.033899475
125	0x3d159c00	0.036525726
126	0x3d84f372	0.06491746
127	0x3e0a8aaa	0.13529459

weight f4 [1, 128]
0	0xbdaee9e6	-0.08540706
1	0x3cde0b21	0.027104916
2	0x3d34d2f0	0.04414648
3	0x3c94395f	0.018093763
4	0xbd89314e	-0.06698857
5	0x3c8a026c	0.016846858
6	0xbdd82f2b	-0.105558716
7	0x3de59784	0.1121054
8	0x3ca17dd0	0.019713312
9	0x3e018e35	0.12651904
10	0x3ba7a37b	0.005115924
11	0xbd35cb7b	-0.044383507
12	0x3dcb9bb7	0.099418096
13	0xbd9fa6e2	-0.07795502
14	0x3d934c4a	0.07192285
15	0x3d528600	0.051397324
16	0xbdba75e6	-0.091045186
17	0xbd061fb6	-0.032745086
18	0x3d882a9b	0.06648751
19	0xbdb293ce	-0.08719598
20	0xbd95842c	-0.073006004
21	0xbcdf5866	-0.027263831
22	0xbd820c94	-0.06350055
23	0x3c970eb9	0.018439637
24	0xbdda8f1f	-0.106718294
25	0xbe03da51	-0.1287625
26	0x3d9e3112	0.07724203
27	0xbd132378	-0.035922498
28	0xbdca8070	-0.09887779
29	0xbd8a00a1	-0.06738401
30	0xbdcab259	-0.09897298
31	0xbd7bc7bc	-0.06146978
32	0x3dcf525f	0.10123133
33	0x3d5dde81	0.054167274
34	0xbda6dcd4	-0.08147588
35	0xbda2f964	-0.07957724
36	0xbd863da1	-0.065547235
37	0xbd5f8fd5	-0.05458053
38	0x3ddad4db	0.1068513
39	0x3cc3405e	0.023834404
40	0x3d7552d3	0.05989344
41	0x3dd25dfe	0.10271834
42	0x3de8d8b3	0.11369457
43	0x3d24583a	0.040123202
44	0xbcfc2ba9	-0.030782538
45	0x3dcf6b41	0.10127879
46	0xbd845c79	-0.0646295
47	0xbccd575b	-0.025066068
48	0x3e35e819	0.1776432
49	0xbdbf22f5	-0.093328394
50	0xbd72b688	-0.059256107
51	0xbd371ac2	-0.044703253
52	0x3d7ddb3a	0.06197665
53	0xbcf920da	-0.030411173
54	0x3d22e94e	0.039773278
55	0x3d2e52d0	0.042559445
56	0xbdd3aac6	-0.10335307
57	0xbd8f38e9	-0.069932766
58	0xbdce1900	-0.10063362
59	0xbda0f275	-0.07858745
60	0x3d9c3676	0.07627575
61	0x3de253b0	0.110511184
62	0xbdc2386f	-0.0948342
63	0xbd92fdda	-0.071773246
64	0x3d83c278	0.06433576
65	0xbddf3a61	-0.10899807
66	0x3e2309b1	0.15921666
67	0xbd6a0a1f	-0.05713856
68	0xbbfd4f1d	-0.0077303783
69	0x3c3976bb	0.011319811
70	0xbd54e162	-0.051972754
71	0x3e12439c	0.14283603
72	0x3d8f8533	0.070078276
73	0xbe098bb7	-0.13432203
74	0x3e23773f	0.15963458
75	0x3dd1ef9c	0.1025078
76	0xbbc5b8e7	-0.006034005
77	0xbd428562	-0.047490485
78	0x3d2382bc	0.0399196
79	0xbd005d92	-0.031339236
80	0xbdbf278f	-0.09333717
81	0xbd89888b	-0.06715497
82	0xbda4f876	-0.08055203
83	0xbd4b30e3	-0.04960717
84	0xbda2a923	-0.079424165
85	0xbd91330f	-0.07089817
86	0xbdbedea2	-0.093198076
87	0x3d0e2b14	0.03470905
88	0x3d5f932b	0.05458371
89	0xbdd5ffb7	-0.10449164
90	0xbdd25283	-0.10269644
91	0xbd7b61d4	-0.061372593
92	0x3adb4b59	0.0016730829
93	0xbd158e01	-0.03651238
94	0xbd0b04fb	-0.033940297
95	0xbd5dd2c2	-0.054156072
96	0xbd10691f	-0.0352565
97	0x3b804b62	0.0039152363
98	0xbd3b9867	-0.04579964
99	0x3c533b2f	0.012892528
100	0xbdeda2ae	-0.11603294
101	0x3d801137	0.062532835
102	0x3c8e30a4	0.017357178
103	0x3daab66f	0.08335578
104	0xbd904f57	-0.07046383
105	0x3e12e5c3	0.1434546
106	0x3de817ed	0.113326885
107	0xbda16c04	-0.078819305
108	0x3da5f3be	0.08103131
109	0x3df07e59	0.11742849
110	0x3d4582b9	0.04822037
111	0x3de69d1d	0.11260436
112	0xbd866f61	-0.065642126
113	0xbd6e9f5d	-0.05825745
114	0x3e04857f	0.1294155
115	0x3d37f7b3	0.04491396
116	0xbcd275c1	-0.025690915
117	0xbdd7bff8	-0.10534662
118	0xba4d3805	-0.0007828477
119	0x3d89e733	0.06733551
120	0x3d971d2b	0.0737861
121	0xbdc82095	-0.097718395
122	0x3d40c42e	0.04706209
123	0x3cfd8323	0.03094632
124	0xbdace07c	-0.084412545
125	0xbd98d3f2	-0.074623
126	0x3d867636	0.06565516
127	0xbdd341e9	-0.10315306
