bike_sharing/AutogluonModels/ag-20220403_203319/models/NeuralNetTorch_BAG_L2/S1F6/net.params (torch, 215879 bytes, 9 tensors)

weight f4 [128, 22]
00000000: 8919 d6bd 452e 663e 1fed fabd 88aa eabd
00000010: 7d09 cfbd d6a1 ed3d e7b1 993d 0152 3a3e
00000020: 98e0 d83c f097 123d d2ff 5ebd d9bf 8cbc
00000030: 8c6c 39be f368 20be 4f49 d5bd 343d 523d
00000040: 531a d43d 0915 433e 5dfe adbd 6645 a3bd
00000050: 4748 8c3d 4a45 443e 4146 20be 1c86 743e
00000060: 75a3 73bd 9a75 87ba 144e 353e d664 55be
00000070: c7c4 05be f9b3 933c 473c 38bd d30e 1b3e
00000080: 2b14 07be 0398 04be d73b 49be 092d 38be
00000090: 3d9b 27be dca4 2d3e 7a47 d33d 91e2 ba3d
000000a0: f9a3 b23d 1c78 01be 66b8 b23c 2a76 20be
000000b0: 5143 23be f7d7 d2be bf6d 553d 1750 133e
000000c0: 1bdb bebd e0f6 b83a 3290 0a3e dc23 ec3d
000000d0: 560c 243d 29c2 4e3d 453c 043e 9a55 69bd
000000e0: 42d4 c13c 651c 00be eb8c b8bd 1ca8 ecbd
000000f0: 97b4 263e df72 293c a332 14be 0f3e bd3d
00000100: d3a6 b93d f581 723c 5087 9cbd d3c6 623e
00000110: 79aa 003e 487e f53d f05d d0bd 1445 e5bd
00000120: 5700 5d3d 2f60 2a3e e367 d63d 5c7c 273e
00000130: 4332 b83d b1da 19be 30ca 80bc 8a1d 04be
00000140: 8e41 7abe 802c 253e ffda 263e 551f 07be
00000150: bb50 bf3c 778a e9bd 5d70 413d d551 49be
00000160: 68a2 da3d eb9a a5be a05c 4e3d 972e 8b3d
00000170: 3845 533e cab6 833d 6324 4ebe 49a3 ccbd
00000180: b770 813d 765c 5f3d 948c febd 1ed4 e9bd
00000190: 6bf2 2a3e befc 2c3e b910 abbd 131d 9bbd
000001a0: 2f13 5ebe 289b 223c 731f cebd 1e41 16be
000001b0: 7378 8fbc f8c9 ce3d b3d0 8cbe f3a2 843e
000001c0: d8e0 e3bd cd09 273e 4bf8 863d 9b59 91bd
000001d0: 33ad 673d e109 98bc d597 323d 4bc2 023d
000001e0: 8aee 6e3c ca29 d6bc 72e4 f3bd c159 b83d
000001f0: b864 41be e201 8fbd c725 f83b 25d7 03bd
00000200: a59f b4bd e33f 23be 3107 31bd 14cb a13d
00000210: 188c 56be 149e 07be 596e a43d d4d7 9cbd
00000220: fb7a debc 1098 2dbd 7e55 913c 5fe8 113e
00000230: 2ccb 513e 911a c33d c2a4 2f3e e568 dbb9
00000240: b965 2abe 5e35 14be e247 223e 95e1 9fbc
00000250: a63e e9bd 644f f6bd 742e 53be 3cc4 5ebe
00000260: 401d 0abe 2276 033e 1944 923e 44be c2be
00000270: 501f fc3d 7826 07be fd92 c1bc 9adc 8abd
00000280: f551 06bd 6d08 843a 4aa3 c1bd 0be8 d4bd
00000290: 60ae dc3a 353a 6abc 3b1d 85bd d222 c23d
000002a0: 349b 0fbe c1c3 8f3b b21e 3e3e dcaa dfbc
000002b0: db45 e73d b330 c03d 9e89 3abe 7ecc b33d
000002c0: ac00 423e af75 9bbe 22e5 d73d d88f 18be
000002d0: 61a8 c43c 1bd8 b7bd 1fbe b33d a325 843d
000002e0: 1af1 4e3d 21df 083d 53e3 86bd d2de e8bc
000002f0: 6455 cbbd 3eb8 9a3d 896b 323e f5da 923d
00000300: df6a 3abe 248e cd38 eb27 fcbd 2c89 0dbe
00000310: ea07 26be 9987 c13d 9b8b 77be 6193 aebe
00000320: 0f0b 90bd 51cf 263e 6e4c ecbd 21e1 bebd
00000330: c9d4 9bbd 1dc2 2f3d efd8 1ebc 28a9 a43d
00000340: 788c a03d 3998 6c3d 669f 2cbd 12e3 20bc
00000350: 24ad 103d 787d f1bc b3af 843c 1763 5f3c
00000360: 7eb6 d8bd 3de7 74be 6170 0c3e 2c23 e1bd
00000370: 7102 48be 243d a73e ebd8 103d ccd2 7bbd
00000380: ab23 05be 3960 d93d b29b 1bbe 497e 64bc
00000390: 1211 a5bd 308e 2cbd 665d 693d 0a2f b33d
000003a0: 9016 893c 4c1d 163e 96d6 393d 006f 2dbe
000003b0: 5b2b 8f3d f40f 74bd b26c fcbd 23c9 7dba
000003c0: 8e50 943d 87f5 c83d 8bca 70be d463 abbd
000003d0: a993 813d 3eff 5bbe 3c8d 053e d30f 12be
000003e0: 1f5f 0f3d 025a 65bc 6f31 b0bc 3ed4 653c
000003f0: 06fb 1b3e db33 95bd fd25 1fbe 27c3 7dbd
-0.10454089 0.22478588 -0.122522585 -0.114583075 -0.101092316 0.116031334 0.07504635 0.18195345
0.026474282 0.03578943 -0.054443188 -0.017181324 -0.18107814 -0.15665035 -0.10414373 0.0513279
0.103565834 0.19050993 -0.084957816 -0.07972221 0.06849723 0.19167057 -0.156518 0.23879284
-0.059482057 -0.0010334731 0.17705566 -0.20839247 -0.13063346 0.018030154 -0.04497936 0.15142374
-0.13191287 -0.12948613 -0.19651733 -0.1798593 -0.16367812 0.1695742 0.103163674 0.09125245
0.087226816 -0.12643474 0.021816444 -0.15670076 -0.15943648 -0.41180393 0.052106615 0.1438602
-0.09319135 0.001411166 0.13531569 0.11530277 0.040050827 0.050478134 0.12913616 -0.0569664
0.023660783 -0.12510832 -0.09011253 -0.11555502 0.16279827 0.010342329 -0.14472441 0.09240352
0.09065022 0.014801492 -0.07642996 0.22146158 0.1256503 0.11986977 -0.10174167 -0.11194816
0.053955402 0.16638254 0.104690336 0.16356033 0.08993962 -0.1502483 -0.01572141 -0.12901893
-0.2443907 0.16130257 0.16294478 -0.13195546 0.023353925 -0.11403363 0.0472263 -0.19660123
0.10675508 -0.32344756 0.050381303 0.06795996 0.20631874 0.064313486 -0.20131068 -0.09992082
0.06320327 0.054531537 -0.12429157 -0.11417411 0.16694038 0.16893288 -0.08352799 -0.07573905
-0.21687005 0.009924687 -0.10064592 -0.14673278 -0.01751349 0.10097116 -0.27502975 0.2590557
-0.1112687 0.16312332 0.06590327 -0.07097169 0.05656166 -0.018559398 0.04360183 0.031923573
0.014583239 -0.026142973 -0.11908807 0.09001494 -0.18886077 -0.06982781 0.007572863 -0.0321876
-0.08819512 -0.1594234 -0.04321975 0.07900062 -0.20951879 -0.13243896 0.0802886 -0.076583534
-0.027158251 -0.042381346 0.017740961 0.14248799 0.2048766 0.095265515 0.17152694 -0.00041849088
-0.16640367 -0.14473483 0.15847734 -0.019516746 -0.11388902 -0.12026861 -0.20623189 -0.21754545
-0.1348772 0.12838033 0.2856758 -0.38035786 0.1231066 -0.13198268 -0.02362966 -0.06780358
-0.032793004 0.0010073312 -0.09454973 -0.10395821 0.0016836636 -0.014296104 -0.06499716 0.09479298
-0.14024049 0.0043873494 0.18566397 -0.027303152 0.11292621 0.09384289 -0.1821656 0.08779238
0.18945569 -0.30363223 0.105417505 -0.14898622 0.02400607 -0.08976766 0.08776497 0.06452491
0.0505229 0.033415917 -0.065863274 -0.028426562 -0.09928396 0.07554673 0.17423834 0.07170669
-0.1820483 9.8016375e-05 -0.12312301 -0.13821858 -0.16213956 0.09449691 -0.24174349 -0.34096816
-0.07033359 0.16290022 -0.11538015 -0.09320284 -0.07608945 0.04290973 -0.009695276 0.080400765
0.07839292 0.05776236 -0.0421442 -0.009819763 0.03532137 -0.029478773 0.016197061 0.013634465
-0.105816826 -0.23916335 0.13714744 -0.10993037 -0.19532181 0.32663834 0.03536312 -0.06148033
-0.13001888 0.10614056 -0.15196112 -0.013946124 -0.080598965 -0.042127788 0.056973837 0.08749206
0.016734391 0.14659613 0.04537066 -0.16936874 0.06990691 -0.059585527 -0.123254195 -0.0009681156
0.07241927 0.098124556 -0.23514764 -0.0836865 0.06326992 -0.21484086 0.13042158 -0.14263849
0.035002824 -0.01399851 -0.021507947 0.014027653 0.15232477 -0.07285281 -0.15541835 -0.06195369

bias f4 [128]
00000000: 6b76 1dbe 70b6 07be e01e 123c 6775 cfbd
00000010: d3b3 67bd 48a9 ec3d c15f 55bd d9f6 283d
00000020: 6793 363e 1da2 2dbe 9059 30be e579 f7bd
00000030: b7ec 0fbd c3b1 03be 96ea 39bd 3814 843c
00000040: 5fba 3d3d 3ab9 183e 86a2 0d3e 69af 033d
00000050: 221d 15ba df66 0c3d fd48 18bd 86e6 a1bd
00000060: 15b0 df3d a1a3 80be d421 1dbe 726a 80bd
00000070: f334 bcbd 366a 0dbe cbd4 7abe 7c99 133e
00000080: 1c04 16bd 12c3 b0bd 58d6 07be 4ba2 1d3d
00000090: 5f67 44be 2a13 4fbc c1f7 71bc c3d9 2b3d
000000a0: 4e30 9c3d ef33 11be 427a ab3d c898 1b3e
000000b0: 1596 41bd e3f7 793d d4ee f8bc 6e3a ca3c
000000c0: 94a0 69bc 52d1 f9bd c12d f43d 9d6c 88be
000000d0: d90b dbbc d8b9 2dbe d3c5 ecbd b409 41be
000000e0: a911 86be 95be 863d 6d10 b3bd 972e 16be
000000f0: 773a 93bc 909b 9ebd b8a2 a33c 149d 1cbe
00000100: e7b4 d1bc 8701 7d3d ff0e 653d 57bb dc3b
00000110: 1ae6 133d ac75 2b3e c760 e4bd 30d9 d03d
00000120: 6aaa 4b3e 7d88 4dbe e22d 2a3c 9621 f73d
00000130: 5802 8ebd 1803 923d f618 bf3c e141 de3d
00000140: 3a88 02bd 4605 eabd f3f9 ea3d 5934 ad3d
00000150: b72f 123e 99a4 543d d952 ed3d 33af 073d
00000160: f9f1 1f3d 741a a9bd 4b02 003d b0f0 25be
00000170: 9fb7 ae3c be62 e3bc 0af1 c1bb 65cb 0bbe
00000180: 2daf 413d 9cd5 4cbe 67a3 ae3d 504d f33d
00000190: df90 6cbe 5994 113e b9fa 4abe 91b8 16bd
000001a0: 607f a23d ddc6 bdbb ce2c 2d3e 19db c5bd
000001b0: 3ec8 ecbb bc9c 39be f35e 9fbd cf43 633e
000001c0: 709f e13d ac64 fa3c f6b6 d5bc cccc 14be
000001d0: 9c99 0d3e b251 a73c de18 1bbd 9e4f 13be
000001e0: 2e1c 113e ccf8 983d 7375 e83d 9f2d 4b3c
000001f0: 052e 02be 2757 e73d b525 e13c cc06 893d
-0.15377204 -0.13253188 0.008918494 -0.101298146 -0.056567978 0.11555725 -0.05209327 0.041251037
0.17829667 -0.16956373 -0.17221665 -0.120837964 -0.03513786 -0.1286078 -0.045389734 0.016122922
0.046320315 0.14914408 0.13831529 0.032149706 -0.000568824 0.034277793 -0.037178982 -0.07905297
0.10922257 -0.2512484 -0.15344936 -0.06270303 -0.09189787 -0.13810048 -0.24495237 0.14414018
-0.036625013 -0.08630957 -0.1326536 0.038484853 -0.19180058 -0.012638846 -0.014768542 0.04195572
0.07626401 -0.14179967 0.08372928 0.15195 -0.04726227 0.06102742 -0.03038732 0.024686065
-0.014259476 -0.12198128 0.11922789 -0.26645365 -0.026739048 -0.16965425 -0.115611695 -0.18851358
-0.2618535 0.065793194 -0.08743367 -0.1466621 -0.017972214 -0.07744515 0.019975051 -0.15294296
-0.025598956 0.061769035 0.055922505 0.0067362 0.036108114 0.16744107 -0.11151271 0.10197675
0.19889227 -0.20071597 0.010386916 0.12066953 -0.06934041 0.07129496 0.023327332 0.10852409
-0.031868197 -0.11426787 0.11473455 0.0845725 0.14276014 0.051914785 0.115880676 0.033126067
0.039049122 -0.08256999 0.031252187 -0.16205096 0.021327792 -0.027757045 -0.0059186267 -0.13651808
0.0472862 -0.2000336 0.0852726 0.118799806 -0.23102139 0.14216746 -0.19822206 -0.03679711
0.07934451 -0.0057915286 0.16911623 -0.0966093 -0.007226019 -0.18126196 -0.07781782 0.22193836
0.110167384 0.030565582 -0.02608822 -0.14531249 0.13828129 0.020424698 -0.037865512 -0.1438584
0.14170906 0.07469329 0.11350527 0.012401014 -0.12712868 0.1129592 0.0274838 0.066907495

weight f4 [128, 128]
00000000: e32d cbbc b87b 8cbd ca31 e83d ee13 ae3c
00000010: 28ed a3bb fbe4 77bc d725 febc c9fe 613b
00000020: fae7 4e3d f62f 623c 0db6 9d3c 5186 5b3d
00000030: e3ac 363c 6cea 4bbc 1b8e 3a3d 5ce8 03bd
00000040: 176f 883d 970a 2cbd 2586 053d fac9 e1bd
00000050: 5b02 ca3d 4acc ca3d 6693 893d 8bd9 2ebc
00000060: 8368 b93d a67b 633d 5523 ac3d 4417 603d
00000070: 1c03 e2bd eb0f ee3c a843 0e3d 2d3c 403c
00000080: c5f9 7f3d 433b 173d 27af 2b3c cbc4 923d
00000090: df8d 9b3c fcad 273c 5e51 103c 8800 093c
000000a0: ef81 7abd 8e51 07bc 105d 7d3c 849d 19bd
000000b0: 713c 99bb 07c6 7a3d 29c9 d23d 3a26 8e3b
000000c0: 7d7b 4a3c 06ac 99bd 0bdb 2d3d 69e9 33bd
000000d0: db31 923d 91ce f8bc cd10 d8bc daf4 69bd
000000e0: 5b58 b53c 028c 8d3c 7a36 a7bd eee2 923d
000000f0: f8a3 533d 3862 aabd 3c83 c5bc a00d d53c
00000100: e3f2 ce3d 8309 c7bc 46d5 5d3d 747b bf3c
00000110: 1afb aebc 43fe 703d 4cb9 9abd ec12 ad3d
00000120: cb99 b33d 4252 91bc fd16 793d 9233 e83d
00000130: 89c3 883d c826 1c3b a061 2a3d 17ac 88bd
00000140: ebb5 043d 238b 52bc bafe de3d d858 a4bb
00000150: 8775 b43c b8d4 1ebd 9f7c 8b3d a8f5 aebc
00000160: 514e 9a3d 61b9 80bd a890 a0bc 31ea b93c
00000170: 0104 eabc 6fde 1abd 2097 7c3d b3b5 f2bc
00000180: 6d97 68bd 166b 9ebc a0c1 983d aa16 b1bc
00000190: 1b6e 4ebd 10ca 3cbd 91e7 8c3d bc1d 63bc
000001a0: 78f3 d3bc 0b60 babc f9de d23c d92e fd3c
000001b0: 4473 233d 3330 5c3d fb65 d63d 6d40 8d3d
000001c0: 1077 ee3c 1b11 4e3d 3a7c 8fbc 9fe7 2d3d
000001d0: 6030 8e3d c562 953a 062b 8aba 8b90 99bb
000001e0: f7d1 2fbd dd81 bc3c 96a1 b73d c14c 01bd
000001f0: 26e7 5d3d 1aa7 a83c 3106 103d ddfc 97bd
00000200: 8e50 013e ffb1 b13d 5c56 5cbd 1530 0abd
00000210: f9bf aa3b 587b 3d3b d2f3 883d c209 f9bd
00000220: caf9 2cbd cb89 3c3c 6ae7 393d ce7c ad3d
00000230: 66f0 15bd 95a5 c03c d9e6 54bc 42b0 473c
00000240: 275a b8bb a2be ec3d 2c2a 30bd e789 973d
00000250: e292 4c3d b5d6 eabc f3c5 2fbd 557c 8a3c
00000260: dabe c9bb a12a 75bc eea0 d6bb ff5b 813d
00000270: 785b afbd 2119 373c f43b d83b 9677 273d
00000280: fdda 7f3d 05d2 aebd f3a2 6abd dca7 553d
00000290: c585 a43d 4efa a73d 84b4 28bd 0d74 48bd
000002a0: 47b1 073d 6526 173d 1a87 9a3b 19ed a9bd
000002b0: 12b5 b03c f287 a8bc bea7 ae3c 58a2 0bbd
000002c0: 7392 733d 985e abbd 0bf4 a4bd 8519 54bd
000002d0: 1ac0 bcbc dd10 7fbd e0c2 193d d654 873b
000002e0: 4351 a93d 32f3 fe3c 784f 43bd 9ed9 b9bc
000002f0: 10d3 3abd 5821 bbbd 0b74 aa3c dc97 7c3d
00000300: 9d48 ab3c 25c3 ff3c 0c8a d2bd e45a 143c
00000310: 5ab6 0fbd 7235 913d 8e33 973d 3f71 b33c
00000320: e5d1 b7bc 036b 89bd 65fa 2abc c7ac 683d
00000330: e9fc 26be 0e6f e3bd c68a afbc 3397 183d
00000340: d370 a7bd a9cf d3bd a8a8 da3c 0eda 843d
00000350: 52c7 643d 0925 05bd b44d 07be ca50 8bbd
00000360: c106 843d 77de 3c3d 2f19 f9bc 7e1c 193d
00000370: 780e 1cbc 5975 f43c 7ac6 273d 340a 13bd
00000380: a544 b0bd fb76 263d 12ca 17be 7881 293b
00000390: 8c2c c33c 9a86 3d3b d015 2f3d 3bfc 8cbd
000003a0: 8723 9b3b ee24 243c 4d97 843b c311 8abd
000003b0: a21a fcbc 85d0 d63c b397 1fbd fd36 43bd
000003c0: 816d 84bc 3730 c13d e91a 40bd 97dd 48bd
000003d0: 7e2f 06bd b047 5dbd 69bb 313d 41af f4bd
000003e0: 33c2 783d 4284 c43d e170 e33c 913a 133d
000003f0: 7db6 9ebd 247b 0a3d 9912 b73d 3d15 a13d
-0.024802154 -0.06859535 0.113376215 0.021249738 -0.0050026365 -0.015130277 -0.031023903 0.003448414
0.0505142 0.01380538 0.019251848 0.05359489 0.011149618 -0.012446027 0.04554568 -0.032204017
0.06661814 -0.042002287 0.032598633 -0.11024852 0.098637305 0.09902246 0.06717567 -0.0106719835
0.09053137 0.055537842 0.084051766 0.054709688 -0.11035749 0.029060325 0.03473249 0.011733097
0.06249406 0.03692175 0.010478771 0.071664415 0.018988548 0.010234352 0.008808462 0.008361943
-0.06115907 -0.00825919 0.015464082 -0.037503734 -0.0046763946 0.06122401 0.102922745 0.004338053
0.012358543 -0.07503514 0.042445224 -0.04392377 0.071384154 -0.030371936 -0.026375199 -0.057118274
0.022136858 0.017278675 -0.081646875 0.0717219 0.051670045 -0.08319515 -0.024110429 0.026007473
0.10104921 -0.024296528 0.05415847 0.023374297 -0.021359969 0.058836233 -0.07554874 0.08450875
0.08769568 -0.017739419 0.06081294 0.11337961 0.0667792 0.0023826826 0.04159701 -0.066734485
0.032400053 -0.012850556 0.10888429 -0.005015474 0.022028698 -0.038777083 0.06810879 -0.021357372
0.07534469 -0.06285358 -0.019600227 0.022694679 -0.028566362 -0.037809785 0.06166756 -0.029627657
-0.056785036 -0.019338172 0.07458806 -0.021617252 -0.050397974 -0.04609114 0.06880105 -0.01386207
-0.02587293 -0.022750875 0.025741087 0.030906128 0.039904848 0.053756904 0.1046867 0.06897054
0.029109508 0.05030928 -0.01751529 0.04245722 0.069428205 0.0011397233 -0.0010541386 -0.0046864203
-0.042924847 0.023011142 0.08966367 -0.03156734 0.05417552 0.020587493 0.035162155 -0.07421277
0.12628385 0.08676528 -0.053793296 -0.03373726 0.005210873 0.002891263 0.0668713 -0.12160064
-0.042230405 0.011507462 0.04538671 0.0847107 -0.036606215 0.023516456 -0.0129944915 0.012188019
-0.0056259814 0.11559798 -0.04300897 0.0739935 0.049944766 -0.028666833 -0.04291339 0.01690499
-0.0061567845 -0.014963777 -0.006549946 0.06316375 -0.08562368 0.011175425 0.006598944 0.04088553
0.062464703 -0.08536152 -0.057284307 0.052162036 0.08033327 0.08202039 -0.041187778 -0.0489388
0.03312805 0.03690185 0.0047158124 -0.08297176 0.021570716 -0.020572636 0.02132022 -0.03409037
0.059465837 -0.08367652 -0.0805436 -0.05178215 -0.02304082 -0.06227194 0.037539363 0.0041299863
0.082674526 0.031121824 -0.04768321 -0.022686776 -0.04561144 -0.09137219 0.020807287 0.061668262
0.020908648 0.031220982 -0.102802366 0.009054873 -0.035086013 0.07090272 0.0738288 0.021904586
-0.022438953 -0.06709864 -0.010435675 0.0568054 -0.16307415 -0.111051664 -0.021428477 0.03725357
-0.081758164 -0.103423424 0.02669175 0.06486903 0.05585415 -0.032506023 -0.13213235 -0.06802519
0.06446601 0.046110597 -0.030407516 0.037380688 -0.009524934 0.029841112 0.040960766 -0.035898402
-0.08606843 0.040640812 -0.14823177 0.0025864523 0.023824953 0.002891934 0.04274541 -0.06884047
0.00473446 0.01001857 0.004046357 -0.06741669 -0.030774418 0.026222477 -0.03896303 -0.047659863
-0.016165497 0.094330244 -0.046900664 -0.04903945 -0.032760136 -0.054023445 0.04339162 -0.119474895
0.060732078 0.09595539 0.027763786 0.035944525 -0.077496506 0.033808842 0.08939094 0.07865379

bias f4 [128]
00000000: 47f1 903b f4ce 213d 6bd2 0ebe 76fa 05bc
00000010: 765b 69bb e553 c0bd f816 c2b9 dec3 6ebd
00000020: 2b1a c5bd c118 8b3d d406 e03c 3fce a53d
00000030: 8ff9 c43d 4ee2 55bd 5a16 afbc 29b2 edbc
00000040: 842f 173d 80a1 8b3c d234 3bbc 31db 913d
00000050: 71e8 9bbc fc3e 2c3d e58d c43c a8f0 c2bc
00000060: 5595 8d3d 45bb 2d3d f239 86bc 962b 99bd
00000070: af0e 8b3d 68af 943d aa97 263d 2479 993c
00000080: 75fa 313d f45b 003d e235 17bd 9dfe 7cbd
00000090: 8394 3fbd 76a0 4c3d bd5b d1bc 993f 833d
000000a0: 27c1 b4bd 1143 3abd 3da6 8e3d 61a9 0dbd
000000b0: 8349 3c3c c2a1 a63d e735 013c 92a1 453d
000000c0: 6d8e bcbb 4fa6 afbd 1465 0abd 845e 0ebd
000000d0: a5d7 efbc ebab 59bd a35f 85ba 6c05 b23d
000000e0: ce2d 9c3d 7670 383d 89bc 8abd 7b7f bb3c
000000f0: cc39 c33c 27d2 b93d bec9 24bd db23 693d
00000100: 4ba1 873d 1ade eeba a1c0 06be d0d3 ce3c
00000110: f77f 413d b118 9abd 3f96 d03d e5fa 67bc
00000120: d900 04be 5aba e03c bc46 663d ab1a cabb
00000130: 0dbb 93bd 6955 19bd 4c79 663d f4cf 513d
00000140: c5eb 813d debf f83c 4237 7b3d c341 86bd
00000150: f9f3 513d 3ae6 333d cfe5 553a 6f84 ba3d
00000160: a725 24bd 9023 b73d 172c 3f3b e18f 2c3d
00000170: c607 a23b 20d3 b13d 2c08 b1bc a9fe 95bd
00000180: b9cd 8c3d 5ef5 f9ba 47de 34bc aa1b 4bbd
00000190: 2edf b73d c351 113d 5090 15bc 57f8 82ba
000001a0: 2a74 c23d b191 2c3d 4eae 923d 4d4e a8bc
000001b0: 85b9 07bd efa5 26bd 58d7 b2bd 8aa0 cabc
000001c0: 5725 853c f84e 7ebd 08ee 30bd b203 6d3c
000001d0: 7311 9fbc 0f58 89bd 367f bb3d b2e0 42bd
000001e0: c40f 9d3c 1dfe 803d 64b4 c0bd bc1f c13b
000001f0: 7be8 bbbd 4937 bc3d 2d8f 07bd 041f 9a3d
0.0044232938 0.039504007 -0.13947456 -0.00817739 -0.0035607493 -0.093910016 -0.00037019677 -0.058292262
-0.09624132 0.06791831 0.027347006 0.08095979 0.09617912 -0.052217774 -0.021372963 -0.029015617
0.03691055 0.017044783 -0.011426168 0.071218856 -0.019031735 0.042052254 0.023993442 -0.023796394
0.069132484 0.042414922 -0.016385052 -0.074790165 0.0678991 0.072600186 0.040671982 0.018734522
0.043451745 0.031337693 -0.03691662 -0.061766256 -0.04677249 0.049957715 -0.02555644 0.06408615
-0.088259034 -0.045474116 0.06965301 -0.03458536 0.011492136 0.081363216 0.0078863865 0.04824979
-0.005754283 -0.08576643 -0.0337878 -0.034758106 -0.029277632 -0.05314247 -0.0010175597 0.086924404
0.07625924 0.045029126 -0.067742415 0.022887936 0.02383127 0.090732865 -0.04023146 0.05691896
0.06622561 -0.001822415 -0.1315942 0.025247484 0.047241177 -0.07524241 0.10184907 -0.014158939
-0.12890948 0.02743261 0.0562198 -0.00616773 -0.072134115 -0.03743497 0.05626802 0.05122371
0.063437976 0.030364927 0.061331995 -0.06555512 0.05125806 0.043920733 0.00081595493 0.09107291
-0.04007497 0.0894233 0.0029170567 0.0421294 0.0049447743 0.08682847 -0.021610342 -0.07323963
0.06875176 -0.0019070318 -0.011039323 -0.04958693 0.08978115 0.035478365 -0.009128645 -0.0009992224
0.09494813 0.04213113 0.07162152 -0.02054515 -0.03313591 -0.04068559 -0.0873248 -0.024734754
0.016253157 -0.06208703 -0.043195754 0.014466213 -0.0194175 -0.06706249 0.09155123 -0.047577567
0.019172557 0.06298468 -0.09409407 0.0058936756 -0.091752015 0.09190232 -0.033095527 0.07525447

weight f4 [128, 128]
00000000: 2418 1cbd a305 603b 196d 253d 228c 5fbd
00000010: 56e8 fa3a f13c 85bd bb02 c43d f880 d1bd
00000020: ee3b 813c f909 013e 4391 aabc 4670 8cbd
00000030: b4b9 e2bd c0e6 6d3c 9e2b da3b 62a7 95bd
00000040: 9b4f 1d3d 8093 02be eca6 273d 4e5a 273c
00000050: 54e5 88bd 0758 27bd c922 0dbc 7fbd dabd
00000060: 1224 95bd cdfb febb 3d10 f13c 3f22 10be
00000070: 182d 233d 0c8f 6abd 4527 b13d eb3a d7bc
00000080: f3c7 06be d514 b53c 5dc0 723d 11e8 b53c
00000090: c268 8f3d df21 123d ae3e c43c 4655 27bd
000000a0: ccc9 813d 874c a6bd 22a8 253d a358 1a3a
000000b0: cabb d93d e1c5 133d 0312 3c3d 5706 dd3d
000000c0: 1319 8d3c 81f4 b8bd b1b1 d53c 3636 a33d
000000d0: b6ac c03b a0db 0cbc 69ea 173d fbe6 8dbd
000000e0: 5e92 853d d4fe a8bd 1976 bbbd b6c7 623d
000000f0: 50f2 44bd e59c 0e3d e7ad 853c 9adf 3f3c
00000100: a7aa c6bc 5e48 16be 1a98 d8bc 3b2c 21bd
00000110: 10e3 693c a10a 0ebe 7e54 62bd 3eec d3bd
00000120: c051 83bc 2c47 d73d 89a0 173d 1887 08bd
00000130: e6fe 9cbb 9316 72bd 2242 3cbd 39e8 e83b
00000140: 4901 bdbd dfe6 85bd 7e4f 46bd 43ed 96bd
00000150: bb34 f4bc c80e 4d3c 811e d53c aa1e 2f3d
00000160: 706e 6b3d 52bc 5fbd 59e5 b2bd f542 333d
00000170: 26cf debb 1c40 d9bd ac7a 143d 3811 21bd
00000180: 4dc4 8dbc 460e 67bc c6fe 883d e18f 83bc
00000190: 1d77 2b3d 7c61 b53c a8e0 c83b b436 c0bc
000001a0: 421b cd3b 9084 4fbd c2ac e53b d032 883b
000001b0: 84c4 46bd 3678 b53c d6b5 adbd 5e10 1d3d
000001c0: 7d1e 02be 7a86 20bd 4f78 d93d 5916 cd3a
000001d0: 3a31 323d 027b 84bd 7481 253c 7abe 3f3d
000001e0: 83b7 f6bd 27e9 b4bd 0051 763d fdc9 d2bc
000001f0: 83f3 9cbc 7dac 9bbd 6c05 5c3c ebb1 b33d
00000200: c66b df3c fab1 d403 9602 b203 f6ba 0abd
00000210: 62d2 d003 bb79 37bc 6857 613c da31 b8bc
00000220: f7ad c4ba 7f00 07bb af76 a13c 8aa6 24bc
00000230: 4e5d 873b dd0b 4ebd 87cf 8bbb 0e9c e483
00000240: 1964 30bd 8422 45bd d755 c8bc 4064 9c3b
00000250: 77f3 943b 2be0 4dbb c306 00bc 4b23 cdbb
00000260: a8a9 3cbd 4d0d 133d a161 bcbc e9f9 51bc
00000270: 61ad d8bb d2b2 40bc d2e3 ecb9 b809 d5bb
00000280: 1a5f e33b 188e cdbb 50f1 65bb 90ac e1bb
00000290: b76c 8c3a 8279 443c d9cd e8bb 6591 453b
000002a0: 5844 9ebc c2c1 01bc c8de 46bd ac56 f7bc
000002b0: de1d 25bd b450 08bd 8401 3939 7b47 bcbb
000002c0: cdd2 3ebd a7f0 d683 3b20 07bd 143e 473a
000002d0: 0e22 0ebc 0f38 0184 1a12 c303 9812 da03
000002e0: 5284 dabc 0353 c63c 8651 c43b edd2 9d3b
000002f0: 37ea 25bc e648 1c3b 9683 263a 0f4b 1a3b
00000300: a5eb 21bd a68a c983 5894 85bb 4b60 4ebd
00000310: 6c30 0dbd fac6 03bb 4245 32bd ad05 6a3c
00000320: ff73 e003 5164 11bc e898 b4bb a35b 61ba
00000330: 32b1 f8bb 9241 293d 4ca1 b8bc 5ad9 ecbc
00000340: fc26 46bc 433d 6e3b 26a4 75bc f7b6 a483
00000350: b789 1bbc 79a4 143d 5b7d 38bc f1f1 89bb
00000360: ee0c 7cbb c15f 94bb a34c f0bc 1f6a 563a
00000370: 5be1 723c 8e86 6e3b 99e2 efb9 45eb bf3b
00000380: 372a 7ebb a4e3 37bb 018f b703 5463 9b3b
00000390: 4495 f63b 7a8d 2b3c 5620 363a 8906 41bc
000003a0: a5b9 3ebc fa5a 04bc 7288 b7bb 3385 483a
000003b0: 03e1 0483 88f2 08bd bb48 de83 5ee3 0ebc
000003c0: 6285 bfbc a2fb 2fbd 831e 00bd 8b7b 2bbc
000003d0: 00c5 bbbc 98a1 973b 013d 903b da1b 45bd
000003e0: a727 e6bb c1f3 dbbb 92fc 9a39 994a 473c
000003f0: c611 c283 e35e 303d 2387 623c 1957 55bd
-0.03810896 0.0034183047 0.040387247 -0.054577 0.0019142728 -0.06505764 0.09570833 -0.10229677
0.015775647 0.1260146 -0.02082122 -0.06857352 -0.11070576 0.014520347 0.0066580316 -0.07307316
0.038405996 -0.1275158 0.040930673 0.010214401 -0.06684366 -0.040855434 -0.00861425 -0.10680675
-0.072822705 -0.007781482 0.029426688 -0.14075564 0.039837927 -0.057265326 0.08650068 -0.026273211
-0.13162212 0.02210466 0.059265483 0.022205384 0.07002403 0.035676833 0.02395567 -0.040852807
0.06337318 -0.08120065 0.040443547 0.00058878417 0.10631521 0.036077384 0.045915615 0.10792225
0.01722387 -0.090310104 0.026085706 0.07969324 0.0058799637 -0.008597285 0.037088785 -0.06928822
0.06522058 -0.082517296 -0.09153385 0.05536624 -0.04808265 0.034817595 0.016318275 0.011711026
-0.024251295 -0.14676043 -0.026439715 -0.039348822 0.014275327 -0.13871242 -0.05525636 -0.10347794
-0.016030192 0.10511622 0.037018333 -0.03333196 -0.0047911284 -0.05910356 -0.045961507 0.007107761
-0.09228761 -0.06538176 -0.048415653 -0.07369473 -0.0298103 0.012515731 0.026015522 0.042753853
0.05747837 -0.054622956 -0.08735151 0.043765027 -0.0067995964 -0.10607931 0.0362498 -0.03932306
-0.017305518 -0.014102524 0.06689219 -0.016059818 0.041861642 0.02214121 0.0061302967 -0.023463584
0.006259353 -0.05066353 0.0070091197 0.004156448 -0.048527256 0.022152048 -0.08481948 0.038345687
-0.12706943 -0.039190747 0.1061865 0.0015646919 0.043503977 -0.064687744 0.010101665 0.046812512
-0.12046721 -0.08833533 0.06013584 -0.025731081 -0.019159084 -0.07601259 0.013429027 0.087741695
0.02727307 1.25011015e-36 1.0462493e-36 -0.033869706 1.2273443e-36 -0.011198456 0.013753749 -0.022484709
-0.0015005459 -0.002059966 0.019709913 -0.010049472 0.004130996 -0.050304282 -0.0042666825 -1.3436464e-36
-0.04306421 -0.04812862 -0.024454994 0.004772693 0.004545625 -0.0031414132 -0.007814112 -0.0062603108
-0.046060234 0.035901356 -0.022995772 -0.012815931 -0.0066124653 -0.011761384 -0.00045183167 -0.0065014027
0.006938827 -0.0062730424 -0.003508646 -0.006887026 0.0010713552 0.01199186 -0.007104617 0.0030146476
-0.019319698 -0.007919731 -0.048552305 -0.030192696 -0.040311687 -0.03328009 0.0001764354 -0.005745826
-0.046587754 -1.2633041e-36 -0.03298972 0.0007600498 -0.008675111 -1.5189618e-36 1.1465226e-36 1.2817157e-36
-0.026674423 0.024209505 0.0059911637 0.004816404 -0.010126642 0.0023847162 0.00063520053 0.0023543274
-0.03953137 -1.184555e-36 -0.004076522 -0.0503848 -0.034470007 -0.0020107613 -0.04352308 0.01428358
1.3192168e-36 -0.008874015 -0.005511392 -0.0008596724 -0.0075894827 0.0413223 -0.02253785 -0.028912235
-0.012094256 0.0036352433 -0.014992749 -9.68106e-37 -0.009493283 0.036289666 -0.011260356 -0.00420975
-0.0038459855 -0.0045280163 -0.029333418 0.00081792654 0.014824237 0.0036396119 -0.0004575446 0.0058569037
-0.0038782486 -0.0028059268 1.0788605e-36 0.0047420654 0.007525118 0.010470742 0.00069475675 -0.011781343
-0.011640941 -0.008078331 -0.0056009823 0.0007649243 -3.9049614e-37 -0.03343442 -1.3064685e-36 -0.008721201
-0.023379032 -0.042964585 -0.0312791 -0.010466467 -0.022921085 0.004627418 0.0044018035 -0.048122264
-0.00702377 -0.0067124073 0.00029561348 0.012163782 -1.1406376e-36 0.04305924 0.013826164 -0.052085016

bias f4 [128]
00000000: 6e77 f4bc 637c f9bb e10e 6dbd c165 1dbd
00000010: 5e15 8a3c d432 11bd f3d8 83bd 623a 54bc
00000020: 2c18 a4bd a975 783d f286 d73c de58 06bc
00000030: 8f1f 713c 0425 9d3d 2f9c 94bc c2ea c43c
00000040: 45b1 ff3c 05e1 ce3c 4505 b5bc 61fc 87bd
00000050: 3932 c83d 1526 13be c1db b2bd dc05 903d
00000060: 1b50 48bd 7ec7 da3c a40c de3d a70b 943c
00000070: 94fc 4dbc ec1d a0bc c0ea 5a3d aa1c e63d
00000080: 1389 c4bb 1577 0dbd 4f59 7d3d c58e 74bd
00000090: 1a8e 983c c426 453d 474d 32bb e05c af3d
000000a0: e9a3 20bd 7c3d c4bd aa92 b23d 1287 bb3d
000000b0: da36 43bc b683 6f3d 6018 833c 56f7 c53c
000000c0: 3833 ecbc 06af 44bd ab10 b73d 0d95 af3d
000000d0: 2007 ca3d a55d b13d 2436 ae3d ebbb a33d
000000e0: 508b 66bc 62b3 1abd 49b3 8f3d f2aa 3fbd
000000f0: 44d5 b2bc f25a a23d cab7 163d 0fcc 263d
00000100: 9116 503d 7c81 9f3d 3b1d 563d 38ed 413d
00000110: 3ebb 9f3d fc7e 60bc d199 68bb 27d3 033e
00000120: 0d48 023d b955 ce3b 8853 8f3c ab16 b83d
00000130: 311d ab3c 1c69 60bc d970 25bc bade 303d
00000140: b73b 9e3d 9432 b03c 0ebe 2b3c ae18 9e3d
00000150: b8ca df3c 4750 303c 72af 5fbc 3a1a d9bd
00000160: 75ee c13d 1033 873d ebf1 8b3d c0db da3d
00000170: dbda 0d3d 4323 e93d 96e0 9c3d 8c30 d43d
00000180: 2edd 24bd d7ac e23d 2c9d a83d fdc6 cd3c
00000190: 8ac3 92bc c0c9 d53d 7730 fc3c 93cc a43d
000001a0: 2b03 aabc f4d8 d83c bf24 72bc dddd ff3d
000001b0: cb27 573d 97b7 22bc e5cc 77bd 259a 5a3d
000001c0: 9b77 9b3d f36c 02bd abd3 1c3d be38 a83d
000001d0: ded2 1b3d ae95 e0bb b74f 453d feec 4e3c
000001e0: 9182 d23c 908b 533d 6a0b 903d 509f 453d
000001f0: 1852 883d 32bd edbc d306 33bd 0a14 25bc
-0.029842105 -0.007613705 -0.057875518 -0.03842712 0.016855892 -0.035448864 -0.06437864 -0.012953373
-0.08012423 0.060659084 0.026309464 -0.0081998985 0.014716997 0.07673076 -0.01814088 0.024037722
0.031212458 0.025253782 -0.02209724 -0.06639934 0.09775204 -0.14369996 -0.08733321 0.070323676
-0.04890452 0.026706453 0.10842255 0.018071963 -0.012572426 -0.019545518 0.05344653 0.11235936
-0.005997786 -0.034537394 0.06185275 -0.059706468 0.018622447 0.048132673 -0.0027206705 0.085626364
-0.039218817 -0.0958204 0.0871938 0.09156622 -0.011914933 0.05847522 0.016002834 0.02416579
-0.028833017 -0.048018478 0.08938726 0.08573351 0.0986464 0.086604394 0.0850642 0.07994827
-0.014071301 -0.03776873 0.07016618 -0.046793886 -0.021830209 0.07927503 0.03679637 0.04072195
0.05080277 0.07788369 0.05227397 0.04734537 0.077993855 -0.01370215 -0.0035492072 0.12873517
0.031806994 0.00629684 0.017495885 0.089886986 0.020887943 -0.013696935 -0.010097706 0.04318116
0.077262335 0.021508493 0.010482324 0.07719551 0.027318344 0.010761327 -0.013652669 -0.106007054
0.0946931 0.06601536 0.068332516 0.10686445 0.034632545 0.11383679 0.07660024 0.10360822
-0.040249996 0.11068123 0.08233103 0.0251193 -0.017915506 0.104388714 0.030784829 0.08046832
-0.020753464 0.026470639 -0.014779269 0.12493489 0.052528184 -0.009931467 -0.060498137 0.05336966
0.07591172 -0.031842183 0.0382878 0.08213948 0.038042895 -0.0068537807 0.048171725 0.0126297455
0.025697025 0.05164677 0.07033427 0.048247635 0.06656283 -0.02902088 -0.04370768 -0.0100755785

weight f4 [128, 128]
00000000: 7f54 333d 14fc 063d adab 3bbe df24 b6bd
00000010: 274e 8dbd be12 98bd cceb 04bc eb4c 10bc
00000020: 1e49 02bd e053 003e 8d99 0ebe f2fd f03c
00000030: 38bd ca3d 45f5 133c 96df b33c 743a 4abd
00000040: 9e33 d03d 50ea b83d fbd3 15bc b20b ea3c
00000050: cd50 873d d60a 173e 922b 97bd 9a15 bf3d
00000060: 190d 253d d82d 3b3d ce8f 6dbd 9182 aa3d
00000070: 8e50 6f3d 22cb a9bd bc91 1d3d 7d8e 3e3d
00000080: d907 16bd 74a9 00bb 0255 aa3d f41e c13d
00000090: 50bb 8cbd 3151 8f3c 6448 393d 9954 b9bd
000000a0: b777 1fbe 4899 923c 0240 cbbc f475 8b3d
000000b0: 3f0a 0ebd c9f9 04bd 5ff5 8b3d 81d6 b33d
000000c0: 71d8 87bc f433 423d a4e6 5cbd d229 5ebd
000000d0: d2c1 6fbd feeb bc3c 10d6 cd3b 93f9 da3d
000000e0: 4569 b03d 2589 123d ce35 b33d c5bd 33bd
000000f0: 953d 833d dffe 0a3d cd50 6fbc 0835 1dbd
00000100: 2ecb c33d f87f c1bc cada 713d ede8 6ebc
00000110: 3002 c13d ba3a 66bd 60ad 9a3d e141 133d
00000120: 8fe7 a2bc b7e8 303d 55a8 383d d473 7d3d
00000130: 5923 32bc 771a ab3c 0ba5 c7bb 564b e33d
00000140: bed0 73bd 9dc7 3bbd d06e e5bd 0242 383d
00000150: 3912 c1bd 8c72 7cbc 706f 603d 4f84 143e
00000160: 21d2 72bc 6920 1b3d e011 86bc ac99 05bd
00000170: 8727 c6bc 99c3 dbbc 169b 793c 51cb a1bd
00000180: 4653 3b3d 88d0 4cbd e10f d8bb 9745 553d
00000190: 7aca d7bc c9dd 613d 692b 9a3d f279 1fbd
000001a0: 0c0f a33d 9ae1 85bd b717 40bc 9e33 6dbd
000001b0: 8c3c d53b 40f6 28bc ee36 763d 4387 f7bb
000001c0: 2290 143c f16b 0ebd a6ec 953b 669c b4bc
000001d0: 8808 54bd 60e5 fa3c ac44 d93c 6aa4 f23c
000001e0: 10dc 0cbd 1fdd e53a 1c5c 46bc 2471 ef3c
000001f0: ca96 7a3d 4787 cf3d 62fb 7a3c 40f5 053e
00000200: 9a15 003e 996c 813c e326 653c ac47 ca3d
00000210: 81e9 283d afbf b23d 88e0 9abc 818b 893d
00000220: fb6a 8ebd f5e1 44bd 739e 8d3d 5769 173d
00000230: abfe a7ba cbe1 06bd 648f 04bc ced9 083d
00000240: bf2c a93c 0eb0 e3bc 044b a9bd 6f36 ea3a
00000250: 52ff 45bc 19f4 9abc 4774 ebbd 8a25 353c
00000260: 28ff c6bc eae5 523d 98ab bb3c 2bca 53bd
00000270: b64b 05bd 39b8 cb3d 2124 48bd 1c5c 1e3e
00000280: 2490 a43c b45e 9dbc 6474 b0bc ddc2 23bc
00000290: 229e f63d 83c0 243e f3c9 f0bc 44c7 fb3d
000002a0: ecd9 9c3d 4a6c df03 4356 433d f249 16bd
000002b0: bdfd 9b3d ed4d f13d 1c02 45bc 98bb 173d
000002c0: e55b f2bc 9e38 d2bc 7b24 f13b f808 b13d
000002d0: 0242 bdba 7a2e 05bc 65c5 fabc 2c60 f13d
000002e0: 063e 09bd 7e3d 73bd 8d05 6bbd 0977 3abd
000002f0: b019 e8bb b313 5c3c f9ae d73b 24e6 2e3c
00000300: 765b b03c 9015 08bd 7d73 bd3b 7ce8 39bb
00000310: 60ae 923a 64fa adbd 1a19 2c3d ac8f be3d
00000320: 8415 a4bc 7bcb 5abd a8a5 703c ff83 043d
00000330: 8c95 833d 7cea 1f3d cde6 eabc 28d3 af3d
00000340: 3550 193c 75a2 e53c 2da8 e73d 8269 a33d
00000350: 3ec1 d13d f3f8 e3bc bbdc 313d c159 39bc
00000360: 5525 8a3d 4ed9 373d 8818 62bb c71f 48bc
00000370: a2c3 d1bc 3ac1 853c 27f8 57bd 4128 653c
00000380: 9a6c ab3d 4ced a43b 3f04 3abd 2819 4bbc
00000390: 6b15 043c 0b24 0bbd 7244 a9bb d87a 46bd
000003a0: 76aa 94bd 9977 de3b 27cf ba3d 68f2 3d3d
000003b0: 6d3f ccbc f0cb da3c 7c85 e43b 529b 863d
000003c0: 4d76 513c a480 c7bc 9b64 413d 1574 d73d
000003d0: 80a2 763c 7e3d 903c 35af 98bb 784c f73a
000003e0: 9902 5ebd da55 743d 36a5 05bd e26f 20bd
000003f0: 9e3e aebb d118 d0bc 0148 9ebc c6cb 33bd
0.043781754 0.032955244 -0.18327208 -0.08893751 -0.06899672 -0.0742545 -0.008112859 -0.008807401
-0.03180801 0.12531996 -0.13925762 0.029417966 0.09899372 0.009030645 0.0219572 -0.04937215
0.10166095 0.090290666 -0.009144778 0.02857003 0.066072084 0.14750227 -0.07381357 0.09330292
0.040295694 0.045698017 -0.05799847 0.08325685 0.058426432 -0.08290698 0.03846906 0.046522606
-0.036628578 -0.0019632252 0.08316995 0.09429732 -0.068716645 0.01749477 0.045235053 -0.09049339
-0.15573011 0.017895356 -0.024810795 0.06809607 -0.03467774 -0.032464776 0.0683391 0.08781148
-0.0165827 0.047412828 -0.053930894 -0.0542391 -0.05853445 0.023061749 0.0062816218 0.10692134
0.086138286 0.035775322 0.08750497 -0.04388215 0.0640823 0.03393447 -0.014606667 -0.038380653
0.09560238 -0.02362059 0.059046544 -0.014581901 0.09424245 -0.05620835 0.075526 0.0359515
-0.019885806 0.043190684 0.04508241 0.06187804 -0.010872685 0.020886643 -0.0060926727 0.110983536
-0.059525244 -0.045844663 -0.112027764 0.044984825 -0.09427304 -0.0154081695 0.054793775 0.14503597
-0.014820606 0.037872706 -0.016365945 -0.032617256 -0.02418877 -0.026826667 0.015234729 -0.07900108
0.045733713 -0.05000356 -0.00659369 0.05206832 -0.026341666 0.05514315 0.07527811 -0.038934655
0.07961854 -0.06537171 -0.011724404 -0.057910554 0.006507462 -0.010312617 0.06011098 -0.0075539663
0.009067567 -0.03477091 0.00457533 -0.022047233 -0.05176595 0.030626953 0.026522003 0.029619414
-0.034389555 0.0017537213 -0.0121069215 0.029228754 0.06117896 0.10133224 0.015318723 0.13081837
0.1250824 0.015798854 0.013986322 0.098769516 0.04123831 0.08727967 -0.018905893 0.067160614
-0.06953999 -0.048067052 0.069149874 0.036965694 -0.0012816986 -0.032930177 -0.008090828 0.03341084
0.02065122 -0.02779391 -0.08266261 0.0017869006 -0.012084799 -0.018915223 -0.114967875 0.011056313
-0.02429159 0.051488794 0.02290897 -0.051706474 -0.032542907 0.09947247 -0.04886258 0.15464824
0.020088263 -0.019210197 -0.021539874 -0.0099951895 0.1204188 0.16089062 -0.029393172 0.12293866
0.07658753 1.3131624e-36 0.047689687 -0.036691613 0.07616756 0.11782441 -0.012024429 0.037044138
-0.029584834 -0.025661763 0.007359085 0.08644289 -0.0014439228 -0.008128757 -0.030611703 0.117859215
-0.033506416 -0.059384815 -0.05737834 -0.045523677 -0.0070831403 0.013432431 0.0065821377 0.010674987
0.021527987 -0.03322369 0.0057815895 -0.0028367331 0.0011190884 -0.08495024 0.042016126 0.09304747
-0.02002979 -0.05341671 0.014687933 0.032352444 0.06425008 0.03904198 -0.028674508 0.08585197
0.009357502 0.028031567 0.11311374 0.079791084 0.10241936 -0.02782867 0.043423396 -0.011312903
0.06745402 0.044884972 -0.0034499485 -0.012214608 -0.02560598 0.01632749 -0.05272689 0.013986648
0.083703235 0.005033171 -0.045414206 -0.012396134 0.008061747 -0.03396992 -0.00516563 -0.048456997
-0.07259075 0.0067891595 0.091215424 0.046373755 -0.024932588 0.026708573 0.0069739204 0.06572594
0.012784553 -0.024353333 0.047215085 0.10520188 0.015053391 0.017607447 -0.004659558 0.0018867394
-0.054201696 0.059652187 -0.03262826 -0.0391692 -0.005317523 -0.025402458 -0.019321444 -0.043895505

bias f4 [128]
00000000: 984b cb3d 2f18 b03c 3734 25bd 3e97 56bd
00000010: c6af 063e 11c8 ad3c 1543 15bd 72db b53d
00000020: 5f85 cc3c 38cc e53d f7f7 88bd 0485 8b3d
00000030: d259 dc3d 7fe3 423d 452b 883d 33e0 05bd
00000040: a991 25bd 44e6 da3d 3ede a63c a33c f7bc
00000050: 5f50 013e a807 e13b 209e 253d a763 88bd
00000060: 4cf6 a8bb 5d7c 6fbb 4cc4 c6bc 8d9e 88bc
00000070: 4a7a b8bc d6a5 4fbc 2632 0a3e 63ea f7bc
00000080: be35 ed3d be6f 723d 7571 9d3d 9291 693d
00000090: aa6e 9d3d e34f ce3d ce9c de3d b1a1 263d
000000a0: e225 e63d 439e 10bc 6daa 54bc 52c2 ae3d
000000b0: e8eb 433d aea8 8d3d bba5 ae3d 7f3d 91bc
000000c0: 60dd 2e3d ece1 233d 0c48 86bd a99f 7c3d
000000d0: 52d5 903d 8bdb d6bd 538b ca3d ca6d df3c
000000e0: ed18 ba3d 1862 a83d dbb2 933c 725f 0abc
000000f0: fb4f 7f3d ba21 a93d 39a8 7c3b 9191 a03d
00000100: c041 0b3d 195a 5c3d 0a7f e83d 1870 1e3d
00000110: 22b4 a03d 1f54 963d 022f d283 a903 fe3d
00000120: bd29 053e 19f8 68bd 10bc a53d 738e c03d
00000130: 6e35 d2bc 408a fe3d 09d8 34bd 7d4a 133d
00000140: d63f 983d 6ea0 973d 2080 533d 79d9 123d
00000150: 8821 a13d 4b13 b13c ab1d 013e 45d9 a6bd
00000160: e38f 2f3d 0c14 82bd 8cba e93c db57 483d
00000170: 291d 043e bb50 0a3c d2e2 6e3d ad03 263d
00000180: c113 a9bd ff4b 4abc 0f60 91bd 7a2c 2d3d
00000190: 72fc 8e3d 1add f6bc 6483 093e 7e7b d2bd
000001a0: 03ee ffba caa0 923d b3ca 493d 1a68 fc3c
000001b0: e53b c43d b393 253d 6441 813c b598 e33d
000001c0: 88ba d53d c976 c33c 7413 c33c 880e 2f3d
000001d0: 667e 003e 49b3 6d3d ba68 ae3c 42c4 d73d
000001e0: 46bb da3d 304c 363d e1c6 4fbb 5937 de3d
000001f0: 68a2 303d 0cbe 833d 0739 dbbc e492 ed3d
0.09926528 0.021495907 -0.040333 -0.05239033 0.1315299 0.021213563 -0.036440928 0.088797465
0.02496594 0.11220592 -0.066879205 0.0681248 0.10759319 0.04758024 0.06648878 -0.032684516
-0.040422115 0.10688451 0.020369645 -0.030180281 0.12628315 0.006867368 0.040434003 -0.06659632
-0.005156314 -0.0036542632 -0.024263524 -0.016677165 -0.02251925 -0.012673816 0.13495693 -0.030263131
0.11582516 0.059188597 0.07687656 0.057023592 0.07687123 0.10073831 0.10869752 0.040681545
0.11237694 -0.008826795 -0.012980086 0.085331574 0.0478324 0.06916939 0.08527704 -0.017729519
0.04269159 0.040010378 -0.065567106 0.0616757 0.070719376 -0.10491093 0.09889855 0.027274031
0.090867855 0.08221835 0.01802962 -0.0084456075 0.062332135 0.08258386 0.0038552417 0.078402646
0.03399825 0.05379686 0.11352356 0.03868112 0.078468576 0.073402636 -1.2353483e-36 0.12403042
0.13004203 -0.05687723 0.08092511 0.0940217 -0.025660243 0.12428713 -0.04415134 0.03595971
0.07434051 0.074036464 0.05163586 0.03585193 0.07867724 0.021615645 0.12608974 -0.081469096
0.04286183 -0.0635148 0.028531335 0.04891191 0.12901749 0.008442099 0.05832178 0.04053085
-0.08255721 -0.01234722 -0.070984 0.042278744 0.06981744 -0.030134726 0.13429028 -0.102774605
-0.0019525889 0.07159574 0.049265575 0.030811358 0.095817365 0.04042406 0.015778251 0.11113111
0.10435969 0.023860352 0.023812987 0.042738467 0.12548217 0.058032308 0.021290172 0.1053548
0.10680251 0.04450625 -0.0031704234 0.108504005 0.043123633 0.06432733 -0.026760591 0.11600283

weight f4 [1, 128]
00000000: e7d0 37bd 3147 fe3d 8649 ce3d 00b2 ed3d
00000010: 4e0b d6bd c4cf 873d df5d 753d 6d22 cfbd
00000020: ba4f 413d b678 af3d 8565 883d e646 e43d
00000030: ed83 fa3d 2773 b4bc 6bdd 163e 0a39 df3d
00000040: cf69 2abd 64fd 74bd 11a9 61bd 671b 063e
00000050: 4fda 0abd baf2 6dbd 71d0 be3d b469 8d3d
00000060: 78cc a0bc 55f8 5d3d 37fe 9a3d f858 febd
00000070: 85b3 e93d 477f 0d3e fd5f 86bd 564c 013e
00000080: 3426 cdbd 421d 913d 262b b1bd 011c 83bd
00000090: 0842 dbbc c66d d7bd 19c0 d93d dd30 8c3d
000000a0: 896c c6bd 5d28 b7bd ccac 38bd 696e 77bd
000000b0: 6fdf 923d 926f 943d e699 893d be73 c03d
000000c0: 7f2f 06bd 4a32 c13d 6cf9 0f3e 5f93 dfbc
000000d0: c287 a93c 36ac 20bc 0772 bebc 528f b5bd
000000e0: 61ef 38bd 12d5 8ebd 3a89 15bd b713 c2bd
000000f0: 0274 003e 65a5 d83d 3a51 c3bd 76a9 c83d
00000100: 587c 0e3e d281 ce3d 19b9 ed3d b336 ad3d
00000110: 8a23 ff3d 0cab 5dbd aa57 8c37 22e0 e1bc
00000120: 2270 74bd 60ed 653b af09 053e 8e14 15bd
00000130: d637 073b ede1 68bd 0168 1f3e 8bb5 a0bc
00000140: bceb 98bd 55d1 67bd 9120 ef3d 23e3 a93d
00000150: afd9 963d 1acf 33bd e846 c6bc df6d 5c3d
00000160: 0f8f 52bd 5cca 90bd 4b24 c8bc 6115 ae3d
00000170: 7df9 82bd 4a14 5dbd 68a1 b43d 5313 18bd
00000180: 23d9 e43c 07ca 16bd 903f 58bd 66e8 dc3d
00000190: 827f c6bd 302a 51bb 1b87 24bd 7181 eabd
000001a0: 9b9c 173d 17e6 87bd 611a d93d 3f72 9bbd
000001b0: 415a 333d 19db a53d 0378 52bd 7f4c aabd
000001c0: a9cd d13d 8cc2 81bd 633c c8bd 170d ba3d
000001d0: a46e c8bc 0a04 193d 8d75 b5bd 7384 3fbd
000001e0: 2b99 45bd fcc2 b63d 0972 d23d f352 c8bd
000001f0: 7f3e cd3d a796 043e 8f9c c13d cd49 b2bd
-0.04487696 0.124159224 0.10072617 0.116062164 -0.10451375 0.06631425 0.059903976 -0.10113988
0.047195174 0.08567946 0.06659988 0.11146335 0.12232194 -0.022027565 0.14732902 0.10899551
-0.041604813 -0.059811965 -0.055092875 0.1309639 -0.0338996 -0.05809281 0.09317101 0.06904927
-0.019628748 0.054191906 0.07568019 -0.12419313 0.11411194 0.13818084 -0.06561277 0.12626776
-0.10017052 0.070856586 -0.08650808 -0.06401826 -0.026764885 -0.105189845 0.10632343 0.068452574
-0.0968867 -0.089432456 -0.045086667 -0.06040803 0.07171523 0.07247843 0.06718807 0.09397076
-0.03276014 0.0943342 0.1405999 -0.027291952 0.020694617 -0.009806683 -0.023247732 -0.08865227
-0.045150165 -0.06974234 -0.036507823 -0.094764166 0.12544253 0.105784215 -0.09536977 0.09797947
0.13914621 0.10083355 0.1160757 0.08457699 0.124579504 -0.0541182 1.6730122e-05 -0.027572695
-0.05967725 0.0035084113 0.12991975 -0.036396556 0.0020632646 -0.056856085 0.15567018 -0.019617816
-0.07466838 -0.05659612 0.116761334 0.08295276 0.073657386 -0.04389868 -0.024203733 0.05381572
-0.051405963 -0.07069847 -0.024431368 0.085001715 -0.06395242 -0.053974427 0.08819848 -0.037127804
0.02793557 -0.036813762 -0.052794993 0.10786514 -0.09692289 -0.0031916015 -0.04016791 -0.1145047
0.037014585 -0.06635683 0.106007345 -0.0759015 0.043787245 0.0809843 -0.051383983 -0.08315372
0.10244305 -0.06335935 -0.09777143 0.09084528 -0.02446682 0.037357368 -0.08860312 -0.046757173
-0.048241775 0.08923909 0.10275657 -0.09781446 0.10021686 0.12948094 0.09453689 -0.08705483
