bike_sharing/AutogluonModels/ag-20220403_213147/models/NeuralNetTorch_BAG_L2/S1F4/net.params (torch, 215879 bytes, 9 tensors)

weight f4 [128, 22]
-0.09384783 0.22095723 -0.13717955 -0.12892933 -0.1023541 0.11673273 0.08225202 0.21522087
0.037229013 0.04520818 -0.073766656 -0.018430334 -0.19602662 -0.12009827 -0.09153009 0.048772566
0.113397606 0.15199883 -0.11086133 -0.07479285 0.06033683 0.1741021 -0.15872867 0.25798944
0.001107359 0.05101687 0.13935651 -0.20515165 -0.13930926 -0.031585883 -0.067726836 0.20561326
-0.15736035 -0.17247608 -0.18116525 -0.1292016 -0.12893172 0.23225278 0.13722971 0.03769214
0.063384525 -0.037985962 0.05722232 -0.13588165 -0.13399975 -0.39382076 0.06470719 0.13888748
-0.09576692 0.0043308283 0.13285597 0.14255384 0.03815486 0.058613297 0.13876925 -0.04921604
0.027859071 -0.15142441 -0.11241137 -0.09145024 0.13045223 -0.00037233872 -0.1473815 0.090102986
0.08962996 0.0008684486 -0.055281423 0.23699798 0.15815906 0.15331298 -0.10655024 -0.13444285
0.032073364 0.17547162 0.1262135 0.1929421 0.09218791 -0.17253663 0.007790028 -0.1220047
-0.25298178 0.14218843 0.13406546 -0.12842155 0.030567473 -0.07252979 0.019555038 -0.1589062
0.14386599 -0.29026645 0.07016294 0.11971369 0.15795806 0.07546692 -0.19055597 -0.044028245
0.06270829 0.06415336 -0.1597806 -0.06286953 0.22934483 0.15428023 -0.06371181 -0.074206166
-0.22473441 -0.022922207 -0.09677292 -0.10249951 -0.052737527 0.08469163 -0.2468303 0.22047836
-0.12751932 0.16715118 0.072291076 -0.102761365 0.016329497 -0.009694413 0.04155598 0.015063227
0.02533225 -0.03858017 -0.1290614 0.09075748 -0.21080719 -0.08799644 -0.033603683 -0.05253492
-0.0701469 -0.1789784 -0.08950233 0.086352475 -0.2081381 -0.121352054 0.07824632 -0.068789355
-0.048138462 -0.030040449 0.029940402 0.15302886 0.22187385 0.103283934 0.15723889 0.015311103
-0.16727573 -0.14457448 0.12407996 -0.033733446 -0.1349707 -0.11687142 -0.22124484 -0.21401234
-0.11192947 0.12504014 0.28611767 -0.38321403 0.11354159 -0.1456586 -0.015045666 -0.08897354
-0.045338914 0.0018961088 -0.10145999 -0.10597056 0.0029858304 -0.0004177997 -0.06610342 0.0924218
-0.14156628 -0.00055120845 0.18763988 -0.022373827 0.13530049 0.107961416 -0.16689903 0.10078434
0.17396872 -0.2995784 0.11380469 -0.15747666 0.02560595 -0.08674851 0.09690085 0.056342058
0.049939476 0.03613759 -0.051706288 -0.028162634 -0.088236235 0.076485105 0.17642798 0.088709846
-0.18374673 -0.0026958387 -0.11971586 -0.14119537 -0.20468375 0.09341154 -0.24198954 -0.32538593
-0.053535484 0.20291714 -0.13003042 -0.08522502 -0.07617998 0.06488338 -0.039963853 0.07547394
0.07426235 0.061734505 -0.03534091 -0.0030139673 0.060418084 -0.02745596 -0.0037152902 0.008564988
-0.07496127 -0.21845001 0.14910425 -0.10089234 -0.1635598 0.32243618 0.03355784 -0.062038634
-0.124692686 0.08305096 -0.17286049 -0.003134694 -0.08175234 -0.020212444 0.054375418 0.13869654
0.00025475048 0.15062548 0.0443297 -0.18001783 0.073170334 -0.057993013 -0.11623234 0.028799066
0.08684625 0.11818488 -0.20959924 -0.10732281 0.0635433 -0.21758476 0.10966716 -0.12527637
0.047752183 -0.06282248 -0.083613284 -0.03580488 0.13785255 -0.07311599 -0.121824235 -0.05691566
00000000: 4b33 c0bd 9d42 623e cc78 0cbe 0d06 04be
00000010: 079f d1bd 9211 ef3d bf73 a83d dc62 5c3e
00000020: 737d 183d 362c 393d f912 97bd 36fb 96bc
00000030: 34bb 48be 15f6 f5bd 2174 bbbd bec5 473d
00000040: 013d e83d 95a5 1b3e 440b e3bd fe2c 99bd
00000050: c023 773d d247 323e c589 22be 3117 843e
00000060: cd24 913a 11f7 503d 79b3 0e3e 4613 52be
00000070: 16a7 0ebe 3360 01bd 5eb4 8abd 488c 523e
00000080: 1223 21be 929d 30be 6283 39be 6d4d 04be
00000090: ad06 04be acd3 6d3e f285 0c3e 1363 1a3d
000000a0: bfcf 813d 2b97 1bbd f461 6a3d 8f24 0bbe
000000b0: 3b37 09be e0a2 c9be 3485 843d 8538 0e3e
000000c0: 7221 c4bd 9fe9 8d3b 650b 083e a2f9 113e
000000d0: 4548 1c3d 7f14 703d 8719 0e3e c296 49bd
000000e0: b538 e43c 000f 1bbe ef37 e6bd 434a bbbd
000000f0: 4595 053e 7536 c3b9 2deb 16be ea87 b83d
00000100: ea8f b73d 99a8 633a c66e 62bd 99af 723e
00000110: 73f4 213e 14fe 1c3e 0337 dabd 63ab 09be
00000120: 5c5f 033d d5ae 333e 1d3e 013e 9d92 453e
00000130: 04cd bc3d 71ad 30be 7e43 ff3b 9add f9bd
00000140: d486 81be d899 113e 7548 093e f080 03be
00000150: a368 fa3c 808a 94bd e331 a03c 4fb8 22be
00000160: 9b51 133e ce9d 94be 96b1 8f3d 732c f53d
00000170: c2bf 213e 678e 9a3d 1b21 43be f656 34bd
00000180: 346d 803d d662 833d 879d 23be bdc1 80bd
00000190: 5fd9 6a3e a3fb 1d3e 567b 82bd 67f9 97bd
000001a0: c720 66be 5ac7 bbbc e130 c6bd 43eb d1bd
000001b0: 4e03 58bd ce72 ad3d 15c1 7cbe 14c5 613e
000001c0: 6d94 02be ae29 2b3e 580d 943d 8d74 d2bd
000001d0: 70c5 853c 51d5 1ebc 9a36 2a3d c1cb 763c
000001e0: 9485 cf3c 3e06 1ebd ac28 04be 0fdf b93d
000001f0: d7dd 57be 7a37 b4bd 04a4 09bd db2e 57bd
00000200: 2ea9 8fbd 1d46 37be ff4c b7bd 91d9 b03d
00000210: 2722 55be 6d87 f8bd 9b3f a03d 6fe1 8cbd
00000220: d62c 45bd 6317 f6bc 9345 f53c 99b3 1c3e
00000230: e632 633e 8786 d33d 3b03 213e 6cdb 7a3c
00000240: 544a 2bbe 550b 14be a21d fe3d 152c 0abd
00000250: c235 0abe 485a efbd 028e 62be 0d26 5bbe
00000260: 473b e5bd 860a 003e 047e 923e a134 c4be
00000270: 7e88 e83d 8727 15be 1982 76bc c237 b6bd
00000280: 4cb5 39bd db86 f83a 41ca cfbd 1807 d9bd
00000290: ecad 433b 200c dbb9 3b61 87bd a447 bd3d
000002a0: c0f6 10be f97e 10ba ab24 403e 5149 b7bc
000002b0: 368c 0a3e e01a dd3d 94e7 2abe 0568 ce3d
000002c0: db24 323e 5762 99be 6f12 e93d 9041 21be
000002d0: 92c3 d13c 34a9 b1bd f473 c63d eec6 663d
000002e0: 568d 4c3d 0205 143d f9c9 53bd 53b5 e6bc
000002f0: 33b5 b4bd 39a4 9c3d 89a9 343e 82ad b53d
00000300: 1a28 3cbe abac 30bb 972d f5bd 8595 10be
00000310: 9e98 51be 8d4e bf3d 1bcc 77be fc98 a6be
00000320: 0648 5bbd 83c9 4f3e b226 05be 758a aebd
00000330: 4004 9cbd 94e1 843d 23b1 23bd 1592 9a3d
00000340: dc16 983d 52dd 7c3d a1c1 10bd fb85 45bb
00000350: f478 773d 52eb e0bc 3a7c 73bb 2a54 0c3c
00000360: 4b85 99bd 5cb1 5fbe c9ae 183e a5a0 cebd
00000370: 387c 27be 5b16 a53e f273 093d 391c 7ebd
00000380: e15e ffbd 9f16 aa3d 5702 31be 706f 4dbb
00000390: c56d a7bd 9194 a5bc c2b8 5e3d 7706 0e3e
000003a0: 0890 8539 913d 1a3e 0f93 353d 9856 38be
000003b0: 54da 953d 158a 6dbd 390b eebd 05ec eb3c
000003c0: 72dc b13d ea0a f23d 2fa1 56be 10cc dbbd
000003d0: fd22 823d 8ace 5ebe 2d99 e03d 7348 00be
000003e0: cb97 433d 13a9 80bd 713d abbd 23a8 12bd
000003f0: 3829 0d3e d6bd 95bd fc7e f9bd 6520 69bd

bias f4 [128]
-0.16511378 -0.0702037 0.0045071007 -0.066648714 -0.024405122 0.1124045 -0.058125563 0.0644905
0.1772027 -0.13871229 -0.14504017 -0.09853923 -0.026949279 -0.111451745 -0.051344186 -0.0047739004
0.044254772 0.14737943 0.14293112 0.0016306721 0.009009989 0.04021552 -0.0043713474 -0.070769325
0.09436355 -0.27056092 -0.15900809 -0.044865265 -0.09403626 -0.14519468 -0.23026384 0.15690835
-0.04904288 -0.08074464 -0.11666105 0.033501778 -0.18081015 -0.00090592296 -0.016615132 0.04689387
0.064185835 -0.15113181 0.09159717 0.1532216 -0.03284335 0.066011645 -0.041377325 0.024122573
0.0074319234 -0.10038562 0.098261565 -0.24995807 -0.027722124 -0.1606767 -0.118718386 -0.19138665
-0.25482836 0.019427026 -0.07211028 -0.14718388 -0.029356016 -0.06882322 0.021089211 -0.15553132
-0.031862084 0.06346292 0.066019356 0.0261719 0.049994603 0.17592464 -0.10473959 0.12149057
0.19543794 -0.2044257 0.040062565 0.11630119 -0.06937433 0.07920585 0.021635905 0.13816531
-0.033244595 -0.12213687 0.15000403 0.08238718 0.14532357 0.061991777 0.13775933 0.05012005
0.040370718 -0.0775904 0.024031196 -0.1493069 0.023684992 -0.015687555 0.00543845 -0.14554091
0.06460523 -0.16732459 0.09925258 0.10775161 -0.22732359 0.16626075 -0.17253557 -0.053316213
0.09154703 -0.030131852 0.18434513 -0.12320933 -0.0038110835 -0.16977988 -0.080086276 0.23145851
0.11967603 0.029846499 -0.026671862 -0.15612257 0.13499026 -0.018385137 -0.053675428 -0.15249299
0.17021167 0.08819486 0.12700544 0.027700648 -0.13859066 0.102571994 0.0293051 0.08234151
00000000: 9613 29be f5c6 8fbd 4db0 933b 1f7f 88bd
00000010: 40ed c7bc 5534 e63d 1215 6ebd 9813 843d
00000020: a074 353e 980a 0ebe 6985 14be f0ce c9bd
00000030: bcc4 dcbc d040 e4bd 484e 52bd 616e 9cbb
00000040: 7e44 353d a2ea 163e 895c 123e 47bc d53a
00000050: a29e 133c 07b9 243d 853d 8fbb 82ef 90bd
00000060: ad41 c13d f686 8abe 04d3 22be a4c4 37bd
00000070: 1596 c0bd eaad 14be 49ca 6bbe 95ac 203e
00000080: 30e1 48bd 725d a5bd fdeb eebd 2939 093d
00000090: 4c26 39be 767b 6dba 751c 88bc c913 403d
000000a0: dd73 833d 4cc2 1abe 4c97 bb3d 20e6 1c3e
000000b0: c086 06bd 1d31 873d 457b 29bd b49c c53c
000000c0: 7e87 f33b fa96 cdbd 5c3d c93d 02f5 7fbe
000000d0: 8219 e3bc 6f88 24be a022 f3bd ddfa 43be
000000e0: dd78 82be 6d25 9f3c 8eae 93bd 5fb7 16be
000000f0: 077c f0bc 30f3 8cbd 48c3 ac3c 9a43 1fbe
00000100: d181 02bd d9f8 813d 2835 873d 7466 d63c
00000110: 24c7 4c3d 9725 343e b681 d6bd 0cd0 f83d
00000120: e220 483e f854 51be a518 243d 512f ee3d
00000130: 2114 8ebd ad36 a23d c83d b13c 357b 0d3e
00000140: 7c2b 08bd e522 fabd a89a 193e 9cba a83d
00000150: b4cf 143e 17eb 7d3d c810 0d3e ae4a 4d3d
00000160: c45b 253d b7e7 9ebd 12dd c43c e8e3 18be
00000170: 0707 c23c 3083 80bc 0635 b23b ad08 15be
00000180: bf4f 843d 2357 2bbe f044 cb3d e0ac dc3d
00000190: 84c7 68be 4240 2a3e 2aad 30be 1a62 5abd
000001a0: 027d bb3d 13d7 f6bc f8c4 3c3e 2c55 fcbd
000001b0: 5fc3 79bb c7da 2dbe 4604 a4bd 7603 6d3e
000001c0: b518 f53d a580 f43c f37e dabc 98de 1fbe
000001d0: e33a 0a3e 6d9c 96bc c4da 5bbd 1f27 1cbe
000001e0: f84b 2e3e 829f b43d b70d 023e 78ec e23c
000001f0: b6ea 0dbe 4411 d23d 4011 f03c aaa2 a83d

weight f4 [128, 128]
0.0035215628 -0.10908192 0.11506472 0.018610181 -0.01119383 -0.0003455222 -0.033610735 0.008225567
0.08087716 -0.007878482 0.022894034 0.055287793 0.0058587533 -0.023755623 0.025550535 -0.04554058
0.044665728 -0.04916454 0.044721697 -0.12413236 0.080359384 0.07637201 0.038600814 -0.0020488948
0.06981412 0.050747283 0.06255255 0.037457276 -0.106419116 0.012643793 0.009940077 -0.0057266587
0.06497339 0.028319927 0.0152730895 0.06267558 0.02581155 0.018089369 0.0016391178 -0.005065841
-0.042057473 -0.019770732 0.012945969 -0.03551315 -0.00036467743 0.05309339 0.08490349 -0.0036002398
0.006570779 -0.09779091 0.03910748 -0.04822088 0.07488399 -0.02930963 -0.015685633 -0.061946906
-0.0011780498 -0.026252264 -0.07030591 0.08830809 0.055626597 -0.08607994 -0.026396371 0.02358952
0.102548465 -0.038330957 0.066525765 0.02352636 -0.026714291 0.059986856 -0.08244611 0.08889831
0.09453544 -0.025302822 0.040921085 0.11122797 0.039854456 0.011825036 0.02215272 -0.03705992
0.042243976 -0.028448958 0.08901793 -0.039801363 0.01186672 -0.02319644 0.06395208 -0.016789973
0.07205169 -0.06432121 -0.020964568 0.024940923 -0.040010154 -0.013098347 0.05523569 -0.038247027
-0.047920614 -0.027960777 0.07910304 -0.015156542 -0.034992073 -0.010712225 0.056166142 -0.030897198
-0.036287174 -0.07080188 0.021698954 0.047260888 0.035119362 0.04922776 0.10851097 0.06832337
0.01780101 0.053843852 -0.022637209 0.01971427 0.07100688 -0.033258356 -0.05135341 -0.017517025
-0.055095304 0.03188204 0.08774792 -0.07713235 0.04345795 0.03487571 0.02877593 -0.040091354
0.12459626 0.08651313 -0.13190846 -0.03507109 0.021445815 -0.009867068 0.005641421 -0.09552467
-0.031989273 -0.027699357 0.041888393 0.044486366 -0.059886817 0.07059766 0.0026400373 -0.0100515755
0.021346105 0.10679637 -0.04325197 0.027516043 0.040959865 -0.06218669 -0.08952345 0.03471905
-0.016546505 -0.0060488367 0.006832634 0.038827218 -0.0923757 -0.027171671 -0.0042365543 -0.008589105
0.0883695 -0.059007674 -0.08325215 0.025354352 0.0831776 0.042870596 -0.04610724 -0.07056091
0.0072713206 0.03207849 0.016240273 -0.058435984 -0.0027413412 -0.064276084 0.046700113 -0.03147641
0.06484034 -0.101809084 -0.08468648 -0.039221127 -0.017579975 -0.10514576 0.03569097 -0.01314949
0.09600712 0.050945904 -0.049594656 0.006797956 -0.044925854 -0.072449364 0.028535869 0.05274948
-0.020465164 0.035303228 -0.08540313 -0.010232576 -0.053592417 0.09458232 0.085679 0.030013269
0.007141743 -0.02640754 0.0063677207 0.069282144 -0.15466481 -0.09792395 0.013271721 0.0062037203
-0.15217532 -0.15834309 -0.026643002 0.06463141 0.05393599 -0.06592415 -0.09383417 -0.08677837
0.05009878 -0.010981993 -0.12855901 0.069103196 -0.0025732738 0.02542607 -0.005969133 -0.037641447
-0.07053761 0.07291356 -0.090037525 -0.059849743 0.04232331 -0.012371246 0.058771644 -0.08576861
-0.03911393 -0.013588126 0.028325558 -0.13679227 -0.0053555868 0.02253587 -0.037611365 -0.08070733
-0.020150267 0.09853101 -0.0718853 -0.04926514 -0.033055745 0.0032739744 0.046331305 -0.08169569
0.041377183 0.06685247 0.0050940737 0.060492717 -0.08322002 0.04243373 0.068417065 0.020708494
00000000: 05ca 663b 5766 dfbd 0da7 eb3d 6174 983c
00000010: 5366 37bc 3427 b5b9 69ab 09bd 87c4 063c
00000020: eda2 a53d c014 01bc 458c bb3c 7475 623d
00000030: c9fa bf3b 279b c2bc 5b4f d13c c288 3abd
00000040: 69f3 363d c260 49bd 192e 373d 1b39 febd
00000050: 7693 a43d ee68 9c3d e31b 1e3d c046 06bb
00000060: b5fa 8e3d 62dc 4f3d 8d1b 803d cd6c 193d
00000070: 44f2 d9bd e927 4f3c b4db 223c b2a6 bbbb
00000080: c510 853d 31ff e73c fb3b 7a3c 0e5c 803d
00000090: be72 d33c 2830 943c abd7 d63a 5bff a5bb
000000a0: 7544 2cbd 3bf6 a1bc 541b 543c 3d76 11bd
000000b0: 2d32 bfb9 7478 593d e2e1 ad3d 00f2 6bbb
000000c0: b04f d73b 9a46 c8bd 2a2f 203d 4283 45bd
000000d0: c75c 993d c01a f0bc 287f 80bc 0abc 7dbd
000000e0: cb68 9aba fd0e d7bc 8cfc 8fbd dfda b43d
000000f0: b7d8 633d ae4a b0bd 343d d8bc cf3e c13c
00000100: ee04 d23d ec00 1dbd a93e 883d 5aba c03c
00000110: eed7 dabc c7b4 753d 82d9 a8bd 5110 b63d
00000120: cc9b c13d dd47 cfbc de9c 273d 7dcb e33d
00000130: 6d3e 233d ccbd 413c 9f79 b53c 25cc 17bd
00000140: 0508 2d3d ca0d e9bc 084f b63d c106 23bd
00000150: a26c 423c 7606 bebc 4ff9 823d 208b 89bc
00000160: d68f 933d d7ba 83bd e3bd abbc e850 cc3c
00000170: b0e1 23bd 739a 56bc d23e 623d eaa8 1cbd
00000180: 6848 44bd 000e e5bc c600 a23d 2553 78bc
00000190: d953 0fbd 5482 2fbc 780e 663d 1f1c fdbc
000001a0: dca1 14bd 9300 91bd 01c2 b13c a294 413d
000001b0: 52d9 0f3d 0ca3 493d 003b de3d 1fed 8b3d
000001c0: 6cd3 913c 5f8b 5c3d ab71 b9bc d27f a13c
000001d0: 0e6c 913d ea39 08bd f457 52bd dd7f 8fbc
000001e0: 9dab 61bd be96 023d 2eb5 b33d 91f7 9dbd
000001f0: f700 323d d5d9 0e3d 80bb eb3c d536 24bd
00000200: 532c ff3d cc2d b13d 0313 07be b4a6 0fbd
00000210: 22af af3c 7ca9 21bc abdb b83b 70a2 c3bd
00000220: 2f07 03bd c3e9 e2bc 2a93 2b3d 5637 363d
00000230: e14b 75bd 8295 903d 7a04 2d3b 5daf 24bc
00000240: 07de ae3c 0eb8 da3d fa28 31bd 5369 e13c
00000250: 88c5 273d 78b7 7ebd 1258 b7bd 9035 0e3d
00000260: 898c 87bc 5235 c6bb 4ae4 df3b 4a09 1f3d
00000270: 792f bdbd 2097 debc cbd2 8abb 51b9 0cbc
00000280: 12fb b43d 08b2 71bd 1a80 aabd eeb3 cf3c
00000290: 0459 aa3d 1499 2f3d f2da 3cbd 3d82 90bd
000002a0: 4244 ee3b bc64 033d 520a 853c 925a 6fbd
000002b0: 13a8 33bb 2ea3 83bd 9e48 3f3d 68ed 00bd
000002c0: 03cb 843d 4881 d0bd 1b70 adbd 55a6 20bd
000002d0: e103 90bc a956 d7bd b230 123d f570 57bc
000002e0: 629f c43d a7ac 503d c423 4bbd 63c1 de3b
000002f0: 2c04 38bd 5560 94bd 0ec4 e93c d70f 583d
00000300: 8fa6 a7bc 1e9a 103d d6e7 aebd 89a6 27bc
00000310: b983 5bbd 60b4 c13d 7978 af3d 63de f53c
00000320: 4805 ea3b a054 d8bc 50a8 d03b cce3 8d3d
00000330: 7460 1ebe 5a8c c8bd a271 593c 9448 cb3b
00000340: d9d3 1bbe b124 22be 6d42 dabc 795d 843d
00000350: fceb 5c3d 3e03 87bd 212c c0bd dcb8 b1bd
00000360: 6134 4d3d d1ed 33bc f9a4 03be fa85 8d3d
00000370: 5fa4 28bb 554a d03c b898 c3bb eb2d 1abd
00000380: 0676 90bd b453 953d 9865 b8bd 0125 75bd
00000390: 355b 2d3d c4b0 4abc 89ba 703d 74a7 afbd
000003a0: ee35 20bd bba0 5ebc 000b e83c 4613 0cbe
000003b0: eb7d afbb 259d b83c 600e 1abd e249 a5bd
000003c0: 2c12 a5bc a0ca c93d 9a38 93bd 3eca 49bd
000003d0: 7665 07bd 2d90 563b e5c5 3d3d 1250 a7bd
000003e0: 1f7b 293d f3e9 883d 30ec a63b 36c7 773d
000003f0: 426f aabd fece 2d3d 3f1e 8c3d dca4 a93c

bias f4 [128]
-0.0018356118 0.031711616 -0.11361069 0.0011338865 0.021136036 -0.0651258 0.0008883293 -0.05763222
-0.12404032 0.07326687 -0.012486206 0.08640279 0.0923562 -0.069060095 -0.025089992 -0.052366413
0.052628193 0.022478446 -0.025590902 0.091926366 -0.018502405 0.03876634 0.01631505 -0.03361853
0.042629905 0.04856909 -0.024718314 -0.078239724 0.06607983 0.0735103 0.04039898 0.024494613
0.038217384 0.04407356 -0.020439977 -0.051959854 -0.05255784 0.05978384 -0.02929875 0.05819182
-0.08979011 -0.04020298 0.06991989 -0.039925594 0.020878928 0.079378046 0.01331839 0.05792576
-0.008964393 -0.09320751 -0.04556632 -0.031563625 -0.030059734 -0.040104043 -0.020584937 0.084938824
0.079151474 0.040001567 -0.05242836 0.020368982 0.020505678 0.08904492 -0.05339433 0.054810856
0.07345837 -0.0029853557 -0.09272162 0.022225743 0.047859292 -0.13933364 0.08627859 0.0029790094
-0.1210857 0.02992669 0.045666788 -0.0004452973 -0.06088877 -0.033182558 0.06430629 0.057894498
0.06189221 0.058789432 0.05842974 -0.0037034801 0.055896774 0.04568224 0.009521706 0.08989805
-0.038562242 0.08909774 -0.0041754576 0.09411839 -0.043009996 0.07313626 -0.030753735 -0.0029083102
0.077093855 0.009806538 -0.022258863 -0.047673337 0.09064526 0.02841411 -0.02278459 -0.018120155
0.08509471 0.06279141 0.0720735 -0.046829823 -0.027079398 -0.08697979 -0.092493206 -0.015216065
0.01669964 -0.07477723 -0.046740342 0.014909777 -0.008350472 -0.075907886 0.0896633 -0.04174946
0.018976076 0.056408104 -0.08646673 0.0033906389 -0.06934418 0.0939567 -0.03357874 0.07520762
00000000: e998 f0ba 0ae4 013d b9ac e8bd eb9e 943a
00000010: 7b25 ad3c ad60 85bd c5de 683a c30f 6cbd
00000020: da08 febd f10c 963d f292 4cbc f2f3 b03d
00000030: 3f25 bd3d 616f 8dbd 8789 cdbc 2a7e 56bd
00000040: a990 573d b824 b83c 03a4 d1bc e443 bc3d
00000050: 5b92 97bc 74c9 1e3d 24a7 853c 95b3 09bd
00000060: b29c 2e3d 62f0 463d 107e cabc 263c a0bd
00000070: dd54 873d 918c 963d 6779 253d eda8 c83c
00000080: d589 1c3d 7a86 343d bd71 a7bc dbd3 54bd
00000090: e446 57bd e6df 743d ef03 f0bc 8c5a 6e3d
000000a0: e1e3 b7bd e1ab 24bd 2932 8f3d 0589 23bd
000000b0: 490a ab3c f590 a23d 6035 5a3c 9043 6d3d
000000c0: 64df 12bc 94e3 bebd c0a3 3abd dc48 01bd
000000d0: d53f f6bc 2344 24bd bea1 a8bc 68f4 ad3d
000000e0: 2b1a a23d afd8 233d 1fbf 56bd dadc a63c
000000f0: 86fb a73c 2f5d b63d 03b4 5abd 5981 603d
00000100: 5871 963d f5a5 43bb d5e4 bdbd c312 b63c
00000110: 1b08 443d 7aad 0ebe d4b2 b03d 7c3b 433b
00000120: c8fb f7bd d128 f53c 190d 3b3d cb76 e9b9
00000130: 8166 79bd 6fea 07bd 04b3 833d c822 6d3d
00000140: b082 7d3d 30cd 703d 0654 6f3d 16b6 72bb
00000150: 04f4 643d 4d1d 3b3d ee00 1c3c 781c b83d
00000160: 71f3 1dbd e078 b63d 47d2 88bb 24c1 c03d
00000170: 402b 30bd 77c8 953d 42ef fbbc 5999 3ebb
00000180: 62e3 9d3d 9aab 203c 3858 b6bc 1e45 43bd
00000190: 39a4 b93d b5c4 e83c c0a6 babc b870 94bc
000001a0: 2346 ae3d c898 803d 459b 933d a1d0 3fbd
000001b0: 9dd5 ddbc 7622 b2bd 146d bdbd cd4c 79bc
000001c0: afcd 883c ce24 99bd cd72 3fbd 2348 743c
000001d0: 6bd0 08bc 9875 9bbd 64a1 b73d 7b01 2bbd
000001e0: b773 9b3c 2f0c 673d 7815 b1bd 7b35 5e3b
000001f0: 5204 8ebd 5f6c c03d dc89 09bd 7406 9a3d

weight f4 [128, 128]
0.007860061 -0.055160005 0.032077484 -0.05306133 -0.06429124 -0.04194717 0.11660303 -0.10952543
0.052823618 0.12837169 -0.02248927 -0.04109536 -0.09316593 0.014257245 -3.361996e-05 -0.061495587
0.06587234 -0.11137416 0.063096456 -0.01113216 -0.070441075 -0.044063102 -0.078990124 -0.08842325
-0.0754511 0.013356456 0.07791921 -0.11608141 0.0667605 -0.04418169 0.05607833 -0.04560998
-0.08760123 0.03989441 0.08008556 0.014278848 0.08595198 0.038941752 0.0109953955 -0.06237437
0.04148876 -0.10521576 0.042055815 -0.0033098024 0.123539075 -0.01241985 0.047676962 0.09797091
0.0040227757 -0.046653673 0.019988857 0.09285716 0.06872455 0.03686859 0.05778393 -0.100587934
0.063067906 -0.042107485 -0.101937905 0.020418935 -0.046743914 0.03938465 0.054455217 0.03472705
0.008738733 -0.10211817 -0.04264959 -0.028076604 0.011327736 -0.08720533 -0.057374276 -0.087404385
-0.0023705207 0.080284715 0.048942976 -0.030503694 -0.031922456 -0.07252497 -0.007905896 0.03082609
-0.09188542 -0.10256858 -0.05846342 -0.12263252 -0.03440856 0.02278444 0.05174105 0.016957011
0.041984126 -0.09644993 -0.08409667 0.013253043 0.059076637 -0.04335776 0.026212534 0.014762748
-0.045569018 -0.015217013 0.098767094 0.0033521322 0.052035183 0.009308424 0.046193972 0.0073717637
0.02512421 -0.025868958 0.030708969 0.030204251 -0.045784537 0.07157908 -0.08513381 0.051116113
-0.11220131 -0.027135225 0.09714548 0.029550683 0.077993594 -0.057537563 0.019327182 0.041248478
-0.106043495 -0.05564461 0.07455801 0.0022350382 -0.014725501 -0.0416514 -0.008103721 0.053157024
0.059477028 1.25011015e-36 -0.0107606845 -0.05889816 1.2273443e-36 -0.010928125 0.04104489 -0.010392363
0.0070028696 -0.006218209 0.00028379384 0.0008293809 -0.008911499 -1.7805634e-31 0.017203523 -0.0083673475
-0.08026516 -0.031982258 -0.07037708 -0.0010638062 0.0051549724 -0.00013611704 -0.0275172 1.0982559e-36
-0.085560545 0.050042544 -0.015940383 -0.007082343 -0.008073728 -0.006954654 -0.009388536 -0.01884793
0.037105106 -0.010759469 -1.0629852e-36 0.0070587895 0.022867125 0.03764988 -0.010017141 0.048447005
-0.053110555 -0.01084737 -0.021459829 -0.074520916 -0.077121615 -0.06544461 -0.0112790335 -0.050710384
-0.021517321 -0.005646242 -0.06157477 -0.008174653 -0.037665572 -1.5189618e-36 -0.010753974 2.427223e-35
-0.06324579 0.055203594 0.031239107 -0.007533198 -0.012727097 -0.010118191 -0.011551064 0.027541347
-0.078860134 -0.0102997115 -0.0074455976 -0.01995604 -0.044531405 0.020801447 -0.0766456 0.0011570889
0.07340571 -0.010055661 -0.012515514 -0.01369457 -0.02926447 0.07458963 -0.053554364 -0.05386122
-0.016079403 0.0043983883 -0.035032574 0.0020711548 -0.00977955 0.0602269 -0.03538077 0.0009840814
-0.013022884 -0.0068357578 -0.041481577 0.01551118 -0.0015136375 -0.011754067 -0.005181774 0.02194259
0.0053674392 -0.007872837 1.0788605e-36 0.036974825 0.0377982 0.00015799387 0.026089724 -0.013100043
0.0070194216 -0.03752037 -0.012171572 -0.0007610864 0.007884902 -0.012984824 -0.045760356 -0.03332989
0.0028821225 -0.008378721 -0.06647633 -0.043475863 -0.05943523 0.03920495 0.025815787 -0.070576
-0.015909467 -0.0032804243 -0.002062161 0.03197461 -1.1406376e-36 0.07824116 0.04406039 0.0008799741
00000000: 7cc7 003c 75ef 61bd ae63 033d d656 59bd
00000010: 20ab 83bd ccd0 2bbd 92cd ee3d de4e e0bd
00000020: 945d 583d de73 033e 6b3b b8bc 9c53 28bd
00000030: c7cd bebd 3897 693c 2803 0db8 cce2 7bbd
00000040: 14e8 863d 2318 e4bd b738 813d aa63 36bc
00000050: 6943 90bd 837b 34bd 93c5 a1bd 4017 b5bd
00000060: 1b86 9abd 09d5 5a3c 1b94 9f3d 17bc edbd
00000070: bbb9 883d dcf7 34bd 64b2 653d 88d1 3abd
00000080: 4668 b3bd 5268 233d e603 a43d d4f1 693c
00000090: 9707 b03d 6381 1f3d 0826 343c 447c 7fbd
000000a0: 1ef0 293d 5c7b d7bd b842 2c3d 45e9 58bb
000000b0: 0e02 fd3d a07c 4bbc eb48 433d f9a4 c83d
000000c0: 7dd1 833b ec17 3fbd acbf a33c e52b be3d
000000d0: 75bf 8c3d 8503 173d d8ae 6c3d 0c01 cebd
000000e0: bf29 813d e678 2cbd d2c4 d0bd 9c45 a73c
000000f0: 8c76 3fbd cc51 213d 6f0c 5f3d f43d 0e3d
00000100: e72c 0f3c 5523 d1bd 56b1 2ebd e800 e6bc
00000110: f897 393c b598 b2bd 4a01 6bbd 1201 b3bd
00000120: bd5a 1bbb 506c a43d 6e78 483d e2e2 f9bc
00000130: 1fc1 02bd f987 94bd bb87 01bc ff86 fc3c
00000140: 6c2e bcbd 7a0f d2bd 5777 6fbd c226 fbbd
00000150: fdef 0cbd 6fa6 ba3c 6cee 533d 6ee9 8a3c
00000160: 8cf7 2b3d 8a87 c5bd e03a acbd 4b23 593c
00000170: 58fa 713d e897 31bd abbb d63c 74df 713c
00000180: 94a6 3abd c750 79bc 6746 ca3d 72af 5b3b
00000190: d822 553d 5c82 183c e435 3d3d d68e f13b
000001a0: 4ad1 cd3c 23eb d3bc 6091 fb3c e86e f73c
000001b0: 9188 3bbd 0d98 923d a35a aebd 215f 513d
000001c0: cdc9 e5bd b14a debc 36f4 c63d 4614 f23c
000001d0: 1bbb 9f3d 82ac 6bbd 0a54 9e3c 2af4 283d
000001e0: 552d d9bd 9aeb 63bd dfb1 983d b879 123b
000001f0: 3a43 71bc a99a 2abd 78c5 04bc 2ebb 593d
00000200: 2f9e 733d fab1 d403 954d 30bc 323f 71bd
00000210: 62d2 d003 e10b 33bc b01e 283d bb44 2abc
00000220: 5478 e53b 1ec2 cbbb 2aca 9439 cf6a 593a
00000230: 8901 12bc 5e21 678c 67ee 8c3c 3317 09bc
00000240: 0f62 a4bd d4ff 02bd dc21 90bd 6a6f 8bba
00000250: 0beb a83b a4ba 0eb9 c06b e1bc cadb ba03
00000260: 5e3a afbd 69f9 4c3d 6895 82bc 0013 e8bb
00000270: ab47 04bc dee3 e3bb 60d2 19bc f966 9abc
00000280: 86fb 173d 7c48 30bc 89db b483 6b4d e73b
00000290: d653 bb3c c336 1a3d ef1e 24bc 5e70 463d
000002a0: 748a 59bd 2bb9 31bc 86cc afbc 6c9e 98bd
000002b0: f0f1 9dbd d307 86bd b2cb 38bc b1b5 4fbd
000002c0: 1845 b0bc 1c04 b9bb d335 7cbd fbee 05bc
000002d0: 3747 1abd 0f38 0184 7031 30bc a60d 0106
000002e0: 0287 81bd 2a1d 623d 28e9 ff3c 0cd9 f6bb
000002f0: 5085 50bc c5c6 25bc ad40 3dbc 649e e13c
00000300: 6c81 a1bd 1fc0 28bc 33fa f3bb d97a a3bc
00000310: 9066 36bd cc67 aa3c 5ef8 9cbd 76a9 973a
00000320: bc55 963d 80c0 24bc df0d 4dbc 315f 60bc
00000330: 0bbc efbc 73c2 983d d25b 5bbd 959d 5cbd
00000340: f4b8 83bc 5b20 903b 517e 0fbd 36bc 073b
00000350: 683a 20bc 7bb0 763d 6deb 10bd 4bfc 803a
00000360: ef5d 55bc 7efe dfbb 96e8 29bd 9b22 7e3c
00000370: 3f65 c6ba 2194 40bc dfcb a9bb f2c0 b33c
00000380: 58e1 af3b 12fd 00bc 018f b703 ea72 173d
00000390: 49d2 1a3d 28ab 2539 1eba d53c 90a1 56bc
000003a0: 2d03 e63b f6ae 19bd 466b 47bc a583 47ba
000003b0: ad2f 013c 4dbe 54bc 366f 3bbd ec84 08bd
000003c0: fee1 3c3b e746 09bc be24 88bd bf13 32bd
000003d0: 5b72 73bd 5f95 203d a17b d33c 268a 90bd
000003e0: 9254 82bc 63fc 56bb 5225 07bb cff7 023d
000003f0: c611 c283 e73c a03d ab78 343d 10ae 663a

bias f4 [128]
-0.018493054 -0.030792149 -0.06634588 -0.068738036 0.0062531894 -0.038066655 -0.042444833 -0.038384322
-0.04572714 0.07271872 0.029399041 0.0009962723 -0.007891405 0.09114832 -0.07098724 0.01618755
-0.011467467 0.03029242 -0.016200826 -0.059372135 0.09238439 -0.1342534 -0.058370735 0.07100811
-0.042870235 0.034390308 0.10720514 0.015014255 -0.004362397 -0.023552686 0.07247514 0.08795105
-0.012960959 -0.031792447 0.06583117 -0.006066397 0.0020622804 0.049973853 0.0042133424 0.08179782
-0.121157944 -0.056212228 0.09550309 0.10913142 -0.03817616 0.05456926 0.011813363 0.014095496
-0.034657903 -0.01408657 0.09673401 0.048125084 0.104565464 0.060123533 0.07599168 0.06251598
-0.020770252 -0.040990233 0.08650232 -0.060549807 -0.032518134 0.06816717 0.04856705 0.035104066
0.049840394 0.08257538 0.05220958 0.04606046 0.07759661 -0.012664396 -0.0097853 0.08677113
0.027606098 0.008958197 0.01306235 0.097000994 0.014991127 0.032521423 -0.008209272 0.048931863
0.08380894 0.02567923 -0.026684918 0.06776545 0.03096915 0.011597496 -0.08844552 -0.085545294
0.101157896 0.067377776 0.07023135 0.102986895 0.03669408 0.091247246 0.083950885 0.09749697
-0.039030205 0.11649362 0.09756067 -0.047963332 0.023328314 0.10171226 0.028466767 0.07717765
-0.00830136 0.02443475 -0.04951736 0.10538308 0.05289384 0.010225628 -0.057585217 0.048566744
0.05216438 -0.031020634 0.02725037 0.11703325 0.04421728 -0.018989991 0.05666923 0.016064834
0.021933397 0.051650185 0.07863898 0.048976023 0.06259373 -0.023502886 -0.046278335 -0.008390776
00000000: bf7e 97bc d13f fcbc 59e0 87bd 87c6 8cbd
00000010: 8ee7 cc3b c8eb 1bbd a2da 2dbd e138 1dbd
00000020: 624c 3bbd 8ded 943d 42d6 f03c 5a95 823a
00000030: f44a 01bc f8ab ba3d c261 91bd c19b 843c
00000040: 0be2 3bbc cf27 f83c 98b7 84bc 3230 73bd
00000050: 0734 bd3d b979 09be 2716 6fbd b36c 913d
00000060: b398 2fbd dadc 0c3d 5e8e db3d 5afe 753c
00000070: 70f2 8ebb 90f1 c0bc d96d 943d ae1f b43d
00000080: 345a 54bc cc38 02bd 7ed2 863d a0c8 c6bb
00000090: 5327 073b 62b1 4c3d 1410 8a3b 9e85 a73d
000000a0: a821 f8bd cb3e 66bd 2097 c33d 4b80 df3d
000000b0: 9b5e 1cbd 0484 5f3d d68c 413c ccf0 663c
000000c0: 72f5 0dbd 5bcb 66bc 7b1c c63d cf1e 453d
000000d0: 6b26 d63d 1844 763d 87a1 9b3d 6108 803d
000000e0: 6026 aabc 60e5 27bd 2128 b13d 1303 78bd
000000f0: bc31 05bd 3b9b 8b3d 3eee 463d 48c9 0f3d
00000100: 7125 4c3d 481d a93d b6d9 553d e5a9 3c3d
00000110: f9ea 9e3d 547e 4fbc 8652 20bc 10b5 b13d
00000120: 2f26 e23c 67c5 123c 7803 563c 75a8 c63d
00000130: 589d 753c 2f35 053d 2f80 06bc c76c 483d
00000140: 06a4 ab3d 405d d23c 549a dabc 9dc8 8a3d
00000150: 04b3 fd3c 6d03 3e3c ed22 b5bd 5f32 afbd
00000160: df2b cf3d 5cfd 893d 74d5 8f3d cbea d23d
00000170: 884c 163d d6df ba3d 71ee ab3d 7eac c73d
00000180: 23de 1fbd 3594 ee3d e3cd c73d 3375 44bd
00000190: 051b bf3c 844e d03d 2333 e93c 510f 9e3d
000001a0: 6d02 08bc 632b c83c b7d2 4abd 16d3 d73d
000001b0: 36a7 583d 6489 273c 7ade 6bbd eced 463d
000001c0: 51aa 553d fc1e febc 2b3c df3c 21af ef3d
000001d0: 2e1d 353d e690 9bbc ff1d 683d 669a 833c
000001e0: abad b33c 258f 533d 790d a13d 159b 483d
000001f0: 2431 803d 2089 c0bc 5a8e 3dbd 7779 09bc

weight f4 [128, 128]
0.05336174 0.068933055 -0.07265933 -0.011138651 -0.06788965 -0.07686715 -0.030310353 -0.0055095293
-0.05401412 0.11946012 -0.120185345 0.035814077 0.10533238 0.009300839 0.041205056 -0.053923283
0.10797329 0.097058244 -0.0074432185 0.025175566 0.071586765 0.14171667 -0.026965637 0.092205726
0.0408589 0.07220686 -0.052966155 0.07764058 0.060695358 -0.07566521 0.036635853 0.04188676
-0.024897598 0.003681371 0.08063192 0.08018627 0.04708512 0.029381141 0.043999042 -0.090063564
-0.020220872 0.016059026 -0.0147334775 0.07282023 -0.06224671 -0.057541057 0.067569666 0.08538178
-0.013533031 0.051284447 -0.04875133 -0.055943303 -0.039852194 0.0051480136 0.013428218 0.10587705
0.07558991 0.02919325 0.08928884 -0.042081647 0.07087776 0.037922844 -0.012693428 -0.035416342
0.10102718 -0.023487067 0.062196825 -0.0179233 0.08949029 -0.06248048 0.071123585 0.013736439
-0.020169495 0.042913288 0.04528462 0.064684205 -0.012045172 0.03379173 -0.002387853 0.11490166
-0.057193574 -0.038382933 -0.108986445 0.06206501 -0.06652423 -0.008695473 0.09704974 0.14370514
-0.013640768 0.040842503 0.010548297 -0.039415725 -0.019216 -0.029070543 0.018990988 -0.06980354
0.038902707 -0.05496861 0.0023172945 0.02148561 -0.0397194 0.056485195 0.07741969 -0.038053676
0.08004064 -0.065622315 0.013198202 -0.087900504 0.01198484 -0.004514046 0.053386554 -0.009359632
-0.0063619595 -0.033724893 0.02012405 0.00956008 -0.043852147 0.013343839 0.027309876 0.035294056
-0.024709154 0.0038544564 -0.01308265 0.030411914 0.06181542 0.100767456 0.030008294 0.11392972
0.1259087 0.01272258 0.011295785 -0.00037067113 0.027462443 0.09531001 -0.010474065 0.057040237
-0.057036497 0.00024704426 0.0069740093 0.042372957 -0.042749166 -0.05817757 0.0012258162 0.0074779983
0.025103655 -0.06925985 -0.12756732 -0.0036382468 -0.023507396 -1.0184297e-36 -0.064484514 -0.015861573
-0.04146893 0.029616827 -0.020518154 -0.038879983 -0.06324547 0.08473117 -0.04155543 0.07270204
5.4789434e-05 -0.023565862 -0.05699783 -0.0023806973 0.057516843 0.11566251 -0.030909646 0.08374282
0.021903245 0.11568644 0.028782846 -0.07326214 -0.009599913 0.10234711 -0.040956862 -0.0034739152
-0.0020197192 0.007848912 -0.04487152 0.104619496 -0.012687096 0.08620549 -0.06692979 0.09993806
0.010694709 -0.045651328 -0.09847008 0.0016715442 -0.029552052 -0.008051663 -0.022520488 -0.043301582
0.0012263539 -0.066402845 -0.022088647 -0.0018942789 -0.014852938 -0.10085043 0.033186384 0.07792946
-0.07435676 -0.10047809 0.0001949651 -0.023722932 0.07222866 -0.01308246 -0.06101168 0.040408477
-0.010232717 0.0031897489 0.046521846 0.06421903 0.09159201 -0.020067796 0.042368475 -0.00784867
0.09443406 0.0003838478 0.0005363144 -0.01934547 -0.03248538 -0.005858152 -0.05442256 -0.035059005
0.09417808 -0.034412507 -0.030826628 -0.0007442913 0.038680207 -0.08465887 -0.02405634 -0.1161903
-0.11166578 -0.006511055 0.030025331 0.053498387 -0.040220305 -0.047812395 0.017063683 0.06638742
0.06374632 -0.0012182117 0.052754078 0.060344208 -0.0031495693 0.023761962 0.004904487 -0.03742124
-0.060598847 0.041883115 -0.069135346 -0.030515594 -0.058237646 -0.0241832 -0.036035873 0.00072005944
00000000: d791 5a3d c62c 8d3d 6ace 94bd e37e 36bc
00000010: bb09 8bbd 866c 9dbd 6b4d f8bc 4889 b4bb
00000020: e93d 5dbd 82a7 f43d bc23 f6bd c8b1 123d
00000030: 81b8 d73d 8c62 183c a2c6 283d a9de 5cbd
00000040: 1a21 dd3d 79c6 c63d 3ee6 f3bb fd3c ce3c
00000050: 159c 923d 2d1e 113e 0ae7 dcbc 5bd6 bc3d
00000060: a95b 273d 31e1 933d 0af3 58bd 0602 9f3d
00000070: b29b 783d 5df6 9abd 7a0f 163d 7491 2b3d
00000080: 0cf6 cbbc 2843 713b 5922 a53d b338 a43d
00000090: 54dc 403d b8b0 f03c 5738 343d 3f73 b8bd
000000a0: 3ea6 a5bc 388e 833c af64 71bc c622 953d
000000b0: 68f6 7ebd 2cb0 6bbd f761 8a3d a5dc ae3d
000000c0: a5b9 5dbc a40f 523d 79af 47bd ce24 65bd
000000d0: 0e3c 23bd abb0 a83b 0702 5c3c 11d6 d83d
000000e0: e2ce 9a3d af26 ef3c 11dd b63d ce5d 2cbd
000000f0: 5c28 913d fc54 1b3d 19f8 4fbc ba10 11bd
00000100: 57e7 ce3d f367 c0bc 19c2 7e3d e2d3 92bc
00000110: af46 b73d 88eb 7fbd 3ea9 913d cd0e 613c
00000120: 7f3a a5bc d8c5 2f3d 5e7c 393d 2779 843d
00000130: 1d59 45bc 3269 0a3d 877d 1cbb 9051 eb3d
00000140: cf43 6abd 6c37 1dbd 4934 dfbd e137 7e3d
00000150: db3d 88bd 7577 0ebc 04c2 c63d 7127 133e
00000160: 877d 5fbc 784a 273d c4d2 2c3c 6272 21bd
00000170: df6a 9dbc 5925 eebc fd92 9b3c 29f5 8ebd
00000180: 7258 1f3d c426 61bd c0dd 173b 9702 b03c
00000190: cfb0 22bd 055d 673d 378e 9e3d 2cde 1bbd
000001a0: 59ec a33d fe64 86bd 453d 583c 2e05 b4bd
000001b0: 105c 443c 90ea 93bb dcab 5a3d 2459 19bc
000001c0: fc77 d0bb 1d23 0abd 31db a43c e2a1 1c3c
000001d0: 4f9e 33bd 1ea0 5a3c f6b8 df3c 8090 103d
000001e0: da6a cabc 0c9b 7c3b 9c58 56bc 6822 f93c
000001f0: 2a32 7d3d 2b5f ce3d f4d3 f53c fc53 e93d
00000200: 36ee 003e 5e72 503c f511 393c a356 c2b9
00000210: ebf8 e03c e531 c33d 6a9b 2bbc 06a3 693d
00000220: 1a9f 69bd b885 8139 3b86 e43b 448f 2d3d
00000230: c019 2fbd 9b4b 6ebd 91ab a03a ff09 f53b
00000240: 2ea6 cd3c 1cd8 8dbd 02a1 02be a76f 6ebb
00000250: 9592 c0bc df46 ad83 7510 84bd 21f0 81bc
00000260: 53db 29bd fd9e f23c b015 a8bc 9e40 1fbd
00000270: d786 81bd 8987 ad3d 0736 2abd cfe4 943d
00000280: b5cd 6538 320d c1bc 8e76 69bd 7905 1cbb
00000290: c896 6b3d 77e0 ec3d 3a36 fdbc 5b81 ab3d
000002a0: 6f6e b33c 03ed ec3d 01ca eb3c 760a 96bd
000002b0: f448 1dbc 5d9b d13d 62c2 27bd a0aa 63bb
000002c0: 445d 04bb b998 003c 33cb 37bd bf42 d63d
000002d0: 8add 4fbc 818c b03d 7c12 89bd 53ac cc3d
000002e0: dc38 2f3c e3fc 3abd aeaa c9bd b717 db3a
000002f0: 2517 f2bc 1feb 03bc e37c b8bc 005d 31bd
00000300: 9cbd a03a 37fe 87bd 40f3 b4bc 7449 f8ba
00000310: bd59 73bc ac8a cebd 72ee 073d 7b99 9f3d
00000320: 5b48 98bd 75c7 cdbd 8c6f 4c39 9856 c2bc
00000330: 9fec 933d d057 56bc 62e7 79bd 5c83 253d
00000340: 20a7 27bc 1b0b 513b b18d 3e3d 4485 833d
00000350: 9794 bb3d 3865 a4bc 918a 2d3d b597 00bc
00000360: a566 c13d 2e3f c939 7397 0c3a 647a 9ebc
00000370: 640f 05bd bef5 bfbb 31ea 5ebd 089a 0fbd
00000380: 70e0 c03d 21f4 0cbd 2088 fcbc 8b1c 43ba
00000390: 236f 1e3d a161 adbd cd11 c5bc 2ef5 edbd
000003a0: 07b1 e4bd b05a d5bb aff7 f53c 2021 5b3d
000003b0: 0cbe 24bd eed6 43bd 23c9 8b3c 21f6 873d
000003c0: 6e8d 823d 67ac 9fba a914 583d 7d2b 773d
000003d0: 0169 4ebb 72a8 c23c d2b5 a03b 0447 19bd
000003e0: 7f36 78bd a18d 2b3d d596 8dbd d7fb f9bc
000003f0: 998a 6ebd d91b c6bc 5a9a 13bd 5fc2 3c3a

bias f4 [128]
0.095502004 -0.0044713346 -0.045215193 -0.069918945 0.12486317 0.04123978 -0.040751856 0.085567765
0.025181076 0.091401935 -0.067060545 0.059569333 0.10417253 0.043772217 0.055738807 -0.047254577
-0.044489045 0.1004814 0.02594263 -0.02320632 0.12015047 0.0012167209 0.07491539 -0.054055557
0.008202895 0.010348196 -0.02327736 -0.036528803 -0.023184007 -0.0290089 0.10823057 -0.029617291
0.10861061 0.047730625 0.06845167 0.052274585 0.069114804 0.10240984 0.110182114 0.022151718
0.10654472 -0.015234023 -0.02042501 0.06629925 0.07545368 0.058202706 0.08440521 -0.028669845
0.03788328 0.042266473 -0.066289246 0.054395277 0.06274403 -0.10124374 0.091937706 0.021037415
0.08407231 0.07683103 0.008991957 -0.014541848 0.07986278 0.086830825 -0.0038645305 0.06504504
0.042087484 0.027181152 0.110948436 0.01638146 0.06257012 0.07092474 -1.5921814e-33 0.12345825
0.12441645 -0.05538839 0.07438295 0.0930399 -0.026844775 0.116277255 -0.059554763 0.026751574
0.0687136 0.0670766 0.026855579 0.044962756 0.08875565 0.012840943 0.11933572 -0.015169732
0.035941694 -0.05143935 0.023154357 0.03264207 0.12796547 0.0015814737 0.07218753 0.036540203
-0.056771446 -0.014474664 -0.0702594 0.049164727 0.06280665 -0.037277944 0.13129179 0.01409632
0.0032638172 0.06788463 0.051046368 0.024955695 0.096577294 0.052712083 0.014200047 0.10577856
0.08266612 0.02061241 0.015932297 0.07074408 0.11807808 0.06038633 0.012228596 0.08854694
0.09911546 0.05275858 -0.01963967 0.10372495 0.02524747 0.055452526 -0.02500969 0.10787729
00000000: 8e96 c33d 4684 92bb 9133 39bd aa31 8fbd
00000010: 43b8 ff3d 0beb 283d 6beb 26bd 273e af3d
00000020: 8b48 ce3c f030 bb3d 0a57 89bd f9fe 733d
00000030: 6858 d53d 7f4a 333d 604e 643d 048e 41bd
00000040: 253a 36bd 31c9 cd3d a385 d43c 2e1b bebc
00000050: 7311 f63d 617a 9f3a 3d6d 993d 5c69 5dbd
00000060: 6f65 063c 7b8b 293c 29b0 bebc 3a9f 15bd
00000070: 63ec bdbc 13a4 edbc fda7 dd3d f69f f2bc
00000080: 3d6f de3d 3081 433d 6430 8c3d e01d 563d
00000090: 108c 8d3d 40bc d13d 29a7 e13d 8577 b53c
000000a0: 1e34 da3d 2098 79bc 5a52 a7bc e7c7 873d
000000b0: 7587 9a3d f665 6e3d a4dc ac3d 06dd eabc
000000c0: 802b 1b3d 9c1f 2d3d a8c2 87bd 95cd 5e3d
000000d0: f17f 803d e158 cfbd d649 bc3d a856 ac3c
000000e0: 1a2e ac3d 9659 9d3d 0053 133c ee40 6ebc
000000f0: 198f a33d 5cd4 b13d 1044 7dbb 5536 853d
00000100: ed63 2c3d 02ab de3c ef38 e33d 6932 863c
00000110: c324 803d fd40 913d f445 0489 aed7 fc3d
00000120: 0dce fe3d f0de 62bd 1756 983d b48b be3d
00000130: 93e9 dbbc c522 ee3d b2ef 73bd 1e26 db3c
00000140: b7b9 8c3d 755f 893d 3b00 dc3c de2a 383d
00000150: 86c5 b53d d262 523c 4966 f43d 788a 78bc
00000160: 9937 133d 11b2 52bd 35ae bd3c b1b3 053d
00000170: 6109 033e 7449 cf3a 0ed7 933d 2eab 153d
00000180: 2d89 68bd 2427 6dbc 29e4 8fbd f460 493d
00000190: c6a0 803d c2b0 18bd 5b71 063e 40f4 663c
000001a0: c4e5 553b 1907 8b3d ff15 513d e36f cc3c
000001b0: 51ca c53d a0e8 573d 50a7 683c 6ea2 d83d
000001c0: db4c a93d 5bdb a83c 7384 823c 46e2 903d
000001d0: ecd2 f13d a857 773d 735a 483c 1958 b53d
000001e0: 0cfd ca3d 6119 583d 60e3 a0bc bf6d d43d
000001f0: c8d3 ce3c 3022 633d 1fe1 ccbc c5ee dc3d

weight f4 [1, 128]
-0.04295059 0.1313157 0.10466606 0.09513802 -0.10125375 0.12173852 0.061200608 -0.10061716
0.04155536 0.07362646 0.07726156 0.11221314 0.11615638 -0.02360879 0.131773 0.11258172
-0.037869688 -0.056819584 -0.04878151 0.12485355 -0.032617506 -0.060203988 0.08678281 0.13667455
-0.012692966 0.09357078 0.07581771 -0.09913609 0.11305059 0.09089035 -0.054132644 0.14866574
-0.09919005 0.107416034 -0.083662845 -0.06620331 -0.026003556 -0.0813314 0.095355935 0.043714095
-0.09090946 -0.093636625 -0.048280004 -0.06133982 0.09307153 0.059538692 0.057193574 0.041319497
-0.031233855 0.08124548 0.14897178 -0.026031256 0.02040453 -0.007537439 -0.022373999 -0.08977077
-0.041024026 -0.06589098 -0.027372247 -0.09539633 0.11384489 0.10123156 -0.09714479 0.09493056
0.13609421 0.11770313 0.101417094 0.074078344 0.11398696 -0.022667408 3.9359835e-09 -0.027690975
-0.057705227 0.0049984194 0.111653164 -0.03721155 -0.00043914153 -0.05680453 0.15520512 -0.019327717
-0.07541189 -0.05400917 0.11247928 0.07520127 0.067060545 -0.04382151 -0.0233186 0.10891935
-0.05082375 -0.08582616 -0.02690757 0.106260724 -0.06215901 -0.053727683 0.106436774 -0.039314557
0.075915255 -0.03783757 -0.05113105 0.11781202 -0.09747249 -0.0036207037 -0.040589336 -0.0031769723
0.034145106 -0.067496896 0.11776211 -0.076772325 0.03678057 0.066465236 -0.052806392 -0.08054673
0.09061355 -0.06654787 -0.096290156 0.06646412 -0.02100714 0.034631845 -0.0915028 -0.036687918
-0.045916144 0.08997805 0.04688802 -0.09705699 0.10802237 0.12601398 0.06683869 -0.086688615
00000000: f5ec 2fbd 9f77 063e 295b d63d b9d7 c23d
00000010: 205e cfbd 0c52 f93d 7dad 7a3d 5f10 cebd
00000020: f435 2a3d 78c9 963d 4f3b 9e3d 01d0 e53d
00000030: 65e3 ed3d 3967 c1bc 80ef 063e 3f91 e63d
00000040: 3f1d 1bbd a7bb 68bd 1fcf 47bd 38b3 ff3d
00000050: ef99 05bd 7598 76bd 30bb b13d 6af4 0b3e
00000060: 28f6 4fbc 09a2 bf3d 5146 9b3d dd07 cbbd
00000070: 1187 e73d b824 ba3d 31ba 5dbd d53b 183e
00000080: 2724 cbbd f0fc db3d 6d57 abbd 9a95 87bd
00000090: 6905 d5bc 1491 a6bd f949 c33d 8d0d 333d
000000a0: bd2e babd 8fc4 bfbd 41c1 45bd 773f 7bbd
000000b0: 499c be3d d8de 733d cf43 6a3d a23e 293d
000000c0: 24de ffbc 0864 a63d 0f8c 183e 803f d5bc
000000d0: 6727 a73c 9ffc f6bb ad49 b7bc bdd9 b7bd
000000e0: cf08 28bd daf1 86bd c33b e0bc 275f c3bd
000000f0: 8227 e93d 7e52 cf3d d9f3 c6bd f46a c23d
00000100: 485c 0b3e 570e f13d c4b3 cf3d 63b6 973d
00000110: ff71 e93d 00b1 b9bc 473d 8731 2fd8 e2bc
00000120: 515c 6cbd c8c9 a33b 6aaa e43d 236b 18bd
00000130: 943c e6b9 deab 68bd 17ee 1e3e 2955 9ebc
00000140: 8d71 9abd b838 5dbd 895b e63d 2003 9a3d
00000150: 0a57 893d 2f7e 33bd a606 bfbc 1c11 df3d
00000160: 912c 50bd a0c5 afbd 446d dcbc 399f d93d
00000170: 729a 7ebd 8f11 5cbd 86fb d93d 4d08 21bd
00000180: 7579 9b3d 91fb 1abd cb6e 51bd 6e47 f13d
00000190: a89f c7bd 5449 6dbb 0141 26bd c034 50bb
000001a0: bddb 0b3d d03b 8abd 432d f13d cf3a 9dbd
000001b0: 39a7 163d ed1e 883d 844b 58bd aff5 a4bd
000001c0: 9993 b93d 404a 88bd c633 c5bd 571e 883d
000001d0: 2a17 acbc 1fda 0d3d d265 bbbd 1246 16bd
000001e0: 9112 3cbd 6946 b83d a70d 403d d1c5 c6bd
000001f0: d53a dd3d cf09 013e b9e2 883d cd89 b1bd
