bike_sharing/AutogluonModels/ag-20220403_203319/models/NeuralNetTorch_BAG_L1/S1F2/net.params (torch, 211783 bytes, 9 tensors)

weight f4 [128, 14]
0.006931856 0.0876601 -0.23881166 -0.19060251 -0.08243127 0.036964234 -0.017897367 0.23084348
-0.028204009 0.14306596 -0.038880788 -0.058826637 -0.3514415 -0.16094162 -0.064287044 0.01420198
0.103245854 0.20443705 -0.12598124 -0.14242145 0.15559427 0.19284005 -0.018274311 0.21478097
-0.005371625 -0.0016362809 0.3064275 -0.27609712 -0.1883115 -0.0997292 -0.14036831 0.24039917
-0.1713022 -0.14954452 -0.2185811 -0.3095801 -0.11682253 0.22234826 0.12183683 0.1305539
-0.034478888 -0.12567867 0.037363563 -0.29288477 -0.21204914 -0.1942866 0.18311259 0.13479927
-0.13674758 0.037756644 0.17472875 0.26020068 0.06378366 -0.0035129206 0.073070735 -0.18569484
0.004241044 -0.31716534 -0.25695285 -0.094365425 0.11860274 0.05810975 -0.19764198 0.09988309
0.06977874 -0.004884716 -0.009682746 0.024748996 0.21926385 0.251161 -0.28239632 -0.08743967
0.09053264 0.27672803 0.24177076 0.19478491 -0.07087894 -0.22288112 -0.0080430545 -0.13639894
-0.2579981 0.25427562 0.33708364 -0.2741906 0.048919566 -0.18613553 -0.11494824 -0.08335297
-0.027317561 -0.22299597 0.082396135 0.1299215 0.25454962 0.08340076 -0.2323227 -0.21924487
0.14931378 -0.010083142 -0.17453896 -0.25597948 0.14869161 0.19986337 -0.08808613 -0.06570278
-0.31106114 -0.0035264748 -0.17357132 -0.19075295 -0.055573087 0.051009484 -0.09922631 0.1316183
-0.16137315 0.237207 0.16144425 -0.24569473 -0.021367192 0.0687443 0.071949966 0.027063789
0.085713 0.0091506215 -0.18075776 0.1437892 -0.22493865 -0.21459854 -0.046316065 -0.22949265
-0.1536699 -0.18088312 -0.078783184 0.026570473 -0.16530949 -0.00069367397 0.21435885 -0.028884007
0.008961009 -0.07533436 0.11181666 0.09631856 0.27470446 0.16926897 0.25134286 -0.05414858
-0.25292048 -0.16871141 0.24862602 0.016267164 -0.14772774 -0.1337674 -0.26622695 -0.32747537
-0.26629013 0.14776582 0.118918516 -0.30993336 0.118418105 -0.16881283 -0.03436182 -0.18962923
-0.026141308 -0.09751978 -0.2744993 -0.16477089 -0.030820811 -0.10918743 -0.3108116 0.16572374
-0.38155136 0.092105076 0.33127445 -0.07562417 0.24938606 0.045664757 -0.36011657 0.10111626
-0.07785858 -0.06270613 0.16215415 -0.25232655 0.05412675 -0.082596734 0.17380342 -0.018523231
0.07681974 0.14574273 -0.08396301 -0.12207452 -0.2535036 0.14987236 0.21627587 0.19545269
-0.13031296 -0.0077314232 -0.28648964 -0.099006824 -0.1628725 0.023337811 -0.18078187 -0.01570581
0.031061608 0.15335341 -0.21132895 -0.10238553 -0.1400842 0.21601312 -0.06726225 0.22201835
0.08289949 0.08038303 -0.0176001 -0.11470502 -0.018759398 -0.12731051 0.022798656 0.07069154
-0.20817032 -0.20756681 0.18708943 -0.1330027 -0.09783718 0.24715279 0.019683147 -0.049444932
-0.21095586 0.14074928 -0.25985366 -0.14559065 -0.06736014 -0.035603013 0.035105545 0.24740535
0.049497407 0.22637299 0.15508786 -0.19567117 0.17917266 -0.21352115 -0.11992031 0.06247501
0.061304305 0.29141092 -0.0947882 -0.06234705 0.09382083 -0.23069556 0.1795183 -0.16818018
-0.018281711 -0.112107195 -0.1608006 -0.024803225 0.23552792 -0.12920311 -0.19542725 -0.13581878
00000000: 9f24 e33b 2387 b33d 0b8b 74be 4e2d 43be
00000010: bad1 a8bd cf67 173d 809d 92bc 3c62 6c3e
00000020: 180c e7bc e27f 123e 7641 1fbd 33f4 70bd
00000030: 24f0 b3be e1cd 24be eda8 83bd 6caf 683c
00000040: 9072 d33d f257 513e 3a01 01be eed6 11be
00000050: 1b54 1f3e dd77 453e 02b4 95bc 8bef 5b3e
00000060: 7504 b0bb 7a78 d6ba 11e4 9c3e 9a5c 8dbe
00000070: bbd4 40be d33e ccbd b6bc 0fbe 332b 763e
00000080: d869 2fbe 3322 19be b9d3 5fbe 4881 9ebe
00000090: a740 efbd 43af 633e 9785 f93d ecaf 053e
000000a0: bc39 0dbd e9b1 00be 890a 193d fef4 95be
000000b0: 6923 59be 11f3 46be de81 3b3e d208 0a3e
000000c0: 8f07 0cbe b6a6 1a3d 18ec 323e 0639 853e
000000d0: 02a1 823d 0739 66bb 1ca6 953d ca26 3ebe
000000e0: 75f8 8a3b 7f63 a2be 538f 83be a942 c1bd
000000f0: fee5 f23d 7d04 6e3d a962 4abe 818f cc3d
00000100: 28e8 8e3d f80f a0bb 61a4 1ebc 68be ca3c
00000110: b486 603e 2d98 803e 4096 90be 9213 b3bd
00000120: 2d69 b93d 4caf 8d3e c192 773e b275 473e
00000130: fa28 91bd f33a 64be 04c7 03bc 2aac 0bbe
00000140: 5418 84be 6a30 823e 3a96 ac3e b662 8cbe
00000150: e25f 483d 509a 3ebe fc69 ebbd f6b4 aabd
00000160: 14c9 dfbc 0e59 64be 4ebf a83d 240a 053e
00000170: 5454 823e 05ce aa3d 00e6 6dbe ba81 60be
00000180: b6e5 183e c333 25bc 57ba 32be be0f 83be
00000190: 9d42 183e fca8 4c3e 8066 b4bd 2e8f 86bd
000001a0: 6843 9fbe 6e1c 67bb aebc 31be be54 43be
000001b0: 9ba0 63bd 52ef 503d 2a37 cbbd f3c6 063e
000001c0: 013f 25be 64e6 723e a451 253e 6697 7bbe
000001d0: 400a afbc d0c9 8c3d 815a 933d e1b4 dd3c
000001e0: 4c8a af3d 7dec 153c 9018 39be 7a3d 133e
000001f0: 5156 66be b8bf 5bbe eab5 3dbd 1f00 6bbe
00000200: a45b 1dbe 6d39 39be 1459 a1bd 52aa d93c
00000210: e446 29be acd7 35ba e380 5b3e 279e ecbc
00000220: 32d1 123c e748 9abd 2200 e53d aa42 c53d
00000230: 10a6 8c3e d854 2d3e 03b0 803e e7ca 5dbd
00000240: cb7e 81be afc2 2cbe d297 7e3e b742 853c
00000250: f145 17be 52fa 08be e64e 88be daaa a7be
00000260: 2e57 88be ec4f 173e 8d8b f33d 96af 9ebe
00000270: 3185 f23d 45dd 2cbe fbbe 0cbd 2a2e 42be
00000280: 4c26 d6bc 73b8 c7bd 2c8b 8cbe b3b9 28be
00000290: ed7b fcbc a99d dfbd b322 9fbe 7cb3 293e
000002a0: b35a c3be 96a1 bc3d ce9c a93e d8e0 9abd
000002b0: 0f5f 7f3e f80a 3b3d 3361 b8be 0b16 cf3d
000002c0: 5274 9fbd 126c 80bd bd0b 263e f230 81be
000002d0: 03b4 5d3d 7a28 a9bd 86f9 313e 08be 97bc
000002e0: ab53 9d3d 953d 153e ccf4 abbd 3502 fabd
000002f0: 39cb 81be 2478 193e 6c77 5d3e c024 483e
00000300: c370 05be e157 fdbb c5ae 92be 17c4 cabd
00000310: 0cc8 26be f02e bf3c e21e 39be 79a9 80bc
00000320: ea74 fe3c ad08 1d3e 9e66 58be 81af d1bd
00000330: 3c72 0fbe 8b32 5d3e cac0 89bd c758 633e
00000340: 35c7 a93d dc9f a43d 162e 90bc 77ea eabd
00000350: 4fad 99bc b05d 02be 3fc4 ba3c bac6 903d
00000360: 9a2a 55be 658c 54be 5f94 3f3e dc31 08be
00000370: dc5e c8bd 9f15 7d3e 8d3e a13c c586 4abd
00000380: d004 58be 9420 103e 8a0b 85be b715 15be
00000390: 1df4 89bd 77d4 11bd d5ca 0f3d d457 7d3e
000003a0: cbbd 4a3d 52ce 673e 5acf 1e3e 065e 48be
000003b0: 0a79 373e 4aa5 5abe c898 f5bd cce5 7f3d
000003c0: 391a 7b3d d033 953e 5120 c2bd 9f5f 7fbd
000003d0: 2325 c03d 753b 6cbe a5d3 373e 6d37 2cbe
000003e0: 87c3 95bc 7598 e5bd eaa8 24be 2230 cbbc
000003f0: 3b2e 713e d24d 04be 151e 48be 1414 0bbe

bias f4 [128]
0.227983 0.1386564 0.10651035 -0.12688905 0.10194707 0.14292674 0.08941093 -0.015080008
0.029494163 -0.03283822 -0.27851337 -0.01073004 -0.24984577 0.14574145 -0.15430224 -0.14394906
-0.15086213 0.14741316 -0.15640046 0.09041081 0.15409458 0.16052882 0.0748629 0.10931982
0.18894573 0.07688324 0.0066115614 -0.19955018 -0.036568113 0.0069839014 0.06411267 -0.097329244
-0.25628272 -0.07180845 0.12736027 0.21386747 -0.2570026 0.1085726 -0.18737996 -0.21616347
-0.14243883 -0.08489135 0.049535822 -0.27486208 0.14377776 0.21283837 -0.0063558184 0.24383962
-0.13054538 -0.1483066 -0.017019015 -0.05272814 -0.20511112 -0.19582808 0.09688521 0.00032205906
0.27046195 -0.14172982 0.09389598 -0.116333246 0.14164762 -0.06458227 0.17994657 0.12748864
0.18154198 0.1533122 0.0016957828 0.19329685 -0.12010758 0.27498958 0.29301417 0.17274709
-0.12085821 -0.15594368 0.07792703 0.083276294 0.10364655 0.038955558 0.20384681 -0.110121444
-0.10884438 0.045040496 0.005506461 -0.1504804 -0.021078074 -0.2059548 -0.0975585 -0.0644238
0.22834383 -0.2162121 -0.13060364 -0.2256736 0.06976184 -0.24132061 0.12354797 -0.19617814
-0.1640262 -0.16467433 -0.010812009 0.22325377 0.22198743 -0.08783782 -0.28970286 -0.11057437
-0.1412031 -0.048462987 0.03829285 0.10849731 0.10774932 0.009139825 -0.15905811 -0.07552289
-0.02765029 -0.119464844 -0.069804765 -0.044959743 -0.26332006 0.140614 -0.039922517 -0.24769633
0.20585315 -0.13485266 0.048901435 0.24509668 -0.031594127 0.050362192 0.110854164 0.09958157
00000000: 6074 693e f1fb 0d3e 1922 da3d 34ef 01be
00000010: a0c9 d03d 635b 123e 141d b73d 2312 77bc
00000020: be9d f13c 5f81 06bd 4e99 8ebe 0dcd 2fbc
00000030: 92d7 7fbe 3f3d 153e 6801 1ebe 6267 13be
00000040: 9a7b 1abe 7af3 163e 7127 20be 4e29 b93d
00000050: f8ca 1d3e ab61 243e b851 993d 12e3 df3d
00000060: fd7a 413e f674 9d3d cca5 d83b e256 4cbe
00000070: 72c8 15bd 36d9 e43b 814d 833d 8e54 c7bd
00000080: 7d37 83be 4f10 93bd bb6a 023e 1300 5b3e
00000090: d895 83be 505b de3d 88e0 3fbe f559 5dbe
000000a0: 7cdb 11be 84db adbd 13e6 4a3d b9ba 8cbe
000000b0: 7a3a 133e 4df2 593e 7844 d0bb 18b1 793e
000000c0: b0ad 05be afdd 17be 766b 8bbc 76f9 57bd
000000d0: a608 52be 2887 48be c16b c63d 09da a839
000000e0: fd79 8a3e 9f21 11be 894c c03d 2040 eebd
000000f0: 130c 113e b643 84bd ea43 383e 628c 023e
00000100: 24e6 393e e0fd 1c3e 0745 de3a 9cef 453e
00000110: f7fa f5bd 6fcb 8c3e f405 963e 9de4 303e
00000120: 8284 f7bd b3af 1fbe 3598 9f3d c38c aa3d
00000130: a444 d43d dd8f 1f3d 38bd 503e 5a87 e1bd
00000140: cde9 debd 627c 383d 8b6f b43b 8917 1abe
00000150: edab acbc d1e5 52be c0cc c7bd a0f0 83bd
00000160: f7d2 693e b466 5dbe f6bc 05be fb16 67be
00000170: 4cdf 8e3d c01c 77be b806 fd3d ece2 48be
00000180: 7cf6 27be 63a0 28be da24 31bc a39c 643e
00000190: ac50 633e 51e4 b3bd ef53 94be d174 e2bd
000001a0: 8c97 10be 2081 46bd f7d8 1c3d d633 de3d
000001b0: adab dc3d 34bf 153c 21e0 22be bfab 9abd
000001c0: dc82 e2bc fca9 f4bd cdf5 8ebd b527 38bd
000001d0: e3d1 86be 1efd 0f3e cb85 23bd 1ba4 7dbe
000001e0: 2bcb 523e d116 0abe df4c 483d a0fa 7a3e
000001f0: d868 01bd 9648 4e3d 8207 e33d 6cf1 cb3d

weight f4 [128, 128]
-0.011661753 -0.016132448 0.024604969 0.08545691 -0.009685821 0.056786127 0.022572635 0.024249194
-0.03925797 0.024955118 -0.0905491 -0.0788228 -0.07415743 0.06897949 0.07265668 -0.00669915
0.00050859834 0.0646481 -0.040066946 -0.07953902 -0.045209147 -0.034537412 -0.0697965 -0.026251467
-0.020757873 0.026200596 -0.022790862 0.046898182 0.09721417 -0.027421711 0.032901894 0.009735206
0.12507358 -0.0025742 -0.018170446 -0.04024544 0.12745608 -0.036123373 -0.042904127 0.12677623
0.112786554 -0.039474603 -0.05533689 0.011866918 -0.034601197 -0.03278526 -0.03262041 -0.048734374
-0.04481535 -0.06361197 -0.10773323 -0.02235917 0.055622928 -0.048265584 -0.013795355 -0.021513248
0.07907994 0.037951436 0.025099078 -0.026339903 -0.048779257 -0.04749886 0.05705751 0.0068534357
-0.0043257736 -0.046221346 0.042669695 -0.07806232 0.06205616 0.07913503 -0.083830185 -0.04004205
0.09967253 -0.043711465 -0.0043835808 0.08090052 -0.0074009667 -0.06371782 -0.039319985 0.08127552
0.07924885 0.022880984 0.020829635 -0.0035688588 0.098137505 0.0055839093 0.00471336 0.018783148
-0.064808585 0.07085632 -0.08283278 0.052677207 -0.033187162 -0.024603438 0.09042199 0.017268343
0.014557513 0.05453064 -0.07252149 -0.044485837 -0.046228267 -0.08016967 0.002009892 0.018423585
0.06756186 0.0043972568 0.026155509 -0.064052865 -0.008009181 0.02186846 0.008354763 0.11262071
-0.05112497 0.026951523 -0.07422091 0.04160694 -0.047270436 -0.06765332 0.07995817 -0.1420457
-0.04703844 0.028181905 0.09255183 0.096093595 0.036612883 -0.026006766 0.08443328 -0.049452927
-0.0025484692 -0.027198946 -0.0951088 0.059470292 -0.016937537 -0.000115704446 -0.009709591 -0.027925704
0.10818215 0.10880491 -0.069913134 0.02541892 0.022044875 0.044631988 -0.059316684 0.027152255
0.0779602 0.07173141 -0.05634508 -0.034047697 -0.11821172 -0.15705231 -0.039661527 0.03623228
-0.09950283 0.0071262177 0.05365576 -0.019932909 0.011083082 -0.07027726 -0.020311415 -0.07890711
-0.0760593 -0.06240429 -0.088199824 0.08040944 -0.059803713 -0.019225163 -0.1530596 0.05812863
-0.12130524 0.030117076 -0.032927714 -0.08074037 0.07098016 -0.04148376 -0.02735698 -0.03366663
0.015211234 0.00048083992 -0.008360726 0.09806069 -0.1429062 -0.046613637 -0.020774243 -0.01962842
0.12966292 0.09668643 -0.0062863496 -0.09071724 0.05671592 0.037936423 0.040722616 -0.039912738
0.02383052 0.07940774 0.054343674 -0.010298044 -0.21772163 -0.06882805 0.02268947 0.009798884
0.00012353591 0.077728525 -0.11172374 -0.021398503 -0.0072425166 0.060457036 0.05309891 0.044379823
0.06204018 -0.09410028 0.002379168 0.05941418 -0.06266223 0.060145464 -0.045923036 -0.07469089
0.13655445 -0.08771165 0.11976565 0.010105263 -0.061746035 0.03979041 -0.10680114 0.06543418
-0.02807976 -0.043018535 0.0034872117 -0.03400137 -0.098216236 -0.002747109 0.071341306 0.025181651
0.050121553 0.01029647 0.023074092 -0.055988193 0.034811236 -0.08099517 -0.015097017 -0.028105615
0.07021874 0.021009067 -0.019117018 -0.05023038 -0.10063353 -0.019550547 0.0011970043 0.005671124
-0.078761324 0.042481694 0.015990434 -0.03891981 0.10150586 -0.009866078 -0.034465346 0.035479322
00000000: f010 3fbc 3228 84bc 5c90 c93c 0804 af3d
00000010: 47b1 1ebc 9298 683d 3fea b83c 3fa6 c63c
00000020: f7cc 20bd ad6e cc3c ce71 b9bd d96d a1bd
00000030: dadf 97bd 1e45 8d3d 07cd 943d 8b84 dbbb
00000040: 7553 053a 3966 843d 3d1d 24bd 5be5 a2bd
00000050: 3a2d 39bd 1a77 0dbd 78f1 8ebd 510d d7bc
00000060: 6a0c aabc a2a2 d63c e7b3 babc 4f18 403d
00000070: 3918 c73d 7fa3 e0bc 23c4 063d 6a80 1f3c
00000080: 4a13 003e e9b3 28bb 30da 94bc 67d8 24bd
00000090: d983 023e 1af6 13bd 3dbc 2fbd a1d1 013e
000000a0: a3fc e63d 1fb0 21bd efa8 62bd 766d 423c
000000b0: fcb9 0dbd d649 06bd fb9c 05bd b29d 47bd
000000c0: 4d90 37bd fe46 82bd 3da3 dcbd 942a b7bc
000000d0: ded4 633d 22b2 45bd ea05 62bc 8d3c b0bc
000000e0: aaf4 a13d f772 1b3d 959c cd3c c8c6 d7bc
000000f0: c2cc 47bd 2a8e 42bd 23b5 693d c992 e03b
00000100: 38bf 8dbb 9852 3dbd 6bc6 2e3d 23df 9fbd
00000110: 9a2e 7e3d 8c11 a23d 29af abbd 2203 24bd
00000120: 1d21 cc3d cb0a 33bd 24a4 8fbb 2caf a53d
00000130: cf83 f2bb 7d7e 82bd fe0d 21bd c873 a63d
00000140: 394d a23d e770 bb3c e9a2 aa3c 84e3 69bb
00000150: 51fc c83d 3af9 b63b 8872 9a3b 1edf 993c
00000160: 5dba 84bd 1e1d 913d 3ca4 a9bd 0ec4 573d
00000170: 43ef 07bd 268d c9bc 2a2f b93d 5776 8d3c
00000180: a382 6e3c 855b 5f3d 2686 94bd c836 36bd
00000190: da59 3dbd ff2f a4bd 64b8 033b 0fed 963c
000001a0: df5d 8a3d dd16 903b 1444 d63c 262e 83bd
000001b0: f138 03bc 7c25 b33c 6ae2 083c b0a5 e63d
000001c0: 6b68 51bd 71c9 dc3c 2201 98bd 0a6c 2a3d
000001d0: a59e 41bd d38d 8abd 1cc1 a33d 6e74 11be
000001e0: 61ab 40bd bddd e63c d08b bd3d b8cc c43d
000001f0: 64f7 153d 240c d5bc 5beb ac3d 278f 4abd
00000200: 3804 27bb 53d0 debc 67c8 c2bd 1f97 733d
00000210: 97c0 8abc 5aa6 f2b8 fa14 1fbc 72c4 e4bc
00000220: 9a8e dd3d 1cd5 de3d 9e2e 8fbd 573b d03c
00000230: 7497 b43c 08d0 363d 0df6 72bd 686e de3c
00000240: 99a9 9f3d ebe7 923d 19ca 66bd 9975 0bbd
00000250: fc18 f2bd 52d2 20be 2074 22bd 4d68 143d
00000260: 24c8 cbbd 0c83 e93b 24c6 5b3d 574a a3bc
00000270: d195 353c 86ed 8fbd 2064 a6bc 0d9a a1bd
00000280: fac4 9bbd a49b 7fbd 1ca2 b4bd b4ad a43d
00000290: bdf4 74bd 177e 9dbc a8bb 1cbe 4918 6e3d
000002a0: e26e f8bd 16b8 f63c 36df 06bd 355b a5bd
000002b0: 0c5e 913d e0ea 29bd bf1b e0bc 05e6 09bd
000002c0: 8a38 793c 3e19 fc39 6dfb 08bc 0bd4 c83d
000002d0: 0156 12be f1ed 3ebd bf2e aabc c8cb a0bc
000002e0: 5bc6 043e 8903 c63d b9fd cdbb f6c9 b9bd
000002f0: f44e 683d 3963 1b3d c2cc 263d 8a7b 23bd
00000300: 3938 c33c 86a0 a23d 7997 5e3d 21b9 28bc
00000310: 6bf2 5ebe b8f5 8cbd 44df b93c 808b 203c
00000320: 6b89 0139 2230 9f3d 6bcf e4bd ea4b afbc
00000330: a252 edbb cca1 773d 3e7e 593d 9ec7 353d
00000340: d81d 7e3d a6b7 c0bd d1eb 1b3b 495c 733d
00000350: 0e55 80bd 175b 763d cb19 3cbd 8af7 98bd
00000360: eed4 0b3e 2aa2 b3bd b147 f53d 8c90 253c
00000370: 69e9 7cbd 45fb 223d 8eba dabd 5b02 863d
00000380: 8607 e6bc 3434 30bd b489 643b 0545 0bbd
00000390: 9825 c9bd d708 34bb 641b 923d c049 ce3c
000003a0: 424c 4d3d 86b2 283c e105 bd3c e053 65bd
000003b0: 3a96 0e3d cce0 a5bd 7b59 77bc bf3d e6bc
000003c0: d8ce 8f3d 351b ac3c 4b9b 9cbc 5fbe 4dbd
000003d0: f418 cebd 7828 a0bc cde4 9c3a d6d4 b93b
000003e0: 9e4d a1bd 4901 2e3d 5ffe 823c 616a 1fbd
000003f0: 4ee2 cf3d 55a5 21bc 892b 0dbd c452 113d

bias f4 [128]
0.08980139 0.008643361 0.09878376 0.09718631 0.06640853 -0.057250164 -0.024195394 0.008266983
0.048851598 0.01092763 0.076681435 0.0012343561 0.060836047 -0.051257744 -0.0043929256 0.08546266
-0.060259517 -0.03300445 -0.034477185 -0.077011615 -0.07856693 0.007585662 0.0003286435 0.024379106
0.00709246 0.07158166 0.06929599 0.07713276 -0.00707427 0.032399148 -0.0675663 0.06839278
0.048059184 0.02505199 -0.028764404 0.0899862 -0.08241729 0.051150266 0.058516335 0.040444568
0.07259812 -0.07525364 0.086154275 0.09262065 -0.01843281 0.08688714 -0.018012377 -0.061801452
0.07783853 0.05676622 0.06114432 0.04231498 -0.010885731 -0.009740448 0.033985563 -0.052546352
0.06941916 0.028408566 0.016993051 -0.09336165 -0.028619943 -0.05246686 -0.061951715 0.100465596
0.027150176 -0.056021404 -0.03897783 0.0064356914 0.078959465 -0.051153928 0.04909236 0.03991498
-0.041950326 -0.07077404 0.005162844 0.08345966 -0.010671537 -0.07328965 0.009255741 -0.013306905
-0.06240197 0.014629829 0.0871108 -0.07603726 0.025962794 -0.014597477 -0.045043085 0.07823182
-0.028678594 0.10868467 -0.07842014 0.013114433 -0.0053142067 0.037358258 -0.09976642 0.03334259
-0.07973982 0.06269494 -0.07914107 0.025324069 -0.07570964 -0.073403224 0.02006799 0.06207579
0.06950731 -0.065665655 -0.033699147 0.088098995 0.03800274 0.061263826 0.049085964 -0.03301159
-0.009187753 0.011137902 -0.080764 -0.015359054 0.08329595 -0.045175593 -0.023628403 -0.048745204
-0.0020314667 -0.016567884 -0.07121005 0.0605091 -0.08786741 -0.039591633 -0.050094593 -0.030842658
00000000: cbe9 b73d e29c 0d3c 244f ca3d 9e09 c73d
00000010: 3201 883d 267f 6abd 6b35 c6bc 3d72 073c
00000020: 9d18 483d cd09 333c 280b 9d3d 1eca a13a
00000030: 382f 793d a4f3 51bd 88f2 8fbb 0c07 af3d
00000040: afd2 76bd ad2f 07bd f337 0dbd 44b8 9dbd
00000050: b3e7 a0bd 2591 f83b c94d ac39 b1b6 c73c
00000060: de67 e83b 6899 923d 0eeb 8d3d c8f7 9d3d
00000070: 47cf e7bb f8b4 043d 3360 8abd 8411 8c3d
00000080: b5d9 443d d539 cd3c 54a3 ebbc af4a b83d
00000090: 65ca a8bd f182 513d d3ae 6f3d 34a9 253d
000000a0: 53ae 943d 951e 9abd a771 b03d e5af bd3d
000000b0: 6800 97bc e3f1 b13d b18e 93bc 8523 7dbd
000000c0: cf69 9f3d b283 683d 7772 7a3d 7952 2d3d
000000d0: 115a 32bc 6696 1fbc 7234 0b3d d83a 57bd
000000e0: a22b 8e3d 15b9 e83c 0335 8b3c 6534 bfbd
000000f0: 5f74 eabc 7de7 56bd 15c1 7dbd e8c0 cd3d
00000100: 0c6a de3c b376 65bd 38a7 1fbd 7ee2 d23b
00000110: 80b5 a13d c886 51bd 1215 493d e47d 233d
00000120: 1bd4 2bbd fbf1 90bd 132d a93b e6ec aa3d
00000130: acd7 2ebc e218 96bd 64a5 173c 3405 5abc
00000140: 3599 7fbd f3b1 6f3c 2667 b23d 6cb9 9bbd
00000150: edaf d43c 422a 6fbc 197f 38bd 0138 a03d
00000160: 5fef eabc 1196 de3d bd9a a0bd ebdd 563c
00000170: cc22 aebb f904 193d 5652 ccbd 3d92 083d
00000180: a14e a3bd 3466 803d b714 a2bd 6c74 cf3c
00000190: a80d 9bbd 6e54 96bd a065 a43c 2f43 7e3d
000001a0: d959 8e3d b77b 86bd 1e08 0abd 3f6d b43d
000001b0: c3a8 1b3d c7ef 7a3d 5d0e 493d 2937 07bd
000001c0: 3b88 16bc bf7b 363c 9967 a5bd 8ba4 7bbc
000001d0: 1197 aa3d 0b0a 39bd 5a90 c1bc 0da9 47bd
000001e0: 5b22 05bb 5fb9 87bc 93d6 91bd 64d8 773d
000001f0: d4f3 b3bd d62a 22bd fd2f 4dbd bea9 fcbc

weight f4 [128, 128]
0.055469576 -0.06867194 -0.03306916 -0.034655165 0.008303367 0.02758712 0.08789848 0.04413174
-0.075454 -0.03403276 0.053639863 0.0032432256 0.11735216 -0.06318847 -0.0807369 -0.07144057
0.0015708947 0.10767912 -0.04226425 -0.031227976 0.020023419 0.045432713 -0.064254224 0.012124022
-0.037586316 -0.05849965 -0.0105735315 0.006720087 -0.06591442 0.07123291 0.038127128 0.024821663
0.010764968 -0.03969054 0.09812468 0.021375636 0.046342846 0.007318502 -0.1125273 -0.061590206
-0.0030583313 -0.10285379 0.039407946 -0.0216504 0.012749477 0.045186937 -0.031132536 -0.010142
-0.03690232 -0.002018348 0.08477343 0.04741593 0.07565014 0.030331086 -0.07269271 -0.00843226
-0.023658697 0.08438518 0.023002004 0.057686843 -0.049305785 0.02503764 0.03483687 0.08702059
0.07313409 -0.029725492 0.07019831 0.028353868 0.07055102 0.033052087 -0.07624881 0.038184978
-0.05741957 0.04380007 -0.03830751 0.003317574 -0.017825656 -0.016667834 -0.038410146 0.043281067
-0.056399807 -0.0059039476 0.016381528 0.06373466 0.09918762 -0.020096807 0.06944168 -0.08638975
-0.05526329 -0.03283324 -0.09012281 0.049922768 -0.03225037 -0.024149707 0.1079206 0.03623719
0.03934687 0.030627716 -0.055936333 -0.03082424 0.11918006 -0.07514348 -0.12914783 0.043740164
0.06373003 0.06985841 -0.009930735 0.00786786 -0.044815663 0.06380335 -0.003782476 -0.05787358
0.06774464 0.090536885 0.09188496 -0.018070813 0.0068912013 -0.09945541 0.09203283 -0.070459254
-0.0075000366 -0.018601153 0.024513207 0.052547213 -0.0029715823 -0.028829103 0.10060711 0.022797229
0.04291844 -0.0925482 0.03067996 0.04829483 0.03814996 0.060840633 0.013517506 0.08614267
0.0021623618 0.044980444 0.022001998 -0.019889541 0.080557615 0.050488707 -0.12952918 0.015417506
-0.09617972 0.05808873 -0.09192245 -0.08567307 0.0048671775 0.02503007 0.10034028 0.106366284
-0.033105243 0.054688476 0.024715321 -0.043444935 -0.0054796115 -0.007183225 0.0027415575 -0.0003206025
-0.037183564 -0.037764132 0.020616561 0.05069531 -0.04690829 0.0229357 0.06614942 -0.017429456
-0.019228643 0.0770058 -0.054105572 0.027204413 -0.041287843 -0.06071375 -0.08638619 0.023782453
0.046465788 -0.077861875 -0.010192189 0.010443576 -0.007588346 0.0044820243 -0.014159034 0.10585836
-0.034023248 0.024712384 0.15080586 -0.07728258 -0.026930703 0.0188014 0.022362541 0.012944293
-0.017500438 0.0011655111 -0.039021596 -0.055604313 0.026640978 -0.063340135 -0.09126093 0.0360955
-0.09149045 -0.077133626 -0.051226225 0.06356879 -0.088628516 -0.08206409 0.0731195 -0.06607326
-0.062651195 0.04529396 -0.08688812 0.11762597 0.082104556 -0.02543745 -0.064972945 -0.05900419
-0.09701962 0.0033402762 -0.010079911 0.029939651 -0.05227215 -0.046633974 -0.041741516 0.037905212
0.07588255 0.07061803 -0.022462398 -0.05092805 0.096677944 -0.09325799 -0.035400227 -0.03807092
-0.04064374 -0.044497825 -0.008609815 -0.06383967 -0.06341578 0.112338915 -0.0129648885 0.027058525
0.051718444 0.07736144 0.042461324 0.0022957188 0.0009886115 -0.06793879 0.14008783 0.012036808
0.0741126 0.05745946 -0.012079564 -0.08207561 0.12930453 -0.10861754 0.0003491434 -0.03967179
00000000: 1134 633d e0a3 8cbd 8773 07bd 93f2 0dbd
00000010: d80a 083c 62fe e13c 1e04 b43d 7cc3 343d
00000020: a087 9abd ef65 0bbd 79b5 5b3d 4c8c 543b
00000030: 5456 f03d f568 81bd 6359 a5bd 6f4f 92bd
00000040: 7be6 cd3a df86 dc3d 471d 2dbd d0d1 ffbc
00000050: 2708 a43c a717 3a3d b897 83bd d5a3 463c
00000060: 1cf4 19bd 549d 6fbd 9b3c 2dbc 2d34 dc3b
00000070: 24fe 86bd 8fe2 913d 312b 1c3d cd56 cb3c
00000080: 8c5f 303c 8c92 22bd 98f5 c83d f51b af3c
00000090: ffd1 3d3d 0bd0 ef3b b774 e6bd 0346 7cbd
000000a0: 496e 48bb 02a5 d2bd 3a6a 213d 2e5c b1bc
000000b0: 2fe3 503c f015 393d a909 ffbc a22a 26bc
000000c0: e326 17bd 4346 04bb b19d ad3d 3537 423d
000000d0: 76ee 9a3d e678 f83c eadf 94bd 7627 0abc
000000e0: e2cf c1bc 23d2 ac3d b36e bc3c 0a49 6c3d
000000f0: ddf4 49bd bd1b cd3c 1bb1 0e3d da37 b23d
00000100: 53c7 953d e082 f3bc 22c4 8f3d 5f46 e83c
00000110: 0e7d 903d a061 073d 5628 9cbd da67 1c3d
00000120: c830 6bbd b467 333d 56e8 1cbd a86b 593b
00000130: 1c07 92bc fb8a 88bc f553 1dbd 7d47 313d
00000140: 7c03 67bd e775 c1bb 8e32 863c 5187 823d
00000150: e122 cb3d 0fa2 a4bc 7137 8e3d 1ced b0bd
00000160: c25b 62bd 267c 06bd 4f92 b8bd d17b 4c3d
00000170: f718 04bd 9bd5 c5bc 7a05 dd3d 736d 143d
00000180: 2f2a 213d fae6 fa3c 7f1d 65bd 1e83 fcbc
00000190: ad14 f43d d3e4 99bd 543f 04be e328 333d
000001a0: e484 823d ed11 8f3d 86b4 22bc 32e8 003c
000001b0: a190 37bd 55ab 823d 6be3 77bb d90c 6dbd
000001c0: b4bd 8a3d 676b b93d 2f2e bc3d 3e09 94bc
000001d0: 96cf e13b 47af cbbd b57b bc3d f14c 90bd
000001e0: dec2 f5bb 7261 98bc eccf c83c bf3b 573d
000001f0: e1be 42bb 032b ecbc 1a0b ce3d 41c1 ba3c
00000200: 3fcb 2f3d e989 bdbd 8a54 fb3c cdd0 453d
00000210: 2243 1c3d 0734 793d 8878 5d3c 916b b03d
00000220: 69b6 0d3b 6a3d 383d 893d b43c 64ef a2bc
00000230: 64fb a43d 3fcd 4e3d 4ca3 04be b599 7c3c
00000240: dff9 c4bd 73ee 6d3d d641 bcbd 5d75 afbd
00000250: d87c 9f3b dd0b cd3c 347f cd3d 91d6 d93d
00000260: 5d99 07bd 0601 603d c977 ca3c 51f3 31bd
00000270: 508e b3bb 4261 ebbb b4ab 333b 8a16 a8b9
00000280: cb4d 18bd 90ae 1abd 10e4 a83c e3a5 4f3d
00000290: e822 40bd a6e3 bb3c 5979 873d 38c8 8ebc
000002a0: 6385 9dbc 38b5 9d3d ce9d 5dbd cadb de3c
000002b0: 711d 29bd fbae 78bd 3eeb b0bd 6bd3 c23c
000002c0: e952 3e3d 0c76 9fbd 24fd 26bc 881b 2b3c
000002d0: a9a7 f8bb f2dd 923b 4bfb 67bc 45cc d83d
000002e0: f65b 0bbd a071 ca3c da6c 1a3e 5446 9ebd
000002f0: c79d dcbc 6505 9a3c a631 b73c 4d14 543c
00000300: 145d 8fbc 10c4 983a 1cd5 1fbd 59c1 63bd
00000310: 2e3e da3c 79b8 81bd 03e7 babd e0d8 133d
00000320: 585f bbbd 3cf8 9dbd 97d2 51bd 5b30 823d
00000330: de82 b5bd 3811 a8bd adbf 953d 6b51 87bd
00000340: 454f 80bd 2986 393d 66f2 b1bd e2e5 f03d
00000350: 6f26 a83d 3362 d0bc 8910 85bd 61ae 71bd
00000360: 39b2 c6bd 89e8 5a3b 3626 25bc 0044 f53c
00000370: 521b 56bd 4403 3fbd 27f9 2abd 7f42 1b3d
00000380: 4f68 9b3d 30a0 903d 1003 b8bc ee99 50bd
00000390: 16ff c53d 0cfe bebd d4ff 10bd 41f0 1bbd
000003a0: 0d7a 26bd 5a43 36bd 2e10 0dbc 5fbe 82bd
000003b0: 22e0 81bd f211 e63d af6a 54bc d7a9 dd3c
000003c0: b8d6 533d ad6f 9e3d edeb 2d3d c573 163b
000003d0: 4c94 813a 7e23 8bbd 2f73 0f3e 0836 453c
000003e0: 59c8 973d 9c5a 6b3d 5de9 45bc 4217 a8bd
000003f0: 6868 043e df72 debd 3c0d b739 e37e 22bd

bias f4 [128]
0.09756477 -0.044848006 0.03342478 -0.024857072 -0.0016870955 -0.07273376 0.06023897 0.041284002
0.0712091 0.037011035 -0.029827084 -0.024759622 0.089625165 -0.078678995 -0.0111032585 -0.025277024
0.038829435 -0.0093733305 0.020363843 0.04212292 -0.027879918 0.08951624 -0.05183626 0.09084754
-0.007460875 -0.010452287 0.051570375 -0.019397095 0.041166164 0.04169678 -0.0538177 -0.00091936544
0.04328455 0.0019227281 0.00049544807 0.06775061 -0.019193335 0.07735695 -0.024415962 -0.018247755
-0.028348196 -0.016589887 -0.03276975 -0.0017146785 -0.060723897 0.08685187 -0.05399234 -0.0349799
0.090530366 -0.02189682 0.07431632 0.029992774 0.08184994 -0.08246666 0.038002826 -0.077820614
0.023590295 0.011021285 -0.047070198 0.121437356 -0.010431365 -0.0059533664 0.0055893497 0.092025794
-0.013524181 0.12723316 -0.0056694075 0.08110812 0.08674079 -0.052756835 -0.072527096 0.010621146
0.035530604 0.04183126 0.012870067 -0.019519452 0.08122233 0.00809256 -0.070177265 0.09499158
-0.050167393 0.061702225 0.10632812 -0.02548283 0.077130094 0.09377618 -0.0590648 -0.011030795
0.061396025 -0.009659131 0.055228997 0.010329958 0.092191026 -0.047326602 0.03072711 0.10882572
-0.07489668 0.08052223 0.056597788 0.040129986 -0.078500316 0.06933569 0.08044231 0.07843173
-0.042823426 -0.096611656 -0.06833596 0.0060659633 0.081892185 -0.010442153 0.078830376 -0.07005313
-0.0370857 0.009690114 0.08682713 0.059879024 -0.101205826 0.10004509 0.035079032 -0.013945668
0.05025868 -0.0007369945 0.0038096549 -0.038101353 0.06255119 0.08036148 0.039338928 -0.011002397
00000000: 0ad0 c73d 8bb2 37bd 6ce8 083d 0fa1 cbbc
00000010: 8821 ddba 70f5 94bd 23bd 763d 6a19 293d
00000020: 14d6 913d e298 173d ee57 f4bc b1d4 cabc
00000030: 668d b73d 7422 a1bd 71ea 35bc c311 cfbc
00000040: 9d0b 1f3d 9992 19bc 13d2 a63c 1589 2c3d
00000050: 6d64 e4bc 4a54 b73d 4252 54bd 460e ba3d
00000060: 5b7a f4bb 1240 2bbc 753b 533d a8e6 9ebc
00000070: da9d 283d 3eca 2a3d f36f 5cbd 9201 71ba
00000080: 244b 313d 0d04 fc3a f5e0 013a d5c0 8a3d
00000090: 573b 9dbc 526d 9e3d fc03 c8bc 517c 95bc
000000a0: 7a3a e8bc 84e7 87bc 9339 06bd 10bf e0ba
000000b0: 9fb9 78bd 65df b13d 1227 5dbd 1547 0fbd
000000c0: fc67 b93d f660 b3bc 2833 983d 68b3 f53c
000000d0: f1a0 a73d 48e4 a8bd daa8 1b3d 6a60 9fbd
000000e0: 6f40 c13c 9f92 343c aecc 40bd 26b4 f83d
000000f0: 51e8 2abc 7514 c3bb dd26 b73b 0578 bc3d
00000100: 8794 5dbc 6949 023e 70c6 b9bb 041c a63d
00000110: 28a5 b13d 8d17 58bd 1689 94bd 5104 2e3c
00000120: 8a88 113d 4157 2b3d f9dc 523c 42e7 9fbc
00000130: e557 a63d a896 043c 19b9 8fbd f28a c23d
00000140: 537c 4dbd 79bb 7c3d 8fc2 d93d 5ec1 d0bc
00000150: 62f6 9d3d ba0d c03d efed 71bd 82ba 34bc
00000160: 667a 7b3d 5541 1ebc cd37 623d fc3e 293c
00000170: a6ce bc3d 8ad9 41bd 6cb7 fb3c 05e0 de3d
00000180: 6e63 99bd d7e8 a43d 15d3 673d 575f 243d
00000190: c6c4 a0bd dfff 8d3d f0be a43d d1a0 a03d
000001a0: 9e67 2fbd 55dc c5bd b9f3 8bbd fdc4 c63b
000001b0: 17b7 a73d 9015 2bbc d271 a13d 0478 8fbd
000001c0: 2de7 17bd 49c3 1e3c 6cd2 b13d b543 753d
000001d0: 0045 cfbd 71e4 cc3d 08af 0f3d 5f7c 64bc
000001e0: 0cdc 4d3d dd32 41ba 67ab 793b 2a10 1cbd
000001f0: d71a 803d 8f94 a43d db21 213d 6643 34bc

weight f4 [128, 128]
0.012278138 -0.034634363 0.0876582 0.05767704 -0.0049815266 0.06641244 0.10556344 0.07113536
-0.013606378 0.002206543 -0.0072226115 0.1087097 -0.008816512 -0.08665782 -0.042338256 -0.04854308
0.004546325 0.027450385 0.07660462 0.012775029 0.015640188 0.035896473 0.018511012 0.0819137
0.09797772 -0.0666004 -0.042858023 -0.106921256 0.12605302 -0.040220503 -0.05817778 -0.0288079
-0.05689881 0.10935358 -0.0045946157 -0.022913544 0.060280155 -0.0051712994 -0.0019677177 -0.020443646
0.024288421 0.050360225 -0.019837499 0.07920105 -0.037024535 -0.00010603166 0.01883426 -0.122926064
0.13466705 -0.031825818 -0.04524263 0.057241425 0.0072628283 0.025968904 0.045679554 0.09657595
-0.051210545 0.051009294 0.06576273 -0.015924435 0.0843284 -0.021572392 0.023057437 0.041969445
-0.025174372 0.03677395 0.09237962 -0.07433591 0.099121645 -0.0017448821 -0.019147443 -0.049182035
0.063785546 -0.035675187 0.07433219 0.009710857 0.004836997 -0.032623436 -0.023648648 0.101988874
0.036410965 0.010029311 0.036169745 0.010037238 0.17952523 0.090125464 -0.105935514 0.064451866
-0.042427517 -0.014477558 0.08142781 -0.0027917842 0.10041384 -0.022012187 -0.008842318 -0.039662763
0.10041845 -0.04503309 -0.04584519 -0.036859542 0.022739787 0.09624538 0.088383794 -0.012017702
0.065605626 -0.04277788 -0.02599519 0.0063619316 -0.02956213 0.053793132 -0.0151930135 -0.040930633
0.074742444 0.04118468 0.03111629 -0.03459538 0.008481368 0.12248028 -0.09049897 0.07835019
-0.022131199 0.10979791 -0.01974932 0.020815529 -0.07559928 0.07829488 0.07027992 0.016250512
0.026205825 0.0048197075 -0.08304897 0.0073473547 -0.032912258 0.07095909 -0.085346974 -0.008651514
-0.043374848 -0.08375884 -0.066205464 -0.075262755 -0.02316732 0.079415515 0.022275692 -0.022869578
-0.064992376 -0.06081894 -0.054396473 -0.04055978 -0.04196632 -0.009309429 -0.0021701725 -0.012830209
-0.06876444 -0.07606757 -0.062111 -0.037721705 0.0757927 -0.055840906 0.04619317 0.07638539
0.04026859 -0.07716353 -0.106727675 0.014151388 -0.08628288 0.00734061 0.0120035 -0.0033678818
-0.037805866 0.042453628 0.05508521 -0.07759938 9.778562e-37 -0.054341074 -0.015462839 0.03610566
-0.028089385 0.03451391 -0.07010863 0.00022166465 -0.028393839 0.061321065 -0.023268722 -0.025813404
0.027469827 -0.04570917 -0.0140580535 0.003275759 0.059949238 -0.06967722 -0.0111396685 0.026227647
0.06406642 0.07198803 0.0144334575 -0.038054116 0.02779173 -0.057730492 -0.0019532328 -0.056533404
-0.07796364 0.053298764 0.022359075 0.015426568 0.005162708 -0.07241233 0.07035476 -0.014156407
0.04226972 0.042981442 -0.018644536 0.048235133 0.059524607 0.07789507 -0.040718332 0.033237536
0.06375997 -0.09110936 -0.007951231 0.0007151662 -0.020494489 0.009864653 -0.028107606 -0.034747247
-0.06962097 -0.08571029 0.0002954453 0.054687083 -0.0032289557 -0.031963553 -0.032454688 0.037959162
0.04217172 3.7713762e-38 -0.0049432814 0.032096766 0.0075401594 -0.048827168 -0.06461307 -0.0012723997
0.058154657 0.032537222 0.011812341 0.041411504 0.059582166 -0.035671342 0.051018137 -0.07157231
-0.044934247 -0.04174407 0.06409673 -0.055741865 -0.08766482 0.044171933 0.036866393 -0.08235546
00000000: 3e2a 493c c3dc 0dbd 2486 b33d c33e 6c3d
00000010: 133c a3bb 3f03 883d a531 d83d 6aaf 913d
00000020: 49ed 5ebc a69b 103b a8ab ecbb 31a3 de3d
00000030: 2273 10bc a879 b1bd e16a 2dbd 1cd5 46bd
00000040: 57f9 943b a1df e03c e2e2 9c3d 5b4e 513c
00000050: da1f 803c 2e08 133d 68a4 973c 5fc2 a73d
00000060: 8ba8 c83d ca65 88bd e58b 2fbd 88f9 dabd
00000070: 0b14 013e 41be 24bd d34b 6ebd 8cfe ebbc
00000080: ba0e 69bd c5f4 df3d 6e8e 96bb 2fb5 bbbc
00000090: 53e8 763d 0174 a9bb d3f4 00bb 6f79 a7bc
000000a0: 83f8 c63c 8646 4e3d 4082 a2bc 2934 a23d
000000b0: 0aa7 17bd 505d deb8 4e4a 9a3c a9c0 fbbd
000000c0: 29e6 093e ca5b 02bd 5650 39bd fc75 6a3d
000000d0: 05fd ed3b bdbc d43c 7c1a 3b3d 9dc9 c53d
000000e0: 26c2 51bd 1fef 503d 9cae 863d f673 82bc
000000f0: 5eb4 ac3d 96b8 b0bc f3e2 bc3c 27e8 2b3d
00000100: 7c3a cebc 48a0 163d 8731 bd3d 6d3d 98bd
00000110: 4a00 cb3d 87b4 e4ba 19db 9cbc 1a73 49bd
00000120: ffa1 823d 2520 12bd 7a3b 983d 491a 1f3c
00000130: ac7f 9e3b 27a0 05bd cfba c1bc 8bdf d03d
00000140: aa23 153d fb51 243c ba26 143d 3a73 243c
00000150: 76d5 373e b393 b83d b8f4 d8bd 57ff 833d
00000160: 7ac8 2dbd 4833 6dbc a0c3 a63d 5ef6 36bb
00000170: c5a5 cd3d e752 b4bc 5fdf 10bc 6c75 22bd
00000180: 30a8 cd3d 9e74 38bd 2ac8 3bbd 08fa 16bd
00000190: ca48 ba3c 4c1c c53d 9002 b53d e5e5 44bc
000001a0: 3e5c 863d dc37 2fbd ddf3 d4bc c077 d03b
000001b0: 482c f2bc 3056 5c3d 1eec 78bc e1a6 27bd
000001c0: 9112 993d 44b1 283d 97e7 fe3c e3b3 0dbd
000001d0: 70f5 0a3c f1d6 fa3d 8657 b9bd 1076 a03d
000001e0: 7d4c b5bc badd e03d 53c9 a1bc 5485 aa3c
000001f0: ccd3 9abd 1159 a03d ebee 8f3d cb1f 853c
00000200: 99ad d63c a3ee 9d3b 9415 aabd 14c2 f03b
00000210: 01cf 06bd 0053 913d 65ca aebd 14bf 0dbc
00000220: d3a9 31bd c189 abbd bb96 87bd 5c23 9abd
00000230: 64c9 bdbc 9aa4 a23d 837b b63c fb58 bbbc
00000240: b91a 85bd 481d 79bd d6ce 5ebd 0322 26bd
00000250: e0e4 2bbd 9386 18bc 7439 0ebb cc35 52bc
00000260: 5fd4 8cbd 50c9 9bbd 1b68 7ebd 1382 1abd
00000270: 3439 9b3d 6fb9 64bd 0d35 3d3d f16f 9c3d
00000280: adf0 243d ea07 9ebd 0a94 dabd 39db 673c
00000290: 14b5 b0bd 8089 f03b 54aa 443c aeb7 5cbb
000002a0: 53da 1abd dbe3 2d3d 07a1 613d 6cec 9ebd
000002b0: a55f a603 bf94 5ebd d957 7dbc 87e3 133d
000002c0: b61b e6bc 755e 0d3d 1d95 8fbd a76e 6839
000002d0: 329a e8bc cc2b 7b3d 0c9e bebc a276 d3bc
000002e0: 6708 e13c 8a39 3bbd c053 66bc 1eae 563b
000002f0: 558d 753d eeb2 8ebd 2883 36bc 5ddb d63c
00000300: 4135 833d 766e 933d 4f7a 6c3c a2de 1bbd
00000310: 7bab e33c cf76 6cbd cf01 00bb 928f 67bd
00000320: 67ab 9fbd ce4f 5a3d 612a b73c b7bf 7c3c
00000330: ef2b a93b ea4c 94bd 2816 903d 46f0 67bc
00000340: 0423 2d3d 4f0d 303d 6dbc 98bc 3492 453d
00000350: 13d0 733d 7387 9f3d 44c8 26bd 1524 083d
00000360: 9694 823d 8b97 babd e145 02bc fe79 3b3a
00000370: 0fe4 a7bc 5b9f 213c ec41 e6bc 2153 0ebd
00000380: 7095 8ebd e088 afbd ffe5 9a39 90ff 5f3d
00000390: e39c 53bb 37ec 02bd 35ef 04bd 117b 1b3d
000003a0: 41bc 2c3d 5055 4d01 40fb a1bb e677 033d
000003b0: 7113 f73b fffe 47bd db53 84bd a6c6 a6ba
000003c0: 9433 6e3d c045 053d 8d88 413c 1c9f 293d
000003d0: 6e0c 743d 1d1c 12bd 65f8 503d 8194 92bd
000003e0: f90c 38bd d4fb 2abd 2545 833d 9551 64bd
000003f0: 9d89 b3bd a1ed 343d 3701 173d fba9 a8bd

bias f4 [128]
0.06221661 -0.055236336 -0.02053503 0.07162459 0.018906588 0.034134116 0.12472443 -0.053854488
-0.09127239 0.09989818 -0.061503917 -0.007536333 0.029167673 0.01643779 0.09756936 -0.05453337
-0.0059111095 0.08666113 -0.04198549 -0.028568456 0.008062094 -0.004942472 -0.028806679 0.056185443
-0.03951737 0.1057346 -0.026251076 -0.03077462 0.073029 -0.029580122 0.0069976263 -0.001223807
-0.008681614 -0.084425345 0.08706123 0.10725126 -0.007754891 0.11056197 0.09287877 0.007229171
-0.06795504 -0.015413618 0.08885017 -0.10765097 -0.0072758724 0.06597496 0.12754579 0.039911527
0.073570006 0.044716664 0.043175474 -0.023841685 0.048716616 0.0551739 -0.012026096 -0.08840371
-0.0033314684 0.014303496 0.09519537 0.07534266 0.002372453 0.094069935 -0.010456417 0.09166996
-0.07223143 0.072842285 0.08561428 0.11389066 0.059865713 -0.04734552 0.009697795 0.07336389
0.033131797 0.06834847 -0.052912623 0.04247256 0.031022519 0.09828217 -0.014639224 0.10120607
-0.022100337 0.10571516 0.09477646 0.021515569 0.0010702476 0.008575448 0.020725466 0.02991442
0.09079141 0.084755495 0.11436456 0.032469805 -0.048939805 0.07272748 0.10113893 -0.036658704
0.07830082 -0.055663694 0.041797932 -0.05742313 0.06151152 0.05123478 -0.0043872003 0.07603339
0.0032374386 0.08276328 0.106945686 -0.01981969 0.055373337 0.10601233 0.049554165 0.11804359
0.004064987 0.08018025 0.06917475 -0.09404952 -0.039583422 -0.019195262 -0.049028598 -0.09168325
0.08658299 0.0870489 0.07686319 -0.0025031557 0.029491583 0.023696853 0.07696705 0.12365749
00000000: d8d6 7e3d 7f3f 62bd 1439 a8bc eaaf 923d
00000010: fde1 9a3c 37d0 0b3d 866f ff3d 8696 5cbd
00000020: 05ed babd 6b97 cc3d 88eb 7bbd 58f3 f6bb
00000030: 0bf1 ee3c 8ba8 863c 72d2 c73d 625e 5fbd
00000040: fbb1 c1bb 647b b13d faf8 2bbd 6508 eabc
00000050: e016 043c 76f4 a1bb fcfb ebbc b522 663d
00000060: f7dc 21bd 628b d83d 7f0c d7bc 0e1b fcbc
00000070: 3a90 953d 0352 f2bc 584c e53b 2668 a0ba
00000080: 543d 0ebc 32e7 acbd 284d b23d 8ca6 db3d
00000090: be1c febb 506e e23d 3937 be3d afe2 ec3b
000000a0: 032c 8bbd 6689 7cbc 14f7 b53d 1d78 dcbd
000000b0: 716a eebb e11d 873d 5d9b 023e 457a 233d
000000c0: dfab 963d d228 373d c4d8 303d a34f c3bc
000000d0: 138b 473d 07fe 613d 1a09 45bc 010d b5bd
000000e0: c454 5abb 3659 6a3c caf5 c23d 414d 9a3d
000000f0: 287b 1b3b bda7 c03d 6451 2bbc 76bd bb3d
00000100: 12ee 93bd 562e 953d 8a56 af3d 823f e93d
00000110: c035 753d 60ed 41bd 80e3 1e3c cf3f 963d
00000120: 35b5 073d 48fa 8b3d e8ba 58bd b5f7 2d3d
00000130: f022 fe3c 2a48 c93d 5bd9 6fbc 2145 cf3d
00000140: c40b b5bc 3181 d83d 291a c23d 6b41 b03c
00000150: 8d47 8c3a 0980 0c3c 74c8 a93c 160f f53c
00000160: d9f0 b93d 4a94 ad3d f737 ea3d 0fff 043d
00000170: 1b75 48bd 25f2 943d ed21 cf3d 7027 16bd
00000180: 2e5c a03d 9dff 63bd 4f34 2b3d 8434 6bbd
00000190: 81f3 7b3d 90db 513d 81c2 8fbb 65b7 9b3d
000001a0: 352b 543b cb7f a93d 5706 db3d e75c a2bc
000001b0: 27cf 623d fe1c d93d 4ff9 4a3d d6c0 f13d
000001c0: 9533 853b 8b35 a43d 7eab 8d3d 099d c0bd
000001d0: 3a22 22bd 623f 9dbc 36d2 48bd 6ec4 bbbd
000001e0: 6c52 b13d b246 b23d 736a 9d3d fc0b 24bb
000001f0: 5598 f13c e71f c23c e7a0 9d3d 2340 fd3d

weight f4 [1, 128]
-0.08119494 0.028198589 0.04560545 0.035274737 -0.050874386 0.04455218 -0.10654236 0.04753558
0.016607363 0.14398251 0.009456337 -0.046482403 0.07453971 -0.08733599 0.09445857 0.044773486
-0.091157466 -0.032203887 0.05592137 -0.0901771 -0.07238091 -0.025861163 -0.060265873 0.004287408
-0.08328597 -0.109521456 0.045419574 -0.03619559 -0.097353324 -0.0631009 -0.09828166 -0.07248163
0.10346342 0.051593263 -0.07803924 -0.075985305 -0.06298305 -0.04820389 0.10414707 0.01706114
0.06217676 0.011925877 0.12621853 0.041666385 -0.021123426 0.09090283 -0.061208755 -0.025032084
0.16546574 -0.091816515 -0.034386218 -0.0433201 0.062556446 -0.024352614 0.051611803 0.052976064
-0.092611946 -0.06739931 -0.09114612 -0.07436017 0.09442281 0.120685905 -0.08913411 -0.06790546
0.070474856 -0.07397846 0.15719065 -0.05377182 0.123480864 0.01802449 -0.051280774 0.13622452
0.05604787 -0.08769426 0.0678438 0.117846526 -0.010177645 -0.040634938 0.021656744 -0.028924095
-0.08102295 -0.06152656 -0.07701123 -0.048466526 -0.13742599 -0.067235395 -0.09153383 0.03351643
0.07431926 -0.100741774 -0.09788607 -0.04093002 -0.0049580783 -0.033236273 -0.030246453 -0.026139949
-0.036936324 0.0028681878 -0.040410586 0.025888328 -0.07130404 0.07365302 0.017706554 0.042306945
-0.0701461 0.06087138 0.19338933 -0.024890414 0.07320091 0.13573897 0.07294634 0.09792952
-0.06334161 -0.053152736 0.18097207 0.044689868 -0.018687798 -0.10336805 0.0125647625 0.061920807
0.07417991 -0.097460575 0.066935584 0.04019495 -0.08325652 -0.0711782 0.07098592 -0.09855899
00000000: 8849 a6bd ba00 e73c c8cc 3a3d 3e7c 103d
00000010: a961 50bd 597c 363d e132 dabd abb4 423d
00000020: 2a0c 883c 2770 133e c1ee 1a3c 5564 3ebd
00000030: 47a8 983d 36dd b2bd 7f73 c13d 6764 373d
00000040: c4b0 babd 39e8 03bd ce0d 653d c5ae b8bd
00000050: 713c 94bd cada d3bc 59d9 76bd 637d 8c3b
00000060: d691 aabd c94c e0bd e009 3a3d d441 14bd
00000070: 2e61 c7bd 0b3b 81bd e547 c9bd 4071 94bd
00000080: a1e4 d33d 7553 533d 09d3 9fbd 2f9e 9bbd
00000090: 42fd 80bd 7171 45bd 0f4b d53d cec3 8b3c
000000a0: 0fad 7e3d c164 433c 6e3f 013e 5faa 2a3d
000000b0: 090b adbc 432b ba3d 08b6 7abd 1610 cdbc
000000c0: da6f 293e 4c0a bcbd 90d8 0cbd 6b70 31bd
000000d0: 981d 803d 227f c7bc e666 533d 6efd 583d
000000e0: 55ab bdbd a608 8abd d1aa babd 254a 98bd
000000f0: bf60 c13d 2c2a f73d f28b b6bd 0512 8bbd
00000100: 1f55 903d 0582 97bd 96f6 203e d73f 5cbd
00000110: 89e3 fc3d 18a8 933c ca0b 52bd 717e 0b3e
00000120: 7492 653d 0c99 b3bd b1f1 8a3d 8559 f13d
00000130: 23c0 26bc d270 26bd 7c69 b13c 39f2 ecbc
00000140: 5cef a5bd 4603 7cbd 10b8 9dbd d684 46bd
00000150: 66b9 0cbe b6b2 89bd 1776 bbbd 8648 093d
00000160: b234 983d b451 cebd 7e78 c8bd 3da6 27bd
00000170: 6077 a2bb c222 08bd 69c7 f7bc 7223 d6bc
00000180: 8b4a 17bd 35f8 3b3b 9285 25bd c213 d43c
00000190: da07 92bd 65d7 963d 560d 913c 0c4a 2d3d
000001a0: c2a8 8fbd 4554 793d da07 463e fbe6 cbbc
000001b0: 5cea 953d 28ff 0a3e e464 953d 468f c83d
000001c0: 3fb9 81bd afb6 59bd be50 393e b90c 373d
000001d0: 2717 99bc a1b2 d3bd 6fdc 4d3c aca0 7d3d
000001e0: a3eb 973d 6999 c7bd 8615 893d 76a3 243d
000001f0: 6582 aabd e0c5 91bd 1161 913d 4cd9 c9bd
