bike_sharing/AutogluonModels/ag-20220403_203319/models/NeuralNetTorch_BAG_L2/S1F5/net.params (torch, 215879 bytes, 9 tensors)

weight f4 [128, 22]
-0.12647463 0.20062073 -0.1518842 -0.14042634 -0.10374522 0.10975792 0.070456386 0.20002478
0.030803801 0.058963317 -0.057976503 0.004709768 -0.20150599 -0.13706255 -0.09459266 0.026340544
0.109754056 0.14983226 -0.12889357 -0.07673787 0.12596147 0.16256134 -0.21326311 0.2810358
-0.054953434 -0.028154658 0.16802919 -0.21697214 -0.15274762 -0.013172017 -0.06480734 0.17764787
-0.12369152 -0.14679962 -0.16786832 -0.17123292 -0.15338475 0.15946725 0.10221931 0.028030308
0.089751475 -0.08999216 0.037680432 -0.13704659 -0.17148504 -0.389621 0.05665801 0.12923428
-0.09115245 -0.010361792 0.1288445 0.12563242 0.05820077 0.04820077 0.13852142 -0.051787183
0.023112467 -0.15895094 -0.096120864 -0.09925389 0.14144695 -0.0007844332 -0.14804463 0.07797058
0.051069852 0.01843762 -0.08284792 0.23371558 0.12999639 0.108818874 -0.093678206 -0.13449562
0.030973677 0.19229083 0.13799545 0.18675688 0.102281906 -0.15250224 0.010982405 -0.13478735
-0.2619557 0.13868321 0.13650551 -0.11854294 0.033555992 -0.08716531 0.06247524 -0.18029498
0.14600296 -0.32900342 0.027176153 0.06100147 0.20827824 0.06867286 -0.20124096 -0.09785859
0.074722305 0.06890232 -0.12207068 -0.10008701 0.16906677 0.15189534 -0.07670587 -0.05802974
-0.22493263 -0.00022423298 -0.13133657 -0.14815854 -0.065206945 0.10560391 -0.26955974 0.20891908
-0.14125104 0.15921457 0.090305045 -0.07622059 0.044938546 0.006754301 0.05056179 0.029617758
0.0512295 -0.002771547 -0.121357255 0.054692596 -0.1987821 -0.0782162 -0.04707729 -0.041145835
-0.07324141 -0.17535384 -0.111808375 0.08198001 -0.27213165 -0.14180352 0.06257407 -0.07491715
-0.035662778 -0.022616122 0.03228219 0.15009408 0.18082578 0.11341026 0.16988398 -0.007721041
-0.18853351 -0.14143388 0.14001304 -0.030377083 -0.124302365 -0.11325477 -0.22571866 -0.20774083
-0.10602556 0.12492719 0.28984508 -0.36230758 0.12008863 -0.14007276 -0.009055202 -0.078626014
-0.04086979 0.0056650164 -0.09076833 -0.113293424 0.0033561466 -0.012390608 -0.07821125 0.08922386
-0.14414646 0.0024577633 0.1773337 -0.023259014 0.1378517 0.101085596 -0.14033863 0.10659177
0.18949299 -0.30445227 0.09483688 -0.14501901 0.031796165 -0.094060205 0.0892321 0.06974156
0.06355343 0.039679177 -0.045106303 -0.036393657 -0.08882458 0.07656339 0.16307725 0.07334167
-0.19408208 0.0020479786 -0.11835363 -0.13851562 -0.22935827 0.09349612 -0.25225136 -0.31643972
-0.0649638 0.14221193 -0.13362397 -0.07724016 -0.066171326 0.06746319 -0.026845487 0.08451205
0.07277364 0.05976739 -0.035515677 -0.045065243 0.035344884 -0.021035492 0.009604247 0.01169926
-0.09272502 -0.22933675 0.13354658 -0.14862424 -0.18489997 0.31305775 0.038071252 -0.06351057
-0.13307466 0.09927842 -0.15031534 -0.0239956 -0.10179958 -0.03852371 0.04832087 0.10096807
0.029948717 0.13931158 0.04792261 -0.17914733 0.05849167 -0.06605078 -0.12752429 0.0055272174
0.040830147 0.11201863 -0.23847733 -0.098124556 0.046526168 -0.23041166 0.11189439 -0.11594498
0.065669134 -0.043179978 -0.08864084 -0.016949905 0.14269346 -0.06613343 -0.1362703 -0.068919726
00000000: 9182 01be 856f 4d3e 8887 1bbe eccb 0fbe
00000010: 6078 d4bd c3c8 e03d 704b 903d 4cd3 4c3e
00000020: 4158 fc3c 8583 713d c578 6dbd 6654 9a3b
00000030: 9657 4ebe 205a 0cbe ccb9 c1bd 20c8 d73c
00000040: bcc6 e03d a16d 193e adfc 03be bf28 9dbd
00000050: 0bfc 003e 7b76 263e a561 5abe ede3 8f3e
00000060: da16 61bd 99a4 e6bc d80f 2c3e f22d 5ebe
00000070: df69 1cbe 72cf 57bc b6b9 84bd 53e9 353e
00000080: fb51 fdbd a452 16be ace5 2bbe af57 2fbe
00000090: e410 1dbe 624b 233e 5c58 d13d d19f e53c
000000a0: 9fcf b73d cf4d b8bd cc56 1a3d f155 0cbe
000000b0: c699 2fbe 677c c7be 3b12 683d fe55 043e
000000c0: 23ae babd 81c4 29bc d0ef 033e c9a5 003e
000000d0: ee63 6e3d 2c6e 453d 8fd8 0d3e cc1e 54bd
000000e0: 5b56 bd3c 09c4 22be 04db c4bd a045 cbbd
000000f0: 78d7 103e 6ca2 4dba 0399 17be 0aaf 9f3d
00000100: 9f2e 513d 7e0a 973c 2cac a9bd 2353 6f3e
00000110: c61d 053e 6edc de3d 5cda bfbd 38b9 09be
00000120: 82bc fd3c e3e7 443e ae4e 0d3e 323d 3f3e
00000130: 2d79 d13d 8c29 1cbe 8cef 333c b205 0abe
00000140: 0f1f 86be f902 0e3e 1ac8 0b3e a4c6 f2bd
00000150: 0272 093d ba83 b2bd 0ae6 7f3d 3f9f 38be
00000160: cd81 153e 2373 a8be 86a0 de3c addc 793d
00000170: e446 553e 5ba4 8c3d 1c12 4ebe 166a c8bd
00000180: 0208 993d a91c 8d3d 3100 fabd 6bfa ccbd
00000190: d71f 2d3e 748a 1b3e f817 9dbd 98b0 6dbd
000001a0: bd54 66be 1520 6bb9 187d 06be dfb6 17be
000001b0: 388b 85bd dd46 d83d bc03 8abe e2ee 553e
000001c0: 1da4 10be 2509 233e daf1 b83d 8a19 9cbd
000001d0: 7b11 383d 2f53 dd3b e119 4f3d f1a0 f23c
000001e0: 06d6 513d d8a2 35bb 278a f8bd 5805 603d
000001f0: 898d 4bbe d12f a0bd 1ed4 40bd 8988 28bd
00000200: 98ff 95bd f58f 33be cafb e4bd 23e5 a73d
00000210: d754 8bbe f134 11be d626 803d 2a6e 99bd
00000220: 2213 12bd 7245 b9bc 543a 043d 43b2 193e
00000230: 652a 393e a343 e83d 11f6 2d3e c900 fdbb
00000240: ee0e 41be 0bd4 10be 945f 0f3e 5cd9 f8bc
00000250: 3d92 febd 1ef2 e7bd cb22 67be 03ba 54be
00000260: ee23 d9bd d4d9 ff3d 9366 943e 6180 b9be
00000270: 07f1 f53d 3c6f 0fbe 455c 14bc ad06 a1bd
00000280: 1567 27bd 9aa1 b93b bfe4 b9bd 6206 e8bd
00000290: ccf2 5b3b fa01 4bbc 382d a0bd 00bb b63d
000002a0: 219b 13be 6d12 213b f796 353e b089 bebc
000002b0: ff28 0d3e f705 cf3d eeb4 0fbe c94c da3d
000002c0: 730a 423e 2be1 9bbe d739 c23d dd7f 14be
000002d0: b23c 023d a3a2 c0bd 52bf b63d aad4 8e3d
000002e0: 4d28 823d a286 223d 63c1 38bd 8411 15bd
000002f0: a9e9 b5bd 44cd 9c3d b9fd 263e 2834 963d
00000300: 74bd 46be 6137 063b 6363 f2bd 0ad7 0dbe
00000310: e5dc 6abe e57a bf3d 1727 81be 6304 a2be
00000320: be0b 85bd 01a0 113e b9d4 08be 1730 9ebd
00000330: d584 87bd 242a 8a3d 11eb dbbc a714 ad3d
00000340: 590a 953d a7ce 743d e378 11bd 5596 38bd
00000350: ccc5 103d a052 acbc 225b 1d3c 41ae 3f3c
00000360: 9ee6 bdbd 41d7 6abe 6fc0 083e f430 18be
00000370: 6b56 3dbe 1b49 a03e 9af0 1b3d d411 82bd
00000380: b944 08be 7c52 cb3d 44ec 19be 6c92 c4bc
00000390: 4c7c d0bd 0acb 1dbd 1bec 453d 59c8 ce3d
000003a0: 0357 f53c b2a7 0e3e 804a 443d 6672 37be
000003b0: f694 6f3d a245 87bd ba95 02be a91d b53b
000003c0: 833d 273d 066a e53d 6733 74be 87f5 c8bd
000003d0: 3992 3e3d 09f1 6bbe e328 e53d 9074 edbd
000003e0: 8a7d 863d 7ddd 30bd 5489 b5bd 87da 8abc
000003f0: 3c1e 123e f770 87bd 718a 0bbe c925 8dbd

bias f4 [128]
-0.17354894 -0.10285073 -0.0045984285 -0.07763436 -0.07760634 0.11228848 -0.056533128 0.06331035
0.18099986 -0.16227725 -0.17151763 -0.094622396 -0.04233017 -0.09768523 -0.03422095 0.0008840519
0.05095786 0.1701397 0.14937425 -0.00072362705 0.021588573 0.029811066 -0.031150822 -0.07327287
0.11429735 -0.26559103 -0.158587 -0.045679644 -0.092828564 -0.1306919 -0.22376937 0.14606492
-0.033734888 -0.09607291 -0.10246594 0.04101916 -0.17675601 -0.01881688 -0.010512362 0.04093989
0.080982804 -0.13350363 0.095432244 0.15418473 -0.04440883 0.06568463 -0.021531867 0.029404892
0.006547027 -0.099901915 0.12126042 -0.24715663 -0.040889084 -0.16638663 -0.10844835 -0.18893537
-0.26276556 0.054928944 -0.07133024 -0.18615371 -0.013369975 -0.079811774 0.018695405 -0.15306078
-0.01187105 0.008396743 0.063828304 0.039410256 0.04173591 0.17880687 -0.10778147 0.14054851
0.19578487 -0.22421122 0.041086577 0.12323457 -0.044693448 0.07876133 0.045317642 0.11636697
-0.033089075 -0.11815867 0.118007556 0.088223405 0.13799311 0.047827877 0.13505389 0.06135898
0.0493232 -0.08139974 0.023979649 -0.15497547 0.015969448 -0.018481702 0.0021054915 -0.14241178
0.041202083 -0.17338061 0.09421338 0.09810887 -0.21524379 0.1474342 -0.1807827 -0.051665917
0.07741568 -0.054588296 0.18063256 -0.112801954 0.006265053 -0.17649405 -0.08759137 0.23991625
0.11640854 0.015661746 -0.045168847 -0.17005318 0.14283171 -0.016200162 -0.051759038 -0.15724684
0.16299841 0.08655333 0.100650474 0.015697183 -0.12948895 0.10311445 0.027167741 0.07449132
00000000: d0b6 31be 67a3 d2bd 6aae 96bb c3fe 9ebd
00000010: 13f0 9ebd 81f7 e53d 488f 67bd dba8 813d
00000020: 0758 393e 022c 26be 51a2 2fbe 63c9 c1bd
00000030: 6662 2dbd 320f c8bd 442b 0cbd b8bf 673a
00000040: 30b9 503d 1a39 2e3e 90f5 183e cab1 3dba
00000050: 85da b03c 5636 f43c 0230 ffbc 1610 96bd
00000060: bb14 ea3d 8cfb 87be a164 22be 941a 3bbd
00000070: e71c bebd 19d4 05be cc23 65be 0b92 153e
00000080: 982d 0abd e0c1 c4bd aad9 d1bd b503 283d
00000090: 87ff 34be dc25 9abc 0b3c 2cbc 96b0 273d
000000a0: 50da a53d 2db5 08be fb71 c33d 9ae2 1d3e
000000b0: 09e6 35bd aa85 863d 9963 b0bc 87e2 f03c
000000c0: 7188 d63b 6099 ccbd 6257 f83d a116 7dbe
000000d0: 507b 27bd 4261 2abe 2b1a debd 4678 41be
000000e0: 3589 86be 2cfd 603d 9715 92bd 149f 3ebe
000000f0: bd0d 5bbc 5b74 a3bd 1b27 993c f7bb 1cbe
00000100: cb7e 42bc 7e92 093c 6ab8 823d a66c 213d
00000110: 46f3 2a3d 2619 373e 88bc dcbd f3eb 0f3e
00000120: d47b 483e a097 65be 664a 283d 6862 fc3d
00000130: 7a10 37bd 9f4d a13d fe9e 393d ce51 ee3d
00000140: 6988 07bd 2cfd f1bd f2ad f13d 79ae b43d
00000150: 114e 0d3e 2ae7 433d 914b 0a3e 8e53 7b3d
00000160: 2007 4a3d e8b4 a6bd f870 c43c e4b1 1ebe
00000170: 5cd2 823c f066 97bc 49fc 093b 65d4 11be
00000180: 84c3 283d b08a 31be f2f2 c03d 4eed c83d
00000190: de68 5cbe fef8 163e 1a1f 39be a49f 53bd
000001a0: 1d8c 9e3d fa97 5fbd bef7 383e b604 e7bd
000001b0: 134b cd3b dbba 34be 1b63 b3bd 9bac 753e
000001c0: 9a67 ee3d 104d 803c f802 39bd 6c22 2ebe
000001d0: 7a42 123e 34b6 84bc 4901 54bd 5105 21be
000001e0: 0ee9 263e df42 b13d d621 ce3d 6197 803c
000001f0: c098 04be ab2d d33d e28e de3c e88e 983d

weight f4 [128, 128]
-0.0007757252 -0.07931683 0.10149655 0.019442447 -0.0009371331 0.006875139 -0.018401997 0.015795356
0.06773714 0.01334479 0.0472492 0.057828587 0.0010347249 -0.013321338 0.045714937 -0.03960869
0.061271854 -0.04843485 0.023413489 -0.11180704 0.09486452 0.093385614 0.04475896 -0.00026299263
0.06763438 0.056386434 0.09518336 0.04646277 -0.116178334 0.025393374 0.020005647 0.0013739371
0.049707755 0.013020503 0.001958148 0.07609906 0.015593601 0.01730003 0.014763073 -0.009863698
-0.052685004 -0.0046548294 0.014768358 -0.05120929 0.0154129835 0.05746349 0.1071326 0.006409958
0.0074832267 -0.065749906 0.049218558 -0.050466534 0.08416449 -0.029935157 -0.019860953 -0.032671016
-0.019055927 -0.0401481 -0.07235473 0.09880701 0.052214693 -0.07841741 -0.0278728 0.037954215
0.12303322 -0.021462275 0.060428046 0.03522986 -0.020506086 0.06500269 -0.0725969 0.09984874
0.10794342 0.005075261 0.03645806 0.09283415 0.054475926 0.0022903765 0.022079507 -0.049299203
0.04552486 -0.013370031 0.11955682 0.0120201325 0.025308032 -0.02744743 0.08361513 -0.016379816
0.077742696 -0.07492993 -0.033337884 0.027172461 -0.026619699 -0.03566273 0.05661414 -0.022999272
-0.04558587 -0.013732065 0.076072946 0.013752888 -0.06087636 -0.045128565 0.060942583 -0.000959588
-0.03634458 -0.059095528 0.023210743 0.04074099 0.03996421 0.06218786 0.10181237 0.06446527
0.0152234 0.061375413 -0.022205692 0.03130274 0.06299239 -0.0020542082 -0.017441504 -0.02378601
-0.03607953 0.031051073 0.08566567 -0.044602145 0.046937115 0.022635866 0.019098593 -0.049286045
0.13404877 0.058461737 -0.050419554 -0.06703818 0.0056268172 -0.011777092 0.015830364 -0.05615552
0.063161045 -0.0009010839 0.038063124 0.047377102 -0.040982414 0.078401916 0.007398502 0.008788604
-0.09866606 0.079877876 -0.088989556 0.03126665 0.05738616 -0.09864037 -0.07465222 -0.01115522
-0.053911697 0.043375716 -0.0009023271 0.028543063 -0.118100874 0.011273624 0.0023145985 0.0011821014
0.049238574 -0.07873898 -0.05396323 0.009739216 0.027379721 0.060215257 -0.08774091 -0.06145298
0.010330369 -0.058590163 -0.008668953 -0.083635464 0.023798509 -0.00596333 0.0075943377 -0.067658536
0.03263209 -0.09146865 -0.040121105 -0.08367301 0.011278228 -0.077384315 0.00982014 -0.018371403
0.07686944 -0.05768266 -0.09019298 -0.028053164 -0.0031462302 -0.08316559 0.04250395 0.05975227
-0.02699451 -0.02562245 -0.012283937 0.035738137 -0.074412316 0.050067376 0.056747608 0.04548887
0.0054457365 -0.06180576 -0.06933824 0.09409161 -0.14450598 -0.123290755 -0.04406743 0.038965944
-0.09921195 -0.1448444 -0.027459003 -0.03384925 0.048006933 0.020403337 -0.15301803 -0.08933248
0.029782131 0.035309978 -0.053985674 0.025578797 -0.022041537 0.04788378 0.05943034 -0.0486199
-0.070399284 0.025837548 -0.07534691 -0.049462747 -0.021559794 -0.021222401 0.008495328 -0.06302345
0.029962128 -0.008739673 -0.03341763 -0.11594136 0.011743113 0.046037447 -0.06531272 -0.017404893
-0.056324 0.120056026 -0.009865818 -0.07892196 -0.020921372 -0.06546588 0.03447956 -0.13876367
0.03883748 0.089657955 0.08213147 0.0053553535 -0.051595137 0.05401375 0.047041204 0.030169379
00000000: 095a 4bba dd70 a2bd 6cdd cf3d c445 9f3c
00000010: f0a9 75ba d948 e13b c9bf 96bc 4365 813c
00000020: c5b9 8a3d 1ba4 5a3c 6188 413d abdd 6c3d
00000030: 9b9f 873a be41 5abc 963f 3b3d b93c 22bd
00000040: 32f8 7a3d 9f63 46bd a5cd bf3c 17fb e4bd
00000050: 5448 c23d f540 bf3d 2c55 373d 46e2 89b9
00000060: e583 8a3d 76f5 663d 7eef c23d bf4f 3e3d
00000070: e8ee edbd c405 d03c e2e2 a33c ae15 b43a
00000080: 5c9a 4b3d f353 553c 4654 003b d3d9 9b3d
00000090: 4e7c 7f3c cbb8 8d3c d1e0 713c 599b 21bc
000000a0: 3bcc 57bd 8a87 98bb fcf6 713c d5c0 51bd
000000b0: bd86 7c3c d65e 6b3d 5668 db3d a00a d23b
000000c0: db35 f53b e3a7 86bd 6699 493d ffb5 4ebd
000000d0: 6f5e ac3d 933a f5bc 70b3 a2bc 0bd2 05bd
000000e0: 2d1b 9cbc 5672 24bd b72e 94bd 545b ca3d
000000f0: 13df 553d 4f99 a0bd 8055 e4bc e175 1b3d
00000100: d7f8 fb3d a7d1 afbc 6683 773d 304d 103d
00000110: 61fc a7bc 2120 853d afad 94bd 7f7d cc3d
00000120: 7111 dd3d 604e a63b 0c55 153d d51f be3d
00000130: 2622 5f3d 241a 163b 15e0 b43c f6ed 49bd
00000140: 4778 3a3d f90d 5bbc 35da f43d 17f0 443c
00000150: ca52 cf3c 6fd9 e0bc 693e ab3d f72e 86bc
00000160: 9037 9f3d dd74 99bd 4e8d 08bd c898 de3c
00000170: 8e11 dabc 1513 12bd 3ae4 673d f868 bcbc
00000180: 40b8 3abd 75fc 60bc 22cc 9b3d cb53 613c
00000190: 7d59 79bd bbd8 38bd ee9e 793d dc8c 7bba
000001a0: 0ede 14bd 270e 72bd 7524 be3c 06e0 263d
000001b0: 83b1 233d b3b8 7e3d 0183 d03d 5e06 843d
000001c0: 916b 793c c964 7b3d b6e8 b5bc 4d37 003d
000001d0: 2702 813d e59f 06bb 7ce1 8ebc e1da c2bc
000001e0: 21c8 13bd d25e fe3c 7c71 af3d bdb0 36bd
000001f0: 2241 403d da6e b93c a774 9c3c 2ae0 49bd
00000200: 1544 093e 9375 6f3d bc84 4ebd 504b 89bd
00000210: 2a61 b83b b4f4 40bc aeae 813c 5503 66bd
00000220: 945a 813d b836 6cba 14e8 1b3d 7e0e 423d
00000230: 2ddd 27bd 2f91 a03d 226f f23b 14fe 0f3c
00000240: 6e11 cabd 0397 a33d 2840 b6bd 7511 003d
00000250: c00d 6b3d f603 cabd 43e3 98bd 62c4 36bc
00000260: 83d2 5cbd bcaa 313d 268a 6cba 24d3 e93c
00000270: dfde f1bd 02b5 383c 85b0 173b bef0 9a3a
00000280: 63ae 493d e741 a1bd 8c08 5dbd 3c91 1f3c
00000290: 704b e03c 46a4 763d 82b1 b3bd 1fb6 7bbd
000002a0: b540 293c 3dfc 6fbd 3908 0ebc 1249 abbd
000002b0: 17f5 c23c 0a68 c3bb ecd9 f83b 8f90 8abd
000002c0: 3aa9 053d ea53 bbbd 0756 24bd c15c abbd
000002d0: 51c8 383c ab7b 9ebd a7e4 203c a07f 96bc
000002e0: ba6d 9d3d a744 6cbd 19b7 b8bd c0cf e5bc
000002f0: fc30 4ebb b952 aabd 9f18 2e3d ccbe 743d
00000300: 9723 ddbc 2ce6 d1bc 9142 49bc 2762 123d
00000310: 7c65 98bd 7313 4d3d 2e70 683d 8a52 3a3d
00000320: 2672 b23b 0928 7dbd 3501 8ebd 1ab3 c03d
00000330: 60f9 13be dd7f fcbd 0d80 34bd c19a 1f3d
00000340: a32f cbbd 1752 14be b4f1 e0bc 83a5 0abd
00000350: eba2 443d e624 a73c c2b0 1cbe f3f3 b6bd
00000360: a8f9 f33c 32a1 103d 1520 5dbd a08a d13c
00000370: 7490 b4bc c821 443d 3a6d 733d a925 47bd
00000380: 802d 90bd 44a9 d33c 7b4f 9abd 7399 4abd
00000390: 2a9e b0bc 9ada adbc fd2f 0b3c 7012 81bd
000003a0: 2373 f53c d830 0fbc ede0 08bd aa72 edbd
000003b0: 3066 403c c391 3c3d adc2 85bd b594 8ebc
000003c0: ffb3 66bd efdf f53d 3da4 21bc d6a1 a1bd
000003d0: 4c63 abbc fa12 86bd 703a 0d3d 1018 0ebe
000003e0: 0d14 1f3d 979e b73d 8b34 a83d f67b af3b
000003f0: 6c55 53bd 863d 5d3d 47ae 403d c625 f73c

bias f4 [128]
-0.0031722393 0.044678416 -0.114745975 -0.0088124415 0.00022222029 -0.09394792 0.004544138 -0.059480194
-0.09518874 0.078815065 0.02255157 0.06484961 0.09725999 -0.053606234 -0.084390655 -0.026044745
0.053045776 0.020322397 -0.024287773 0.09724638 -0.014339914 0.05838704 0.028119052 -0.031794872
0.057193 0.044092495 -0.0075901626 -0.07330504 0.06010545 0.07980989 0.033798084 0.020868834
0.037332103 0.037720498 -0.037549857 -0.058904976 -0.04930198 0.06347815 -0.046685055 0.059410818
-0.07455998 -0.04023894 0.07475826 -0.04732094 0.015589976 0.07861618 0.007967435 0.041212223
-0.0052667866 -0.08726337 -0.026297987 -0.029799825 -0.04756166 -0.03383252 -0.0022297783 0.069965914
0.08011072 0.04270817 -0.053591684 0.011361354 0.020572634 0.08067305 -0.039605815 0.050722975
0.084742785 -0.0103785535 -0.10360877 0.020624656 0.055222083 -0.10591627 0.063918605 -0.009716984
-0.12240016 0.030370252 0.046663947 -0.007917001 -0.06278966 -0.04365255 0.04514528 0.057526395
0.050109155 0.042978786 0.06112384 -0.030684523 0.04856601 0.04134025 0.0043133134 0.09119445
-0.013781997 0.090963885 -0.00287571 0.06522407 -0.084295355 0.073889144 -0.02915204 0.0077917054
0.07616531 0.0003895521 -0.02610681 -0.042040993 0.08771421 0.02818872 -0.021690458 -0.008830459
0.083935544 0.048244677 0.0885593 -0.03406583 -0.032847323 -0.042388875 -0.08934294 -0.010858721
0.012749819 -0.078335606 -0.053374693 0.013159147 -0.008228893 -0.061648846 0.08570095 -0.043117207
0.020052284 0.07184282 -0.08879395 0.0044813454 -0.12856834 0.0943931 -0.03446349 0.069096506
00000000: 58e5 4fbb b700 373d f0ff eabd 0f62 10bc
00000010: ce03 6939 c467 c0bd fee6 943b 81a1 73bd
00000020: 50f2 c2bd cb69 a13d 12be b83c dfcf 843d
00000030: 3f30 c73d 3692 5bbd 02d5 acbd ca5b d5bc
00000040: 8746 593d 287b a63c 27f7 c6bc 1c29 c73d
00000050: f5f1 6abc 4027 6f3d ed59 e63c 573b 02bd
00000060: 3543 6a3d 559a 343d e6b6 f8bb f420 96bd
00000070: 2231 763d 5e73 a33d dc6f 0a3d 1ef5 aa3c
00000080: 8ce9 183d cf80 1a3d e1cd 19bd 5846 71bd
00000090: dff0 49bd d500 823d d438 3fbd c258 733d
000000a0: e7b2 98bd 96d1 24bd dc1a 993d 9ad3 41bd
000000b0: 196d 7f3c 8501 a13d d889 023c 26ce 283d
000000c0: 0295 acbb 23b7 b2bd e06e d7bc c31e f4bc
000000d0: 04d0 42bd f893 0abd 7921 12bb 4a4a 8f3d
000000e0: 1711 a43d c3ee 2e3d f482 5bbd f924 3a3c
000000f0: f187 a83c e937 a53d b539 22bd e5c2 4f3d
00000100: a08d ad3d cf0a 2abc d630 d4bd 0af5 a83c
00000110: 8d30 623d a1ea d8bd c2e7 823d fc33 1fbc
00000120: efac fabd 09cb f83c b222 3f3d 4fb6 01bc
00000130: de97 80bd 04cd 32bd 42ea 383d cca0 6b3d
00000140: 423f 4d3d 860a 303d fe5c 7a3d 1c5e fbbc
00000150: 27ed 463d 6554 293d b256 8d3b 28c4 ba3d
00000160: e3cd 61bc 464b ba3d 6876 3cbb 3294 853d
00000170: 0ba3 acbd 3153 973d 42d0 eebc 9051 ff3b
00000180: 8ffc 9b3d cc3c cc39 f3dd d5bc 2d33 2cbd
00000190: 82a3 b33d 08ec e63c 30b0 b1bc a1ad 10bc
000001a0: 66e6 ab3d 369c 453d 945e b53d 9d88 0bbd
000001b0: ea8a 06bd f59f 2dbd 6ef9 b6bd c7e8 31bc
000001c0: 9ee4 503c 6b6e a0bd 6c9f 5abd 7799 573c
000001d0: 7bd2 06bc 8083 7cbd fb83 af3d ab9b 30bd
000001e0: b044 a43c 5422 933d 9ad9 b5bd 40d8 923b
000001f0: 6ba7 03be 2b51 c13d 9729 0dbd 7882 8d3d

weight f4 [128, 128]
-0.0034884538 -0.03447851 0.022322744 -0.050126456 0.0064433604 -0.059854884 0.10866319 -0.11176884
0.033650927 0.15154716 -0.044166785 -0.056899544 -0.06661926 0.04008242 0.04454254 -0.07012017
0.04879806 -0.12064545 0.059555624 -0.023576371 -0.07010733 -0.050127137 -0.10416045 -0.09360597
-0.06609062 0.008185287 0.062125225 -0.12637863 0.064569704 -0.043381393 0.089066274 -0.0426877
-0.08790566 0.033135794 0.037014272 0.018472273 0.10057303 0.04161066 0.020451026 -0.049375404
0.03266883 -0.10680566 0.059559535 -0.004007802 0.10400973 0.027787827 0.08027524 0.08302306
0.020476118 -0.039868057 0.009140507 0.094001986 0.05383403 -0.023154572 0.03260407 -0.076063626
0.06481802 -0.05746008 -0.10301282 0.017665071 -0.049408164 -0.015109022 -0.019471565 0.0042315423
-0.0009895696 -0.086994074 -0.067552455 -0.01656694 -0.020910911 -0.10122454 -0.032166544 -0.10876502
-0.0062385947 0.04401905 0.04193109 -0.012497045 -0.02519763 -0.056662716 -0.01572815 0.029285418
-0.09355748 -0.14387657 -0.06286338 -0.118240416 -0.028140431 0.028317695 0.04901938 -0.008499159
0.015856272 -0.07681789 -0.091223545 0.02046772 0.061580945 -0.07072806 0.022928724 0.040536843
-0.114689276 -0.03012525 0.09770584 0.0025021676 0.04437107 0.03343891 0.014385365 -0.021753697
0.026945107 -0.027540635 0.0119158225 0.0015502011 -0.029269835 0.0357814 -0.101592675 0.04707696
-0.11308241 -0.028696755 0.05185418 0.020309968 0.052879445 -0.09031085 0.030301567 0.045660462
-0.10128954 -0.06871404 0.0773724 -0.0032765358 -0.018635808 -0.07287992 -0.019060537 0.062461678
0.00045151237 -0.05843431 -0.022625875 -0.0060538 0.008219742 0.015881918 0.02973526 -0.027996173
-0.02863409 0.09557818 -0.020089889 0.06470711 0.04059076 0.03397724 -0.0126706865 -0.021739805
-0.01418794 -0.061484054 -0.0029530402 -0.1453545 -0.09323231 0.005576278 -0.04399586 -0.07308867
0.034143634 0.09472157 0.012061799 -0.011515607 -0.006855873 -0.08988575 0.058967866 -0.05582915
-0.08740178 0.010213973 -0.014070279 -0.061274894 0.049480233 -0.078982115 -0.011934185 0.041690838
0.010990633 -0.0712446 -0.00034074503 -0.07464508 0.107153974 -0.06348531 0.009791344 0.014813174
-0.029371997 -0.04285296 -0.061997756 0.02938063 -0.06687915 -0.0057484275 0.0020006993 1.2817157e-36
-0.041662015 -0.050869484 -0.025486909 -0.06809217 -0.10487797 0.056790892 -0.014621293 -0.094435655
-0.057340536 0.042216208 -0.020792192 -0.04983986 -0.08839884 -0.0043176906 -0.025623733 0.009010664
-0.020598048 -0.031707168 0.033853468 -0.028417531 -0.10185555 0.039424706 -0.0010487849 -0.12522984
-0.03958572 -0.051486056 -0.060305562 -0.019472573 0.00066808186 -0.025551233 0.046738163 -0.054078206
0.037793532 -0.016639112 0.008872536 -0.011920414 -0.0019421963 -0.0062873177 -0.056900505 0.12113611
-0.0055428953 -0.03575814 -0.03207001 0.003647534 0.028553456 -0.031905912 0.01961098 -0.010825297
-0.012449297 0.033231754 0.04620643 0.0012425255 0.019880379 -0.024093399 0.01090801 -0.0005665278
-0.087145455 -0.0027484149 0.020686088 0.015283186 -0.005945477 -0.12797585 -0.062415943 -0.02843104
0.01177249 -0.06643596 -0.0064634862 -0.01138081 -1.1406376e-36 -0.049026743 -0.016954752 -0.020108279
00000000: 8b9e 64bb 5739 0dbd 30de b63c 6651 4dbd
00000010: d322 d33b 652a 75bd ce8a de3d 10e7 e4bd
00000020: 8ed5 093d 2e2f 1b3e 3be8 34bd 7f0f 69bd
00000030: ae6f 88bd 772d 243d 3d72 363d 2a9b 8fbd
00000040: 79e0 473d f614 f7bd 99f0 733d 3c23 c1bc
00000050: 6f94 8fbd 1d52 4dbd 1352 d5bd 7db4 bfbd
00000060: 855a 87bd 951b 063c 0577 7e3d 6669 01be
00000070: 1f3d 843d b0b0 31bd 6168 b63d 4cd9 2ebd
00000080: e207 b4bd 66b9 073d 479c 173d 2a53 973c
00000090: 3cf9 cd3d f06f 2a3d e988 a73c dd3d 4abd
000000a0: c0cf 053d edbc dabd b3f4 733d e153 83bb
000000b0: 0e03 d53d 4ca3 e33c 5867 a43d fe07 aa3d
000000c0: 88bd a73c b04c 23bd 11c2 153c 1d84 c03d
000000d0: 1281 5c3d a8ae bdbc d88b 053d 3fc7 9bbd
000000e0: 4fbf 843d 435b 6bbd 63f8 d2bd 57b6 903c
000000f0: 3760 4abd d58b 77bc d582 9fbc c0a8 8a3b
00000100: 72b4 81ba f329 b2bd f158 8abd 64b7 87bc
00000110: 5c4d abbc d04e cfbd 11c1 03bd 32c0 debd
00000120: 206d ccbb 524d 343d efbf 2b3d 68c0 4cbc
00000130: 436b cebc 2a17 68bd 52d8 80bc f9e7 ef3c
00000140: 109b bfbd 6154 13be 84be 80bd 0828 f2bd
00000150: c386 e6bc 83fa e73c 8cc8 483d 0e40 0bbc
00000160: 03e5 813c b352 9dbd 69d3 babd ecab a73c
00000170: 4d3c 7c3d e0d9 90bd 05d5 bb3c f609 263d
00000180: 36e2 eabd 3ac9 f6bc 001a c83d 68fb 233b
00000190: 70be 353d 3df7 083d 98b0 6b3c cf34 b2bc
000001a0: fcbb dc3c e69c e1bc 953a 433c 1e30 cb3a
000001b0: 4bc7 efbc 848f 123d d20f d0bd c5d3 403d
000001c0: c097 e7bd 7515 ebbc 0c65 543d 1761 a63c
000001d0: 1e98 583d e5f4 b8bd fe3a f83c 7706 3b3d
000001e0: e470 cfbd f2b9 8cbd 6c75 9e3d 26bb 56bb
000001f0: 1faa 98bc 1142 95bd d824 9cbc d1d7 7f3d
00000200: f7b8 ec39 d158 6fbd e659 b9bc f55e c6bb
00000210: 19ac 063c cc1a 823c 5c97 f33c 3b58 e5bc
00000220: 0a92 eabc 7ebe c33d 8d93 a4bc 2985 843d
00000230: 7f42 263d b82b 0b3d b698 4fbc ad17 b2bc
00000240: 8974 68bc b4d6 7bbd cb87 41bb cfd7 14be
00000250: 95f0 bebd 36b9 b63b 0135 34bd 83af 95bd
00000260: 32da 0b3d 62fd c13d da9e 453c f5ab 3cbc
00000270: 3ba7 e0bb 0516 b8bd 4a88 713d 1bad 64bd
00000280: b4ff b2bd 8258 273c 0787 66bc 62fb 7abd
00000290: c9ab 4a3d 60c1 a1bd 9a87 43bc 03c4 2a3d
000002a0: 0e12 343c b0e8 91bd 06a6 b2b9 85df 98bd
000002b0: 8b73 db3d 9604 82bd e06b 203c f4b2 723c
000002c0: 8b9d f0bc 9686 2fbd 5cf1 7dbd a6af f03c
000002d0: f0f7 88bd 4e5d bcbb 2a1e 033b 9812 da03
000002e0: caa5 2abd 855c 50bd ecc9 d0bc e873 8bbd
000002f0: 43ca d6bd 919d 683d 268e 6fbc 7b67 c1bd
00000300: e9dd 6abd e7ea 2c3d 6354 aabc e224 4cbd
00000310: 730a b5bd 6a7b 8dbb dde8 d1bc 77a1 133c
00000320: 3dbd a8bc 60df 01bd efa9 0a3d e2cb e8bc
00000330: a599 d0bd cd7b 213d 6277 89ba 403c 00be
00000340: a324 22bd 0be3 52bd f702 77bd f284 9fbc
00000350: 3722 2f3a d250 d1bc 8470 3f3d 1c81 5dbd
00000360: 64cd 1a3d bf4e 88bc 1d5e 113c d74d 43bc
00000370: 4b91 feba d805 cebb 8110 69bd 3516 f83d
00000380: 2da1 b5bb 2177 12bd d85b 03bd 770b 6f3b
00000390: f0e8 e93c c6af 02bd 35a7 a03c 965c 31bc
000003a0: 23f8 4bbc 051e 083d f442 3d3d 3ddc a23a
000003b0: 2ddc a23c 855f c5bc 83b7 323c 0983 14ba
000003c0: 5179 b2bd c01e 34bb df75 a93c 5466 7a3c
000003d0: 47d2 c2bb 1a0c 03be dca7 7fbd 36e8 e8bc
000003e0: 67e1 403c 940f 88bd a7cb d3bb 9476 3abc
000003f0: c611 c283 44d0 48bd b1e4 8abc 1eba a4bc

bias f4 [128]
-0.019496553 0.008063758 -0.06599259 -0.043461528 0.020801846 -0.034254357 -0.047903594 -0.019469874
-0.084100194 0.06994677 0.020435488 -0.0055448506 0.0022166588 0.07000492 -0.059474256 0.009333023
0.0072866 0.019620713 -0.012119929 -0.057195924 0.09622337 -0.13470148 -0.058788527 0.066818476
-0.038627394 0.02699726 0.106835455 0.017657397 -0.0069498755 -0.035904873 0.06863828 0.101513065
-0.014292223 -0.034126345 0.06788196 0.005147827 0.00568222 0.039666507 0.012924687 0.08140724
-0.053344466 -0.048061933 0.09187867 0.101120695 -0.018079614 0.04707873 0.009871718 0.0057182726
-0.028871007 -0.043403845 0.08700077 0.049781427 0.105015084 0.09485457 0.07401281 0.027471052
-0.026984014 -0.04759581 0.076019295 -0.056526493 -0.013682085 0.07183341 0.02782131 0.03202979
0.05577798 0.07678919 0.053042665 0.053168807 0.07041193 -0.019529222 -0.00761357 0.12070362
0.016292827 0.013264064 -0.02094384 0.086215965 0.023420857 0.034240756 -0.016277058 0.048075903
0.07225906 0.014825976 -0.033282295 0.07679925 0.012864372 0.027991498 -0.04941032 -0.07598508
0.10099114 0.0584146 0.06240892 0.09915971 0.026313128 0.10006559 0.08665844 0.09841291
-0.021301316 0.104449876 0.09579887 0.02468525 0.031799633 0.09449597 0.03035625 0.0758445
-0.012052512 0.026178408 -0.053291608 0.13713475 0.056557514 0.0025586144 -0.05855676 0.053255986
0.075103745 -0.045914456 0.019382806 0.09522735 0.042139463 -0.022131393 0.050634783 0.008241375
0.018962052 0.053059485 0.07059609 0.049081974 0.0649525 -0.03626506 -0.037758816 0.0027335288
00000000: 3cb7 9fbc da1d 043c 1f27 87bd b704 32bd
00000010: a268 aa3c 4c4e 0cbd 8f36 44bd 497f 9fbc
00000020: b93c acbd 4140 8f3d 5368 a73c 94b1 b5bb
00000030: 5d45 113b bd5e 8f3d 479b 73bd 89e9 183c
00000040: 6ec4 ee3b 9ebb a03c ab92 46bc 4646 6abd
00000050: c210 c53d 2fef 09be 3dcc 70bd 20d8 883d
00000060: c237 1ebd 5c29 dd3c 8ccc da3d 3fa6 903c
00000070: c8bb e3bb fd10 13bd 3a92 8c3d 15e6 cf3d
00000080: ee29 6abc 11c8 0bbd b205 8b3d 1aaf a83b
00000090: eb31 ba3b 5979 223d 11c2 533c d7b8 a63d
000000a0: ba7f 5abd 97dc 44bd e22a bc3d 5e18 cf3d
000000b0: b31b 94bc a0d5 403d fcbc 213c 5960 bb3b
000000c0: e482 ecbc 3bc8 31bd 762d b23d 9ce7 4b3d
000000d0: 2612 d73d 1d43 c23d 0794 973d f90a e13c
000000e0: 940d ddbc d3f3 42bd 01b0 9b3d 5388 67bd
000000f0: d32a 60bc 651d 933d 84e9 e33c ab31 033d
00000100: 7377 643d a743 9d3d 4443 593d 89c7 593d
00000110: 2134 903d bffb 9fbc 417b f9bb 7633 f73d
00000120: 8978 853c 8451 593c 6a92 abbc ff91 b03d
00000130: 19dd bf3c 0940 0c3d 7757 85bc 3deb 443d
00000140: 8ffc 933d a7e8 723c 0453 08bd ed48 9d3d
00000150: 16c5 523c 6d4e e53c 7a62 4abd 119e 9bbd
00000160: 71d4 ce3d 2644 6f3d 7fa0 7f3d 3f14 cb3d
00000170: a18e d73c 30ef cc3d fb79 b13d b58c c93d
00000180: 1980 aebc d1e9 d53d 3332 c43d b938 ca3c
00000190: 5540 023d 1a87 c13d acad f83c 5c54 9b3d
000001a0: e677 45bc 1a74 d63c 4d48 5abd 0d6d 0c3e
000001b0: daa8 673d 6dae 273b 37d9 6fbd f322 5a3d
000001c0: fecf 993d cc10 3cbd b1c8 9e3c 8f06 c33d
000001d0: 6e9a 2c3d e54c b5bc 6b66 4f3d d506 073c
000001e0: 4e56 9b3c e754 593d af94 903d 2e0a 493d
000001f0: d105 853d ac8a 14bd fda8 1abd 0125 333b

weight f4 [128, 128]
0.064293675 -0.0035931508 -0.07330555 -0.058525052 -0.070707425 -0.04514458 -0.015948314 -0.011248815
-0.03171215 0.12010766 -0.13352339 0.036492053 0.106826216 0.0065015587 0.04437293 -0.05301601
0.09992417 0.094310105 -0.011636595 0.017648997 0.06901554 0.14855024 -0.06905079 0.09409121
0.044245444 0.06898316 -0.051462885 0.08114504 0.06529383 -0.08652041 0.032552972 0.043563448
-0.03622987 -0.0026545029 0.083515264 0.07665439 0.038024265 0.044436257 0.04114648 -0.08214099
-0.099548854 0.012328753 -0.0058447155 0.07337349 -0.017303867 -0.028109975 0.067769796 0.080446765
-0.015333377 0.07293835 -0.049975984 -0.07940268 -0.042083308 0.026085071 0.009665788 0.09114515
0.054919034 0.036703423 0.08438064 -0.044268176 0.06615168 0.03730467 -0.014413413 -0.03812531
0.10108792 -0.02225607 0.061177846 -0.011840004 0.098584995 -0.0604624 0.06936134 0.03443783
-0.017475776 0.047818795 0.059758257 0.06924566 -0.004257502 0.043787498 -0.003964155 0.10797968
-0.059403725 -0.04292856 -0.051685136 0.05728935 -0.07656736 -0.016196266 0.07563622 0.14651291
-0.010622537 0.038072783 -0.018299034 -0.040385988 -0.02306262 -0.025085324 0.018112864 -0.07331351
0.052017782 -0.04348508 0.0008215485 0.050274204 -0.0340452 0.05318557 0.07523611 -0.036567006
0.07798069 -0.060832143 0.01098734 -0.057090398 0.009744737 -0.008654697 0.052270714 -0.010099254
0.00790693 -0.027766274 0.023199901 0.018036043 -0.046226643 0.04633855 0.027214631 0.036159363
-0.03283206 0.004727139 -0.010050723 0.027443359 0.06352776 0.0963323 0.02416805 0.10813785
0.13509576 0.12977454 0.025843587 0.042577155 0.032569353 0.07079904 -0.0043204054 0.054626253
-0.0021165642 -0.039308984 0.054687522 0.049072366 -0.046538427 -0.05756794 -0.018051283 0.023346981
-0.0021138785 -0.051661935 -0.13007523 -0.0130639905 -0.071583614 -1.0184297e-36 -0.061254915 -0.021267764
-0.0244007 0.029824447 -0.022608388 -0.034338113 -0.062701665 0.07161013 -0.09438961 0.08533155
0.012101391 -0.023357876 -0.047275078 -0.0015530861 0.037214447 0.099246174 -0.032614436 0.082714565
0.08340703 0.13074927 -0.00039177667 -0.07222477 0.025331281 0.09371266 -0.079123735 -0.050447367
-0.02077909 0.0062456736 -0.06489514 0.100788414 -0.03322068 0.04687331 -0.0321712 0.10620972
-0.018609649 -0.052377686 -0.08110251 -0.04807174 -0.086763956 -0.036455523 -0.041285783 -0.032876298
-0.021807518 -0.087541126 -0.024950525 -0.014832377 -0.008368062 -0.08098017 0.016138142 0.050845426
-0.09560633 -0.13460082 -0.0023559306 -0.01702742 0.055178106 0.033246305 -0.041899156 0.047681294
-0.028062675 -0.0022271648 0.022507783 0.036943898 0.05562642 -0.09355075 0.03661326 -0.0047598477
0.07778701 -0.028610231 -0.0021392086 -0.02227857 -0.033753123 -0.01041251 -0.06944689 -0.086360484
0.0973188 -0.049978256 -0.058789324 0.0028473514 0.06339066 -0.07781384 -0.051527992 -0.10688697
-0.12055952 -0.04625347 0.026097462 0.036929388 -0.012287153 -0.055031724 -1.2933914e-36 0.041136224
0.021334821 0.019954428 0.032344837 0.08359254 -0.034703095 0.016791819 -0.026226014 -0.025794221
-0.08706741 0.01136777 -0.10858298 -0.11268964 -0.08302115 -0.037720654 -0.015724717 -0.04928739
00000000: 67ac 833d 117b 6bbb 3821 96bd f7b7 6fbd
00000010: 0ecf 90bd 86e9 38bd 0aa6 82bc f34c 38bc
00000020: 99e4 01bd 01fb f53d 5bba 08be b178 153d
00000030: b4c7 da3d 070b d53b 64c0 353d 5127 59bd
00000040: 0ba5 cc3d a825 c13d 6ba7 3ebc a194 903c
00000050: 0558 8d3d 8e1d 183e 806a 8dbd e4b2 c03d
00000060: b63a 353d 0b47 8d3d bfca 52bd 5f2f a63d
00000070: c6b8 853d 9d31 b1bd 4456 053d 966f 323d
00000080: c665 14bd 2bf7 2dbb 0d0a ab3d fafc 9c3d
00000090: 55bf 1b3d cb02 363d 3689 283d 8939 a8bd
000000a0: 45e0 cbbd 8afe 493c 0785 bfbb d744 963d
000000b0: d7c0 8dbc e446 e6bc e4ca 8a3d 46c1 a43d
000000c0: d838 7bbc b460 953d 9eb3 4cbd df9d a2bd
000000d0: 8c5f 2cbd 5cb0 d53c 415d 1e3c 4faa ba3d
000000e0: c8f2 603d 5456 163d c2cf ac3d 8c52 35bd
000000f0: 887a 873d c8cc 183d 3c26 6cbc 4929 1cbd
00000100: 2f07 cf3d 5d52 b6bc 9f95 7a3d 93fc 41bc
00000110: eee6 c93d 6ca7 77bd 510d 8e3d af0e 0d3d
00000120: 5c29 8fbc a4dd 433d 13c5 743d abd0 8d3d
00000130: 8482 8bbb 855a 333d bee5 81bb 7324 dd3d
00000140: 5251 73bd dcd5 2fbd cbb3 53bd 3da8 6a3d
00000150: 59cf 9cbd 08ae 84bc 2ae7 9a3d 7b07 163e
00000160: 260a 2ebc 35f2 1b3d dbe7 95bc c76b 25bd
00000170: d2ed bcbc bd7f cdbc 6e61 943c 6525 96bd
00000180: 9910 553d 691d 32bd 305d 573a 53ec 4d3d
00000190: fb72 0bbd 1dd9 593d 6415 9a3d 49c7 15bd
000001a0: 57b4 9f3d 202b 79bd 3e04 343c 9fd7 69bd
000001b0: 64a8 1f3c 6ecc 0dbc d119 563d 5777 25bc
000001c0: 118c 013c 1976 e3bc b80d be3c 53c0 933c
000001d0: 2658 3dbd 7ecd 3d3d 38f1 de3c d71b 143d
000001e0: e97a 06bd 1ee6 9a3b caab 24bc e5d0 e03c
000001f0: d81a 823d de49 c53d 13fc c53c 6177 dd3d
00000200: 8b56 0a3e 9ee3 043e eeb5 d33c 6265 2e3d
00000210: 7167 053d 16ff 903d 3092 8dbb c7bf 5f3d
00000220: 0eb6 0abb 7502 21bd 0600 603d 1b00 493d
00000230: 149f 3ebd 5ccc 6bbd 49e0 93bc 2b42 bf3c
00000240: ff88 0abb 779b 53bd 7132 05be 590a 56bc
00000250: 6e9a 92bd df46 ad83 6fe6 7abd bc39 aebc
00000260: fae3 c7bc 6652 f43c 3a35 b9bc 1fa6 0cbd
00000270: bb69 80bd 55a8 923d 574f c1bd 4fc2 ae3d
00000280: ea44 463c 0459 bfbc 83a3 41bd ec90 cbba
00000290: 2d6e 183d 9441 cb3d b796 05bd 4166 a93d
000002a0: 4ed1 aa3d 23e3 053e 6067 cdb9 95ea 93bd
000002b0: 8c83 cf3c 6cec bf3d a00b a2bd e6a1 4ebd
000002c0: e938 aabc 82a8 cc3b bee7 84bd 286a ce3d
000002d0: 6812 08bd 3afe 3f3d f3c5 03bd 7b84 d93d
000002e0: 4373 98bc fc89 56bd 1319 a6bd dfe6 44bd
000002f0: 4db1 b1bd 6352 15bd 481b 29bd 4ca9 06bd
00000300: aea5 b2bc c348 b3bd 0b65 ccbc 8003 73bc
00000310: 321a 09bc eed8 a5bd 2334 843c 4b43 503d
00000320: 40cd c3bd ccd4 09be f565 1abb 177d 8bbc
00000330: 7002 623d 472d 083d 739e 2bbd 764d 433d
00000340: b2e3 e5bc a0f5 11bb 3e62 b83c 7c52 173d
00000350: 87d8 633d 8997 bfbd c9f7 153d 7ff8 9bbb
00000360: cc4e 9f3d 0160 eabc f731 0cbb 8c81 b6bc
00000370: b740 0abd 3b99 2abc 2c3a 8ebd c4dd b0bd
00000380: 144f c73d 00b6 4cbd 13cd 70bd a19a 3a3b
00000390: f6d2 813d dd5c 9fbd 040f 53bd 8ee7 dabd
000003a0: e9e7 f6bd 4774 3dbd 58ca d53c 4543 173d
000003b0: 0e50 49bc f268 61bd 240f dc83 757e 283d
000003c0: 5dc6 ae3c 7877 a33c 057c 043d 9132 ab3d
000003d0: d524 0ebd ff8e 893c f0d7 d6bc 674e d3bc
000003e0: 6650 b2bd e23f 3a3c c160 debd d3c9 e6bd
000003f0: fe06 aabd f980 1abd 1fd1 80bc 93e1 49bd

bias f4 [128]
0.09450634 -0.008195901 -0.040391263 -0.0871215 0.12545617 0.039194193 -0.03370201 0.08193466
0.009549058 0.10899616 -0.0658893 0.057156865 0.10913018 0.042821046 0.049551222 -0.0049900524
-0.046640806 0.09983043 0.0019491132 -0.0135960905 0.11534299 0.0010549428 0.07957675 -0.065602645
-0.000102474485 0.029566942 -0.020660814 -0.0070533655 -0.0065191765 -0.021041112 0.11298876 -0.014745009
0.10626491 0.04530001 0.0686937 0.052067533 0.06928238 0.09014727 0.120991625 0.04696617
0.105582036 -0.016072683 -0.02648395 0.0779161 0.025526997 0.060167093 0.09811694 -0.029125907
0.03630334 0.03550511 -0.0650063 0.0533547 0.06754559 -0.10046946 0.08661984 0.021084609
0.08458772 0.07708545 0.012661233 -0.017697042 0.09017627 0.0744151 -0.0034174703 0.070637226
0.037240658 0.019617131 0.112489074 0.033414666 0.08238262 0.06846763 0.000917094 0.121107586
0.12308553 -0.05586199 0.08788811 0.087988354 -0.02572549 0.1154122 -0.050074134 0.025089346
0.06907318 0.06548169 0.07290101 0.03756329 0.082910664 0.011833426 0.11558217 -0.05731438
0.035360307 -0.055142798 0.020208376 0.031034004 0.12521854 0.0024309552 0.07424093 0.034165494
-0.086236276 0.025668582 -0.06852644 0.04184662 0.0609062 -0.026310606 0.12759529 -0.010150335
0.0025751155 0.06564584 0.062804 0.023566974 0.097161934 0.04108258 0.010476302 0.10470668
0.101503566 0.019707885 0.014962934 0.048939466 0.117547214 0.061805278 0.008708311 0.088838525
0.09679456 0.024451414 -0.020229984 0.1034086 0.00915061 0.028112302 -0.025772855 0.10616758
00000000: 8a8c c13d 1a48 06bc 4f71 25bd c26c b2bd
00000010: 9577 003e 178a 203d 1e0b 0abd 5ccd a73d
00000020: a773 1c3c 6139 df3d f8f0 86bd 511d 6a3d
00000030: a57f df3d 1f65 2f3d 39f6 4a3d 9883 a3bb
00000040: 6e0a 3fbd e573 cc3d 6379 ff3a 23c2 5ebc
00000050: f238 ec3d 0246 8a3a 23f9 a23d ae5a 86bd
00000060: 92e7 d6b8 5f36 f23c de40 a9bc eb1f e7bb
00000070: d19e d5bb 695e acbc a766 e73d 0d95 71bc
00000080: 6ba1 d93d 818c 393d 48af 8c3d c444 553d
00000090: ece3 8d3d 229f b83d 75ca f73d 995f 403d
000000a0: 653b d83d dcaa 83bc def4 d8bc 7a92 9f3d
000000b0: fe1d d13c c571 763d 89f1 c83d 7499 eebc
000000c0: d0b2 143d ce6d 113d 0622 85bd 758a 5a3d
000000d0: 5855 8a3d efc2 cdbd be65 b13d a1b9 ac3c
000000e0: 543c ad3d fade 9d3d 0f71 4f3c 63f9 90bc
000000f0: 56ae b83d f266 983d a3f7 5fbb 40aa 903d
00000100: a989 183d 1bb4 a03c ac60 e63d d1dd 083d
00000110: 38b8 a83d c238 8c3d 2369 703a 4107 f83d
00000120: 4414 fc3d 8bcf 64bd aefe b33d 3d33 b43d
00000130: 43be d2bc 3b5d ec3d 891a 4dbd 2c88 cd3c
00000140: 3d76 8d3d 441b 863d 204d 953d f7db 193d
00000150: 11cd a93d fce0 413c 58b6 ec3d 7cc2 6abd
00000160: f8d5 103d 6add 61bd 098c a53c 063b fe3c
00000170: 4a39 003e a950 1f3b a10b 983d 1ef1 0b3d
00000180: a59c b0bd eb46 d23c 9757 8cbd 5d67 2b3d
00000190: c878 793d 5789 d7bc 57a8 023e 974d 26bc
000001a0: 45c3 283b 5371 863d 629f 803d 870f c13c
000001b0: d6fc c63d 3546 283d cca4 2b3c 7570 d63d
000001c0: 1ae1 cf3d 6e72 a13c 1827 753c c074 483d
000001d0: 98bc f03d 8827 7d3d 4ead 0e3c f9f0 b53d
000001e0: 3a3c c63d 554e c83c 5ab9 a5bc e3c7 d33d
000001f0: 71ec 153c c54b e63c 9821 d3bc 636e d93d

weight f4 [1, 128]
-0.041922577 0.1374668 0.09782692 0.0025759267 -0.101409875 0.13916664 0.066652134 -0.09919484
0.07237712 0.07737186 0.07450155 0.108807445 0.11444758 -0.022709124 0.14140154 0.11414217
-0.040145233 -0.055287763 -0.060651544 0.15445179 -0.031894792 -0.06055841 0.09387995 0.077574365
0.0050784466 0.1334871 0.076709464 -0.07439913 0.10179275 0.111549705 -0.050910924 0.13916503
-0.099042386 0.11489238 -0.084848605 -0.065200694 -0.027232204 -0.10165655 0.10446529 0.058258187
-0.09011275 -0.097698644 -0.044778135 -0.03564498 0.07175831 0.0712226 0.06517142 0.041926615
-0.036365625 0.078313045 0.14013208 -0.023453597 0.022135992 -0.015843604 -0.022020306 -0.08952779
-0.042300716 -0.06685425 -0.033195484 -0.09443271 0.1252177 0.09796788 -0.096292436 0.081022136
0.14003521 0.1204535 0.10373081 0.058484823 0.121702164 -0.025718987 0.0022835599 -0.027007984
-0.057775345 0.005405897 0.12230101 -0.034241244 0.0006183887 -0.054463048 0.14530943 -0.019814858
-0.07472283 -0.05631252 0.13325784 0.07686353 0.061048426 -0.042358078 -0.021061482 0.060462773
-0.053516388 -0.08121999 -0.026656173 0.068009645 -0.060466126 -0.0533444 0.102987036 -0.03619778
0.02851991 -0.03183508 -0.056732196 0.11803342 -0.095992714 -0.006625186 -0.038181603 -0.0004037666
0.02977111 -0.066370584 0.113703966 -0.07783507 0.03840134 0.06772221 -0.05151399 -0.08210356
0.10033032 -0.06571202 -0.09676617 0.090936154 -0.023652824 0.048310004 -0.089911506 -0.033501226
-0.04808415 0.11514549 0.04640126 -0.09830528 0.10892466 0.11422305 0.08783382 -0.08732471
00000000: 02b7 2bbd 19c4 0c3e 7b59 c83d e1d0 283b
00000010: fbaf cfbd b381 0e3e ea80 883d aa26 cbbd
00000020: 753a 943d 2375 9e3d 4594 983d 70d6 de3d
00000030: 7e63 ea3d 7c08 babc 91cb 103e 5fc3 e93d
00000040: 546f 24bd 6c75 62bd c16d 78bd 9c28 1e3e
00000050: 1da4 02bd 180c 78bd 2244 c03d 4fdf 9e3d
00000060: 1969 a63b d8b0 083e da19 9d3d 925e 98bd
00000070: b878 d03d 2c74 e43d f987 50bd 4781 0e3e
00000080: bcd6 cabd b24c eb3d 1bc5 adbd f187 85bd
00000090: 1216 dfbc 4f31 d0bd e6f1 d53d 23a0 6e3d
000000a0: 098d b8bd 3a16 c8bd 4769 37bd 7800 12bd
000000b0: 05f6 923d 28dd 913d 9878 853d 3ebb 2b3d
000000c0: 1ff4 14bd 9762 a03d c97e 0f3e c221 c0bc
000000d0: 8a56 b53c 72ca 81bc ee63 b4bc 595a b7bd
000000e0: 8443 2dbd e2ea 88bd fdf7 07bd f065 c1bd
000000f0: 1239 003e 62a3 c83d f834 c5bd efee a53d
00000100: 6465 0f3e 53b0 f63d d270 d43d c88d 6f3d
00000110: fc3e f93d a0b0 d2bc c7a7 153b d93f ddbc
00000120: d7a5 6cbd f323 b13b f478 fa3d 8c40 0cbd
00000130: 5d1b 223a a514 5fbd ffcb 143e c552 a2bc
00000140: 4808 99bd f5a7 66bd be74 083e a06a 9d3d
00000150: ea0d 7a3d aa7f 2dbd 2189 acbc d0a7 773d
00000160: 0034 5bbd ab56 a6bd 0c5e dabc a448 8b3d
00000170: 54ab 77bd a87f 5abd deea d23d 2044 14bd
00000180: 96a2 e93c 8065 02bd 0560 68bd 81bb f13d
00000190: d497 c4bd 1718 d9bb 5064 1cbd a3b0 d3b9
000001a0: 8be2 f33c 4ded 87bd a0dd e83d fe67 9fbd
000001b0: b94a 1d3d f1b1 8a3d 5500 53bd e925 a8bd
000001c0: fc79 cd3d 0694 86bd 572d c6bd bc3c ba3d
000001d0: 91c3 c1bc b6e0 453d 8623 b8bd 9538 09bd
000001e0: e3f3 44bd 66d1 eb3d 3f0f 3e3d 4754 c9bd
000001f0: e413 df3d c6ed e93d 38e2 b33d 4cd7 b2bd
