bike_sharing/AutogluonModels/ag-20220404_171935/models/NeuralNetFastAI_BAG_L2/S1F2/model-internals.pkl (torch, 226449 bytes, 21 tensors)

weight f4 [4, 3]
00000000: 51bd 703e e13a 1a3e e0e5 44be 4282 c7bd
00000010: cbfa acbd 0ad3 ca3c 0acc ef3d b1e1 0abe
00000020: 9d1a 503c 9d99 223e 2ada 243e 2e3d 50be
0.23509718 0.15061523 -0.19228315 -0.097416416 -0.084462725 0.024758834 0.11708839 -0.13562657
0.012701658 0.15878911 0.16098848 -0.20335838

weight f4 [13, 7]
00000000: b4d0 d53a 3403 7abc 03c4 94bb 3deb b1ba
00000010: 5fe7 44bb a60b 163c 64c2 19bc de44 4d3e
00000020: f65e 2dbd f00f 8c3e 7449 513d 65fa cb3d
00000030: 6173 8a3d 07a3 6c3e e6ec 36bd c07c 223b
00000040: dafd 0b3e 69d4 f53b ac22 8e3e 07d9 033d
00000050: 1abf b03c ee10 dcbc 6d4b 9fbe 7926 933c
00000060: 8ec0 793e f062 483e 1653 bc3e d0cf d23c
00000070: 1dab 41be 2fe1 fb3b 84c0 9a3d 7af9 cc3d
00000080: 8c28 333e 4603 1c3e 30ed 08bd ccfd 543e
00000090: 4b69 a7be 71cc b7bd 183e ad3d 161a 973d
000000a0: 8cdc 4ebe 9a35 52bc 38d9 3cbe ab88 d3bd
000000b0: f66e 6fbd 9d0a 0a3e 3640 fbbd e69b 81bd
000000c0: c7fa 0e3e 8171 98bd a137 333d ccb2 b9be
000000d0: 4f2a 86bd faa2 553e 40c5 bebd 2376 e33d
000000e0: 0c8e 843e a862 3e3e 1a32 9fbd f788 ac3c
000000f0: bf61 593c 7d04 2b3b 5cf3 eebc e1ff afbe
00000100: a449 3bbe 8367 243d 15d1 3a3e a66a 9bbe
00000110: 7b4e 4ebb bdba 053e 9204 af3c 9517 373e
00000120: 01dc e7bc 5250 11bd 5601 04be 2c89 3b3d
00000130: fa49 84be 52b0 b93d 5b75 14bc 7076 e7bc
00000140: c22b ecbd 0490 0d3e 5add aebd 7b72 0c3e
00000150: bb7b 9a3a 4436 cf3d 2e7d 363d 7f92 3abe
00000160: cd48 0c3c 140d 28bd 2869 143e
0.0016312809 -0.015259553 -0.004539968 -0.0013574135 -0.0030045134 0.009158051 -0.009384725 0.20045802
-0.04232689 0.2735591 0.05109544 0.09959868 0.06760288 0.23109065 -0.044659518 0.0024793595
0.13671055 0.007502128 0.27760828 0.032189395 0.0215755 -0.026863541 -0.31112233 0.017962681
0.2438986 0.19568992 0.3678214 0.025733858 -0.18912931 0.007686756 0.07556251 0.100085214
0.17495936 0.15235624 -0.033429325 0.20799941 -0.3269752 -0.08974541 0.08459109 0.073780224
-0.2020132 -0.012830162 -0.18442237 -0.10328802 -0.05845543 0.13480611 -0.12268107 -0.063285634
0.13962851 -0.07443524 0.043754224 -0.36269224 -0.065510385 0.20862952 -0.09314966 0.11106517
0.25889623 0.18592322 -0.07773228 0.021061404 0.013267933 0.0026095205 -0.029168777 -0.34374908
-0.1828981 0.04013778 0.18243821 -0.30354804 -0.0031479883 0.13059516 0.021364484 0.1788009
-0.028303148 -0.03547699 -0.12891135 0.045785114 -0.2583769 0.090668336 -0.009061183 -0.028254718
-0.11531784 0.13824469 -0.08538313 0.13715546 0.0011786142 0.10117772 0.044552974 -0.18219946
0.008562279 -0.041028097 0.14493239

weight f4 [25, 10]
00000000: 92d1 fdbb 009a 5f3b bf7e 7abc 95e0 92bb
00000010: 747f b339 dd5e 54bb fbdd 6cbb 4530 0dba
00000020: 85e1 023c c0e2 d33b d4e8 f93d a37c 3abd
00000030: c9fc 5b3d 6588 243d 0935 81bd 3cd3 f6bd
00000040: 6e82 34be 20b0 743d 820f 493c b541 b1bd
00000050: 8b10 8b3e 43bf 28bd 187b b63c 984c 2a3d
00000060: d87e 6d3b 682a c3bd bb0f 90bd c5d3 fb3d
00000070: 62f0 9fbd 949c acbd 7307 d93d 4b15 f7bc
00000080: 97fc ae3c 7cef 32bd 7847 c93c f43d 13be
00000090: a927 9fbd db14 f53d c897 efbd c40b 29be
000000a0: 132a 5f3d eff0 413d 6362 243d 0909 96bb
000000b0: 13f4 d13d 16c7 02be 34a0 86bd 8ed1 7bbc
000000c0: d1df 8bbd 5355 edbd 344a 8fbd cc51 873d
000000d0: ae8f b73d 81b8 723c da46 273e 61cb 30be
000000e0: a71b 97bd 2d2b 87bd ecc1 95bd 924e 09be
000000f0: f43c eabd a887 433d c14b 7abd b1bf a0bc
00000100: 660b 173e 46aa 70bd d70c d8bb d8a2 33be
00000110: e122 13bb b66c 92bd 7559 19be f0a6 983d
00000120: 3ff3 16bd 66d2 293d 2e99 6f3e 4dfd c73c
00000130: c02c ec3d 6634 1cbe 6d8c 383e 1d1f 863c
00000140: 0073 cf3c ebed 6e3e 7a69 0e3e d566 3bbe
00000150: 8bd5 363e 14ec cbbd 36a9 8f3d 8030 37be
00000160: 137b d53d 1fd0 3cbc 9088 ab3d 55a7 113e
00000170: d4aa 10be 2aea 5ebe 1a49 113e d3a3 35bd
00000180: 4ce6 69bc d08b 68be fd57 613d 907b bbbd
00000190: 2b08 023e 8551 793d 13e0 0f3d d5a2 34be
000001a0: dcfa 26be cba3 703d 011e 703e fdf7 823d
000001b0: ac95 363e 6428 2a3e 8322 66bd 7811 f6bd
000001c0: 5b6b ec3d 4863 fe3d a88c 9f3d b1ad dcbd
000001d0: 17b8 89bd e009 313e 4e3b 463e 3e69 39bd
000001e0: 4e40 25bc ad7a 93be cd47 d33d e841 d13d
000001f0: e00f be3c 37dd 083d e1ff 753d a5ec 4d3e
00000200: ee06 013e aafd d13b d962 d1bc 5a64 23be
00000210: dc3d 333e 1ebd b93d 1d34 54bd 6165 c73d
00000220: df2b 203d 519f 933c 7d35 eebd 3bc5 093e
00000230: ab5b 12bb 3316 dbbd 05f8 da3d 5e00 353e
00000240: 2ae3 1bbd e4fd 8bbc b1d6 0d3e 6c2f c93d
00000250: 8f70 5ebe 33fe 193e 95b0 a03d 8837 fabd
00000260: e307 073c b3d1 863e e06f fc3d 2c10 04bd
00000270: 7311 2f3b e592 7f3e 5f8f 383d 28e7 d9bc
00000280: 8a5e af3e 2cff 01be f48b 9e3d c253 063e
00000290: 9487 f03b f498 9e3d 59f7 d73c ef30 033e
000002a0: 0ae3 34bd 2759 673d 542f 8a3d 5e52 1abe
000002b0: 6bed 5e3d 676a aebd 9d32 58be a79a 80bc
000002c0: 5481 f83d 2cdb 803d ea65 38bd dc1b 82bd
000002d0: 9fe9 1fbe 69ba 143d ee95 993d a080 d9bd
000002e0: 08f5 0d3d 2811 5c3e 3cf6 1bbd 9cbd e53b
000002f0: 82b1 4cbe 0fd2 14be c27f aebd 76b0 9a3c
00000300: 6749 1dbe 9752 053c 1fce 5a3d 1708 223b
00000310: ce2c 4ebd a806 5bbd 9f90 59bd fc9c cbbc
00000320: f00c 7cbd 31c4 d73d b6f8 58be 8533 27be
00000330: 72a9 973d 9632 e13d cedc 473d 247b 32bc
00000340: 457c 13bd 2095 443d b4f7 8fbd 8dc1 d73d
00000350: 0139 56bd 36b0 30bd 99ce f6bd ffcf d33d
00000360: 4716 49bd f6b2 9cbd 569f 913d 588f 083e
00000370: 07e8 2dbe 4e2b 9a3d 60fe 75be 6159 0c3d
00000380: d420 ecbd e6d6 e23d d073 77be 240a e93d
00000390: 1e30 303e 881e c33d 2a9e 01bd 1531 203e
000003a0: 6436 843d 9eac a0bd 51b4 58be 3964 e6bd
000003b0: 74be fabd 8d7a 92bc f0ec 4c3e 5375 9c3d
000003c0: ffa4 723d 9732 2bbc e2f0 efbd 9dbc 1f3d
000003d0: 648b 92be a366 fbbd d260 2fbd 7d03 bb3c
000003e0: 6ea1 433e f992 f2bd
-0.00774593 0.003411889 -0.015289008 -0.0044823387 0.000342365 -0.0032405176 -0.0036143053 -0.0005385916
0.007988338 0.0064662397 0.122026116 -0.04552902 0.05370787 0.04016914 -0.06308944 -0.120520085
-0.1762788 0.05973828 0.012271764 -0.08655111 0.2716106 -0.041198026 0.022275493 0.04157695
0.0036238935 -0.09529573 -0.0703425 0.12296251 -0.07809521 -0.084283024 0.10597124 -0.03016152
0.021360679 -0.04368542 0.024570212 -0.14379102 -0.077712364 0.119668685 -0.11698872 -0.16508394
0.054483484 0.047348913 0.04013289 -0.004578714 0.102516316 -0.12771258 -0.06573525 -0.015369786
-0.06829799 -0.1158854 -0.06996575 0.066073984 0.089629516 0.014814497 0.16335621 -0.17265083
-0.07378321 -0.06600032 -0.07312378 -0.13408878 -0.11437407 0.047736794 -0.0611074 -0.019622656
0.14750442 -0.058756135 -0.0065933275 -0.17542589 -0.002245121 -0.07149641 -0.14975531 0.07453716
-0.03685307 0.041460417 0.23398277 0.024412775 0.11531973 -0.15254363 0.18022318 0.016372258
0.025323391 0.23332946 0.13907424 -0.18300946 0.17854898 -0.09957138 0.07014696 -0.17889595
0.10423865 -0.011524229 0.083756566 0.14223988 -0.14127666 -0.21769014 0.14188042 -0.044345688
-0.014276098 -0.22709584 0.055015553 -0.09154427 0.12698428 0.06086876 0.035125803 -0.1764024
-0.16306633 0.058749955 0.23448946 0.06394956 0.17830533 0.1661697 -0.056185257 -0.12015051
0.11543914 0.1242128 0.077905 -0.107753165 -0.067245655 0.17288923 0.1935856 -0.045266382
-0.010086132 -0.28804532 0.10316429 0.10217649 0.02320093 0.033414092 0.06005848 0.20109804
0.126003 0.006408413 -0.02555983 -0.1595625 0.17504066 0.09069274 -0.05180751 0.09736133
0.03910434 0.018020304 -0.11631296 0.13454144 -0.002233247 -0.106975935 0.10691837 0.17675921
-0.038058437 -0.017088838 0.1385143 0.09823498 -0.21722625 0.15038376 0.0784618 -0.12217623
0.008241626 0.26331863 0.12326026 -0.032241985 0.0026713281 0.2495838 0.045058604 -0.026599482
0.34251815 -0.12694997 0.07741538 0.13117889 0.007340381 0.07744017 0.026363062 0.12811635
-0.044161834 0.056481507 0.067473084 -0.15070483 0.05442564 -0.085163884 -0.21113057 -0.015698744
0.121340424 0.06291804 -0.045019068 -0.0635297 -0.15616463 0.036310587 0.074993 -0.106202364
0.034657508 0.2149092 -0.038076624 0.0070111286 -0.19989589 -0.14533256 -0.085204616 0.018882971
-0.15360032 0.008137367 0.05341923 0.002472406 -0.050335698 -0.053473145 -0.053116437 -0.02485513
-0.061535776 0.105354674 -0.21188626 -0.16328247 0.07405366 0.109959766 0.04879456 -0.010893617
-0.036007185 0.04799378 -0.070296675 0.10534964 -0.052300457 -0.043136798 -0.12051124 0.103424065
-0.04909351 -0.076513216 0.07110469 0.13335931 -0.16983043 0.07527791 -0.24022818 0.034264926
-0.11529699 0.11076145 -0.24165273 0.11378887 0.17205855 0.09527308 -0.031644978 0.15643723
0.06455687 -0.07845424 -0.21162535 -0.11249585 -0.12243357 -0.017880702 0.2001226 0.07639565
0.059239384 -0.010449073 -0.117158666 0.038998235 -0.28621972 -0.12275436 -0.042816944 0.022828812
0.1910455 -0.11844439

weight f4 [4, 3]
00000000: 417b 03bb aec4 a7bb 7d7d 943b bbc7 c0bd
00000010: 3b83 b93d bf78 6dbe bbcf 063c 2d49 133e
00000020: 3bcc e43c 477f abba 85bb e3bd 249b a5bc
-0.0020062479 -0.0051198816 0.004531561 -0.094130956 0.09058233 -0.23190592 0.008228238 0.14383383
0.027929416 -0.0013084196 -0.11119751 -0.020215578

weight f4 [5, 4]
00000000: c4d0 913a 6c62 0b3c eec3 f7bb b64e 2b3b
00000010: e97f 13be e9df 2bbe 1fe6 c2be 8219 fa3d
00000020: 0e1b ef3d 0cb8 76bd 10b6 963d efd8 ac3d
00000030: cb26 213e e716 b73d 082c 013d 94fd cfbd
00000040: b2f6 3fbe aeb2 11bd db84 3c3c a1c9 f4bd
0.0011124839 0.008507352 -0.0075611984 0.0026139445 -0.14404263 -0.16784634 -0.38066193 0.122118965
0.11675082 -0.060234115 0.073589444 0.08439814 0.15737455 0.08939915 0.031536132 -0.10155788
-0.1874645 -0.035570793 0.011506285 -0.1195252

weight f4 [4, 3]
00000000: 90e9 813c 0ee0 48bc f7f7 0abc fcb9 563e
00000010: 74d6 26be 0a95 bc3d 7d68 85bc 7d1f 13be
00000020: 67af 9abd ea36 ecbd 582e 45bc 9e84 0a3e
0.015858442 -0.01226045 -0.008481971 0.20969385 -0.16292745 0.092081144 -0.016285175 -0.1436748
-0.075529866 -0.115339115 -0.012034975 0.13527152

weight f4 [11]
00000000: 7ec4 543f 92b6 6d3f 0984 803f d3b7 6d3f
00000010: bebd 673f 1574 583f 4273 993f c6ce 8f3f
00000020: 01b6 863f 974a 743f a90d 693f
0.83112323 0.92856705 1.0040294 0.9285862 0.905239 0.8455213 1.1988299 1.1234977
1.0524293 0.95426315 0.9103647

bias f4 [11]
00000000: aa3c b6bd cf6f ab3b 24fc 6fbd ed61 d53c
00000010: 87ab 403c df56 4f3e 3e0e 05be 722e 123d
00000020: 1eb2 b83d 4e19 cbbd 6ef8 d33a
-0.088982895 0.0052318345 -0.05859007 0.026047671 0.011759645 0.20247982 -0.12993714 0.035688825
0.09018348 -0.09916936 0.001617206

running_mean f4 [11]
00000000: f298 ab3a 5a01 98bc 641f 61bc 11ed 4fbb
00000010: fa68 003c fa68 003c 4b9b 4abc 9ed2 34bc
00000020: ac78 37bc fbb0 15bc 022c 59bc
0.0013091846 -0.018555332 -0.013740394 -0.0031726996 0.007837528 0.007837528 -0.012366126 -0.011036543
-0.011198204 -0.009136434 -0.013255121

running_var f4 [11]
00000000: 8922 813f 7cfd 813f 6e07 803f ef49 7e3f
00000010: fa80 803f fa80 803f be16 7d3f dd0f 7d3f
00000020: 5178 7c3f 7d75 783f 293c 7c3f
1.0088664 1.0155482 1.0002267 0.99331564 1.003936 1.003936 0.98862827 0.9885233
0.9862109 0.9705427 0.985293

weight f4 [200, 41]
00000000: 85a5 a73d 6b2b 98be ad4f 4ebb 50ac 753e
00000010: fcce 123e 0be9 b0be e776 07be aeaa 9c3e
00000020: 4826 25be 69bc 2d3d 5c3d 243e 2939 7b3d
00000030: 7ab3 8cbd 36cb 75bd aab7 30bb fd03 443e
00000040: 3d5a 89bd addc 0c3e 898f a5bd 1f2d 37be
00000050: 0bf9 37bd b6df 363d 66b3 4bbe 99c4 243e
00000060: b963 3fbe 88ae 2b3e b5f5 363e 54cf f73d
00000070: 2134 57bd d909 3a3e 6110 7c3d 9ec5 c7bd
00000080: defd d63d 1beb 78bd 8427 2e3c 4368 7ebd
00000090: 9388 21bd a742 ecbc 0573 adbc a802 2ebe
000000a0: 6295 343d ae60 3cbe 9fd7 b23d baf7 18bd
000000b0: 3a44 063d 6742 4eba bf62 40bc 82b9 51be
000000c0: 5503 393b 8223 2e3d 4e50 19be a621 89be
000000d0: 1dcf 33be 084e af3d 794e 793c a660 0dbe
000000e0: c9ae ce3d 74a5 a338 cff0 523e e4c8 9fbe
000000f0: 2798 3fbe ed82 1d3d 2e2f 193e 1a1a 25be
00000100: fb7f cebe bcde 7bbc de59 23be 5b2d d8bd
00000110: bfe5 ba3c 6026 9a3e af27 923d f57b 95bd
00000120: 90bc a9bd 6372 2e3c c10c b5bd 566d d7bc
00000130: a0cf 22be 346b c43d 1a61 fabd 280b f23d
00000140: c4b6 45bd 1256 d4bd 5c35 dabe 8ab8 39be
00000150: 50e4 ea3e 417b 7cbd 960b 34bf fc59 283f
00000160: 4dfe ca3e a030 61bd 2ffc 6e3e 0e82 df3e
00000170: f062 32be 75f0 a1bb e667 d93d 4be1 78be
00000180: 9b06 dd3d 7fac d9bd 039a babe 62e2 8cbd
00000190: 4282 893e 07a9 9bbd 770d 80bd 08c8 b13c
000001a0: 4996 16be 8044 60be a994 92bc 83d2 5e3d
000001b0: 4f9c 7d3b eec9 8b3d bea0 553e 7056 81be
000001c0: 1cd6 e83d 48f0 18be 619f 3dbe 95dc d13c
000001d0: 940a 063e e626 af3c ab2d fd3c d14e 11be
000001e0: 80d3 973c 72f0 ecbc 7532 cc3c 1a8b 343e
000001f0: 5d90 123e 7fa3 51bd 1a7d 1d3d 39e1 283e
00000200: 7497 313e 6fbe 31bd 8c6c 7abd 5d0f 243e
00000210: 1bf8 c6be 62de 64bc d879 af3c c05f b2bd
00000220: 8fc4 80bd 041f 073e 6c12 70bd acb6 a63c
00000230: 5275 b23d ca62 11bd c913 71be 79eb 9d3d
00000240: f868 f7bc 6b9f c33d 867a 333e 1c27 253d
00000250: d138 f0bd 8384 803c dbf8 4a3e d19c e83b
00000260: 93aa 13bb 52d4 12be 39ef 1d3d 90a4 70bd
00000270: b124 e0bd 5322 59bd 269b b0bc 84cf 2cbe
00000280: 6319 14be 9eec ccbc 7d83 e9bd 6e02 b5bc
00000290: 48e0 88bd 106f 813c fe9c e73c 17de 7abe
000002a0: e272 c3be 49fa 813e 6b8d a93e aef3 15bd
000002b0: dd54 afbb 2f05 05be 54e6 b2bd dbbb e7bd
000002c0: a168 583d 369a d5bd 9a3a af3b 9da8 b13d
000002d0: 5183 e3bd 6fa4 b8bc 1921 7cbd b507 80be
000002e0: d9f7 26bd 0e81 18be 6632 a2bc e735 e6bb
000002f0: 4bc6 203e 7689 d6bd 7873 4ebd 3d7f 53be
00000300: ee08 b43e fcf2 28bd ee1d 61bd 97b3 9c3d
00000310: 5f55 39bc 0a27 793d 4f86 71be 6273 1bbe
00000320: b5bd bcbc 7f9e 493e 9c0e 893d 88bc c7bd
00000330: 6cc2 f53c cd5f 9ebc ea25 3abe 1380 a6bc
00000340: 6c9e a4be 37bd cb3c 0a21 00be 3eef a2bd
00000350: e6fc d83c a1c6 5c3d 1de3 50bc c7de 19be
00000360: 3c56 b8bc 9f99 74be 4609 3fbe 9e69 453e
00000370: a597 2e3e 2435 c23c a7e2 6abe 17b5 20be
00000380: 9ad7 90bd 734e 3f3e 62f7 b73e 1ffc 2c3d
00000390: 8006 82be 4e42 88bd 885e 7c3d ba47 803d
000003a0: 2064 aa3c 7919 a63d acb8 6d3e 47dd 9abd
000003b0: d4dd 993d 6356 12bd 9f0a 883d 43a8 043e
000003c0: bc25 093e a14f 12be 055c c0bd 5f22 94bd
000003d0: fa03 aebd fef7 193e 0fc3 bcbe 772e a6be
000003e0: dfee 0f3e 83a1 d7be 036a 91bd 1321 9b3d
000003f0: 014b 09be b784 51be d8be 0f3e 1de0 1b3e
0.08185867 -0.29720625 -0.0031480596 0.23991513 0.14336771 -0.34552798 -0.13228951 0.30598968
-0.16127884 0.04241601 0.16039032 0.06133381 -0.0687017 -0.06000825 -0.002696494 0.19142146
-0.06706665 0.13756056 -0.08084018 -0.17888306 -0.04491524 0.04464694 -0.19892654 0.16090621
-0.18690385 0.16765797 0.17867167 0.121000916 -0.05253995 0.18167819 0.061539058 -0.09754489
0.1049764 -0.06077109 0.010629538 -0.06211115 -0.039436888 -0.028840376 -0.02117301 -0.16993201
0.044087775 -0.18396255 0.08732533 -0.037345625 0.03277991 -0.0007868171 -0.011742293 -0.20480922
0.0028230746 0.04251433 -0.1497204 -0.26783484 -0.17559476 0.08559805 0.015216463 -0.138064
0.100919314 7.803264e-05 0.20599674 -0.31207955 -0.18710385 0.03845494 0.14959404 -0.16123238
-0.40332016 -0.015372928 -0.1595225 -0.10555526 0.02281463 0.30107403 0.07136475 -0.072990336
-0.082879186 0.010647389 -0.08840323 -0.026297253 -0.15899515 0.0959076 -0.12225552 0.11818534
-0.048270002 -0.10367979 -0.42618835 -0.18136802 0.45877314 -0.06164098 -0.7033018 0.65762305
0.3964714 -0.054978013 0.23338388 0.4365391 -0.17420554 -0.004941995 0.1061552 -0.24304692
0.107922755 -0.10628604 -0.36445627 -0.068791166 0.2685719 -0.07600599 -0.06252568 0.021701828
-0.14705767 -0.2190113 -0.017893152 0.05439998 0.0038697904 0.068256244 0.208621 -0.2526126
0.11368963 -0.1493541 -0.1851783 0.025617877 0.13089973 0.021380853 0.030905565 -0.14190222
0.018533468 -0.028923247 0.024926404 0.17631188 0.14312883 -0.051181313 0.038449384 0.16492166
0.17342931 -0.043394502 -0.061138675 0.16021486 -0.38861164 -0.013969036 0.021420404 -0.08709669
-0.062874906 0.13195425 -0.05861132 0.020350777 0.08713783 -0.035494603 -0.23542704 0.077109285
-0.03020142 0.09551891 0.17527208 0.0403205 -0.11729587 0.015688187 0.19821493 0.007098772
-0.002253209 -0.14338806 0.03855822 -0.05875069 -0.10944498 -0.05301125 -0.021558356 -0.16876036
-0.1446281 -0.025015172 -0.114020325 -0.022095885 -0.06683403 0.015800029 0.028273102 -0.24498783
-0.38173586 0.25386265 0.33115706 -0.036609344 -0.0053506927 -0.12990259 -0.08735338 -0.113151275
0.052834157 -0.10429804 0.005347562 0.086747386 -0.11109031 -0.022539346 -0.061555002 -0.2500588
-0.04076371 -0.1489298 -0.019799422 -0.0070254686 0.15700643 -0.10475437 -0.05040309 -0.20654006
0.35163063 -0.041247353 -0.054960184 0.076514415 -0.011311858 0.060828246 -0.23586391 -0.15180734
-0.023039678 0.19689368 0.0669224 -0.09752756 0.029999934 -0.01933279 -0.18178526 -0.020324742
-0.32152116 0.024870498 -0.12512603 -0.07955788 0.026487779 0.053900365 -0.0127494605 -0.15026389
-0.022502057 -0.23886727 -0.18655881 0.19278571 0.17050035 0.02370698 -0.22938024 -0.1569408
-0.07072373 0.1868227 0.35930926 0.04223263 -0.25395584 -0.066532716 0.06161359 0.06263681
0.020799696 0.08110327 0.23214978 -0.075617366 0.075130135 -0.035726916 0.06642651 0.12954812
0.13393301 -0.14288189 -0.09392551 -0.07233118 -0.08496852 0.15036008 -0.36867568 -0.32457325
0.14055966 -0.4211541 -0.07100298 0.07574668 -0.13407518 -0.20460783 0.14037645 0.15222211

weight f4 [200]
00000000: 47ed 823f e541 7f3f 55d9 793f b3c2 7f3f
00000010: 930a 763f 5dfd 7a3f 5c46 7f3f c8ea 863f
00000020: 3a25 873f 3cd5 7e3f 3807 783f 470a 7d3f
00000030: 51c1 733f 98b4 7b3f db08 7f3f 42d2 7e3f
00000040: fda2 823f d7de 863f a3f4 753f 8ce2 7d3f
00000050: a40a 793f e42a 863f 5dfa 7f3f 680b 833f
00000060: 1fd0 753f 06a6 813f 29d3 7f3f c41e 733f
00000070: eee9 823f a92c 7a3f eb42 843f f78d 7c3f
00000080: e905 7e3f 9a0d 883f 7650 7c3f bfe4 803f
00000090: b659 803f 2520 883f ac07 833f d62c 763f
000000a0: fc6a 813f 8c3e 883f 0ced 703f 1084 833f
000000b0: b98a 7f3f e90f 7d3f 8967 7c3f 418e 823f
000000c0: 1f72 7d3f 533f 7d3f 8f48 813f 91aa 7d3f
000000d0: 7970 7b3f 4ffb 8a3f ad28 843f 54f9 873f
000000e0: 4038 843f 353e 873f d055 5e3f 84c2 8e3f
000000f0: de30 823f 638e 873f 7a02 803f ad81 813f
00000100: 2e4f 813f f214 873f 428a 863f 6cf7 7e3f
00000110: 27d2 7e3f ad6d 7d3f cf56 803f a102 803f
00000120: 12a2 753f 82ec 803f 2c3e 7d3f 01cb 773f
00000130: 1ef5 823f e4dc 823f e4be 913f cfe2 8b3f
00000140: d3b4 7b3f f147 7b3f d358 783f 0649 783f
00000150: 6eac 713f 2533 773f b34d 693f 3b51 7b3f
00000160: ff68 7a3f 690e 743f c73e 803f fd66 7c3f
00000170: ff58 843f a348 793f 5b80 6c3f 338f 7b3f
00000180: 63ce 893f 92eb 8a3f d23c 823f bd15 813f
00000190: 710c 833f 23d0 7a3f 9881 7e3f 1d7e 7e3f
000001a0: 2e99 803f 2194 7c3f 1e0d 7e3f 5efd 803f
000001b0: fff1 743f 0d6e 873f 130a 883f 0b10 803f
000001c0: 2b85 783f 8fde 813f b276 8a3f a749 8f3f
000001d0: 322a 813f 29a9 7a3f 9919 803f 4102 7b3f
000001e0: 4642 813f 1347 6f3f b8d8 833f 5669 6e3f
000001f0: 8848 7a3f a1fb 7b3f be35 823f aff9 813f
00000200: bfe5 6c3f 6ee4 7d3f 9704 823f dc0e 833f
00000210: 039c 813f bda3 7b3f 1688 6b3f 95ab 753f
00000220: d3b4 7e3f 1132 833f 6b24 783f d230 833f
00000230: a563 7d3f 64da 8b3f 3ddd 793f 87a6 713f
00000240: cf3c 843f cf92 7d3f 66b9 6f3f fb72 483f
00000250: 7d45 853f bc97 833f fd1f 733f 388c 763f
00000260: c7ab 7f3f bcf3 843f 0574 733f 14eb 853f
00000270: 21fe 823f 6b26 833f 4847 7d3f a2c0 713f
00000280: 7566 7d3f c8f9 7b3f a7d4 813f b5dd 763f
00000290: ba12 7f3f 2e59 8c3f b64b 793f 56e5 7e3f
000002a0: 3c83 7e3f 4ea4 793f a478 7d3f e196 883f
000002b0: f21d 7d3f 045f 7f3f 4eb6 793f 7e04 8d3f
000002c0: 33f8 773f 2259 6d3f 483f 733f 21ff 793f
000002d0: 251c 833f b714 863f 771f 753f d7d5 813f
000002e0: 2dce 813f 7a32 7f3f ce6e 7e3f 93ba 7e3f
000002f0: 2c7e 853f 6c70 753f e3a6 823f b1fd 813f
00000300: a6d7 843f 511a 7e3f 7263 7f3f e19d 853f
00000310: 1423 853f de43 823f 4939 923f 6fd8 7b3f
1.0228661 0.9970992 0.9759725 0.9990646 0.96109885 0.9804285 0.99716735 1.05404
1.0558236 0.9954412 0.96886015 0.98843807 0.9521685 0.9832244 0.9962289 0.9953958
1.020599 1.0536755 0.9607641 0.9917381 0.9728186 1.0481839 0.999914 1.0237856
0.9602069 1.0128791 0.9993158 0.9496882 1.022764 0.97724396 1.0332922 0.9865412
0.9922777 1.0629151 0.98560274 1.0069808 1.0027378 1.063481 1.0236716 0.96162164
1.0110774 1.0644088 0.94111705 1.0274677 0.9982105 0.988524 0.9859548 1.0199662
0.9900226 0.9892475 1.0100268 0.9908839 0.98218495 1.0857943 1.0324913 1.0622964
1.0329666 1.0565859 0.8684969 1.1153111 1.0171163 1.0590328 1.0000756 1.0117699
1.0102289 1.0553267 1.0510943 0.99596286 0.9953942 0.98995477 1.0026492 1.0000802
0.95950425 1.0072176 0.9892299 0.96794134 1.0231054 1.022366 1.138638 1.0928591
0.9832279 0.9815665 0.97010535 0.96986425 0.9440373 0.96562415 0.91134185 0.9817082
0.9781646 0.9533449 1.0019158 0.9859465 1.033966 0.9737646 0.92383355 0.9826538
1.0766109 1.085314 1.0174811 1.0084759 1.0238172 0.9797384 0.99416494 0.99411184
1.0046747 0.98663527 0.99238765 1.0077322 0.95681757 1.058046 1.0628074 1.0004896
0.970782 1.0146044 1.0817473 1.1194352 1.0091002 0.9791437 1.0007812 0.98050314
1.009835 0.93467826 1.0300512 0.9312948 0.97766924 0.9843083 1.0172651 1.0154322
0.92538065 0.9917668 1.0157651 1.023891 1.0125736 0.9829672 0.92004526 0.9596494
0.99494666 1.0249654 0.9693057 1.0249274 0.9898017 1.0926023 0.9760321 0.94394726
1.0331057 0.9905214 0.9364227 0.78300446 1.0411831 1.0280681 0.94970685 0.96307707
0.99871486 1.0386882 0.95098907 1.0462365 1.0233804 1.0246099 0.9893689 0.9443456
0.9898446 0.9842801 1.0143021 0.9643205 0.9963795 1.0964715 0.9738115 0.9956869
0.99419 0.97516334 0.9901221 1.0671045 0.9887382 0.9975436 0.975438 1.1016996
0.96863097 0.9271413 0.95018435 0.9765492 1.0242964 1.0475072 0.95751137 1.0143384
1.0141045 0.99686396 0.99387825 0.9950344 1.042913 0.9587467 1.020718 1.0155545
1.0378311 0.99258906 0.99761117 1.0438806 1.040133 1.0176961 1.1423732 0.98377126

bias f4 [200]
00000000: 1555 cd3d 1ccd 07be 5905 47bd 20b9 ff3c
00000010: 3aa2 273c 97ea eebc 4ddc d7bc 3e13 543d
00000020: f4d2 ae3d fb31 91bc e442 6b3d cb94 dd3c
00000030: 172d 98bd d091 39ba 526d b6bb 4ec9 71bc
00000040: 8ce4 713d c78c 823c c1ec 753d 8077 23bd
00000050: 8402 243d 5c78 493d 63f9 d8bd 7950 273e
00000060: 5c65 91bc 3e65 833b 0b78 a43c 9f2e b8bd
00000070: 39b5 473d bf88 763c 8084 5d3c 49ba 53bd
00000080: 462d 68bc a3c4 eb3d a1ac 1ebd 3782 ddbd
00000090: f24c 4d3c 29d1 46bc d233 5f3d f4b3 8a3a
000000a0: ec5a 8e3c e5a0 883b 37a6 82bb d8be 463b
000000b0: fbc1 c93c 8f2d 093c b4f8 eebc 14f7 84bc
000000c0: 10d2 cfbd 5790 88bd e244 46bc 61ac b73b
000000d0: 2185 edba 97cb 313e 4fa7 493b c751 a5bd
000000e0: cdd3 e4bd 4c15 4ebd 4e9f 11bd ddd3 3bbd
000000f0: 80e1 39bc 1e22 953d 4b36 de3d 513b e93c
00000100: b948 953d b23b ff3c d79f 38bd 5fdb 9f3d
00000110: fe13 4bbd 0fb7 91bc 569b b1bd 6a62 14bd
00000120: ab47 e63c 1664 d1bd e8b0 c93d 89f1 0c3d
00000130: 04ef acbd 785e c0bd d304 85bc 7048 433d
00000140: e43f c03d ff95 38bd a353 04bc d111 f3bd
00000150: 6773 d4bc dd2a fabc 9fda fdbb 0043 13bd
00000160: 3ebd 12bd 0ed0 fcbc 35ca a2bc 77f9 91bc
00000170: 6241 1bbd dcf0 c7bc d8a6 95bd aa58 54bd
00000180: 9b4b 52bc 8b2d 35bd ca0f 5d3d 593f 64bc
00000190: a08c 073c e61d 4ebd 9d35 26bd 80a8 153d
000001a0: f870 fdbb a25c 593b c2f3 f73d 3ab1 9dbc
000001b0: 24d2 e3bc c0c9 3a3d f7fe f03c 93ad 293d
000001c0: cbce 1cbd 7ee1 0fbd ae1b b2bd 55b8 a83d
000001d0: 153c 293c 3741 a53c 1313 39bd 5255 8d3c
000001e0: afee 38bd bdc7 d1bd 1006 163d 4402 6f3c
000001f0: 2221 64bb 7293 d83c 0655 143d b210 523d
00000200: 7d82 06be 0057 bcbd 0613 bfbc 0016 763d
00000210: 14dc 303d bb90 63bc 7cee 12bc 8b76 b4bc
00000220: dfdc 783d 92b4 123d 02da a0bd 54e1 ba3d
00000230: 9a44 f03c 3c5c 193d 8367 11bb 7072 013e
00000240: 0850 b03d a55a b4bd 4cae 37bd 18c2 0bbd
00000250: c63e 393d 0d9d 473d 139c d8bb 28eb 843d
00000260: 4093 4cbd fa2d 82bc 0a44 d3bd 74b5 dd3d
00000270: 9d8e 3f3d 4212 4c3d 955c d2bc 20df c33c
00000280: 35c9 37bc 8f02 463d dd91 a3bc 5e09 7cbd
00000290: 0cfd 8bbd 2e9f c63c a8e6 a0bd 9bcd 33bc
000002a0: 34e8 153d 2068 07be fa12 c6bc 3b0e 91bd
000002b0: 7b02 1c3b 6066 42bd 3ee1 6cbd ca07 d43d
000002c0: e53e 083b 735a 743b c014 24bc 4073 a03c
000002d0: bc4b 283d c6b2 c03c 8804 75bb 10c9 b03d
000002e0: 4eb4 843b 2072 463d 4889 35bd 13da 94bd
000002f0: 6b3f 42bd 5fbe fbbc bc6d e83d c479 1a3d
00000300: 40f9 263e d2b4 ed3c a1d4 46ba 9530 c23d
00000310: 269c 0d3d eacf d93d 5193 ca3d 6217 a3bd
0.10025994 -0.13261837 -0.048589084 0.031216204 0.010231549 -0.029164596 -0.026350165 0.051776163
0.0853633 -0.017724028 0.05743684 0.02704849 -0.07430475 -0.00070789177 -0.005567231 -0.014757467
0.05905585 0.015936268 0.06004024 -0.039908886 0.04004146 0.04918705 -0.10594442 0.16339292
-0.017748527 0.0040098717 0.020076772 -0.08993267 0.04875681 0.015047251 0.01352036 -0.051691327
-0.01417095 0.11512115 -0.03873885 -0.10815852 0.012530552 -0.012134829 0.05449278 0.0010582195
0.01737734 0.0041695707 -0.0039870995 0.0030326154 0.02462863 0.008372678 -0.029171325 -0.016231097
-0.10147488 -0.06668156 -0.012101384 0.005605266 -0.001812134 0.1736282 0.003076989 -0.080722384
-0.1117321 -0.05031328 -0.035552315 -0.045856345 -0.011345267 0.07281898 0.10850199 0.028470667
0.07289261 0.031156395 -0.04507431 0.078055136 -0.049579613 -0.017787484 -0.08672206 -0.036226667
0.028110346 -0.10224168 0.09848195 0.034410033 -0.08444026 -0.093930185 -0.016237652 0.047676504
0.09387186 -0.045064922 -0.008076581 -0.118686326 -0.025933934 -0.030538017 -0.007747009 -0.035952568
-0.035825007 -0.030860927 -0.01987181 -0.01781915 -0.03790415 -0.024406843 -0.073072135 -0.05184237
-0.012835409 -0.044232886 0.053970136 -0.013931119 0.008273274 -0.050321482 -0.040578473 0.036537647
-0.007734414 0.0033166786 0.1210704 -0.019249547 -0.027810164 0.04560256 0.029418452 0.0414253
-0.03828315 -0.035127155 -0.08696686 0.082382835 0.010329266 0.020172698 -0.045184206 0.017252598
-0.0451495 -0.10243175 0.036626875 0.0145879425 -0.0034809788 0.026437495 0.036213897 0.051285453
-0.13135715 -0.091962814 -0.0233245 0.060079575 0.043178633 -0.013889487 -0.008967992 -0.022029182
0.060757514 0.035816737 -0.07854082 0.09125009 0.029329587 0.037441477 -0.0022186942 0.1264131
0.08609015 -0.088063516 -0.044843957 -0.03412065 0.04522588 0.04873376 -0.0066104024 0.06490165
-0.049945116 -0.015891064 -0.10315712 0.10825625 0.046766866 0.0498221 -0.025678912 0.023910105
-0.011217405 0.048342284 -0.019967014 -0.06153237 -0.06835374 0.024245825 -0.07856494 -0.010974313
0.0365984 -0.13223314 -0.02417897 -0.07082792 0.002380519 -0.047460914 -0.057831995 0.10353048
0.0020789441 0.0037285357 -0.010014713 0.019586205 0.04108785 0.023522746 -0.0037386734 0.086321
0.0040498143 0.04844868 -0.044320375 -0.07268157 -0.04742376 -0.030730424 0.11349055 0.03771378
0.16306019 0.029016886 -0.0007584785 0.094819225 0.034572743 0.106353596 0.098913796 -0.07963444

running_mean f4 [200]
00000000: e939 0b3e ec1f 643d a011 553e 88e3 5f3e
00000010: 5469 0b3e 5e9d 463e e044 773e c321 253e
00000020: 202f cd3d 057b 273e f910 de3d 46e2 703d
00000030: faec 033e 0a21 0d3e 767e 8e3d 473c 2f3d
00000040: 242d 4f3e c491 3b3e ad75 f43d 8316 953e
00000050: c67e 163e d84e 6f3e f9fd be3d cad5 143e
00000060: 22f5 213e bf50 cd3d d271 8d3d 9b35 563e
00000070: bbd0 d73d bee0 343e 04d2 0a3d 3c3f 083e
00000080: e05f f13d 8ce8 7b3d 4636 123e 3752 9d3e
00000090: 9429 013e 4fbb 843e b655 a63e 7e17 423e
000000a0: ba52 b63d 0b1f 823d a029 303e 8fef 3a3e
000000b0: 1bab 3b3e 6ead 223e d692 603e 7a7b bc3d
000000c0: 3d6e 543e 3b2d 243e ca14 203e 46d4 d23d
000000d0: 8b40 2a3e df70 8c3d e7ce 633e a4d6 043e
000000e0: e725 c53d 8850 0f3e 1029 c73d 2251 1d3e
000000f0: ac91 623e 12f0 423e ba40 213e 3a0d d83d
00000100: 4eb8 083e 5e78 8e3e bff6 2c3e 0b68 833d
00000110: b06b dd3d 04a7 b93d c516 3b3e d163 803d
00000120: cc20 103e 5a21 183e eb87 1e3e 2ab5 f23d
00000130: 6aa6 413e 499d c63d cc1a e93d ca7d 5d3d
00000140: c35a cb3d 42da 823e 56a2 c23d 66ed 293e
00000150: 2c3d 0f3e bad4 033e a3fc eb3d a73c 0b3e
00000160: 00e9 613e e0a4 523e bd75 1a3e 70a8 743e
00000170: d8bf f03d 0195 023e b6a7 293e 030a 023e
00000180: 8c5d 253d 3672 693d a98b 373e f197 923e
00000190: baa6 193e 8993 143e 115a 113e 3bb3 083e
000001a0: c10d 143e 4872 123e 9362 093e 8445 943e
000001b0: a84b ff3d 5192 983d 4bd7 d13d 5506 d23d
000001c0: 25d1 703e bad2 863e 1bb5 123e aaf0 bc3d
000001d0: 0cb5 dc3d bf48 0c3e c7d0 5c3e 5fdf 753d
000001e0: 0e41 b63e 23d2 1d3e b2a4 663d 9a3a 2b3e
000001f0: 8182 4f3e 7f16 c33d e17e 073e 3f0f 0b3e
00000200: 7928 343e 4cd4 bd3d 4b51 e83d 26ca 2a3e
00000210: 9cf3 cf3d 4c8e 2f3e 00d8 3d3e d166 ca3d
00000220: c64a 453e 0b71 ae3e d3a1 333e caa1 703e
00000230: 9c9b e13d bcef bf3d 6294 a43d 352b 553e
00000240: 8ff9 d83d 0a55 933d 8b3d b03d f876 c03d
00000250: 97fe 7c3d af6c fe3d 5096 873d 23e5 eb3d
00000260: c347 283e fb2d 873e 527c 043e c0b1 823e
00000270: 7d5d 533e 8385 aa3d 9346 723d b603 0f3e
00000280: 659f d83d c21a f43d b2b7 053e a63f 4c3d
00000290: 88e1 3f3e ca67 203e 73f4 263e 8d8a 6f3e
000002a0: 87b6 793e 6e5a 713e e5ec 2d3e 52b2 173e
000002b0: db25 073e d281 483e ee1c e43d 85e9 1e3e
000002c0: d8b2 a83d 9a25 0b3e 426d ac3d 2dee 7b3e
000002d0: 7e86 953e d0d6 e73e 1893 df3d cf28 563e
000002e0: ac6f 443d e43f 573e 4d70 c33d 6657 0c3e
000002f0: 7518 083e ec67 323e 7249 0d3e fdde 303e
00000300: 5a28 a13d a9ae 5c3e 7c5b 1f3e bdf4 2b3e
00000310: dcc3 cb3d a7b8 533e ab1d e73d cf6f f43d
0.1359631 0.055694506 0.20807505 0.2186414 0.13614398 0.19395968 0.24147367 0.1612616
0.10018754 0.16355522 0.10843081 0.05880954 0.12883368 0.13782135 0.06957714 0.042782094
0.20232064 0.18317324 0.119365074 0.29118738 0.14696798 0.2336992 0.09325785 0.14534679
0.15816167 0.10025167 0.06906475 0.20918886 0.10537859 0.17663857 0.033891693 0.13305372
0.11785865 0.06150107 0.14278516 0.30726787 0.12613517 0.25924155 0.32487267 0.18954274
0.089024976 0.06353577 0.17203379 0.18255447 0.1832699 0.1588647 0.21931013 0.09203239
0.20745178 0.16032879 0.1563293 0.10294394 0.16626184 0.06857466 0.22246896 0.12972504
0.0962637 0.13995564 0.09724629 0.15362981 0.22125882 0.19036892 0.15747347 0.10549398
0.13351557 0.27826208 0.16891001 0.06416329 0.108115554 0.09065059 0.18270405 0.062690385
0.14075011 0.14856473 0.15481536 0.118509606 0.18911138 0.096979685 0.11382064 0.05407504
0.09929421 0.25557142 0.095036194 0.16594467 0.13988179 0.12874117 0.11522796 0.13597356
0.22061539 0.20570707 0.15083976 0.23892379 0.11755341 0.12752153 0.16567883 0.12699132
0.040372416 0.056993686 0.1792437 0.28631547 0.15005007 0.14509405 0.14194514 0.13349621
0.14458372 0.14301407 0.1341651 0.28959286 0.12465602 0.07449783 0.10246142 0.10255114
0.23517282 0.26332647 0.14326899 0.092255905 0.107767195 0.13699625 0.21564017 0.060027476
0.35596508 0.15412192 0.05630941 0.16721573 0.20264627 0.09525775 0.13231994 0.13580035
0.17593564 0.09269008 0.113436304 0.16678676 0.10153887 0.17144126 0.18539429 0.09882892
0.19266805 0.3407062 0.175422 0.23499218 0.11016008 0.093718976 0.08036114 0.20817263
0.105944745 0.07193954 0.086054884 0.093976915 0.061766233 0.124230735 0.06620467 0.11518314
0.16433625 0.26402268 0.1293805 0.25526237 0.20641132 0.083262466 0.059149336 0.1396626
0.10577277 0.11919166 0.13058355 0.049865387 0.18738377 0.15664592 0.16304187 0.23392697
0.24386035 0.23569652 0.169849 0.14814118 0.13198034 0.19580773 0.111383304 0.15518768
0.08237237 0.13588563 0.08419277 0.24602576 0.29204172 0.45281076 0.10916728 0.20914005
0.04795806 0.21020466 0.09542904 0.13705215 0.1329058 0.17422456 0.13797548 0.17272563
0.078690246 0.21551003 0.15562242 0.16792579 0.099494666 0.20675908 0.112849556 0.11935388

running_var f4 [200]
00000000: 824c e23c 0de0 2e3c b2f9 a33d 3ca8 7c3d
00000010: 3212 343d e669 833d 2a63 9b3d cc25 6c3d
00000020: 2b24 c83c f184 5e3d be1b 803c 8999 3e3c
00000030: d367 473d 41d2 173d bf09 6d3c 519b c83b
00000040: 562e f33d 0e44 983d e45c f73c 4aee 853e
00000050: 7b38 1b3d a8da 3d3e e097 953c 7a16 1c3d
00000060: 1322 7f3d 04e4 c63c ad63 4e3c 165b 1c3e
00000070: 82a6 dc3c afce 4c3d 78a5 ab3b bd0a e93c
00000080: a64b 463d d79c 6d3c 8538 1a3d 02e6 943e
00000090: 9bc6 f73c 8770 b23d 7b0f 073e 3513 e73d
000000a0: 6d38 9d3c 420d 983c 2c77 923d 1fec 513d
000000b0: 2af6 563d 49dc 133d 433b 383e 06a4 1b3d
000000c0: d308 1c3e 2806 853d 849e 183d 2720 493d
000000d0: d3bd 653d 1033 8b3c cb47 8b3d 77aa 153d
000000e0: 0e53 fa3c b03b 0d3d deda cf3c fff9 603d
000000f0: bdb8 963d c784 7a3d ae4c 253d cbee f13c
00000100: 4700 e73c 077c 713e 3fd0 c43d a840 793c
00000110: 017b 4a3d ebe5 ae3c 56bc ca3d 4fe2 9d3c
00000120: fe20 c23d 517a 873d a06e e33c bdad 343d
00000130: 471f b03d c541 e93c cfc5 003d 92e1 493c
00000140: 0395 d83c d1c9 5e3e 284d c93c d470 bf3d
00000150: 783d 413d e237 ee3c c782 1b3d d34d 0c3d
00000160: c8e4 0b3e de0e 0d3e d9a3 253d dd6e 8c3d
00000170: 72c4 f33c c088 443d 305e b03d 984e 433d
00000180: 9873 1a3c 4397 443c ee40 3f3d f8d2 493e
00000190: d79b 5c3d a602 453d cf44 503d 36dc 543d
000001a0: b885 5f3d 678c 1d3d 652c ef3c 4e81 803e
000001b0: 03dd 823d 54ab 833c 0277 df3c 3e57 a93c
000001c0: 6578 483e 7bd6 2f3e 7751 3a3d 250d d93c
000001d0: 399a 013d 484b f73c 88ce e23d 2526 213c
000001e0: 96e4 ce3e 7cae ee3c 96a8 5b3c 271e 753d
000001f0: d882 8e3d 47de b53c 0c21 ee3c fffa 303d
00000200: 53cb a03d 125c 923c 91dc 013d 4fb9 293d
00000210: 49b0 bc3c 8e70 983d 982c 4c3d e3d1 f73c
00000220: 8368 3b3d 607a 0d3e 55be a33d 8942 8a3d
00000230: 17e8 0a3d d002 9f3c 384a a53c 5494 423d
00000240: 342f ac3c 8109 933c 5188 b43c 53c6 873c
00000250: fdc5 803c 0fbb f73c 03e8 ae3c 98b1 163d
00000260: 8965 ad3d ab7f b63d b9d0 753d bb54 b43d
00000270: 01b9 173e 998f 9f3c 5b4d 4b3c b67a fb3c
00000280: 0535 d73c 578f 1a3d c052 d53c d27e 303c
00000290: 81a9 c73d 7a26 513d fe4d ab3d 73bf 1a3e
000002a0: 1af7 a23d 9e28 373e 1d42 9b3d bc59 413d
000002b0: aa37 4d3d 4ef6 a73d 3463 cc3c e64a 183d
000002c0: c7c9 903c d660 083d 79ea df3c 7ddc 3c3e
000002d0: 7f3e c73d 9bca 783e 4b3f cb3c 357b 773d
000002e0: a2e9 1b3c 8afb 8f3d d981 e73c 9826 9a3d
000002f0: 78c9 143d fb6b b53d cace e43c 9f14 513d
00000300: 4a41 aa3c 2c82 df3d 4fb1 8c3d c1c0 333d
00000310: 3f90 c43c c889 533d ce18 e13c d3d9 053d
0.027624372 0.010673535 0.0800661 0.06168388 0.043962665 0.06416683 0.075872734 0.057653233
0.024431309 0.054326 0.015638229 0.011633285 0.048683 0.037065748 0.014467656 0.006122031
0.11874072 0.074348554 0.03019566 0.26158363 0.03789566 0.18540442 0.018260896 0.038107373
0.062288355 0.024278648 0.012597007 0.15269122 0.026934866 0.050001796 0.0052382313 0.028447503
0.048411988 0.014502726 0.037651557 0.29081732 0.03024607 0.08712869 0.13189499 0.1128296
0.019191945 0.01856101 0.071516365 0.051250573 0.052480854 0.036098752 0.17991357 0.03799822
0.15237741 0.06495315 0.037260547 0.04910293 0.056089234 0.016992122 0.06800803 0.03653952
0.030557182 0.03448075 0.025372919 0.054925915 0.07359455 0.061161783 0.04035633 0.02953281
0.028198374 0.23582469 0.09610032 0.015213169 0.049433712 0.021349868 0.098992035 0.019272951
0.09478949 0.06615127 0.027762711 0.044111002 0.08599716 0.028473744 0.031438645 0.012321847
0.026438242 0.21756674 0.024572924 0.09347692 0.04717776 0.029079381 0.037966516 0.034253906
0.13661492 0.13775203 0.04043946 0.06857083 0.029756758 0.047981977 0.08611715 0.047682375
0.009426974 0.011998954 0.04669278 0.19709384 0.053859558 0.04809823 0.05084687 0.051967822
0.054570884 0.038463976 0.029195974 0.25098652 0.06389811 0.016072907 0.027278427 0.020671483
0.19577177 0.17171662 0.045487847 0.026495526 0.03164122 0.030187264 0.11074549 0.0098357545
0.40408772 0.029135935 0.013406893 0.05984321 0.0695855 0.022200717 0.029068492 0.04320812
0.07851281 0.017866168 0.03170449 0.04143649 0.023033278 0.07443343 0.049847215 0.030251449
0.045753967 0.13816214 0.07995287 0.06750972 0.033912744 0.01941052 0.020176992 0.047504738
0.021018602 0.017948868 0.022037657 0.01657406 0.015719408 0.030240564 0.021350866 0.03679046
0.08466632 0.089110695 0.060013507 0.088052236 0.14816667 0.019477652 0.01240858 0.030698162
0.026270399 0.037734356 0.026040435 0.010772424 0.09749127 0.051062085 0.08364485 0.15112095
0.07957287 0.17886588 0.075809695 0.047204718 0.050101914 0.08201276 0.024949647 0.037180804
0.01767434 0.033295475 0.027333485 0.18443485 0.09728717 0.24296038 0.024810454 0.060420234
0.009516152 0.07030399 0.028260158 0.075268924 0.036324948 0.08858486 0.027930636 0.051045056
0.020783085 0.109135 0.068697564 0.043884996 0.023994563 0.05164507 0.027477648 0.032678436

weight f4 [100, 200]
00000000: d01b 0cbd 7af3 553d 7c63 09be 345e a8bd
00000010: 4fe9 8ebc 35ba 55bd 5d5b c7bd 5f11 eabd
00000020: a984 b3bc 017b e6bd 1637 f5bc be4c 8abd
00000030: 8855 5e3c b39f 6f3d b235 673d 5da6 4a3d
00000040: e8da 3d3d ee29 813d 8b8f a23c a477 17bd
00000050: 3878 cbbc 15dc a63d c12d 973d 06c0 75bd
00000060: 9e0b 10bd 0c62 1f3d 5c16 fbbc 2149 0abd
00000070: 2163 3abd 8c7a 0b3d d176 cd3c 26c5 713b
00000080: f27e 603d d364 b9bd 7314 bd3b 63e7 69bd
00000090: 711c 2c3d 3b83 413c 6309 87bd 086c 8ebc
000000a0: 0665 f5bc 5de6 c3bd 02cc bd3c 221f 833c
000000b0: 85ff 873a 6528 2a3a 38a9 74bd d1a5 16bd
000000c0: 7bec 43bd 50e5 cd3b 022b 33bd f256 733d
000000d0: 279d a1bd a76e 6cbd 93cb 9abd 9378 68bd
000000e0: 2526 a8bd 8c14 2cbd af23 edbb fd5d d0bd
000000f0: c558 c6bc b713 803b 7fce dabc 0a69 77bc
00000100: df7c d4bd 6c23 1ebc b82b 44bd d04d b93c
00000110: d583 8f3d 21db 31bd 9a46 2dbd 79c1 a5bc
00000120: 0773 583d b88e 483c 6939 e2bd 6255 3fbd
00000130: 8d4f 793d cd25 3d3c 1eb3 cfbd dca4 a13d
00000140: cf19 1a3d 4633 853d a03e 1b3d bf5b 85bb
00000150: 0a97 78bc 1757 123d df0d 883d 2b7d d2bd
00000160: 9e8a 933d cc8a 273d f4d1 8cbd 0b04 8fbd
00000170: 5d52 f9ba 886c 4e3d 594b fabb b164 fc3c
00000180: 11a4 b83d 1484 ff3b 6071 0dbc 9e83 eb3c
00000190: ac06 ed3c 06df 373d 26b0 81bc 224a 843d
000001a0: a674 833b 6387 8c3c 5637 533c dd69 6abb
000001b0: 5c01 b3b8 d336 033d 80e6 13bd 8537 d33d
000001c0: a841 0fba 24ad 42bc 59e8 8e3d 0274 c4bd
000001d0: 4ce6 073d 348b 663d 9edb a2bc 6245 27bc
000001e0: 9c95 943d 4d64 b9bd d5cf 74bb bf36 7cbd
000001f0: 8f3a 9dbd 74ce 69bc 6b2a b63c 6488 1cbd
00000200: f3d8 0fbd d8b9 15bc 0c02 a2bc b3da 10bd
00000210: c386 4cbd 65f6 a9bc afe8 03bd aed3 21bd
00000220: 06a1 1bbd 9fbc 3ebc 6a24 47bc 5627 37bc
00000230: ee2d 3cbd 6dda b63c 9937 2b3c 6d32 fabc
00000240: 1c05 1cbd 126f 68bd f0b0 c33c d64b fbbc
00000250: e689 0cbd f4b4 033d 4137 a9b9 72b5 cc3d
00000260: bc39 0abd 500a cb3c ae1a 033d 7a18 6ebd
00000270: 5a41 71bd edaf 1abd d0a5 243b f0c0 333c
00000280: 581e d1bd 99b7 463a 1f55 fabc e436 ddbc
00000290: 7356 77bd ee40 68bd c2ce d93c d0c6 5fbd
000002a0: 3947 16bd 2889 843c 1c22 803c e927 433d
000002b0: 4777 a43d 58f3 583c c5d3 753d 25c7 2dbc
000002c0: fb51 c7bd 082f 0d3d e49d 56bd 487a e83c
000002d0: 5f3a 37bd 1d97 32bd 6c92 e33d 5987 c8bd
000002e0: d222 893c 32f9 6cbd 366a 273d 36ef 0ebd
000002f0: a651 3dbd ea6b 0abd 3f62 1c3d 9548 d03c
00000300: 1435 8fbd b1f3 113d 095b 943d 4fd5 e9bd
00000310: d0a2 6cbc 09de 8f3c 90cf 8ebd 9897 f1b9
00000320: b0ae ba3d 3114 863d 48a1 403d 510b ac3d
00000330: 6ecb a6bc bc9b 1bbc 2c36 1bbd cb46 573d
00000340: 045b d9bb d5c7 8a3d c513 053c 47e1 c43c
00000350: edd6 07bd 6a9d a9bc ff5c c739 1fa4 14bd
00000360: c63a afbd 80eb 11bd ca6c afbd 9e98 adbd
00000370: 2577 373d a2b3 51bd f9e3 b8bc 984d 8e3c
00000380: ea2a 99bd ef39 dfbc 1db4 10bd f51d a8bc
00000390: 0b03 b83d d8d3 92bd 2350 e93c a394 64bb
000003a0: d38c 993c ddd7 733c 99c9 4dbd 203c fbbc
000003b0: c00e b6bb e032 ae3d c129 1b3d 8531 783c
000003c0: cfc3 1c3d 27ce 673d f393 1dbb b96b b63c
000003d0: 580d a2bc a861 883d 79e2 ff3c b1b6 193d
000003e0: 5c9c adbd f925 e7bc caa8 11bc 95cd 8abd
000003f0: 0c37 26bd f151 07bd d9c7 943d 3c59 3b3d
-0.03420621 0.05223415 -0.13416857 -0.08221093 -0.017445235 -0.052179534 -0.09734223 -0.114290945
-0.021913843 -0.1125393 -0.029933494 -0.06752919 0.013570197 0.05850191 0.056447692 0.049475063
0.046351343 0.063068256 0.019843837 -0.036979333 -0.024837598 0.08147446 0.07381774 -0.05999758
-0.03516733 0.038911864 -0.03065031 -0.033761147 -0.045504693 0.034052417 0.02508107 0.0036891191
0.054808564 -0.09052434 0.00577026 -0.057105433 0.04201931 0.011811073 -0.06593587 -0.017385498
-0.029955398 -0.09565423 0.023168568 0.016006056 0.0010375833 0.00064910046 -0.059731692 -0.03677923
-0.047832947 0.0062834397 -0.043742187 0.05940909 -0.078913026 -0.057722714 -0.0755836 -0.056755614
-0.082104005 -0.042011783 -0.00723692 -0.10174177 -0.02421225 0.0039086 -0.026709793 -0.015100727
-0.1037538 -0.009652 -0.047893256 0.022620112 0.07007567 -0.04342187 -0.04230366 -0.020233857
0.052844074 0.012241058 -0.11046106 -0.046712287 0.06086688 0.011544657 -0.10141586 0.078927726
0.03762227 0.0650392 0.03790152 -0.004069775 -0.015172729 0.035727587 0.06643271 -0.1027778
0.072041735 0.04090385 -0.06875983 -0.06983193 -0.0019021739 0.050396472 -0.0076383767 0.030809732
0.09015668 0.0077977274 -0.008632988 0.028749283 0.028933845 0.044890426 -0.015831064 0.06459452
0.0040117083 0.017154401 0.012891611 -0.0035768666 -8.535638e-05 0.032034706 -0.036108494 0.10313324
-0.00054648006 -0.0118821 0.069779105 -0.09592439 0.033178613 0.0562851 -0.019880112 -0.010209413
0.07255098 -0.09052334 -0.0037355323 -0.061575647 -0.07677185 -0.014270414 0.022237023 -0.03821601
-0.03511901 -0.009138547 -0.019776367 -0.035364818 -0.049933206 -0.020747373 -0.032204326 -0.039508514
-0.03799536 -0.01164165 -0.012154678 -0.011178812 -0.04594224 0.02232095 0.010450267 -0.030541623
-0.03809081 -0.05674655 0.023888081 -0.03067581 -0.034311198 0.032154992 -0.0003227536 0.099955454
-0.033746466 0.02478519 0.032007866 -0.05812881 -0.058900215 -0.037765432 0.0025123246 0.010971293
-0.10210866 0.0007580459 -0.030558167 -0.027003713 -0.06038518 -0.056702547 0.026587848 -0.05463296
-0.036689017 0.016178682 0.015641265 0.047645483 0.08030563 0.013241611 0.060016412 -0.010606562
-0.097324334 0.03446868 -0.05239667 0.02837862 -0.0447334 -0.043601144 0.11111912 -0.097914405
0.016740236 -0.05785484 0.040872775 -0.034896098 -0.046220444 -0.03379432 0.038179632 0.025425235
-0.06992546 0.035632793 0.07243926 -0.114176385 -0.014443114 0.01756193 -0.06973183 -0.00046080048
0.0911535 0.0654682 0.04702881 0.08400596 -0.020360675 -0.009497579 -0.03789346 0.052557748
-0.0066331644 0.06776396 0.008122389 0.024033202 -0.033163954 -0.020704944 0.00038025525 -0.03628933
-0.08556132 -0.03562498 -0.08565672 -0.08476375 0.04479136 -0.0511967 -0.022569643 0.017370984
-0.07478888 -0.027249305 -0.03532802 -0.020522097 0.089849554 -0.07169312 0.028480595 -0.0034878633
0.018743908 0.014883009 -0.050241087 -0.030668318 -0.0055559576 0.085057974 0.037881617 0.015148525
0.038272675 0.056593087 -0.0024044483 0.022268163 -0.019781753 0.066592515 0.03123592 0.037527744
-0.08477089 -0.028216349 -0.00889034 -0.06777493 -0.04057984 -0.03303713 0.072646804 0.045739397

weight f4 [100]
00000000: 92f3 593f f8eb 5b3f 4922 223f 3066 413f
00000010: 93ce 5c3f af4c 543f 82a6 573f e533 5f3f
00000020: a419 5f3f c217 143f 0989 423f c723 113f
00000030: ec65 503f 973a 483f 8841 1a3f 666b 2e3f
00000040: 6ee7 563f ddd3 4d3f f110 5f3f aca6 463f
00000050: 5390 5b3f 5836 633f 94c4 5a3f 2e39 5f3f
00000060: 0ccf 5c3f 17d5 653f ea5d 5c3f cbf5 5d3f
00000070: 68d0 633f 68ee af3e 6ab4 313f 863c 663f
00000080: 34f6 403f e0ed 4e3f 3b1f 5d3f 6e0d 433f
00000090: 8bb0 ec3e a0f7 543f 0675 613f 20a2 543f
000000a0: 17c3 393f e12a 2e3f fa2a 4b3f 7af0 2a3f
000000b0: ba75 3b3f 557e 5c3f 7a5b 3c3f e6d7 463f
000000c0: 263e 553f 6d26 643f acf9 b43e d5cd 413f
000000d0: 3e4a 453f 704e 493f 6662 663f 8234 553f
000000e0: bd7b 393f 293b 2f3f 5cc9 4e3f 0154 583f
000000f0: 7f79 573f 1986 4d3f 4116 093f 4dfe 273f
00000100: bf36 b43e fcf6 193f 101f 5b3f e7fb 523f
00000110: 2e9a 4b3f e0a2 5e3f e453 543f b2c5 eb3e
00000120: 3a80 5a3f 994b 5e3f 7111 5e3f f366 603f
00000130: ac2d 653f e974 2d3f 46c2 613f 6bbc 4b3f
00000140: 865b 463f f86a 4e3f 2741 553f a2d7 4f3f
00000150: 25b0 433f 511e 5c3f f821 5d3f 1cc6 1b3f
00000160: d41e 5e3f 8f6a 4e3f 9281 b83e 1baa 263f
00000170: 0d03 563f a284 5f3f 1a8b 353f 1acd 583f
00000180: d529 633f 1ba9 4b3f 8454 433f ce5d 3f3f
0.85137284 0.85906935 0.63333565 0.7554655 0.8625271 0.8292951 0.84238446 0.8718856
0.871485 0.5784875 0.7599035 0.56695217 0.8140552 0.782144 0.6025624 0.68132627
0.83946884 0.804014 0.87135226 0.7759807 0.85767096 0.88754797 0.85456204 0.87196624
0.8625343 0.89778274 0.860808 0.86703175 0.8898988 0.34361577 0.69415915 0.899361
0.75375676 0.8083172 0.8637578 0.7619237 0.46228442 0.83190346 0.8806919 0.83059883
0.7256331 0.6803418 0.7936245 0.6677319 0.7322651 0.8613027 0.7357708 0.77673185
0.83297956 0.89121133 0.35346735 0.757047 0.7706641 0.7863531 0.89993894 0.83283246
0.72454435 0.68449646 0.80776 0.8450318 0.84169763 0.8028274 0.5354958 0.6562241
0.35198018 0.60142493 0.8559427 0.8241562 0.79532135 0.8696728 0.82940507 0.46049267
0.8535191 0.868341 0.86745363 0.8765709 0.89522815 0.67756516 0.8818706 0.7958438
0.77483404 0.8063197 0.8330254 0.81188405 0.7644065 0.8598376 0.8637996 0.60849166
0.8676579 0.80631346 0.36036354 0.6510331 0.83598405 0.87311757 0.7091538 0.8468796
0.88735706 0.7955491 0.76300836 0.7475251

bias f4 [100]
00000000: 0418 9a3c f973 d3bb 0704 8e3b c56d 2f3d
00000010: c7fb a0bc c1cc 97bc a6bd 01bc f94f 793c
00000020: 9b57 1a3d 334a b93c 0af2 15bd 4478 81bd
00000030: 09fc 3bbd 8fc6 cb3c ff7b 513c dd8c 883c
00000040: 40bd 923c b474 363c 654d fbbb 02bd 163c
00000050: 1062 9cbc e58f a9bb babd a0bc 13f5 643c
00000060: 7d04 96bc 389b a83c f34d 33bc ab81 dcbb
00000070: cb81 073d 64d3 903b 8efa ddbb d1bd 8b3c
00000080: bf66 be3a 5cb8 99bb f6d8 51bc 6449 50bc
00000090: 5fc4 4c3c 3edd 163d 88d9 4ebc 21a2 96ba
000000a0: 1612 683b 155d 063d e5a7 e7bb 26d7 a4bc
000000b0: 896e 953b 1ec4 b03c b80c 553d d621 4dbd
000000c0: 2b70 db3a 1b04 e6bc 05cd bb3c 53db af3c
000000d0: 2faf 3f3d 2324 e13a b4eb 8a3c 802f c9bb
000000e0: 4fd5 a03b 7094 52bd 88b6 82bc cb98 c1bc
000000f0: 7ef9 e6bc 631c 463c cca1 f23c b8f4 8abc
00000100: d0a7 013c 7039 b13d ff95 c03c aedc 50bb
00000110: 5e90 873b a588 23bc c8a9 dd3b 59de 703c
00000120: 7f3a c73c 98fa 1cbc 139c 7f3c 9027 1c3c
00000130: 2f3e 253c ba42 833c beec c03c 17ae e7bc
00000140: 5657 013d b2be 973c 0468 e43b 9b64 173b
00000150: 5225 2fbc ff1c ea3c 2e6a a53c 9c81 6fbc
00000160: d57f 123c a62e 043c 62cf c8bc 6bbe 8b3c
00000170: 6d7d 003d 42f8 3f3b 5dc7 92bc 793e 3bbd
00000180: d1a5 f53c 1668 04bd 7959 7ebd d836 633d
0.01881028 -0.006453034 0.004333976 0.042829294 -0.019651307 -0.018530251 -0.007918751 0.015216821
0.037681203 0.022618389 -0.03660778 -0.06321767 -0.045894656 0.024874954 0.012785911 0.016668731
0.017912507 0.011136223 -0.0076691383 0.009200336 -0.019089729 -0.0051746243 -0.019621719 0.013974446
-0.018312687 0.020581827 -0.0109438775 -0.006729325 0.033082765 0.004419731 -0.006774253 0.017058285
0.001452647 -0.004691167 -0.012808075 -0.01271281 0.01249799 0.036832087 -0.012625106 -0.001149241
0.003541117 0.032803614 -0.007069575 -0.020122122 0.004560296 0.021577891 0.052014083 -0.050081097
0.0016741803 -0.02807813 0.02292491 0.021466887 0.046797927 0.0017176907 0.016958095 -0.0061396956
0.004908241 -0.051411092 -0.015956178 -0.023632428 -0.028195139 0.012091729 0.029618166 -0.016962394
0.007913545 0.086535335 0.023509024 -0.0031869817 0.004137083 -0.009981309 0.0067646243 0.014701449
0.024319885 -0.009581231 0.015601176 0.009530917 0.0100856265 0.016023029 0.023550387 -0.028281255
0.03157743 0.018523548 0.0069704074 0.0023100737 -0.01069005 0.02857828 0.020192232 -0.014618304
0.00894161 0.0080677625 -0.02451295 0.017058572 0.031369615 0.002929226 -0.01791733 -0.045713875
0.029986294 -0.032325827 -0.062097047 0.055472225

running_mean f4 [100]
00000000: 1bf7 5f3f 6132 833f 81f0 243f 3200 053f
00000010: ead5 e93f 8775 733f 85c6 283f ccd6 b23e
00000020: 078a c33f cb18 4e3f 29b5 123f ab6a 013f
00000030: 5000 a23f 2b43 893e 08bf 9f3e 5724 1a3f
00000040: 3492 c63e fe55 4b3f c678 8f3f af15 e83e
00000050: afe5 483f 1dca 573f 9823 913f e4c1 833f
00000060: b94e 9b3e ca48 873f a038 b33f 0e18 943f
00000070: c414 383f 7ffe 773f f1c5 0540 317b c23f
00000080: 11de 923f 4a2b b33f 27b5 bf3f c429 0e40
00000090: 2afa 673f 623d 533f dcd6 043f 2949 033f
000000a0: 2118 e83e 2428 463f 5bce 0c40 d655 2f3f
000000b0: 97f8 6e3f 2115 703f 92b2 423f 8d68 003f
000000c0: fbd1 4940 c25e d13f e082 5e3f 75e2 283f
000000d0: 023b 0c3f 79a6 4e3f ff10 af3f b02b 973f
000000e0: ec63 4040 5849 e33e 339e 3e3f 6a8f 183f
000000f0: be62 c03f 0811 b93e 3e5d 0b3f 808e 033f
00000100: 550a 413f e6db 0d3f 2c5f cb3e f50a b33e
00000110: c15a 873f 36cd 8a3f b39a bc3e c61a 123f
00000120: 2251 cb3e 6b31 543f d107 193f 9a5d b23f
00000130: 813d 833f 50a0 2a3f 774e 413f 3000 113f
00000140: 4a26 f53e efeb 603f d081 423f dd0e 3c3f
00000150: 729a 403f f583 903e 8d9a 353f 82d8 203f
00000160: ea8e 053f e619 dd3e 3a7c 283f 7bd7 8f3f
00000170: e6f3 813f a40a 8e3f 052c c93e 1a9c 993e
00000180: cd63 863f e5da 883f 1470 d53e 19f1 053f
0.8748643 1.024975 0.6442948 0.51953423 1.8268406 0.9510121 0.65927917 0.34929502
1.5276498 0.8050658 0.5730768 0.5055339 1.2656345 0.26809058 0.31200433 0.602117
0.3878342 0.7942809 1.1208732 0.45329043 0.7847547 0.84292775 1.1338987 1.0293546
0.30333498 1.0569088 1.4001656 1.1569841 0.71906686 0.96872705 2.0902064 1.5193845
1.1474019 1.3997586 1.4977158 2.2212992 0.90616095 0.8251554 0.5189035 0.5128351
0.4533091 0.77405 2.200095 0.6849035 0.9334807 0.9378224 0.76053727 0.5015953
3.1534412 1.6357043 0.8691845 0.65970546 0.5477754 0.8072277 1.3677062 1.1810207
3.0060987 0.44391894 0.7446014 0.5959383 1.5030134 0.36145806 0.5443915 0.5138931
0.7540639 0.55413663 0.39721048 0.34969297 1.0574571 1.0843875 0.36836776 0.57072103
0.39710337 0.82887906 0.5977755 1.3934815 1.0253145 0.6665087 0.7551035 0.5664091
0.47880775 0.87860006 0.7597933 0.7346018 0.75235665 0.28225675 0.7093895 0.62830365
0.52171195 0.4318382 0.65814555 1.1237634 1.0152557 1.1096997 0.39291397 0.3000191
1.0499207 1.0691801 0.4168707 0.5232101
