bike_sharing/AutogluonModels/ag-20220404_171935/models/NeuralNetTorch_BAG_L2/S1F7/net.params (torch, 227771 bytes, 13 tensors)

weight f4 [5, 3]
000000 85 85 bf 3f a6 81 99 be dc e6 09 c0 91 b6 1a 3f
       1.4962622 -0.29981726 -2.1547155 0.60434824
000010 ba aa 93 bf 7f 7a bf bf e2 3c a0 3e dd a8 62 3f
       -1.1536477 -1.4959258 0.3129645 0.88538915
000020 29 13 60 bf e7 b0 de be a8 d6 0c bf cc c5 bd 3d
       -0.87529236 -0.4349434 -0.5501504 0.092662424
000030 39 df 30 be db c8 b4 3e fa c6 a8 be
       -0.17272653 0.3530949 -0.32964307

weight f4 [13, 6]
000000 66 ce 17 bf 7a d2 3c 3e 4f 87 0d bf 54 6a 73 3e
       -0.59299314 0.18439665 -0.5528459 0.2377103
000010 c3 ef 0e 3f 39 af 17 3e c9 05 3f 3f fc 18 12 3f
       0.558346 0.14812936 0.746182 0.57069373
000020 92 eb 21 be c1 6f 5a 3f 48 b2 05 be 28 f5 5a 3d
       -0.15812519 0.8532677 -0.1305629 0.053456455
000030 3d b8 f0 3e 3e 93 0d 40 03 4f b5 bf 48 c3 bf bf
       0.47015563 2.212112 -1.4164737 -1.498147
000040 c4 11 36 bf 42 3d 50 3f 09 1d 8b 3f 8a a1 4f 3e
       -0.7112086 0.8134347 1.0868236 0.20276466
000050 d1 44 96 be 06 3e b7 be a3 4a 1b 3f 7f bd d0 be
       -0.29349378 -0.35789508 0.6066076 -0.40769574
000060 80 20 0e bf 89 16 2a 3f bb a2 b6 3f 4d 94 54 40
       -0.5551834 0.66440636 1.4268411 3.3215516
000070 c7 6c bf bf 3d 06 93 bf 36 17 dc 3f 7c 73 0a bf
       -1.4955071 -1.1486279 1.7194583 -0.54082465
000080 50 1a 01 bf 7b 0f 53 3f 3f 7c 83 3f 76 0f 9f 3f
       -0.50430775 0.82445496 1.0272292 1.2426593
000090 cf cc b4 bf a5 92 21 40 0e ad f9 be 1a e2 c6 3e
       -1.4125003 2.5245755 -0.48764843 0.38844377
0000a0 b0 3f cf bf e8 da 01 bf 22 be 01 bf 2e 7f da be
       -1.6191311 -0.5072465 -0.50680745 -0.42675155
0000b0 67 d1 88 bf ee 1c 8b 3f 50 f3 f8 bd 5f 8c 48 3f
       -1.0688905 1.0868204 -0.12155783 0.7833919
0000c0 4f 00 13 be d2 30 2b 3f bb 55 4d bf 23 e7 36 3b
       -0.14355586 0.6687137 -0.8020894 0.0027908764
0000d0 a4 37 49 3f 82 2e b2 be ef f0 88 3f de ef be 3e
       0.78600526 -0.34801108 1.0698527 0.3729238
0000e0 6e e6 97 be 06 a0 12 40 0b 5c ea bf 93 cd 87 bd
       -0.2966799 2.291017 -1.8309339 -0.06631007
0000f0 35 4f 80 bf 8e e0 6b bf 45 8a 3b bf ba ad a0 bf
       -1.0024172 -0.9213952 -0.7325786 -1.2553017
000100 53 a8 43 be fb 6e 17 c0 bc 4c 85 bc b4 cc 1d 3d
       -0.1910718 -2.3661487 -0.016271941 0.0385253
000110 de 17 76 3f 2d 64 b8 3e ce f7 a6 be 83 56 9d bf
       0.9613017 0.36013928 -0.32610935 -1.2292026
000120 fb ae 45 bd 8b 93 07 bc fb 4a 8b 3f 23 c6 2f bb
       -0.048262578 -0.008274923 1.0882257 -0.002682098
000130 48 a5 5b 2b 5f 96 cf 3e
       7.8033803e-13 0.40544412

weight f4 [25, 9]
000000 6f 3a 1e 3f 45 d9 34 bf 4f 0c 5b bf 86 be d2 be
       0.6180791 -0.70644027 -0.85565656 -0.41160983
000010 11 9a 54 bf 2f 25 10 3f 5d 3f 14 3f 11 35 00 3f
       -0.83047587 0.5630674 0.57909185 0.5008097
000020 ee a4 43 bf 33 c5 85 3e b6 3d 08 be 2e 97 67 3d
       -0.7642354 0.26127014 -0.13304791 0.05654066
000030 3d 05 24 bf 5c 9b 9b bf 3b 96 7c bc d7 7d 7d bf
       -0.64070493 -1.2156787 -0.015416677 -0.9902014
000040 9a 81 26 40 07 af 81 3f f4 50 42 be 46 91 23 3e
       2.6016603 1.0131539 -0.18976194 0.15973386
000050 bd f4 98 3e f4 39 9f 3f 2d ec 9b 3e 36 11 a3 3e
       0.2987422 1.2439561 0.30453625 0.31849068
000060 18 c3 03 3f be 55 15 3f db b5 0b 3e 07 e2 3e bf
       0.51469564 0.5833396 0.13643591 -0.7456364
000070 e6 0d eb bf 91 5b ca 3d c6 d3 34 bf e5 a6 a1 3e
       -1.8363616 0.09880746 -0.7063564 0.31572643
000080 7e 83 2c be 2f a1 92 be 2c 06 69 3f b8 ed 7e bf
       -0.16847035 -0.28638598 0.9102504 -0.9958148
000090 7e d0 97 3e 34 c9 74 bd 32 f7 7e 3f 71 e9 03 bf
       0.29651254 -0.059762195 0.9959594 -0.5152808
0000a0 d3 42 76 3f 23 33 52 bf 5b 29 af 3e 8e 81 22 3e
       0.96195716 -0.8210928 0.3421124 0.15869734
0000b0 fd 75 3d be 76 c2 a9 3e 9d 27 a5 be 24 a4 85 bf
       -0.1850204 0.33156174 -0.32256785 -1.0440717
0000c0 46 58 1d 3e 1b 2e 90 bf 0d cb 84 bd 19 c0 c3 be
       0.15365705 -1.126407 -0.06484041 -0.38232496
0000d0 b8 c2 c4 bf 18 70 95 be 38 8d 88 3f 15 40 27 3e
       -1.5371923 -0.29187083 1.0668097 0.16333039
0000e0 f0 3d 5a be 1a c2 b1 bf 7b 1e 88 bf 0b 85 37 bf
       -0.2131269 -1.388736 -1.0634302 -0.7168738
0000f0 8a e9 b7 3f 53 46 80 3e 60 08 29 3f 77 10 84 bf
       1.4368145 0.25053653 0.66028404 -1.0317525
000100 4e 8a 39 3f 50 d8 fc bf 05 a3 04 bf 54 c7 0f 3f
       0.7247666 -1.9753513 -0.5181125 0.56163526
000110 e0 76 aa 3e 8d 2e d0 3e be d8 44 3e 2f 7e 5b 3f
       0.3329382 0.40660515 0.19223306 0.85739416
000120 f1 50 02 40 76 a4 0e 3e d8 0e b2 bd 8e 35 8c bf
       2.0361903 0.13929924 -0.086942375 -1.0953844
000130 bb 36 cb 3e 3c d3 18 3f 01 21 21 3f ba 62 92 bf
       0.39690194 0.5969732 0.62940985 -1.1436379
000140 df 23 60 bf 76 7f 01 c0 34 09 8f 3f 5b 38 92 3d
       -0.87554735 -2.0234046 1.1174684 0.07139655
000150 85 37 6b 3f 07 c9 55 3f 3c db 9b bf c7 02 7d 3f
       0.9188159 0.8350987 -1.217628 0.9883236
000160 d0 6c 5a 3d 50 1c 4d bf 35 10 61 3f 6d c5 a4 3f
       0.053326428 -0.80121326 0.87915355 1.287275
000170 17 48 2d bf 94 25 05 3f 03 88 96 3e 5f 6a 4f bc
       -0.67688125 0.52010465 0.29400644 -0.012659638
000180 87 0e bd bf 4a a0 80 3f 49 49 a2 be 13 0f c5 3f
       -1.4770058 1.0048916 -0.31696537 1.5395225
000190 61 27 76 3e 27 19 aa 3e f2 d6 26 be 1d 39 11 3f
       0.2403846 0.33222315 -0.16292933 0.5672777
0001a0 b8 e2 4d bc 82 c7 18 bf c0 75 f8 bd 87 15 13 bf
       -0.012566261 -0.59679425 -0.12131834 -0.57454723
0001b0 2d e0 ce be e9 2b 5b 3f a1 e7 62 bf 10 73 5f 3f
       -0.40405408 0.85613877 -0.8863469 0.87284946
0001c0 97 92 d8 3e 62 c5 99 3f c5 42 bf bf d4 04 d0 bf
       0.4229934 1.2013361 -1.4942251 -1.6251473
0001d0 3a ac 75 bd 1a 36 89 bf 9d 74 b5 3f df 8c 1b be
       -0.0599787 -1.0719635 1.4176213 -0.15190457
0001e0 9a 2b 2c bf b1 70 46 3f f5 ac a1 bd c6 55 7f 3f
       -0.6725403 0.77515703 -0.07894317 0.99740255
0001f0 cd 64 65 3f c2 57 dc be f5 72 56 bf 86 61 21 3e
       0.89606935 -0.43035704 -0.8376916 0.15759858
000200 b8 81 5e 3d 99 4a 27 3f 33 81 6a 3d a6 03 46 bf
       0.05432293 0.653482 0.05725212 -0.7734932
000210 0b f7 fd be 73 43 c6 be 6e 53 15 3f 4c d6 98 bf
       -0.4960254 -0.38723335 0.5833043 -1.1940398
000220 89 51 2b bf 14 6b 0f bf 80 ca 27 bd 29 29 b3 3f
       -0.6692129 -0.56022763 -0.040964603 1.3996936
000230 9e 71 0d 3f 84 b4 03 bf b7 cd d3 be d2 b2 aa bf
       0.5525149 -0.5144732 -0.41367885 -1.3335822
000240 80 19 3c bf 7a 8b 04 bf ef 10 85 be 07 be 33 3f
       -0.7347641 -0.51775324 -0.25989482 0.70211834
000250 2e 73 1f 3f 78 ec 89 3e c6 0a 03 c0 08 de f1 3e
       0.62285125 0.26938224 -2.0475326 0.4723971
000260 4d 43 7b 3e d7 d2 ef be a1 eb a4 3d f7 1c 9a 3f
       0.24537392 -0.46840546 0.08052755 1.2040089
000270 bd 7a 05 3f f9 ba 93 be 93 92 a6 bf 8d 5d b2 be
       0.5214041 -0.28853586 -1.3013481 -0.34837
000280 4c 4d 20 bf ff 28 c3 3e 58 f8 23 3f e0 ad 71 3f
       -0.62617946 0.38117215 0.6405082 0.9440594
000290 3e 76 4b be b3 04 1b bf 51 82 5c be 08 52 92 bf
       -0.19869325 -0.60554045 -0.21534087 -1.1431284
0002a0 52 ac 14 3f 2c 63 be 3f d2 da 76 bf 56 47 4a 3f
       0.5807544 1.4874015 -0.96427643 0.790151
0002b0 e7 93 1a bf 65 52 9d 3f c0 1b b2 3f 79 8b 12 bf
       -0.6038193 1.229077 1.3914719 -0.5724407
0002c0 7a 42 35 3f cc 3d 9b bf 40 dc 13 bf a3 96 29 be
       0.7080456 -1.2128234 -0.5775795 -0.1656137
0002d0 5a e6 f7 be 6b e8 3c 3f c9 71 98 3d 87 75 7f bf
       -0.48417932 0.7379214 0.07443578 -0.9978871
0002e0 cc 2f c3 3e 65 a6 1a 3f 39 15 9d bf db 88 d9 3e
       0.38122404 0.6041015 -1.2272102 0.42487225
0002f0 65 7f 97 bf fd c8 ac bf 0a b2 c2 3f 3f c7 1e bd
       -1.1835753 -1.3498837 1.5210583 -0.038764235
000300 63 90 f1 3e 5f c5 8e bf ae 73 39 be a4 23 96 bd
       0.4718047 -1.1153983 -0.18110535 -0.07331017
000310 68 a0 a6 3e 96 9c 8f 3f 63 4c f7 3f 24 7b 85 3f
       0.32544255 1.1219661 1.9320186 1.0428205
000320 14 18 b9 bf 59 1b 02 bf 85 1f 96 bf 3b cf a3 3f
       -1.4460473 -0.5082298 -1.1728369 1.2797617
000330 ab 92 8c 3e f9 75 f9 3e 2d df 69 bc 3c 25 09 c0
       0.2745565 0.48722818 -0.014274401 -2.1428976
000340 3d 83 d4 3e a6 1d c5 bf ab c9 f3 3e c1 28 ba 3f
       0.41506377 -1.5399673 0.47614798 1.4543687
000350 b6 64 86 3f e3 96 9c 3f b3 4c d5 3d 35 8d c8 3f
       1.0499485 1.2233547 0.1041502 1.5668093
000360 1a 84 07 3c b1 f4 14 bf c1 23 3c 3e cc 16 01 19
       0.008271242 -0.5818587 0.18373014 6.6737475e-24
000370 ae ee f7 3d 34 23 81 be e3 27 46 be 14 f3 80 b9
       0.121060714 -0.2522217 -0.19351153 -0.0002459517
000380 b0 3b e2 b9
       -0.0004315055

weight f4 [5, 3]
000000 21 b5 42 3e cb 59 47 bf 40 e0 84 3e 63 55 72 3d
       0.19014408 -0.7787139 0.2595234 0.059163462
000010 83 1f 77 be b1 90 1b be 0f eb 42 bf 14 a2 12 40
       -0.24133115 -0.15191914 -0.7613992 2.2911425
000020 a4 7c b1 3f ba 86 54 c0 14 d9 ab bf b2 5a 0d c0
       1.3866162 -3.320723 -1.3425622 -2.2086606
000030 95 d9 5b 33 7d c3 4c 3f fb 80 0b 3c
       5.11878e-08 0.7998579 0.008514638

weight f4 [128, 38]
000000 ab eb 9e 3d 27 e9 c1 3d 63 4c 02 3d 15 97 32 bd
       0.07759794 0.094682984 0.03181113 -0.043601114
000010 2a 1f d7 3d ae f6 a6 3d 2a 7a 11 bc f1 aa d1 bd
       0.10503991 0.08152519 -0.008879224 -0.102376826
000020 35 d1 12 3e 05 82 0b 3d 24 e7 1a be 2e 35 10 3e
       0.14337619 0.034059543 -0.15127236 0.14082786
000030 e2 31 ae 3d 9f 1e 93 bd 44 5e 3f 3d 33 9c c0 bd
       0.08505608 -0.07183575 0.046720758 -0.09404793
000040 92 82 f1 bc bf 52 ff 3d c6 d4 e2 3c 06 81 bd bd
       -0.029481206 0.124669544 0.027689349 -0.09253125
000050 f8 ff 9d bd f5 83 60 bd 98 11 ac 3a 4f a2 d3 3c
       -0.07714838 -0.054813344 0.0013127802 0.02583423
000060 27 18 15 3e 2e 79 6f 3a fe 12 ac bd df 44 e2 bb
       0.14559995 0.00091351836 -0.0840206 -0.0069051827
000070 3b e0 c2 3d bd b0 cb 3d aa bb 20 be 87 9a 9c bb
       0.09515425 0.099458195 -0.15696588 -0.0047791633
000080 ac 58 07 be 79 44 be bd c9 0f 3d 3d 25 3e db bd
       -0.1321742 -0.09290404 0.046157632 -0.107052125
000090 ba 38 18 3d f6 c9 e7 3d 37 69 1f 3d 53 05 97 bd
       0.037163474 0.11317818 0.0389187 -0.073740624
0000a0 bb bf 99 bd 7e 52 97 3c d9 9f 71 be 62 83 c5 bc
       -0.07507273 0.018471953 -0.23596133 -0.0241105
0000b0 75 9c 80 be 12 32 ce bd 39 19 ee bd 3b 22 bc bc
       -0.25119367 -0.10068144 -0.116259046 -0.022965541
0000c0 cb 16 1e 3e 92 57 12 be f2 2b 36 3e fc a5 47 bd
       0.15438382 -0.14291218 0.17790201 -0.04874228
0000d0 02 69 b7 3d 55 e3 de 3b 8f ae 0a be 54 c6 12 3e
       0.089555755 0.0068020024 -0.13543151 0.14333469
0000e0 af f3 08 3e 20 e7 16 3e c4 98 10 3e d6 c3 2b bd
       0.13374208 0.14736605 0.14120775 -0.04193481
0000f0 94 71 dd 3d 22 80 3d bc 57 97 8f 3d 65 d9 e7 bd
       0.10812679 -0.011566194 0.07011288 -0.113207616
000100 7c e9 41 bc 4d 9c 08 be e1 75 00 bd 4d 36 14 3d
       -0.011835452 -0.13340874 -0.031362418 0.036184598
000110 40 07 be bd 25 bb 2c 3d d7 91 49 3d 21 05 2d 3d
       -0.092787266 0.042170662 0.04921135 0.04224122
000120 d4 e9 21 be 56 0a 01 be 49 c6 19 bd ee 42 ab 3d
       -0.15811855 -0.12601599 -0.037542615 0.08362375
000130 65 1c 38 3e 7d 5b d4 3d 38 93 f9 bc c0 01 37 3d
       0.17979582 0.103690125 -0.030465707 0.044679403
000140 41 73 60 be bb e0 57 be 71 4e ba 3c cf b2 89 bd
       -0.21918966 -0.21081822 0.022742482 -0.06723558
000150 33 11 3d 3d 23 12 36 bd 5f cb b6 bd 6b 33 7a bd
       0.04615898 -0.04445089 -0.08925509 -0.061084192
000160 86 47 b5 3d 10 ba 16 bc d8 c8 dd 3d bf e9 c2 3d
       0.08851533 -0.009199634 0.108293235 0.0951724
000170 91 91 a8 3d 7f f3 a9 3c a1 cb 82 bd a6 24 74 bd
       0.082308896 0.02074599 -0.063864954 -0.059605263
000180 1c ce 8c 3d 0a 75 87 3d ce 11 0f be 40 21 c1 3d
       0.0687525 0.0661412 -0.13971636 0.0943017
000190 7a 84 11 3d 40 39 ce bd 4b 16 72 bd 25 5f fe 3d
       0.03552673 -0.10069513 -0.05910329 0.12420491
0001a0 ee 83 19 3e 1c 44 27 be d5 c7 b5 3d b9 6e b2 3d
       0.14991733 -0.16334575 0.088760056 0.08712525
0001b0 96 3c f1 3d d1 56 08 3e ea ce 96 bd 3e bb 2a 3d
       0.11779134 0.13314368 -0.073636845 0.041682474
0001c0 f6 94 64 3d 76 7d 4f bd 81 3e b8 3c b9 a0 c1 bd
       0.055806123 -0.05065676 0.022490742 -0.094544835
0001d0 f8 b7 14 3e 96 5d 95 b8 f6 c1 77 bd 9f 6e 33 3d
       0.14523304 -7.1223054e-05 -0.06048771 0.04380667
0001e0 44 8c 6c 3d 44 e6 c0 bd 9b 10 43 3d 6e 11 92 3d
       0.057750955 -0.0941892 0.047623258 0.07132231
0001f0 b3 a5 71 bd 6f ee 0d 3d 35 cf 13 bd 49 d1 39 bc
       -0.058995914 0.034651216 -0.03608628 -0.011341401
000200 e6 4a f4 bd 22 e6 bb bd a5 e9 b5 bd 33 ae 0e 3e
       -0.11928348 -0.09174754 -0.08882455 0.13933639
000210 62 8d 04 bd 61 2f 7e 3c 45 13 ce bd 0b 10 df 3d
       -0.032361396 0.015514226 -0.10062269 0.10891732
000220 f3 e1 25 3e ee c0 0b be e1 e5 b5 bd f3 2e ff bd
       0.16199474 -0.13647816 -0.088817365 -0.12460127
000230 e2 3e 0b bc 82 01 23 bd a2 5d f6 bd 1c 09 21 bd
       -0.008498879 -0.03979636 -0.12029578 -0.039315328
000240 48 54 bd bc be 4c 87 bd b9 64 03 ba aa 29 5f 3c
       -0.023111477 -0.06606434 -0.0005012262 0.013620773
000250 7c e8 b4 bc c0 04 ad 3c 69 a0 fd 3d 95 71 01 be
       -0.022083513 0.021120429 0.123841114 -0.12640984
000260 64 dd ad 3c 7e 2f 2a bd 0b 84 0a 3e d0 18 36 be
       0.021223731 -0.0415492 0.13526933 -0.17782903
000270 7b ca 79 be c9 d7 86 3d 4e 56 30 be 36 36 1c bc
       -0.24393646 0.065841265 -0.17220423 -0.009534409
000280 98 b5 c6 3c 35 06 1a bc 02 68 46 bc 1e 00 cf 3d
       0.024256513 -0.009400894 -0.012109758 0.10107444
000290 00 85 17 3d 60 83 5c bd cb 13 ce bd 7f 11 7c bd
       0.036992073 -0.053836226 -0.10062369 -0.061540123
0002a0 ba d2 ce 3d ea 36 d2 bd 09 f0 28 3e fa a2 49 bd
       0.10098787 -0.1026438 0.16497816 -0.049227692
0002b0 3f 3d df 3b ab 91 06 3e 4f 56 54 3d e3 7e d3 3d
       0.006812721 0.13141505 0.051840123 0.10326936
0002c0 c1 4b f0 3d 31 9f 11 bd 3e 2a 8a bd 0c 6b ab bc
       0.11733199 -0.035552207 -0.06746338 -0.020925067
0002d0 91 1f 43 3e fa 20 80 bd 7f aa 24 be bb 3c 55 3d
       0.1905501 -0.0625629 -0.16080664 0.05205987
0002e0 e5 8a 15 3e 04 4d 64 bc ee f0 f7 bd da 49 0c be
       0.14603765 -0.013934378 -0.121065006 -0.13700047
0002f0 86 59 3f 3d 7e 58 6b bb de 6b 84 bd 8a 3a 0e 3d
       0.046716236 -0.00359109 -0.064658865 0.034723796
000300 c1 1a ab 3c 31 d6 b4 3d 92 74 f4 3c 63 58 f0 bd
       0.02088678 0.08829916 0.029840741 -0.117356084
000310 8f 44 70 be 2c 49 f7 bd 09 b0 dc 3d 66 6c c6 3d
       -0.23463653 -0.12074503 0.107757635 0.09688644
000320 fe 3e 51 3d ec c3 24 be af 60 1a 3e 17 40 2f 3e
       0.051085465 -0.16090363 0.15075944 0.17114292
000330 41 18 dd 3d 37 56 48 be ae b3 cc bd fb 4f 10 be
       0.10795642 -0.19564138 -0.09995209 -0.1409301
000340 97 c4 85 3e cf f5 33 bd 0e 84 8a bd aa 7c 85 3d
       0.2612655 -0.043935593 -0.06763469 0.065179184
000350 6a 47 d7 bb 42 d8 7e bd 74 13 56 3c 8b d7 b2 bb
       -0.0065697925 -0.06221796 0.013066161 -0.0054578236
000360 7b a4 a1 bd ef 52 cc 3d b1 4d 52 bd ec 47 b5 3d
       -0.078927 0.09976756 -0.051343624 0.08851609
000370 e8 55 0b 3e 17 3d 50 3d f3 2e 87 3c f8 a7 e9 3d
       0.1360699 0.05083951 0.01650188 0.114089906
000380 50 a4 92 bc c6 ca 5b bd 99 e4 f1 3d 65 67 a2 3c
       -0.017900616 -0.053660177 0.1181118 0.019824693
000390 82 76 05 be 7b 3a 70 bd c5 a9 d3 bd 31 f6 18 3e
       -0.13033488 -0.05864952 -0.10335115 0.14937665
0003a0 4e df f1 bd 6c 17 7c be ca 74 c2 bd 74 29 fa 3d
       -0.1181017 -0.2461831 -0.09494932 0.12214938
0003b0 05 a8 99 3d be 59 c0 3d d9 18 43 3d c8 0d 6f 3d
       0.0750275 0.09392117 0.04763112 0.058362752
0003c0 0b ed 3d 3c c2 9a 22 3d 97 da 2a be 5a cd 08 be
       0.01159216 0.03969837 -0.16684948 -0.13359585
0003d0 b4 4b 6b 3d 93 7a c2 bd 9f 40 ae 3c ec 23 02 3d
       0.057445243 -0.094960354 0.021271048 0.03177254
0003e0 de 43 84 3d ed 7c aa bd 4a 8b 35 3e 68 63 85 bd
       0.06458257 -0.08324609 0.17728916 -0.06513101
0003f0 7d 59 d7 3d 53 7b fa bd 54 8b 20 bd 5b 98 e7 3d
       0.105151154 -0.122305535 -0.039195374 0.113083564

bias f4 [128]
000000 73 d0 31 3a 88 02 c7 3d d0 d8 97 bd 8d 97 cc 3d
       0.00067830755 0.0971728 -0.074144006 0.099898435
000010 6d 09 1e 3e fe 33 41 bd 66 70 a4 3d 7d 33 19 bc
       0.15433283 -0.047168724 0.08029251 -0.009350655
000020 f4 dc f6 bb 97 c5 39 be 8a 23 2f 3e ae ba f7 3c
       -0.007533664 -0.18141781 0.17103401 0.030240383
000030 16 12 e2 bd fb e1 fc bd aa 94 40 3e 63 e5 1a bb
       -0.11038606 -0.1234779 0.18806711 -0.002363526
000040 5f 5a 39 bc 81 ff 4b 3d cb 2f 54 3c ee ac a7 3d
       -0.01131305 0.049804214 0.012950848 0.081872806
000050 63 86 1e 3e f0 73 2c bd 12 d8 14 3e 83 6c af bd
       0.15480952 -0.042102754 0.1453555 -0.08565619
000060 2b a3 39 bd 0a 02 b8 ba cc b7 36 ba 94 ac b1 3d
       -0.045321625 -0.0014038694 -0.0006970137 0.08675495
000070 ec e5 15 3c 01 e9 55 3d 9e 05 0d bd e3 eb 0f 3e
       0.009149056 0.052224163 -0.034429185 0.14054827
000080 7a 96 7d bd 2a f2 81 bc eb 97 a7 3d 34 cf 27 3e
       -0.061911084 -0.015862543 0.08183273 0.16387635
000090 85 0e ea 3d 0f 2b 01 be fb f3 27 bd 08 51 53 3d
       0.11428551 -0.12614082 -0.041004162 0.05159095
0000a0 78 78 7a bc b5 6e 10 3e 44 87 b2 3d 23 d8 c5 bd
       -0.015287511 0.14104731 0.08717206 -0.096603654
0000b0 17 6c f9 bc bc b5 90 3b 58 20 2f 3e 7a 56 aa 3d
       -0.030447049 0.0044161957 0.17102182 0.08317275
0000c0 5d 8b 2c bd de bb 96 bd f0 8f cf 3d c0 09 63 bb
       -0.042125095 -0.073600516 0.10134876 -0.0034643263
0000d0 41 dc 8f bd ce fe 10 be eb 7c d2 3c 30 63 85 bc
       -0.07024432 -0.141597 0.025694331 -0.016282648
0000e0 aa 6c 87 bd 9a e8 6d 3d 52 ce 69 3e 9b 8b 2f 3e
       -0.06612523 0.058083154 0.22832611 0.17143099
0000f0 f5 f0 0c 3e 6a 35 b1 bd f1 35 94 3d f8 7d 0d 3e
       0.13763793 -0.08652766 0.07236851 0.13817585
000100 6b 5f 93 ba e3 58 cd 3b e3 62 6a 3d e6 df c2 bd
       -0.0011243647 0.0062666996 0.057223212 -0.095153615
000110 7c 50 71 3b 3c ee 7b bd e0 b1 35 bd 78 ac 44 be
       0.0036821654 -0.061506495 -0.044359088 -0.19206417
000120 7c ac 7c 3c f2 ff e4 bd ba 96 22 be 07 b4 34 3d
       0.015421983 -0.1118163 -0.1587781 0.044117
000130 aa 32 16 be 7a a6 44 3e ba 58 53 3e dc fc b4 3c
       -0.14667764 0.19204131 0.20639315 0.022093229
000140 0a 6e 5f bb e9 a3 11 be 49 c9 00 3d 09 40 2c bd
       -0.0034092688 -0.14222683 0.03144196 -0.042053256
000150 eb 8b 8d bd e0 18 a8 3d f5 8b c8 bc d5 dc 88 bd
       -0.06911453 0.082078695 -0.0244808 -0.06682745
000160 b0 d7 40 3d b7 e5 37 be d0 37 be bd 24 f2 20 bd
       0.047080696 -0.17958723 -0.09287989 -0.039293423
000170 d1 d6 4b 3e 3f 80 ac bd 94 82 2f 3e f5 3f 23 bd
       0.19906165 -0.084228985 0.17139655 -0.039855916
000180 64 8f fe bc bf 21 5a bd fb 64 aa 3d 52 2a 53 3d
       -0.031074233 -0.05325484 0.08320042 0.05155403
000190 5e 2c 3b 3e d1 c4 cf bb 37 80 d6 bc 1e 53 a0 3d
       0.18278643 -0.006340601 -0.026184184 0.07828353
0001a0 34 51 0b bd fa 43 09 3e 7b 79 41 3d e6 f6 8e bc
       -0.03401299 0.13404837 0.047234993 -0.017451715
0001b0 c5 4b d5 bd bb f6 ff bd 26 e9 e6 3d a8 60 5e 3c
       -0.104148425 -0.12498232 0.11274938 0.013572849
0001c0 aa 5d 11 3e 62 f4 06 be ab 06 5b 3c 2f a1 28 3e
       0.14195886 -0.13179162 0.013368289 0.16467737
0001d0 31 63 09 3e fc 29 1e 3e 67 3b 01 3e ed 26 f6 b9
       0.13416745 0.15445703 0.12620316 -0.00046949778
0001e0 13 29 36 bd 20 ff 21 bd b3 e4 b6 3d 90 4b 17 bd
       -0.044472765 -0.039549947 0.0893034 -0.036937296
0001f0 39 30 29 3d 02 18 21 3d 35 71 aa 3d 62 b3 03 3e
       0.041305754 0.039329536 0.08322374 0.12861398

weight f4 [128, 128]
000000 2b c3 60 3d a6 be e9 bb 80 5a 83 b9 56 3e 10 bd
       0.054873627 -0.007133323 -0.00025053695 -0.0352157
000010 ee 55 a9 ba 02 41 47 bd 17 ce b0 bd 82 ed e4 3d
       -0.0012919286 -0.04864598 -0.086330585 0.111781135
000020 d3 5a c2 b8 01 2f 79 3d 86 e6 37 bd 4b d9 f8 3c
       -9.267558e-05 0.060835842 -0.04489758 0.03037705
000030 09 4b 91 bd 55 fe 23 bc 4c a9 d3 bd 33 e4 2b bd
       -0.0709439 -0.010009368 -0.10335025 -0.041965675
000040 cf b7 0b 3d 37 78 6a bd 90 2e 3c 3c da 6a 15 bd
       0.03411084 -0.057243552 0.011485711 -0.036478855
000050 f5 5c 01 be 15 ac 42 3d d3 7c af 3c ca 0d 3f 3d
       -0.12633117 0.04752739 0.021421826 0.04664401
000060 61 e0 ad bc 28 e4 ad 3d 31 88 42 39 55 71 6c 3a
       -0.021225156 0.08490783 0.00018552017 0.00090195733
000070 72 32 04 bd 31 e3 b2 bd c8 44 4f bd 7f 8c cf bd
       -0.03227467 -0.087347396 -0.050602704 -0.101342194
000080 ec ba 56 3d 7e 22 33 3d cf 97 a9 bc 9e ff 10 bd
       0.052424356 0.043734066 -0.02070227 -0.035400026
000090 34 00 21 3d 27 21 dd bd 96 17 25 bd 0e 4c 6b 3d
       0.039306834 -0.10797339 -0.040305696 0.05744558
0000a0 7b f3 23 3d 34 a9 f5 bd 9d 64 66 3d 3b 04 53 3d
       0.040027123 -0.119951636 0.056248296 0.051517706
0000b0 18 f1 4f bd 12 c6 88 3d f1 7b 0a be ee 18 e3 3c
       -0.050767034 0.06678404 -0.13523842 0.027721848
0000c0 0c b1 82 3d e4 9e df 3b b4 8d 6e bd 34 c9 e0 bd
       0.06381425 0.006824361 -0.058240607 -0.109758765
0000d0 11 c8 90 bd 0d f8 92 bc 05 12 14 bd 17 e8 0e 3d
       -0.0706941 -0.017940545 -0.036149997 0.034889307
0000e0 fb 00 e9 bd f8 83 18 3c 1a 0a fc bd 19 2f c7 bc
       -0.1137714 0.009308808 -0.12306614 -0.02431445
0000f0 5a a9 04 3d 3b 65 87 bd 6a 1f d3 bc ad f2 bd bc
       0.03238807 -0.06611105 -0.025771815 -0.023187006
000100 31 26 ab bd 3d 0e f7 3a 14 d9 03 bd ec 85 b5 3d
       -0.08356894 0.0018848848 -0.032189444 0.08863434
000110 b7 f7 78 bd 8f f1 15 bc b0 22 8e bd 34 e8 99 bd
       -0.060783114 -0.00915183 -0.0694021 -0.07514992
000120 74 0e 8e 3d 78 e8 97 3d 20 98 55 bc e2 3d 7d bc
       0.069363505 0.07417387 -0.013036758 -0.015456649
000130 a0 4b 92 bd 5c 42 12 bd 75 93 b6 bd 02 e9 e2 bd
       -0.071433306 -0.035707816 -0.08914844 -0.11079599
000140 69 0c 86 bd 6a 3a 40 bd 59 04 21 3c ea 02 a8 3d
       -0.06545336 -0.046930708 0.009827697 0.08203681
000150 cb c7 9a 3c eb ec ed bd 57 5f ad 3d c2 97 b1 3d
       0.018894097 -0.11617454 0.0846545 0.08671524
000160 f7 05 4d 3c 36 97 b1 3d 87 03 18 3d f8 16 d1 3d
       0.012513629 0.08671419 0.03711274 0.10209459
000170 92 6f 29 be 2c e0 92 bd 3e 47 74 bd 8a 8b 54 bb
       -0.16546467 -0.07171664 -0.059638254 -0.0032431805
000180 98 f3 94 bd 48 dd 7c bd c0 5e 73 bd bc a2 04 bd
       -0.07273024 -0.061734468 -0.059416533 -0.032381758
000190 c4 5e 36 3d bc 46 61 3d 94 85 4d bc 34 79 33 bd
       0.04452397 0.0549991 -0.012544055 -0.04381676
0001a0 4c a5 3d bd f0 59 2c 3c e9 55 93 bd c3 57 a4 3c
       -0.046300218 0.01051949 -0.071941204 0.02006138
0001b0 91 b4 37 3a 7d 6d 5c 3d 9a 11 39 bd d4 fb e4 3d
       0.00070078025 0.053815354 -0.0451828 0.11180845
0001c0 cf d3 01 bd 30 81 38 bd 28 72 66 3d 35 58 64 3d
       -0.031696137 -0.045045078 0.05626121 0.055748183
0001d0 bb f5 46 bd f1 9f c8 bd 51 56 53 3c 28 08 eb bd
       -0.04857419 -0.097961314 0.012898997 -0.11476165
0001e0 31 d8 09 3c e5 b3 b0 bd f8 7d dd bc f1 92 49 bd
       0.00841336 -0.08628062 -0.027037606 -0.0492124
0001f0 aa 8b 5f 3d 30 93 45 bc 0b 3b 95 3b e9 eb 76 3d
       0.054576553 -0.012059018 0.0045541576 0.060283575
000200 8c 9b aa bd 70 ef c5 3c 4e 74 80 bd 5b 18 95 bd
       -0.083304495 0.024162024 -0.06272183 -0.07280036
000210 9c 6e e0 3b 46 25 43 3b d5 2b b7 3d 85 b7 f7 bd
       0.006849123 0.0029776855 0.08943907 -0.120955504
000220 a8 dd e7 bc af ab 55 3b a9 05 b7 3c f6 ee 47 3c
       -0.028303936 0.0032603552 0.022341566 0.012202969
000230 91 06 0a bd 23 f7 13 bd 0c 8c aa 3c 20 96 f1 bd
       -0.03369767 -0.03612436 0.020818733 -0.11796212
000240 e8 d4 d8 3c b9 c8 ae bd 2f 6d 94 3c 07 79 59 3c
       0.02646871 -0.085343786 0.018118469 0.013273484
000250 3a 57 41 bd e7 fa 0a 3c e1 a2 b7 3d 37 b4 ab 3d
       -0.047202326 0.008482671 0.089666136 0.08383983
000260 e7 4a c7 3d ba 81 77 bd 4a 3a e5 3c 8f 90 8e 3d
       0.09731083 -0.06042645 0.027981896 0.06961166
000270 3d 85 3d 3d 26 55 95 3d a9 ae 77 bd 54 4b 58 3d
       0.046269644 0.072916314 -0.060469303 0.052806213
000280 fd 83 ee bc 24 37 72 bd 02 64 71 bd fb ba 7d 3d
       -0.029115671 -0.059134617 -0.058933266 0.061945897
000290 a3 b3 64 bd 34 28 12 bd ba 44 ac bc 3e e9 2d bd
       -0.055835377 -0.035682872 -0.021028865 -0.042458765
0002a0 7f 7d f3 3c 23 bc 7d 3d 28 ed be 3c f7 d9 41 3b
       0.029722927 0.061947 0.023306444 0.002957938
0002b0 4b f7 6b ba a8 f5 81 bd 81 7b 5b bd f1 6d bf bb
       -0.0009001388 -0.06345683 -0.05358458 -0.0058419635
0002c0 63 1e 90 bd 21 02 95 3d 2d 91 d2 3c ec 2c d1 3c
       -0.07037046 0.07275797 0.02570399 0.025534116
0002d0 ea 4e 83 bc b3 6d cc 3d 5f 17 9f 3d c3 10 ed 3c
       -0.01602884 0.09981861 0.077681296 0.028938657
0002e0 85 78 1a 3d 5b d3 41 bd 8d 12 37 3d b9 22 6e bd
       0.037712593 -0.047320705 0.044695426 -0.058138583
0002f0 23 20 1a 3d 28 79 59 bd 53 31 76 bc 1c f2 7c 3d
       0.037628304 -0.05309406 -0.015026408 0.06175433
000300 36 83 be 3c c0 a1 7e 3d f3 e9 f9 3c d4 05 ec bb
       0.023255926 0.062165976 0.030507063 -0.007202843
000310 bb 45 3e bb 0f 11 60 3d 6c 2f 1c 3d 8b 43 8a 3c
       -0.0029033262 0.05470377 0.038131163 0.01687791
000320 d5 45 48 bd 82 8e 32 bd 77 b2 19 bd d7 4d 19 bc
       -0.048894722 -0.043592937 -0.037523713 -0.009356937
000330 27 b9 1e bd 19 bb 47 3c 90 e7 b2 3d 88 50 db 3d
       -0.038750794 0.012190604 0.08735573 0.107087195
000340 97 a7 c1 bd 1c a1 20 3c 4c f6 60 3d 67 f4 b0 bd
       -0.09455793 0.0098040365 0.054922387 -0.08640366
000350 43 37 be 3d b3 d5 5c bd 36 8f 52 bd 06 31 45 bd
       0.09287884 -0.053914737 -0.051406108 -0.048142456
000360 59 3d fb bc f8 2e 69 bd 7d 20 fc 3c 2f 01 7d 3c
       -0.030668901 -0.05692956 0.03077721 0.015442177
000370 98 6a be 3c 3c a0 48 3d 8e 98 27 bd f2 59 c3 bd
       0.023244187 0.048980936 -0.04091697 -0.0953864
000380 6c 5b 3e bd 97 8e 73 bd bc d5 be bd ac 41 99 3c
       -0.046473905 -0.059462156 -0.0931811 0.018708073
000390 9c 4e a3 bd 43 78 7d bd 23 43 42 3d 1c 1f 92 bd
       -0.07973978 -0.06188227 0.047427308 -0.0713484
0003a0 74 38 67 3c 74 b5 26 bd 83 85 97 3c bb 27 16 3d
       0.014112581 -0.04070039 0.01849628 0.036658984
0003b0 45 23 67 bd fd 3a 8a bb 7c aa 62 bd ee f5 80 3d
       -0.05643012 -0.0042184577 -0.055338368 0.06296907
0003c0 09 e2 69 3d 0e b3 77 bc e3 e2 89 3d 8a 56 74 3d
       0.05710033 -0.015118374 0.06732728 0.059652843
0003d0 be 05 cb 3d b4 cb 91 3d ef 9e b7 3b 5a f6 a7 ba
       0.099132046 0.071189314 0.005603663 -0.0012814507
0003e0 35 9a b6 3a db 3f 09 bd de 59 04 bd 87 5b 75 3b
       0.0013931455 -0.033508163 -0.032312267 0.0037438588
0003f0 57 df 5f bd 09 45 ab bc 43 8c ec bc 72 3e 39 bd
       -0.054656353 -0.020906942 -0.028875476 -0.045225568

bias f4 [128]
000000 2b bf 9a bd 71 0a ce 3d 6a d1 cd bd 83 2c d0 3d
       -0.07555994 0.10060585 -0.10049708 0.1016474
000010 64 2f 7b bd f0 ef aa 3c 16 4f 90 3d 77 40 1a bd
       -0.061324492 0.020866364 0.070463344 -0.037659135
000020 c1 5b 20 3d 40 0e cb 3c 61 2a 4e bd 3a 49 6b bd
       0.039150003 0.024787068 -0.050333384 -0.05744288
000030 12 31 30 3d 8f 6a 8d bc 86 d0 0a bc a9 7c 2a bd
       0.043015547 -0.017262725 -0.008472567 -0.04162279
000040 ca 9c f9 3c 9b 31 91 bc 6d 6d 7a bc e1 2f 3e 3d
       0.03047027 -0.017723849 -0.015284878 0.04643238
000050 6c 85 e4 bd 89 f4 91 3d bd 3e cc bc e2 25 1b 3c
       -0.11158261 0.071267195 -0.02493226 0.009469481
000060 0e 64 29 3d 17 40 15 bd a6 8e 1c 3d 63 f7 3f 3c
       0.041355185 -0.036438074 0.038221978 0.011716696
000070 29 3a cb 3d be ee 5d bc ae bc 6e 3d 7e ea 5e bd
       0.099232025 -0.01354569 0.058285408 -0.054422848
000080 10 76 4b 3d 7b ea a4 3d db 4c ca bc 60 47 ca 3d
       0.04967314 0.08052536 -0.02469485 0.09876895
000090 ba 17 d7 3d 11 b4 a4 bd 11 3e 86 3d e6 ec 9a 3d
       0.10502572 -0.080421574 0.06554807 0.07564716
0000a0 55 fc 81 bd 8f 3b f0 3b 37 57 12 bd 48 ca 8c bd
       -0.06346957 0.0073313187 -0.035727706 -0.068745196
0000b0 f6 ed 27 bd cb 37 45 bc 58 c5 ab bc b3 37 c7 3d
       -0.04099842 -0.012037228 -0.020968124 0.09727421
0000c0 f2 8a 93 3d 57 fc ba bb 5b 14 8c bd 53 ac 3d 3c
       0.07204236 -0.005706351 -0.0683982 0.01157673
0000d0 44 18 9f bc ba dc 26 bc 33 20 fc 3c 55 d6 ce bc
       -0.01942075 -0.010184461 0.030777073 -0.025248686
0000e0 95 91 56 3d 63 99 32 3d 04 af e7 bc 79 7d 1e bd
       0.05238493 0.043603312 -0.028281696 -0.03869388
0000f0 0a 83 47 3d 3c c5 21 3d 1e 0f d7 3d c9 df 2c 3d
       0.048708953 0.039494738 0.1050093 0.042205606
000100 af d3 25 3d ac 51 c8 3d 1b d2 90 bc 2b 56 7c bd
       0.04048508 0.09781203 -0.017678311 -0.061605614
000110 80 b3 bc 3d 18 b2 eb bc 6c fe 00 3d 4e 38 af 3d
       0.092139244 -0.028771445 0.031492636 0.08555661
000120 71 ee 96 bc 3b af 22 3d d2 26 6e 3c 6f cc 62 3d
       -0.018424245 0.039717894 0.014535623 0.055370744
000130 02 6d af 3d 15 0f d4 3c 57 ca 46 bd 47 85 c2 3d
       0.085657135 0.025886098 -0.04853281 0.09498077
000140 b9 e4 0f bc aa ec 9e 3b e0 7a f1 3d 4b 33 7a 3d
       -0.008782559 0.00484999 0.11791015 0.061084073
000150 27 27 b0 3d 81 92 64 3d c6 dd 35 bd 8b 3c 50 b9
       0.08601218 0.05580378 -0.044400953 -0.0001985898
000160 87 b3 c8 ba 45 4e d2 3d 4e d1 53 bd 99 62 3a bd
       -0.0015312292 0.10268835 -0.05171328 -0.045504186
000170 71 f0 2f 3c c8 be 7f 3a 0a 33 70 bd 73 78 94 3d
       0.010738478 0.00097559066 -0.058642425 0.07249536
000180 c2 2f 70 3d a1 45 1e bd 57 d6 6d bd 2d c1 38 3d
       0.058639295 -0.038640622 -0.05806574 0.0451061
000190 9e 9a 31 bb ae 8f 9c 3d 0e 14 ed 3d c4 41 3d bd
       -0.0027100216 0.07644592 0.11576091 -0.046205297
0001a0 0c b3 97 bc 62 37 57 bd d6 3b a4 bc 3d 85 a7 bc
       -0.018517993 -0.05254305 -0.020048063 -0.020449275
0001b0 ab cf 95 bd a9 5a 8c 3d 5d 1f dc bd 39 b6 3e 3d
       -0.07315 0.068532296 -0.107481696 0.0465605
0001c0 47 0a 87 3d 29 bf 6f 3c 3d 8c 16 bd 21 a5 4e 3d
       0.06593757 0.0146329785 -0.036754835 0.050450448
0001d0 e4 ce 1c bd 93 02 a1 bc b5 88 ac 3d 5c 2f d1 bc
       -0.038283244 -0.019654548 0.08424512 -0.025535278
0001e0 6c 2c a2 3c 82 cd a0 3d c5 34 7d 3d 3f 88 7a 3d
       0.019796573 0.078516975 0.061817903 0.06116509
0001f0 32 f6 06 bd 27 a0 65 3d 03 a4 d1 3d a7 c3 ae bc
       -0.032949634 0.056060936 0.10236361 -0.021333529

weight f4 [128, 128]
000000 d3 03 74 1e a7 6b 50 03 f4 ef 8e a2 04 c6 7e bb
       1.2918043e-20 6.1249285e-37 -3.8743237e-18 -0.003887535
000010 bc 08 2f bd 87 5f 21 3a 0e cd f3 3c 9b a9 9f 99
       -0.04273294 0.0006155897 0.029760864 -1.6508718e-23
000020 72 8d 9d 0d fd 6f 12 3d a2 91 12 bd 6e 98 c0 83
       9.709924e-31 0.03575133 -0.035783418 -1.1319742e-36
000030 35 f3 ed 3c 96 0f bb 03 46 46 95 38 d0 d0 b9 bb
       0.029046634 1.09944505e-36 7.117963e-05 -0.0056706443
000040 64 59 b5 3c 09 29 68 bb b4 c5 82 8e ef 00 92 bc
       0.022137351 -0.003542485 -3.2237855e-30 -0.01782271
000050 65 5d 2f bd bd a4 d5 bc 31 fd 7a bb 9b ca 7e ba
       -0.042813677 -0.02607953 -0.0038297886 -0.00097195216
000060 c9 c8 ca bb 0e c4 9c a1 08 d0 9f 83 a6 b3 61 3c
       -0.0061884862 -1.0622866e-18 -9.392942e-37 0.013775742
000070 76 b6 83 bb d6 0a c6 83 51 a1 c8 3c d2 54 bb 3c
       -0.004019554 -1.1639882e-36 0.024490984 0.022867594
000080 00 b4 b6 3b 2d e6 b1 92 9f 5d a2 83 5b 59 16 3c
       0.005575657 -1.1227013e-27 -9.542999e-37 0.009176577
000090 9d 2d 56 1f 60 95 98 11 0a 29 01 bd 2d 69 3a bd
       4.5353993e-20 2.407343e-28 -0.03153328 -0.04551046
0000a0 de 25 b2 03 82 84 8f 83 04 0b 02 04 dc d5 1d 3d
       1.0470594e-36 -8.435207e-37 1.5286485e-36 0.03853403
0000b0 ed 5b 9d 83 d5 be 20 bd ee d2 70 bb 71 06 88 bc
       -9.248736e-37 -0.03924449 -0.0036746818 -0.016604634
0000c0 85 8a de ba ae ec 09 03 a5 8d 09 04 06 72 d9 9d
       -0.0016978538 4.0532376e-37 1.6169313e-36 -5.755732e-21
0000d0 82 d3 0d 83 d6 e2 9d 3b 94 ac f7 3c d1 09 3d 9f
       -4.1678975e-37 0.0048183007 0.030233659 -4.0030427e-20
0000e0 d2 b5 bd 83 e4 2a 9f bb 0f 38 2a bd ef ac 93 9c
       -1.11501655e-36 -0.004857408 -0.041557368 -9.772346e-22
0000f0 8a 32 71 9c 8a 19 35 03 a8 aa 84 bb 06 9d 17 bc
       -7.980553e-22 5.3220437e-37 -0.004048664 -0.009253746
000100 67 43 ac bc 22 10 05 a1 3d f9 8a bb 75 49 38 9a
       -0.021028234 -4.5083504e-19 -0.0042411373 -3.8109646e-23
000110 5a b5 cd 3c 94 e1 ac bc ea f0 0f 90 34 7c e5 bc
       0.02511089 -0.021103658 -2.838737e-29 -0.028013326
000120 d3 d4 a5 9d 1e 26 1e 3d e2 ca b2 b9 0a 87 9e 3b
       -4.389519e-21 0.03861057 -0.00034101965 0.0048378753
000130 ac 0f 74 bb b5 ed 91 03 52 0a ae 3b d8 83 1a bd
       -0.0037240786 8.576909e-37 0.005311289 -0.037723392
000140 17 53 7a 8d 5b 86 c7 bb 18 0c 33 bc e6 b8 ea ba
       -7.7137214e-31 -0.0060890145 -0.010928176 -0.0017907887
000150 d7 a8 02 bc e6 aa c0 17 20 15 2a 03 fb 35 36 bd
       -0.007974825 1.245085e-24 4.998276e-37 -0.044485074
000160 dc 3d b6 bb df 9b f7 ba fe 65 38 bb 2b 76 fc 8c
       -0.0055615734 -0.0018891058 -0.0028136964 -3.8897867e-31
000170 8e 5e b6 03 d7 66 8b ba 90 25 d8 02 a4 79 14 90
       1.0718707e-36 -0.0010635507 3.1759907e-37 -2.9281562e-29
000180 cb 06 cb bc e8 f2 17 bd 18 2a 8f bc 06 ce b6 18
       -0.024783513 -0.037096888 -0.017476127 4.7253928e-24
000190 e8 b2 d9 21 14 4a 9c bb 19 81 84 96 d2 f8 44 bb
       1.4751848e-18 -0.004769573 -2.1407222e-25 -0.0030055535
0001a0 e1 3c 34 bd f4 ba e8 83 89 8f 23 1b 06 4d 89 bc
       -0.04400337 -1.3678657e-36 1.3529423e-22 -0.01676036
0001b0 91 7b 04 9e dc 1b 17 9a da b2 b9 83 cc b0 e9 0f
       -7.013575e-21 -3.1248573e-23 -1.0914385e-36 2.3043674e-29
0001c0 cf c8 13 bd ba 60 85 83 7c 7e d3 3c 3d 91 58 9f
       -0.036080178 -7.839245e-37 0.025817148 -4.5859917e-20
0001d0 8e 58 a8 9a cb d0 e5 3c 85 80 db 89 76 32 b3 83
       -6.962624e-23 0.028053662 -5.284319e-33 -1.053226e-36
0001e0 3b 80 ae 3c 08 4b 98 83 8f 80 50 bb 27 f0 aa 83
       0.02130138 -8.950983e-37 -0.0031814908 -1.0046838e-36
0001f0 ac 4a e5 1d 51 23 d7 3c b8 0d 78 03 9e d0 7c 22
       6.0693004e-21 0.026261957 7.28964e-37 3.426281e-18
000200 27 ef d6 bb ee 04 47 bd 22 54 81 bd 62 2a 9f 3c
       -0.006559271 -0.048588686 -0.06314875 0.01942939
000210 5c 5d d5 3b cd 10 8d 3d 2c 1b 77 3d 00 0d ed 3c
       0.0065113734 0.0688797 0.060328647 0.028936863
000220 95 c9 76 3d 2d cd 66 bd 56 d8 64 bd 82 c0 28 3c
       0.060250837 -0.056348015 -0.055870377 0.010299804
000230 1a 6f 2a bd ea 9a 9e 3d c1 7b 55 3c 64 7d a9 3c
       -0.04160986 0.07744391 0.0130299935 0.020689674
000240 6e a6 5c bd 29 d6 1e bd b1 cc ab 3d 7e 48 6a bd
       -0.053869657 -0.038778458 0.08388651 -0.05719804
000250 75 77 f7 b9 12 b3 83 3d be a0 ff 3b e9 8b c3 3c
       -0.00047200514 0.06430639 0.0078011444 0.023870425
000260 3c 72 95 3d ab 7d b9 3b 7e fc 9e 3d a0 34 7f 3c
       0.07297179 0.0056607327 0.07763003 0.015576512
000270 0e a1 b8 3a 21 5e 70 bd e0 e4 c5 3b 36 c7 af 3d
       0.0014086084 -0.05868352 0.006039247 0.08582918
000280 ee d5 1d 3d 10 a7 32 bd 48 ee b9 bc 6b fe 57 bd
       0.038534097 -0.043616354 -0.02269663 -0.052732866
000290 69 db 67 bd 0b d7 82 3d 3d 1e 1b bd af 61 57 3d
       -0.05660573 0.063886724 -0.037870634 0.052583393
0002a0 a9 17 d1 3c f3 42 92 bd a9 d6 8f bc ae f3 0c 3d
       0.025523977 -0.07141676 -0.017558413 0.03441208
0002b0 5a 04 40 bc 48 9a 7f 3d 16 7c 73 3d e6 01 a9 3d
       -0.0117197875 0.062402993 0.05944451 0.08252315
0002c0 6f 0f 01 bd ef 72 a5 3d 20 c7 c1 bd 2c da bc 3d
       -0.03150886 0.080785625 -0.09461808 0.092213005
0002d0 06 0c f0 3b d8 fc a7 3d 1c 96 0a bd 36 45 90 3b
       0.007325652 0.08202523 -0.03383456 0.004402782
0002e0 81 a7 14 bd 69 d3 4e bd d9 54 53 3d 16 4d 18 3d
       -0.036292557 -0.050494585 0.05159459 0.03718289
0002f0 60 4f 96 3d 78 38 04 ba 33 4d 17 3d c1 6d e7 3b
       0.07339358 -0.0005043815 0.036938857 0.007062644
000300 f8 e0 ef bc bc 3d b2 3d 54 49 47 bd fe 56 06 3a
       -0.029282078 0.08703181 -0.048653916 0.0005124657
000310 be bd 98 bc d0 9d 4d bc 03 5e 3b bd 7e ed 25 3b
       -0.018645164 -0.012549832 -0.045743953 0.0025318558
000320 91 24 cb 3b dd e2 26 3d fe 78 36 3d 3c 93 ba 3d
       0.0061994274 0.040743697 0.04454898 0.09110114
000330 a0 24 fe bb ec d7 69 3d 4f 3b d8 bd d9 a7 dd bc
       -0.007755831 0.057090685 -0.10558187 -0.027057575
000340 72 e7 87 bd 7a 78 5b 3c 9d bb ab 3d 57 42 9e bc
       -0.066359416 0.013395423 0.08385394 -0.019318743
000350 ab ea 6a 3d ff 7b 68 bc 79 cf 9d bd 56 7c 53 bd
       0.057352703 -0.014189719 -0.07705588 -0.051632248
000360 e7 bb 11 3d 8e f7 92 3d bb 8b 4d bd 58 1a 74 3d
       0.03557959 0.071761236 -0.050182085 0.059595436
000370 72 e4 ca 3b 7d a6 1b bd f9 ca aa bc bd ed 9a 3d
       0.0061917836 -0.038000572 -0.020848738 0.07564876
000380 73 80 54 3d 34 c2 93 bd eb d0 48 bd 75 b2 62 bd
       0.05188031 -0.07214776 -0.049027365 -0.05534597
000390 b4 e3 47 bd cd cd bd bc 90 e7 dd 3c 1f 81 d7 bb
       -0.04880114 -0.023169423 0.027087957 -0.0065766717
0003a0 c0 32 24 bd 93 70 be 3d 12 0c 91 3d a3 7c 37 bc
       -0.04008746 0.092988156 0.0708238 -0.011199149
0003b0 4d f0 c0 bd 50 90 99 3d ac fd ed b9 ff 56 8f bc
       -0.09420834 0.074982285 -0.00045393163 -0.017497538
0003c0 0b 73 8a 3d ea 75 04 be 51 ca a7 bc bc 32 6b 3d
       0.06760224 -0.12935606 -0.020482214 0.05742143
0003d0 a6 19 85 bc ff 7c 0d bd cb f5 3c 3d c0 41 db bd
       -0.016247582 -0.034543034 0.046132844 -0.107059
0003e0 dd 0c 7a bc 35 e0 1f 3c 54 e0 9e 3d c8 e6 20 bc
       -0.015261856 0.009758045 0.07757631 -0.009820648
0003f0 74 2a 78 bd 97 62 e1 bd 19 ad 85 3d cb a6 57 3b
       -0.06058736 -0.11005133 0.065271564 0.0032905813

bias f4 [128]
000000 d5 3e 10 bd d8 3b d8 3d d9 0a 8c 3d 0b 3c bf 3d
       -0.03521617 0.10558289 0.068380065 0.09337624
000010 38 6f 88 3d 63 3b 77 3d 82 b5 12 3d f2 9d 05 3e
       0.06661838 0.06035937 0.03581763 0.13048533
000020 a9 2c a4 3d 50 f1 28 3d 16 6c a7 3c 37 7d ad bd
       0.08016331 0.04124576 0.020437282 -0.084711485
000030 5b 91 6e 3d ad 55 0a 3c 6f d0 b4 3c 57 68 af bc
       0.05824409 0.008443278 0.022072045 -0.021412058
000040 4b 78 44 3d 5a dc 87 bd 3c 33 8d 3b eb bb 7f 3d
       0.047966283 -0.066338256 0.004309086 0.062435072
000050 d0 23 df 3d c2 77 a4 3d ea 16 95 3d 84 12 6c bd
       0.108955026 0.080306545 0.07279761 -0.057634845
000060 60 e0 fb 3b 18 da 37 bd 65 1d 68 bd 11 19 b9 3c
       0.0076866597 -0.044885725 -0.056668658 0.02259496
000070 32 26 30 bd 94 6e bb bc ea 0f 9c 3b 88 f3 c6 3d
       -0.043005176 -0.022879876 0.0047626393 0.09714419
000080 18 b5 6d bd af 0d 48 bc a5 c0 ce 3b 8a 04 1c 3c
       -0.058034033 -0.012210294 0.006309586 0.009522567
000090 7e 34 81 bd 87 a0 d7 3d 6c 24 d6 bc a2 e1 2a 3c
       -0.0630884 0.10528665 -0.026140414 0.010429772
0000a0 a7 d4 a2 3d ea 95 82 3b 86 b7 03 3e 35 2a e6 bc
       0.079507165 0.0039851563 0.12862977 -0.028096298
0000b0 8b 79 bf 3d 09 9b 53 3d 0e c1 b4 3d bb aa 36 bc
       0.09349354 0.051661525 0.08825885 -0.011149104
0000c0 3c be 2d 3c 3a a2 c6 3d b3 7f 2b 3d 32 ad 9a bd
       0.010604437 0.09698911 0.04186983 -0.07552566
0000d0 18 a7 8c bc 29 56 9e 3d f8 7b 1b bd 09 3e 6c bc
       -0.01716952 0.077312775 -0.037960023 -0.014419087
0000e0 a2 a7 14 3d f6 0d b6 3d 93 6b b8 3d 49 dc 9f 3d
       0.03629268 0.088893816 0.09004893 0.07805688
0000f0 ad 81 f7 3c 6f e1 b7 bd b1 75 d1 3d 45 0d 99 3d
       0.030213201 -0.08978545 0.10227526 0.07473234
000100 68 ab e8 bb 17 17 b9 bc 7a 03 d7 3c 92 f8 80 bd
       -0.0071005113 -0.022594018 0.026246775 -0.06297411
000110 3a c7 65 3d 7d 26 86 bc 4a 37 68 bc c4 ec 24 bd
       0.0560982 -0.016375775 -0.014173338 -0.04026486
000120 a8 b0 ca 3c b3 9d f4 bc e5 6e cf 3c f2 64 00 bd
       0.02474244 -0.029860353 0.025321433 -0.03134627
000130 6c f1 e3 bc e6 98 39 3d b0 34 78 3d d2 03 7d 3d
       -0.02782508 0.04531183 0.06059712 0.06177122
000140 e3 7a 85 bd 07 f0 ce 3c 15 29 c4 3d 81 87 37 bd
       -0.065175794 0.025260938 0.09578148 -0.04480696
000150 4c b7 ed 3d e1 ef 8c bd d8 90 fd 3d 64 c4 05 bd
       0.11607227 -0.06881691 0.123811424 -0.032657996
000160 bc d2 a9 3d 13 24 bd 3c cb 66 60 3d cd 06 a6 3c
       0.082921475 0.02308849 0.05478553 0.020266915
000170 ad 67 82 bc 91 5d a1 3d 24 3f 1b 3d 1d c4 bc bc
       -0.015918577 0.078791745 0.037902012 -0.023042733
000180 dc 50 09 3d 49 2c 86 3d 7a 87 83 3c 1d fc 05 3e
       0.03352438 0.065514155 0.016055811 0.13084455
000190 a7 6b 1e bd 27 83 ab 3d b2 a1 a9 3b 0d 24 2c bd
       -0.038676884 0.08374625 0.0051767463 -0.04202657
0001a0 66 61 f4 3c dc d0 92 39 31 ce 22 bd 12 a7 5e bb
       0.0298316 0.00028002902 -0.03974742 -0.0033974093
0001b0 59 a0 21 bd ec 48 c9 3b b8 31 11 bd ea 8e 31 3d
       -0.03945956 0.006142726 -0.035447806 0.043349184
0001c0 42 b1 b8 3c dd 48 5e bd a4 26 12 bd 5e fc f2 bc
       0.02254546 -0.054268707 -0.03568138 -0.029661354
0001d0 ff 4c 1f bc 44 d2 b4 3d 6b 40 f5 3c 2f ef 91 3d
       -0.009722947 0.088291675 0.029937943 0.07125699
0001e0 b2 cd 28 3d 9b 98 19 3d 60 d8 25 3d ca cb 0c bd
       0.04121179 0.03749905 0.040489554 -0.034374036
0001f0 55 1e ac 3d e7 b3 86 bb 77 ee 65 bd 7c 00 8e 3d
       0.08404223 -0.0041108015 -0.05613562 0.06933686

weight f4 [128, 128]
000000 a9 94 12 bc a7 41 aa 3d 2b 28 a2 3d 8e 10 84 3d
       -0.008946576 0.083133034 0.07917818 0.0644847
000010 4b 5d 69 3d fc 48 e6 3c ff ab 2d bd 9b 4d 56 3d
       0.056973737 0.028110974 -0.042400356 0.052320104
000020 34 2c 25 bc bd 70 04 bd 7a f8 bc 3d 2e b0 20 3d
       -0.01008134 -0.032334078 0.09227081 0.039230518
000030 16 d8 c9 3d aa 69 39 bc d9 0f 72 3d f5 d2 22 3d
       0.09855668 -0.011316696 0.059097145 0.039751966
000040 6b fa 05 bd 89 62 2a bd 32 33 52 bc b8 b2 46 bd
       -0.03270952 -0.041597877 -0.012829589 -0.048510283
000050 b9 c4 23 3d 99 97 8d bd 2f e6 90 3d 77 4d 30 3d
       0.03998253 -0.069136806 0.07075154 0.043042626
000060 85 d9 c7 bc 3e 60 6a 3d a0 d5 5d bd fa 8a 0b bd
       -0.024395714 0.05722069 -0.054158807 -0.034068085
000070 a0 ac 27 3d db 77 f3 3b ce 57 e4 bc af 2c c2 3d
       0.040936112 0.0074300594 -0.0278739 0.09481179
000080 aa 7c c3 bd 2a 6c d4 3b ba f2 e4 bc 89 6f b9 3d
       -0.09545262 0.0064826207 -0.027947772 0.09054477
000090 35 0e 64 bd 47 40 2d 3d 6c 8c 8f ba 7a c6 8d 3d
       -0.05567761 0.042297628 -0.0010951883 0.06922622
0000a0 2d 99 c1 3d 6c 73 52 bd 2e d7 67 bd 8d 77 1d bd
       0.09453044 -0.051379606 -0.056601696 -0.03844409
0000b0 b1 6e 56 bb db cb 52 3d da 10 c8 3a 86 6b 9e 3c
       -0.0032719786 0.051463943 0.0015263811 0.01933838
0000c0 cc 84 9a bb 20 10 30 bb fe 6d 63 3d 4e c2 0c 3c
       -0.0047155377 -0.002686508 0.05552482 0.008591248
0000d0 0d 46 0d bd f4 65 ba 3b 04 97 a2 bd dc e4 81 3d
       -0.034490634 0.0056884233 -0.0793896 0.063424796
0000e0 83 f6 8a bb 2d e8 c6 3d f8 37 4c bd 09 77 ad 3d
       -0.0042408123 0.09712253 -0.049858063 0.0846997
0000f0 f4 91 63 bd 5c 99 95 bd 6c cd 84 3d 00 74 57 bd
       -0.055559114 -0.073046416 0.064844936 -0.05260086
000100 55 a1 80 bc 56 0c 20 bd 54 bc 08 bd d4 b2 98 3c
       -0.01570193 -0.039074264 -0.03338273 0.01863996
000110 23 00 a7 3d 5c 40 cf bc a8 d9 ff 3b 5d 6d 88 3d
       0.08154323 -0.025299244 0.007807929 0.066614844
000120 fa 4e b0 bc 22 a6 86 3d 35 34 58 bd e2 00 6b bc
       -0.021522034 0.06574656 -0.052784164 -0.014343472
000130 3b d6 5c 3d c3 1f 62 bc 4f 57 c4 bd dc 35 16 3d
       0.053915244 -0.013801518 -0.09586965 0.036672458
000140 1b 84 cf bd 61 75 85 bd bd de bb 3d 8f b6 af 3d
       -0.10132619 -0.06516529 0.09173343 0.08579742
000150 6c 02 34 bd b7 3d 84 bd 68 1c fd 3b 6d 1b 79 3c
       -0.043947622 -0.06457084 0.0077243336 0.015204293
000160 e3 71 52 3d f1 08 85 bd 7e 51 41 bd 67 82 c4 3c
       0.051378142 -0.06495846 -0.047196858 0.023987962
000170 45 9f 11 bd 21 c8 8e bd 95 28 aa 3d 19 11 b4 3d
       -0.035552282 -0.06971765 0.08308522 0.087923236
000180 3d 1b 99 3d 44 0e 36 3d a8 5a 25 3c 55 0b 1e bd
       0.074758984 0.0444472 0.010092415 -0.038585026
000190 ef aa dc 3c 37 69 b9 3d 5a 4b 6c 3d 96 e2 95 bd
       0.026936976 0.09053271 0.05768905 -0.073186085
0001a0 96 47 8a 3d bc 85 b9 3d 5f 41 92 3d 86 4b 14 bd
       0.06751935 0.09058711 0.07141375 -0.036204837
0001b0 9e 1c 09 3c cf ac a5 3d ca 42 3d 3d b3 56 dc bc
       0.008368639 0.08089601 0.046206273 -0.02689681
0001c0 f2 b3 38 3d d1 47 4d bc 75 22 cf bc b3 2c 44 3b
       0.045093484 -0.012529329 -0.025284985 0.002993387
0001d0 97 cf 0c bd db f9 23 bc 21 6d 92 3d 30 8d 05 bb
       -0.03437766 -0.010008301 0.07149721 -0.0020378344
0001e0 87 59 c8 3d 18 46 bc 3c 48 d2 7e bd a0 23 48 3c
       0.09782701 0.022982642 -0.06221226 0.012215525
0001f0 c8 05 bb bc 51 42 1b bc 13 58 31 bb 0c 8c a7 bd
       -0.022829905 -0.00947626 -0.0027060553 -0.08181009
000200 c1 d3 36 0c e9 09 8d a2 bd e0 fe 9c 98 72 be a7
       1.4084492e-31 -3.822862e-18 -1.6866404e-21 -5.2859836e-15
000210 c9 c7 bc a9 6b 9d 0c a9 c2 b4 3f a7 88 b2 dc 15
       -8.3835343e-14 -3.1222783e-14 -2.6604564e-15 8.9138965e-26
000220 fe ad b6 21 3b 88 7b 04 db c4 e3 a3 c9 f3 f6 86
       1.2378855e-18 2.9567462e-36 -2.4694761e-17 -9.2893125e-35
000230 39 d8 62 16 4e a2 dc 8e 5c fb 98 a0 44 b7 37 17
       1.8324362e-25 -5.439048e-30 -2.5916137e-19 5.9361803e-25
000240 e3 92 6b 96 c3 71 8f 95 e9 1d 01 a4 26 84 ca a5
       -1.9029498e-25 -5.7936724e-26 -2.799775e-17 -3.5130961e-16
000250 26 cd 11 96 9e b5 e9 9c c2 bc 9a 17 c9 8d 55 08
       -1.177774e-25 -1.5465594e-21 9.999666e-25 6.4264024e-34
000260 7e 78 59 9b 08 77 bf 03 2f 99 b4 98 9d 6e 4e a0
       -1.7988752e-22 1.1253299e-36 -4.6683585e-24 -1.7485478e-19
000270 2b 1b 21 17 29 13 15 16 e1 16 3a 1c fe bd c8 a7
       5.2056197e-25 1.204217e-25 6.157181e-22 -5.571714e-15
000280 6b d4 e3 92 6e 38 2f 05 c2 a0 ef 98 af a9 74 97
       -1.4378079e-27 8.238825e-36 -6.1942376e-24 -7.9054823e-25
000290 8f 2c 9f a0 fc 37 5a 96 16 5d 36 09 f4 78 03 16
       -2.6965134e-19 -1.7627565e-25 2.1951222e-33 1.0620262e-25
0002a0 07 21 dc a7 f8 49 96 83 4e f5 e6 a8 f0 7f 63 8f
       -6.1098075e-15 -8.83319e-37 -2.5641514e-14 -1.1216604e-29
0002b0 35 e7 1d 9b b3 22 be 83 41 36 7c 0e b1 91 7d a5
       -1.3061443e-22 -1.1175163e-36 3.108752e-30 -2.1993614e-16
0002c0 06 4e 26 96 5b 7a ed 1f 47 a9 89 a9 86 4c 91 21
       -1.3433993e-25 1.00575824e-19 -6.113387e-14 9.845838e-19
0002d0 27 5d 8f a6 b7 67 da 94 64 b3 44 96 61 ff 14 04
       -9.947867e-16 -2.2053283e-26 -1.588936e-25 1.751458e-36
0002e0 55 45 1a a4 30 72 84 15 c5 fb 73 83 2f a9 58 9e
       -3.3452153e-17 5.349453e-26 -7.17003e-37 -1.1469931e-20
0002f0 27 0c 0f a7 95 9d 87 03 1f 8b 15 97 b0 54 9d 03
       -1.9851824e-15 7.970766e-37 -4.832009e-25 9.247074e-37
000300 84 c3 1c 16 af 6c a5 1e 96 4a c2 83 93 0e 78 1a
       1.2663273e-25 1.7515005e-20 -1.1419419e-36 5.129697e-23
000310 1a fd 26 a9 14 e9 25 14 c4 05 09 a5 ec 6d 60 06
       -3.7078935e-14 8.376338e-27 -1.1884809e-16 4.2210475e-35
000320 77 a5 df a0 43 76 2f 0a 2c 0b ba 83 e8 09 f1 a9
       -3.7887165e-19 8.448186e-33 -1.0934662e-36 -1.07042684e-13
000330 c4 f9 0f aa 08 fe d0 94 eb f6 27 8c db a6 80 aa
       -1.2787606e-13 -2.110283e-26 -1.2939516e-31 -2.2853147e-13
000340 7d e3 3b 99 98 e3 c0 9f d8 ab 85 a4 bc af c9 a9
       -9.713614e-24 -8.1691685e-20 -5.797067e-17 -8.956678e-14
000350 bd 2b 84 9e 59 58 12 83 9b c0 21 89 71 48 8b 08
       -1.3994133e-20 -4.300696e-37 -1.9470233e-33 8.382789e-34
000360 79 27 2c 13 25 ff 0a 8a a8 3c ca 89 3e bd c5 a7
       2.1728914e-27 -6.692446e-33 -4.8686772e-33 -5.488366e-15
000370 13 45 17 a8 31 77 0f 9c 63 47 40 a1 6f d1 a0 a8
       -8.397162e-15 -4.746878e-22 -6.514661e-19 -1.7854396e-14
000380 db 01 f0 9e b6 bf 2b a1 a1 0c a9 83 29 b7 a6 95
       -2.5411756e-20 -5.819078e-19 -9.935827e-37 -6.733584e-26
000390 3b 81 75 9c 57 7e 57 9f b3 f5 05 a1 46 54 d9 93
       -8.1230726e-22 -4.5632527e-20 -4.5387333e-19 -5.48616e-27
0003a0 de 7a e3 a7 c0 0b ee a9 25 aa 1c 94 2a 73 08 13
       -6.313837e-15 -1.05713615e-13 -7.909542e-27 1.7222394e-27
0003b0 39 92 7a 1f 3c 20 76 a6 6f 32 81 a3 55 44 d1 93
       5.3060512e-20 -8.539208e-16 -1.4007567e-17 -5.2826398e-27
0003c0 1f a8 56 8f 51 d1 9c 1b 20 aa a5 a7 0d b5 ae 03
       -1.05833936e-29 2.5943303e-22 -4.598115e-15 1.0268368e-36
0003d0 a5 70 55 9b a0 50 41 09 40 15 fd a5 d0 0b 79 a1
       -1.7655344e-22 2.326944e-33 -4.3902904e-16 -8.4380115e-19
0003e0 70 6f 2d 9c 49 80 18 a3 b8 8a 5f 96 ed 01 17 a6
       -5.738493e-22 -8.267102e-18 -1.8057568e-25 -5.239126e-16
0003f0 9c 6d b4 03 4c 16 8d 16 c9 d9 34 03 ff 86 9e 83
       1.0604614e-36 2.279385e-25 5.314725e-37 -9.317399e-37
