bike_sharing/AutogluonModels/ag-20220403_203319/models/NeuralNetTorch_BAG_L2/S1F7/net.params (torch, 215879 bytes, 9 tensors)

weight f4 [128, 22]
-0.13294019 0.19977172 -0.1661438 -0.091206364 -0.106857486 0.116886206 0.072362445 0.18763128
0.022714656 0.039737914 -0.06474415 0.027896918 -0.19479792 -0.13959695 -0.10813612 0.017490668
0.13850029 0.14174998 -0.11086626 -0.08994799 0.104308285 0.16938221 -0.19579375 0.26646936
-0.015738176 0.031810123 0.17339443 -0.19678463 -0.13905707 -0.060425088 -0.090239175 0.17463674
-0.12735428 -0.13809717 -0.15951216 -0.1388023 -0.1419572 0.22206011 0.15358381 0.011699772
0.08477621 -0.095555186 0.030932605 -0.14063084 -0.15861426 -0.40108332 0.062497515 0.1392117
-0.09413717 -0.013390596 0.12881404 0.12774219 0.05539068 0.028782692 0.13256149 -0.05459613
0.016123995 -0.1460775 -0.1203666 -0.095929794 0.14095329 0.004399502 -0.1259529 0.07459695
0.07537359 0.034592744 -0.05583872 0.22752061 0.14764932 0.12208843 -0.097779535 -0.114943616
0.053358324 0.19887726 0.10173113 0.17961675 0.09305148 -0.14700362 0.011696471 -0.12671563
-0.2445319 0.15268965 0.14337541 -0.11794639 0.018110441 -0.09899076 0.035679504 -0.20154817
0.09729391 -0.36165476 0.04362295 0.06907607 0.20664674 0.08314383 -0.20180798 -0.11411154
0.049007636 0.0371056 -0.12444131 -0.10392322 0.15505676 0.14527608 -0.06873847 -0.07079363
-0.21566491 0.046859514 -0.109491564 -0.17171603 -0.038863502 0.083764836 -0.26979074 0.22549453
-0.1373712 0.16796555 0.062070254 -0.08049289 0.032166958 -0.0079850005 0.013489758 0.03259869
0.029029954 0.011490306 -0.112205304 0.08340476 -0.20194206 -0.07949842 -0.019670557 -0.046929266
-0.08100389 -0.16659553 -0.1401765 0.09720863 -0.17578685 -0.15102895 0.07341486 -0.072200604
-0.050315384 -0.045976512 0.013073459 0.1603371 0.1926963 0.10516321 0.15671273 0.0037103046
-0.17025727 -0.15509576 0.12632781 -0.03136112 -0.13569614 -0.12082433 -0.22212052 -0.20621325
-0.13867256 0.12867534 0.29238126 -0.37366346 0.119628504 -0.13767204 -0.017488535 -0.08451018
-0.036306154 -0.00400883 -0.08252531 -0.110359274 0.00076867285 -0.011098051 -0.06796268 0.08406573
-0.13602991 0.010404472 0.18516971 -0.023180898 0.13294126 0.10164704 -0.1538597 0.10530703
0.17535375 -0.31347585 0.106478974 -0.15174574 0.020938303 -0.08188958 0.10279028 0.045179147
0.054076403 0.04122044 -0.05597346 -0.013110351 -0.10309371 0.07983426 0.17323522 0.08618543
-0.18860784 -0.001095409 -0.13606262 -0.14713047 -0.22507447 0.09338819 -0.26077187 -0.3498229
-0.03928176 0.19585933 -0.1295492 -0.054099057 -0.04036608 0.048790146 -0.026887173 0.057947006
0.06946015 0.06393204 -0.02609141 -0.023639292 0.05509258 -0.02798192 0.01814481 0.004595804
-0.07596087 -0.25319713 0.13481899 -0.1132463 -0.17838056 0.32148576 0.036905766 -0.07032046
-0.13396138 0.10690812 -0.15184939 0.014894008 -0.0789518 -0.016635092 0.058762718 0.14323065
0.015249667 0.14422612 0.0458467 -0.16442393 0.08019957 -0.050464608 -0.12429228 0.02671404
0.058614615 0.10705946 -0.23288326 -0.08456721 0.062869005 -0.21749358 0.1279942 -0.12611079
0.044914134 -0.036095697 -0.040370617 -0.011594443 0.15769218 -0.049912065 -0.14360835 -0.05878898
00000000: 7921 08be f590 4c3e 9a21 2abe 67ca babd
00000010: 19d8 dabd 0962 ef3d c332 943d 6a22 403e
00000020: 1614 ba3c 39c4 223d 9598 84bd 1488 e43c
00000030: 1b79 47be 81f2 0ebe 7876 ddbd 9748 8f3c
00000040: 05d3 0d3e e826 113e da0d e3bd a736 b8bd
00000050: 959f d53d 8872 2d3e 287e 48be ac6e 883e
00000060: 59ed 80bc 554b 023d 4f8e 313e e981 49be
00000070: fa64 0ebe 4c80 77bd 51cf b8bd f9d3 323e
00000080: 2969 02be 5869 0dbe 2857 23be 3122 0ebe
00000090: 3a5d 11be ba63 633e 1345 1d3e 67b0 3f3c
000000a0: 269f ad3d 70b2 c3bd 6066 fd3c 8801 10be
000000b0: c76b 22be cb5a cdbe 65fd 7f3d 838d 0e3e
000000c0: fdca c0bd 3b64 5bbc d4e7 033e d9ce 023e
000000d0: 56e1 623d aec9 eb3c 33be 073e 31a0 5fbd
000000e0: 7816 843c 5795 15be c482 f6bd d776 c4bd
000000f0: 0f56 103e b329 903b ccf9 00be 49c6 983d
00000100: 785d 9a3d 1fb1 0d3d 24b7 64bd 2afb 683e
00000110: 6231 173e 8009 fa3d a340 c8bd 8f67 ebbd
00000120: 428e 5a3d 7ba6 4b3e 6958 d03d 74ed 373e
00000130: c691 be3d 1e88 16be 8ea2 3f3c bec1 01be
00000140: 9266 7abe ad5a 1c3e 01d1 123e e08d f1bd
00000150: 595c 943c abbb cabd ac24 123d a562 4ebe
00000160: 0842 c73d d02a b9be faad 323d c177 8d3d
00000170: 349b 533e 5047 aa3d c0a6 4ebe 50b3 e9bd
00000180: 3bbc 483d 0bfc 173d 16db febd b2d5 d4bd
00000190: 33c7 1e3e 41c3 143e c1c6 8cbd 40fc 90bd
000001a0: 43d7 5cbe c3ef 3f3d 1d3d e0bd 54d6 2fbe
000001b0: 562f 1fbd e68c ab3d 0322 8abe 0ae8 663e
000001c0: 09ab 0cbe 29ff 2b3e 613d 7e3d 75d9 a4bd
000001d0: 80c1 033d 85d3 02bc 2504 5d3c 3486 053d
000001e0: 3ad0 ed3c d641 3c3c e5cb e5bd 1dd0 aa3d
000001f0: e6c9 4ebe 11d0 a2bd 2624 a1bc e738 40bd
00000200: 5ee5 a5bd 0598 2abe 6e8a 0fbe 5115 c73d
00000210: 7801 34be 55a7 1abe 885a 963d e9dd 93bd
00000220: 8117 4ebd de51 3cbd 1032 563c 692f 243e
00000230: 2e52 453e cf5f d73d 4d79 203e 9528 733b
00000240: ec57 2ebe 6cd1 1ebe 145c 013e 8574 00bd
00000250: eef3 0abe bf72 f7bd 9073 63be 9129 53be
00000260: 2e00 0ebe 78c3 033e ffb2 953e d150 bfbe
00000270: caff f43d e6f9 0cbe 1e44 8fbc ac13 adbd
00000280: c3b5 14bd 815c 83bb 0803 a9bd 0b04 e2bd
00000290: c380 493a 9ad4 35bc 0430 8bbd a72a ac3d
000002a0: 6d4b 0bbe 8577 2a3c 219d 3d3e dee5 bdbc
000002b0: c121 083e 532c d03d 668d 1dbe 36ab d73d
000002c0: ef8f 333e e87f a0be a611 da3d 3c63 1bbe
000002d0: ce86 ab3c b9b5 a7bd b683 d23d c50d 393d
000002e0: 387f 5d3d c4d6 283d 6d44 65bd cccc 56bc
000002f0: cc22 d3bd 2580 a33d 9364 313e fd81 b03d
00000300: 6a22 41be d493 8fba 0054 0bbe 5fa9 16be
00000310: ec79 66be 4f42 bf3d e483 85be fd1b b3be
00000320: e9e5 20bd 598f 483e 8ca8 04be f996 5dbd
00000330: e756 25bd 2dd8 473d 7d42 dcbc d759 6d3d
00000340: 2041 8e3d cdee 823d a7bd d5bc 30a7 c1bc
00000350: c2a8 613d 573a e5bc 6da4 943c 6698 963b
00000360: 5f91 9bbd 0ea3 81be fd0d 0a3e aded e7bd
00000370: 65a9 36be c899 a43e 802a 173d 2c04 90bd
00000380: 2c2d 09be a5f2 da3d 687e 1bbe ff05 743c
00000390: 7bb1 a1bd 5146 88bc 2db1 703d 0eab 123e
000003a0: bdd9 793c 03b0 133e c0c9 3b3d bf5e 28be
000003b0: ac3f a43d fab3 4ebd f38c febd 67d7 da3c
000003c0: e115 703d fd41 db3d f378 6ebe 9331 adbd
000003d0: 77c1 803d a3b6 5ebe e910 033e 3023 01be
000003e0: e2f7 373d 15d9 13bd a95b 25bd 9ef6 3dbc
000003f0: 0f7a 213e 9870 4cbd 110e 13be b7cc 70bd

bias f4 [128]
-0.17508866 -0.10767931 0.007223669 -0.09557217 -0.075613506 0.116565794 -0.053244535 0.062156983
0.16297756 -0.16182892 -0.15219492 -0.09538601 -0.028380908 -0.09436365 -0.0484553 0.0016701809
0.06783051 0.14920662 0.14860836 0.022108419 -0.015834434 0.0465723 -0.02626666 -0.0750621
0.10551915 -0.26682353 -0.15371218 -0.0545625 -0.07923372 -0.12979516 -0.20036541 0.1450833
-0.036386557 -0.07971324 -0.11939928 0.035937313 -0.19736858 -0.007657156 -0.0152571 0.03959555
0.076063 -0.15065408 0.089111835 0.15839063 -0.044307113 0.069608316 -0.03960743 0.023532158
0.0011014628 -0.095152386 0.10917 -0.26257488 -0.037283055 -0.16225536 -0.112359606 -0.19896244
-0.24924009 0.05896186 -0.07497144 -0.13913503 -0.026251173 -0.06673256 0.030357582 -0.13885249
-0.028709466 0.059780274 0.0694054 0.015285753 0.04615359 0.16889766 -0.11381218 0.12023747
0.19380686 -0.21287553 0.027494978 0.13186543 -0.06620946 0.07938932 0.01754454 0.12807034
-0.059642546 -0.116290726 0.131496 0.084887534 0.13814496 0.040345475 0.11362378 0.01846888
0.019051686 -0.081619404 0.056173973 -0.15382563 0.020324506 -0.021658966 -0.021023255 -0.12434324
0.062492084 -0.17036869 0.08484013 0.13887767 -0.22688699 0.14164189 -0.1812043 -0.038931116
0.089212924 -0.023009012 0.15749773 -0.10669404 0.0052727796 -0.17445675 -0.07047687 0.23256423
0.1193708 0.028303046 -0.027825609 -0.17500152 0.13782364 0.0007768763 -0.059298184 -0.16018984
0.17120606 0.10620374 0.10957092 0.030246684 -0.18473974 0.12671234 0.027778681 0.07550477
00000000: 714a 33be f886 dcbd 87b4 ec3b 58bb c3bd
00000010: 41db 9abd 0cba ee3d f116 5abd 5298 7e3d
00000020: 97e3 263e 7bb6 25be fcd8 1bbe be59 c3bd
00000030: 147f e8bc bb41 c1bd 1179 46bd f9e9 da3a
00000040: b9ea 8a3d 9fc9 183e ca2c 183e b71c b53c
00000050: 37b7 81bc 99c2 3e3d 2e2d d7bc 29ba 99bd
00000060: 6d1a d83d 189d 88be ba66 1dbe ee7c 5fbd
00000070: 4a45 a2bd 06e9 04be 972c 4dbe b790 143e
00000080: 120a 15bd b240 a3bd 9c87 f4bd 0133 133d
00000090: fd1a 4abe e1e8 fabb eaf8 79bc f22e 223d
000000a0: ebc6 9b3d 1045 1abe 4480 b63d 2731 223e
000000b0: 607b 35bd ce8e 8e3d 673b 22bd 83c6 c03c
000000c0: f55e 903a 41df c2bd 8594 df3d 3770 86be
000000d0: 1eb6 18bd 4526 26be cb1c e6bd cfbc 4bbe
000000e0: cb38 7fbe fe81 713d a08a 99bd 6a79 0ebe
000000f0: b30c d7bc 15ab 88bd 77b0 f83c 592f 0ebe
00000100: 1d30 ebbc 29dc 743d 6b24 8e3d 1871 7a3c
00000110: 8c0b 3d3d 82f3 2c3e 5c16 e9bd 103f f63d
00000120: 4e75 463e 0bfc 59be 263d e13c bb07 073e
00000130: d398 87bd de96 a23d 91b9 8f3c df24 033e
00000140: be4b 74bd d529 eebd e3a6 063e 84d9 ad3d
00000150: df75 0d3e 4c41 253d 96b3 e83d 0c4c 973c
00000160: 4812 9c3c 1328 a7bd ae16 663d 7784 1dbe
00000170: 947f a63c 256e b1bc f638 acbc aba7 febd
00000180: b3f7 7f3d 2175 2ebe a9c0 ad3d f335 0e3e
00000190: 1055 68be 920a 113e 9f8d 39be 3c76 1fbd
000001a0: 44b5 b63d 657d bcbc 1647 213e 6882 dabd
000001b0: 48c7 ac3b caa4 32be 2d56 90bd 5125 6e3e
000001c0: ae78 f43d cadb e73c 88f2 e3bc 9933 33be
000001d0: a421 0d3e 49a7 4b3a a7e2 72bd ce08 24be
000001e0: a450 2f3e 5981 d93d b866 e03d e5c7 f73c
000001f0: 6a2c 3dbe e1c0 013e 1e90 e33c 3fa2 9a3d

weight f4 [128, 128]
-0.00631111 -0.04820105 0.09549537 0.025898961 -0.021589033 0.018022101 -0.025705427 0.014186466
0.058936577 0.0055144243 0.04138424 0.05892386 0.0046773506 -0.007827225 0.036803838 -0.069005474
0.04060566 -0.042846616 0.03319415 -0.097006604 0.07637373 0.09011761 0.07889532 -0.0057826834
0.080495864 0.044843435 0.06920915 0.0576663 -0.090965286 0.03575745 -0.00029863388 -0.005919997
0.058811642 0.006066662 0.0066059753 0.071965694 0.033656348 0.02539297 0.025308704 -0.028251335
-0.059231184 0.011928812 0.026321745 -0.036099717 0.025717314 0.077860884 0.07696334 -0.0017387805
-0.002858458 -0.08265715 0.04148531 -0.045204446 0.0667736 -0.027649738 -0.030539142 -0.05268478
-0.015935816 -0.03179011 -0.05346115 0.07546534 0.059652213 -0.046623457 -0.022901649 0.004585639
0.099251576 -0.028974103 0.057102427 0.033325415 -0.018895764 0.059428755 -0.08952814 0.08948534
0.11832764 0.0012888479 0.05895399 0.104472905 0.041964483 0.024794417 0.027396163 -0.052621365
0.03854892 -0.008712111 0.08736127 -0.019358397 0.026634526 -0.019360473 0.057805732 -0.0024775972
0.07461039 -0.06835287 -0.05352186 0.022351867 -0.040731438 -0.033679504 0.04868962 -0.039836198
-0.037783902 -0.02160103 0.036537696 0.000985633 -0.052154124 -0.056935027 0.071293026 -0.0007828886
-0.021337118 -0.054046016 0.019741494 0.050891798 0.073964246 0.057864886 0.107669145 0.049925163
0.01942829 0.07588638 -0.007624938 0.011383487 0.07326319 0.0018328372 0.029079543 0.013149251
-0.04532187 0.06029329 0.096023664 -0.041552596 0.042162385 0.032750644 0.053889524 -0.0002252493
0.06885905 0.075369254 -0.09595685 -0.040881652 0.0018832957 -0.06328395 0.03657929 -0.110748485
0.003472976 0.064871356 0.055832118 0.04410857 -0.03797997 0.051213633 0.007282971 0.0031152298
-0.045275565 0.0756437 -0.044969194 0.064542085 0.041708943 -0.031470735 -0.071680725 0.0055747856
-0.040907055 0.009734983 -0.022613456 0.031758163 -0.09472956 -0.027242843 -0.014704273 0.023943793
0.061624426 -0.06188451 -0.0838152 0.025709406 0.08887572 0.05951376 -0.120985515 -0.090736344
-0.04827646 0.03294346 -0.010768198 -0.08295252 0.009362936 -0.038108073 0.04532683 -0.08272911
0.07172102 -0.06073052 -0.039412003 -0.06561811 0.0018157867 -0.07879558 0.058836684 -0.042820103
0.09255283 0.069583416 -0.0837929 0.022992376 -0.031132866 -0.06605684 0.013709866 0.027597643
-0.015139914 -0.018283365 -0.069565706 -0.0040896116 -0.077749 0.04586767 0.04722182 0.013482534
-0.043472506 -0.10028779 -0.005152318 0.098003685 -0.12441566 -0.109660596 0.029562395 0.034117647
-0.11941962 -0.13558327 -0.02048108 0.014981162 0.057187274 -0.03181913 -0.10612302 -0.081428036
0.068141766 -0.022067726 -0.051950295 0.017414868 -0.029532073 0.010881312 0.05880599 -0.050612852
-0.0721173 0.018475479 -0.064532936 -0.06260406 0.0031591582 -0.01029158 0.025749639 -0.062619835
0.0047528516 0.022045992 -0.0007371174 -0.13154027 -0.012131499 0.04397225 -0.0400275 -0.0061016064
-0.041791447 0.044726625 -0.058705494 -0.048299167 -0.06920868 -0.027168099 0.014573828 -0.01858824
0.027253428 0.111470744 0.041240733 0.035521295 -0.055307418 0.03283964 0.017447611 -0.006035444
00000000: 6ecd cebb 776e 45bd 1493 c33d 0f2a d43c
00000010: 7cdb b0bc 16a3 933c 3094 d2bc 5a6e 683c
00000020: 7b67 713d 58b2 b43b 8582 293d 255a 713d
00000030: 7644 993b c33d 00bc 9fbf 163d be52 8dbd
00000040: 1f52 263d ef7f 2fbd 97f6 073d 66ab c6bd
00000050: d569 9c3d 958f b83d df93 a13d aa7c bdbb
00000060: 04db a43d c0ad 373d 87bd 8d3d 8033 6c3d
00000070: 024c babd 6776 123d f691 9cb9 89fc c1bb
00000080: 7ae4 703d d9ca c63b f076 d83b c062 933d
00000090: 3ddb 093d eb04 d03c 3354 cf3c 586f e7bc
000000a0: 669c 72bd 1071 433c b3a0 d73c 4cdd 13bd
000000b0: 1ead d23c 8775 9f3d f59e 9d3d cbe7 e3ba
000000c0: f854 3bbb 2748 a9bd 80ec 293d 4c28 39bd
000000d0: 99c0 883d b481 e2bc 392d fabc ffcb 57bd
000000e0: d48b 82bc 5936 02bd 14fa 5abd 928d 9a3d
000000f0: e155 743d 3df8 3ebd 3d9c bbbc 2143 963b
00000100: 6944 cb3d 195b edbc 3ce4 693d 3b80 083d
00000110: 4acb 9abc 916b 733d 885a b7bd 1744 b73d
00000120: c355 f23d 8fee a83a bd79 713d e4f5 d53d
00000130: f3e2 2b3d a91d cb3c eb6d e03c 8089 57bd
00000140: 79e5 1d3d 3ebd 0ebc 77ea b23d 8095 9ebc
00000150: a630 da3c db99 9ebc b4c5 6c3d 2f5f 22bb
00000160: 55cd 983d 97fc 8bbd bd39 5bbd 431b b73c
00000170: 02d6 26bd 85f3 09bd c46e 473d 482b 23bd
00000180: 4bc3 1abd a5f4 b0bc 8da8 153d 5b30 813a
00000190: 909f 55bd b434 69bd 1402 923d c43a 4dba
000001a0: 2ecb aebc 5b5f 5dbd eab8 a13c eb73 503d
000001b0: 917a 973d bb03 6d3d a481 dc3d 547e 4c3d
000001c0: 1428 9f3c 526a 9b3d 9eda f9bb ce81 3a3c
000001d0: 030b 963d d03b f03a 3938 ee3c f56f 573c
000001e0: 6da3 39bd 19f6 763d 0ea8 c43d 0e33 2abd
000001f0: 77b2 2c3d 8a25 063d 43bb 5c3d e630 6cb9
00000200: f905 8d3d 325b 9a3d 0685 c4bd 8573 27bd
00000210: ebd8 f63a 049b 81bd 2ad4 153d 1ad0 e2bd
00000220: de9a 633b 46db 843d 38b0 643d 30ab 343d
00000230: e390 1bbd 63c5 513d fda5 ee3b e228 4c3b
00000240: df72 39bd 16eb 9a3d 9e31 38bd a42e 843d
00000250: ffd6 2a3d 75e7 00bd 58cd 92bd b1ac b63b
00000260: 288e 27bd 7a7f 1f3c db3f b9bc d914 023d
00000270: 9201 c2bd 622c dfbc 31ea 70bc c625 c43c
00000280: e569 7c3d 9d7a 7dbd 4ea7 abbd 889c d23c
00000290: 7904 b63d b3c4 733d 41c7 f7bd fad3 b9bd
000002a0: 8abd 45bd b9ef 063d 196d 30bc 03e3 a9bd
000002b0: 0067 193c 3617 1cbd a0a8 393d e16d a9bd
000002c0: 78e2 923d 91c0 78bd 7b6e 21bd ca62 86bd
000002d0: b1ff ed3a 945f a1bd bcfe 703d 2264 2fbd
000002e0: 578c bd3d c081 8e3d 9d9b abbd 825a bc3c
000002f0: 5a0a ffbc cf48 87bd 599f 603c 7414 e23c
00000300: 670d 78bc ffc6 95bc 7778 8ebd 2602 86bb
00000310: de3a 9fbd bddf 3b3d ab6b 413d d9e5 5c3c
00000320: 3a10 32bd af63 cdbd c7d4 a8bb 28b6 c83d
00000330: a3cd febd bc95 e0bd d62c f23c f2be 0b3d
00000340: 4692 f4bd 57d6 0abe f0c7 a7bc 8c73 753c
00000350: 343d 6a3d c754 02bd 0757 d9bd bec3 a6bd
00000360: e98d 8b3d 60c7 b4bc d5c9 54bd a0a9 8e3c
00000370: 3fed f1bc 8847 323c 8dde 703d 6c4f 4fbd
00000380: 3cb2 93bd e359 973c d829 84bd 8f36 80bd
00000390: e109 4f3b 049e 28bc e8f0 d23c d43e 80bd
000003a0: cfbd 9b3b cc99 b43c 1d3b 41ba 7eb2 06be
000003b0: 32c3 46bc 3f1c 343d e0f3 23bd fcef c7bb
000003c0: 822d 2bbd 4433 373d 2c75 70bd 59d5 45bd
000003d0: 48bd 8dbd a28f debc 11c7 6e3c 5d46 98bc
000003e0: 9542 df3c c64a e43d 0bec 283d c77e 113d
000003f0: 088a 62bd dc82 063d 4bee 8e3c f9c4 c5bb

bias f4 [128]
0.008222483 0.030230435 -0.0829609 -0.0026074438 0.022118503 -0.06227544 0.005628935 -0.062071007
-0.105544105 0.07196816 0.034305926 0.0827626 0.09589993 -0.056352157 -0.020651057 -0.054035466
0.036561303 0.02255154 -0.0060985778 0.09461376 -0.024198823 0.055834956 0.0005410325 -0.041635025
0.046224143 0.046870094 -0.0077341213 -0.07251593 0.07178085 0.07513776 0.03673264 0.02606703
0.054992802 0.046755437 -0.048730962 -0.06255705 -0.04876656 0.06197484 -0.031202214 0.05818805
-0.08671587 -0.039170712 0.06596494 -0.040953293 0.015183363 0.0702065 0.0036853836 0.045793813
0.0042070486 -0.10102638 -0.04113489 -0.043238048 -0.026211634 -0.040721897 0.01391244 0.08589146
0.07910633 0.0426723 -0.061838116 0.017844379 0.028866684 0.086707644 -0.04448402 0.06241369
0.070414804 -0.011915492 -0.112181015 0.017510865 0.040837128 -0.094334975 0.06948698 -0.013255321
-0.13847964 0.04669286 0.03199179 0.0059089176 -0.058247622 -0.03834026 0.065927185 0.047347274
0.0589872 0.04228647 0.055711422 -0.027912317 0.049074627 0.032626476 -0.0030047863 0.08795112
-0.047553204 0.08895444 0.005930166 0.0757686 -0.054963104 0.073675856 -0.030410087 -0.0759487
0.05988556 0.012185296 0.007529256 -0.056950238 0.09405775 0.023072882 -0.022042286 -0.00036686778
0.095344655 0.05386748 0.07128405 -0.023056235 -0.030316802 -0.09259687 -0.06423253 -0.01833065
0.015961064 -0.051810447 -0.03817509 0.008113484 -0.0030774884 -0.070599645 0.074982844 -0.042390216
0.0179575 0.076491825 -0.08339265 0.0024548303 -0.050803855 0.099177025 -0.035813082 0.07361954
00000000: 98b7 063c d1a5 f73c 68e7 a9bd a6e1 2abb
00000010: dd31 b53c 8814 7fbd ee72 b83b 2b3e 7ebd
00000020: 8227 d8bd 0b64 933d 5f84 0c3d 707f a93d
00000030: 2f67 c43d 85d1 66bd 682c a9bc 4b54 5dbd
00000040: 4ec1 153d 02be b83c 94d6 c7bb dcc4 c13d
00000050: 9c3c c6bc 32b3 643d 14d4 0d3a 7d89 2abd
00000060: 8755 3d3d dbfa 3f3d 836e fdbb 3b83 94bd
00000070: d701 933d d3e1 993d f774 163d 868a d53c
00000080: 2240 613d a182 3f3d 1e9a 47bd e91d 80bd
00000090: 72bf 47bd 54d9 7d3d c99b ffbc 9856 6e3d
000000a0: 1798 b1bd 7871 20bd a018 873d a4be 27bd
000000b0: a4c3 783c 6dc8 8f3d 7a86 713b 4b92 3b3d
000000c0: 48db 893b ebe6 cebd 0f7d 28bd 611a 31bd
000000d0: c8b9 d6bc 01cc 26bd 01f1 633c dde7 af3d
000000e0: 8002 a23d 26c9 2e3d f749 7dbd 602e 923c
000000f0: d379 ec3c c793 b13d e034 36bd 7fa5 7f3d
00000100: a335 903d 3239 43bc 29bf e5bd f272 8f3c
00000110: d544 273d b232 c1bd 314f 8e3d d92c 59bc
00000120: 9bcd 0dbe 0341 3f3d d309 033d 989f c13b
00000130: 0f95 6ebd ad0a 1dbd d504 873d 37ef 413d
00000140: 909c 713d 9434 2d3d a931 643d 5fa8 e4bc
00000150: 7a02 493d 57a3 053d f3eb 44bb b81f b43d
00000160: 26c7 42bd bf2d b63d d751 c23b 912c 9b3d
00000170: fe20 61bd 5ee3 963d 931e f9bc fe8a 9bbd
00000180: 904a 753d d6a4 473c fab7 f63b a744 69bd
00000190: 5aa1 c03d 5703 bd3c 0692 b4bc 2958 c0b9
000001a0: 0f44 c33d 26a4 5c3d 5ffd 913d 6ee0 bcbc
000001b0: f15a f8bc 6ea3 bdbd 588c 83bd 292a 96bc
000001c0: c7c0 823c 3137 54bd 7c5d 1cbd 6bee 043c
000001d0: b0af 49bb 8c96 90bd 9b90 993d 5da1 2dbd
000001e0: 9b1b 933c bfa7 9c3d c4c9 aabd 38e1 203b
000001f0: b417 50bd 531d cb3d bdb0 12bd d7c5 963d

weight f4 [128, 128]
-0.0010858412 0.018650487 0.012577078 -0.049142398 0.006499658 -0.027566152 0.09807848 -0.11154321
0.04294194 0.14996701 0.06074442 -0.058294702 -0.10343059 0.001286714 -0.015101795 -0.048735578
0.033604465 -0.10608753 0.023953523 0.017378565 -0.044507757 -0.049703155 -0.0600039 -0.098332986
-0.10097744 -0.0036249768 0.08657142 -0.12818612 0.038756505 -0.026821343 0.09180602 -0.046711337
-0.08408837 0.018541941 0.08219136 -0.021160005 0.07350369 0.07295326 0.030909238 -0.052713055
0.013128706 -0.071297914 0.055939786 0.025285475 0.10805069 0.022224367 0.038602255 0.07118883
-0.026782837 -0.040684283 0.005532726 0.0658468 0.10093133 0.04561889 0.030622542 -0.13424034
0.093693845 -0.029117066 -0.113876306 0.032650296 -0.058991697 -0.009920057 -0.005920263 0.0010317673
0.019120973 -0.12001273 -0.042458285 -0.037039638 0.06516134 -0.1068536 -0.053459976 -0.07490376
-0.0010905132 0.11021932 0.0455456 -0.040299907 -0.00938867 -0.062398016 -0.023134798 0.063073546
-0.09732243 -0.11500875 -0.06814578 -0.104836054 -0.021921556 0.040723078 0.060709912 0.050381355
0.037142504 -0.08935564 -0.0957985 0.030461833 0.08432944 -0.035309374 -0.004567448 -0.057216845
-0.11579352 0.014601549 0.0021085837 0.024306282 0.06600361 -0.009651205 0.025981313 0.004980259
0.0122899385 -0.037544925 0.029500749 0.02065001 -0.06914116 0.066235475 -0.04603975 0.037994467
-0.14340885 -0.036019098 0.12150903 0.02799897 0.051051483 -0.06317413 0.034379266 0.036941618
-0.122309096 -0.10224431 0.09868717 -0.0010061868 -0.032930825 -0.057460405 -0.00559661 0.10813749
0.030514728 -0.008385139 -0.018299194 -0.048186444 -0.00041791933 0.027200956 0.009524489 -0.005699608
0.000570058 0.004831583 -0.002547156 0.0012236832 -0.014684627 -8.344081e-05 0.00024786856 -0.010624546
-0.05250119 -0.063086696 -0.016325925 -0.0060741617 -0.015271966 -0.0081250025 0.00037883522 -0.013577199
-0.043327652 0.029077403 -0.06263642 0.002641395 -0.006815489 0.002568484 -0.00026464983 0.009113801
0.0008819408 -0.011484543 0.0025702608 -0.011602334 0.0012020845 0.014080766 0.008960014 0.01367515
-0.012729135 -0.014147582 0.0005956988 -0.06560949 -0.0116173 -0.022116166 0.003441966 -0.0028915692
-0.016696867 -0.024280656 -0.03202455 -0.018452756 0.004131751 0.009719245 -0.010816814 -0.010895886
-0.008817133 0.008735765 0.0061229104 -0.005705498 0.0018841573 0.01469209 -0.0069179605 -0.0050610965
-0.04952604 -0.001188766 0.0122871315 -0.007056503 -0.03017827 -2.604891e-05 -0.019382605 0.021558555
-0.0026408944 0.025275359 -0.028128037 -0.009380102 0.008758736 0.057652943 0.00042605758 -0.042825118
-0.021652473 -0.007943631 -0.022259463 -0.0021721271 -0.0002669093 0.025195373 -0.010956552 -0.020335088
-0.016235294 -0.016576495 -0.0032321652 -0.007741693 0.0035910967 -0.015120616 -0.017139554 -0.007632861
0.004362703 -0.012595198 0.019550987 -0.00059239205 0.017047713 -0.022189666 -0.0024167374 -0.0018939102
-0.007604596 -0.011270054 -0.0035414496 -0.0040398417 0.00086614146 -0.005760062 -0.0036421355 -0.031897083
-0.023518445 -0.002476425 -0.0033284947 0.0025707884 -0.033859514 0.024267295 0.010476097 -0.013281941
0.0034688176 -0.0028763448 -0.016039664 0.01629408 0.0039545726 0.036426615 0.0042453143 -0.015795546
00000000: c952 8eba e8c8 983c 1710 4e3c 8a49 49bd
00000010: 15fb d43b 69d2 e1bc 5fdd c83d c470 e4bd
00000020: e3e3 2f3d f490 193e 24cf 783d 6dc6 6ebd
00000030: 6bd3 d3bd f5a6 a83a 856d 77bc f59e 47bd
00000040: d6a4 093d 6b44 d9bd 2e3a c43c 7e5d 8e3c
00000050: c44d 36bd 8995 4bbd a6c6 75bd ce62 c9bd
00000060: 43cd cebd 0591 6dbb 5b4c b13d 3943 03be
00000070: 24bf 1e3d 6fb8 dbbc cb04 bc3d 6354 3fbd
00000080: 8636 acbd 45e5 973c f253 a83d bf57 adbc
00000090: 1a89 963d 8568 953d 5f35 fd3c a5e9 57bd
000000a0: c919 573c a404 92bd 1e21 653d 7c23 cf3c
000000b0: ae49 dd3d e00f b63c 661d 1e3d 73cb 913d
000000c0: ae67 dbbc 90a4 26bd df4b b53b b0da 863d
000000d0: 16b5 ce3d e0da 3a3d 20dc fa3c 4d76 09be
000000e0: 8fe2 bf3d ea86 eebc fb37 e9bd 51bc 053d
000000f0: 47a1 71bd bc87 22bc c4fe c1bb 5e3c 873a
00000100: 96a3 9c3c 3cc9 f5bd bde8 2dbd e0b6 17bd
00000110: 4f73 853d 0fd6 dabd d9f8 5abd 2467 99bd
00000120: 8def 8eba abba e13d 068e 3a3d 8411 25bd
00000130: f0d2 19bc 1095 7fbd 3085 bdbc b42c 813d
00000140: fb50 c7bd b589 ebbd 0490 8bbd 49b4 d6bd
00000150: d694 b3bc 3ecd 263d f5aa 783d ae5c 4e3d
00000160: bd22 183d 1700 b7bd 0132 c4bd 188b f93c
00000170: eab4 ac3d 90a0 10bd 88aa 95bb 365c 6abd
00000180: 2725 edbd 563b 6f3c 2a30 0a3b f81d c73c
00000190: e72c 873d 1620 1ebc c3d6 d43c 7131 a33b
000001a0: bd5b 493c b5c8 19bd 8eab f13c 362a a93c
000001b0: e199 8dbd 77a6 873d 2d94 3cbd 16a0 1b3d
000001c0: c5d9 12be c388 13bd bad9 f83d 195e e53c
000001d0: 5c1b 513d 7061 81bd 46d1 0c3d 1850 173d
000001e0: 317d fabd 7765 d1bd 801c ca3d 07e2 83ba
000001f0: 79e2 06bd 9a5b 6bbd c463 b7bb 3077 dd3d
00000200: 06fa f93c d261 09bc 31e8 95bc 265f 45bd
00000210: 2f1c dbb9 8ad4 de3c 9a0c 1c3c c7c3 babb
00000220: f26f 153a 4152 9e3b 30ee 26bb ff63 a03a
00000230: ca97 70bc f2fc aeb8 5bf4 8139 9312 2ebc
00000240: 7d0b 57bd 9933 81bd f2bd 85bc c309 c7bb
00000250: 4537 7abc bb1e 05bc 679e c639 e672 5ebc
00000260: 5678 31bd bc33 ee3c 8647 80bd 411b 2d3b
00000270: 7754 dfbb 0354 283b b3c0 8ab9 0d52 153c
00000280: 0c32 673a aa29 3cbc d271 283b b717 3ebc
00000290: 438f 9d3a 03b3 663c 06cd 123c bd0d 603c
000002a0: dd8d 50bc 43cb 67bc ab28 1c3a 455e 86bd
000002b0: 7d56 3ebc f62c b5bc 9b92 613b 7b80 3dbb
000002c0: dec7 88bc 3ae8 c6bc 2d2c 03bd 3c2a 97bc
000002d0: a463 873b 783d 1f3c 0239 31bc a984 32bc
000002e0: bc75 10bc 7420 0f3c b2a2 c83b 30f5 babb
000002f0: d4f5 f63a 18b7 703c 0fb0 e2bb 8ed7 a5bb
00000300: d1db 4abd 5ed0 9bba f74f 493c 3d3a e7bb
00000310: 6b38 f7bc 9c83 dab7 45c8 9ebc 919b b03c
00000320: db12 2dbb 450e cf3c c56c e6bc 00af 19bc
00000330: cd80 0f3c 7e25 6c3d 7b60 df39 6469 2fbd
00000340: 8760 b1bc 0126 02bc 7a59 b6bc 3f5a 0ebb
00000350: f6ef 8bb9 8766 ce3c 1c83 33bc c595 a6bc
00000360: e1ff 84bc 6ecb 87bc bcd2 53bb 07ae fdbb
00000370: 9b58 6b3b 76bc 77bc 4068 8cbc 141d fabb
00000380: 01f5 8e3b 175c 4ebc 6429 a03c c24a 1bba
00000390: a5a7 8b3c 1ac7 b5bc 2062 1ebb 153d f8ba
000003a0: fa2f f9bb 08a6 38bc aa17 68bb a660 84bb
000003b0: c50d 633a e7be bcbb e5b0 6ebb 84a6 02bd
000003c0: c1a9 c0bc 844b 22bb e022 5abb ac7a 283b
000003d0: 46b0 0abd 35cc c63c f0a3 2b3c 809c 59bc
000003e0: 1a55 633b 0f81 3cbb 9d65 83bc 2a7b 853c
000003f0: 5c95 813b 1334 153d 471c 8b3b a965 81bc

bias f4 [128]
-0.022360845 -0.016545216 -0.06766671 -0.0432354 0.0010011491 -0.041316677 -0.043937474 -0.026658045
-0.07306035 0.06639189 0.029334897 0.018445788 0.0073218774 0.08337888 -0.02582546 0.017045977
-0.0033161605 0.029069573 -0.023228392 -0.04829083 0.09926902 -0.13197665 -0.057464372 0.07343526
-0.040628206 0.041611847 0.10984853 0.027266864 -0.0072394186 -0.01763177 0.056710254 0.10217193
-0.009195371 -0.023965534 0.07466682 -0.024010865 0.042703878 0.043669086 -0.011319767 0.079821795
-0.09810152 -0.099352755 0.085785046 0.090836704 -0.0017140185 0.04258735 0.008252002 0.012477547
-0.020046253 -0.03479452 0.09594908 0.047023106 0.090385765 0.08995214 0.080552086 0.031886023
-0.000963427 -0.037215136 0.08261928 -0.062035173 -0.010970112 0.06546911 0.041245326 0.038022257
0.055238713 0.08099198 0.05801025 0.04332029 0.08020853 -0.013566853 -0.00033005327 0.10572692
0.008868218 -0.0010548505 0.023024902 0.09491223 0.012842727 0.036575444 -0.006913306 0.07050547
0.08579949 0.017500428 -0.014893576 0.0769544 0.024309048 0.034418 -0.005838585 -0.09768244
0.103462614 0.06156564 0.06904114 0.117011696 0.03415284 0.08734367 0.086234584 0.108034775
-0.017175391 0.11400567 0.09405399 0.020932233 0.01277207 0.08894734 0.039488316 0.06798668
-0.021641811 0.013250863 -0.045693267 0.14490259 0.057708215 0.00058902166 -0.028546792 0.053867307
0.091558635 -0.039504245 0.032978795 0.12003599 0.050002992 -0.015735721 0.059288662 0.008438563
0.016001899 0.051311556 0.08014632 0.04628476 0.0630686 -0.017074974 -0.039872702 0.0043114442
00000000: 172e b7bc d589 87bc d894 8abd 9a17 31bd
00000010: fd38 833a ad3b 29bd c8f7 33bd f961 dabc
00000020: aaa0 95bd 79f8 873d bd4f f03c 9f1b 973c
00000030: 5cec ef3b 8cc2 aa3d ea8f d3bc 01a4 8b3c
00000040: f153 59bb 5023 ee3c 7849 bebc 9bcc 45bd
00000050: 8e4d cb3d e324 07be c35f 6bbd 3a65 963d
00000060: c369 26bd 2f71 2a3d 44f8 e03d c25e df3c
00000070: a538 edbb 8070 90bc 0349 683d 843f d13d
00000080: 2ea8 16bc 5e53 c4bc ebea 983d 6fb2 c4bc
00000090: 43ea 2e3d 5bde 323d 8b76 39bc 9c79 a33d
000000a0: 73e9 c8bd 7579 cbbd 12b0 af3d 9808 ba3d
000000b0: eba8 e0ba 1370 2e3d 6833 073c a06e 4c3c
000000c0: 0a38 a4bc b384 0ebd f480 c43d 4d9b 403d
000000d0: 2c1c b93d d438 b83d 7ef8 a43d eb9a 023d
000000e0: 7e8e 7cba e66e 18bd 4c34 a93d 9818 7ebd
000000f0: fcbb 33bc ab14 863d dcf0 283d 3abd 1b3d
00000100: fd41 623d 20df a53d 289c 6d3d 9e70 313d
00000110: 5f44 a43d 8147 5ebc 000b adb9 5b87 d83d
00000120: 014c 113c e942 8aba b89e bc3c 5861 c23d
00000130: 4d6a 523c 22d0 153d 0489 e2bb 2c65 903d
00000140: a5b7 af3d 0f5d 8f3c 2f04 74bc 459a 9d3d
00000150: c523 c73c e4f9 0c3d 9a51 bfbb bb0d c8bd
00000160: 35e4 d33d 412c 7c3d 7165 8d3d d4a3 ef3d
00000170: d9e3 0b3d 3de1 b23d c29b b03d 5641 dd3d
00000180: 68b3 8cbc ce7b e93d 619f c03d 137a ab3c
00000190: f241 513c 062a b63d 80be 213d 9a3c 8b3d
000001a0: 2b4a b1bc 261a 593c dd28 3bbd 5861 143e
000001b0: 735f 6c3d 9368 1a3a f6da e9bc f7a3 5c3d
000001c0: 1883 bb3d 34cf 21bd c614 073d 6ed5 f53d
000001d0: f0cf 4c3d 33e8 80bc abd8 723d e641 0a3c
000001e0: 6a16 833c 112c 523d c123 a43d 1795 3d3d
000001f0: 1c2a 813d d1e0 8bbc 8f51 23bd 0447 8d3b

weight f4 [128, 128]
0.027578853 0.045581114 -0.07033889 -0.070758924 -0.06027454 -0.06293408 -0.021603214 -0.0042901346
-0.03819562 0.12006978 -0.10559403 0.028567592 0.11494644 0.0061043655 0.02087479 -0.053655714
0.10923282 0.10106543 -0.010991367 -0.0021765907 0.06893642 0.13348562 -0.028518507 0.09075683
0.04121765 0.081936456 -0.048932906 0.07604694 0.061110247 -0.077194124 0.03524382 0.05279659
-0.031348933 0.0035833123 0.07676717 0.08328312 0.021982845 -0.01233158 0.04436337 -0.08958384
-0.024484279 0.021409538 -0.019471925 0.0754102 -0.048177596 -0.024468508 0.067051746 0.086785674
-0.016649252 0.04576098 -0.046090286 -0.057894174 -0.047494836 0.029778657 0.008698221 0.0992632
0.08601909 0.034704193 0.089217335 -0.04146638 0.0646982 0.04022571 -0.008587005 -0.036918875
0.10089214 -0.02298636 0.060875352 -0.017543998 0.092154086 -0.062074684 0.07217256 0.033834144
-0.018232271 0.040639866 0.050440658 0.06641756 -0.010096676 0.046521194 -0.0040431377 0.10483195
-0.05993465 -0.03967206 -0.03809102 0.043535125 -0.07555083 -0.012940194 0.059325602 0.1512013
-0.018559009 0.036301352 0.00030780432 -0.03183007 -0.018946968 -0.012388438 0.016438618 -0.072112955
0.023365501 -0.05271126 -0.0022050347 0.05955419 -0.03602482 0.06014828 0.07946512 -0.040708207
0.079055525 -0.0595546 0.010350404 -0.05660353 0.006964181 -0.0053555123 0.040995695 -0.026559385
0.003423808 -0.040448546 0.009392726 0.014361859 -0.057155225 0.007312061 0.030702252 0.03798124
-0.036553897 -0.0016489916 -0.013531943 0.03111047 0.061786387 0.10226151 0.020123817 0.11317133
0.14735714 0.00079848774 0.014846173 0.078447536 0.039645072 0.08608836 -0.047170643 0.06907008
-0.06299708 -0.03705601 0.074246936 0.044357337 -0.045598626 -0.025359971 -0.05238449 -0.0031308692
0.007348912 -0.03195686 -0.051318157 0.014610253 -0.0028939983 0.006978158 -0.15590872 0.019118844
-0.03825349 0.0031282268 0.016519804 -0.01792572 -0.031175446 0.12131004 -0.07884851 0.06287256
0.03878232 0.003049208 0.0008403145 -0.04738545 0.060068857 0.16858192 -0.012830617 0.12974326
-0.059907626 0.031184908 0.057350315 -0.044645775 0.09330222 0.13315143 -0.04724716 0.009099366
0.024503935 -0.071389265 0.0043875324 0.11358128 -0.053983208 0.003616658 -0.027799232 0.11167127
-0.03816886 -0.052726954 -0.022441542 -0.032997474 0.014975112 0.013854405 -0.014272402 -0.010066493
0.010234669 -0.014338634 0.017246403 0.03069576 0.01724417 -0.090266675 0.033176526 0.08646269
-0.07629728 -0.08093791 -0.04980085 0.027753964 0.07179069 -0.0337576 -0.018865958 0.029666075
0.01487808 0.042432543 -0.019993378 0.08548249 0.1199675 -0.008269358 -0.059296228 -0.025920989
0.047557212 0.016200189 0.025580084 -0.013961797 0.008663319 0.024114704 -0.03500896 -0.008552537
0.13818267 0.0019357022 -0.015530278 0.02601912 0.027983943 -0.04250561 0.015477796 -0.029144084
-0.035979886 0.00877012 0.038553115 0.04510743 -0.020920163 -0.031430744 0.06574554 0.09807332
0.042660896 0.03954863 0.066872135 0.103976466 0.022483334 0.018170603 0.018206611 -0.033216763
-0.040898737 0.07944763 -0.022907332 -0.03644196 0.019651793 -0.028660957 -0.012719411 -0.02728298
00000000: 0ced e13c 43b3 3a3d d60d 90bd 0eea 90bd
00000010: 70e2 76bd 95e3 80bd 39f9 b0bc 4294 8cbb
00000020: 0373 1cbd 25e7 f53d af41 d8bd 9506 ea3c
00000030: 0a69 eb3d 2107 c83b 9c01 ab3c 18c6 5bbd
00000040: 75b5 df3d 64fb ce3d 2215 34bc 22a5 0ebb
00000050: 8a2e 8d3d 74b0 083e a59f e9bc b8de b93d
00000060: d7d3 283d 4dce a73d df6d 48bd 80be 9b3d
00000070: bd4e 7a3d f417 9ebd d35b 103d 3d41 583d
00000080: bd67 00bd 01d6 6a3b 1b38 9d3d 5790 aa3d
00000090: 5e15 b43c 650a 4abc 5db6 353d bb77 b7bd
000000a0: 4193 c8bc 0e63 af3c 9683 9fbc aa70 9a3d
000000b0: df55 45bd 2e72 c8bc 6d52 893d b0bc b13d
000000c0: 0364 88bc de6f 3b3d 2bc9 3cbd 7122 6dbd
000000d0: f289 42bd 5ff2 f33c fc82 0e3c 814a cb3d
000000e0: c72a b03d fc25 0e3d 94b7 b63d a7d8 29bd
000000f0: 7d80 843d b7c3 243d 82b0 0cbc 3f38 17bd
00000100: 8aa0 ce3d e44d bcbc 6f58 793d 6eb8 8fbc
00000110: 48bb bc3d 0642 7ebd 35cf 933d ac95 0a3d
00000120: d85b 95bc fd75 263d dd9a 4e3d ee05 883d
00000130: 876c 25bc 028d 3e3d 4c7c 84bb 22b2 d63d
00000140: 097e 75bd 2c7f 22bd 5405 1cbd e351 323d
00000150: 65ba 9abd 1c03 54bc 67ff 723d 83d4 1a3e
00000160: 1009 98bc bab0 143d cc60 a139 3f60 02bd
00000170: ac36 9bbc e0f8 4abc 48aa 863c f5af 93bd
00000180: 0269 bf3c c3e7 57bd 5882 10bb 18ef 733d
00000190: c38e 13bd 0b5e 763d 9cbe a23d a6bd 26bd
000001a0: dde7 a13d 86ef 73bd be94 293c 1ad9 67bd
000001b0: c933 e43b 4b7d afbb 1aeb 273d 1193 d9bc
000001c0: f761 603b 60ad 25bd f3e3 193c 014e 6b3c
000001d0: 991b 6abd 039a ef3b 4a83 fb3c 3792 1b3d
000001e0: 8ab9 15bd fa22 d8ba 15b5 5dbc 62db fe3c
000001f0: b913 7d3d 7c6e d13d b4da a43c 5fc6 e73d
00000200: cae4 163e 9b51 513a 5d3d 733c 1aa9 a03d
00000210: df62 223d 184f b03d 0136 41bd 9d74 8d3d
00000220: 9d04 81bd 0bc8 17bd c70e 983d 0ab0 353d
00000230: a0c5 3abd b7bf cfbc 1e91 56bd 452f 4dbb
00000240: 24cf f03b 32e5 02bd fd32 52bd d85f 6f3c
00000250: 3ca9 3dbb 08a9 e43b 89a6 1fbe 1f9f 9c3c
00000260: b1af 1cbd f002 4d3b 8a54 873c f6d8 92bc
00000270: a663 ffbc 6671 f83d 547b a1bd 54c3 803d
00000280: 36da 1e3d 39d5 473b 8d48 5c3a 3f17 42bd
00000290: c30a 763d bda0 2c3e 8237 52bc 6bdb 043e
000002a0: b361 75bd 7e77 ff3c 2ae8 6a3d 7dde 36bd
000002b0: 3c15 bf3d d958 083e 3d86 41bd 8215 153c
000002c0: 7abc c83c 8934 92bd 4ac5 8f3b 4d9d e83d
000002d0: 7f1d 5dbd 7405 6d3b 37bb e3bc e8b3 e43d
000002e0: f356 1cbd 38f8 57bd 53d7 b7bc 5c28 07bd
000002f0: 2c5a 753c 96fd 623c cbd6 69bc efed 24bc
00000300: 50af 273c 97ec 6abc 5448 8d3c ad75 fb3c
00000310: a543 8d3c bcdd b8bd 1ce4 073d 5a13 b13d
00000320: c041 9cbd c6c2 a5bd fafb 4bbd 485c e33c
00000330: ff06 933d 6945 0abd c88c 9abc 4506 f33c
00000340: 31c3 733c bfcd 2d3d 27c9 a3bc 7211 af3d
00000350: 85b1 f53d 347c 07bc 9ae0 72bd 4158 d4bc
00000360: 5acb 423d 42b6 843c 538d d13c 05c0 64bc
00000370: 98f0 0d3c 338c c53c 8e65 0fbd f11f 0cbc
00000380: c27f 0d3e 63b7 fd3a b572 7ebc 0d26 d53c
00000390: 953e e53c 5d1a 2ebd 9596 7d3c 93bf eebc
000003a0: a55f 13bd 8db0 0f3c dfe9 1d3d 92c2 383d
000003b0: c360 abbc 86bd 00bd 99a5 863d aada c83d
000003c0: 31bd 2e3d bffd 213d 42f4 883d 9df1 d43d
000003d0: f82e b83c 84da 943c 0826 953c 4d0e 08bd
000003e0: 6f85 27bd 70b5 a23d 28a8 bbbc 2a44 15bd
000003f0: ccfc a03c 62ca eabc 1465 50bc 8e80 dfbc

bias f4 [128]
0.0984516 0.03937032 -0.018132556 -0.0897267 0.12833074 0.026014159 -0.033084366 0.088834494
0.03644761 0.11600484 -0.0713132 0.07699308 0.11662138 0.042633746 0.07422244 -0.0051581007
-0.034189478 0.105560906 0.018111793 -0.03430251 0.12241827 0.0018396513 0.09095703 -0.06841793
0.010200715 -0.0017528615 -0.021652231 -0.0054888045 0.0063258894 -0.025811875 0.1041655 -0.019695977
0.1104957 0.061845507 0.07322308 0.058035284 0.071973674 0.10783848 0.10144862 0.02138647
0.11143915 -0.01202585 -0.017398523 0.08491474 0.0807806 0.071499005 0.046581253 -0.028828299
0.03928802 0.04157402 -0.02277661 0.057658333 0.07443601 -0.10786691 0.09611466 0.024699163
0.08854302 0.081066094 0.026469775 -0.008992259 0.107662745 0.084163666 -0.001515998 0.08554805
0.03615461 0.019824259 0.1287688 0.020241179 0.046319462 0.074153505 -0.043517184 0.12360959
0.12768301 -0.05716607 0.070795886 0.09434509 -0.026159268 0.12028854 -0.0525233 0.03250385
0.07409703 0.070830815 0.06450186 0.04377812 0.09380867 0.017747475 0.12026475 -0.03431758
0.040467862 -0.034426052 0.025957948 0.046917625 0.13002269 0.008514379 0.07436238 0.042007204
-0.08297754 -0.014280549 -0.07429561 0.021211505 0.067073464 -0.033402238 0.13507628 -0.0070979213
0.024184676 0.072712265 0.021304995 0.029875629 0.102218404 0.044451553 0.015284077 0.106135145
0.090243176 0.023106154 0.019960148 0.08543314 0.124581195 0.03403159 0.018327031 0.093365215
0.10301886 0.027940953 -0.019326389 0.10609324 0.01232611 0.011944823 -0.025232898 0.11183239
00000000: fea0 c93d c642 213d ba8a 94bc a2c2 b7bd
00000010: 2269 033e a51b d53c 7983 07bd dcee b53d
00000020: 174a 153d f293 ed3d a80c 92bd 8cae 9d3d
00000030: 31d7 ee3d b9a0 2e3d ef01 983d 4905 a9bb
00000040: 440a 0cbd 5130 d83d 2f5f 943c ca80 0cbd
00000050: 6eb6 fa3d 7420 f13a ae47 ba3d b31e 8cbd
00000060: e620 273c 46c0 e5ba 0560 b1bc 6edb b3bb
00000070: 6849 cf3b 6d73 d3bc b954 d53d 7559 a1bc
00000080: 924b e23d b751 7d3d fbf5 953d 68b6 6d3d
00000090: ef66 933d 6cda dc3d 4bc4 cf3d ae32 af3c
000000a0: 363a e43d 1208 45bc 5987 8ebc c7e7 ad3d
000000b0: 4d70 a53d 126e 923d fccb 3e3d 5329 ecbc
000000c0: 7aec 203d 8549 2a3d 0396 babc 252b 6c3d
000000d0: e871 983d 54e9 dcbd c3d7 c43d e655 ca3c
000000e0: 0b56 b53d fb05 a63d 24d7 d83c 4554 13bc
000000f0: 497e dc3d 005e ac3d 74b4 c6ba d133 af3d
00000100: db16 143d 7c66 a23c f8db 033e d4d0 a53c
00000110: 7ab9 3d3d cbdd 973d 133f 32bd 0627 fd3d
00000120: 56bf 023e f826 6abd 6ffd 903d 0038 c13d
00000130: f64b d6bc d759 f63d ac22 57bd c222 053d
00000140: 2fc0 973d bf0f 913d 8d19 843d b050 333d
00000150: c31e c03d 2763 913c 5e4d f63d 9790 0cbd
00000160: a1c1 253d 5502 0dbd c3a5 d43c b22c 403d
00000170: ab24 053e e57f 0b3c 4e4b 983d bf0f 2c3d
00000180: 21f0 a9bd f7f8 69bc 4c28 98bd c0c3 ad3c
00000190: d05d 893d c9d0 08bd 7051 0a3e ae95 e8bb
000001a0: f11e c63c 2bea 943d d087 ae3c bcbd f43c
000001b0: e257 d13d d512 363d 116a 7a3c 625d d93d
000001c0: 6ad1 b83d 1e49 bd3c 7783 a33c 92f7 ae3d
000001d0: 6d24 ff3d b564 0b3d 9222 963c 4336 bf3d
000001e0: 8dfb d23d 6de4 e43c 6052 9ebc 6a47 d93d
000001f0: 74f3 493c 38b4 433c 39b5 cebc 6108 e53d

weight f4 [1, 128]
-0.041100126 0.1384837 0.0818575 0.0004258664 -0.1019192 0.06803283 0.06252924 -0.100271024
0.05868425 0.089676954 0.054647315 0.12393048 0.12590632 -0.022117242 0.12483582 0.102696024
-0.033389427 -0.056595825 -0.050353263 0.1524572 -0.0325655 -0.05875451 0.09728515 0.077311344
-0.034551423 0.056747604 0.07597342 -0.10399754 0.10850544 0.13355215 -0.04453811 0.14227949
-0.09984878 0.08899737 -0.08410958 -0.06594675 -0.02709191 -0.07290526 0.10437678 0.06318345
-0.095931984 -0.09380253 -0.04355778 -0.07558772 0.088337466 0.075574234 0.066975884 0.041580185
-0.037480477 0.09191312 0.14197466 -0.023578623 0.031886913 -0.031721044 -0.019757496 -0.08910379
-0.042111155 -0.0673727 -0.036074746 -0.09250219 0.13613154 0.101331234 -0.09737684 0.107836016
0.15423806 0.13984247 0.123234384 0.07579291 0.12744384 -0.060758937 -0.07487376 -0.027947286
-0.058552995 0.0031146181 0.11617728 -0.03807192 0.0017912189 -0.05615671 0.14651132 -0.018805292
-0.074479364 -0.055030074 0.11032273 0.12081071 0.063153796 -0.044727713 -0.02222995 0.12798691
-0.05277334 -0.02610495 -0.028011207 0.111437455 -0.06378518 -0.05336864 0.104818344 -0.036697093
0.034392424 -0.028790584 -0.05115469 0.12570453 -0.09739761 -0.014748124 -0.042013787 0.001810142
0.040738266 -0.06748361 0.12424286 -0.077648245 0.041041154 0.09436669 -0.050582174 -0.08055297
0.1063518 -0.064745255 -0.097907595 0.078862324 -0.02526425 0.00804874 -0.088185206 -0.036062043
-0.04544676 0.11959729 0.04544522 -0.09850563 0.12754065 0.14118369 0.11172121 -0.08896606
00000000: 9b58 28bd acce 0d3e e8a4 a73d d246 df39
00000010: 03bb d0bd cc54 8b3d 550f 803d e55a cdbd
00000020: e55e 703d 8da8 b73d ddd5 5f3d 43cf fd3d
00000030: 96ed 003e 382f b5bc eca9 ff3d 4b52 d23d
00000040: 5ac3 08bd 06d1 67bd 393f 4ebd be1d 1c3e
00000050: 6763 05bd 92a8 70bd 703d c73d 6955 9e3d
00000060: cb85 0dbd 2d70 683d f497 9b3d aafc d4bd
00000070: 1a38 de3d e5c1 083e 986d 36bd b7b1 113e
00000080: 847d ccbd 4144 b63d a541 acbd 170f 87bd
00000090: daef ddbc 5a4f 95bd 7ec3 d53d 5366 813d
000000a0: fd77 c4bd 8a1b c0bd a569 32bd bccd 9abd
000000b0: 46ea b43d aac6 9a3d a72a 893d fc4f 2a3d
000000c0: 2185 19bd f23c bc3d ce61 113e f527 c1bc
000000d0: da9b 023d eded 01bd 79da a1bc 0c7c b6bd
000000e0: bf7c 2cbd b3fa 89bd 1dc3 13bd ca71 bdbd
000000f0: 1166 0b3e c086 cf3d 826d c7bd 21d9 dc3d
00000100: 95f0 1d3e dd32 0f3e 4f62 fc3d 5039 9b3d
00000110: a380 023e 5dde 78bd 6a57 99bd b5f1 e4bc
00000120: 44d5 6fbd 9f1e 4c3b 5bee ed3d 4df1 1bbd
00000130: 55c7 ea3a 9404 66bd 1007 163e 8e0d 9abc
00000140: a388 98bd 3767 61bd e2f0 e13d 9b6b f73d
00000150: c756 813d 6834 37bd 961b b6bc 000f 033e
00000160: dc28 58bd 0cda d5bc c277 e5bc 5239 e43d
00000170: cea1 82bd 1399 5abd 00ab d63d b14f 16bd
00000180: 12df 0c3d 3bda ebbc 9587 51bd b0b8 003e
00000190: 6678 c7bd 1ea2 71bc a616 2cbd 4942 ed3a
000001a0: 2bdd 263d d934 8abd 0a73 fe3d 0b06 9fbd
000001b0: c51a 283d 5343 c13d 412f 4fbd f5f8 a4bd
000001c0: f9ce d93d 2999 84bd c783 c8bd 9282 a13d
000001d0: f9f6 cebc ddde 033c 729a b4bd cbb5 13bd
000001e0: 6226 3abd 6def f43d c424 3a3d 52bd c9bd
000001f0: 049a 023e 7592 103e 17ce e43d d633 b6bd
