bike_sharing/AutogluonModels/ag-20220403_215705/models/NeuralNetTorch_BAG_L2/S1F2/net.params (torch, 215879 bytes, 9 tensors)

weight f4 [128, 22]
000000 e4 9f 14 be e1 f6 41 3e de ba 29 be 2b 0b 20 be
       -0.14514118 0.18941833 -0.1657519 -0.1562926
000010 e6 9e a7 bd 79 32 ec 3d 6c 27 a2 3d 0d 0c 45 3e
       -0.08184604 0.115330644 0.079176754 0.19242878
000020 7a e0 eb 3c 46 0e 60 3d de 60 3e bd bc c8 8b 3c
       0.028793562 0.054701112 -0.0464791 0.017063491
000030 c7 c7 2e be 2a 1c 30 be d7 bb c0 bd 28 7c 29 3d
       -0.17068397 -0.17198244 -0.094108276 0.04137817
000040 68 09 ec 3d 0d b2 2c 3e 79 ef bd bd 06 d6 83 bd
       0.115252316 0.16864796 -0.092741914 -0.06437306
000050 1c b1 cf 3d 2b 0a 41 3e 7b 0d 4b be 72 f2 78 3e
       0.10141203 0.18851535 -0.19829361 0.24311236
000060 3e e9 4e bd 05 e0 9b 3c ca 5f 3d 3e 96 30 69 be
       -0.050515406 0.01902772 0.18493572 -0.2277244
000070 f5 90 26 be 3b b4 fe bc 08 50 3f bd ab cd 2d 3e
       -0.16266234 -0.0310918 -0.046707183 0.16972987
000080 2c c7 00 be 93 6e f3 bd 35 71 3c be 56 c1 1e be
       -0.12575978 -0.11886325 -0.1840256 -0.1550344
000090 b4 c4 2c be 63 6f 32 3e c3 c1 d5 3d 0e d3 33 3d
       -0.16871911 0.17425303 0.10437348 0.04390245
0000a0 01 34 c7 3d ef b6 cc bd 4a 7d 33 3d 09 38 09 be
       0.09726716 -0.09995829 0.043820657 -0.13400282
0000b0 22 5d 35 be f9 a4 cb be 44 f2 71 3d f7 ab fd 3d
       -0.17711309 -0.39774302 0.059068933 0.12386315
0000c0 c2 06 bc bd 39 4a 38 3b 19 4a 08 3e 7d 6b d8 3d
       -0.091809765 0.0028120412 0.13309516 0.10567377
0000d0 dd c3 47 3d 57 00 35 3d d6 9b 07 3e 36 10 61 bd
       0.048770774 0.044189777 0.1324304 -0.0549471
0000e0 1d 1c 2c 3d 3f 1b 14 be 4d fe 06 be f0 83 a8 bd
       0.042019 -0.14463519 -0.13182946 -0.0822829
0000f0 89 83 00 3e 36 f4 f2 39 e4 cd 14 be 09 ac a5 3d
       0.12550177 0.00046339788 -0.14531666 0.08089454
000100 56 2a b7 3d ee 46 81 3c 26 11 90 bd 77 0c 5b 3e
       0.08943622 0.015780892 -0.07034521 0.21391474
000110 65 c3 0c 3e e5 2f 07 3e 21 1e b9 bd 60 bf dd bd
       0.13746412 0.13201864 -0.0903895 -0.108275175
000120 cd 1f 72 3d 35 4f 43 3e ce de f0 3d 23 8e 3b 3e
       0.05911236 0.19073184 0.117612466 0.1831594
000130 98 f6 cb 3d 5e 8f 23 be f0 2d ec 3c 70 96 12 be
       0.099591434 -0.15972659 0.028830498 -0.143152
000140 e3 14 80 be d2 9b 25 3e 64 e8 18 3e a0 77 00 be
       -0.25015935 0.16172722 0.149324 -0.12545633
000150 df 85 06 3d 58 85 b4 bd d7 f4 87 3d 7b 6b 4b be
       0.032842513 -0.08814496 0.06638496 -0.1986522
000160 a3 3d 05 3e 44 4b a1 be c9 36 34 3d af 7f 90 3d
       0.13011794 -0.31502736 0.04399756 0.07055604
000170 da 80 5f 3e 40 42 5b 3d e8 1e 57 be 9e fa cc bd
       0.21826497 0.053529978 -0.21007884 -0.10008739
000180 df 11 92 3d d2 63 92 3d 7c 4e d3 bd a0 4c ec bd
       0.07132315 0.071479455 -0.10317704 -0.115380526
000190 64 21 30 3e 30 25 32 3e 90 93 82 bd cf 11 b5 bd
       0.17200238 0.17396998 -0.063758016 -0.08841287
0001a0 54 bc 62 be b1 09 37 3c d0 2e f9 bd 5b 55 13 be
       -0.22142154 0.011171744 -0.12167132 -0.1438803
0001b0 e8 84 86 3c c6 3d 9d 3d 15 fc 80 be 8b 5f 82 3e
       0.016420797 0.07677798 -0.25192323 0.25463519
0001c0 25 6a ce bd 4a 03 34 3e cf 0d 69 3d 3c 9d 8c bd
       -0.10078839 0.1757938 0.056897935 -0.068659276
0001d0 fe b9 75 3d 61 16 a8 bc c9 d2 54 3c 4a 75 05 3d
       0.05999183 -0.020518484 0.012989708 0.03258256
0001e0 af cd 41 3c ea f1 b9 3c c6 b5 00 be 9e b9 e4 3d
       0.011828824 0.022698361 -0.12569341 0.11168216
0001f0 e0 1e 4c be cc e7 99 bd b1 95 f0 bb 68 ad 2e bd
       -0.19933653 -0.07514915 -0.0073420634 -0.04264584
000200 f6 e4 b5 bd 9a d4 24 be 35 59 9c bd 1f a2 b0 3d
       -0.088815615 -0.16096726 -0.076342024 0.08624672
000210 4e 5a 79 be a6 73 03 be 4c c6 92 3d 0a ac 8e bd
       -0.24350855 -0.12837085 0.071667284 -0.069664076
000220 73 66 17 bd ef 71 35 bd fc 92 4d 3c 5f 95 20 3e
       -0.036962938 -0.04429811 0.012547251 0.1568198
000230 12 77 5a 3e 29 7b e8 3d 93 8d 2d 3e 16 95 e1 bb
       0.21334484 0.11351616 0.16948538 -0.0068842275
000240 9e ec 39 be b1 19 1a be 5b 4e 02 3e 7b 1d 13 bd
       -0.18156669 -0.15048863 0.12725203 -0.035916787
000250 5a f4 0d be 90 2e f0 bd 13 a2 68 be 41 75 57 be
       -0.13862744 -0.11727631 -0.22718076 -0.21040823
000260 a7 d6 ec bd f4 b4 0c 3e 61 f2 95 3e f0 13 c3 be
       -0.11564379 0.13740903 0.29286483 -0.3810115
000270 7d 78 f3 3d d0 4b 05 be 8f 51 a5 bc 4a 63 a8 bd
       0.11888216 -0.13017201 -0.020180492 -0.08222063
000280 98 8d 25 bd 20 24 16 3b ad 3f d2 bd 95 37 d5 bd
       -0.040418237 0.0022909716 -0.102660514 -0.10410992
000290 a7 17 3f 3b c6 d0 88 3a b5 22 89 bd a8 b8 d0 3d
       0.0029158385 0.0010438196 -0.06696073 0.101914704
0002a0 c5 01 04 be 09 9b 86 bb 4e af 3d 3e 4b 64 de bc
       -0.128913 -0.004107837 0.18523905 -0.027147433
0002b0 ff f0 03 3e 2c 56 cc 3d b7 2f 05 be e1 ca b6 3d
       0.12884901 0.099773735 -0.13006483 0.08925415
0002c0 c5 f9 2f 3e 0d 47 9f be d7 6c e2 3d 38 b0 1b be
       0.17185123 -0.31108895 0.11055916 -0.15203941
0002d0 6f f3 f1 3c c5 5d c1 bd 29 96 af 3d 58 d7 16 3d
       0.029535023 -0.09441713 0.08573563 0.03682646
0002e0 7b 1a 84 3d 8c 0d 07 3d 72 3b 63 bd 63 75 12 bd
       0.06450363 0.032971904 -0.055476613 -0.03575648
0002f0 2e 6f af bd 0f 3f c5 3d 37 65 2e 3e 1b 9e a4 3d
       -0.08566128 0.09631168 0.17030798 0.08037969
000300 d2 e3 32 be 66 0f 1c bb 10 85 f7 bd d7 d6 12 be
       -0.17469719 -0.002381289 -0.120859265 -0.14339767
000310 7f c6 40 be 4e cc bc 3d a0 ab 88 be 2d 14 b9 be
       -0.1882572 0.092186555 -0.2669344 -0.36148205
000320 61 1a 4d bd 72 1c 4e 3e 91 6d 04 be 62 2a a0 bc
       -0.050073985 0.20128039 -0.12932421 -0.01955146
000330 8f 2e 9a bc bb 70 73 3d f6 77 71 bc 72 0f 93 3d
       -0.018821029 0.05943368 -0.014738074 0.0718068
000340 ae 28 8a 3d 8d 46 3b 3d 3b 54 09 bd 40 16 88 bc
       0.0674604 0.04572158 -0.033527594 -0.016612172
000350 c1 11 8b 3d ec 47 3f bd ca 5e 9d 3c 5a 7f b0 bb
       0.06790496 -0.04669945 0.019210238 -0.0053862752
000360 e2 02 b6 bd f1 a0 6a be 53 d2 c4 3d fa b7 aa bd
       -0.088872686 -0.22912957 0.09610429 -0.08335872
000370 93 90 34 be 8d 4a a6 3e f2 c6 2c 3d 32 e5 86 bd
       -0.17633276 0.32478753 0.042181917 -0.06586684
000380 c9 d7 0a be af 4f a1 3d 71 b7 2e be c1 cb 8e bc
       -0.13558878 0.078765266 -0.17062165 -0.017431142
000390 c6 f0 a2 bd 1c d6 91 bc 5f 01 63 3d 8f e9 e0 3d
       -0.0795608 -0.01780229 0.05542123 0.10982048
0003a0 7b fc 82 3c 16 d3 1a 3e 33 fc 56 3d ff c4 2b be
       0.015989533 0.15119585 0.05248661 -0.16774367
0003b0 ca 58 90 3d 09 85 80 bd 8e 6a 07 be 6b 01 b4 3c
       0.07048185 -0.062753744 -0.13224241 0.021973332
0003c0 47 98 69 3d 92 87 df 3d b8 5e 76 be 5f 12 cd bd
       0.05702999 0.1091453 -0.2405957 -0.1001327
0003d0 f0 bf 6c 3d 36 0c 51 be 54 d9 e8 3d 5b 8e 08 be
       0.057800233 -0.20414814 0.11369577 -0.13335554
0003e0 07 f0 0b 3d 0e 34 c2 bc 68 a0 ec bc 75 c6 61 bc
       0.034164455 -0.023706462 -0.028885081 -0.013780226
0003f0 95 50 0d 3e 5a 6b 9c bd 5e 0d 16 be 76 8d 83 bd
       0.13800271 -0.07637663 -0.14653537 -0.06423466

bias f4 [128]
000000 89 d2 13 be 55 ff d7 bd d6 bc 4c ba 5b 5f 9b bd
       -0.14435782 -0.105467476 -0.0007810121 -0.07586547
000010 bf 31 8d bd 93 d7 eb 3d 87 a8 74 bd 99 c7 5f 3d
       -0.06894254 0.11515727 -0.059731033 0.05463371
000020 be 77 34 3e ab 1d 1b be ff 03 25 be 84 b1 d4 bd
       0.17623803 -0.15148036 -0.16114806 -0.10385421
000030 02 9d 12 bd 12 6f ee bd ab aa 20 bd a2 e9 01 3d
       -0.035794266 -0.11642279 -0.03922526 0.03171695
000040 7c 5b 4e 3d 45 b6 1c 3e 1a 38 20 3e 9c 23 e9 3b
       0.050380215 0.15303905 0.15646401 0.0071148407
000050 c1 26 02 bc c5 40 12 3d cc 42 dd bc 1d ef 90 bd
       -0.00794381 0.0357063 -0.02700939 -0.07076857
000060 d0 b2 cf 3d e0 e6 7f be c5 ea 2e be 7f 59 2e bd
       0.10141528 -0.24990416 -0.17081745 -0.04256582
000070 73 a8 c8 bd 07 22 0d be ef 4d 72 be 29 57 24 3e
       -0.09797754 -0.13782512 -0.23662542 0.16048874
000080 22 9b 3d bd a2 12 a6 bd 6b c1 ef bd 37 96 28 3d
       -0.046290524 -0.08109023 -0.117068134 0.04115888
000090 08 9d 3e be 1e 29 f1 bc 11 fa 10 3a e9 f7 38 3d
       -0.1861459 -0.029438552 0.0005530427 0.0451583
0000a0 c2 2e 8f 3d fc 2c 14 be c8 f7 b4 3d 9b 0c 12 3e
       0.0699134 -0.14470285 0.08836323 0.14262621
0000b0 ec 3f 31 bd 7e b3 88 3d b9 dd a0 bc 21 2d a1 3c
       -0.04327385 0.066748604 -0.019636976 0.01967484
0000c0 ce bc b8 bb 11 7a dd bd 86 ea e4 3d a4 3f 7c be
       -0.0056377416 -0.10814298 0.11177544 -0.24633652
0000d0 13 c7 d2 bc fc c0 1e be 6b e3 ff bd f3 ff 35 be
       -0.025729692 -0.15503305 -0.124945484 -0.17773418
0000e0 2b e8 87 be 4e bd 8c 3d b8 9b a7 bd d7 22 02 be
       -0.26544318 0.068720445 -0.08183998 -0.12708603
0000f0 bb f2 3f bb 9f 36 67 bd ba a0 b8 3c 06 56 30 be
       -0.0029288966 -0.056448575 0.022537578 -0.17220315
000100 4b 78 6c bc 4c db 99 3d 03 49 80 3d 04 32 dc 3c
       -0.014432977 0.07512531 0.06263926 0.026879318
000110 ea a2 22 3d 11 28 2e 3e a8 12 ea bd d7 e2 07 3e
       0.03970615 0.17007472 -0.1142934 0.13270126
000120 02 33 46 3e 7a 5d 59 be 0d bc ad 3c df c4 ec 3d
       0.19355395 -0.21227065 0.021207834 0.11560988
000130 5d 20 87 bd 6d 88 9e 3d 32 4a 66 3c 89 d2 0e 3e
       -0.0659797 0.07740865 0.0140557755 0.139475
000140 9a 12 1b bd 82 3b fe bd 9e 94 21 3e 35 46 af 3d
       -0.037859537 -0.12413694 0.15779349 0.08558313
000150 75 43 15 3e 38 00 39 3d 3b 11 1f 3e 1f c8 35 3d
       0.14576514 0.045166224 0.15533917 0.044380303
000160 f5 1a 23 3d 5f 87 ac bd 50 0e 04 3d 3f 0c 27 be
       0.03982063 -0.084242575 0.032240212 -0.16313265
000170 24 17 9e 3c e1 cc a4 bc aa fc 54 bc ed 28 10 be
       0.019298144 -0.020117225 -0.012999693 -0.14078112
000180 d8 d8 54 3d 90 9a 26 be c8 d9 a6 3d 1c c3 e3 3d
       0.05196461 -0.16269898 0.08147007 0.111211985
000190 09 fe 56 be fe d8 1d 3e 77 a5 2f be 0b 05 34 bd
       -0.20995344 0.15414807 -0.17152964 -0.04395012
0001a0 1f 33 a4 3d 7b 24 26 bd 75 a6 32 3e 18 f0 dc bd
       0.08017563 -0.040562134 0.17446311 -0.10787982
0001b0 47 2b c5 bb 5c 9c 3c be 11 37 b3 bd 0e 48 5f 3e
       -0.006017122 -0.18419021 -0.087507375 0.2180483
0001c0 a1 59 0c 3e 9a 2d 12 3d 00 14 36 bd 8f c3 26 be
       0.13706066 0.03568802 -0.044452667 -0.16285537
0001d0 fc 54 0a 3e 37 ff f5 bc 80 ee 85 bd 16 54 25 be
       0.13508981 -0.030028922 -0.06539631 -0.16145357
0001e0 92 7d 20 3e 8b 99 b2 3d ae cd cc 3d c0 1f 31 3c
       0.15672901 0.08720692 0.10000168 0.010810792
0001f0 40 e2 00 be ed 58 db 3d e7 80 bd 3c 62 6a b8 3d
       -0.12586308 0.107103206 0.023132754 0.09004666

weight f4 [128, 128]
000000 5d 83 11 bd 10 f7 13 bd 56 6d d6 3d 56 4c 9a 3c
       -0.03552567 -0.03612429 0.10470073 0.018835228
000010 b4 03 15 bd 06 ca 09 3c 50 92 bf bc 5b f0 9f 3c
       -0.036380485 0.008409983 -0.023385197 0.01952379
000020 3c a9 79 3d cb 5d 43 3b 8c 01 10 3d ee 56 79 3d
       0.06095241 0.0029810544 0.035157725 0.06087392
000030 6e 4b 4b 3b 30 c0 dc bc c6 d7 1a 3d ed dd 91 bd
       0.0031020301 -0.02694711 0.037803434 -0.07122407
000040 7f dd 45 3d ac 6f 36 bd d8 a4 bb 3c af 51 f2 bd
       0.04830694 -0.044540092 0.022905752 -0.11831986
000050 5f ca d3 3d be ea c8 3d 8a a6 4a 3d 66 24 44 bc
       0.103413336 0.098103985 0.04947523 -0.011971569
000060 09 43 ab 3d 55 80 43 3d c7 43 9a 3d 2b 0c 3f 3d
       0.08362395 0.04772981 0.07532459 0.046642464
000070 82 82 f0 bd bb 34 9e 3c 8d 7f f4 bb 56 bb 35 3b
       -0.117436424 0.019312253 -0.0074614943 0.002773007
000080 58 70 89 3d 41 1e 68 3c a4 90 a1 3c 83 87 79 3d
       0.06710881 0.014167369 0.01972229 0.06092025
000090 a7 4a 3c 3d 5d c5 4d 3c b9 00 f5 3b b6 d7 60 bb
       0.04596963 0.012559262 0.007476893 -0.0034308261
0000a0 18 63 89 bd 15 0b e7 bc 38 43 8e 3c 83 8b 54 bd
       -0.06708354 -0.028203527 0.017366037 -0.05189086
0000b0 ea 1d a9 3b f4 f5 7c 3d 2c 09 cc 3d f9 29 b6 3b
       0.0051610367 0.061757997 0.09962687 0.0055592027
0000c0 00 7b 45 3b b5 d3 a8 bd a3 a2 04 3d e6 95 28 bd
       0.0030133128 -0.08243505 0.032381665 -0.04115858
0000d0 6e 3a a1 3d fa 89 c0 bc 20 ab 2d bd d6 97 38 bd
       0.07872473 -0.023503292 -0.042399526 -0.045066677
0000e0 e4 be 59 bb 73 9a b7 bc 9b 15 b1 bd 14 09 8f 3d
       -0.0033225352 -0.022412514 -0.08646699 0.069841534
0000f0 e9 f7 14 3d 73 5a 94 bd bb 41 ee bc 8d 71 04 3d
       0.036369238 -0.07243814 -0.029084077 0.032334853
000100 77 b5 bb 3d 1c c4 1e bd b3 4c 6e 3d bd 91 49 3d
       0.09165471 -0.038761243 0.058178615 0.049211252
000110 36 a0 bc bc 11 cb 8e 3d 56 30 a7 bd e6 d1 d0 3d
       -0.023025613 0.069723256 -0.08163516 0.10196285
000120 82 1e dc 3d d5 e5 03 bc da eb 40 3d 33 77 bb 3d
       0.107480064 -0.008050402 0.047099926 0.09153595
000130 2f a8 59 3d 75 d6 54 bc 31 0e da 3c 5d 41 7c bd
       0.053138908 -0.012990584 0.026618095 -0.061585773
000140 a5 53 4e 3d 80 59 bc bb 72 14 ab 3d b3 0a c9 bc
       0.05037274 -0.005747974 0.08353509 -0.024541235
000150 4f a6 32 3c 2f 18 ee bc 80 c0 49 3d 29 a4 5c bc
       0.010903909 -0.029064266 0.049255848 -0.013466873
000160 01 5b 88 3d c4 39 98 bd da fa 18 bd 1a fb 03 3d
       0.066579826 -0.07432893 -0.037348606 0.03222189
000170 06 e7 34 bd f0 b8 34 bd f4 aa 72 3d 78 2b e6 bc
       -0.044165634 -0.044121683 0.059245065 -0.0280969
000180 48 0b 52 bd 1d 44 20 bd 5b 04 a3 3d 65 37 37 3c
       -0.05128029 -0.039127458 0.07959815 0.011182641
000190 43 95 60 bd 0c bd 48 bd e3 db 63 3d 76 f1 8f bc
       -0.054829847 -0.049008414 0.055629622 -0.017571192
0001a0 85 e3 09 bd f9 68 a5 bd 91 f9 b4 3c 8e c7 06 3d
       -0.033664245 -0.080766626 0.022091659 0.032905154
0001b0 80 35 62 3d e0 ab 6d 3d 7e 22 cf 3d 92 fc 47 3d
       0.055226803 0.05802524 0.10114001 0.048824854
0001c0 63 64 15 3c 43 43 0f 3d 0b 85 a3 bb 92 b3 af 3c
       0.009118172 0.034976255 -0.004990225 0.02144793
0001d0 23 1d 9b 3d 23 43 9a bb ce 36 be 3c 1e de 3e bd
       0.07573917 -0.0047077104 0.023219492 -0.046598546
0001e0 de 32 54 bd 8c 11 1c 3c bf b6 d3 3d 6a 39 90 bd
       -0.051806323 0.009525668 0.103375904 -0.07042201
0001f0 06 0c 4e 3d 55 a8 97 3c 75 60 e4 3c 0d f7 da bc
       0.050304435 0.018512884 0.027878026 -0.026729131
000200 3b ad 30 3d 79 4c 31 3d 2a 70 94 bd 4e 71 1c bd
       0.043133955 0.04328582 -0.07247956 -0.038193993
000210 e2 cf 62 3d 43 34 9e 3b 4d 60 93 3d 0d 47 78 bd
       0.055374034 0.0048280074 0.07196102 -0.060614634
000220 9a 30 36 3d 64 52 83 3d 76 9e 9e 3c 3b 55 6c 3d
       0.044479944 0.06412199 0.01936267 0.05769847
000230 19 fb 1e bd c2 bf 03 3c bb 77 4a bc ff 87 1e bd
       -0.038813684 0.008041324 -0.0123576475 -0.038703915
000240 af bf 93 bd 1b 96 ab 3d 1d 2e 22 bd 18 de a9 3d
       -0.07214295 0.0837824 -0.03959476 0.08294314
000250 4d 76 60 3d 45 06 6d 3c 35 68 aa bd ac 08 ca bc
       0.05480032 0.014466827 -0.08320657 -0.024662338
000260 64 c3 47 bd 67 cb 32 3d 2a 83 53 bd d6 13 18 3d
       -0.048770323 0.04365101 -0.05163876 0.037128292
000270 a4 c7 b4 bd ef b0 26 bd c4 fa b1 3c 92 9d 1b 3d
       -0.08827141 -0.04069608 0.02172602 0.037992068
000280 2c cd 7a 3d 96 2a 3c bd ad 55 ea bd 4f 0d ab 3d
       0.061230823 -0.04593905 -0.114421226 0.08352148
000290 74 b7 0d 3d 45 0a 5e 3d 9f 51 44 bd 42 fb 99 bd
       0.034598783 0.054209013 -0.047929402 -0.07518627
0002a0 55 58 4e bd 4c a6 08 bd e0 6d 81 3c 41 37 58 bd
       -0.05037721 -0.033361718 0.015799463 -0.05278707
0002b0 0a d6 54 bc 5f f8 a2 bc ab 15 80 3d 00 ae 38 bd
       -0.012990484 -0.019893823 0.06254133 -0.045087814
0002c0 5e cd 64 3d b3 d5 3f bd c4 bf de bc 2b 42 9e bd
       0.055859916 -0.04683466 -0.02719105 -0.07727464
0002d0 2c 37 93 3d a5 68 0e bd 00 33 3a 3d c8 ab 72 bd
       0.071882576 -0.034767766 0.045458794 -0.059245855
0002e0 39 c2 aa 3d f8 8d 80 bc 1c 95 ae bd c7 03 b0 bc
       0.08337826 -0.015692696 -0.08524534 -0.021486176
0002f0 1e bd 4e bc 82 3e f1 bd 79 4f 75 bc 44 a9 98 3d
       -0.012618331 -0.117795005 -0.014972561 0.0745416
000300 3b 8d b4 3b 84 47 ef bc ad 7a 2a bd 1b 3a 5a bb
       0.00551 -0.029208906 -0.0416209 -0.0033298794
000310 12 e1 c8 bc aa a9 7a 3d 70 1d 74 3d 6f 82 e0 3c
       -0.024521384 0.06119696 0.059598386 0.027405946
000320 94 03 70 bd 45 4f f1 bd c6 0c 1b bd b5 cc 54 3d
       -0.058597162 -0.117826976 -0.03785398 0.051953036
000330 68 79 96 bd 69 14 d6 bd 15 f3 b2 bc d0 13 19 3d
       -0.07347375 -0.10453112 -0.021844426 0.03737241
000340 5e d4 aa bd da cc 86 bd 80 ab 82 3c 81 ea 1d bd
       -0.08341287 -0.06582041 0.015950918 -0.03855372
000350 ad ec 9c 3d bd 8c 75 3d e2 31 ce bd 5f 16 9c bd
       0.0766233 0.05994867 -0.10068108 -0.076214544
000360 3f d3 72 3d d4 a7 89 bc 06 ae 05 bd 87 b6 1f bd
       0.05928349 -0.01680366 -0.032636665 -0.03899243
000370 7f c8 44 bd aa c7 93 3d 82 c2 14 3c 92 0c 09 bd
       -0.04804277 0.07215817 0.009079577 -0.033459254
000380 72 38 b0 bd 9a 2a 2c 3c 16 66 67 bd 12 f3 8b 3c
       -0.08604516 0.010508204 -0.05649384 0.017083678
000390 7b 33 db bc b5 e5 9f bd 82 46 a5 3c b3 ce b8 bd
       -0.026757946 -0.07807485 0.020175222 -0.090238
0003a0 23 b0 12 3d 02 c2 55 bc 10 59 6a 3d cf c7 a8 bd
       0.03581251 -0.013046743 0.057213843 -0.082412355
0003b0 dd 71 8d 3c da 9f ac 3d 6f 3b 43 bd ce 6a f1 3c
       0.017266208 0.08428927 -0.047664102 0.029469874
0003c0 b1 4e 4e bd cd dc 09 3d b9 b7 24 3c b8 6f 82 bc
       -0.050368015 0.033657838 0.0100535685 -0.015922412
0003d0 ac 04 29 bd 92 fb 0a bd 1c 17 2b 3d 71 2f dc bd
       -0.04126422 -0.033931322 0.041770086 -0.10751236
0003e0 e6 0b 6d 3d c6 06 7a 3d ad d3 d6 3b 48 db 5a 3d
       0.057872675 0.061041616 0.0065559954 0.05343178
0003f0 3a e3 2b bd 6d ce e1 bb 39 da 11 bc 09 9c 9a bd
       -0.041964747 -0.006891063 -0.008902126 -0.075492926

bias f4 [128]
000000 2c e2 a3 3a f5 c1 d5 3c 5a 0b 07 be 9a b1 d7 3a
       0.0012503318 0.026093462 -0.13187924 0.0016456128
000010 5f a2 dc 3c f5 03 a7 bd 38 23 c6 3b 56 e0 77 bd
       0.026932893 -0.081550516 0.006046679 -0.060516678
000020 0e d5 09 be 0b 1f 90 3d 67 15 10 3c a8 35 b9 3d
       -0.1346018 0.07037171 0.008794165 0.09043437
000030 dc 0f bd 3d 6a af 5c bd 8d af a3 bc 28 96 1c bd
       0.092315406 -0.053878225 -0.01998117 -0.038229138
000040 78 9a af 3c 29 45 c4 3c e1 73 29 bc 70 e3 bb 3d
       0.021435961 0.02395876 -0.010342569 0.0917424
000050 b0 27 85 bc 76 92 41 3d 7c 85 48 3c 1c 7f 02 bd
       -0.016254276 0.047258817 0.012238856 -0.031859502
000060 ad bd 3a 3d 66 89 2c 3d 3f 5b a9 bc 59 8c b1 bd
       0.045591045 0.04212322 -0.020673392 -0.08669347
000070 b5 0c 90 3d e9 9b 92 3d 7c 4d 06 3d e1 6b bb 3c
       0.07033674 0.07158644 0.03278874 0.02287859
000080 23 3f b8 3c f2 60 46 3d ba b4 32 bd 85 7c 7e bd
       0.022491043 0.048432298 -0.043629386 -0.06213047
000090 ec d0 41 bd 40 86 82 3d da cf cc bc 25 10 85 3d
       -0.047318384 0.063732624 -0.025001455 0.0649722
0000a0 2e 36 d0 bd 16 2a 3e bd cd 65 a3 3d cb 6d 4a bd
       -0.10166584 -0.046426855 0.07978401 -0.049421113
0000b0 aa c5 70 3c 3d 7e 9f 3d 04 37 02 3c 61 8c 49 3d
       0.014695564 0.0778775 0.007947687 0.04920614
0000c0 4c 0b 67 bb 0e 27 c9 bd 90 a6 0d bd cd 8b 27 bd
       -0.0035254536 -0.09821902 -0.034582675 -0.04090481
0000d0 6a 0b 28 bd e1 97 67 bd f0 27 08 bb af 57 d3 3d
       -0.04102651 -0.056541327 -0.0020775758 0.10319459
0000e0 91 c8 a2 3d b3 f0 3c 3d e1 80 95 bd 0b 25 c4 3c
       0.07948411 0.046127986 -0.07299972 0.023943445
0000f0 97 27 8f 3c aa 55 90 3d 6b cb 47 bd 3b 3f 36 3d
       0.017474933 0.07047589 -0.04877798 0.044493895
000100 40 a7 97 3d 36 e0 81 bc 10 dc f9 bd f9 98 ba 3c
       0.07404947 -0.015853982 -0.12200177 0.022778021
000110 87 f6 58 3d fd 8f d4 bd a5 02 96 3d 31 68 a2 ba
       0.05296948 -0.10379026 0.07324723 -0.0012390671
000120 0e 85 08 be 9e 70 23 3d 1c 20 23 3d 9d 44 f9 3b
       -0.13332006 0.039902322 0.039825544 0.0076070563
000130 77 88 7e bd 5d 2d 4c bd d5 1d 91 3d f6 38 44 3d
       -0.06214186 -0.04984795 0.07085768 0.047905885
000140 87 50 76 3d d7 10 12 3d 33 be 6e 3d 64 9a 50 bc
       0.06013539 0.03566059 0.058286857 -0.012732122
000150 5d 29 3a 3d 64 f8 cb 3c 4e 5d b3 bb 88 33 b4 3d
       0.045449603 0.024898715 -0.0054737693 0.08798891
000160 d2 ad 23 bd 8d 64 93 3d cc 43 3c bb df b9 17 3d
       -0.03996069 0.07196913 -0.0028726934 0.037042495
000170 d1 14 a3 bd cd 79 99 3d b3 91 1e bc 15 76 e4 ba
       -0.07962955 0.07493935 -0.009678292 -0.0017430211
000180 11 5b 8e 3d 09 24 3c 3c 18 54 b0 bc 3b 72 01 bd
       0.06950963 0.011483201 -0.021524474 -0.03160308
000190 ce 33 a8 3d 7f 2c b0 3c 43 ed bb bc 0b 54 86 bc
       0.08213006 0.021505592 -0.022940284 -0.016397497
0001a0 a1 57 b1 3d 7b 04 7a 3d f5 32 a3 3d 39 74 03 bd
       0.08659292 0.06103943 0.07968704 -0.03209326
0001b0 9f e4 de bc f7 d5 09 bd c3 ca be bd d4 8a 85 bc
       -0.027208624 -0.03365132 -0.093160175 -0.01630155
0001c0 75 3d ae 3c 76 d9 7f bd af 1a 3a bd a9 43 5a 3c
       0.02126954 -0.062463246 -0.045435604 0.0133217955
0001d0 b9 7c 01 bb 66 d9 96 bd b2 51 af 3d 23 54 29 bd
       -0.0019758178 -0.07365684 0.08560504 -0.041340005
0001e0 a9 4b ba 3c a6 65 a3 3d e8 8f d0 bd 75 19 ae 3b
       0.022741156 0.07978372 -0.10183698 0.0053130933
0001f0 2b 22 da bd 31 44 be 3d 1d 16 06 bd b2 6b 77 3d
       -0.10651048 0.0929035 -0.032735933 0.06040544

weight f4 [128, 128]
000000 98 c5 43 bc e6 b6 5d bd 5e 2d 28 3d 50 b7 73 bd
       -0.0119489655 -0.054129504 0.04105889 -0.059500992
000010 97 23 fd bc 88 ff ff bc 6c b0 c2 3d 4a eb f5 bd
       -0.03090076 -0.031249776 0.09506306 -0.120077685
000020 25 a8 0e 3d f5 d2 dd 3d 2a a6 ba bc 4c 4a 53 bd
       0.034828324 0.108312525 -0.022784311 -0.051584527
000030 89 2b 8e bd da 3f 7a 3b 6c 50 99 bc 1d 9f 79 bd
       -0.069418974 0.003818503 -0.018715106 -0.060942758
000040 a7 06 9a 3d 9a a0 da bd df 02 52 3d 5d d3 d9 3c
       0.075208 -0.106751636 0.05127227 0.026590044
000050 7a 69 94 bd 97 3c 4b bd 60 28 9a bd 95 10 e6 bd
       -0.072466806 -0.04961833 -0.07527232 -0.112336315
000060 a1 f8 b7 bd 9f df 91 bc 57 08 43 3d c3 76 bd bd
       -0.08982969 -0.017806826 0.047615375 -0.092511676
000070 17 47 32 3d 4d c1 fa bc b9 e5 ac 3d ce 88 61 bd
       0.043524828 -0.030609751 0.084422536 -0.055062108
000080 8e a4 95 bd af ff 6f 3c c6 45 72 3d 4c d1 95 b9
       -0.07306777 0.014648362 0.059148572 -0.00028575433
000090 99 31 c4 3d 9c 60 7a 3d bd 20 e9 3b 17 c6 7d bd
       0.095797725 0.06112729 0.0071144984 -0.06195649
0000a0 0c 7c 53 3d dc c0 7f bd ba a7 1d 3d 1e 3b 50 3c
       0.051631972 -0.062439784 0.038490035 0.012709407
0000b0 49 04 cc 3d 6e 11 83 3c f6 bb 48 3d 05 c6 a8 3d
       0.09961755 0.015999522 0.04900738 0.08240894
0000c0 ba 8d 71 3d 64 e1 9d bd 03 69 9c 3c 10 e0 c8 3d
       0.05897305 -0.077090055 0.019093042 0.098083615
0000d0 aa 88 58 3d a4 21 08 3b 1d 81 12 3d cb bc cb bd
       0.052864708 0.0020772005 0.035767663 -0.09948119
0000e0 06 61 85 3d 01 4e 1b bd f5 99 b0 bd 46 8d 08 3d
       0.065126464 -0.037916187 -0.08623115 0.033337854
0000f0 c9 d3 c6 b9 95 22 bc bc 11 59 fe 3c f4 99 4b 3c
       -0.00037923295 -0.022965709 0.03104833 0.012426842
000100 0d aa 5f ba 4a c8 cd bd 23 7c 23 bd bd c6 cd bc
       -0.00085321144 -0.10047968 -0.039913308 -0.02511918
000110 b9 5b a3 bb 6b b1 bc bd 77 ee 26 bd 0f 96 f1 bd
       -0.0049852994 -0.09213527 -0.04075476 -0.117961995
000120 76 fe 34 3b cd e5 93 3d e1 68 15 3d fd 43 67 bb
       0.002761749 0.072215654 0.036476973 -0.0035288327
000130 fa 26 3d bc cb b4 95 bd cd 55 95 bb 44 fa 6a 3c
       -0.011544937 -0.07309874 -0.0045573474 0.014341895
000140 ad a5 93 bd fc 57 02 be 75 2c 2c bd fc 51 ed bd
       -0.072093345 -0.12728876 -0.042034585 -0.11587903
000150 e8 0c b3 bc d7 7d b2 3c 7f a9 25 3d 10 e4 7c bb
       -0.02185674 0.02178852 0.040444847 -0.0038588084
000160 03 1f 71 3d 35 f0 49 bd 67 7b 89 bd 16 bd 85 3c
       0.058867466 -0.049301345 -0.0671299 0.016325515
000170 b2 31 62 3d 84 58 c9 bd 0d c0 e4 3c 43 fb 0a 3d
       0.055223174 -0.09831336 0.027923608 0.033931028
000180 2f 3d f4 bc a0 2a 78 3c 64 32 a4 3d bd 70 0b 39
       -0.02981433 0.015146881 0.08017424 0.00013298071
000190 0a b0 53 3d e4 2e 18 3d db 91 f8 3c 02 e8 0d bc
       0.051681556 0.037154093 0.030342987 -0.008661272
0001a0 48 a6 95 3c 82 ce 09 bd 9f 25 19 3d 0a d6 e7 3b
       0.018267766 -0.033644207 0.037389394 0.007075076
0001b0 6f 8c 45 bd 82 6f 99 3c ff 2b a6 bd 6e ad 1c 3d
       -0.04822963 0.018729929 -0.0811386 0.038251333
0001c0 71 52 d9 bd 50 93 e5 bc f9 ce d4 3d f5 92 e4 3c
       -0.106114276 -0.028024346 0.103910394 0.027902106
0001d0 1c 72 3c 3d e2 22 87 bd bb 4b 23 3d 59 ae 57 3d
       0.04600726 -0.0659845 0.039867144 0.052656505
0001e0 d8 cc fc bd 2f a5 99 bd 7d ad af 3d 5d 16 0f 3c
       -0.12343758 -0.075022094 0.08578012 0.008733359
0001f0 ac d0 26 bd 9a e7 8e bd 9f 11 be bb 25 fe 97 3d
       -0.04072635 -0.06977768 -0.0058004404 0.07421521
000200 6a d7 27 3d 91 46 f4 3b f8 2d b6 3b 2b 18 f9 bc
       0.04097692 0.0074547012 0.005559679 -0.030407032
000210 47 1f ca bb 32 a8 d2 bc 76 cb c8 3c eb fd 28 bd
       -0.0061682793 -0.025714967 0.02451108 -0.04125778
000220 80 6c a7 3b 30 ce 88 3c 2d e7 c6 3c ad f2 35 bb
       0.0051093698 0.01669988 0.024280155 -0.0027763054
000230 50 d4 46 bc 5e 66 04 bd 21 b8 5b 3c 3d 64 49 bd
       -0.01213558 -0.032324187 0.013410599 -0.04916786
000240 c5 19 12 bd d2 a9 22 bd d0 7b 2a bd 19 2b 88 bc
       -0.035669107 -0.039712735 -0.041621983 -0.016622113
000250 62 ef ca 3c c4 06 03 bc 34 0d 63 bc d2 97 e1 bc
       0.02477235 -0.0079972185 -0.013858128 -0.027538214
000260 3e 97 8d bd 8e 6d 15 3d 06 8d 17 bc e4 a5 8e bc
       -0.06913613 0.036481433 -0.009249931 -0.017413087
000270 58 9a 61 ba 94 3e aa bc b5 27 dc bc 21 fa 8d bb
       -0.0008606068 -0.020781793 -0.026874403 -0.004332796
000280 9d 06 ab 3c d3 91 26 b9 64 0b e9 bc b9 1c 95 b9
       0.020877177 -0.00015885317 -0.028447814 -0.00028440895
000290 1c b7 e5 3c c3 d8 09 3d 8e 47 86 bb 31 e8 97 3c
       0.028041415 0.033653986 -0.0040978855 0.018543335
0002a0 73 46 e6 bc 48 80 57 bb f1 04 6e bd 6b 0b 27 bd
       -0.028109765 -0.0032882858 -0.05811018 -0.040782373
0002b0 e0 11 0e bd 8f 34 27 bd 28 e5 68 bc 70 5d 24 bc
       -0.034685016 -0.04082161 -0.014214791 -0.010032043
0002c0 70 3a 52 bd 66 b3 83 bd ea 9e 67 bd 91 7d d9 3a
       -0.05132526 -0.06430702 -0.056548037 0.0016593208
0002d0 45 8e ee bb f9 f7 2d bc 0d e2 ac 39 3a d0 9f 3b
       -0.0072801434 -0.010618203 0.00032974817 0.0048771175
0002e0 db ab f5 bc d4 d6 1a 3d 83 0c a0 bb 9e ba 28 3c
       -0.029989174 0.037802532 -0.004884304 0.010298399
0002f0 08 4e b6 bb 13 a0 03 3c 45 d1 74 bc 83 87 66 3c
       -0.0055635013 0.00803377 -0.014942472 0.014070394
000300 f9 b0 50 bd d6 dd 61 bc 7e 2b 7a bb 8a d0 76 bd
       -0.050950024 -0.0137858 -0.0038172896 -0.060257472
000310 08 08 a2 bc a6 3c 4b bc 31 81 84 bd 35 d7 be bc
       -0.01977922 -0.012404596 -0.06469954 -0.023295978
000320 0a 57 d5 3c 9e ea 9e bc aa 6a f9 3b 53 58 bb bc
       0.02604248 -0.019398984 0.0076115923 -0.022869265
000330 03 79 05 bd 95 e4 84 3d 8e 83 ff bc fe 5e c8 bc
       -0.03258611 0.06488911 -0.03119066 -0.024459358
000340 19 bb 5c bc cf 23 7a bb 7c 7c 02 bd 84 0d 90 bc
       -0.013472342 -0.0038168316 -0.031857 -0.01758457
000350 5d ae 95 bc 06 14 03 3d 36 49 4f bc a4 cf 76 3b
       -0.01827162 0.032001518 -0.012651732 0.0037660385
000360 97 d9 36 3b 43 22 c6 bc 1a 1e 31 bd ef 9c 57 bc
       0.002790069 -0.02418626 -0.043241598 -0.0131599745
000370 77 18 cf 3c 7e 13 4d 3c 49 c8 63 3c 7f 74 c3 b9
       0.02528022 0.012516854 0.013902732 -0.00037280095
000380 26 4a 14 bc da a8 4f bb 25 80 f5 ba 4a 50 9e 3c
       -0.0090508815 -0.0031686337 -0.0018730207 0.019325394
000390 39 18 d1 3b aa 42 fe bc 65 3c 85 3b 3f 3e f7 bc
       0.0063810614 -0.031037647 0.0040660375 -0.030181048
0003a0 cb 47 57 3c 56 75 93 bc 16 68 a9 bc 6f 48 d6 3b
       0.013139675 -0.018000286 -0.020679515 0.0065393965
0003b0 71 72 28 3a 46 6c c8 bc 28 a3 c2 bc 6d 01 f4 3a
       0.00064257445 -0.024465691 -0.02375944 0.0018616148
0003c0 46 7c d4 bc 80 10 5e bd 48 3b 3d bd c5 27 61 bc
       -0.025938164 -0.054214954 -0.046199113 -0.013742392
0003d0 1c 2f 03 bd 34 30 dd 3c 67 74 00 3c e9 ab 8c bd
       -0.03202735 0.027000524 0.0078402525 -0.06868727
0003e0 b9 39 4c bc 4a fd ad 3a 9d 4e 29 3c a6 45 66 3c
       -0.012464934 0.0013274339 0.010333684 0.014054691
0003f0 9b 89 9a bb 18 a7 80 3d 57 9a 8f 3c e0 30 76 bd
       -0.004716111 0.062818706 0.01752965 -0.060105205

bias f4 [128]
000000 40 27 08 bd 31 4e 1f bb 91 f9 92 bd 5b 73 b6 bd
       -0.033240557 -0.002430808 -0.07176507 -0.08908721
000010 ec b5 85 3c 43 35 bd bc 59 2e 84 3b 7c 3a 6e bc
       0.016322099 -0.023096686 0.0040338454 -0.014540311
000020 8e 79 a0 bd 48 74 93 3d 65 ac aa 3c ea 3d 03 bc
       -0.07835685 0.07199913 0.020834157 -0.008010367
000030 43 7b d3 3b 23 f2 a9 3d 61 2d fb bc 5b b9 97 3c
       0.006453903 0.08298137 -0.030661287 0.018521002
000040 6f 03 bd 3b 38 78 17 3d 78 bc c5 bc ca 78 76 bd
       0.0057682316 0.036979884 -0.02413772 -0.060173787
000050 6c 71 d2 3d 23 aa 13 be e6 0d 87 bd 20 1f a1 3d
       0.1027554 -0.14420371 -0.06594448 0.07867265
000060 2c e9 bc bc 6f 7e b7 3c d2 6f d1 3d 9c b7 05 3c
       -0.023060404 0.022399155 0.10226406 0.008161452
000070 9d c1 1e bc 8d 49 e7 bc b1 ff 80 3d 95 e7 9b 3d
       -0.009689716 -0.028233314 0.06298769 0.0761253
000080 e1 d4 b7 bc e2 3e e1 bc fa 9d 91 3d 29 9b 05 3c
       -0.022440376 -0.027495805 0.0711021 0.008154669
000090 57 4b 74 bb c7 45 10 3d 43 19 57 3b 14 fa 97 3d
       -0.0037276351 0.035222795 0.0032821454 0.074207455
0000a0 bf b8 16 be 81 5b 44 bd 15 42 b9 3d 03 4a d1 3d
       -0.14718913 -0.047938827 0.09045807 0.10219195
0000b0 18 67 d6 ba 87 6b 79 3d b4 9e 85 3c 06 64 41 3c
       -0.0016357629 0.06089356 0.016311027 0.011803633
0000c0 e5 31 cb bc 99 57 ed bb 74 7f b3 3d da 07 48 3d
       -0.024804065 -0.0072431085 0.08764544 0.048835613
0000d0 65 06 df 3d 51 b0 ac 3d 36 68 c5 3d 70 c1 7a 3d
       0.108898915 0.08432067 0.09639017 0.061219633
0000e0 a4 d8 35 bc a8 c6 1c bd 73 86 9e 3d 26 40 23 bd
       -0.011099014 -0.03827539 0.07740488 -0.0398561
0000f0 94 03 21 bc 70 8d 9a 3d 53 dd 07 3d 88 53 06 3d
       -0.009827513 0.07546508 0.033170056 0.032794505
000100 7b b9 6e 3d 64 de b6 3d 8c 18 5c 3d 9b ea 23 3d
       0.058282357 0.089291364 0.053734347 0.04001866
000110 3a 3f 95 3d d2 5f 9e bc c9 1e b1 bb 90 d1 e3 3d
       0.0728745 -0.0193328 -0.005405281 0.11123955
000120 be 76 11 3c e6 eb 30 3c 10 82 88 3c 4e 5b d8 3d
       0.008878408 0.01079843 0.016663581 0.1056429
000130 57 1c 43 3c ad e5 66 3d 7f 41 46 3b d2 df 43 3d
       0.011908612 0.05637138 0.003025144 0.047820874
000140 91 9c ae 3d 49 66 8b 3c 7f 98 08 bd 54 92 a8 3d
       0.085259564 0.017016547 -0.033348557 0.08231035
000150 df d1 bf 3c 3a a2 05 3d 15 ff f2 bb e1 1c 50 bd
       0.023415504 0.032625414 -0.007415662 -0.05080879
000160 c1 f3 cf 3d a8 a9 8a 3d 04 2c 75 3d 39 15 d3 3d
       0.10153914 0.067706406 0.05985643 0.10306782
000170 b3 1c 30 3d 56 16 d3 3d e9 39 b9 3d c4 3a d8 3d
       0.04299612 0.103069946 0.090442486 0.10558084
000180 21 30 07 bd 43 fc cf 3d 34 a0 c6 3d fd 64 b1 3c
       -0.033004884 0.10155537 0.09698525 0.0216546
000190 f9 d8 fb bb 4d 90 db 3d 6f 77 0d 3d 74 e5 82 3d
       -0.0076857773 0.107208826 0.03453773 0.06391421
0001a0 4c 8c 36 bc d0 38 15 3d bc 60 56 bd da 95 05 3e
       -0.011141848 0.036431134 -0.052338347 0.13045445
0001b0 00 ca 56 3d c4 0f aa b9 8d 4e 80 bd 3a 67 44 3d
       0.052438736 -0.00032436673 -0.06264982 0.047950007
0001c0 dc eb a4 3d c6 3b 32 bd 9a fa e5 3c 50 3e cd 3d
       0.08052799 -0.043514036 0.028073598 0.10021651
0001d0 ac 21 18 3d 4b f2 ad bc 89 b1 58 3d 16 28 57 3c
       0.037141487 -0.021233698 0.052903686 0.013132116
0001e0 cd 85 06 3c 67 77 5c 3d 51 19 a2 3d fc 42 3b 3d
       0.0082106115 0.05382481 0.07914985 0.04571818
0001f0 29 c6 8c 3d a9 c8 53 bd 61 32 2b bd 83 e5 61 3c
       0.068737336 -0.051705036 -0.041796092 0.01378763

weight f4 [128, 128]
000000 37 87 23 3d 9d 27 53 3d 26 39 9e bd 5c 1e a3 bc
       0.039923873 0.05155145 -0.07725744 -0.019911937
000010 de 0f 8d bd 0f 88 92 bd f4 d1 20 bd cd de 89 bb
       -0.06887792 -0.07154857 -0.039262727 -0.004207468
000020 8a b1 1b bd 70 4f f9 3d 87 29 fe bd 1c c1 12 3d
       -0.03801111 0.121733546 -0.124102645 0.035828695
000030 d5 af d2 3d 07 33 ae 3b 87 08 de 3c 6f cb 53 bd
       0.102874435 0.0053161415 0.027103676 -0.05170768
000040 2c 1f da 3d 0c 94 c2 3d bb b9 0d bc 59 6a 52 3c
       0.10650477 0.09500894 -0.008650239 0.012842738
000050 be 26 85 3d ca 8b 1a 3e 92 5e 8b bd 02 df be 3d
       0.0650153 0.15092388 -0.06805147 0.09319879
000060 6f be 2d 3d 05 6e 90 3d 03 43 66 bd 4d 85 9c 3d
       0.04241794 0.070522346 -0.05621625 0.076426126
000070 41 85 79 3d 45 98 a4 bd 7c e1 f7 3c 1f 33 20 3d
       0.060918096 -0.080368556 0.030258887 0.039111253
000080 6c e3 b1 bc aa 58 45 bb 0e 7a a0 3d 9a 9e a3 3d
       -0.021714889 -0.0030112662 0.0783578 0.07989235
000090 49 8b 39 3d cf c9 8e 3c 6a 45 41 3d e4 c6 df bd
       0.04529885 0.017430214 0.04718534 -0.10926607
0000a0 f3 0f 3d 3c fe e7 04 3d 28 89 61 bc 6b c5 95 3d
       0.011539447 0.032447807 -0.013765611 0.07313045
0000b0 e2 73 e7 bc 05 6c 83 bc be fa 8b 3d 5e 28 b0 3d
       -0.0282535 -0.016042719 0.06834935 0.086014494
0000c0 48 7b 9b bc 2c 6b 06 3d 79 c5 47 bd ec a4 9b bd
       -0.018979684 0.03281705 -0.04877231 -0.07599816
0000d0 3d e9 56 bd 0a 70 a5 3c 58 a2 41 3c 5e 8d dd 3d
       -0.052468527 0.020195026 0.011818491 0.10817979
0000e0 76 49 0b 3c d0 26 01 3d 14 3d b0 3d fd 3e 32 bd
       0.008501401 0.031531155 0.086054 -0.0435171
0000f0 2b aa 8d 3d 58 b8 0d 3d 53 96 6b bc 73 ca 2a bd
       0.069172226 0.034599632 -0.014379102 -0.041696977
000100 ed ee cf 3d b5 00 9e bc 24 f6 79 3d a6 67 9b bc
       0.10152993 -0.019287447 0.061025754 -0.018970322
000110 7d f1 b2 3d 05 88 82 bd dc 33 99 3d e1 65 cf 3c
       0.087374665 -0.063736 0.074805945 0.025317134
000120 59 0b ca bb 32 4f 39 3d 79 fc 41 3d e6 b5 80 3d
       -0.0061659035 0.045241542 0.047359917 0.062846944
000130 7c bd 19 3b c2 c9 ff 3c 34 37 07 bc f6 a3 fb 3d
       0.0023458889 0.031224135 -0.008252908 0.122871324
000140 ac fe 7e bd 07 45 2f bd 8c 0d 48 bd f0 85 21 3d
       -0.062254593 -0.04279044 -0.048841044 0.039434373
000150 6c 18 c9 bd 16 1a 4c bc 07 45 3a 3d 46 14 08 3e
       -0.09819111 -0.012457391 0.045475986 0.13288984
000160 50 6e 13 bc d2 d6 1b 3d 3f 79 18 bc 56 f8 0a bd
       -0.0089984685 0.038046665 -0.009306251 -0.033928238
000170 b0 69 a7 bc e5 2c b4 bc 94 78 66 3c 9f eb 93 bd
       -0.020436138 -0.021994064 0.014066834 -0.072226755
000180 a6 e9 0f 3c e7 a3 81 bd e0 64 1f 3a 64 a4 61 3d
       0.0087837335 -0.0633009 0.00060804 0.055088416
000190 4a f7 58 bd 24 38 60 3d 0c 86 a0 3d 99 ad 0c bd
       -0.05297021 0.05474104 0.078380674 -0.034345243
0001a0 88 e9 aa 3d d0 8e 81 bd 12 1d 48 3c 20 97 63 bd
       0.08345324 -0.063260674 0.012213962 -0.055564046
0001b0 da bd 1a 3c 1e 35 22 bb 23 b5 6b 3d d7 9b 2c bc
       0.009444678 -0.0024750899 0.057545792 -0.010535202
0001c0 db 0c 10 3c 16 98 5e bd 58 6e 4c 3c 6f df a9 bc
       0.0087921275 -0.05434426 0.01247748 -0.020736424
0001d0 83 92 27 bd 36 e7 cf 3c fb ce e3 3c 7d be ec 3c
       -0.04091121 0.025378805 0.027808657 0.028899426
0001e0 36 1b dd bc 25 5a ba 3a b9 e8 07 bc 7b b0 03 3d
       -0.026990514 0.0014217539 -0.0082952315 0.032150727
0001f0 c9 1b 81 3d 79 17 c5 3d 4c 06 c8 3c f9 3d da 3d
       0.06304128 0.09623618 0.024417065 0.106563516
000200 50 a1 01 3e 5b 18 c5 3b 0c cf 96 3c cb b0 a6 3b
       0.12659192 0.0060148663 0.018409275 0.0050869933
000210 da aa 8c 3d 24 50 b4 3d d0 e3 12 bd c1 84 a2 3d
       0.06868525 0.08804348 -0.03586179 0.07935477
000220 6d 41 0d bd b2 2d 6d bb 69 55 b0 3d 91 f6 fe 3b
       -0.034486223 -0.0036190567 0.08610041 0.007780858
000230 7e 57 27 bd 58 69 b0 bb bc 4e d4 bc 41 07 c2 3c
       -0.040854923 -0.0053836517 -0.02591645 0.0236851
000240 4d 84 18 bc 71 bf 06 bd 40 11 28 bd 7f de bc ba
       -0.009308887 -0.032897417 -0.041032076 -0.0014409571
000250 0c 2a 01 3c 38 b7 e1 bb 25 3d cd bd d0 74 a8 3c
       0.00788356 -0.0068882965 -0.10021428 0.020563513
000260 df 2c ec bc bd 9a 81 3b 57 bb ca bb 40 ba 42 bd
       -0.02882999 0.003955214 -0.0061868834 -0.047540903
000270 c4 6a 0a bd f9 7b 00 3e e9 d1 84 bd 76 21 1d 3e
       -0.033793226 0.12547292 -0.0648535 0.15344796
000280 81 57 95 3c 29 d2 02 3b c2 09 7a bb b9 65 b6 bd
       0.018230202 0.001996169 -0.0038152789 -0.08906121
000290 c3 40 32 3b 4f 93 b8 3d e9 98 a7 bb 1e d3 1c 3e
       0.0027199246 0.09012472 -0.005114664 0.1531491
0002a0 fa 9b cb 3c c1 e8 d8 3d 4d c9 d2 3c 7a ee f4 bc
       0.024854649 0.10591269 0.025730753 -0.02989887
0002b0 62 dd 8d 3d 40 da e6 3d f0 c8 cd bc 78 52 0d 3a
       0.06926991 0.11272097 -0.025120229 0.0005391012
0002c0 ff 58 81 bc d4 46 a1 bc 0e c0 33 3b 49 1e 05 3e
       -0.015789507 -0.019687094 0.0027427706 0.12999834
0002d0 26 e4 1a bd 03 79 a5 3c 10 a3 37 bc 1a 32 e9 3d
       -0.037815236 0.020199304 -0.011208311 0.11386509
0002e0 5c 9e 96 3d fd 36 a4 bd 70 41 2f bd 06 85 98 bc
       0.073544234 -0.08018301 -0.042787015 -0.018618118
0002f0 fe 02 64 bc 0e 4a 8b 3c 78 70 13 3c 3f 0f 36 3b
       -0.013916729 0.017003085 0.008998983 0.0027780083
000300 b6 d0 80 3c a9 a7 50 bc 48 b3 0f 3c 4f 94 a5 3c
       0.015724521 -0.012735286 0.008770771 0.02021232
000310 e0 cf 5d bc 46 63 97 bd 90 1d cd 3b 1e 10 e2 3d
       -0.013538331 -0.07391982 0.0062596276 0.1103823
000320 eb a5 22 bd 4c cf 6f bd d5 cd b9 3c 46 53 94 3c
       -0.039709013 -0.058547303 0.022681156 0.018106114
000330 68 d7 1e 3d 54 4a 1c bc b4 5d 87 bc 31 79 88 3c
       0.038779646 -0.009539206 -0.016524173 0.016659351
000340 1b 78 13 3c 51 0a 2b 3d 00 be 66 3c ac 8b a8 3d
       0.009000803 0.041757885 0.0140833855 0.08229765
000350 24 aa aa 3d ef 1d c4 bc 93 d0 b1 3c 53 71 a0 bd
       0.08333233 -0.023940055 0.021705901 -0.07834115
000360 68 fa 4f 3d b1 6e 08 3d f7 99 10 3c cb 9e 7e bc
       0.050775915 0.03330869 0.008825771 -0.015540789
000370 d2 2e 58 3c e8 27 98 3c 01 7d 22 bd 9e e2 44 38
       0.013194757 0.018573716 -0.039669994 4.6941095e-05
000380 69 6f ad 3d 0a 8d d9 bc bc e1 3e bd 5b 87 b1 3b
       0.084685154 -0.02655651 -0.046601996 0.005417747
000390 0d f3 5c 3c 2c 09 b8 bc fe 28 74 3b d4 d3 25 bd
       0.013485682 -0.022465311 0.0037255879 -0.04048522
0003a0 9f 4f 01 bd 4c f3 d4 3c db e4 bc 3c 57 dd 66 3d
       -0.031570073 0.02599492 0.023058346 0.05636343
0003b0 dd 1a 8a bb d3 2c 2a bc fb 74 b6 ba 4f 93 ae 3d
       -0.004214628 -0.0103866635 -0.0013920361 0.08524191
0003c0 81 09 0a 3d 1b a5 ce 3c 0b ff 58 3d 08 ff d9 3d
       0.03370047 0.025225213 0.052977603 0.106443465
0003d0 ec 1f 10 bc 26 fa 2c 3c 95 f6 e5 3c 79 e5 28 3c
       -0.008796673 0.010557687 0.028071681 0.010308617
0003e0 d7 19 64 bd c2 c6 37 3d a8 ba 32 bd 01 eb 84 bd
       -0.055688705 0.044867285 -0.04363504 -0.06490136
0003f0 73 9b 7f 3b b9 d3 1d bd d4 3d 00 bd e6 96 ce bc
       0.0039002567 -0.038531993 -0.031308964 -0.025218438

bias f4 [128]
000000 f1 ba c5 3d 63 17 f8 3c a8 57 1f bd 17 dd b4 bd
       0.09654797 0.03028459 -0.038901955 -0.08831232
000010 73 81 02 3e 69 a8 bd 3c f6 0d 06 bd 41 d7 af 3d
       0.12744693 0.023151593 -0.032728158 0.08585978
000020 66 ed 4e 3d 50 d3 00 3e 23 f9 87 bd 9a 49 78 3d
       0.05051937 0.1258061 -0.06639316 0.060617067
000030 0e 84 e2 3d 1a 22 33 3d b6 5e 57 3d 95 e9 3f bc
       0.11060344 0.043733694 0.052580558 -0.011713405
000040 08 ad 13 bd 8e 00 d3 3d f0 10 6e 3c 0b 69 b9 bc
       -0.036053687 0.1030284 0.014530405 -0.022633096
000050 10 d5 fc 3d 54 e8 62 bb 0d 71 1f 3d 2c 02 8a bd
       0.12345326 -0.0034623342 0.038926173 -0.067386955
000060 d0 26 f9 3a 94 f8 05 3c d0 08 9a bc 63 be d9 bc
       0.0019008759 0.008176941 -0.01880303 -0.026580041
000070 82 ba eb bc d4 90 fe bc ad 40 ef 3d 46 d8 ea bc
       -0.028775457 -0.031074919 0.11682258 -0.02866758
000080 07 c4 e1 3d 9f ab 57 3d 61 66 96 3d 33 27 5f 3d
       0.110237174 0.052653905 0.07343746 0.054480743
000090 42 82 93 3d cc 56 d0 3d f5 90 d0 3d 74 70 b9 3c
       0.07202579 0.10172805 0.10183898 0.02263663
0000a0 e3 68 e1 3d de bd 4a bc b1 fa b5 bc 73 b0 ac 3d
       0.11006334 -0.012374369 -0.022214266 0.084320925
0000b0 11 79 9c 3d 70 fa 69 3d 57 6f bf 3d 60 f2 e5 bc
       0.07640279 0.0571236 0.09347408 -0.028069675
0000c0 09 a3 20 3d 4e a7 d1 3c bf 2e 92 bd 01 8b 77 3d
       0.039217982 0.025592472 -0.07137822 0.0604353
0000d0 24 0a 93 3d d5 95 d2 bd 92 c2 ce 3d 18 35 c6 3c
       0.071796685 -0.102824844 0.10095705 0.024195239
0000e0 4f 3d b2 3d 00 25 a4 3d b7 c3 b2 ba 18 b0 4b bc
       0.087031 0.0801487 -0.001363865 -0.012432121
0000f0 31 12 76 3d e0 e9 a0 3d 1c 95 29 39 3e e5 9b 3d
       0.060075942 0.07857108 0.00016172644 0.07612084
000100 fa 07 d3 3c 91 f8 73 3d 59 ca ef 3d dc 5b db 3b
       0.02576064 0.059563223 0.11708517 0.0066943
000110 96 a3 ad 3d 54 be 8f 3d 57 9b 63 bc bf d2 ff 3d
       0.08478467 0.07018724 -0.013892016 0.124913685
000120 e5 54 00 3e eb bf 65 bd 2b a3 a7 3d b7 8b c1 3d
       0.12532385 -0.05609123 0.08185419 0.094504766
000130 0c 82 d1 bc 59 c5 f1 3d 08 6d 5f bd 9e 44 d3 3c
       -0.025574706 0.11805219 -0.05454734 0.025789555
000140 2f 15 95 3d 84 1a 8e 3d b9 13 81 3d 8a fe 6d 3d
       0.07279431 0.06938651 0.0630259 0.058104075
000150 9f f3 87 3d 99 4e aa 3c 5a ba f8 3d 50 17 27 bd
       0.06638264 0.020789431 0.12144919 -0.040793717
000160 a4 5f 1b 3d 32 1b d3 bc 20 a7 ce 3c 4f c4 95 3c
       0.037933007 -0.025769804 0.025226176 0.018282084
000170 df 99 05 3e 8e 4f b9 3a d6 34 69 3d e8 50 21 3d
       0.13046978 0.0014138089 0.056935154 0.0393838
000180 1e d8 a6 bd 7d 02 f6 bb 9e d3 93 bd 94 23 ac 3c
       -0.0814669 -0.007507621 -0.07218097 0.021013059
000190 08 4d 88 3d d9 b6 e4 bc 50 ce 05 3e c8 e3 23 bc
       0.066553175 -0.02791922 0.13066983 -0.010003038
0001a0 b9 1d ad bb 83 56 88 3d d7 01 05 3d c2 e9 f6 3c
       -0.005283084 0.06657126 0.032472458 0.030140761
0001b0 71 ba c8 3d 71 f2 6d 3d 04 63 8a 3c 1c fc dc 3d
       0.09801186 0.05809254 0.016892917 0.107902735
0001c0 22 8e d4 3d ab fe c1 3c 4f a9 98 3c bc 7d 2b 3d
       0.10378672 0.023681005 0.01863542 0.041867957
0001d0 a0 10 f6 3d 15 48 33 3d 6d 9c 88 3c 90 5e a8 3d
       0.1201489 0.043769915 0.016676152 0.08221161
0001e0 b6 63 d3 3d d1 a2 77 3d 65 cd a4 bc b0 04 d9 3d
       0.10321753 0.06045801 -0.020117471 0.10596597
0001f0 62 4d e9 3b 96 c3 09 3d 9a 83 ca bc a4 3b e0 3d
       0.0071198205 0.03363379 -0.024720956 0.109488755

weight f4 [1, 128]
000000 38 90 2a bd a9 a6 05 3e 71 4d 68 3d 5f 33 a8 bb
       -0.041641444 0.13051857 0.05671448 -0.005133077
000010 7e ca d0 bd 6f 5c 8f 3d f1 10 77 3d 9d 9e cd bd
       -0.10194872 0.07000052 0.06031889 -0.10040019
000020 78 3f 69 3d 30 63 99 3d 4a 2a c0 3d 1b 92 cb 3d
       0.056945294 0.07489622 0.09383066 0.09939977
000030 c5 4e fe 3d 7b a4 b3 bc bd 9b 17 3e 2e 7f d6 3d
       0.12417368 -0.021929016 0.14805503 0.10473476
000040 35 13 db bc c2 f8 61 bd 34 1a 49 bd b9 46 26 3e
       -0.026742557 -0.055168875 -0.049097255 0.16237916
000050 70 37 05 bd 82 48 6e bd 8f af e4 3d 92 10 97 3d
       -0.032523572 -0.058174618 0.11166298 0.073762074
000060 88 55 89 bc 4e 3f 41 3d 12 d8 9c 3d ab 95 dd bd
       -0.016764417 0.047179513 0.076584 -0.108195625
000070 c1 68 ef 3d 76 57 b7 3d e8 d8 04 bd 6b e1 1d 3e
       0.11689902 0.08952229 -0.03243342 0.15418021
000080 43 a7 c8 bd 39 78 b1 3d 4d 33 ae bd ce 49 86 bd
       -0.09797528 0.08665509 -0.085058786 -0.06557046
000090 03 78 c7 bc df f9 a2 bd 73 c6 d1 3d fe 2a b6 3d
       -0.024349218 -0.079578154 0.10242929 0.08894919
0000a0 93 08 ba bd 8f a1 c3 bd 73 35 3d bd 5a 2c 58 bd
       -0.09083667 -0.09552299 -0.04619355 -0.052776672
0000b0 9b 51 ba 3d e5 e2 6f 3d 66 33 90 3d 49 7f 96 3d
       0.09097596 0.058565993 0.070410535 0.073484965
0000c0 ba 41 0c bd 82 78 a2 3d 3c 21 2f 3e 2b 71 da bc
       -0.03424237 0.07933141 0.17102522 -0.02666529
0000d0 ae 64 c2 3c a5 df 40 bc 58 54 c2 bc 12 7f b3 bd
       0.023729648 -0.011772071 -0.023721859 -0.08764471
0000e0 0e ff 2c bd 51 b5 8c bd 34 25 39 bd 21 dd c1 bd
       -0.042235427 -0.06870521 -0.045201495 -0.09466005
0000f0 9f be 16 3e 21 4e bf 3d 8e 77 c5 bd b6 cf c1 3d
       0.14721154 0.09341074 -0.09641944 0.09463446
000100 a7 cb 0c 3e 47 9e e5 3d e8 04 e8 3d 3f 59 8a 3d
       0.13749562 0.1121183 0.11329061 0.067553036
000110 81 d4 f9 3d 7f f3 62 bd 28 74 8e 3b e5 ff e0 bc
       0.12198735 -0.055407997 0.004347343 -0.02746577
000120 a7 6b 71 bd 45 7b b7 3b ce 90 00 3e c1 9b 05 bd
       -0.058940556 0.0055994117 0.12555239 -0.03261924
000130 7e 1f bc 3b 0c 80 62 bd 1e 4b 25 3e 44 43 84 bc
       0.005741059 -0.055297896 0.16141936 -0.016145356
000140 29 a6 95 bd ff 1a 61 bd 93 b0 e7 3d 71 d7 91 3d
       -0.07307083 -0.054957386 0.11312976 0.0712117
000150 7c 90 7e 3d d5 8a 2c bd 1b d3 b4 bc 8e 87 16 3e
       0.06214951 -0.042124588 -0.02207332 0.14700148
000160 af 3d 53 bd 15 fc fe bc 54 1f cb bc c2 03 98 3d
       -0.051572498 -0.031126061 -0.024795212 0.07422592
000170 b4 47 75 bd 1f 3c 4a bd 24 35 d4 3d 22 c0 17 bd
       -0.059882835 -0.049373742 0.10361698 -0.037048467
000180 a4 4b 03 3d 94 c5 57 bc ae 03 53 bd a5 4d 0e 3e
       0.03205456 -0.013169665 -0.05151718 0.13896807
000190 49 4f c5 bd 71 df 98 ba 1d b7 1b bd e6 11 48 b9
       -0.09634263 -0.001166327 -0.038016427 -0.00019080154
0001a0 04 ca 07 3d 06 31 85 bd 90 d3 cd 3d 4d 35 9c bd
       0.03315164 -0.06503491 0.10050118 -0.07627354
0001b0 e9 74 06 3d 88 7d 83 3d be ed 57 bd 0f f8 a2 bd
       0.032826338 0.064204276 -0.052716963 -0.0795747
0001c0 9e 96 e1 3d cc 16 85 bd af 0d c4 bd 53 ee a6 3d
       0.11015056 -0.06498489 -0.095729224 0.081509255
0001d0 d8 1e b7 bc dc 69 10 3d 61 c6 b2 bd 7b 2a e7 bc
       -0.022353575 0.035257205 -0.08729244 -0.028218498
0001e0 35 34 3f bd 0d 2a bf 3d bb e3 3c 3d 73 d6 c5 bd
       -0.046680648 0.093341924 0.04611562 -0.096600436
0001f0 c9 6c c3 3d 9e bb 01 3e 05 34 d0 3d 9a 74 ae bd
       0.095422335 0.12669227 0.10166172 -0.08518334
