bike_sharing/AutogluonModels/ag-20220404_171935/models/NeuralNetTorch_BAG_L1/S1F3/net.params (torch, 224187 bytes, 13 tensors)

weight f4 [5, 3]
0	0x3fc27e27	1.5194749
1	0xbe9878ed	-0.2977976
2	0xc00af251	-2.1710398
3	0x3f12b687	0.57309765
4	0xbf8b5fa1	-1.0888559
5	0xbfb44f10	-1.4086628
6	0x3eb88838	0.36041427
7	0x3f5a96f5	0.8538659
8	0xbf40251f	-0.7505664
9	0xbeb6b8ac	-0.35687768
10	0xbf1059a7	-0.563868
11	0x3e19eb54	0.15031177
12	0xbf457d5b	-0.771444
13	0x3f81e21b	1.0147127
14	0xbf7c4092	-0.98536026

weight f4 [13, 6]
0	0xbf274456	-0.6533865
1	0xbcc1990a	-0.023632545
2	0xbef96876	-0.4871251
3	0x3e93835b	0.28811154
4	0x3f044e28	0.51681757
5	0x3e45e1ff	0.19324492
6	0x3f3433da	0.7039162
7	0x3ee0057a	0.43754178
8	0xbd9e211d	-0.077211596
9	0x3f5d06fc	0.8633878
10	0xbe76c85d	-0.2409987
11	0x3e007582	0.12544826
12	0x3f02768c	0.5096214
13	0x40121db6	2.2830634
14	0xbfbaef98	-1.4604368
15	0xbfc7ee0d	-1.5619522
16	0xbf2c1551	-0.67220026
17	0x3f5b2959	0.85609967
18	0x3f8711fe	1.0552366
19	0x3e2e6ada	0.17032948
20	0xbe7e05c2	-0.24806884
21	0xbecb9f59	-0.3977001
22	0x3f061a95	0.5238431
23	0xbed22fb6	-0.41052026
24	0xbedaf2ba	-0.4276331
25	0x3f3d05bf	0.7383689
26	0x3fc3a1a4	1.5283704
27	0x405b530b	3.4269435
28	0xbfc52515	-1.5401942
29	0xbf9e9d2f	-1.2391719
30	0x3fe7382f	1.8064021
31	0xbf0de223	-0.5542318
32	0xbf186074	-0.59522176
33	0x3f693512	0.91096604
34	0x3f8afc3a	1.0858223
35	0x3fa1fa2d	1.2654473
36	0xbfbb9a91	-1.4656545
37	0x40230738	2.5473156
38	0xbef44d31	-0.47715142
39	0x3ea6d993	0.3258787
40	0xbfcfaf65	-1.6225401
41	0xbf1215d9	-0.57064587
42	0xbef240dc	-0.4731511
43	0xbeee7664	-0.465747
44	0xbf880e21	-1.0629312
45	0x3f8a3709	1.0798045
46	0xbe30ff14	-0.17284805
47	0x3f404688	0.7510762
48	0xbdc9c33d	-0.09851692
49	0x3f2c4ef3	0.67307967
50	0xbf527e42	-0.82223904
51	0xba8fca0e	-0.0010970251
52	0x3f53303f	0.8249549
53	0xbed7e7ab	-0.42168936
54	0x3f81bace	1.0135133
55	0x3eba8398	0.36428523
56	0xbe8cf762	-0.27532488
57	0x401130eb	2.2686107
58	0xbfee6d6a	-1.862714
59	0xbda046cc	-0.078260034
60	0xbf82a1f8	-1.0205679
61	0xbf6dd743	-0.9290659
62	0xbf414baf	-0.7550611
63	0xbfa5a53e	-1.2941053
64	0xbe661157	-0.22467552
65	0xc01b2c55	-2.4245808
66	0xbdb67144	-0.089083225
67	0xbc4e38ac	-0.012586754
68	0x3f689ca0	0.9086399
69	0x3e9c6f08	0.3055346
70	0xbec8594f	-0.39130637
71	0xbf9ec8d9	-1.2405044
72	0xbf09e102	-0.5385896
73	0xbec31586	-0.3810236
74	0x3feade16	1.8349025
75	0xbea43125	-0.32068744
76	0x3d65c736	0.056098185
77	0x3f8a14f7	1.0787648

weight f4 [25, 9]
0	0x3f152230	0.5825529
1	0xbf5483e3	-0.83013743
2	0xbf480574	-0.7813332
3	0xbeff7426	-0.49893302
4	0xbf63348a	-0.88752043
5	0x3f28042f	0.65631384
6	0x3f06c644	0.5264628
7	0x3f0e55cd	0.5559967
8	0xbf3b96bd	-0.73276883
9	0x3e73acbb	0.2379636
10	0xbe09b8b6	-0.13449368
11	0x3e331dab	0.17491786
12	0xbf20e346	-0.6284679
13	0xbfa42f08	-1.2826853
14	0xbd6f9ff2	-0.058502145
15	0xbf8a9c7c	-1.0829005
16	0x402d8939	2.7115004
17	0x3f853ac8	1.0408564
18	0xbe8e9c72	-0.27853733
19	0x3dbaef06	0.09127621
20	0x3e8c9324	0.2745601
21	0x3f940657	1.1564435
22	0x3e8970b4	0.26843798
23	0x3ed4ccce	0.41562504
24	0x3f065db9	0.5248676
25	0x3f0859c7	0.5326199
26	0x3e57611c	0.21033138
27	0xbf2fd662	-0.686865
28	0xbfea2da9	-1.8295184
29	0x3d44f39c	0.048083887
30	0xbf1e4569	-0.6182466
31	0x3ec9f541	0.39444926
32	0xbe5d9675	-0.21639426
33	0xbe7972cb	-0.24360196
34	0x3f63dd81	0.89009863
35	0xbf867c28	-1.050664
36	0x3e9b795c	0.30366027
37	0xbda9f532	-0.082987204
38	0x3f7acd4c	0.9796951
39	0xbefad58b	-0.48991045
40	0x3f7fdfe1	0.9995099
41	0xbf4a41a1	-0.7900639
42	0x3eb17e9b	0.34666905
43	0x3e48d041	0.19610693
44	0xbe087120	-0.13324404
45	0x3ebf9971	0.37421754
46	0xbe9267a3	-0.28594694
47	0xbf8e117e	-1.1099088
48	0x3e24c708	0.1609155
49	0xbf91b92b	-1.1384634
50	0xbdb09004	-0.08621219
51	0xbea60d51	-0.32432035
52	0xbfc45141	-1.5337297
53	0xbebe5aab	-0.3717855
54	0x3f8b5cd3	1.0887703
55	0x3e01e21b	0.12683909
56	0xbe7537e9	-0.2394711
57	0xbfb4f9b9	-1.4138709
58	0xbf8a4a23	-1.0803875
59	0xbf373cb3	-0.71576995
60	0x3fbaec63	1.460339
61	0x3e8c793d	0.27436247
62	0x3f2ce8b3	0.6754257
63	0xbf823c3c	-1.0174632
64	0x3f1cf1a9	0.61306244
65	0xbff18a1e	-1.8870275
66	0xbf17071e	-0.58995235
67	0x3f016dcb	0.50558156
68	0x3edb686f	0.42853114
69	0x3ec4e0a4	0.38452637
70	0x3e395c78	0.1810168
71	0x3f66377d	0.8992842
72	0x400066a5	2.006265
73	0x3e38a3fc	0.18031305
74	0xbdeae13d	-0.11468742
75	0xbf89f5fc	-1.0778193
76	0x3ed1cc67	0.4097626
77	0x3f0f0a83	0.55875415
78	0x3f34decb	0.70652455
79	0xbf984790	-1.1896839
80	0xbf5a5ef9	-0.85301167
81	0xc0005a9b	-2.00553
82	0x3f9df81d	1.2341343
83	0x3cdda16f	0.027054517
84	0x3f7da2f6	0.99076784
85	0x3f5ec89e	0.8702487
86	0xbfa91eb3	-1.3212494
87	0x3f8707d9	1.054927
88	0x3c074202	0.008255484
89	0xbf6190e3	-0.88111705
90	0x3f7ab3a2	0.9793035
91	0x3faeb5f9	1.3649284
92	0xbf406f9a	-0.7517029
93	0x3f0b2b76	0.5436319
94	0x3eb0def9	0.34545115
95	0xbdd70c16	-0.10500352
96	0xbfb80513	-1.4376549
97	0x3f72d26d	0.94852334
98	0xbecc683d	-0.39923277
99	0x3fca2b90	1.5794544
100	0x3e860c15	0.26181093
101	0x3ea1489c	0.3150071
102	0xbe14b23a	-0.14521113
103	0x3f2ee5fd	0.68319684
104	0xbdddd908	-0.10832411
105	0xbf0faeaf	-0.5612592
106	0xbe2f8891	-0.1714194
107	0xbf12ad90	-0.57296085
108	0xbf16b881	-0.5887528
109	0x3f44d5cb	0.7688872
110	0xbf48d1ca	-0.7844511
111	0x3f6c7b89	0.92376
112	0x3ef26fac	0.47350824
113	0x3fa95f15	1.3232142
114	0xbfc8f966	-1.570111
115	0xbfebe474	-1.8429093
116	0x3ded8356	0.11597316
117	0xbf8b7fa7	-1.0898331
118	0x3fb7eeb9	1.4369727
119	0xbdd77f7d	-0.10522363
120	0xbf27a140	-0.6548042
121	0x3f3d109e	0.7385348
122	0xbd4ff705	-0.050772686
123	0x3f8679e9	1.0505954
124	0x3f6b3068	0.9187074
125	0xbeea3723	-0.4574519
126	0xbf5948e5	-0.84876853
127	0x3e1ee492	0.1551688
128	0x3d48a12a	0.048981823
129	0x3f282327	0.6567864
130	0xbbee3761	-0.0072697853
131	0xbf4e0b5e	-0.80486095
132	0xbef6619b	-0.48121342
133	0xbebb2c70	-0.3655734
134	0x3f10a226	0.5649742
135	0xbf972662	-1.1808589
136	0xbf33a6eb	-0.7017657
137	0xbf0d8319	-0.55278164
138	0xbde5b78c	-0.112166494
139	0x3fb11d20	1.3837013
140	0x3f212135	0.62941295
141	0xbf00bda9	-0.502894
142	0xbebb0b94	-0.3653227
143	0xbfa8279d	-1.3137089
144	0xbf35ab55	-0.70964557
145	0xbef77420	-0.48330784
146	0xbe78b4c1	-0.24287702
147	0x3f3765fd	0.71639997
148	0x3f1f283a	0.62170756
149	0x3e8ac371	0.27102235
150	0xc0039e6f	-2.056545
151	0x3f0ef04b	0.5583541
152	0x3e8090fb	0.2511061
153	0xbf2ea15a	-0.6821495
154	0xbe01be8a	-0.12670341
155	0x3fa2052f	1.2657832
156	0x3ecb57c7	0.39715406
157	0xbe8cc7c2	-0.27496153
158	0xbf88a3c0	-1.0674973
159	0xbecef500	-0.40421295
160	0xbf3cf09b	-0.73804635
161	0x3f1799bb	0.5921895
162	0x3f078857	0.52942413
163	0x3f2e2b5e	0.68034923
164	0xbda60307	-0.08106046
165	0xbf56c219	-0.8388992
166	0xbe200538	-0.15626991
167	0xbf651827	-0.8948998
168	0x3f0177eb	0.50573605
169	0x3fbb470f	1.463106
170	0xbf4d027d	-0.8008192
171	0x3f51ebf1	0.82000643
172	0xbf3599c1	-0.70937735
173	0x3fae7709	1.3630077
174	0x3fc0fd52	1.5077307
175	0xbf2dbd78	-0.6786723
176	0x3f2f5a96	0.684976
177	0xbfa5097b	-1.2893518
178	0xbf275675	-0.653663
179	0xbe392edf	-0.18084286
180	0xbf06501e	-0.52466
181	0x3f3a85bb	0.72860307
182	0x3e2032ce	0.1564438
183	0xbf8da1d5	-1.1065012
184	0x3ebf8465	0.37405697
185	0x3f31859f	0.69344515
186	0xbf9f0c6a	-1.2425663
187	0x3f03a072	0.51416695
188	0xbf9c68d1	-1.2219487
189	0xbfa8e625	-1.3195235
190	0x3fcb1650	1.5866184
191	0xbd967fc6	-0.073485896
192	0x3ee6a656	0.4504878
193	0xbf8b194d	-1.0867096
194	0xbe1fb787	-0.15597354
195	0xbcdf75ba	-0.027277816
196	0x3eccbcc6	0.39987773
197	0x3f8b45b2	1.0880644
198	0x3ff8753e	1.941078
199	0x3f8b12cc	1.0865111
200	0xbfcbb695	-1.5915095
201	0xbeed833c	-0.46389186
202	0xbf956b40	-1.1673355
203	0x3f9c7a20	1.222477
204	0x3e9ca9cc	0.30598295
205	0x3ef085d1	0.46977094
206	0xbcea503f	-0.028602717
207	0xc00dae00	-2.213745
208	0x3f04fcb7	0.5194811
209	0xbfd0bb89	-1.6307231
210	0x3f0e6f46	0.5563854
211	0x3fc7102c	1.555181
212	0x3f883f47	1.0644311
213	0x3fa2e69d	1.2726628
214	0x3df12930	0.11775434
215	0x3fcc1488	1.5943766
216	0x3ec311d2	0.38099533
217	0xbfa46737	-1.2843999
218	0x3f49b6aa	0.7879435
219	0x3c577090	0.013149396
220	0x3f30368c	0.6883323
221	0xbf627276	-0.88455904
222	0xbf4d664c	-0.8023422
223	0xbe73dc30	-0.23814464
224	0xbe81f7d9	-0.25384405

weight f4 [5, 3]
0	0x3dc9b237	0.09848445
1	0xbf580c1e	-0.8439349
2	0x3ec4733e	0.38369173
3	0x3d69ef12	0.05711276
4	0xbe8d55f8	-0.2760465
5	0xbdb79ed5	-0.08965842
6	0xbf4d759b	-0.80257577
7	0x4013ff8a	2.3124719
8	0x3fb70aa3	1.4300121
9	0xc0578412	-3.367436
10	0xbfb70a2c	-1.4299979
11	0xc00f74d7	-2.2415063
12	0x3de9ad42	0.114099994
13	0x3fc35476	1.526015
14	0x3ec40369	0.38283852

weight f4 [128, 31]
0	0x3dc217db	0.09477206
1	0x3e405401	0.18782045
2	0xbc439a78	-0.011938684
3	0xbde94c99	-0.11391563
4	0x3e17c432	0.14820936
5	0x3e1d5145	0.15363033
6	0x3d247793	0.040153097
7	0xbd5be3fe	-0.053684227
8	0x3e4253d4	0.1897729
9	0x3d35b2ef	0.044360097
10	0xbddcab00	-0.10774803
11	0x3e2be68c	0.16787165
12	0x3dd8ca3c	0.10585448
13	0xbd94c02f	-0.072632186
14	0x3dc6adac	0.09701094
15	0xbdd801e0	-0.10547233
16	0x3b4e8564	0.0031512612
17	0x3e23a337	0.1598023
18	0xba4e118d	-0.00078608916
19	0xbe0fd23d	-0.14045043
20	0xbd872e5e	-0.06600641
21	0xbd65dada	-0.056116916
22	0x3bb986ef	0.0056618373
23	0x3d345ab8	0.04403183
24	0x3e6fba65	0.23410948
25	0xbd7a89da	-0.06116662
26	0xbe3eb920	-0.18625307
27	0xbc87a5ab	-0.016558489
28	0x3da877c0	0.082259655
29	0x3ddd1b0a	0.10796173
30	0xbe1d40d2	-0.15356758
31	0xbd19e99c	-0.037576303
32	0xbd970fd8	-0.07376069
33	0xbd63a528	-0.055577427
34	0x3cb0d04a	0.021583695
35	0xbde3287b	-0.110917054
36	0x3d8801a0	0.06640935
37	0x3e31d0a8	0.17364752
38	0x3c0de22d	0.008659882
39	0xbdd95925	-0.10612706
40	0xbdbf6a63	-0.093464635
41	0x3d3315ee	0.043722086
42	0xbe0c187a	-0.13681212
43	0x3daaf41a	0.0834734
44	0xbe2c9b8e	-0.16856214
45	0xbe213060	-0.1574111
46	0xbe33136d	-0.17487879
47	0xbcb0f132	-0.021599386
48	0x3e010595	0.12599786
49	0xbe2424eb	-0.16029708
50	0x3de7dfcd	0.113219835
51	0xbddc4cf4	-0.10756865
52	0x3dc7c460	0.097542524
53	0x3bbdf854	0.0057974253
54	0xbe50e9df	-0.20401715
55	0x3df18344	0.11792615
56	0x3dde7528	0.108621895
57	0x3e6d2a37	0.23160635
58	0x3da8780c	0.08226022
59	0xbe0d7402	-0.13813785
60	0x3e1741e3	0.14771228
61	0xbbaa4903	-0.005196692
62	0x3db0c61e	0.08631538
63	0xbdb67511	-0.089090474
64	0xbd8da951	-0.0691706
65	0xbe60b109	-0.21942534
66	0xbd91e7d6	-0.07124297
67	0x3d1489dc	0.036264285
68	0xbe122281	-0.14270975
69	0x3d383cc2	0.04497982
70	0x3da56258	0.08075398
71	0xbcaa0130	-0.02075252
72	0xbe01743e	-0.12641999
73	0xbe0ac72d	-0.13552542
74	0xbd4d031c	-0.050051793
75	0x3da5ba84	0.08092216
76	0x3e35d800	0.17758179
77	0x3dbd15d4	0.09232679
78	0xbc900dd0	-0.017584711
79	0x3db413e1	0.08792854
80	0xbe155fa2	-0.14587262
81	0xbe1c4286	-0.15259752
82	0x3d1cfa61	0.038324717
83	0xbd851a10	-0.06499112
84	0x3d72cc5e	0.05927693
85	0xbe29f271	-0.1659639
86	0xbd502d54	-0.05082448
87	0xbe28d1dc	-0.16486305
88	0x3d9d41e4	0.07678583
89	0x3c075a8d	0.008261335
90	0x3e0e87a4	0.1391893
91	0x3de95ac2	0.11394264
92	0x3dd3824b	0.10327586
93	0xbb277156	-0.0025549731
94	0x3bf67a95	0.007521937
95	0xbd669211	-0.056291644
96	0xbd3c3722	-0.045951016
97	0x3d9cdfa6	0.07659845
98	0xbe0b90b5	-0.1362942
99	0x3e1b115f	0.15143345
100	0xbd0ced49	-0.03440598
101	0xbe2952cf	-0.16535495
102	0xbe26ecc2	-0.16301253
103	0x3e11191c	0.14169735
104	0x3e3bf49b	0.18355028
105	0xbe1a0caf	-0.15043901
106	0x3df7a76e	0.120924816
107	0x3dad000b	0.08447274
108	0x3e028171	0.1274469
109	0x3e1be329	0.15223373
110	0xbd8f63d5	-0.07001463
111	0x3d96f4f3	0.07370939
112	0x3d423855	0.047417004
113	0xbd96b27c	-0.07358262
114	0x3dacbbec	0.08434281
115	0xbd98e204	-0.07464984
116	0x3d6f76c8	0.058462888
117	0xbd1b0028	-0.037841946
118	0xbd76a228	-0.060213238
119	0x3d9af064	0.07565382
120	0x3d99dab3	0.07512417
121	0xbda73811	-0.08164991
122	0x3c1c4934	0.009538937
123	0x3dcd7946	0.10032897
124	0xbc97e64a	-0.018542428
125	0x3d221ff5	0.039581258
126	0xbd811473	-0.063027285
127	0x3d953146	0.07284789
128	0xbe0d9b5c	-0.13828796
129	0xbddaec33	-0.10689583
130	0xbdd5ae58	-0.10433644
131	0x3e263593	0.16231374
132	0xbd7231b9	-0.05912945
133	0xbba004d2	-0.004883387
134	0xbdbcaef4	-0.09213057
135	0x3e3284d9	0.1743349
136	0x3e3a44b0	0.18190265
137	0xbe05d506	-0.13069543
138	0xbe112ac0	-0.14176464
139	0xbe0cd640	-0.13753605
140	0xbb2eb354	-0.002665718
141	0xbd1f2037	-0.03884908
142	0xbde3c469	-0.11121447
143	0xbd6af991	-0.05736691
144	0x3cf1dbd8	0.029523775
145	0xbdc7a3da	-0.09748049
146	0x3d3c83b5	0.046024043
147	0xbcd0d782	-0.025493387
148	0xbdae20df	-0.085023634
149	0x3c022da8	0.007945456
150	0x3e076ca0	0.13225031
151	0xbdf8af28	-0.121427834
152	0x3c9f40cc	0.019440077
153	0xbd984797	-0.0743553
154	0x3e2fb228	0.17157805
155	0xbe24e3de	-0.1610255
156	0xbe0b225c	-0.13587326
157	0x3e39a1af	0.18128084
158	0xbe15d339	-0.14631356
159	0x3d2057bd	0.039146174
160	0xbc3e7bcf	-0.011626198
161	0xbd1e85e3	-0.038701903
162	0xbd582c34	-0.05277653
163	0x3de82de3	0.11336877
164	0xbc816dbe	-0.0157994
165	0xbe3591c2	-0.17731383
166	0xbdde35d1	-0.108501084
167	0xbd78e14e	-0.060761742
168	0x3da51dff	0.08062362
169	0xbdcfe5e3	-0.10151269
170	0x3e306b37	0.17228399
171	0xbcda427b	-0.026643028
172	0xbcfe72d3	-0.031060612
173	0x3e1639a2	0.14670423
174	0x3d9ebf09	0.07751281
175	0x3de630d3	0.11239781
176	0x3e06c7d6	0.13162169
177	0xbd8d2337	-0.06891482
178	0xbe1b94ee	-0.15193531
179	0xbcdfaf88	-0.02730538
180	0x3e1700cf	0.14746402
181	0xbc519bd3	-0.012793499
182	0xbe39a034	-0.18127519
183	0x3d8437f8	0.06455988
184	0x3e3f2629	0.186669
185	0xbd2465fb	-0.04013632
186	0xbe03cfb2	-0.12872198
187	0xbe35a5dc	-0.17739052
188	0x3d3f316d	0.046677995
189	0xbcc5d56b	-0.024149617
190	0xbdaeb812	-0.085312024
191	0x3cab3e84	0.020903833
192	0x3d9257e1	0.07145668
193	0x3e09901f	0.13433884
194	0x3e0bae3e	0.13640687
195	0xbc950b07	-0.018193735
196	0xbe1ec069	-0.15503086
197	0xbe2730ae	-0.16327164
198	0x3e2ab8a6	0.16672
199	0x3dba57a9	0.09098751
200	0x3d906756	0.0705096
201	0xbe12e34a	-0.14344516
202	0x3e302a61	0.17203666
203	0x3e33b110	0.17548013
204	0x3e26b70b	0.16280763
205	0xbe2545ec	-0.16139954
206	0xbd506133	-0.050873946
207	0xbdf80a93	-0.12111392
208	0x3e2eecfc	0.1708259
209	0xbd84386e	-0.064560756
210	0xbdc251f0	-0.094882846
211	0x3df65a3d	0.1202893
212	0xbd52d6e3	-0.051474463
213	0xbd8d2e10	-0.06893551
214	0xbcb4fe6a	-0.02209397
215	0xbcbf4ff7	-0.02335356
216	0xbe16f9b0	-0.14743686
217	0x3e10c724	0.14138466
218	0xbd8c1806	-0.068405196
219	0x3d80a58d	0.06281576
220	0x3e0b18da	0.13583699
221	0x3dbbee18	0.09176272
222	0x3caf6c1a	0.021413852
223	0x3e1146ed	0.14187212
224	0x3cca1bd3	0.02467147
225	0xbdb2b634	-0.08726159
226	0x3e2050a9	0.1565577
227	0x3d1c9d27	0.03823581
228	0xbe306251	-0.17225005
229	0xbd3d9b40	-0.046290636
230	0xbdc90f41	-0.098173626
231	0x3e15165e	0.14559314
232	0xbc53bb75	-0.012923111
233	0xbe173d97	-0.14769588
234	0xbb521a21	-0.003205903
235	0x3dfe1556	0.12406413
236	0x3cfaf60d	0.030634904
237	0x3d10993e	0.035302393
238	0x3d200236	0.03906461
239	0x3d8b9c6d	0.06816945
240	0xbd841dd4	-0.06451002
241	0xbda29641	-0.07938815
242	0xbe331750	-0.17489362
243	0xbe082724	-0.13296181
244	0x3dc1f940	0.09471369
245	0xbdfc6920	-0.123247385
246	0x3cb79027	0.022407604
247	0x3d2f9c06	0.042873405
248	0x3bc472d1	0.0059951325
249	0xbd8adc21	-0.067802675
250	0x3e2d8c52	0.16948059
251	0xbe10dcf0	-0.14146781
252	0x3e1b50d6	0.15167555
253	0xbe136c1a	-0.14396706
254	0xbd1753e3	-0.036945235
255	0x3dc92a77	0.09822553

bias f4 [128]
0	0x3d932ea1	0.07186628
1	0x3e192cab	0.14958446
2	0xbd350ee3	-0.04420365
3	0xbd136f0f	-0.035994586
4	0x3d129cc9	0.035794053
5	0xbd4e0868	-0.050300986
6	0xbd86ef9e	-0.06588672
7	0xbe3acf84	-0.18243223
8	0x3e0a5c30	0.13511729
9	0x3e2ddefa	0.1697959
10	0xbe33ca90	-0.1755774
11	0xbd89a1fa	-0.06720348
12	0xbe081858	-0.13290536
13	0xbd6a558f	-0.0572105
14	0x3e204d8f	0.15654586
15	0x3dc6e2a7	0.09711199
16	0xbcce84c5	-0.025209794
17	0x3dceac08	0.10091406
18	0x3d56809a	0.052368738
19	0x3de60272	0.11230935
20	0xbe13f70a	-0.14449707
21	0x3d18fe9a	0.037352182
22	0xbe297055	-0.16546758
23	0xbdf0e291	-0.11761964
24	0xbd71ccd6	-0.059033237
25	0xbab1e265	-0.0013571499
26	0xbe1f2ea8	-0.15545142
27	0xbbe22fce	-0.0069026714
28	0x3d376f63	0.04478396
29	0xbdbe1102	-0.09280588
30	0x3dbcd4f9	0.09220309
31	0x3e1c5662	0.15267327
32	0xbccf1fa7	-0.025283648
33	0xbd986956	-0.07441966
34	0xbe2baf5b	-0.16766112
35	0xbe11a5da	-0.14223424
36	0xbde40d8f	-0.111353986
37	0xbe080695	-0.13283761
38	0xbd9c4424	-0.07630184
39	0x3de54b8d	0.11196051
40	0x3d66968c	0.056295916
41	0x3e1f664f	0.15566371
42	0x3e401413	0.18757658
43	0xbd889873	-0.066697024
44	0xbd94b9b8	-0.072619855
45	0x3cd8a7aa	0.026447136
46	0xbdcad138	-0.099031866
47	0x3dbf9b01	0.093557365
48	0xbcc630dd	-0.024193222
49	0xbe2407a9	-0.16018547
50	0xbdf8478f	-0.12123024
51	0xbdca625b	-0.09882041
52	0x3d4f75c3	0.050649416
53	0x3e11bfe5	0.14233358
54	0x3e08fbfb	0.13377373
55	0xbd39aa31	-0.045328323
56	0xbdd4e91e	-0.10396026
57	0xbda6015a	-0.081057265
58	0xbded1ed2	-0.11578144
59	0xbceb0ac2	-0.028691653
60	0xbe13d152	-0.14435318
61	0x3dc24e65	0.09487609
62	0xbe27a702	-0.16372302
63	0xbdee4044	-0.116333514
64	0x3e16460f	0.14675163
65	0xbe10ef16	-0.14153704
66	0x3d46b433	0.048511695
67	0x3e0b6183	0.13611417
68	0x3e393758	0.18087518
69	0x3dcd4879	0.10023589
70	0xbd485831	-0.04891223
71	0x3dcd12da	0.10013361
72	0x3bb108b7	0.00540265
73	0xbcfc027c	-0.030762903
74	0xbb9bb394	-0.004751632
75	0x3d4f3c55	0.050594646
76	0x3e074b39	0.13212289
77	0x3db1bc1f	0.086784594
78	0x3dc3a55e	0.09553026
79	0x3cea5388	0.028604284
80	0xba68b730	-0.0008877395
81	0x3d9c274b	0.07624682
82	0x3d66cb36	0.05634614
83	0xbe1fbe8c	-0.15600032
84	0x3d025655	0.031820614
85	0xbd7142fc	-0.058901772
86	0xbdb4c0a5	-0.088258065
87	0x3d961700	0.07328606
88	0x3d4aacc5	0.049481172
89	0x3d0648d5	0.0327843
90	0xbda69aeb	-0.08135017
91	0x3dd8b2dd	0.105809905
92	0x3e31d3e0	0.1736598
93	0x3d0a3d77	0.033750024
94	0x3d4f2692	0.050573893
95	0xbe1c0fa9	-0.15240349
96	0x3de4c905	0.11171154
97	0x3d609159	0.054826114
98	0x3da84240	0.08215761
99	0x3dada0ab	0.084779106
100	0xbd38f18c	-0.045152232
101	0x3c9db58e	0.019251611
102	0x3e35aebd	0.17742439
103	0x3e0f8c14	0.1401828
104	0xbdd6d549	-0.104899
105	0x3e176349	0.14783968
106	0x3e37517d	0.17902179
107	0x3ca639aa	0.020291168
108	0xbe0f55eb	-0.13997619
109	0x3cd519a1	0.026013197
110	0xbd2e5f47	-0.042571332
111	0x3e1375b2	0.14400366
112	0xbe2d0ec7	-0.16900168
113	0x3d89be23	0.06725719
114	0x3cf33569	0.029688554
115	0xb9afcba5	-0.00033530328
116	0x3dec8aba	0.115498975
117	0x3c068f58	0.008212887
118	0xbdfd133f	-0.123571865
119	0xbddb2981	-0.107012756
120	0xbd8634a6	-0.06553011
121	0x3d1b7129	0.037949715
122	0x3d820a83	0.06349661
123	0xbc907f3e	-0.017638799
124	0xbd970f4a	-0.07375963
125	0x3daf24f7	0.08551972
126	0xbe370de7	-0.17876397
127	0x3df4ee59	0.11959524

weight f4 [128, 128]
0	0x3cb02dfc	0.021506302
1	0x3d8fc90c	0.070207685
2	0x3d8e906a	0.069611385
3	0x3c575aad	0.013144177
4	0x3ce83390	0.0283449
5	0xbd57e32c	-0.052706882
6	0x3d761b87	0.060084846
7	0x3d38f2fd	0.045153607
8	0xbc88be9f	-0.016692458
9	0x3d1d2014	0.03836067
10	0xbc70af95	-0.0146902995
11	0x3d8422f5	0.0645198
12	0x3cd07635	0.02544699
13	0x3d983666	0.07432251
14	0xbd3874e6	-0.045033358
15	0x3daacf84	0.08340362
16	0x3d19d7d0	0.03755933
17	0x3d62bb32	0.055354305
18	0x3c2d0e5d	0.0105625065
19	0x3d8f5e2f	0.07000386
20	0x3dc3a759	0.095534034
21	0xbc2f3547	-0.010693855
22	0xbd8fddd1	-0.0702473
23	0x3d9e98a6	0.07743959
24	0xbca2f67d	-0.019892925
25	0xbbee00dd	-0.0072632865
26	0x3d868b04	0.06569484
27	0x3d27de55	0.040983517
28	0x3d030549	0.031987462
29	0xbb8cbe51	-0.0042951484
30	0x3bef3443	0.0072999313
31	0x3d979986	0.07402329
32	0x3d8ad6e5	0.06779269
33	0x3d8bdd55	0.06829325
34	0x3d81b26f	0.06332862
35	0xbd49e922	-0.0492946
36	0x3c928688	0.017886415
37	0xbd8cd9d0	-0.06877482
38	0x3d48b63a	0.04900191
39	0xbdd2d0c7	-0.10293727
40	0xbdcff3cb	-0.10153922
41	0xbda26a94	-0.079304844
42	0x3ccb2b67	0.02480097
43	0x3c2419c3	0.010015908
44	0xbbe9c05d	-0.007133527
45	0x3c56997d	0.013098118
46	0xbc48903a	-0.012241418
47	0xbcdc48c1	-0.02689016
48	0xbd5eea5e	-0.05442273
49	0xbc88e1cb	-0.016709229
50	0xbd46a208	-0.04849437
51	0xbb47d5d8	-0.003049245
52	0x3d8e5627	0.06950026
53	0xbd874ce6	-0.06606464
54	0x3d1dc96c	0.03852217
55	0xbd86dd4a	-0.06585176
56	0xbd3c8171	-0.046021882
57	0x3c9ae423	0.018907612
58	0x3d255bd7	0.04037079
59	0x3dbcafa0	0.09213185
60	0xba7024a4	-0.00091607333
61	0xbd035416	-0.032062612
62	0xbd132d7a	-0.03593204
63	0xbc82c004	-0.0159607
64	0xbd35a380	-0.04434538
65	0xbd8c4c0c	-0.06850442
66	0xbd1e49c0	-0.038644552
67	0x37631570	1.3535246e-05
68	0xbd820bbf	-0.06349897
69	0xbd706e91	-0.058699194
70	0x3d5cc0a9	0.053894673
71	0x3d98450f	0.07435047
72	0xbc7dd9f0	-0.015493855
73	0xbd6f62ce	-0.058443837
74	0xbd0c8349	-0.03430489
75	0x3c7523b6	0.014962127
76	0x3d00e221	0.031465653
77	0xbca825f5	-0.020525912
78	0xbda43197	-0.08017271
79	0xbc9ceff3	-0.019157385
80	0xbd34a484	-0.044102207
81	0x3d6dc457	0.058048572
82	0xbd12e187	-0.03585961
83	0x3d0cd94c	0.034386918
84	0x386c6922	5.6364697e-05
85	0xbb8c0b7b	-0.0042738295
86	0xbda78697	-0.08179968
87	0x3daed01b	0.08535787
88	0xbc8fa2ad	-0.017533625
89	0x3d7633dc	0.06010805
90	0xbd3787d4	-0.04480727
91	0xbd8fd507	-0.070230536
92	0xbd6f5f93	-0.058440756
93	0xbcf003a9	-0.02929862
94	0xbca1dfa0	-0.019759953
95	0xbca66d35	-0.020315746
96	0x3d8c65f9	0.06855387
97	0xbdb94fec	-0.09048447
98	0x3d53e720	0.05173409
99	0x3da13d03	0.07872965
100	0x3adf834d	0.001705268
101	0xbd2a2367	-0.04153767
102	0x3c1f683c	0.009729441
103	0x3d019988	0.03164056
104	0x3d55be74	0.052183583
105	0xbd363009	-0.044479404
106	0xbd5bb594	-0.053639963
107	0xbd78bc81	-0.060726646
108	0xbdb43bfb	-0.08800503
109	0x3ce65f80	0.02812171
110	0xbd9e8bdd	-0.077415206
111	0xbcde0b10	-0.027104884
112	0x3c002023	0.007820162
113	0x3db4661c	0.08808538
114	0x3dcb9f4b	0.09942492
115	0xbd82a43b	-0.06378981
116	0x3da5d3e5	0.08097056
117	0x3db621ce	0.088931665
118	0x3dab447c	0.08362672
119	0x3c7908e5	0.0151998745
120	0x3d3b36bd	0.0457065
121	0x3d61a824	0.055091992
122	0xbd827641	-0.063702114
123	0xbd3680fc	-0.044556603
124	0xbc37ce4c	-0.011218619
125	0xbd94f5b6	-0.07273428
126	0xbd0e2fe2	-0.034713633
127	0x3d84bbe9	0.064811535
128	0x3ca5e5c2	0.020251159
129	0x3d9950ca	0.074861124
130	0x3c05b4d0	0.008160785
131	0xbcb46363	-0.022020048
132	0x3d6049dc	0.054757938
133	0x3b20cd53	0.0024536445
134	0x3d00dc33	0.03146
135	0xbcb9b9d0	-0.02267161
136	0x3d2bc68f	0.041937407
137	0xbd307219	-0.043077562
138	0x3d8ef286	0.069798514
139	0x3db8bc04	0.09020236
140	0x3d50201b	0.05081187
141	0x3d9f6ad4	0.07784048
142	0x3d5da8b5	0.05411597
143	0xbbf83caf	-0.0075755934
144	0xbd75a4e1	-0.059971694
145	0x3cab8ad9	0.020940231
146	0x3da8bb9e	0.0823891
147	0xbbc792d2	-0.0060905004
148	0x3aa09161	0.0012250358
149	0x3da1d84e	0.07902585
150	0x3d3a3e6c	0.045469686
151	0x3d58297a	0.05277393
152	0x3b9c5d19	0.0047718403
153	0x3b1a2e05	0.0023525965
154	0xbc2a5481	-0.010396124
155	0x3c077771	0.008268223
156	0xbd343ddc	-0.044004306
157	0x3da296a6	0.0793889
158	0x3daff4ae	0.08591591
159	0x3d30e84a	0.043190278
160	0x3a4c4e16	0.0007793618
161	0xbc9e3f1b	-0.0193172
162	0xbd9d55bd	-0.07682369
163	0xba871869	-0.0010306957
164	0xbd792169	-0.060822878
165	0xbd5eb8ec	-0.054375574
166	0x3c1adc13	0.009451884
167	0x3b91e7af	0.0044526677
168	0x3d2692cc	0.04066734
169	0xbd458a75	-0.048227746
170	0x3da1e070	0.07904136
171	0xbd6d84f1	-0.05798811
172	0xbceb46ef	-0.028720347
173	0xbc9bccf9	-0.019018637
174	0x3cc1ecb5	0.023672441
175	0x3d4f58ea	0.050621904
176	0x3a80397b	0.0009782756
177	0x3bf56f96	0.0074901087
178	0xbc2d5de9	-0.010581472
179	0xbcc371d8	-0.023857996
180	0xbbd9e47f	-0.0066495533
181	0x3cf989e3	0.030461257
182	0xbd90aab4	-0.07063809
183	0xbd5d1e85	-0.053984184
184	0x3dadab32	0.084799185
185	0x3d29df77	0.04147288
186	0xbc9ab7b7	-0.01888643
187	0xbc79e05c	-0.015251245
188	0x3c182950	0.009287193
189	0x3d0072e5	0.031359572
190	0xbd9863c8	-0.07440907
191	0xbbebc9bf	-0.007195681
192	0xbdb0f06d	-0.086396076
193	0xbd866d64	-0.06563833
194	0xbb0dce29	-0.0021637774
195	0xbc4be6ba	-0.012445146
196	0x3db9a947	0.0906549
197	0x3c9378a3	0.01800186
198	0x3cb6c4a8	0.02231057
199	0x3b7ac238	0.0038262736
200	0x3d7813cf	0.060565766
201	0xbc692629	-0.0142302895
202	0x3b385620	0.0028127506
203	0xbb83682f	-0.0040102224
204	0xbd316fac	-0.04331939
205	0x3c24dbaf	0.010062142
206	0xbd9375b7	-0.07200187
207	0xbd437447	-0.047718313
208	0xbca1e12d	-0.019760692
209	0x3da0f9dd	0.07860158
210	0xbd8c7c26	-0.06859617
211	0x3def02d3	0.116704606
212	0x3d8b95d9	0.068156905
213	0xbd6f7fa6	-0.058471344
214	0x3da630b2	0.08114757
215	0xbc26d69b	-0.010183002
216	0xbd7c2130	-0.061555088
217	0xbc2f29d9	-0.01069113
218	0x3ce4bcb4	0.027922012
219	0xbdaab14c	-0.08334598
220	0xbaa6aea3	-0.0012716841
221	0x3d3313d5	0.043720085
222	0xbce38acd	-0.027776146
223	0x3cb5b3ed	0.022180522
224	0xbc3da70b	-0.011575471
225	0xbd145516	-0.036213957
226	0x3da627fb	0.081130944
227	0xbd37e2a9	-0.044893894
228	0xbc68f88e	-0.014219416
229	0x3cf0f49b	0.029413512
230	0xbd27f711	-0.041007105
231	0x3d67f511	0.056630198
232	0xbdba431d	-0.09094832
233	0x3de0782b	0.1096042
234	0x3d4ebc9e	0.050472848
235	0x3bd0ca1d	0.00637175
236	0xbd8adfff	-0.06781005
237	0x3c76e65c	0.01506957
238	0x3d789533	0.060689162
239	0xbd07c893	-0.033150267
240	0xbc6cc25a	-0.014450634
241	0xbdbe04c9	-0.092782564
242	0xbdc8c085	-0.09802345
243	0x3c4775b9	0.012174063
244	0x3db64d47	0.08901458
245	0xbb4a75ce	-0.003089297
246	0x3bb68bc8	0.0055708624
247	0xbc5a8de5	-0.013339494
248	0xbc4396c8	-0.0119378045
249	0x3b76bdf3	0.003764984
250	0xbcb2e2d2	-0.021836672
251	0x3d99624d	0.074894525
252	0x3d9290bb	0.071565114
253	0xbd1e7428	-0.038684994
254	0x3d4e6cfd	0.050396908
255	0xbc6273b1	-0.013821528

bias f4 [128]
0	0x3d522ab0	0.05131024
1	0x3b19377e	0.0023379023
2	0x3d73a615	0.05948456
3	0xbca50858	-0.02014558
4	0x3d845357	0.06461208
5	0xbd324030	-0.043518245
6	0xbca6f6ad	-0.020381296
7	0x3d3f602c	0.046722576
8	0xbcc1a250	-0.023636967
9	0x3da995c7	0.08280521
10	0x3d956902	0.07295419
11	0xbd7e8e19	-0.062147234
12	0x3d2d2665	0.042272944
13	0xbd442324	-0.047885075
14	0x3cc66532	0.024218176
15	0xbda2f8c9	-0.07957608
16	0x3cbe1efd	0.023208136
17	0x3d0ebc98	0.034847826
18	0x3d807500	0.06272316
19	0xbca85425	-0.020547936
20	0xbd7646cd	-0.060126115
21	0xbcb058ed	-0.021526778
22	0x3da1cbdf	0.079002135
23	0xbacf8f08	-0.0015835473
24	0x3d8a964a	0.067669466
25	0x3bee560d	0.0072734416
26	0xbdc52481	-0.09626103
27	0x3d7bded6	0.06149181
28	0xbd26ac45	-0.040691633
29	0x3d494f4b	0.049147885
30	0xbbbf91f1	-0.005846255
31	0xbcf12829	-0.029438095
32	0x3d62f0f7	0.055405583
33	0x3ba4529e	0.0050147315
34	0xbdb43733	-0.08799591
35	0x3da719a7	0.0815919
36	0x3dbad53a	0.09122701
37	0xbdab647d	-0.08368776
38	0x3d01faf9	0.031733487
39	0xbb98bc4b	-0.004661118
40	0xbd3da3db	-0.046298843
41	0xbd095f5a	-0.0335382
42	0xbd91ed06	-0.07125287
43	0xbd934910	-0.0719167
44	0x3d5ebfe9	0.05438224
45	0xbcc1f72b	-0.02367743
46	0x3bb7382c	0.005591413
47	0x3c95dd87	0.018294109
48	0x3d4ff92c	0.05077474
49	0xbd31d62b	-0.043417137
50	0xbc334914	-0.010942716
51	0xbd206ac7	-0.03916433
52	0x3cfe838a	0.031068582
53	0x3b009fd4	0.0019626515
54	0x3db52dbf	0.08846616
55	0x3b5d3069	0.0033750779
56	0xbd91470a	-0.07093628
57	0x3d645a1d	0.05575
58	0x3d700087	0.058594253
59	0xbb88b562	-0.004172013
60	0xbbad53b9	-0.0052895215
61	0x3d7cd490	0.061726153
62	0x3bf06252	0.0073359394
63	0xbbda86e2	-0.0066689113
64	0x3d6f3bc6	0.058406614
65	0x3d7a0c76	0.06104704
66	0x3a053e0f	0.0005082795
67	0x3d682e68	0.05668488
68	0x3bd89974	0.00661009
69	0xbd0fea91	-0.03513581
70	0x3d84ba5e	0.06480859
71	0x3d79f1cb	0.061021607
72	0x3d36e2e5	0.044649977
73	0x3a86b544	0.001027741
74	0x3c5c9198	0.013462447
75	0xbd913c28	-0.07091552
76	0x3cdd7b14	0.027036227
77	0x3d1e8152	0.03869755
78	0xbd031455	-0.032001812
79	0xbd8460c5	-0.0646377
80	0x3c4b124a	0.012394497
81	0x3d6b3497	0.0574232
82	0xbd4c9709	-0.049948726
83	0x3d35f801	0.044425968
84	0xbd2335d7	-0.039846268
85	0xbd2ede2d	-0.042692352
86	0x3dae67e4	0.08515909
87	0xbd800280	-0.06250477
88	0x3da0631f	0.07831406
89	0x3d5c2251	0.053743664
90	0x3c0eacc5	0.008708184
91	0xbd261542	-0.040547617
92	0xbb2c93d2	-0.0026333225
93	0x3d96071f	0.07325577
94	0xbd5b66cd	-0.053564835
95	0x3db482a1	0.08813978
96	0x3d200709	0.03906921
97	0xbd94b12a	-0.07260354
98	0x3d9ad64c	0.07560405
99	0x3c66b765	0.014081811
100	0xbc3ef580	-0.011655211
101	0xbd643c2d	-0.05572145
102	0x3dcf97d0	0.10136378
103	0xbd68983d	-0.05678581
104	0xbd493e7f	-0.049131867
105	0x3b4866fb	0.003057896
106	0xbc94fc65	-0.018186757
107	0xbd4c3479	-0.04985473
108	0x3d73913b	0.059464674
109	0xbcb1f966	-0.021725368
110	0x3cfe8525	0.031069348
111	0xbc8412b3	-0.016122198
112	0xbce610ad	-0.028084124
113	0xbdbcaaa9	-0.09212238
114	0x3da079b4	0.07835713
115	0x3d533009	0.05155948
116	0x3daa44cc	0.08313903
117	0xbd7f5241	-0.062334303
118	0x3c410193	0.0117801605
119	0xbd3002d4	-0.042971447
120	0xbd4dca72	-0.050241895
121	0x3c1d477e	0.009599565
122	0x3d1528e6	0.036415957
123	0x3d063a85	0.032770652
124	0xbd6bbea1	-0.057554845
125	0xbd864fe2	-0.06558205
126	0x3daf5318	0.08560771
127	0x3d2f4d8b	0.04279856

weight f4 [128, 128]
0	0xbc8f2469	-0.017473416
1	0x3d5ca34a	0.053866662
2	0xbd81d267	-0.06338959
3	0xbc974b79	-0.018468605
4	0x3cff987a	0.031200636
5	0xbd054f46	-0.032546304
6	0x3d8d5430	0.06900823
7	0x3da2458d	0.07923422
8	0xbd5e456f	-0.054265436
9	0xbb34f13b	-0.0027609605
10	0x3ce26650	0.027636677
11	0x3c9a5039	0.018837081
12	0xbcea2756	-0.02858321
13	0xbd7eba52	-0.062189408
14	0x3c851cd6	0.016249102
15	0x3d252070	0.040314138
16	0xbd3d8c43	-0.046276342
17	0x3d8e1f6c	0.06939587
18	0xbc4868b1	-0.012231992
19	0x3db12b40	0.086508274
20	0xbbf50946	-0.007477912
21	0xbcdb86bd	-0.026797647
22	0x3c99c5d4	0.01877109
23	0x3d9b0e9f	0.07571148
24	0xb86c40f4	-5.6327277e-05
25	0x3d88c64f	0.06678449
26	0x3d741fc7	0.059600618
27	0xbd8cab45	-0.068686046
28	0x3d8446c0	0.06458807
29	0xbd467d15	-0.04845913
30	0x3d20f5dc	0.03929697
31	0xbd56be06	-0.052427314
32	0x3d3d3e95	0.04620226
33	0xbbfc5d72	-0.0077015692
34	0x3dab05a7	0.083506875
35	0x3dc2501e	0.094879374
36	0x3ca73bd8	0.020414278
37	0xbd8f04ba	-0.069833234
38	0xbc471069	-0.012149909
39	0x3c34624a	0.011009762
40	0xbd216e54	-0.039411858
41	0x3d141ba6	0.03615918
42	0xbd9d9557	-0.076945
43	0x3d87b4d6	0.066262886
44	0xbd731c07	-0.0593529
45	0xbc393e16	-0.011306306
46	0x3cee0ef6	0.029059868
47	0x3d840d77	0.06447881
48	0x3c472016	0.012153646
49	0xbd86d417	-0.06583422
50	0x3dbdff34	0.09277192
51	0x3d20f990	0.0393005
52	0x3d9e4299	0.07727546
53	0xbd685721	-0.056723718
54	0xbd469cfc	-0.048489556
55	0xbd3117d9	-0.043235634
56	0x3d882585	0.06647781
57	0xbd62e541	-0.055394415
58	0x3db0f9ff	0.08641433
59	0xbc091898	-0.00836768
60	0x3cbd2c44	0.023092397
61	0x3c441753	0.011968452
62	0xbd98ed69	-0.074671574
63	0x3d8fdccf	0.07024538
64	0xbd95fba0	-0.07323384
65	0xbc1de375	-0.0096367495
66	0x3d66811d	0.056275476
67	0xbd0e0d3c	-0.03468059
68	0xbd0045f5	-0.031316716
69	0xbcfce89e	-0.03087264
70	0x3d8da058	0.06915349
71	0xbcf16b7f	-0.029470203
72	0xbc76bc1f	-0.0150595
73	0x3d8a469e	0.067517504
74	0xbdaa1db5	-0.083064474
75	0x3c904beb	0.017614326
76	0x3d35543e	0.044269793
77	0xbc35f4db	-0.011105741
78	0x3da51ed7	0.08062523
79	0xbbba20da	-0.0056801857
80	0x3d48cabc	0.049021468
81	0xbb1d054c	-0.0023959456
82	0x3cf255c4	0.029581912
83	0xbc0c7416	-0.008572599
84	0xbc4fd595	-0.012685199
85	0xbd4bd1c4	-0.049760595
86	0x3c8e76f5	0.017390708
87	0x3d8b1f99	0.06793136
88	0x3d8e4eb8	0.06948608
89	0x3da01dbe	0.07818173
90	0x3ccfc49c	0.025362305
91	0x3d1a979d	0.037742246
92	0x3cc88353	0.024476683
93	0xbd7bde4e	-0.061491303
94	0xbc333233	-0.010937261
95	0x3d84f367	0.06491738
96	0x3d0cc0e3	0.03436364
97	0x3d8b92b4	0.06815091
98	0x3d8882f6	0.06665604
99	0x3cde97bb	0.02717196
100	0xbbf0f223	-0.0073530837
101	0xbd4de4d7	-0.050267067
102	0x3d229281	0.0396905
103	0xbc05fb1f	-0.008177548
104	0xbd35ec0a	-0.044414558
105	0xbd1e85dd	-0.03870188
106	0x3d7c1b29	0.06154934
107	0xbd29b379	-0.041430924
108	0xbcdc0ea8	-0.026862457
109	0xbafbb8aa	-0.0019204814
110	0xbd5d4b2d	-0.05402677
111	0x3c9c2a08	0.01906301
112	0xbd22a808	-0.03971103
113	0xbcf3fff3	-0.029785132
114	0xbd7cff80	-0.0617671
115	0x3dac566d	0.08414922
116	0x3dae4f29	0.08511192
117	0x3daf547c	0.08561036
118	0x3d9d54f6	0.07682221
119	0xbc2d3561	-0.010571809
120	0xbcd155e8	-0.025553659
121	0x3c280624	0.01025537
122	0x3cb90ae7	0.022588206
123	0xbcfa2b7b	-0.030538311
124	0xbdab9a73	-0.08379068
125	0xbc20e78a	-0.009820828
126	0x3dac5c47	0.08416038
127	0x3d38429f	0.04498541
128	0x3d919e00	0.07110214
129	0x3d361b1a	0.04445944
130	0xbba1e792	-0.0049409354
131	0x3b94673a	0.004528907
132	0xbcff135b	-0.03113716
133	0x3ca3a361	0.019975366
134	0xbc71aaf2	-0.014750229
135	0xbd37cded	-0.04487412
136	0xbd0fc3f6	-0.035098992
137	0xbcb45ef9	-0.022017943
138	0x3bbd7ac3	0.0057824566
139	0xbd8ace91	-0.06777681
140	0xbc46823e	-0.012116013
141	0x3dab2f0f	0.08358585
142	0x3c2d0bae	0.010561867
143	0x3b142d89	0.002261015
144	0x3cc232b8	0.023705825
145	0x3d8a9db2	0.06768359
146	0x3dae2a51	0.08504165
147	0x3dc08d07	0.09401899
148	0xbd1decb3	-0.038555812
149	0x3d28fa2b	0.041254204
150	0x3b9092f0	0.0044120476
151	0x3b275a36	0.0025535948
152	0xbc9a8629	-0.0188628
153	0xbd0c1e99	-0.034208868
154	0xbd246c65	-0.040142436
155	0xbbc74459	-0.0060811457
156	0xbca152e1	-0.01969284
157	0xbb1e7dc9	-0.002418386
158	0x3d46aadd	0.04850279
159	0xbc31e465	-0.010857676
160	0x3d9cc95f	0.07655596
161	0xbb06af41	-0.0020551237
162	0x3db44265	0.08801726
163	0x3d5767ce	0.05258923
164	0x3cff45b8	0.031161174
165	0x3a767680	0.0009401813
166	0xbb8b9839	-0.0042600897
167	0x3c1137eb	0.00886343
168	0xbd468ad3	-0.048472237
169	0x3da4c92f	0.08046185
170	0x3c911a4a	0.01771273
171	0xbd16871d	-0.036749948
172	0xbc9a51cc	-0.018837832
173	0x3bce8533	0.0063024997
174	0xbd8d5483	-0.06900885
175	0xbd00b3de	-0.031421535
176	0xbd2eadb6	-0.042646132
177	0x3db80ad0	0.08986437
178	0x3db56e8b	0.08858975
179	0x3d58cff2	0.052932687
180	0x3db7f867	0.08982926
181	0xbd93cfae	-0.07217346
182	0xbd51d0a8	-0.05122438
183	0x3d75aec9	0.05998114
184	0x3d7b880c	0.06140904
185	0x3c52aca1	0.012858541
186	0x3d703bec	0.058650896
187	0xbd796b56	-0.06089338
188	0x3d568975	0.052377183
189	0x3d2e717a	0.04258869
190	0xbd359d32	-0.044339366
191	0xbd1a2751	-0.03763515
192	0x3d56c997	0.052438345
193	0xbcb1c265	-0.02169914
194	0xbdba05fd	-0.090831734
195	0xbceb3e06	-0.028716099
196	0x3d2ba6a1	0.041906957
197	0x3d40a7e4	0.047035113
198	0x3ce4f5a8	0.02794917
199	0xbd9c8fe3	-0.07644632
200	0x3d95e749	0.07319505
201	0x3dc3c637	0.09559291
202	0xbd614052	-0.05499298
203	0xbbb9ef29	-0.005674262
204	0x3b8bebbf	0.0042700465
205	0xb9b9a5db	-0.00035409522
206	0x3d9fab2a	0.07796319
207	0xbdbac8a5	-0.09120301
208	0x3b70d58c	0.0036748378
209	0x3da48571	0.080332644
210	0x3d92befa	0.07165332
211	0x3d869431	0.06571234
212	0x3dc12e0b	0.0943261
213	0xbd4dd2b9	-0.05024979
214	0x3cce87a2	0.02521116
215	0x3be24ae1	0.006905899
216	0xbcfef0c3	-0.031120664
217	0xbd81b5d2	-0.063335076
218	0xbd3062b0	-0.043062866
219	0xbc043541	-0.008069337
220	0x3db4f7d5	0.08836333
221	0x3dcce317	0.100042515
222	0x3da1ec34	0.0790638
223	0x3d1c8b6d	0.038218904
224	0x3c03a4a1	0.008034856
225	0xbd36a58a	-0.044591464
226	0xbb0d2f34	-0.0021543028
227	0xbd2ab0dc	-0.041672572
228	0xbbd03110	-0.006353505
229	0xbd9c77a1	-0.07640005
230	0xbd54020b	-0.05175976
231	0xbcab0dfc	-0.020880692
232	0xbd98ba3b	-0.07457396
233	0x3d3be451	0.045872036
234	0xbcf0adcb	-0.029379746
235	0x3d824042	0.063599125
236	0xbd354f8e	-0.044265322
237	0x3d8d161d	0.068889834
238	0x3d82a6ba	0.06379457
239	0x3d8ed425	0.06974057
240	0x3c2a8482	0.010407569
241	0xbd4f0c3c	-0.050548777
242	0xbc113db4	-0.008864809
243	0x3d5f652e	0.05453985
244	0xbd3cf3a9	-0.04613081
245	0x3da27730	0.079328895
246	0xbc851c2f	-0.01624879
247	0xbd96c4e5	-0.073617734
248	0x3dce1d13	0.10064139
249	0xbd7acff0	-0.06123346
250	0x3da535ee	0.08066927
251	0x3db647c2	0.089004055
252	0x3c57a54a	0.013161967
253	0xbc759100	-0.014988184
254	0x3d98aadc	0.07454464
255	0x3dd24b96	0.10268323

bias f4 [128]
0	0x3d49cdbf	0.04926848
1	0x3d5500ec	0.052002832
2	0xbd9c0604	-0.07618335
3	0xbc00ed4b	-0.007869075
4	0x3c1ce10f	0.0095751425
5	0x3ba1dc9c	0.0049396288
6	0xbcf31735	-0.029674152
7	0xbd6bf46f	-0.057606157
8	0x3cf6215e	0.030045208
9	0x3d9240f9	0.07141299
10	0x3c93e775	0.018054703
11	0x3d4cd29c	0.05000554
12	0xbd766a07	-0.06015971
13	0xbda6e602	-0.08149339
14	0xbd667341	-0.05626226
15	0x3aa111a4	0.0012288583
16	0xbd94c29d	-0.07263682
17	0x3db526c9	0.08845288
18	0x3b881991	0.0041534384
19	0x3cdd4510	0.02701047
20	0xbc9955fc	-0.018717758
21	0x3db52c45	0.08846334
22	0xbd43ff72	-0.047851034
23	0xbd0ad1a2	-0.033891328
24	0x3d30d672	0.04317326
25	0x3c1979d9	0.00936743
26	0xbd272391	-0.040805403
27	0xbd6f156a	-0.05837003
28	0x3d733f8a	0.059386767
29	0xbce54041	-0.02798474
30	0x3d949818	0.07255572
31	0xbd8ab410	-0.067726254
32	0x3d243b34	0.040095523
33	0x3d9d7bc2	0.076896206
34	0x3dad64bb	0.084664784
35	0xbda70581	-0.08155347
36	0xbd583bc0	-0.052791357
37	0x3d381046	0.044937395
38	0xbc7adcdf	-0.015311449
39	0x3c91a6a7	0.017779661
40	0x3c0e845a	0.008698547
41	0xbd20e7e1	-0.039283637
42	0x3c9edea8	0.01939328
43	0xbca222f5	-0.01979206
44	0x3d3c85d2	0.04602606
45	0xbd903394	-0.07041088
46	0x3d8b43e5	0.06800059
47	0xba9be325	-0.0011893256
48	0xbc5ea7ca	-0.013589809
49	0x3d9505b0	0.072764754
50	0x3d2b5b5d	0.041835178
51	0x3d2fbb4b	0.042903226
52	0x3d97956e	0.07401548
53	0x3d75348b	0.059864562
54	0x3ce4cb60	0.027929008
55	0xbc8acc6a	-0.016943175
56	0x3ad41cca	0.0016182896
57	0xbccf6691	-0.025317462
58	0xbc309021	-0.0107765505
59	0x3d5d1f89	0.053985152
60	0xbdb51fde	-0.08843969
61	0xbd69453e	-0.0569508
62	0xbc2c429e	-0.01051393
63	0x3d5eb805	0.054374713
64	0x3d2a41ab	0.041566532
65	0x3c8659f8	0.016400322
66	0xbc205693	-0.009786266
67	0xbd8d6d11	-0.069055684
68	0xbcdb2f22	-0.026755873
69	0x3d9d2adc	0.076741904
70	0x3d11df44	0.035613313
71	0xbc07833c	-0.008271035
72	0xb9261977	-0.0001584048
73	0x3d860b92	0.065451756
74	0xbc370b70	-0.0111721605
75	0xbca66906	-0.020313751
76	0x3d6a7560	0.057240844
77	0xbd95b6a2	-0.07310225
78	0x3d1d8651	0.038458172
79	0x3d432b9e	0.04764902
80	0x3d8961c6	0.06708102
81	0xbcf12b7a	-0.029439677
82	0xbd959722	-0.07304217
83	0x3daf4311	0.08557714
84	0x3db59945	0.088671245
85	0xbda7a4a4	-0.081856996
86	0x3d9da7c6	0.07698016
87	0xbd719018	-0.05897531
88	0x3d6a5bae	0.05721634
89	0x3b844847	0.0040369364
90	0xbc7aea3c	-0.015314635
91	0x3d5a883c	0.05335258
92	0xbbd00ce4	-0.006349193
93	0xbd66e08e	-0.056366496
94	0xbd849e51	-0.06475509
95	0x3d6f0c93	0.0583616
96	0x3c9d4178	0.019196257
97	0xbd2b8694	-0.04187639
98	0x3d523339	0.05131838
99	0xbd7abb6e	-0.061213903
100	0x3da332d4	0.07968679
101	0x3c86b422	0.016443316
102	0x3d68a938	0.056802005
103	0xbcc85074	-0.024452426
104	0x3d744b4d	0.059642125
105	0x3d3d4d68	0.0462164
106	0x3d894d62	0.06704213
107	0xbd3d06fc	-0.04614924
108	0xbdb3bc41	-0.08776141
109	0x3d5a39f2	0.053277917
110	0x3c9fd77b	0.019511929
111	0x3ac8a6ef	0.0015308539
112	0xbd24e8f3	-0.04026122
113	0x3d4811e6	0.048845194
114	0x3cce12b8	0.02515541
115	0x3d3678ce	0.044548802
116	0xbc15f7ff	-0.009153365
117	0x3d0c9e62	0.034330733
118	0x3d6d6f24	0.05796732
119	0xbdbcf4fc	-0.092264146
120	0xbb109dcc	-0.002206671
121	0xbda349c7	-0.07973056
122	0x3d76757b	0.06017063
123	0xbccb6588	-0.024828687
124	0x3cc8c206	0.02450658
125	0x3d2d041b	0.042240243
126	0xbd128f63	-0.035781275
127	0x3d74a36b	0.05972616

weight f4 [128, 128]
0	0xbd19a1b2	-0.03750772
1	0x3db7cd32	0.08974685
2	0xbc8b6d6d	-0.017019952
3	0x3b24d26d	0.0025149838
4	0x3dc348e9	0.09535391
5	0xbd09cc89	-0.033642326
6	0xbc9b6650	-0.018969685
7	0x3daff7c8	0.085921824
8	0xbcf35433	-0.029703235
9	0x3da34342	0.07971813
10	0x3d31da83	0.04342128
11	0x3ceadc5b	0.028669527
12	0x3bf79ba0	0.0075563937
13	0xbd79cfcb	-0.060989182
14	0xbc41e0f1	-0.011833415
15	0x3d0b41ea	0.033998407
16	0xbcc28d7a	-0.023749102
17	0xbced74ef	-0.028986422
18	0x3b6041e0	0.0034218952
19	0xbd62a142	-0.05532957
20	0x3d548c29	0.05189148
21	0xbd7d1462	-0.061787017
22	0xbd400ee7	-0.046889212
23	0x3d06ccdd	0.032910217
24	0x3abf72cf	0.0014606359
25	0xbd32a4d8	-0.04361424
26	0x3d23ff01	0.040038113
27	0xbdcbca25	-0.099506654
28	0x3d84238a	0.06452091
29	0x3dc1c7a0	0.094619036
30	0x3da49e75	0.08038036
31	0x3ddb3d39	0.10705037
32	0x3c685dd1	0.014182524
33	0x3d539991	0.051660124
34	0xbd73e96e	-0.059548788
35	0x3d5823c8	0.0527685
36	0xbd3217bc	-0.043479666
37	0xbd48d54c	-0.04903154
38	0xbd74312c	-0.059617206
39	0xbbb201d0	-0.005432345
40	0x3dc2e047	0.09515434
41	0xba4ced15	-0.00078173104
42	0x3d09aba7	0.033610966
43	0xba2f0469	-0.00066763774
44	0x3cb6dc35	0.0223218
45	0x3dc26903	0.09492686
46	0x3c2cbd3a	0.010543162
47	0x3d2b01b5	0.041749675
48	0x3cc4f7bd	0.024043912
49	0xbc8c2bbf	-0.017110704
50	0xbd4c24ee	-0.049839906
51	0x3c6fe09c	0.014640953
52	0x3cad3702	0.021144394
53	0xbcdcb5b8	-0.026942119
54	0xbd39cee0	-0.045363307
55	0x3befd60f	0.007319219
56	0x3d6544b1	0.055973712
57	0xbc59184a	-0.01325042
58	0xbd382b9a	-0.044963457
59	0xbd2f4470	-0.042789876
60	0xbd83a740	-0.06428385
61	0x3daaf7b7	0.08348029
62	0x3bb037d7	0.0053777504
63	0x3c070773	0.008241522
64	0xbd18ea0a	-0.037332572
65	0x3dacf127	0.08444434
66	0xbd762a52	-0.060098954
67	0x3d02a5f8	0.03189656
68	0x3b51721e	0.0031958888
69	0xbd96296d	-0.0733212
70	0x3d4530ac	0.04814212
71	0x3c40aad9	0.011759483
72	0xbcfb854d	-0.030703211
73	0x3d1c9dd8	0.03823647
74	0x3c2465e5	0.010034059
75	0xbd226dd3	-0.039655518
76	0x3c44147d	0.011967775
77	0x3cc11d88	0.023573652
78	0x3b104703	0.0022014983
79	0x3c823288	0.015893236
80	0x3d68ef39	0.056868766
81	0x3c41f1eb	0.011837463
82	0x3cf02c34	0.029317953
83	0x3d908d85	0.07058243
84	0x3ba2bfc4	0.004966708
85	0x3dbe327b	0.09286972
86	0xbc867c53	-0.016416704
87	0x3d563938	0.05230066
88	0x3d6c0251	0.057619397
89	0x3dcc9aa9	0.099904366
90	0x3cbc8cd5	0.023016373
91	0x3dbf5c5f	0.0934379
92	0x3c983e64	0.018584438
93	0x3ca3530d	0.019937063
94	0xbd9322ef	-0.071843974
95	0x3d2649d3	0.040597748
96	0x3dac0d60	0.084009886
97	0x3d888e08	0.06667715
98	0x3d62e72b	0.05539624
99	0xbda71358	-0.081579864
100	0x3da33cca	0.07970579
101	0x3d431931	0.047631446
102	0xbcff4ad6	-0.031163614
103	0x3d9700e2	0.07373215
104	0x3d7dc771	0.06195778
105	0x3d955201	0.07291032
106	0x3d69033e	0.056887858
107	0xbda50707	-0.08057981
108	0x3d5fb7f1	0.05461878
109	0xbcc2e98a	-0.023793
110	0x3c8ca84f	0.0171701
111	0x3da27074	0.07931605
112	0xbd844ba6	-0.06459741
113	0x3dcb4cd0	0.0992676
114	0x3c67583f	0.014120161
115	0x3d2e9a2f	0.04262751
116	0xbd8b1f1d	-0.06793044
117	0x3ca06ae2	0.019582216
118	0x3be5c8c3	0.007012458
119	0x3d9e8fd2	0.07742275
120	0xbc956246	-0.018235337
121	0x3d6c41d6	0.057679974
122	0x3d5cb6bd	0.05388521
123	0xbd79b8ef	-0.060967382
124	0x3dcb9a37	0.099415235
125	0x3b919e6f	0.0044439356
126	0x3d4576b5	0.04820891
127	0x3d0fef20	0.035140157
128	0x3d8d19f1	0.068897136
129	0x3b16a766	0.002298796
130	0xbce4e256	-0.027939957
131	0x3c83303c	0.01601421
132	0x3d841c7a	0.06450744
133	0xbb8894c2	-0.004168124
134	0xbcaaa435	-0.020830253
135	0x3dd47675	0.103741564
136	0x3d6edabd	0.058314074
137	0xbd63dacf	-0.055628594
138	0x3d2da8cf	0.042397317
139	0x3d3dc19a	0.04632721
140	0xbac9e891	-0.0015404393
141	0x3da61716	0.08109872
142	0x3d2e1374	0.04249902
143	0x3db676d0	0.089093804
144	0xbb8d40c9	-0.0043107015
145	0xbb7980ce	-0.0038071158
146	0xbca483b6	-0.020082336
147	0x3cbe53dc	0.023233347
148	0x3d124e84	0.03571941
149	0xbbcb26e1	-0.006199703
150	0x3d5cf119	0.053940866
151	0x3dd82556	0.10553996
152	0x3d30165b	0.04299007
153	0x3c35e647	0.011102266
154	0xbda34525	-0.07972173
155	0xbdd3183f	-0.10307359
156	0xbd5d48c7	-0.054024484
157	0xbc26ba4d	-0.0101762535
158	0xbc4bd170	-0.0124400705
159	0x3db2b5ba	0.08726068
160	0x3da14363	0.07874181
161	0x3da7c9e1	0.08192802
162	0x3baf133d	0.0053428696
163	0xbd2110aa	-0.039322533
164	0xbcd60023	-0.026123112
165	0xbd604fce	-0.054763608
166	0x3d151277	0.036394563
167	0x3bfaa0b5	0.0076485523
168	0x3d8d9ace	0.06914292
169	0x3c6034ce	0.013684465
170	0x3c534bd3	0.012896496
171	0x3da8cdd9	0.08242387
172	0x3d060dc0	0.032727957
173	0x3cd8453f	0.026400207
174	0xbd88551c	-0.06656858
175	0xbd075f9a	-0.033050157
176	0x3d55304f	0.052048024
177	0xbccf6d06	-0.025320541
178	0x3d91a8bf	0.07112264
179	0x3bd42360	0.0064739436
180	0x3cc6ca7f	0.02426648
181	0x3d9cd29e	0.076573595
182	0xbd3d3f4f	-0.046202954
183	0x3d78f40a	0.06077961
184	0x3d72e7cf	0.0593031
185	0xbd09d7c5	-0.03365304
186	0x3da52483	0.08063605
187	0x3c1f67dd	0.009729353
188	0xbd8fc94b	-0.070208155
189	0x3d6b991d	0.057519067
190	0xbca8155b	-0.020517996
191	0x3b6fd148	0.0036593247
192	0x3dc6ad4f	0.09701025
193	0x3d601b17	0.054713335
194	0xbd585c1f	-0.05282223
195	0x3d8ca078	0.068665445
196	0x3c7337dd	0.014844862
197	0xbce13efe	-0.027495857
198	0xbd13992c	-0.036034748
199	0xbba07e25	-0.00489785
200	0x3d912110	0.07086384
201	0x3d3d5f1a	0.046233274
202	0x3d9c1542	0.07621242
203	0xbd8a86a8	-0.06763965
204	0x3da8f300	0.082494736
205	0x3dcdcc31	0.10048712
206	0x3d8dc73a	0.06922765
207	0x3d6f50b6	0.05842658
208	0x3d30b53d	0.043141592
209	0x3d81451b	0.06312009
210	0x3d963ee9	0.07336218
211	0x3d80f9fe	0.06297682
212	0x3bbb80e4	0.005722152
213	0xbbc4c47f	-0.0060048695
214	0x3c08e1f1	0.00835465
215	0x3d5af109	0.053452525
216	0xbc3be9f8	-0.011469357
217	0xbd730b25	-0.0593368
218	0x3d6b8cf1	0.05750746
219	0x3dbb3932	0.091417685
220	0x3dc48d2e	0.095972404
221	0x3d1ca7bd	0.038245905
222	0xbd429d0d	-0.047513057
223	0x3d9256d3	0.07145467
224	0x3d8db843	0.06919911
225	0xbc85becf	-0.016326336
226	0x3dc0e9fa	0.094196275
227	0xbd709f0f	-0.05874544
228	0xbcb332e3	-0.02187485
229	0x3d13d5fe	0.03609275
230	0xbcee0a66	-0.029057693
231	0x3cd1b7f4	0.025600411
232	0xbd695fd3	-0.05697615
233	0x3dd79470	0.10526359
234	0x3dc10cc2	0.094262615
235	0xbd32fa50	-0.043695748
236	0x3d99dfd0	0.07513392
237	0xbc05e183	-0.008171442
238	0x3d9ea7c3	0.07746842
239	0xbd396f49	-0.045272145
240	0x3dba4f07	0.090971045
241	0xbb5a6eef	-0.0033330282
242	0xbd70dc70	-0.058803976
243	0x3d9a6115	0.07538048
244	0x3d13228f	0.03592163
245	0x3d8f9826	0.07011442
246	0xbd28aa21	-0.041177873
247	0xbcfb63e4	-0.03068728
248	0xbc4238ad	-0.011854333
249	0xbbf6b404	-0.0075287838
250	0x3cd210ee	0.025642838
251	0x3d660de6	0.0561656
252	0x3d4a1cec	0.04934399
253	0xbd86e514	-0.06586662
254	0xbc8439a4	-0.016140766
255	0x3d81ee9d	0.0634434

bias f4 [128]
0	0xbd66368e	-0.05620437
1	0xbd5edd14	-0.054410055
2	0x3db23796	0.087020084
3	0xbda21f8e	-0.07916175
4	0x3d6c1f33	0.05764694
5	0xb35e6ad3	-5.178556e-08
6	0xbcf37688	-0.029719606
7	0x3c20b2a9	0.009808221
8	0x3d42b3db	0.047534805
9	0x3d8fb7a2	0.07017447
10	0xbd510009	-0.051025424
11	0xbd732d89	-0.059369598
12	0xbbb6332b	-0.005560299
13	0xbcaf0f4c	-0.021369599
14	0x3d85e652	0.06538071
15	0xbc580762	-0.013185354
16	0xbbf80d5a	-0.007569951
17	0x3c81f54c	0.015864037
18	0xbc987264	-0.018609233
19	0x3d5f3ef0	0.05450338
20	0x3cef4ff6	0.029212933
21	0x3d5115ee	0.051046304
22	0x3c8f0935	0.017460445
23	0x3da73e89	0.081662245
24	0x3c00fbfd	0.007872579
25	0x3d1921ef	0.037385877
26	0xbbcf2042	-0.006320984
27	0xbc944eb6	-0.018103939
28	0x3c3227d0	0.01087375
29	0x3daa9ac9	0.08330304
30	0x3b691dcf	0.0035570746
31	0x3d2a42a1	0.04156745
32	0xbd4a1b32	-0.04934234
33	0xbd8d5507	-0.06900983
34	0xbc4db735	-0.012555887
35	0xbbd9789e	-0.006636693
36	0xbc3fa99c	-0.011698153
37	0xbd067f10	-0.03283602
38	0xbd120148	-0.035645753
39	0x3d15a06e	0.03652995
40	0x3d0a6daa	0.03379599
41	0x3d17891f	0.036996003
42	0x3d764866	0.06012764
43	0x3d84defa	0.06487842
44	0xbcfcb13f	-0.030846236
45	0xbafc73e5	-0.0019260613
46	0xbc644e94	-0.01393475
47	0xbd838bf6	-0.0642318
48	0x3d704a92	0.058664866
49	0x3bc1313d	0.0058957622
50	0xbd9123ac	-0.07086882
51	0x3c85c34b	0.016328475
52	0x3c9f5bce	0.019452956
53	0xbd96b19a	-0.073580936
54	0x3cfcce2d	0.030860031
55	0xbd4564e7	-0.04819193
56	0xbd3a43c7	-0.045474794
57	0xbbaa29cd	-0.0051929713
58	0xbb988cd5	-0.0046554604
59	0x3b5b4207	0.0033456103
60	0xbc707850	-0.014677122
61	0x3db3061b	0.08741399
62	0x3c718fde	0.014743773
63	0xbd7705cb	-0.06030826
64	0xbd6fc8b4	-0.058541015
65	0xbce019f3	-0.027356124
66	0xbd83cdb6	-0.064357206
67	0x3c7df480	0.015500188
68	0x3cca6eb7	0.024710996
69	0xbda66bcd	-0.0812603
70	0xbc127c4c	-0.0089407675
71	0x3d1cf16d	0.03831618
72	0xbd4fd221	-0.050737504
73	0xbda1b88d	-0.078965284
74	0xbc07a816	-0.008279821
75	0xbd092271	-0.03348011
76	0x3d60dc43	0.054897558
77	0xbd5fd288	-0.054644138
78	0xbd914c33	-0.07094612
79	0xbc432f53	-0.011913138
80	0x3da8bfa3	0.08239677
81	0x3da715aa	0.08158429
82	0xbc80fd5d	-0.015745813
83	0xbd84817f	-0.06470012
84	0xbd6d72ed	-0.05797093
85	0x3dc23d39	0.094843335
86	0x3c2eb1f5	0.010662545
87	0xbd706f35	-0.058699805
88	0x3cdbbf20	0.026824534
89	0x3da35446	0.07975058
90	0x3ce8be39	0.028411018
91	0x3bd4e0c2	0.00649652
92	0x3ca8684c	0.020557545
93	0xbd605f66	-0.05477848
94	0xbd757257	-0.059923496
95	0x3c315469	0.010823348
96	0xbcfdc7a9	-0.030978994
97	0xbcd9c686	-0.026583921
98	0x3ce80532	0.02832279
99	0x3d76de8f	0.060270842
100	0x3cbb20c5	0.022842774
101	0x3c82bfe1	0.015960636
102	0xbdb2029e	-0.086919054
103	0xb99c9111	-0.00029862722
104	0x3da05f46	0.07830672
105	0xbd8dc25f	-0.06921839
106	0xbb5e8049	-0.0033950976
107	0xbba89937	-0.0051452178
108	0x3da34f9e	0.0797417
109	0x3c1d0767	0.009584284
110	0x3dacbf5d	0.08434937
111	0xbda2a7f5	-0.079421915
112	0x3ccd2645	0.025042662
113	0x3ce377f3	0.027767157
114	0xbd5d40e5	-0.054016966
115	0xbc164378	-0.009171359
116	0xbd2d478b	-0.042304557
117	0x37a6651b	1.9835823e-05
118	0xbd735f94	-0.059417322
119	0x3d951f83	0.07281401
120	0x3d2ef5e9	0.042714987
121	0xbced376a	-0.028957088
122	0x3b6ef839	0.003646387
123	0x3c6f12aa	0.014591852
124	0xbb796409	-0.003805401
125	0x3d9b0709	0.07569701
126	0x3da12735	0.07868806
127	0xbd40e93b	-0.047097426
