bike_sharing/AutogluonModels/ag-20220403_203319/models/NeuralNetTorch_BAG_L2/S1F3/net.params (torch, 215879 bytes, 9 tensors)

weight f4 [128, 22]
0	0xbda68a21	-0.08131815
1	0x3e5c4ed6	0.21514449
2	0xbe1d396e	-0.15353939
3	0xbe14265c	-0.14467758
4	0xbde1ac50	-0.11019194
5	0x3e04e56d	0.12978144
6	0x3dc0faee	0.09422861
7	0x3e520c1c	0.20512432
8	0x3d5cf03d	0.053940047
9	0x3d240cd1	0.040051285
10	0xbda2d8cc	-0.07951507
11	0xbcdf2ae7	-0.027242137
12	0xbe37eff5	-0.1796263
13	0xbdded852	-0.108811036
14	0xbdb9eb9b	-0.09078141
15	0x3c6f9e78	0.014625184
16	0x3deaeb28	0.11470634
17	0x3e21888e	0.15774748
18	0xbdd4b484	-0.10385993
19	0xbd8c8d18	-0.06862849
20	0x3dc430d6	0.09579627
21	0x3e34ce18	0.17656744
22	0xbe1ee63b	-0.15517513
23	0x3e79324f	0.24335597
24	0xbcef9de5	-0.029250095
25	0x3cd0b965	0.025479028
26	0x3e35133e	0.17683122
27	0xbe3cec95	-0.18449624
28	0xbdee4280	-0.116337776
29	0xbd86fa7b	-0.06590744
30	0xbdc3090b	-0.09523209
31	0x3e37cd30	0.17949367
32	0xbe0394c4	-0.12849718
33	0xbe393329	-0.18085922
34	0xbe5ef260	-0.21772146
35	0xbdd6655e	-0.10468553
36	0xbde948db	-0.11390849
37	0x3e5fc541	0.2185259
38	0x3e198d82	0.14995387
39	0x3cfd7244	0.030938275
40	0x3da06cbe	0.07833241
41	0xbdb8db1f	-0.09026169
42	0x3d39a159	0.04531989
43	0xbe05cb12	-0.13065746
44	0xbdef5f6e	-0.11688124
45	0xbec7fdc1	-0.39060786
46	0x3d89c643	0.067272685
47	0x3e1493f5	0.14509566
48	0xbdcd6c9b	-0.100304805
49	0x3c1311d0	0.008976415
50	0x3e096d11	0.13420512
51	0x3df101f5	0.117679514
52	0x3cfd0751	0.030887278
53	0x3d44ed54	0.048077896
54	0x3e0aee6d	0.13567515
55	0xbd20e645	-0.039282102
56	0x3c96a44e	0.018388893
57	0xbe2eb6d0	-0.17061925
58	0xbdfb38b7	-0.12266677
59	0xbdca666b	-0.09882816
60	0x3e0ea32f	0.13929437
61	0xba9c9891	-0.0011947324
62	0xbe15a856	-0.14614996
63	0x3daa6e54	0.08321825
64	0x3db6d7c3	0.08927872
65	0x3c98c960	0.01865071
66	0xbd9d04b8	-0.07666916
67	0x3e59658b	0.21230142
68	0x3e05e719	0.13076438
69	0x3deb85e3	0.11500146
70	0xbdc216cb	-0.09477004
71	0xbddfe423	-0.109321855
72	0x3d626b89	0.055278335
73	0x3e339400	0.17536926
74	0x3e00db7b	0.12583725
75	0x3e34031a	0.17579308
76	0x3dbcb037	0.09213298
77	0xbe35500d	-0.17706318
78	0x3c38ac4a	0.011271546
79	0xbe06737d	-0.13129993
80	0xbe83b5f6	-0.25724763
81	0x3e328fda	0.17437688
82	0x3e0f8f48	0.14019501
83	0xbe077e71	-0.13231827
84	0x3d2099bf	0.039209124
85	0xbdba3024	-0.09091213
86	0xba1c2dbc	-0.00059577427
87	0xbe3a5371	-0.18195893
88	0x3dcaa89a	0.098954394
89	0xbe907f37	-0.28222057
90	0x3d86b5da	0.06577654
91	0x3d789b08	0.060694724
92	0x3e50d89e	0.20395133
93	0x3d70710a	0.058701552
94	0xbe725526	-0.23665294
95	0xbdf48dc8	-0.11941105
96	0x3d9e95fc	0.07743451
97	0x3d93f2b9	0.0722403
98	0xbdfa3ec1	-0.122190006
99	0xbddea04e	-0.108704194
100	0x3e2b58a8	0.16733038
101	0x3e376103	0.17908101
102	0xbdbf1501	-0.09330178
103	0xbda8b687	-0.08237939
104	0xbe6fa283	-0.23401837
105	0x3c9c5ab2	0.019086216
106	0xbe011935	-0.12607272
107	0xbe0870d5	-0.13324292
108	0x3cb4085f	0.021976648
109	0x3dc179de	0.094470724
110	0xbe83f7d4	-0.25775015
111	0x3e828ed8	0.25499606
112	0xbde65d86	-0.11248307
113	0x3e2b963a	0.16756526
114	0x3d7cf76a	0.06175939
115	0xbd860bc6	-0.06545214
116	0x3d801c4f	0.062553994
117	0x3bcf44e9	0.0063253534
118	0x3c9a0b8a	0.01880433
119	0x3d12839b	0.03577004
120	0x3c23e61a	0.010003591
121	0x3cfae9ed	0.030629123
122	0xbe01d90c	-0.12680453
123	0x3dddd0f7	0.108308725
124	0xbe4313d1	-0.19050528
125	0xbdadd416	-0.08487718
126	0x3a869d49	0.0010270263
127	0xbd328343	-0.043582212
128	0xbdafc107	-0.08581739
129	0xbe1ce874	-0.15323049
130	0xbd832b47	-0.06404739
131	0x3db4b716	0.08823983
132	0xbe6a3515	-0.22871812
133	0xbe2d5f1b	-0.16930811
134	0x3da0270b	0.07819947
135	0xbd88f850	-0.06687987
136	0xbcfc107c	-0.03076958
137	0xbd24edfa	-0.040266015
138	0x3c6c88cc	0.014436912
139	0x3e24414e	0.16040537
140	0x3e34e322	0.1766477
141	0x3ddb9f4b	0.10723742
142	0x3e2e850d	0.17042942
143	0x3a1fb7fd	0.0006092785
144	0xbe280c40	-0.16410923
145	0xbe18c8e5	-0.14920385
146	0x3dfffdcb	0.12499579
147	0xbd1897fe	-0.037254326
148	0xbe171b5c	-0.1475653
149	0xbdec64ee	-0.11542688
150	0xbe654e4b	-0.22393148
151	0xbe623035	-0.22088702
152	0xbdbcefc2	-0.09225418
153	0x3e06aa02	0.1315079
154	0x3e99596c	0.29951036
155	0xbeba936b	-0.36440596
156	0x3df98873	0.12184229
157	0xbe19cbd8	-0.15019166
158	0xbcabc849	-0.020969527
159	0xbdb38e49	-0.08767373
160	0xbd4825f0	-0.048864305
161	0xbbc7392f	-0.006079815
162	0xbdd15305	-0.10220913
163	0xbdc603a0	-0.0966866
164	0x3aebcc22	0.0017989913
165	0x3b4e4c6c	0.0031478656
166	0xbd82d7a3	-0.06388786
167	0x3dc1d128	0.094637215
168	0xbe0da0d0	-0.13830876
169	0x3b6cf5db	0.0036157283
170	0x3e3aca71	0.18241288
171	0xbcf6fecd	-0.030150795
172	0x3e01ceb6	0.1267651
173	0x3de3ede9	0.11129362
174	0xbe2f841c	-0.1714024
175	0x3dc6fd6a	0.09716304
176	0x3e47f4a8	0.19526923
177	0xbea32aac	-0.31868494
178	0x3dc921dd	0.09820912
179	0xbe185d8a	-0.14879432
180	0x3cb2fb17	0.021848245
181	0xbdcb32f3	-0.09921827
182	0x3da571e8	0.080783665
183	0x3d6cc3db	0.05780397
184	0x3d69b78b	0.057059806
185	0x3d109017	0.035293665
186	0xbd4c7164	-0.049912825
187	0xbd5b3924	-0.05352129
188	0xbdd6cc75	-0.10488216
189	0x3d8fb6f9	0.07017321
190	0x3e307359	0.17231502
191	0x3da46390	0.080268025
192	0xbe40169b	-0.18758623
193	0xbb957026	-0.0045604883
194	0xbdfb1590	-0.12259972
195	0xbe142a74	-0.1446932
196	0xbe3defc6	-0.18548498
197	0x3daf6d91	0.0856582
198	0xbe61f819	-0.22067298
199	0xbe94feec	-0.2910074
200	0xbd001603	-0.031270992
201	0x3e3e1074	0.18560964
202	0xbe0921b6	-0.13391766
203	0xbdcba528	-0.099436104
204	0xbdb78e34	-0.0896267
205	0x3da026cc	0.078199
206	0xbcf54201	-0.0299387
207	0x3dae805c	0.08520576
208	0x3d93cb8a	0.07216556
209	0x3d85de7c	0.06536576
210	0xbd4b41aa	-0.04962317
211	0xbcec965a	-0.028880287
212	0x3cee4e0a	0.029089946
213	0xbd2ee6e7	-0.042700674
214	0x3b42961b	0.002969152
215	0x3b863f5b	0.004096908
216	0xbd87011f	-0.06592011
217	0xbe5c3b3e	-0.21506974
218	0x3e2844b4	0.16432458
219	0xbdece1fe	-0.11566542
220	0xbe3896fb	-0.18026344
221	0x3eabf0ed	0.3358225
222	0x3d341f07	0.043974902
223	0xbd5e666a	-0.05429689
224	0xbe0cd15e	-0.13751742
225	0x3dc43f4e	0.09582387
226	0xbe1a61e5	-0.15076406
227	0xbcbc25a9	-0.022967177
228	0xbd9a42c8	-0.07532269
229	0xbd2a39f0	-0.04155916
230	0x3d2551ed	0.040361334
231	0x3dda991f	0.10673737
232	0x3d02170e	0.031760268
233	0x3e25f1e3	0.16205554
234	0x3d648b87	0.055797126
235	0xbe31d916	-0.17367968
236	0x3db355c2	0.087565914
237	0xbd690c80	-0.056896687
238	0xbdf25417	-0.11832445
239	0x3c0d60c1	0.008629025
240	0x3dd24998	0.10267943
241	0x3dc33659	0.0953185
242	0xbe92807e	-0.28613657
243	0xbd8cbf93	-0.068724774
244	0x3d6d668f	0.057959136
245	0xbe5f6e58	-0.21819437
246	0x3dff2844	0.12458852
247	0xbe01f61a	-0.12691537
248	0x3d45b892	0.048271723
249	0xbb1ce97e	-0.0023942883
250	0xbcaa4a4a	-0.020787377
251	0xb9a9058d	-0.00032238328
252	0x3e1c8537	0.15285192
253	0xbd7ff15c	-0.062486038
254	0xbe2970e4	-0.1654697
255	0xbda3fb33	-0.08006897

bias f4 [128]
0	0xbe1e4de6	-0.15459403
1	0xbddc7163	-0.10763814
2	0x3a08f222	0.0005224069
3	0xbd969ffe	-0.07354735
4	0xbd804610	-0.06263363
5	0x3dfbb13a	0.12289663
6	0xbd8080bc	-0.06274554
7	0x3d78ed01	0.0607729
8	0x3e320f8f	0.17388748
9	0xbe17094e	-0.14749643
10	0xbe26af74	-0.16277868
11	0xbdc276ef	-0.09495341
12	0xbd1e2c5e	-0.03861653
13	0xbdbee2d0	-0.09320605
14	0xbd2917aa	-0.041282333
15	0xbbe6396d	-0.0070258887
16	0x3d2c6527	0.042088654
17	0x3e0bf2a6	0.13666782
18	0x3e0cc10f	0.13745521
19	0x3bb63c41	0.005561382
20	0xbbf0fc64	-0.007354306
21	0x3cf668e4	0.030079313
22	0x3baf18c3	0.005343528
23	0xbda8eebf	-0.08248662
24	0x3dd40229	0.103519745
25	0xbe87b02b	-0.26501593
26	0xbe2412f5	-0.16022857
27	0xbd592cbc	-0.053021178
28	0xbdb807be	-0.08985852
29	0xbe112f2e	-0.14178154
30	0xbe671347	-0.22565947
31	0x3e1cd5a3	0.15315871
32	0xbd83be78	-0.064328134
33	0xbdb3db12	-0.08782019
34	0xbdfe7822	-0.12425257
35	0x3d00ccb0	0.031445205
36	0xbe3c17f0	-0.18368506
37	0xbcf3e086	-0.029770147
38	0xba413f22	-0.0007371773
39	0x3d47e694	0.04880388
40	0x3d9f015f	0.077639334
41	0xbe1c7428	-0.15278685
42	0x3dc5e47f	0.09662723
43	0x3e0fed0e	0.14055273
44	0xbd1e50df	-0.038651343
45	0x3d946b88	0.072470725
46	0xbcdba178	-0.026810393
47	0x3d0b7c45	0.03405406
48	0x3c2ab7aa	0.0104197655
49	0xbde516ab	-0.11185964
50	0x3de54166	0.111941144
51	0xbe82b9cc	-0.25532377
52	0xbce6c9ed	-0.028172458
53	0xbe1f66b5	-0.15566523
54	0xbdcac010	-0.09899914
55	0xbe3a4ed9	-0.1819414
56	0xbe808448	-0.25100923
57	0x3d3ac4c4	0.045597807
58	0xbd8fbb30	-0.07018125
59	0xbdebbf40	-0.115110874
60	0xbc5a2fbc	-0.013317045
61	0xbd91d6e4	-0.07121065
62	0x3cde4831	0.027134033
63	0xbe17db8c	-0.14829844
64	0xbd1058d6	-0.03524097
65	0x3d516256	0.05111917
66	0x3d6f81db	0.05847345
67	0x3cf8a79d	0.030353362
68	0x3d189450	0.037250817
69	0x3e2b5792	0.16732624
70	0xbde9a2a0	-0.114079714
71	0x3e0374b9	0.12837495
72	0x3e4700d0	0.19433904
73	0xbe4caf9a	-0.19988862
74	0x3d0ecab6	0.03486129
75	0x3de81c17	0.11333483
76	0xbd99394d	-0.074816324
77	0x3dac0f78	0.08401388
78	0x3c98a878	0.01863502
79	0x3e074f26	0.13213786
80	0xbd0c17a0	-0.034202218
81	0xbdee6e1f	-0.11642098
82	0x3de8af21	0.11361528
83	0x3d9f3bb0	0.07775056
84	0x3e129b1d	0.14316984
85	0x3d5eaa1f	0.05436146
86	0x3e0aae32	0.13543013
87	0x3d6d2321	0.05789483
88	0x3d21e5b2	0.039525695
89	0xbda025d1	-0.07819713
90	0x3ca8161a	0.020518351
91	0xbe215997	-0.15756832
92	0x3cd034cb	0.025415799
93	0xbc4f5e1d	-0.012656716
94	0x3b2c9977	0.002633659
95	0xbe0fc47f	-0.14039801
96	0x3d02ec5a	0.031963684
97	0xbe2ec7de	-0.17068431
98	0x3dcdb1b1	0.100436576
99	0x3e0411bf	0.12897395
100	0xbe57f475	-0.21089347
101	0x3dfa71b1	0.12228716
102	0xbe3e2d65	-0.18572004
103	0xbd480889	-0.048836265
104	0x3d9a9850	0.075485826
105	0xbd418b6b	-0.0472521
106	0x3e1d4a38	0.15360343
107	0xbde654c0	-0.112466335
108	0x3a52687f	0.00080264354
109	0xbe2a061b	-0.16603892
110	0xbd9f7b91	-0.0778724
111	0x3e6ceae2	0.23136476
112	0x3dee3bf8	0.11632532
113	0x3d203df1	0.039121572
114	0xbd1c9074	-0.0382237
115	0xbe1b2f15	-0.15154679
116	0x3e01127a	0.12604704
117	0xbd1339e8	-0.035943896
118	0xbd28713c	-0.041123614
119	0xbe13c101	-0.14429094
120	0x3e204f70	0.15655303
121	0x3da0197c	0.07817361
122	0x3dd272d2	0.102758065
123	0x3cc2c09a	0.02377348
124	0xbe202972	-0.1564081
125	0x3dd74155	0.10510508
126	0x3cebc5e7	0.02878089
127	0x3da99985	0.08281235

weight f4 [128, 128]
0	0xbc790d05	-0.015200858
1	0xbd827532	-0.063700095
2	0x3dcb7de2	0.099361196
3	0x3d027538	0.03185007
4	0xbd322dad	-0.04350059
5	0xbbcc0df4	-0.0062272493
6	0xbca958f6	-0.020672303
7	0x3c241ada	0.010016168
8	0x3dab83fe	0.08374785
9	0xbd31a180	-0.04336691
10	0x3d6b7137	0.057481017
11	0x3d8d27ed	0.06892381
12	0x3af79c6a	0.001889122
13	0xbba8dca6	-0.0051532565
14	0x3d2ec9a6	0.042672776
15	0xbd56a65c	-0.052404746
16	0x3cdf006d	0.027221883
17	0xbd33b9ac	-0.043878242
18	0x3b444dc0	0.002995357
19	0xbdd92ad7	-0.10603874
20	0x3dc6ab62	0.097006574
21	0x3db07b43	0.0861726
22	0x3d5c8fa0	0.05384791
23	0xba6242ad	-0.0008631151
24	0x3d573aba	0.05254624
25	0x3d50a4f4	0.05093856
26	0x3d9db7bb	0.077010594
27	0x3d361bc6	0.04446008
28	0xbdcd73b1	-0.10031832
29	0x3c642ff2	0.013927447
30	0x3c2aeeaf	0.010432883
31	0xbc1d1551	-0.009587602
32	0x3d946d14	0.072473675
33	0x3ba0f15f	0.004911586
34	0x3c889666	0.016673278
35	0x3d82ccda	0.063867286
36	0xbc9a62ce	-0.018845942
37	0x3cf66505	0.030077467
38	0xbb9c677c	-0.0047730785
39	0xbc2512df	-0.0100753
40	0xbd6cdb64	-0.057826415
41	0xbcf36a8c	-0.029713891
42	0x3c28040c	0.010254871
43	0xbd3073dc	-0.043079242
44	0x3c3d95c0	0.011571348
45	0x3d854a71	0.06508339
46	0x3dc3490c	0.09535417
47	0x3be096a8	0.006853897
48	0x3c153629	0.009107151
49	0xbdb3a6cb	-0.087720476
50	0x3cfc5d33	0.03080616
51	0xbd415465	-0.047199626
52	0x3d8cdaf3	0.06877699
53	0xbce07fc4	-0.027404673
54	0xbd426cb0	-0.047466934
55	0xbd3e9ce5	-0.046536345
56	0xb9bb2331	-0.0003569364
57	0xbd67e0e2	-0.05661095
58	0xbd828e0a	-0.06374748
59	0x3d8b8390	0.06812203
60	0x3d40fe82	0.047117718
61	0xbd9034c0	-0.07041311
62	0xbc7b25b0	-0.01532881
63	0x3cb8edfb	0.022574415
64	0x3de8d1dc	0.113681525
65	0xbcdd9e09	-0.027052896
66	0x3d84066c	0.064465374
67	0x3d060b2f	0.03272551
68	0xbcd03374	-0.02541516
69	0x3d826614	0.06367126
70	0xbdb2f2bb	-0.087377034
71	0x3dbe3d8e	0.092890844
72	0x3dcf7187	0.101290755
73	0xbb9d8673	-0.0048072874
74	0x3cfdc9ef	0.030980079
75	0x3dc5ed6e	0.09664427
76	0x3d7b0998	0.061288446
77	0x3b79664f	0.0038055365
78	0x3cbf1c33	0.023328876
79	0xbd3b4211	-0.045717303
80	0x3d57df45	0.05270316
81	0xbc20a158	-0.009804092
82	0x3dccbe18	0.09997195
83	0xbcf9d6ea	-0.030497987
84	0x3c64fa3e	0.013975678
85	0xbca92e72	-0.02065203
86	0x3da18e9c	0.07888529
87	0xbc2f535a	-0.010701025
88	0x3d8f004a	0.06982477
89	0xbd8fa02e	-0.07012974
90	0xbd1b0ab7	-0.037852015
91	0x3c8cc51f	0.017183838
92	0xbd3273c5	-0.043567438
93	0xbd44a29e	-0.048006646
94	0x3d823be9	0.06359083
95	0xbcb11b25	-0.021619389
96	0xbd165bcc	-0.036708638
97	0xbccf21b2	-0.025284622
98	0x3d4b06ae	0.049566917
99	0xbadc8fc1	-0.001682751
100	0xbd2c99e8	-0.042138964
101	0xbd30e0ee	-0.04318326
102	0x3d892ab5	0.06697599
103	0xbbc95a82	-0.0061448226
104	0xbceaa5ce	-0.028643515
105	0xbd833bd8	-0.06407899
106	0x3c86b14d	0.016441965
107	0x3d1ed183	0.038774025
108	0x3d48d44b	0.049030583
109	0x3d81c522	0.06336428
110	0x3dc95801	0.098312385
111	0x3d90c1cb	0.07068213
112	0x3c2b5c25	0.010458981
113	0x3d388664	0.04505004
114	0xbc93a159	-0.018021272
115	0x3d19fbb1	0.037593547
116	0x3da06264	0.078312665
117	0xbc223af1	-0.009901748
118	0xbc1cfcad	-0.009581727
119	0xbcbad0bf	-0.022804616
120	0xbd51e506	-0.051243804
121	0x3d37678f	0.044776496
122	0x3dbef1cd	0.093234636
123	0xbd84ac46	-0.06478171
124	0x3d56bb5e	0.05242478
125	0x3cf12b92	0.029439721
126	0x3cff8e36	0.031195741
127	0xbc4db665	-0.012555693
128	0x3dddd90f	0.10832416
129	0x3da57879	0.08079619
130	0xbd8d6039	-0.06903119
131	0xbc5e24b7	-0.013558558
132	0x3d4f2b7b	0.050578576
133	0xbbf2752d	-0.0073992223
134	0x3b603749	0.003421264
135	0xbe0ad5c2	-0.13558105
136	0xbd7d3634	-0.06181927
137	0xbd19ec19	-0.037578676
138	0x3d30d9c0	0.043176413
139	0x3cde6608	0.027148262
140	0xbd026db2	-0.031842895
141	0x3d29e03d	0.041473616
142	0x3c94d11e	0.018166121
143	0xbcb50153	-0.022095358
144	0xbbd1846f	-0.006393961
145	0x3daa3853	0.08311524
146	0xbb52c89b	-0.0032163027
147	0x3d8887d4	0.06666532
148	0x3d24ed5e	0.040265433
149	0xbcca822f	-0.02472028
150	0xbd6bbe08	-0.057554275
151	0x3d049085	0.032364387
152	0xbd25a988	-0.04044488
153	0xbc7f051c	-0.015565183
154	0xbcc9e79d	-0.024646575
155	0x3d60818a	0.054811038
156	0xbd890a35	-0.066914
157	0xbcca2f48	-0.024680749
158	0x3bffef59	0.007810515
159	0x3c6e1d87	0.014533407
160	0x3da42bd2	0.080161706
161	0xbc011b2f	-0.007880016
162	0xbd6ba69a	-0.05753193
163	0x3c2c6390	0.010521784
164	0x3dd67c4d	0.10472927
165	0x3d2262ff	0.03964519
166	0xbd970fd5	-0.073760666
167	0xbd85c90c	-0.06532487
168	0xbd0c4554	-0.034245804
169	0x3c0a8342	0.008454146
170	0x3bff9fcd	0.007801032
171	0xbd8328b4	-0.06404248
172	0xbbd8760d	-0.0066058696
173	0xbd21b85e	-0.039482467
174	0x3d9875b2	0.074443236
175	0xbd5fa672	-0.054602094
176	0x3db7a165	0.089663304
177	0xbdbc5879	-0.09196562
178	0xbd75dd02	-0.060025223
179	0xbdc4aa35	-0.09602777
180	0x3b1f6dc6	0.0024326905
181	0xbdf070dc	-0.11740276
182	0x3d3ee9c4	0.046609655
183	0xbc35eea8	-0.011104263
184	0x3d0953ee	0.033527307
185	0x3d5dccd1	0.054150406
186	0xbd8c74e5	-0.06858233
187	0x3d264fcb	0.04060344
188	0xbcd63a7a	-0.02615093
189	0xbdb6cb4f	-0.08925497
190	0x3d1b615c	0.037934646
191	0x3db1fce5	0.08690814
192	0x3ce6103c	0.028083913
193	0xbd49c711	-0.04926211
194	0xbe01fea6	-0.12694797
195	0x3cd2d0d0	0.025734335
196	0xbd8e617e	-0.06952189
197	0x3da30efc	0.079618424
198	0x3d83c988	0.064349234
199	0xbc686007	-0.014183051
200	0xbcb86f8c	-0.022514127
201	0xbd7625ba	-0.060094573
202	0x3c952714	0.01820711
203	0x3da0ace2	0.07845475
204	0xbe247dba	-0.16063586
205	0xbdc75ac6	-0.097341105
206	0xbcdb1169	-0.0267417
207	0x3ce65dfb	0.028120985
208	0xbdf53a39	-0.11973996
209	0xbe1c6c96	-0.15275797
210	0x3ce1c836	0.027561288
211	0x3d0e436d	0.03473227
212	0x3cf93703	0.03042174
213	0xbd5730b0	-0.052536666
214	0xbd913c63	-0.07091596
215	0xbd9ea71c	-0.07746717
216	0x3d4f8f0e	0.050673537
217	0x3d02940b	0.031879466
218	0xbdd14cf4	-0.10219756
219	0x3d8301e6	0.063968465
220	0xbce83107	-0.02834369
221	0xbc897f70	-0.0167844
222	0xbc17f14d	-0.009273839
223	0xbdb709c9	-0.08937413
224	0xbdaf8592	-0.085703984
225	0x3d65f4ac	0.05614154
226	0xbdc8f513	-0.09812369
227	0xbced88e9	-0.028995948
228	0x3d2055c9	0.03914431
229	0x3c1671d4	0.009182412
230	0x3d35c1c0	0.044374228
231	0xbd8a25c7	-0.06745487
232	0xbd024aa8	-0.03180948
233	0x3c32541e	0.010884313
234	0xbc080367	-0.008301592
235	0xbe177216	-0.14789614
236	0xbd0a9c3c	-0.033840403
237	0x3c453301	0.012036086
238	0xbd810230	-0.06299245
239	0xbd5e69d3	-0.05430014
240	0x3af89f90	0.0018968452
241	0x3dc5725a	0.096409515
242	0xbd4286f0	-0.047491968
243	0xbd9def56	-0.07711665
244	0xbd1d0ee0	-0.038344264
245	0x3c273c1b	0.010207201
246	0x3d217fe5	0.03942861
247	0xbd61ffc4	-0.055175558
248	0x3c6e0614	0.014527816
249	0x3db233f7	0.08701318
250	0x3cd3b790	0.025844365
251	0xb8a2f952	-7.7712015e-05
252	0xbd50a0ae	-0.050934486
253	0x3d067134	0.032822803
254	0x3d98e03d	0.07464645
255	0x3ce03e70	0.027373523

bias f4 [128]
0	0xba2bf5bb	-0.0006559749
1	0x3cc2667a	0.023730505
2	0xbdf7d3ec	-0.12100968
3	0xbc09f08a	-0.008419165
4	0x3cf02a66	0.029317092
5	0xbdb33398	-0.08750075
6	0xbbaaacb0	-0.0052085742
7	0xbd6dcfed	-0.05805962
8	0xbd80798c	-0.06273183
9	0x3da68489	0.08130748
10	0x3c60bbf3	0.013716686
11	0x3db118c1	0.086472996
12	0x3dbb0f4b	0.09133776
13	0xbd6584a8	-0.056034714
14	0xbcb95b3d	-0.022626514
15	0xbd5cd3d7	-0.053912964
16	0x3cdabb48	0.02670063
17	0x3cb1dfd8	0.021713182
18	0xbcab1767	-0.020885183
19	0x3dd1d233	0.102451704
20	0xbccc6fad	-0.024955595
21	0x3d652cb7	0.055950847
22	0x3cc21d36	0.02369557
23	0xbd043698	-0.032278627
24	0x3d4a8eb1	0.049452487
25	0x3d39ab11	0.045329157
26	0x3adef8eb	0.0017011439
27	0xbd9cb69f	-0.0765202
28	0x3d85f52b	0.06540903
29	0x3da8c4bb	0.08240648
30	0x3d358a44	0.044321314
31	0x3cc6de89	0.024276035
32	0x3d39ad61	0.045331363
33	0x3d18c5ed	0.03729813
34	0xbcbe344d	-0.023218298
35	0xbd4c9530	-0.049946964
36	0xbd5a5e9f	-0.053312894
37	0x3d86b894	0.06578174
38	0xbd785cc9	-0.06063536
39	0x3d5cac0e	0.05387502
40	0xbdbfed88	-0.09371477
41	0xbd3d2d07	-0.04618552
42	0x3d7c344b	0.061573308
43	0xbd3a0862	-0.04541815
44	0x3c63cf92	0.013904469
45	0x3d8da0b3	0.069154166
46	0x3b51d88d	0.0032019943
47	0x3d5b86d9	0.053595398
48	0x3abb6841	0.0014298038
49	0xbdbc388e	-0.091904745
50	0xbcb0a17a	-0.021561373
51	0xbd1e295a	-0.038613655
52	0xbd153e42	-0.036436327
53	0xbd96ab28	-0.07356864
54	0xbc435d9a	-0.011924172
55	0x3db8bb81	0.090201385
56	0x3da5f5f1	0.0810355
57	0x3d4901d8	0.049074024
58	0xbd8f9004	-0.07009891
59	0x3c9db9ed	0.019253695
60	0x3cbb2e74	0.022849299
61	0x3da7c623	0.081920885
62	0xbd66ae42	-0.05631853
63	0x3d484cb5	0.04890128
64	0x3d8cd0cc	0.06875762
65	0xbc2b40ea	-0.010452488
66	0xbdf687e6	-0.12037639
67	0x3cb8b845	0.022548804
68	0x3d4a6e22	0.049421437
69	0xbdca06ab	-0.09864553
70	0x3d916e9a	0.07101174
71	0xbb908158	-0.00440995
72	0xbe0b6da3	-0.13616042
73	0x3d11e3d1	0.035617653
74	0x3cf5b3d7	0.02999298
75	0x3c1b0993	0.009462732
76	0xbd8084b1	-0.06275309
77	0xbd320cd3	-0.04346926
78	0x3d6c56fa	0.057700135
79	0x3d524213	0.051332545
80	0x3d854da7	0.06508952
81	0x3d100488	0.03516057
82	0x3d7b1858	0.061302513
83	0xbd8546b5	-0.06507627
84	0x3d3d3ecb	0.046202462
85	0x3d4038fe	0.046929352
86	0x3bcc99e1	0.0062439297
87	0x3db56c5b	0.08858558
88	0xbd0a5833	-0.03377552
89	0x3dba0a1e	0.09083961
90	0xbbed6906	-0.007245186
91	0x3cd8b6e0	0.02645439
92	0xbcd0dc0e	-0.025495555
93	0x3da2ab11	0.079427846
94	0xbcb665ed	-0.022265399
95	0xbb6ae890	-0.0035844184
96	0x3d99962b	0.074993454
97	0x3bd5444d	0.006508386
98	0xbd114fca	-0.035476483
99	0xbd0eca83	-0.0348611
100	0x3da9de9d	0.08294413
101	0x3d94ccc7	0.07265621
102	0xbcbafcfa	-0.022825707
103	0xbc21259d	-0.009835628
104	0x3db68a57	0.08913105
105	0x3d45fe39	0.04833815
106	0x3d962663	0.073315404
107	0xbca73e93	-0.02041558
108	0xbceaf33f	-0.028680442
109	0xbdb6dc2a	-0.08928712
110	0xbdab0184	-0.083498985
111	0xbc949d3c	-0.018141381
112	0x3c51a035	0.012794544
113	0xbd6f2d3e	-0.058392756
114	0xbd1022b2	-0.035189338
115	0x3c5c7ed7	0.013457975
116	0xbc537461	-0.012906165
117	0xbd80860e	-0.06275569
118	0x3d85e4e5	0.06537799
119	0xbd326408	-0.04355243
120	0x3c7844d7	0.015153131
121	0x3d934dd5	0.0719258
122	0xbdb7432c	-0.08948359
123	0x3bded3ca	0.0068001496
124	0xbdfbed2e	-0.12301098
125	0x3dcb6158	0.09930676
126	0xbcf3f696	-0.029780667
127	0x3d982e9f	0.07430767

weight f4 [128, 128]
0	0x3c326420	0.0108881295
1	0xbcd5d7b3	-0.02610383
2	0x3d0716e3	0.03298081
3	0xbd54aa91	-0.051920477
4	0xbd458b3f	-0.0482285
5	0xbd4fc9ca	-0.05072955
6	0x3dd8a8f1	0.10579098
7	0xbdc93cc0	-0.0982604
8	0x3c83b20c	0.01607611
9	0x3def78d2	0.116929665
10	0xbd0a9b62	-0.03383959
11	0xbd75d765	-0.06001987
12	0xbde61ef9	-0.11236376
13	0xbc880613	-0.016604459
14	0xbca86fad	-0.020561064
15	0xbd87a0fa	-0.06622501
16	0x3d887323	0.066625856
17	0xbdf75954	-0.12077585
18	0x3d6555af	0.055989917
19	0x3cc8ab18	0.024495646
20	0xbdad9981	-0.08476544
21	0xbdd565d9	-0.104198165
22	0xbd8188f5	-0.063249506
23	0xbdd16426	-0.1022418
24	0xbdb25ee6	-0.08709507
25	0xbc2f1c51	-0.0106879035
26	0x3d477569	0.048695955
27	0xbdddfee4	-0.10839632
28	0x3d7924e2	0.06082619
29	0xbd61cb77	-0.05512568
30	0x3d8eb07e	0.06967257
31	0xbd863924	-0.065538675
32	0xbdb6b8ba	-0.089219525
33	0x3c5fc296	0.013657233
34	0x3d378eb7	0.044813838
35	0x3c569d1e	0.013098983
36	0x3db4f838	0.088364065
37	0x3c968ccf	0.01837769
38	0x3c005102	0.007831814
39	0xbd70842f	-0.05871981
40	0x3cfb6d1f	0.030691681
41	0xbda74191	-0.08166803
42	0x3d788ea5	0.06068291
43	0xba351b3b	-0.00069086597
44	0x3de24d5f	0.110499136
45	0x3c57b203	0.013165
46	0x3d66d358	0.056353897
47	0x3db2ce1a	0.08730717
48	0xbb80d707	-0.0039318833
49	0xbdae7aac	-0.085194916
50	0xbc535ed3	-0.012901026
51	0x3da52ca0	0.08065152
52	0x3d32440a	0.04352192
53	0xbd12c9d9	-0.03583703
54	0x3c771e43	0.015082899
55	0xbd8e705c	-0.069550246
56	0x3d7d49ea	0.061838068
57	0xbd3c7485	-0.04600956
58	0xbdf07899	-0.11741752
59	0x3c206107	0.009788758
60	0xbd06050a	-0.03271965
61	0x3a229752	0.0006202358
62	0x3cb74ff1	0.022376986
63	0x3c5f1149	0.013614961
64	0xbd008aee	-0.031382494
65	0xbdd24be2	-0.1026838
66	0xbd40c104	-0.047059074
67	0xbcba6ec8	-0.022757903
68	0xbbabe944	-0.0052463133
69	0xbde3d877	-0.11125272
70	0xbd21fb6b	-0.03954641
71	0xbd93c95f	-0.07216143
72	0xbb8747cc	-0.004128432
73	0x3d82803e	0.063721165
74	0x3d2c4a3a	0.042062975
75	0xbc6e655a	-0.014550531
76	0xba8790cf	-0.0010342839
77	0xbd97429f	-0.07385754
78	0xbd075ccd	-0.033047486
79	0x3bf9013d	0.0075990246
80	0xbdedd24d	-0.11612377
81	0xbdab12ad	-0.083531715
82	0xbd9e2323	-0.077215455
83	0xbdc3a328	-0.09552604
84	0xbc45755c	-0.012051906
85	0x3cf4418e	0.029816415
86	0x3da04a19	0.07826633
87	0xbb40cf30	-0.0029420368
88	0x3d5a9b64	0.05337085
89	0xbde1f37f	-0.11032771
90	0xbdbf298c	-0.09334096
91	0x3d062a4c	0.03275518
92	0x3d8838f8	0.06651491
93	0xbd9e2fc0	-0.07723951
94	0x3c936074	0.017990328
95	0x3cc5a9dd	0.024128849
96	0xbddf21f2	-0.108951464
97	0xbd032149	-0.032014165
98	0x3dc138c6	0.09434657
99	0xbc2ab98e	-0.010420216
100	0x3d3cfdf9	0.046140645
101	0xbd6aa93f	-0.057290312
102	0x3c97d981	0.018536331
103	0xbbf7aa3b	-0.007558135
104	0x3bf7b267	0.007559109
105	0xbd7168f8	-0.058937997
106	0x3caae3a8	0.020860508
107	0xbc7543be	-0.014969764
108	0xbd19455a	-0.037419654
109	0x3d4a350b	0.049366992
110	0xbd8940ff	-0.0670185
111	0x3d0235b7	0.031789508
112	0xbdd54212	-0.104129925
113	0xbcba2623	-0.022723263
114	0x3da4ca27	0.0804637
115	0x3c4d5bfc	0.012534138
116	0x3d97fdb5	0.07421438
117	0xbd9aa8f6	-0.07551758
118	0x3d301b29	0.042994652
119	0x3d1aac3f	0.037761923
120	0xbde3961c	-0.111126155
121	0xbd52c741	-0.051459555
122	0x3db5b721	0.0887282
123	0xbc9711d1	-0.018441113
124	0xbc883822	-0.016628329
125	0xbd95f537	-0.07322162
126	0x3b00df24	0.0019664252
127	0x3d551365	0.05202045
128	0x3d23daa6	0.04000344
129	0xbc843b52	-0.016141567
130	0xbc726d5c	-0.014796581
131	0xbd817229	-0.063206024
132	0x3c497bdf	0.0122976
133	0xbb325e38	-0.0027216803
134	0x3ccb7ca8	0.024839714
135	0xbc1e14ea	-0.009648541
136	0x3c0be45c	0.008538332
137	0xbcdf3bd8	-0.027250215
138	0x3c80531b	0.015664628
139	0x3b9f93ff	0.0048699374
140	0x3c2ce801	0.010553361
141	0x3ba95905	0.0051680827
142	0x3c0d9d28	0.008643426
143	0xbb41fca1	-0.0029600041
144	0xbd8b4dd1	-0.06801952
145	0xbd9bda34	-0.07609978
146	0xbd5803c4	-0.052737966
147	0xbb653a17	-0.0034977251
148	0xbc1922db	-0.009346689
149	0xbbe2eef4	-0.006925458
150	0xbcabb8cb	-0.02096214
151	0xbbe4aafb	-0.0069783903
152	0xbd97da9a	-0.07414742
153	0x3d63a05f	0.055572864
154	0xbd2c7761	-0.042106036
155	0xbc4de228	-0.012566127
156	0xbb1b432c	-0.002369116
157	0xbc070f59	-0.008243405
158	0xba8c5f83	-0.0010709617
159	0xbc01eb21	-0.007929594
160	0x3aae3277	0.0013290186
161	0x3b166895	0.002295052
162	0x3a9e669c	0.0012085023
163	0xbbb6c483	-0.0055776252
164	0x3c5dc298	0.013535164
165	0x3cd9ebb8	0.026601657
166	0xbbb194bb	-0.0054193414
167	0x3ce77c4d	0.028257513
168	0xbc763c9c	-0.015029099
169	0x3baa08ec	0.005189052
170	0xbce77e98	-0.028258607
171	0xbd891460	-0.06693339
172	0xbd264576	-0.040593587
173	0xbc94b717	-0.01815371
174	0x397694ac	0.00023515773
175	0xbc5b81c8	-0.0133976415
176	0xbc609329	-0.013706961
177	0xbcdd81b4	-0.027039386
178	0xbd8286d6	-0.06373374
179	0xbad11288	-0.0015950957
180	0xbc285cd8	-0.010276042
181	0x8401380f	-1.5189618e-36
182	0xbc0e09c9	-0.008669325
183	0x3a106554	0.0005508263
184	0xbd133e6c	-0.035948202
185	0x3c9a800d	0.018859887
186	0x3c527206	0.012844568
187	0x3c85d665	0.016337583
188	0xbc207a05	-0.009794717
189	0xbc892d73	-0.016745305
190	0xbb70bd00	-0.0036733747
191	0x3b446e38	0.0029972922
192	0xbd45d40e	-0.048297934
193	0xbbf631de	-0.007513269
194	0xbc272e95	-0.010203977
195	0xbd393a6a	-0.045221724
196	0xbc830b7c	-0.015996687
197	0xbcb363ca	-0.02189817
198	0xbd20eede	-0.0392903
199	0x3d1be509	0.03806022
200	0xbc565d20	-0.013083726
201	0xbc2a4971	-0.010393486
202	0xbbfbb370	-0.0076813027
203	0x3b585798	0.0033011194
204	0xbc641564	-0.013921116
205	0x3d69e04a	0.057098664
206	0xbcb14711	-0.021640332
207	0xbd82d2f1	-0.0638789
208	0xbd1d0656	-0.03833612
209	0x3c14c9ae	0.009081287
210	0xbc51dbed	-0.012808782
211	0xbc0296e6	-0.007970547
212	0xbc0d6ee0	-0.008632392
213	0x3d37bb64	0.044856444
214	0xbc990b0a	-0.018682022
215	0xbb04b3ab	-0.0020248692
216	0x3b362750	0.0027794428
217	0xbc508d5b	-0.012729014
218	0xbcd907ae	-0.02649292
219	0x3c7460f5	0.0149156945
220	0x3ced7391	0.02898577
221	0xbb8977ce	-0.00419519
222	0xbc2dcc7b	-0.010607834
223	0x396cc981	0.0002258178
224	0x3c810c85	0.01575304
225	0xbcbd1b19	-0.02308421
226	0xbb63880a	-0.0034718537
227	0xbc0890be	-0.0083352905
228	0x3c3f8e18	0.011691593
229	0xbcaa0536	-0.020754438
230	0xbb13b0e9	-0.0022535867
231	0xbb465ece	-0.003026891
232	0xba189230	-0.00058201235
233	0xbc42d090	-0.0118905455
234	0xbbc88c03	-0.0061202063
235	0x3c031265	0.007999991
236	0xba8b1699	-0.0010611593
237	0xbd85530b	-0.0650998
238	0x83de48bb	-1.3064685e-36
239	0xbc15fb27	-0.009154118
240	0x3b831ca1	0.0040012156
241	0xbce16af9	-0.027516829
242	0xbd03b2e4	-0.032153025
243	0xbd0a3194	-0.033738688
244	0xbd3db15f	-0.046311732
245	0x3c8ca8aa	0.017170269
246	0x3c92b3a1	0.01790792
247	0xbd270400	-0.0407753
248	0xbb7bf673	-0.0038446456
249	0xbc79be06	-0.015243059
250	0xbbd860b3	-0.0066033243
251	0x3c941a3e	0.01807892
252	0xbad50af2	-0.0016253872
253	0x3d802560	0.06257129
254	0x3d31f6ad	0.04344814
255	0xbd570201	-0.052492145

bias f4 [128]
0	0xbd2e00eb	-0.042481344
1	0xbca35877	-0.019939644
2	0xbd969b02	-0.07353784
3	0xbdb82c88	-0.08992869
4	0x3c0f4d72	0.008746492
5	0xbd0d22ad	-0.034456898
6	0xbce4147d	-0.0278418
7	0xbcdedd34	-0.027205087
8	0xbd9c33a9	-0.07627041
9	0x3da6542a	0.08121522
10	0x3cc5250a	0.024065513
11	0xbc02997d	-0.007971165
12	0x3abbea75	0.0014336841
13	0x3da4246b	0.08014759
14	0xbcf0d63b	-0.029399028
15	0x3cadb83e	0.021206018
16	0x3c58e65a	0.013238514
17	0x3cc4cbcc	0.02402296
18	0xbccbf3d4	-0.02489654
19	0xbd78eb64	-0.06077136
20	0x3dbb2138	0.09137195
21	0xbe03cb17	-0.12870441
22	0xbd6b2496	-0.057407938
23	0x3d8a4e7f	0.06753253
24	0xbd415b45	-0.047206182
25	0x3d2a8ddc	0.041639194
26	0x3dc801f5	0.09765998
27	0x3c309c5a	0.010779465
28	0x3bc3ca9b	0.00597508
29	0xbcbbffa6	-0.022949051
30	0x3dae9770	0.08524978
31	0x3da91856	0.08256595
32	0xbbefc9e9	-0.0073177707
33	0xbcbd1756	-0.023082417
34	0x3d82d7b4	0.06388798
35	0xbcaff365	-0.021478364
36	0x3c5e68e4	0.013574813
37	0x3d1b5afc	0.037928566
38	0xbb83026b	-0.003998091
39	0x3d8bd68e	0.068280324
40	0xbddf6a1e	-0.10908912
41	0xbdbd1418	-0.09232348
42	0x3da88bdd	0.08229802
43	0x3dd37b78	0.10326284
44	0xbd042e32	-0.032270618
45	0x3d7df204	0.061998382
46	0x3c83d901	0.016094686
47	0x3c65b09a	0.014019156
48	0xbd06d1ec	-0.03291504
49	0xbcd7d6c7	-0.026347531
50	0x3da10f8f	0.07864296
51	0x3d5b65e4	0.053563967
52	0x3ddbbd51	0.107294686
53	0x3dbf97c7	0.09355121
54	0x3dbca83c	0.09211776
55	0x3d8dc623	0.06922557
56	0xbd184cfd	-0.037182797
57	0xbd1018a7	-0.03517976
58	0x3dabc775	0.08387653
59	0xbd37fb31	-0.04491729
60	0xbc188db7	-0.009311131
61	0x3dac5acb	0.08415755
62	0x3cf6034d	0.03003087
63	0x3d258990	0.040414393
64	0x3d57e13e	0.052705042
65	0x3db98a3a	0.09059568
66	0x3d463316	0.048388563
67	0x3d4cba70	0.04998249
68	0x3d8f3092	0.06991686
69	0xbc2771c5	-0.010219996
70	0xbbc476d3	-0.0059956103
71	0x3df9ad92	0.12191309
72	0x3c437b8e	0.011931313
73	0x3b4506cc	0.0030063866
74	0x3c7e7753	0.015531379
75	0x3dc22a0a	0.094806746
76	0x3d4611bd	0.04835676
77	0x3c5d51f3	0.013508308
78	0xbc88d9e8	-0.016705468
79	0x3d3559cc	0.04427509
80	0x3dc226a0	0.094800234
81	0x3cba5f1e	0.022750434
82	0xbc487a75	-0.012236227
83	0x3dad3bb2	0.084586516
84	0x3c0d2121	0.008613856
85	0x3c77dfc2	0.015129032
86	0x3b7120e3	0.0036793284
87	0xbde95a8b	-0.11394223
88	0x3dc99673	0.09843149
89	0x3d84c81b	0.064834796
90	0x3d68899f	0.05677187
91	0x3dcfa293	0.101384304
92	0x3d1a80b6	0.037720405
93	0x3dc2e92f	0.095171325
94	0x3db3a178	0.08771032
95	0x3dcf3dfc	0.101192445
96	0xbd613171	-0.05497879
97	0x3dc2e07b	0.095154725
98	0x3db98221	0.09058023
99	0x3cd42611	0.025897058
100	0x3bf06a80	0.0073369145
101	0x3dc68e5d	0.096951224
102	0x3ccaa70d	0.02473786
103	0x3da7ea56	0.08198993
104	0xbca98ab6	-0.020696025
105	0x3ccb3c61	0.024809064
106	0xbd40e456	-0.047092758
107	0x3e0a6ec7	0.1351882
108	0x3d518af9	0.051157925
109	0x3c172241	0.009224475
110	0xbd667303	-0.056262027
111	0x3d51aa04	0.05118753
112	0x3d82c2e3	0.06384828
113	0xbd79c0f3	-0.060975026
114	0x3b8de70d	0.004330522
115	0x3ddbd6c8	0.10734326
116	0x3d7771bd	0.060411204
117	0xbcc8847c	-0.024477236
118	0x3d4f72a5	0.050646443
119	0xbbb7cbfd	-0.005609034
120	0x3c3ecdb5	0.011645724
121	0x3d683aff	0.056696888
122	0x3d9a00f2	0.075197116
123	0x3d27213d	0.040803183
124	0x3d554189	0.052064452
125	0xbc477948	-0.012174912
126	0xbd28bb81	-0.041194443
127	0x3af048d3	0.001833225

weight f4 [128, 128]
0	0x3d6baf85	0.057540435
1	0x3d5aa7a0	0.053382516
2	0xbda2be9e	-0.079465136
3	0xbcd20e16	-0.025641482
4	0xbd92449e	-0.07141994
5	0xbd4ce5b4	-0.05002375
6	0xbcb49c93	-0.022047317
7	0xbc611f3a	-0.013740355
8	0xbd46307c	-0.048386082
9	0x3de9ebaf	0.11421906
10	0xbe04c717	-0.12966572
11	0x3d13343e	0.035938494
12	0x3dcb1dc4	0.09917787
13	0x3b31671c	0.0027069515
14	0x3ce3a732	0.027789686
15	0xbd62a95e	-0.055337302
16	0x3db4955d	0.08817551
17	0x3dc40374	0.09570971
18	0xbc411eb1	-0.011787103
19	0x3cab05a0	0.020876706
20	0x3d8b2bf1	0.067954905
21	0x3e261657	0.1621946
22	0xbd316a6b	-0.04331438
23	0x3dbf8cfe	0.09353064
24	0x3d2a2f8a	0.041549243
25	0x3d935d9c	0.07195589
26	0xbd57627c	-0.052584156
27	0x3da22487	0.07917123
28	0x3d7f6d3d	0.062360037
29	0xbdac4559	-0.084116645
30	0x3cef3507	0.02920009
31	0x3d253280	0.040331364
32	0xbcf9b426	-0.03048141
33	0xbb0b118b	-0.0021220173
34	0x3da9b3f3	0.08286276
35	0x3dd0c626	0.10194044
36	0x3ca18e29	0.019721108
37	0x3d005796	0.03133353
38	0x3d3231a5	0.043504376
39	0xbdc82c65	-0.097740926
40	0xbcdfa93d	-0.027302379
41	0x3c7dc53e	0.015488921
42	0xbcbbfa10	-0.022946388
43	0x3d8e5aef	0.06950938
44	0xbb324fb3	-0.002720815
45	0xbd14cc67	-0.036327746
46	0x3d8e945a	0.069618896
47	0x3db19d3a	0.08672567
48	0xbc99079d	-0.018680388
49	0x3d3d98a2	0.04628814
50	0xbd4e64b5	-0.05038901
51	0xbda9b5bf	-0.082866184
52	0xbd2516da	-0.040304996
53	0x3c7c561b	0.0154013885
54	0x3c6bece4	0.014399741
55	0x3dd906b3	0.10596981
56	0x3d6bae2f	0.05753916
57	0x3d1f1706	0.038840316
58	0x3db9a401	0.090644844
59	0xbd3553b1	-0.044269267
60	0x3d7a5bc1	0.06112266
61	0x3d156a49	0.036478315
62	0xbc3609db	-0.011110748
63	0xbd1c4b0c	-0.038157508
64	0x3dc88cdf	0.09792494
65	0xbcbb8572	-0.02289078
66	0x3d7fab06	0.06241896
67	0xbc99e55f	-0.01878613
68	0x3db92db8	0.09041923
69	0xbd7eb344	-0.06218268
70	0x3d9ad1d9	0.075595565
71	0x3d021057	0.031753864
72	0xbc76f92a	-0.015074054
73	0x3d356b5d	0.044291843
74	0x3d493d7c	0.0491309
75	0x3d78b124	0.06071581
76	0x3ce80ba6	0.028325867
77	0x3d4e7d84	0.05041267
78	0xbbcf90f8	-0.0063344203
79	0x3deaeaa9	0.11470539
80	0xbd78f6ef	-0.06078237
81	0xbd32885a	-0.043587066
82	0xbda41c36	-0.08013193
83	0x3d52a163	0.05142344
84	0xbd76b37c	-0.060229763
85	0xbc47a744	-0.012185875
86	0x3d5987c8	0.053108007
87	0x3e231f70	0.15929961
88	0xbcc3a784	-0.023883589
89	0x3d1ad842	0.037803896
90	0xbb844567	-0.0040365937
91	0xbd1e6c2c	-0.03867738
92	0xbcacafec	-0.02107998
93	0xbcb3ec44	-0.021963246
94	0x3c948e40	0.018134236
95	0xbd94971b	-0.072553836
96	0x3d584934	0.052804187
97	0xbd3df288	-0.046373874
98	0xbbcfc039	-0.0063400534
99	0x3d8d7a5a	0.06908102
100	0xbcd84e5a	-0.026404548
101	0x3d6cfa4e	0.057855897
102	0x3d91ca35	0.07118646
103	0xbd265516	-0.040608488
104	0x3da86d4a	0.0822397
105	0xbd790b69	-0.060801897
106	0x3c201436	0.009770444
107	0xbd868048	-0.065674365
108	0x3c58c3e9	0.013230302
109	0xbc4f7ca1	-0.012663991
110	0x3d4374c8	0.047718793
111	0xbc15417d	-0.009109852
112	0x3b665d09	0.0035150668
113	0xbd2680f6	-0.04065033
114	0x3cc22181	0.023697617
115	0x3c22cdb5	0.00993674
116	0xbd6e5360	-0.05818498
117	0x3c5ac82e	0.013353391
118	0x3caeef64	0.021354385
119	0x3d05584a	0.032554902
120	0xbd161e80	-0.03665018
121	0x3b8f9eaa	0.004382928
122	0xbc163e05	-0.00917006
123	0x3ccba904	0.024860866
124	0x3d773119	0.060349558
125	0x3dcc78ab	0.09983953
126	0x3c93b2bb	0.018029561
127	0x3dd8e711	0.105909474
128	0x3e12424f	0.14283107
129	0x3b12a936	0.002237869
130	0x3c84c1f2	0.016205762
131	0xbc532c67	-0.012889004
132	0x3d62f32c	0.055407688
133	0x3d90b63b	0.07066008
134	0xbc483469	-0.012219527
135	0x3dba8ca8	0.09108859
136	0xbda4c9ad	-0.08046279
137	0xbb0bb5b8	-0.002131803
138	0x3da7272e	0.0816177
139	0x3c73b955	0.01487573
140	0xbca93bd1	-0.020658405
141	0xbaa42f47	-0.0012526297
142	0xbd78a386	-0.060702823
143	0x3c815ad2	0.015790377
144	0x3d4ab18b	0.049485724
145	0xbcff1d98	-0.031142041
146	0xbd3909a3	-0.045175206
147	0xbc328a0e	-0.010897173
148	0x3b718720	0.0036854222
149	0x3b5d3c17	0.003375774
150	0xbdeee629	-0.11664993
151	0x3c0fb23c	0.008770522
152	0xbd0eefc9	-0.034896646
153	0x3cd751ab	0.02628406
154	0x3ac392df	0.001492109
155	0xbd4f8e34	-0.050672725
156	0xbcddc640	-0.027072072
157	0x3df38d6e	0.1189221
158	0xbcf3c827	-0.029758526
159	0x3e12b360	0.14326239
160	0x3d204a8f	0.039133605
161	0x3ca2c6d1	0.019870194
162	0xbc909b7b	-0.017652264
163	0xbcf8c183	-0.030365711
164	0x3d1b55ff	0.03792381
165	0x3da23134	0.07919541
166	0x3ac29c39	0.0014847583
167	0x3e12256e	0.14272091
168	0x3bad414c	0.005287325
169	0x3d80fd58	0.062983215
170	0x3cf1c087	0.02951075
171	0xbd08a27d	-0.033358086
172	0x3d11820a	0.035524406
173	0x3e0258e1	0.12729217
174	0xbd5d2252	-0.05398781
175	0x3c752243	0.014961782
176	0x3bfb56bb	0.007670251
177	0xbc961f82	-0.018325571
178	0x3c6698ce	0.014074517
179	0x3dfc976d	0.1233357
180	0xbd5fa2b9	-0.054598544
181	0x3d6e40b9	0.058167193
182	0xbcb5fee9	-0.022216277
183	0x3de6f5eb	0.11277374
184	0x3baeb60b	0.00533176
185	0xbd5edd49	-0.054410253
186	0xbcd0340e	-0.025415447
187	0xbc2af878	-0.010435216
188	0xbc0dcfee	-0.008655531
189	0x3c7fdc45	0.015616481
190	0xbb6e137c	-0.0036327532
191	0x3d070465	0.032963175
192	0x3bf6a193	0.0075265854
193	0xbc87f60f	-0.016596822
194	0x3ccfecfa	0.025381554
195	0x3caa0152	0.020752583
196	0xbcc7ec30	-0.024404615
197	0xbd8161a4	-0.063174516
198	0x3d0e8c21	0.034801606
199	0x3dca3792	0.098738804
200	0xbd3c5508	-0.04597953
201	0xbd8b5073	-0.06802454
202	0xbcf0af40	-0.02938044
203	0x3cf1efc8	0.029533282
204	0xbb56ba2b	-0.0032764773
205	0xbbb14ed9	-0.0054110107
206	0x3be8e41b	0.0071072704
207	0x3c080549	0.008302041
208	0x3cc67b85	0.02422882
209	0x3cf9f133	0.03051052
210	0x3d5dbbb3	0.054134082
211	0x3da20118	0.07910365
212	0x3dac0408	0.083992064
213	0xbca1e85e	-0.019764122
214	0x3c9cf58f	0.01916006
215	0x3c16c83f	0.009203016
216	0x3d814533	0.06312027
217	0x3cca7dce	0.024718191
218	0x3c905338	0.017617807
219	0xbc9eea1c	-0.019398741
220	0x3b6bf916	0.003600662
221	0x3cee77e2	0.029109899
222	0xbd1d7df3	-0.038450193
223	0xbb8cb87d	-0.0042944537
224	0x3d3b0026	0.04565444
225	0xbc8c04be	-0.017092105
226	0xbcb1e1f4	-0.021714188
227	0x3be095eb	0.006853809
228	0xbcb18881	-0.021671535
229	0xbcf6bc16	-0.030118983
230	0x3b26a327	0.0025426836
231	0xbd13dd02	-0.03609944
232	0xbd40bb90	-0.047053874
233	0x3c9fc8da	0.019504953
234	0x3cd064b1	0.025438638
235	0x3d8f3b12	0.06993689
236	0xbd3bf661	-0.045889262
237	0x3ae62259	0.0017557844
238	0x3c5ad492	0.013356345
239	0x3dae5f8f	0.0851432
240	0x3d2fe4d0	0.042942822
241	0x3c8fecee	0.017569032
242	0x3d8cf366	0.06882362
243	0x3d984052	0.07434143
244	0xbc043b6e	-0.00807081
245	0x3d89b529	0.06724007
246	0x3c06513e	0.008198081
247	0xbc99c598	-0.018770978
248	0xbd93a71b	-0.07209607
249	0x3d5a3f92	0.05328328
250	0xbcbbf3f8	-0.022943482
251	0xbd27dff8	-0.040985078
252	0x3b969e3a	0.004596499
253	0xbd355bdc	-0.044277057
254	0xbccd31d2	-0.02504817
255	0xbca7a601	-0.020464899

bias f4 [128]
0	0x3dbdcf4c	0.09268054
1	0x3cc5ee6a	0.024161536
2	0xbd2d3f1e	-0.04229652
3	0xbd8431eb	-0.064548336
4	0x3dfae40e	0.12250529
5	0x3cfa9376	0.030587893
6	0xbd0f0917	-0.034920778
7	0x3daba079	0.08380217
8	0x3d065c67	0.032802965
9	0x3daa55fd	0.08317182
10	0xbd9458eb	-0.07243522
11	0x3d8d6dbc	0.06905696
12	0x3db26e87	0.08712488
13	0x3d2166ff	0.039404865
14	0x3d964d3b	0.07338949
15	0xbc6e6dca	-0.014552543
16	0xbd6d5e4f	-0.057951268
17	0x3dcae0ac	0.09906134
18	0x3beeb992	0.0072853053
19	0xbd126770	-0.035743177
20	0x3df6c1db	0.12048694
21	0xbb16a6f5	-0.0022987698
22	0x3d982a7e	0.0742998
23	0xbd8e9346	-0.06961684
24	0xbb939cbb	-0.0045047677
25	0xbc0c710b	-0.008571873
26	0xbcaf8c61	-0.021429243
27	0xbcc26aa7	-0.023732496
28	0xbd15e24d	-0.03659277
29	0xbd125afe	-0.03573131
30	0x3ddc9938	0.10771412
31	0xbd7d0f75	-0.06178232
32	0x3ddc887e	0.10768221
33	0x3d12cf6d	0.035842348
34	0x3d8c5d71	0.0685376
35	0x3d595e46	0.05306842
36	0x3d8ba405	0.068183936
37	0x3dd2fc8e	0.10302077
38	0x3dc2e31d	0.09515975
39	0x3ccc1405	0.02491189
40	0x3dd71642	0.10502292
41	0xbca651ec	-0.020302735
42	0xbcbdb39d	-0.023156935
43	0x3d8495b5	0.06473867
44	0x3d8e2779	0.069411226
45	0x3d71841b	0.058963876
46	0x3dbf4a8e	0.09340392
47	0xbcf298ca	-0.029613871
48	0x3d0d1319	0.03444204
49	0x3d0d5b2f	0.034510788
50	0xbd174683	-0.03693248
51	0x3d61bf2d	0.05511396
52	0x3d81eac5	0.06343607
53	0xbdd1c889	-0.10243327
54	0x3daa7620	0.08323312
55	0x3ca06466	0.019579124
56	0x3da8d6c7	0.082440905
57	0x3d9a4b52	0.075338975
58	0xbbb4ffe5	-0.005523669
59	0xbc71b01a	-0.014751459
60	0x3d826348	0.06366593
61	0x3dacdd8e	0.08440696
62	0xbae02d39	-0.0017103321
63	0x3d8f4101	0.069948204
64	0x3c9b3632	0.01894674
65	0x3d8e17b3	0.06938114
66	0x3db24a94	0.08705631
67	0x3cf9790b	0.030453226
68	0x3dbd98f7	0.09257691
69	0x3d964b14	0.07338539
70	0xbbe4e363	-0.0069851144
71	0x3df327fd	0.118728615
72	0x3dfb5c27	0.12273436
73	0xbd6a23d1	-0.057163063
74	0x3da1e531	0.07905043
75	0x3dbbb842	0.09166004
76	0xbcd414bc	-0.025888793
77	0x3ded35b1	0.115825064
78	0xbd823870	-0.06358421
79	0x3ce29725	0.027659962
80	0x3d8b8c39	0.06813855
81	0x3d88b5d2	0.066753045
82	0x3cb9baa9	0.022672014
83	0x3cf9b18b	0.030480167
84	0x3da73bc7	0.081656985
85	0x3c9064d3	0.017626202
86	0x3df2eeed	0.11861978
87	0xbd6d7cc5	-0.057980318
88	0x3d09532f	0.033526596
89	0xbd56fdfe	-0.05248832
90	0x3caff977	0.021481259
91	0x3d3c05a8	0.04590383
92	0x3e027d40	0.12743092
93	0xbb46e63a	-0.0030349628
94	0x3d7affc3	0.06127907
95	0x3d0ec84a	0.03485898
96	0xbdb19160	-0.08670306
97	0xbc13827e	-0.00900328
98	0xbd94420d	-0.07239161
99	0x3cdcb85c	0.026943378
100	0x3d7f113e	0.062272303
101	0xbd185e82	-0.037199505
102	0x3e03db04	0.12876517
103	0xbc7baff8	-0.015361778
104	0x3c7355ec	0.014852028
105	0x3d852f2d	0.06503139
106	0x3c991dce	0.01869097
107	0x3cc7d711	0.024394544
108	0x3dca8813	0.09889235
109	0x3d2a0fd5	0.041519005
110	0x3c4e9eac	0.0126110725
111	0x3dd472ab	0.10373434
112	0x3d87b275	0.06625835
113	0x3c9bc4ef	0.019014804
114	0x3c86d21c	0.01645761
115	0x3d0466a6	0.032324456
116	0x3deeb706	0.11656003
117	0x3d057b4e	0.032588296
118	0x3c6176df	0.013761251
119	0x3db69255	0.08914629
120	0x3dc95c6d	0.09832082
121	0x3c658ea5	0.01401106
122	0xbc9e2124	-0.019302912
123	0x3dd22edf	0.10262846
124	0x3d45c917	0.048287477
125	0x3d5472be	0.05186724
126	0xbcfbcf32	-0.030738447
127	0x3dda2140	0.10650873

weight f4 [1, 128]
0	0xbd2d5da3	-0.042325627
1	0x3dfe69c5	0.12422518
2	0x3e08600b	0.13317887
3	0x3de912ad	0.11380515
4	0xbdd0b19b	-0.101901256
5	0x3e1b702e	0.15179512
6	0x3d8a1c1d	0.067436434
7	0xbdca8b27	-0.098898225
8	0x3d540624	0.05176367
9	0x3dbb0ff0	0.09133899
10	0x3d9ea55b	0.07746383
11	0x3de5c7df	0.11219763
12	0x3ddfe029	0.10931427
13	0xbca67171	-0.020317765
14	0x3e08cf44	0.13360316
15	0x3dd6a4d7	0.104806595
16	0xbd4410cd	-0.047867585
17	0xbd5a200a	-0.05325321
18	0xbd4566b6	-0.048193656
19	0x3dcba7c3	0.099441074
20	0xbcf5b155	-0.029991785
21	0xbd6c1afa	-0.057642914
22	0x3dbebd85	0.09313492
23	0x3dba2451	0.09088958
24	0xbb167100	-0.0022955537
25	0x3d501818	0.050804228
26	0x3d9aeb3e	0.075644
27	0xbdd4cdc5	-0.1039081
28	0x3df6a72d	0.12043605
29	0x3d40bffc	0.04705809
30	0xbd05045e	-0.032474868
31	0x3dad7fc1	0.08471633
32	0xbdc83add	-0.09776852
33	0x3ddafd1b	0.10692807
34	0xbda8c711	-0.08241094
35	0xbd84f4cc	-0.06492004
36	0xbcc970c8	-0.024589911
37	0xbda1ebb1	-0.07906283
38	0x3ddbac9e	0.107262835
39	0x3dd2f4d8	0.103006065
40	0xbdb7220e	-0.08942042
41	0xbdbb2e87	-0.09139734
42	0xbd34d29e	-0.044146173
43	0xbd274252	-0.040834732
44	0x3d98912e	0.07449566
45	0x3d800ea3	0.06252792
46	0x3d81c02f	0.06335484
47	0x3d29d632	0.04146404
48	0xbcf0e919	-0.029408025
49	0x3da8e01e	0.08245872
50	0x3e0e4a8d	0.13895626
51	0xbcbbd050	-0.02292648
52	0x3c95bdd6	0.018278997
53	0xbc487e05	-0.012237077
54	0xbcc9ac3e	-0.024618264
55	0xbdb3104f	-0.08743345
56	0xbd249be4	-0.04018773
57	0xbd82fe0b	-0.06396111
58	0xbcde8c1a	-0.027166415
59	0xbdbe4f09	-0.092924185
60	0x3df97e1b	0.12182256
61	0x3dbdcdb8	0.09267753
62	0xbdc47030	-0.095917106
63	0x3db7dc1c	0.089775294
64	0x3de4f566	0.111796185
65	0x3de2f51b	0.110819064
66	0x3dc7cffe	0.09756468
67	0x3d8cd3e5	0.06876353
68	0x3e03b0db	0.12860434
69	0xbcc15496	-0.023599904
70	0x3c0e84ae	0.0086986255
71	0xbcc12e11	-0.023581536
72	0xbd6aacc1	-0.057293657
73	0x3b7dde10	0.0038737096
74	0x3df00f44	0.11721662
75	0xbd0bcde7	-0.03413191
76	0x399c793f	0.00029844974
77	0xbd588e59	-0.05287013
78	0x3e301adf	0.1719775
79	0xbc8df3e6	-0.017328214
80	0xbd92adc9	-0.07162053
81	0xbd606cc5	-0.05479123
82	0x3e10323f	0.14081667
83	0x3daf7fa2	0.08569266
84	0x3d5d0fd0	0.053970158
85	0xbd2d4de3	-0.042310607
86	0xbcadf991	-0.021237167
87	0x3d668617	0.05628022
88	0xbd515c85	-0.051113624
89	0xbd7f9375	-0.062396485
90	0xbcdb5791	-0.026775153
91	0x3dbbe72d	0.09174953
92	0xbd7cce43	-0.061720144
93	0xbd4d675d	-0.050147403
94	0x3dcc4043	0.099731945
95	0xbd114b92	-0.03547246
96	0x3ccd2a86	0.02504469
97	0xbd0fb500	-0.035084724
98	0xbd44d0d4	-0.048050717
99	0x3dcea0bb	0.10089251
100	0xbdc3ce1f	-0.09560799
101	0xbb64b1f0	-0.0034896098
102	0xbd1938b4	-0.037407592
103	0xbc050a6f	-0.008120163
104	0x3cc92920	0.024555743
105	0xbd8684e8	-0.065683186
106	0x3dee23ae	0.11627899
107	0xbd99ca73	-0.07509317
108	0x3d2d82fe	0.042361252
109	0x3dbdf8b1	0.0927595
110	0xbd5433af	-0.0518071
111	0xbd9ed736	-0.07755892
112	0x3df083fa	0.117439225
113	0xbd867518	-0.065653026
114	0xbdc6b721	-0.09702898
115	0x3db5b67a	0.08872695
116	0xbcb0c99b	-0.021580508
117	0x3b39bd6d	0.0028341666
118	0xbdb57a70	-0.08861244
119	0xbcc2c694	-0.02377633
120	0xbd3e3193	-0.046433996
121	0x3de25a37	0.11052363
122	0x3d3e20d0	0.04641801
123	0xbdc4eb7a	-0.09615226
124	0x3dd69e56	0.10479419
125	0x3df977f3	0.121810816
126	0x3ddba558	0.10724896
127	0xbdafef64	-0.08590582
