bike_sharing/AutogluonModels/ag-20220403_215705/models/NeuralNetTorch_BAG_L1/S1F4/net.params (torch, 211783 bytes, 9 tensors)

weight f4 [128, 14]
0	0xbb09dee1	-0.0021037387
1	0x3da51649	0.08060891
2	0xbe83ede3	-0.2576743
3	0xbe5391ba	-0.20661059
4	0xbde20846	-0.11036734
5	0x3d060313	0.032717776
6	0xbc9f33fb	-0.019433966
7	0x3e791eab	0.24328105
8	0xbb9edec5	-0.0048483335
9	0x3deac222	0.11462809
10	0xbd7fe4b2	-0.06247396
11	0xbda87539	-0.082254834
12	0xbec41715	-0.3829886
13	0xbe44cf46	-0.19219694
14	0xbe09e1ff	-0.13465117
15	0xb9339f30	-0.00017130072
16	0x3dc5acf9	0.096521325
17	0x3e5a2df7	0.21306597
18	0xbdab43fb	-0.083625756
19	0xbe239e59	-0.15978374
20	0x3df0c387	0.11756044
21	0x3e4d7e3c	0.20067686
22	0xbd2347c5	-0.039863367
23	0x3e663868	0.22482455
24	0xbc82ba24	-0.0159579
25	0xbc217781	-0.009855152
26	0x3e90aafd	0.28255454
27	0xbe8c6a0a	-0.2742465
28	0xbe32c817	-0.1745914
29	0xbdce6fd3	-0.100799225
30	0xbe166fcb	-0.14691083
31	0x3e836e71	0.25670198
32	0xbe5350b0	-0.20636249
33	0xbe4ca2e4	-0.19984013
34	0xbe424ffb	-0.18975823
35	0xbe80b5c5	-0.2513868
36	0xbda46e06	-0.08028798
37	0x3e8198a8	0.2531178
38	0x3e489c7c	0.19590944
39	0x3dd6db57	0.104910545
40	0xbd81e67b	-0.06342789
41	0xbde00e18	-0.10940188
42	0x3d326d36	0.043561183
43	0xbe9fedc8	-0.312361
44	0xbe4f4409	-0.20240797
45	0xbe551506	-0.20808801
46	0x3e0227a0	0.12710428
47	0x3df29112	0.11844076
48	0xbe021f72	-0.12707308
49	0x3d29f566	0.041493796
50	0x3e1c6a07	0.15274821
51	0x3ea82ea1	0.32848075
52	0x3e010eb1	0.1260326
53	0x3bc3814f	0.0059663425
54	0x3e2a5708	0.16634762
55	0xbe2bcbcc	-0.16776961
56	0x3b3f3205	0.00291741
57	0xbe9d9197	-0.3077514
58	0xbe6d2e4a	-0.23162189
59	0xbd8bdfac	-0.068297714
60	0x3ddecfc7	0.10879474
61	0x3da84e9b	0.08218118
62	0xbe3d962e	-0.1851432
63	0x3df0f7ae	0.11765991
64	0x3dc2ea27	0.09517317
65	0x3bd42a94	0.0064748023
66	0xbca838e7	-0.020534946
67	0x3d28b9e6	0.04119291
68	0x3e50232a	0.20325914
69	0x3e86e40b	0.26345858
70	0xbe85b682	-0.26115805
71	0xbd87f653	-0.066387795
72	0x3dfe0725	0.124037065
73	0x3e9f1f8f	0.31078765
74	0x3e8880d2	0.26660782
75	0x3e185c9b	0.14879076
76	0xbd3d80c7	-0.04626539
77	0xbe76a72a	-0.24087206
78	0x3d4ca986	0.049966358
79	0xbe09615a	-0.13416043
80	0xbe55997f	-0.20859335
81	0x3e4e774f	0.201627
82	0x3ea3eb5f	0.3201551
83	0xbea797ed	-0.32733098
84	0x3d89f5b5	0.06736318
85	0xbe304655	-0.1721433
86	0xbdc702d5	-0.09717337
87	0xbdc8f1dd	-0.09811757
88	0xbd01337a	-0.031543233
89	0xbe7d3066	-0.24725494
90	0x3db2cd91	0.08730615
91	0x3e30e4f1	0.17274834
92	0x3e845292	0.25844246
93	0x3dc9d4b7	0.09855025
94	0xbe45e1f7	-0.1932448
95	0xbe613ee1	-0.21996643
96	0x3e35836c	0.17725915
97	0xbc76ec9e	-0.015071062
98	0xbe4ef055	-0.20208867
99	0xbe8ce6e3	-0.27519903
100	0x3e1a9483	0.15095715
101	0x3e3083ce	0.1723778
102	0xbd169f0d	-0.036772776
103	0xbd938d37	-0.07204669
104	0xbea85e17	-0.32884285
105	0x3c3aed8f	0.011409177
106	0xbdf6b2ec	-0.120458454
107	0xbe449735	-0.19198306
108	0xbd585da3	-0.052823674
109	0x3d68bf3f	0.05682301
110	0xbe049386	-0.129469
111	0x3e10a5fe	0.14125821
112	0xbe124013	-0.14282255
113	0x3e82ef1d	0.25573054
114	0x3e335573	0.17513065
115	0xbe6c964b	-0.23104207
116	0xbc60098f	-0.013674154
117	0x3d12f7ca	0.03588084
118	0x3db8177a	0.08988853
119	0x3d3f5f7d	0.046721924
120	0x3c10e616	0.008843919
121	0x3c4532ab	0.012036006
122	0xbe4ba435	-0.19886859
123	0x3db503b2	0.088385954
124	0xbeb01f02	-0.34398657
125	0xbe4fc0a4	-0.2028833
126	0xbd5b6a13	-0.053567957
127	0xbe8a50df	-0.27014825
128	0xbe42e592	-0.19032887
129	0xbe2bcd92	-0.16777638
130	0xbdbb1bb5	-0.09136144
131	0xbbd60019	-0.0065307734
132	0xbe33c860	-0.17556906
133	0x3c69a17c	0.014259692
134	0x3e24b790	0.16085649
135	0xbbb486c4	-0.0055092294
136	0x3bc951fa	0.0061438056
137	0xbdf00323	-0.11719348
138	0x3de755de	0.11295675
139	0x3df05aea	0.117360905
140	0x3e980c46	0.29696864
141	0x3e139a00	0.14414215
142	0x3e6d5e39	0.23180474
143	0xbd3bdaa3	-0.045862805
144	0xbe8910cf	-0.26770636
145	0xbe1c8ea0	-0.15288782
146	0x3eb77ba1	0.3583651
147	0x3d74c495	0.059757788
148	0xbe0c8d59	-0.13725795
149	0xbdbf9ea8	-0.09356433
150	0xbe87f050	-0.2655053
151	0xbebe3ea6	-0.37157172
152	0xbe8afd5c	-0.27146423
153	0x3df58e5d	0.11990044
154	0x3e1cc14a	0.15308109
155	0xbea92a83	-0.33040246
156	0x3de63c28	0.11241943
157	0xbe1c4ff4	-0.15264875
158	0xbd72352c	-0.05913274
159	0xbe53b025	-0.20672663
160	0x3d2d8927	0.042367127
161	0xbcc3d134	-0.023903467
162	0xbe920747	-0.28521177
163	0xbe1f555c	-0.15559906
164	0x3a6b92d8	0.000898642
165	0xbe17c6c0	-0.14821911
166	0xbe832d0f	-0.25620314
167	0x3df861cd	0.12128029
168	0xbecfacbf	-0.40561482
169	0x3dde526e	0.10855566
170	0x3eb1181e	0.34588712
171	0xbdae50a4	-0.08511475
172	0x3e6f6596	0.23378596
173	0x3d77ba2b	0.060480278
174	0xbedabcc9	-0.42722157
175	0x3da68f7f	0.081328385
176	0xbd8c5035	-0.06851236
177	0xbd0c9182	-0.034318455
178	0x3e0bbf38	0.13647163
179	0xbe629d4a	-0.22130314
180	0xbcedf9cc	-0.029049776
181	0xbd696166	-0.056977652
182	0x3e1eaca3	0.15495543
183	0xbcdcdc98	-0.026960656
184	0x3da9c747	0.08289962
185	0x3e220410	0.15821862
186	0xbdce0622	-0.100597635
187	0xbdd741ae	-0.10510574
188	0xbe7b8708	-0.24563229
189	0x3e10fe88	0.14159596
190	0x3e43d74d	0.191251
191	0x3e3e3768	0.18575823
192	0xbe188ec7	-0.14898215
193	0x3a5f0e10	0.00085088704
194	0xbebad9a3	-0.3649417
195	0xbdb641d6	-0.08899276
196	0xbe41c7bf	-0.18923853
197	0x3ce7769f	0.028254805
198	0xbe2edeb0	-0.17077136
199	0xbd7a0fe5	-0.061050314
200	0xbd054442	-0.0325358
201	0x3e235d2d	0.15953512
202	0xbe647a88	-0.22312367
203	0xbddd9748	-0.1081987
204	0xbdc56fce	-0.09640466
205	0x3e62d618	0.22151983
206	0xbe224a06	-0.1584855
207	0x3e5989bd	0.21243949
208	0x3c9c4faf	0.019080965
209	0x3d7d3d28	0.0618259
210	0x3c853f1d	0.016265446
211	0xbd70990f	-0.058739718
212	0x3d0f8af2	0.035044618
213	0xbe024c98	-0.1272453
214	0xba58d896	-0.000827202
215	0x3d855852	0.065109864
216	0xbe6653d4	-0.22492915
217	0xbe400d2b	-0.18755023
218	0x3e3f014f	0.18652843
219	0xbdd74b43	-0.10512402
220	0xbdd843d4	-0.10559812
221	0x3e792797	0.24331509
222	0x3d32dec0	0.043669462
223	0xbd82324c	-0.063572496
224	0xbe81d6fc	-0.25359333
225	0x3e1214b8	0.14265716
226	0xbe7e3e31	-0.24828412
227	0xbe577e2b	-0.21044223
228	0xbc7e7b98	-0.015532397
229	0xbd116d44	-0.035504594
230	0x3c873980	0.01650691
231	0x3e4378b1	0.19089009
232	0x3e1e04b7	0.15431486
233	0x3e9811e3	0.29701146
234	0x3e28c816	0.16482577
235	0xbe32585e	-0.17416522
236	0x3de0259f	0.10944676
237	0xbe87a5fc	-0.26493824
238	0xbe146785	-0.14492615
239	0x3c300553	0.010743457
240	0x3cc67e4e	0.024230149
241	0x3e94cc63	0.29062185
242	0xbd9b8aeb	-0.07594856
243	0xbd983e5d	-0.0743377
244	0x3c67fad3	0.014158922
245	0xbe86187f	-0.26190564
246	0x3e2ac3bb	0.16676228
247	0xbe2b22cc	-0.16712493
248	0xbd8d5108	-0.06900221
249	0xbde3a594	-0.11115566
250	0xbe3b4862	-0.1828933
251	0xbd986543	-0.07441189
252	0x3e8093ce	0.25112766
253	0xbe2b4a28	-0.16727507
254	0xbe6ab9ab	-0.22922389
255	0xbda03a46	-0.07823615

bias f4 [128]
0	0x3e4a87f7	0.19778429
1	0x3dfe6a50	0.12422621
2	0x3e095cfd	0.13414378
3	0xbdb6b52f	-0.08921277
4	0x3de51c72	0.11187066
5	0x3df16420	0.117866755
6	0x3df2e169	0.118594
7	0xbc1346f1	-0.008989082
8	0xbce4fd90	-0.02795294
9	0xbd8b6441	-0.06806231
10	0xbea378c9	-0.3192809
11	0xbcf2b948	-0.029629365
12	0xbe76f833	-0.24118118
13	0x3e0ff70b	0.14059083
14	0xbe3bf64b	-0.18355672
15	0xbe160f8e	-0.14654371
16	0xbe023def	-0.12718938
17	0x3df15dbf	0.11785459
18	0xbe2d73e9	-0.16938747
19	0x3dc7388d	0.09727583
20	0x3e2ac932	0.16678312
21	0x3e29e70f	0.16592048
22	0x3d760167	0.06005993
23	0x3da3e2d8	0.080022514
24	0x3e269c58	0.16270578
25	0x3dcbeb4f	0.09956991
26	0x3c669af3	0.014075029
27	0xbe56f92f	-0.20993493
28	0xbd074d55	-0.033032734
29	0xbb27d5e3	-0.0025609664
30	0x3d3fe5cb	0.046850007
31	0xbdc82766	-0.0977314
32	0xbe7a1c29	-0.24424805
33	0xbd791eac	-0.060820267
34	0x3db3d904	0.08781627
35	0x3e4ba1e7	0.1988598
36	0xbe83fe8b	-0.25780138
37	0x3d9df2fd	0.07712362
38	0xbe594589	-0.21217932
39	0xbe78da0d	-0.2430193
40	0xbdf453e5	-0.11930064
41	0xbdac8e91	-0.0842563
42	0x3c63bd2e	0.013900084
43	0xbe95d37a	-0.29262906
44	0x3da4b3ad	0.08042083
45	0x3e5e02d6	0.2168077
46	0xbc877f12	-0.016540084
47	0x3e6e381a	0.23263589
48	0xbe1263a0	-0.14295816
49	0xbe21ae34	-0.1578911
50	0x3c09adc5	0.008403246
51	0xbd656475	-0.056004006
52	0xbe55adf2	-0.20867136
53	0xbe4b8078	-0.19873226
54	0x3d2d3c48	0.042293817
55	0xbca50f66	-0.020148944
56	0x3e8e120c	0.27748144
57	0xbdf6459b	-0.12024995
58	0x3dae0892	0.084977284
59	0xbe0e3ea9	-0.1389109
60	0x3dd9fa90	0.10643494
61	0xbd923cbb	-0.0714049
62	0x3e3ad452	0.18245056
63	0x3dff2bf7	0.124595575
64	0x3e3b3418	0.18281591
65	0x3e12b114	0.14325362
66	0xbc74a233	-0.014931249
67	0x3e146b2a	0.14494005
68	0xbdf9c816	-0.121963665
69	0x3e7d8a88	0.24759877
70	0x3e8edef7	0.27904484
71	0x3e168168	0.14697802
72	0xbe037f94	-0.12841636
73	0xbe393220	-0.18085527
74	0x3d9e8fea	0.07742293
75	0x3d4e0348	0.050296098
76	0x3dc3e190	0.09564507
77	0x3b43cf23	0.0029878102
78	0x3e4f12cf	0.20222019
79	0xbdf2924f	-0.118443124
80	0xbde66093	-0.11248889
81	0x3d55f170	0.052232206
82	0x3c2f5a00	0.01070261
83	0xbe43f2c7	-0.19135581
84	0xbd107948	-0.035271913
85	0xbe85ca36	-0.26130837
86	0xbdeb2ef5	-0.11483566
87	0xbd94d75e	-0.072676405
88	0x3e7196f6	0.23592743
89	0xbe6dd939	-0.23227395
90	0xbe104b7d	-0.14091296
91	0xbe61405a	-0.21997204
92	0x3d8bcafd	0.06825826
93	0xbe7be91f	-0.24600647
94	0x3d796c86	0.06089451
95	0xbe1164d6	-0.14198622
96	0xbe3f551e	-0.18684813
97	0xbe365a34	-0.17807847
98	0xbd04c297	-0.032412138
99	0x3e504ed9	0.20342578
100	0x3e4ecf57	0.20196281
101	0xbdcad415	-0.09903733
102	0xbe9c557b	-0.30533966
103	0xbddd6c38	-0.10811657
104	0xbe207da9	-0.15672936
105	0xbcc0ca15	-0.02353386
106	0x3ce2ccbc	0.027685516
107	0x3d904973	0.07045259
108	0x3dceb81f	0.10093712
109	0x3b3d8c04	0.0028922567
110	0xbdd47c7d	-0.10375307
111	0xbdafa6ac	-0.08576712
112	0x3c3daf5d	0.011577454
113	0xbe317189	-0.17328466
114	0xbdb9da11	-0.09074796
115	0xbce46a14	-0.027882613
116	0xbe8cff96	-0.27538747
117	0x3df4b32b	0.11948236
118	0xbd1128b3	-0.035439204
119	0xbe8df6a5	-0.27727237
120	0x3e7cac1f	0.24675034
121	0xbe16a092	-0.1470969
122	0x3d43ef97	0.047835913
123	0x3e6c9bd1	0.23106314
124	0xbd3cd014	-0.046096876
125	0x3c0ce807	0.0086002415
126	0x3dd411f4	0.10354987
127	0x3d819bb1	0.06328524

weight f4 [128, 128]
0	0x3bda6672	0.0066650445
1	0xbc6117d6	-0.013738593
2	0x3c90141c	0.017587714
3	0x3da1bea2	0.078976884
4	0x3c140b71	0.009035931
5	0x3d9c544a	0.07633264
6	0x3d2e53f4	0.042560533
7	0x3bc0eeff	0.0058878656
8	0xbcdf4eeb	-0.02725931
9	0x3d3b9f84	0.045806423
10	0xbdf39684	-0.11893943
11	0xbd75966a	-0.0599579
12	0xbdd79fd4	-0.10528532
13	0x3d6ffc21	0.05859006
14	0x3d84adf7	0.06478494
15	0x3c3ea4fd	0.011636016
16	0x3d8a9b9d	0.06767962
17	0x3d52a5ae	0.051427536
18	0xbd69a0c0	-0.05703807
19	0xbdeef5c9	-0.116679735
20	0xbd9ae389	-0.0756293
21	0xbd2fe9b1	-0.042947475
22	0xbda0d494	-0.07853046
23	0xbcf3c86e	-0.029758658
24	0xbc9c8c0b	-0.019109746
25	0xbd13ca2f	-0.03608149
26	0xbd03c2db	-0.03216825
27	0x3d4d3ad1	0.05010492
28	0x3db5b15c	0.08871719
29	0xbd023a00	-0.031793594
30	0x3d404d21	0.046948556
31	0x3d14e0af	0.036347087
32	0x3dfe649d	0.12421534
33	0xbbf5cb37	-0.0075010317
34	0xbce55a7e	-0.027997252
35	0xbd180fa1	-0.03712428
36	0x3dc6a2c4	0.09699014
37	0xbce8cad5	-0.02841703
38	0xbd991882	-0.074753776
39	0x3e03db69	0.12876667
40	0x3dd30041	0.10302783
41	0xbd8c7dcf	-0.068599336
42	0xbd42b389	-0.0475345
43	0x3c197117	0.009365342
44	0xbcbbe0ea	-0.022934396
45	0xbd47b423	-0.048755776
46	0xbd89bfa3	-0.06726005
47	0xbd6a211c	-0.05716048
48	0xbd92697a	-0.07149024
49	0xbd67c23c	-0.05658172
50	0xbe04419f	-0.12915657
51	0xbc934231	-0.017975898
52	0x3ce3e66d	0.027819837
53	0xbd08de80	-0.033415318
54	0xbc59bbb4	-0.013289381
55	0xbd165744	-0.036704317
56	0x3dda3495	0.106545605
57	0x3d64e369	0.055880938
58	0x3bd7b047	0.006582293
59	0xbc98fbdf	-0.018674789
60	0xbd88985e	-0.06669687
61	0xbcb53854	-0.022121586
62	0x3dae9644	0.08524755
63	0x3c07a465	0.008278941
64	0x3c91bd15	0.017790357
65	0xbd1923c4	-0.037387624
66	0x3cdcf5c4	0.026972659
67	0xbd7f6cbe	-0.062359564
68	0x3d462aae	0.048380546
69	0x3d9df189	0.07712085
70	0xbdbfcf82	-0.09365751
71	0xbd14522e	-0.036211185
72	0x3dc06911	0.0939504
73	0xbc6cf301	-0.0144622335
74	0xbcc30e30	-0.023810476
75	0x3d401a37	0.0469
76	0x3ba32447	0.00497869
77	0xbd973f15	-0.07385079
78	0xbcdc4a66	-0.026890945
79	0x3d825607	0.06364065
80	0x3da7fff3	0.08203115
81	0x3d267e83	0.040647995
82	0x3c54a15a	0.012977922
83	0x3d4b8e8b	0.049696486
84	0x3db06377	0.086127214
85	0x3c93d8e6	0.018047761
86	0xbba40cdc	-0.005006416
87	0x3c8bd204	0.017067917
88	0xbd380a5f	-0.044931766
89	0x3ddc06cf	0.10743486
90	0xbdb59e25	-0.08868054
91	0x3d51ea47	0.051248815
92	0xbd2817b9	-0.04103825
93	0xbd394f5a	-0.04524169
94	0x3dcd4cbc	0.100244015
95	0x3ca09386	0.019601595
96	0x3c7656bc	0.0150353275
97	0x3d37f8e2	0.044915088
98	0xbd86866d	-0.065686084
99	0xbd5ecf7d	-0.054397095
100	0xbd53b9e1	-0.05169094
101	0xbd8dd63a	-0.06925626
102	0x3c836656	0.016040009
103	0x3c9fcceb	0.019506892
104	0x3d757d39	0.059933875
105	0x3b927433	0.0044694184
106	0x3d2d0182	0.042237766
107	0xbd976464	-0.07392195
108	0x3bfef9d7	0.007781248
109	0x3cd29cea	0.025709588
110	0x3a9a2e86	0.0011763133
111	0x3dcf27bf	0.10115003
112	0xbcdea491	-0.02717808
113	0xbae4674a	-0.0017425802
114	0xbd824d88	-0.06362444
115	0x3d819ef5	0.06329147
116	0xbce22666	-0.0276062
117	0xbd9c4569	-0.076304264
118	0x3db037fb	0.086044274
119	0xbe187733	-0.14889221
120	0xbda90b2d	-0.08254085
121	0x3c9be4ec	0.019030057
122	0x3dcc23cf	0.099677674
123	0x3dc77d65	0.09740714
124	0x3d299c64	0.04140891
125	0x3c62fdc1	0.013854445
126	0x3d7c1c57	0.061550464
127	0xbd0f3f46	-0.03497245
128	0xbba08216	-0.00489832
129	0xbc1a9894	-0.0094357915
130	0xbdf51597	-0.119670086
131	0xbb492686	-0.0030693128
132	0xbd4ce28a	-0.050020732
133	0x3c711be7	0.014716125
134	0xbd80f3fc	-0.06296536
135	0xbc3db811	-0.011579529
136	0x3dd16dec	0.10226044
137	0x3dc4f55b	0.0961711
138	0xbd7d9a3f	-0.06191468
139	0x3d0e70f7	0.0347757
140	0x3d292e9e	0.041304223
141	0x3da92e5b	0.08260795
142	0xbd41beee	-0.047301225
143	0x3d12570e	0.035727553
144	0x3ccf34b4	0.025293685
145	0x3db5a5db	0.08869525
146	0xbdbf75e9	-0.093486615
147	0xbcfff429	-0.031244354
148	0xbe302e3a	-0.17205134
149	0xbe3aa1fb	-0.18225853
150	0xbdcd5f8e	-0.10027991
151	0x3d2deb26	0.042460583
152	0xbd99c3a7	-0.07508021
153	0x3bbcd7c8	0.005763028
154	0x3d534bed	0.05158608
155	0xbccb5b3e	-0.024823781
156	0xbb10f81f	-0.0022120548
157	0xbd83c1cc	-0.06433448
158	0xbcdeab7c	-0.02718138
159	0xbd435595	-0.04768904
160	0xbe07cd4f	-0.13261913
161	0xbde88a70	-0.1135453
162	0xbda395c9	-0.079875536
163	0x3dcbe6c4	0.099561244
164	0xbdc747b5	-0.09730474
165	0xb9c1207e	-0.00036836037
166	0xbe420683	-0.18947797
167	0x3cd2d8a0	0.02573806
168	0xbdb1312e	-0.086519584
169	0x3cf34c39	0.029699432
170	0xbd141d74	-0.0361609
171	0xbd954f30	-0.072904944
172	0x3da71bc3	0.08159592
173	0xbd217a5f	-0.039423343
174	0xbd2639b1	-0.040582363
175	0xbd8abf71	-0.06774796
176	0x3c96611a	0.018356849
177	0xbcb3fb39	-0.021970378
178	0xbd61639f	-0.055026647
179	0x3dba3587	0.09092241
180	0xbe2315b1	-0.15926243
181	0xbc28d95f	-0.010305732
182	0xbc8e1eac	-0.01734861
183	0xba3baaf0	-0.00071589556
184	0x3e03e088	0.1287862
185	0x3db53e86	0.08849816
186	0xb990462d	-0.00027518105
187	0xbde7748a	-0.11301525
188	0x3d859aba	0.065236524
189	0x3ca35508	0.019938007
190	0x3da49f34	0.08038178
191	0xbcf8fea1	-0.030394854
192	0x3b70aabc	0.003672286
193	0x3dc18a7d	0.09450243
194	0x3ce1ac30	0.027547926
195	0xbcef609c	-0.029220872
196	0xbe86fc3b	-0.26364312
197	0xbddc98e7	-0.10771351
198	0xb8b2d5cb	-8.5275235e-05
199	0x3c56f1c9	0.0131191695
200	0x3d469a33	0.0484869
201	0x3da0427c	0.07825181
202	0xbdb8b0e7	-0.090181164
203	0xbcbd3ae2	-0.023099367
204	0xbce4c367	-0.027925206
205	0x3d901b64	0.07036474
206	0x3d2c4fd0	0.042068303
207	0x3d06eef6	0.032942735
208	0x3d903233	0.07040825
209	0xbd92f8af	-0.07176339
210	0xbd1bd782	-0.03804732
211	0x3cea9788	0.028636709
212	0xbd8c5408	-0.06851965
213	0x3d7cc65f	0.06171262
214	0xbc89fe73	-0.016844964
215	0xbdadf8b4	-0.08494702
216	0x3de26893	0.11055102
217	0xbe0ad0bb	-0.13556187
218	0x3e1eee46	0.15520582
219	0x3ce894ae	0.028391208
220	0xbd5cdac0	-0.053919554
221	0x3d879ed4	0.06622091
222	0xbdf38d3c	-0.11892173
223	0xbda91429	-0.08255798
224	0xbb94128e	-0.0045188135
225	0xbcacbf85	-0.021087417
226	0x3ad371db	0.0016131954
227	0xbd427650	-0.047476113
228	0xbda5e4dc	-0.08100292
229	0x3bbd6eba	0.005781022
230	0x3da4968b	0.08036526
231	0xbcb05172	-0.021523211
232	0x3d881608	0.06644827
233	0x3d8add81	0.0678053
234	0x3cd86138	0.026413545
235	0xbd45bdd8	-0.048276752
236	0x3c18084d	0.009279323
237	0xbdbf95fd	-0.0935478
238	0xbdb064ef	-0.086130016
239	0xbd4cf0ee	-0.050034456
240	0x3d80bf08	0.06286436
241	0x3d8b81c1	0.06811858
242	0xbd3ca12c	-0.046052143
243	0xbdff26ee	-0.12458597
244	0xbd2ef0bd	-0.042710055
245	0xbbd12b31	-0.0063833226
246	0xbc6e4d9c	-0.014544871
247	0x3cf8e152	0.030380879
248	0xbd8e635b	-0.06952544
249	0x3d590a50	0.05298835
250	0x3bf4451d	0.007454528
251	0xbd34cc3b	-0.04414008
252	0x3dc52ce0	0.096277
253	0x3d987afc	0.074453324
254	0xbd701a61	-0.058618907
255	0x3cdd8921	0.027042927

bias f4 [128]
0	0x3dbef4c8	0.09324032
1	0xbb06cdf7	-0.0020569542
2	0x3de23a57	0.11046284
3	0x3dce376b	0.10069164
4	0x3d8f6d4c	0.070032686
5	0xbd5df9b6	-0.05419322
6	0xbc5a442e	-0.013321919
7	0x3c6f6075	0.0146103995
8	0x3d1b82cf	0.037966546
9	0x3c082622	0.008309873
10	0x3d8c092d	0.06837688
11	0xbb01459f	-0.0019725335
12	0x3d74369b	0.05962239
13	0xbd7bfb5d	-0.061519016
14	0xbc8f46f3	-0.017489886
15	0x3dbe5d6a	0.09295161
16	0xbd64ecde	-0.055889957
17	0xbc07050c	-0.008240949
18	0xbcdb2bb8	-0.026754245
19	0xbd9f98fb	-0.077928506
20	0xbd8252c3	-0.06363442
21	0xbb726a7a	-0.0036989735
22	0xbb9ea06f	-0.0048409025
23	0x3d066cc1	0.03281856
24	0x3c10b28e	0.008831633
25	0x3da54435	0.0806965
26	0x3d8cf9b3	0.06883564
27	0x3d81c579	0.06336493
28	0xba0c72e4	-0.0005357696
29	0x3d217471	0.039417688
30	0xbd904c99	-0.0704586
31	0x3d8812f3	0.06644239
32	0x3d25c8fa	0.04047487
33	0x3ca3b2d4	0.019982733
34	0xbd2963d9	-0.041354988
35	0x3dc8eb97	0.0981056
36	0xbdb5bc0d	-0.088737585
37	0x3d557a25	0.05211844
38	0x3db2f0f8	0.087373674
39	0x3d36e5b5	0.04465266
40	0x3da302f3	0.07959547
41	0xbd418791	-0.047248427
42	0x3dbe11f6	0.092807695
43	0x3db687d0	0.08912623
44	0xbca509db	-0.020146301
45	0x3dbd6385	0.092474975
46	0xbd02eea6	-0.031965874
47	0xbd947dd1	-0.0725056
48	0x3dc61bae	0.09673248
49	0x3d50d265	0.050981898
50	0x3d1ef862	0.038811095
51	0x3d39ebae	0.045390777
52	0xbc8de647	-0.017321719
53	0x3cc51357	0.024057074
54	0x3d59ac16	0.05314263
55	0xbd1def6f	-0.03855842
56	0x3da37192	0.07980646
57	0x3d05a31e	0.032626264
58	0x3cdfbdb9	0.027312146
59	0xbdc00336	-0.093756124
60	0xbcdca869	-0.026935773
61	0xbd1ad3aa	-0.037799515
62	0xbd4bf482	-0.049793728
63	0x3dd4b2cd	0.10385666
64	0x3cde0228	0.027100638
65	0xbd91eac6	-0.071248576
66	0xbd2d4c2f	-0.042308982
67	0xbd228182	-0.03967429
68	0x3da04b04	0.07826808
69	0xbd54e928	-0.051980168
70	0x3d713d33	0.058896255
71	0x3d4169bb	0.047219973
72	0xbdb5d3c2	-0.0887828
73	0xbd9faceb	-0.07796653
74	0x3b3f8cb1	0.0029228146
75	0x3d988f26	0.074491784
76	0xba34f075	-0.0006902286
77	0xbd8c7009	-0.068573065
78	0x3ca02d28	0.019552782
79	0xbc92ad57	-0.01790492
80	0xbd805bdc	-0.06267521
81	0x3c830e99	0.015998172
82	0x3db529c0	0.08845854
83	0xbdb1a7ce	-0.08674584
84	0x3d0fd8c9	0.03511885
85	0x3b8423a7	0.0040325704
86	0xbd30c6fa	-0.04315851
87	0x3d8a3ab9	0.06749482
88	0xbc905291	-0.017617496
89	0x3dd0474d	0.101698495
90	0xbdce8f80	-0.10085964
91	0x3c9977b6	0.01873384
92	0xbbc96767	-0.0061463597
93	0x3d45f45d	0.048328746
94	0xbdbbaae0	-0.09163451
95	0x3d3ca572	0.04605622
96	0xbda5af94	-0.080901295
97	0x3d8c3fb7	0.0684809
98	0xbd9043e1	-0.07044197
99	0x3cba14da	0.02271502
100	0xbd98910b	-0.0744954
101	0xbdb30999	-0.08742065
102	0x3d01f5c3	0.031728517
103	0x3d9159e1	0.07097221
104	0x3d8ada31	0.06779898
105	0xbd9d3cc3	-0.07677605
106	0xbd1db063	-0.038498294
107	0x3dbdaaa3	0.09261062
108	0x3ce13ba4	0.02749426
109	0x3c59daa0	0.013296753
110	0x3d1130d8	0.03544697
111	0xbd4332a4	-0.047655717
112	0xbc0420ac	-0.00806443
113	0x3c8d51da	0.017250944
114	0xbda6157b	-0.08109566
115	0xbc6d4d59	-0.014483773
116	0x3dd3f211	0.10348905
117	0x3bbd5d0d	0.005778915
118	0xbd176f74	-0.036971524
119	0xbd4c6630	-0.04990214
120	0xbb0a3475	-0.0021088396
121	0xbc267b01	-0.010161162
122	0xbdd2c9c6	-0.102923915
123	0x3d61da40	0.05513978
124	0xbde4fd29	-0.11181099
125	0xbcf7773f	-0.030208228
126	0xbd839e3b	-0.064266644
127	0xbd054647	-0.032537725

weight f4 [128, 128]
0	0x3d5a4740	0.053290606
1	0xbe1d380c	-0.15353411
2	0xbc641fd1	-0.013923601
3	0xbdda442c	-0.10657534
4	0x3b1a2467	0.0023520233
5	0x3d692245	0.056917448
6	0x3deea855	0.116532005
7	0x3d799036	0.060928546
8	0xbd610743	-0.054938566
9	0xbaec883c	-0.0018045972
10	0x3d5f934f	0.054583844
11	0x3b15e49d	0.002287186
12	0x3df6ddab	0.120539986
13	0xbd625e34	-0.05526562
14	0xbde68d60	-0.11257434
15	0xbd98b366	-0.074560925
16	0xbce56327	-0.028001381
17	0x3da22914	0.07917991
18	0xbddfee68	-0.10934144
19	0xbcd10d7e	-0.025519129
20	0x3b3d9544	0.002892808
21	0x3d0fca9b	0.03510533
22	0xbd6dbbee	-0.05804055
23	0x3b15d5e6	0.002286309
24	0xbc997c00	-0.018735886
25	0xbd7eccfd	-0.06220721
26	0xbc6013e6	-0.013676619
27	0x3bcb821d	0.006210579
28	0xbd760d7e	-0.06007146
29	0x3d21dabf	0.039515253
30	0x3cea8465	0.028627584
31	0x3cbec8c4	0.023289092
32	0xbbd60f51	-0.0065325876
33	0xbd974e9a	-0.07388039
34	0x3db2306a	0.087006405
35	0x3d46950a	0.04848198
36	0x3cc443c5	0.023958096
37	0x3c5942e9	0.0132605815
38	0xbd5d1376	-0.053973638
39	0xbd94af1d	-0.07259963
40	0xbc67e84f	-0.014154508
41	0xbcbd15de	-0.023081716
42	0x3d569550	0.05238849
43	0xbd4ffdfa	-0.05077932
44	0x3c27af76	0.010234704
45	0x3d44b6d4	0.04802592
46	0xbd35f555	-0.04442342
47	0xbc5f8919	-0.0136435265
48	0x3c89dfe5	0.016830394
49	0xbc3890eb	-0.01126502
50	0x3d7a5f60	0.061126113
51	0x3d2b89b5	0.041879375
52	0x3d694c02	0.056957252
53	0xbd0a6786	-0.033790134
54	0xbd8b7af4	-0.06810561
55	0xbd01d430	-0.0316965
56	0xbce070ee	-0.0273976
57	0x3dd34836	0.103165075
58	0x3c879e7d	0.016555065
59	0x3d792a2a	0.060831226
60	0xbda30281	-0.07959462
61	0x3c99c370	0.01876995
62	0x3d3dd353	0.046344113
63	0x3d9be22a	0.07611497
64	0x3da95397	0.082678966
65	0x3d68a988	0.056802303
66	0x3d839195	0.06424252
67	0xbd21289e	-0.039345376
68	0x3d26b14f	0.04069644
69	0xbc1cea9c	-0.00957742
70	0xbddba300	-0.10724449
71	0x3ce5e66b	0.028063973
72	0xbb4d0e95	-0.003128921
73	0x3cdfb70e	0.027308967
74	0xbdc0a801	-0.09407044
75	0x3c657bc8	0.0140065625
76	0xbd4048a2	-0.046944268
77	0x3c1f2ef2	0.0097157825
78	0xbd268b5e	-0.040660255
79	0x3cc8251a	0.024431754
80	0xbd7cbad6	-0.061701618
81	0x3c842a9b	0.016133597
82	0x3beadcad	0.00716742
83	0x3d85afd1	0.06527675
84	0x3dc219af	0.09477555
85	0xbd5712f9	-0.052508328
86	0x3d2f5a99	0.04281101
87	0xbd9d48d4	-0.076799065
88	0xbd15ba64	-0.03655471
89	0xbd0edaa0	-0.034876466
90	0xbde70319	-0.11279888
91	0x3d2d59c0	0.04232192
92	0xbd0eb777	-0.034842934
93	0xbcd9c919	-0.026585149
94	0x3dbd6265	0.09247283
95	0x3ce80809	0.028324144
96	0x3d3a135d	0.045428623
97	0x3cc6a830	0.02425012
98	0xbd8e73bf	-0.069556706
99	0xbd18aef7	-0.037276234
100	0x3df97ba8	0.12181789
101	0xbe035093	-0.12823705
102	0xbe3dba27	-0.18528043
103	0x3d19adf6	0.037519418
104	0x3d4f61f9	0.050630543
105	0x3d98d604	0.07462695
106	0xbc7c42c2	-0.015396776
107	0x3c24d60c	0.010060798
108	0xbd968aca	-0.07350691
109	0xbd427c54	-0.04748185
110	0xbd8d30c2	-0.068940654
111	0xbdb98bf0	-0.09059894
112	0x3d68df95	0.05685385
113	0x3dac4663	0.08411863
114	0x3db2bb16	0.0872709
115	0xbd1231b6	-0.03569194
116	0x3d9df2fb	0.077123605
117	0xbcb57e9f	-0.022155104
118	0x3d62d0c5	0.05537488
119	0xbda60386	-0.08106141
120	0xbca6a815	-0.02034382
121	0xbafcd50d	-0.0019289568
122	0xbba745c6	-0.005104753
123	0x3d0a4dd1	0.033765618
124	0xbb84441a	-0.0040364387
125	0xbd465534	-0.0484211
126	0x3d9974ed	0.07493005
127	0x3c590dfb	0.013247962
128	0x3cfad9c3	0.030621415
129	0xbd94efc9	-0.07272298
130	0x3cbe9a26	0.023266863
131	0x3daf7f79	0.08569235
132	0x3d388a67	0.045053866
133	0x3d560931	0.05225486
134	0xbd324ed9	-0.043532226
135	0x3dbfc45e	0.09363626
136	0xbc8193fa	-0.015817631
137	0x3d38c4c2	0.045109518
138	0x3c9f9069	0.01947804
139	0xbd5ae04e	-0.05343657
140	0x3c39557c	0.011311885
141	0x3d4b62a5	0.04965462
142	0xbe13d759	-0.14437617
143	0x3c06a814	0.008218784
144	0xbda7c049	-0.08190972
145	0x3d0cfec7	0.034422662
146	0xbdc4ab3b	-0.09602972
147	0xbe11f03f	-0.14251803
148	0xbcc6aee5	-0.024253318
149	0x3c39ef18	0.011348508
150	0x3de4869c	0.11158487
151	0x3d8844bb	0.06653734
152	0x3bed7d36	0.0072475923
153	0x3d8ca9aa	0.06868298
154	0x3cb7a790	0.022418767
155	0xbca3495d	-0.019932443
156	0x3c4949d4	0.012285668
157	0x3b2a723c	0.002600803
158	0xbcaac136	-0.020844083
159	0xbc9309f5	-0.017949084
160	0xbd98f18d	-0.07467947
161	0xbda2a838	-0.079422414
162	0x3c401988	0.011724837
163	0x3d1ea236	0.038728915
164	0xbdfbbb10	-0.12291539
165	0x3cb54aab	0.022130331
166	0x3e0f73fe	0.14009091
167	0xbd166634	-0.036718562
168	0xbae81ccb	-0.0017708776
169	0x3d00c873	0.031441163
170	0xbd84ccdc	-0.06484386
171	0x3c8d5d10	0.01725629
172	0xbd4ec868	-0.05048409
173	0xbdbe76b0	-0.092999816
174	0xbd98eb16	-0.07466714
175	0x3d455d1b	0.048184495
176	0x3df9da6b	0.12199863
177	0xbdb6e251	-0.08929885
178	0xbd2303ab	-0.03979842
179	0x3c2e5ea9	0.010642686
180	0x3c4cbfbe	0.012496887
181	0xbd78e0b9	-0.060761187
182	0xbc8ab4c2	-0.016931895
183	0x3d93fae7	0.0722559
184	0xbe121d96	-0.14269099
185	0xb96e68fb	-0.00022736557
186	0x3e16f732	0.14742735
187	0xbda2e56a	-0.079539135
188	0xbd3d4a0f	-0.046213206
189	0xbd1f1029	-0.03883377
190	0xbb00936d	-0.0019619123
191	0xbc997274	-0.018731333
192	0x3cc13d9b	0.023588946
193	0xbd59143f	-0.052997824
194	0x3bf01932	0.0073272223
195	0xbc78f4c8	-0.015195079
196	0xbc6440a2	-0.013931425
197	0xbd33caae	-0.043894462
198	0xbde316e8	-0.110883534
199	0x3d788349	0.06067208
200	0x3dbbebd5	0.09175841
201	0x3ac082a5	0.0014687373
202	0xbd885a28	-0.06657821
203	0x3d93426d	0.07190404
204	0xbe06ceac	-0.13164777
205	0xbd24f9a9	-0.040277157
206	0x3d8f3edd	0.06994412
207	0xbd2385de	-0.039922588
208	0xbda66418	-0.0812456
209	0x3d5cae6c	0.05387728
210	0xbde03882	-0.10948278
211	0x3e0172d8	0.12641466
212	0x3da6fcb6	0.081536695
213	0xbd82d397	-0.06388014
214	0xbd91695a	-0.07100172
215	0xbd9bc12a	-0.076052025
216	0xbdba3c11	-0.09093488
217	0x3bf8975d	0.0075864033
218	0x3cf11394	0.02942828
219	0x3d762ae7	0.06009951
220	0xbd1231de	-0.03569209
221	0xbd975534	-0.07389298
222	0xbd7edad6	-0.062220417
223	0x3d53b547	0.05168655
224	0x3d86d716	0.06583993
225	0x3d5d16d4	0.05397685
226	0xbccbc428	-0.024873808
227	0xbda95e11	-0.08269895
228	0x3e08e2f8	0.13367832
229	0xbd831e75	-0.064022936
230	0xbdab1075	-0.08352748
231	0xbc824765	-0.015903184
232	0xbddff4e6	-0.109353825
233	0xbc9b8ef1	-0.018989058
234	0x3c4bd5cc	0.01244111
235	0xbd59c7be	-0.053169005
236	0xbd2e8a0e	-0.042612128
237	0xbae0bc04	-0.0017145877
238	0x3c20fa69	0.009825327
239	0x3ce2e0d6	0.0276951
240	0x3cbf77d9	0.023372578
241	0x3d9b2ee5	0.07577304
242	0x3d4eb3f2	0.050464578
243	0xbd5b9d8a	-0.053617038
244	0xbce3d51f	-0.027811585
245	0xbdc8c625	-0.09803418
246	0x3e222431	0.15834118
247	0xbc2a6870	-0.010400876
248	0x3d1a7076	0.037704907
249	0x3d6f77bb	0.058463793
250	0x3d244373	0.040103387
251	0xbdc4aafd	-0.09602926
252	0x3da3d4a4	0.07999542
253	0xbdbb7e2f	-0.09154927
254	0x3c86e951	0.016468676
255	0xbce99bbc	-0.028516643

bias f4 [128]
0	0x3dc7d1d4	0.097568184
1	0xbcefba34	-0.029263593
2	0x3cf4d57a	0.02988695
3	0xbd0785f6	-0.03308674
4	0x3b26109c	0.002533949
5	0xbd9a21af	-0.07525956
6	0x3d44a5ac	0.04800956
7	0x3d4eb1dd	0.050462592
8	0x3d9715a7	0.07377177
9	0x3dc1968d	0.094525434
10	0xbd221e5b	-0.03957973
11	0xbd0e1023	-0.034683358
12	0x3db23011	0.08700574
13	0xbd27fcc3	-0.041012537
14	0x3b0fe61b	0.0021957222
15	0xbc959aa7	-0.01826222
16	0x3d25b6cd	0.040457536
17	0xbc1cbbf5	-0.009566297
18	0x3ca31c8d	0.019911075
19	0x3d495c25	0.04916014
20	0xbd012e5a	-0.031538345
21	0x3dc0f4d9	0.09421701
22	0xbd5614ac	-0.052265808
23	0x3db45630	0.088055015
24	0xbc1a3377	-0.009411684
25	0xbc2e085a	-0.010622108
26	0x3d443425	0.04790129
27	0xbc442335	-0.011971285
28	0x3d3c1e37	0.045927253
29	0x3d814756	0.063124344
30	0xbd24f2a4	-0.040270463
31	0xbc5e8a53	-0.013582784
32	0x3d526876	0.051369153
33	0xbce1d770	-0.027568549
34	0x3c6d72b1	0.014492677
35	0x3d8758c3	0.06608727
36	0xbcd76ba7	-0.02629645
37	0x3d102cdf	0.035199042
38	0xbca36614	-0.019946136
39	0xbc814d82	-0.015784029
40	0xbd126a54	-0.035745934
41	0xbbd274c6	-0.006422612
42	0xbd32d2bf	-0.043658014
43	0xbbc5028a	-0.0060122656
44	0xbd585474	-0.052814916
45	0x3daab012	0.08334364
46	0xbd351b49	-0.044215474
47	0xbd39b92a	-0.0453426
48	0x3df4c20b	0.11951073
49	0xbd10d394	-0.035358027
50	0x3da4f224	0.08053997
51	0x3ce3703b	0.027763477
52	0x3d9b877c	0.07594201
53	0xbdb4296a	-0.087969616
54	0x3d01b104	0.031662956
55	0xbd8b8056	-0.068115875
56	0x3d2453c7	0.04011896
57	0x3c1d26ca	0.009591768
58	0xbd23cd41	-0.039990667
59	0x3dd199e9	0.10234434
60	0xba2796d6	-0.0006393021
61	0xbc920856	-0.01782624
62	0x3c9b35d2	0.018946562
63	0x3dc8636a	0.09784587
64	0xbca79c5e	-0.020460304
65	0x3e08cb0a	0.13358703
66	0xbd0859f3	-0.033288907
67	0x3dac6ad1	0.08418811
68	0x3dcf6e3c	0.101284474
69	0xbd39b3b6	-0.0453374
70	0xbd826424	-0.063667566
71	0x3c2000b8	0.009765796
72	0x3d6e8b4e	0.05823832
73	0x3d0254b6	0.031819068
74	0xbb808f9b	-0.003923369
75	0xbbd0109d	-0.0063496367
76	0x3dc03b0c	0.09386262
77	0x3c719965	0.014746045
78	0xbd436fad	-0.047713924
79	0x3dd6909f	0.10476803
80	0xbcd4d280	-0.02597928
81	0x3ce103a3	0.027467554
82	0x3dcee18b	0.10101613
83	0xbc3e0f51	-0.011600331
84	0x3d91d437	0.07120555
85	0x3dc12206	0.094303176
86	0xbcd0c080	-0.025482416
87	0xbc79b59b	-0.015241052
88	0x3da511f2	0.080600634
89	0x3c0f6d23	0.008754048
90	0x3d94fb0c	0.07274446
91	0x3cc28598	0.023745343
92	0x3dc80374	0.09766284
93	0xbd18c3e7	-0.037296202
94	0x3d1b3871	0.037895624
95	0x3dcf0ef1	0.10110272
96	0xbd4c7c2f	-0.04992312
97	0x3da68d5f	0.08132433
98	0x3d256152	0.040376015
99	0x3d7157cb	0.058921617
100	0xbd998827	-0.07496672
101	0x3d85829e	0.06519054
102	0x3db48ce8	0.08815938
103	0x3da76e72	0.08175363
104	0xbd1b7ea0	-0.037962556
105	0xbdc9ecf9	-0.09859652
106	0xbd5393f2	-0.051654764
107	0xbcad5bcb	-0.021161934
108	0x3d8f36af	0.06992852
109	0x3ab49cfc	0.0013779695
110	0x3d952008	0.072815
111	0xbd57c7e7	-0.052680876
112	0xbcc71160	-0.024300277
113	0x3b76a8df	0.0037637276
114	0x3dc264a7	0.09491854
115	0x3d88fa6e	0.06688391
116	0xbdd0563f	-0.101727
117	0x3dd919d4	0.106006294
118	0x3c8e3456	0.01735894
119	0xba0a4125	-0.00052739895
120	0x3d6607a3	0.056159627
121	0x3b344851	0.0027508924
122	0xbc16d3f4	-0.009205807
123	0xbc9c6791	-0.019092353
124	0x3d5c4380	0.05377531
125	0x3dbcc598	0.092173755
126	0x3d5f4678	0.054510564
127	0xbaac6257	-0.0013151866

weight f4 [128, 128]
0	0x3c8d0256	0.017213028
1	0xbc8abc6d	-0.016935552
2	0x3daf9e38	0.085751
3	0x3d4d67ab	0.050147694
4	0xbc0adae0	-0.008475035
5	0x3d4d2bca	0.05009059
6	0x3dd30c48	0.10305077
7	0x3d972671	0.07380379
8	0xbd8dd909	-0.06926162
9	0xbdb33721	-0.087507494
10	0xbc3a48ed	-0.011369926
11	0x3dd15637	0.10221522
12	0xbc12a483	-0.008950355
13	0xbdadbae0	-0.08482909
14	0xbd2979c5	-0.041375894
15	0xbd4288b5	-0.047493655
16	0x3b8add33	0.004237795
17	0x3cf80a5f	0.030278383
18	0x3d99f65b	0.07517692
19	0x3c4c6b70	0.012476787
20	0x3c46743b	0.012112672
21	0x3d1a9182	0.037736423
22	0xbcd165e0	-0.025561273
23	0x3dc1b72f	0.094587676
24	0x3dddfab5	0.10838834
25	0xbd8a2ebb	-0.067471944
26	0xbd5ac6bf	-0.053412195
27	0xbd921b86	-0.07134156
28	0x3e093c78	0.13401973
29	0xbd237e1a	-0.03991518
30	0xbd6e0112	-0.05810649
31	0xbd091991	-0.033471648
32	0xbd522cd2	-0.051312275
33	0x3dcc74e9	0.09983236
34	0xbc612fa5	-0.0137442695
35	0xbda30024	-0.07959011
36	0x3d665272	0.05623097
37	0x3a1de724	0.00060235173
38	0xbb8be1f3	-0.0042688786
39	0xbe0917bd	-0.13387962
40	0x3caa44b6	0.020784717
41	0x3d27205d	0.04080235
42	0xbc8ccb61	-0.017186822
43	0x3dabe94f	0.083941095
44	0xbadb2738	-0.0016720062
45	0x3c230a7d	0.009951231
46	0x3cc0b832	0.023525331
47	0xbdeb8f93	-0.11501994
48	0x3d91eb79	0.07124991
49	0xbc98d15e	-0.018654522
50	0xbd404bed	-0.04694741
51	0x3d5bebe7	0.05369177
52	0x3bc404a5	0.005981999
53	0x3dfc9e63	0.12334897
54	0x3d284f16	0.041091047
55	0x3dc09fc9	0.094054766
56	0xbd0ae190	-0.03390652
57	0x3d59aaf4	0.05314155
58	0x3d7f76c1	0.062369112
59	0xbd23f3f0	-0.04002756
60	0x3db4a961	0.08821369
61	0xbd8a0de6	-0.06740932
62	0x3cf8d32a	0.030374128
63	0x3d266dde	0.04063212
64	0xbd6492e8	-0.055804163
65	0x3cecf946	0.028927457
66	0x3dbba08e	0.09161483
67	0xbd91049c	-0.07080957
68	0x3dda8c66	0.1067131
69	0x3c0d39cc	0.008619737
70	0x3e044f67	0.12920915
71	0xbd337b51	-0.043818776
72	0x3dc5eb68	0.09664041
73	0xbd0d4347	-0.03448799
74	0x3d79c352	0.060977288
75	0x3c3d794b	0.011564563
76	0xba0ebcdc	-0.00054450124
77	0xbd0a4046	-0.033752702
78	0xbd61b295	-0.05510195
79	0x3e0b598a	0.13608375
80	0x3d53ca67	0.051706698
81	0xbc916173	-0.017746663
82	0xb938b6c4	-0.00017615693
83	0x3cd9a9e2	0.026570264
84	0x3e4cc16d	0.19995661
85	0x3db1f223	0.08688762
86	0xbe1a7940	-0.15085316
87	0x3da7f0c8	0.08200222
88	0xbd2088a2	-0.039192803
89	0xbc9755b1	-0.018473478
90	0x3dc1687f	0.09443759
91	0xbc65c4cb	-0.01402397
92	0x3e29e525	0.16591318
93	0xbcb0d1f5	-0.02158449
94	0xbb212296	-0.0024587265
95	0xbd15783d	-0.03649162
96	0x3dbbdefd	0.09173391
97	0xbd38bc21	-0.04510129
98	0xbe02d6d3	-0.12777261
99	0xbdd430fd	-0.10360906
100	0x3c133e66	0.008987045
101	0x3db07294	0.08615604
102	0x3db3e7a1	0.08784414
103	0xbc30d091	-0.010791914
104	0x3d64d0f3	0.055863332
105	0xbd946d30	-0.07247388
106	0xbcc8f3b5	-0.024530271
107	0xbca3b629	-0.019984322
108	0xbd48b8a1	-0.0490042
109	0x3dbf126b	0.09329685
110	0xbc57c2b4	-0.013168979
111	0xbd2477d0	-0.040153325
112	0x3d9e5ba7	0.07732325
113	0x3d325ecd	0.04354744
114	0x3d0447cc	0.032295033
115	0xbc15237d	-0.009102699
116	0xbc47c741	-0.012193502
117	0x3dc7eaf3	0.0976161
118	0xbd6ae2e8	-0.0573453
119	0x3da06bbd	0.078330494
120	0xbc9c4c57	-0.01907937
121	0x3dbf1c4a	0.093315676
122	0xbc8a00d2	-0.016846094
123	0x3ce82e9b	0.028342536
124	0xbdb235a6	-0.08701639
125	0x3dce0aa1	0.10060621
126	0x3d97f3ee	0.07419573
127	0x3ba8653b	0.0051390207
128	0x3ceba448	0.028764859
129	0x3c7b3d29	0.015334406
130	0xbda7d150	-0.0819422
131	0x3bfea71c	0.007771386
132	0xbd01e7e4	-0.03171529
133	0x3d8b8d28	0.06814033
134	0xbdaefc3e	-0.08544205
135	0xbbdaf48b	-0.006681984
136	0xbd2f40f6	-0.04278656
137	0xbda82340	-0.082098484
138	0xbd6f1ab1	-0.058375064
139	0xbdb05cbe	-0.08611439
140	0xbca697c2	-0.020336036
141	0x3da02a87	0.078206114
142	0x3cba4099	0.02273588
143	0xbcc1a91d	-0.02364021
144	0xbd8813e6	-0.0664442
145	0xbd8009eb	-0.06251892
146	0xbd3e257a	-0.04642246
147	0xbd14cfd7	-0.036331024
148	0xbd1b00e2	-0.03784264
149	0xbc436368	-0.011925556
150	0xbc65e749	-0.014032193
151	0xbc8ab3fd	-0.016931528
152	0xbd8fb66d	-0.07017217
153	0xbd9adb2f	-0.07561337
154	0xbd87b78b	-0.06626805
155	0x83cb913b	-1.1964611e-36
156	0x3d975f04	0.0739117
157	0xbd6a9954	-0.05727513
158	0x3d3df231	0.04637355
159	0x3da6c1dc	0.081424445
160	0x3d235786	0.03987839
161	0xbd9d94d7	-0.076944046
162	0xbdc707f4	-0.09718314
163	0x3c04315c	0.008068409
164	0xbda335a4	-0.079692155
165	0x3bd1b297	0.0063994634
166	0x3c67f338	0.014157109
167	0xbb5c3818	-0.003360277
168	0xbd0e9583	-0.034810554
169	0x3d3f5c05	0.046718616
170	0x3d686a06	0.056741737
171	0xbd966d41	-0.07345057
172	0xbbe65241	-0.0070288484
173	0xbd627d20	-0.05529511
174	0xbc811909	-0.015759008
175	0x3cc1bf63	0.02365083
176	0xbcc4882f	-0.023990719
177	0x3d150b4b	0.036387723
178	0xbd8c8c51	-0.06862701
179	0x3b05de26	0.00204266
180	0xbd0496c2	-0.032370336
181	0x3d81a6c8	0.06330639
182	0xbcbd8a44	-0.02313722
183	0xbcebd9b2	-0.028790329
184	0x3ced5d1b	0.02897506
185	0xbd3bba36	-0.04583188
186	0xbc4d57ab	-0.012533109
187	0xbb935297	-0.0044959295
188	0x3d81aa18	0.06331271
189	0xbd918c63	-0.07106855
190	0xbc347f18	-0.01101663
191	0x3cf5e38f	0.030015735
192	0xbc1450b7	-0.009052447
193	0x3d971f77	0.07379048
194	0x3c75d3b7	0.01500409
195	0xbd199809	-0.037498508
196	0x3cfc0b51	0.030767115
197	0xbd69332b	-0.056933563
198	0xbb036987	-0.0020051913
199	0xbd647d52	-0.055783577
200	0xbda0efd1	-0.07858241
201	0x3d58f44e	0.052967362
202	0x3c8b9810	0.017040282
203	0x3c783e6b	0.0151516
204	0x3b6635d9	0.003512731
205	0xbd8b682d	-0.06806979
206	0x3d9031a7	0.070407204
207	0xbc3add86	-0.011405354
208	0x3d2e00ae	0.042481117
209	0x3d201cf7	0.039090123
210	0xbc94420f	-0.018097905
211	0x3d521ee5	0.051298995
212	0x3d671ef4	0.056426004
213	0x3da0a8bc	0.078446835
214	0xbd2aec01	-0.041728977
215	0x3cfc26ed	0.03078028
216	0x3d7e94d1	0.06215364
217	0xbdbc7091	-0.09201158
218	0xbca2ca67	-0.019871904
219	0xb91a1646	-0.00014694882
220	0xbca62bd6	-0.020284574
221	0x3c333608	0.010938175
222	0xbce92f93	-0.028465068
223	0xbd03b244	-0.03215243
224	0xbd8b2379	-0.06793875
225	0xbda9a5c5	-0.08283571
226	0x3a3942e0	0.0007067155
227	0x3d6395a7	0.05556264
228	0xbb001bdd	-0.0019547858
229	0xbd0dfb21	-0.034663323
230	0xbce9893a	-0.028507818
231	0x3d22a4f6	0.0397081
232	0x3d6eff6c	0.058349058
233	0x014d5550	3.7713762e-38
234	0xbba7caf6	-0.0051206304
235	0x3d184ddd	0.03718363
236	0x3bb86aa6	0.005627948
237	0xbd48f16a	-0.049058355
238	0xbd82d4d1	-0.06388248
239	0xb9fd33fd	-0.00048294655
240	0x3d732a89	0.059366737
241	0x3d07af37	0.033126082
242	0x3c47b8a5	0.012190019
243	0x3ccda667	0.02510376
244	0x3d7705a1	0.060308103
245	0xbd187ef2	-0.03723044
246	0x3d363fc8	0.04449442
247	0xbd84b8c9	-0.064805575
248	0xbd475971	-0.048669282
249	0xbd377456	-0.04478868
250	0x3d7fd6df	0.062460776
251	0xbd662206	-0.05618479
252	0xbdbce040	-0.0922246
253	0x3d37f122	0.044907697
254	0x3d1f5f70	0.038909376
255	0xbda1efa3	-0.07907035

bias f4 [128]
0	0x3d9172a1	0.07101942
1	0xbd664cb2	-0.056225486
2	0xbcd03232	-0.02541456
3	0x3d4000d3	0.046875786
4	0x3cf916c9	0.030406373
5	0x3c4d3d90	0.012526885
6	0x3e0ddba6	0.1385332
7	0xbd3488ce	-0.04407578
8	0xbdb7aa6a	-0.08968051
9	0x3dbdd5a5	0.09269265
10	0xbd82604c	-0.063660234
11	0x3a6a4c16	0.0008937729
12	0x3d372ac8	0.044718534
13	0xbc19681a	-0.009363199
14	0x3d903970	0.07042205
15	0xbd5295a4	-0.05141224
16	0x3bec0b43	0.007203491
17	0x3dd7a91d	0.10530303
18	0xbd209837	-0.039207663
19	0xbc56928a	-0.013096461
20	0x3cca1ac6	0.02467097
21	0x3c5c6d78	0.013453834
22	0x3c22257c	0.009896632
23	0x3d82d1e9	0.063876934
24	0xbd874489	-0.06604869
25	0x3ddbf53c	0.10740134
26	0xbc90ffb0	-0.017700046
27	0xbcdc4c5e	-0.026891883
28	0x3da91a7d	0.08257005
29	0xbc8f1349	-0.01746525
30	0x3be2df53	0.006923595
31	0x3a33078a	0.00068294315
32	0xbc3f5945	-0.011678998
33	0xbdcb1b25	-0.09917287
34	0x3dcabcf8	0.09899324
35	0x3dfc6841	0.12324572
36	0x3c2c5512	0.010518329
37	0x3e01c455	0.12672551
38	0x3da9a373	0.082831286
39	0x3be2deaf	0.0069235186
40	0xbd82899f	-0.063739054
41	0x3d3e4edf	0.046461936
42	0x3d9fa02b	0.077942215
43	0xbde15d95	-0.110041775
44	0x3c2d1d44	0.0105660595
45	0x3d976b16	0.07393472
46	0x3e101bd2	0.14073113
47	0x3d535fba	0.051604964
48	0x3da4ab3e	0.08040474
49	0x3d659237	0.056047644
50	0x3d84ac68	0.064781964
51	0xbc1134dd	-0.008862701
52	0x3d5e8f76	0.054336034
53	0x3d849467	0.06473618
54	0xbd191bea	-0.037380137
55	0xbdbcf8f5	-0.09227172
56	0x3bef97c4	0.007311793
57	0x3d05793d	0.032586325
58	0x3de1c6a2	0.11024214
59	0x3db47280	0.08810902
60	0x3b461df1	0.0030230249
61	0x3dafe2e8	0.08588201
62	0x3c787b8b	0.015166174
63	0x3dd99d66	0.106257245
64	0xbd5f640d	-0.054538775
65	0x3d5ae82d	0.053444076
66	0x3db033de	0.08603643
67	0x3e03feb9	0.12890138
68	0xbc65fcf2	-0.014037358
69	0xbd18c988	-0.03730157
70	0x3cf6708c	0.030082963
71	0x3d933a09	0.07188804
72	0x3d2a5ef2	0.041594453
73	0x3d6bb177	0.05754229
74	0x3cc3abe9	0.023885684
75	0x3d0376ea	0.032095827
76	0x3ca0093c	0.019535653
77	0x3ddfb905	0.109239615
78	0xbd25b00b	-0.04045109
79	0x3de55bc3	0.11199143
80	0xbc5ff9a4	-0.013670359
81	0x3ded647f	0.11591434
82	0x3de1ea7a	0.11031051
83	0x3d0daac3	0.03458668
84	0x3d24d872	0.04024548
85	0x3cddd3ad	0.027078474
86	0x3ce9cf5c	0.02854126
87	0x3d0bf026	0.03416457
88	0x3db1d188	0.08682543
89	0x3dcaf1e7	0.099094205
90	0x3e0853ff	0.13313292
91	0x3cf77359	0.03020637
92	0xbd594110	-0.053040564
93	0x3daae76a	0.0834492
94	0x3dedfe71	0.116207965
95	0xbc9491ff	-0.018136023
96	0x3dc20e5d	0.09475396
97	0xbd4f51d8	-0.05061516
98	0x3d61d51a	0.05513487
99	0xbd718ff1	-0.058975164
100	0x3d6be46e	0.057590894
101	0x3d4cee2a	0.05003182
102	0xbbce8ff5	-0.006303782
103	0x3da4fd3f	0.08056115
104	0x3c6749ac	0.014116686
105	0x3e019987	0.12656222
106	0x3db88bad	0.09011016
107	0x3d02f46c	0.03197138
108	0x3d73752a	0.05943791
109	0x3dc39b9c	0.095511645
110	0x3d050002	0.03247071
111	0x3df6bf53	0.12048211
112	0x3c96fd3b	0.018431297
113	0x3db73bbc	0.0894694
114	0x3d54f11a	0.051987745
115	0xbdc0a979	-0.09407324
116	0xbcdf9ebd	-0.027297372
117	0xbabf6288	-0.0014601508
118	0xbd4719a3	-0.048608433
119	0xbd7cad73	-0.06168885
120	0x3d9744cf	0.07386171
121	0x3dd21bb7	0.102591924
122	0x3d883bd3	0.066520356
123	0xbcccd3dd	-0.025003368
124	0x3d0d72b4	0.034533218
125	0x3d16d893	0.036827635
126	0x3d8c2121	0.06842256
127	0x3e0b738c	0.13618296

weight f4 [1, 128]
0	0xbdb064f1	-0.08613003
1	0x3cde08d1	0.027103813
2	0x3d34d1c8	0.044145375
3	0x3c8c7cfa	0.017149437
4	0xbd8eaa2a	-0.0696605
5	0x3cf65db6	0.030073982
6	0xbddaf5f2	-0.106914416
7	0x3df38cd0	0.11892092
8	0x3ca17987	0.019711269
9	0x3e0522b0	0.13001513
10	0x3ba79edb	0.0051153726
11	0xbd507fe2	-0.05090321
12	0x3dce04b3	0.1005949
13	0xbda8ae99	-0.08236427
14	0x3d9654f9	0.07340426
15	0x3d5283b0	0.05139512
16	0xbdbbd95a	-0.09172316
17	0xbd0c28ed	-0.034218717
18	0x3d618862	0.055061705
19	0xbdb3c489	-0.087777205
20	0xbd96d6b0	-0.07365167
21	0xbce3a18d	-0.027786994
22	0xbd86112b	-0.06546243
23	0x3ca81421	0.02051741
24	0xbdde198a	-0.10844715
25	0xbe087754	-0.1332677
26	0x3d9bf04d	0.07614193
27	0xbd191a38	-0.03737852
28	0xbdcd46ef	-0.10023295
29	0xbd8b5662	-0.068035856
30	0xbdcb01f6	-0.099124834
31	0xbd807618	-0.062725246
32	0x3dd360d1	0.10321201
33	0x3d5ddb09	0.054163966
34	0xbdaa9a86	-0.08330254
35	0xbda4476a	-0.08021434
36	0xbd873ef5	-0.06603805
37	0xbd64a825	-0.055824418
38	0x3dde5d18	0.108576
39	0x3d12bc9c	0.035824403
40	0x3d755158	0.05989203
41	0x3dda6d10	0.10665333
42	0x3dea5e30	0.11443746
43	0x3d24583a	0.040123202
44	0xbd0687cc	-0.03284435
45	0x3dd4455a	0.1036479
46	0xbd877183	-0.066134475
47	0xbcd72963	-0.026264852
48	0x3e383aa6	0.17991123
49	0xbdc1cba8	-0.094626725
50	0xbd837b07	-0.0641995
51	0xbd3c9066	-0.046036147
52	0x3d8553ca	0.06510122
53	0xbd078861	-0.033089045
54	0x3d21ced1	0.039503876
55	0x3d2e52d0	0.042559445
56	0xbdda2a0a	-0.106525496
57	0xbd91feba	-0.07128663
58	0xbdd031f5	-0.101657785
59	0xbda175ff	-0.07883834
60	0x3da1e5f1	0.07905186
61	0x3de66472	0.11249627
62	0xbdce4291	-0.1007129
63	0xbd93ffb4	-0.07226506
64	0x3d8101cc	0.06299171
65	0xbded61f4	-0.11590949
66	0x3e24d830	0.16098094
67	0xbd69f1f4	-0.05711551
68	0xbbfcdabe	-0.007716506
69	0x3cbaaf03	0.02278853
70	0xbd56bb2e	-0.052424602
71	0x3e155dab	0.14586513
72	0x3d907dcf	0.07055246
73	0xbe105ae1	-0.14097168
74	0x3e24b499	0.16084518
75	0x3dd499a7	0.10380869
76	0xbbb9078d	-0.005646652
77	0xbd504245	-0.05084445
78	0x3d23631e	0.039889447
79	0xbd041de1	-0.032255057
80	0xbdc4c1c1	-0.09607268
81	0xbd8c2ccf	-0.06844484
82	0xbda6afae	-0.08138977
83	0xbd4b7bb0	-0.049678504
84	0xbda4aa2f	-0.080402724
85	0xbd92373d	-0.07139442
86	0xbdc220db	-0.09478923
87	0x3d0ed959	0.034875248
88	0x3d6bab80	0.057536602
89	0xbdd7850d	-0.10523424
90	0xbdd50209	-0.10400779
91	0xbd853ed6	-0.06506126
92	0x3adb3895	0.0016725237
93	0xbd1c047b	-0.03809021
94	0xbd0f3fbe	-0.0349729
95	0xbd646a3e	-0.055765383
96	0xbd17496a	-0.036935247
97	0x3b801b66	0.003909516
98	0xbd440d75	-0.047864396
99	0x3c533740	0.012891591
100	0xbdfa0390	-0.12207711
101	0x3d82a8f0	0.063798785
102	0x3d205ffd	0.03915404
103	0x3db4210b	0.08795365
104	0xbd90a26d	-0.0706223
105	0x3e16862b	0.14699619
106	0x3def7feb	0.1169432
107	0xbda8b812	-0.082382336
108	0x3db11d8c	0.08648214
109	0x3df47ed5	0.11938254
110	0x3d463d70	0.048398435
111	0x3dee284f	0.11628782
112	0xbd863413	-0.06552901
113	0xbd729fc6	-0.059234403
114	0x3e06ab05	0.13151176
115	0x3d37f68b	0.044912856
116	0xbcfd75da	-0.030939985
117	0xbdda4c57	-0.10659092
118	0xbb84d47a	-0.0040536495
119	0x3d85d609	0.065349646
120	0x3d9cbf85	0.07653717
121	0xbdca6cc7	-0.09884029
122	0x3d496db0	0.04917687
123	0x3cfd81fb	0.030945769
124	0xbdae9d3e	-0.08526085
125	0xbd9e5797	-0.0773155
126	0x3d8b3c28	0.06798583
127	0xbdd7448f	-0.105111234
